weights/livetest5_intersection_0_1_bn.pth (torch, 511736 bytes, 14 tensors)

fc1.weight f8 [256, 52]
-0.20989060382967664 -0.08556526675484588 -0.05869853971737444 0.07403472259122365 -0.2280201618855324 0.20171516946664236 0.11277258748968821 0.1616757841881242
0.025368121491895136 -0.035466818507358756 -0.06958512961864471 -0.12163183093070984 0.08242334022322598 0.14364090581719283 -0.055351998656988144 -0.10795200616121292
0.13849804891372702 0.07041747944528533 -0.09539872407913208 0.06256889551877975 0.08768280407175627 0.13394495142369942 0.07315663248300552 -0.05893765017390251
-0.08604713827010567 -0.125389387552445 -0.0886610895395279 0.05637173727154732 -0.14089354330254214 0.18429652899350923 0.04417324811220169 -0.06212420016527176
-0.078757776451688 -0.05891448507317762 -0.05597086623311043 0.05477239191532135 0.043661203642965 0.037502975957791965 -0.04974203556776047 -0.1247941181063652
0.015409971081040608 0.03933257224655726 0.048652783036231995 -0.04850295931100845 -0.1783351122134559 0.1930997721206192 0.07016777992248535 -0.0865498036146164
0.09409462913459643 0.040101146404192343 -0.08845135569572449 0.05230006203055382 0.02853402207111568 0.17514567814706894 0.07972922742074587 -0.10833273723182762
0.023233712803128272 -0.008612738235111024 -0.010455656913600399 0.012094197943399485 -0.11306153795578916 -0.07555918392144532 0.006204613950103521 0.10017881542444229
0.12869816515404753 0.10959244050618075 -0.06023780629038811 -0.07070653885602951 0.042337902475821615 0.12665789612914471 -0.08739473670721054 0.03083948977291584
-0.203663777759065 -0.2656764318360061 0.11409296095371246 0.043918583542108536 0.18229892089407718 -0.13104323863365927 -0.07590164244174957 0.13174699246883392
0.13068549229378573 -0.17571986953936877 -0.12432368099689484 0.13332389295101166 -0.13991603099715424 0.000997723825586743 0.12773308157920837 -0.13490645587444305
0.23536067296816698 -0.043325662102974914 0.106949083507061 0.01534175779670477 0.014239813834573949 0.07902802022241463 -0.07108187675476074 -0.11308339238166809
0.05648052983205249 -0.08199680909258608 0.0833405926823616 0.0829702690243721 0.03764735532253006 -0.027425408398096793 0.027956338599324226 0.061749253422021866
-0.11213621038264114 0.10662002366482717 -0.03616976905457517 -0.001152387948097873 0.00274586698185841 0.1477398709937419 -0.04569790429508255 -0.15741990797080177
0.08205923283819073 -0.1702670070463472 -0.012080403044819832 0.03355613723397255 0.12251230204856083 -0.13479312622173062 -0.1129709929227829 0.049149882048368454
-0.011506953829151354 -0.023362559348142502 0.09699241071939468 0.13757094740867615 0.026878644007079306 -0.13917420212119055 -0.12164971977472305 -0.0990259200334549
0.049583688369956316 -0.04150080178842081 -0.0350213423371315 0.11599709093570709 -0.079678945463128 -0.02618172744022889 -0.07595798373222351 -0.06399794667959213
0.0876762355450865 -0.0004837813854905767 0.06729740649461746 -0.03661549463868141 0.19631087694598695 -0.12374095807183301 0.015361545607447624 -0.11957740038633347
-0.06448478115488311 0.029993071513170218 0.09502028673887253 0.08588792383670807 -0.1042251554343317 0.16150162026492365 0.05992204323410988 -0.11364707350730896
-0.015309812278286069 -0.03802797470225037 -0.006684287916868925 0.13049164414405823 -0.12051863666695246 -0.09097523127980595 -0.12740992935679082 0.11370003743274615
-0.03409570902217789 -0.018709540726628855 0.11877122404718146 0.19842220195091018 0.09652104432735686 0.04253527876918469 -0.10773192346096039 -0.08642636239528656
0.22085413651266494 -0.10982649792978529 -0.09673634171485901 -0.010179776698350906 0.0021964949184251487 -0.07074035517699175 0.011610779911279678 0.06374257057905197
-0.23596308985656703 0.19349412727723908 0.04973249509930611 -0.08294735848903656 -0.11208614008042887 -0.2260516204857953 0.11330609768629074 0.02381443977355957
0.11003894712923852 0.16272613695317228 -0.005277948919683695 -0.0871787890791893 -0.039861757744972366 -0.11690112212513584 0.03788797929883003 -0.04942542687058449
-0.1780663376960364 -0.17877399697120078 0.09427431225776672 0.08304987102746964 0.029695332444539355 0.0751729125486238 0.07574914395809174 0.06621397286653519
-0.002433218901812314 0.12720251119076828 0.11612973362207413 0.04122951254248619 -0.1176925806910744 0.01774592853269124 0.1373368501663208 0.03505286946892738
-0.26563525559408646 -0.3740319991360319 0.002613237102766036 0.007381946120570387 0.0005054599234247803 -0.18527024171232853 -0.09196116988206347 -0.055246448924453344
0.03472282867114213 0.0699634060719882 0.021488362923264503 0.13147078454494476 0.061814166040467154 0.0625618009081831 0.13529345393180847 -0.12635135650634766
0.04489394898585337 -0.04438503404865846 0.019510122016072273 -0.015579511411488056 -0.019929487467733275 -0.0038560050592512606 -0.08583768457174301 0.13591675460338593
0.09175057373526202 -0.11164366256801202 0.022137565538287163 0.01830480434000492 0.06492736113865269 -0.05883130528703255 -0.023805711418390274 0.11447378993034363
0.042181099196675884 -0.06628088611549998 -0.10156379640102386 -0.0028975000604987144 0.12541817239462738 -0.06798481784135245 -0.05620678514242172 -0.13383497297763824
0.00017355413417684148 -0.1751175371373501 -0.10694349557161331 0.07887087762355804 -0.11578917857547176 -0.009361755429714154 0.061906151473522186 -0.0716719999909401
00000000: e1d3 97ff b1dd cabf 50b5 62f6 9ae7 b5bf
00000010: f972 d128 bc0d aebf 8e38 4c88 f0f3 b23f
00000020: 1f41 10c1 c32f cdbf 98b0 fb7b cdd1 c93f
00000030: 684c 270f aade bc3f a752 d2c6 cab1 c43f
00000040: 1ab1 acd0 19fa 993f bd1f 2af3 b428 a2bf
00000050: 0000 00c0 54d0 b1bf 0000 0080 4323 bfbf
00000060: 0293 af2e b219 b53f f123 6d40 d362 c23f
00000070: 0000 00e0 1857 acbf 0000 0020 bea2 bbbf
00000080: 4e77 52d7 4dba c13f c9c4 4843 e106 b23f
00000090: 0000 0000 0d6c b8bf 0000 00e0 8304 b03f
000000a0: 9ce6 e857 6172 b63f df1f eab0 1b25 c13f
000000b0: 0000 00a0 64ba b23f 0000 0060 132d aebf
000000c0: 97d4 c86c 2f07 b6bf f0cf 666b c20c c0bf
000000d0: 0000 0040 7eb2 b6bf 0000 00a0 c1dc ac3f
000000e0: 6dda 59b4 cc08 c2bf 608f 6556 0797 c73f
000000f0: 0000 0040 e09d a63f 0000 0040 bece afbf
00000100: ee69 2a3a 7829 b4bf ecc9 4c15 0a2a aebf
00000110: 0000 00a0 36a8 acbf 0000 0080 200b ac3f
00000120: 9145 80e3 c25a a63f 9297 7b0e 9733 a33f
00000130: 0000 00c0 c977 a9bf 0000 00e0 81f2 bfbf
00000140: 4d5e 9a4e 438f 8f3f ccdb ee1e 6623 a43f
00000150: 0000 0080 04e9 a83f 0000 0040 61d5 a8bf
00000160: 5db7 5759 afd3 c6bf 23c2 0f4b 7eb7 c83f
00000170: 0000 0000 84f6 b13f 0000 00c0 2028 b6bf
00000180: 58c2 dcea 9516 b83f 4b1d ad30 2388 a43f
00000190: 0000 0080 bfa4 b6bf 0000 00e0 12c7 aa3f
000001a0: 85a2 79ce 0538 9d3f 24b5 d66f 2c6b c63f
000001b0: 0ab5 4e78 2269 b43f 4c32 7fbb b1bb bbbf
000001c0: 67ca 9d12 94ca 973f d1f6 6328 8ea3 81bf
000001d0: 4152 0484 c669 85bf 7823 1bc5 d7c4 883f
000001e0: b4a0 f4d7 99f1 bcbf ffe4 dabf d857 b3bf
000001f0: 0000 0060 026a 793f 0000 00a0 51a5 b93f
00000200: d827 3275 2e79 c03f 2ee5 dc0b 400e bc3f
00000210: 0000 0060 7dd7 aebf 0000 00e0 d219 b2bf
00000220: d49f 0745 50ad a53f d9d1 d370 5336 c03f
00000230: 0000 0060 805f b6bf 0000 0020 6394 9f3f
00000240: 8570 6d98 a711 cabf 806e 83b8 d700 d1bf
00000250: 0000 0040 3235 bd3f 0000 0020 7f7c a63f
00000260: 0c07 ab2f 9255 c73f 1791 255c 06c6 c0bf
00000270: 0000 0040 4a6e b3bf 0000 00e0 15dd c03f
00000280: fa52 bb5d 4dba c03f abe8 761a fd7d c6bf
00000290: 0000 0040 add3 bfbf 0000 00e0 c110 c13f
000002a0: b5d1 a8bc c4e8 c1bf 7cac e2cc c158 503f
000002b0: 0000 00c0 8e59 c03f 0000 0060 9d44 c1bf
000002c0: 90d7 946c 4c20 ce3f 3ba1 9efb c72e a6bf
000002d0: 0000 00e0 0361 bb3f 0000 00e0 7f6b 8f3f
000002e0: 3cd6 c375 c329 8d3f 69a9 522a 2e3b b43f
000002f0: 0000 0000 6c32 b2bf 0000 0080 08f3 bcbf
00000300: f994 fa18 04eb ac3f c6d3 6d2d befd b4bf
00000310: 0000 0020 cf55 b53f 0000 0020 8a3d b53f
00000320: e145 c89f 8346 a33f 19da 9800 6815 9cbf
00000330: 0000 0020 96a0 9c3f 0000 0020 999d af3f
00000340: 2373 4a6c f5b4 bcbf d23a bd2a 734b bb3f
00000350: b4f4 620e d884 a2bf 531f 2923 77e1 52bf
00000360: f824 5c1c 807e 663f 69df 1ddd 23e9 c23f
00000370: 4ce0 e238 b765 a7bf 85a9 3ce6 5526 c4bf
00000380: 09f8 5f79 d501 b53f d709 6d2d 4fcb c5bf
00000390: 0000 0040 9cbd 88bf 0000 0020 452e a13f
000003a0: 83ff a75a f75c bf3f 1289 6cb2 e640 c1bf
000003b0: 0000 00c0 aaeb bcbf 0000 0060 2c2a a93f
000003c0: c577 fb32 f590 87bf eb8e 67d1 5aec 97bf
000003d0: 0000 00a0 7ed4 b83f 0000 00c0 ec9b c13f
000003e0: a58a e243 1386 9b3f 1f59 47d3 75d0 c1bf
000003f0: 0000 00a0 6f24 bfbf 0000 0040 c359 b9bf
00000400: c293 ed7f 0863 a93f 99ca e0d4 973f a5bf
00000410: 0000 0040 51ee a1bf 0000 0040 fcb1 bd3f
00000420: 95a3 f1e0 d665 b4bf ae2c 6ffc 61cf 9abf
00000430: 0000 0080 fb71 b3bf 0000 0060 2b62 b0bf
00000440: 3673 4d24 f371 b63f 4c02 a63a 81b4 3fbf
00000450: 0000 0020 673a b13f 0000 0020 44bf a2bf
00000460: 1182 2afe b620 c93f 751f 18c8 7cad bfbf
00000470: 0000 00c0 df75 8f3f 0000 00e0 9f9c bebf
00000480: 7962 261a 1382 b0bf 82ca 05f5 80b6 9e3f
00000490: 0000 00e0 3f53 b83f 0000 0040 c0fc b53f
000004a0: 04cf 02f2 7fae babf 4cf9 a4c8 15ac c43f
000004b0: 0000 0020 1aae ae3f 0000 0080 f917 bdbf
000004c0: b158 5838 c05a 8fbf adca 5b17 6778 a3bf
000004d0: 0000 00e0 fb60 7bbf 0000 0040 f3b3 c03f
000004e0: 7506 0b33 4fda bebf ecc1 171b 274a b7bf
000004f0: 83f4 e2f3 f74e c0bf f0de 5316 721b bd3f
00000500: a74d 5e26 fe74 a1bf b51b 2d06 9828 93bf
00000510: 8210 fd7a ca67 be3f c3f8 1612 e665 c93f
00000520: f802 c368 9ab5 b83f 0bd3 7a1e 2fc7 a53f
00000530: 0000 00c0 5194 bbbf 0000 00c0 0920 b6bf
00000540: 340d c1c6 f244 cc3f 39b7 d7e0 961d bcbf
00000550: 0000 0080 b6c3 b8bf 0000 0080 22d9 84bf
00000560: 6019 e53a 62fe 613f 491b fe37 0a1c b2bf
00000570: 0000 0080 64c7 873f 0000 00e0 6e51 b03f
00000580: d19f ffdc 0934 cebf cad8 4f62 6ac4 c83f
00000590: 0000 00a0 8976 a93f 0000 00c0 093c b5bf
000005a0: 0bf6 fa61 adb1 bcbf a4de 986e 42ef ccbf
000005b0: 0000 00e0 a001 bd3f 0000 0000 d062 983f
000005c0: 85d3 342f 832b bc3f 988a 35c6 35d4 c43f
000005d0: 0000 00a0 549e 75bf 0000 0060 5951 b6bf
000005e0: d15f c0a3 c268 a4bf 2aa6 6460 3bed bdbf
000005f0: 0000 00a0 0d66 a33f 0000 0020 4a4e a9bf
00000600: d323 76b4 e0ca c6bf d0e9 2efb 10e2 c6bf
00000610: 0000 0080 5c22 b83f 0000 00a0 c142 b53f
00000620: 9cc7 c506 7468 9e3f 1000 f130 883e b33f
00000630: 0000 00c0 4b64 b33f 0000 0020 66f3 b03f
00000640: 92f1 6e73 d4ee 63bf 3b47 c400 2c48 c03f
00000650: 0000 00a0 adba bd3f 0000 00e0 081c a53f
00000660: 2bcd 0cd9 1921 bebf ee80 bd1a fd2b 923f
00000670: 0000 0000 4194 c13f 0000 0020 73f2 a13f
00000680: a93c dc03 2b00 d1bf ac97 fce8 23f0 d7bf
00000690: c00f 94fc 5a68 653f e0ed b212 883c 7e3f
000006a0: 7b14 97eb 1a90 403f a4c9 896e efb6 c7bf
000006b0: 7f36 2569 c48a b7bf e789 b336 4349 acbf
000006c0: a963 22cb 30c7 a13f 0cf7 fe2c 1fe9 b13f
000006d0: 0000 00a0 0b01 963f 0000 00e0 08d4 c03f
000006e0: 3b8a 253b 1ba6 af3f 8927 e1d8 0c04 b03f
000006f0: 0000 00c0 4b51 c13f 0000 0000 482c c0bf
00000700: e974 5df5 56fc a63f a177 579b a2b9 a6bf
00000710: 0000 0020 76fa 933f 0000 00a0 26e8 8fbf
00000720: 238e 9943 6568 94bf 731d edf3 a096 6fbf
00000730: 0000 0060 75f9 b5bf 0000 0060 b865 c13f
00000740: 340a 9531 f77c b73f 8507 89d7 ad94 bcbf
00000750: 0000 00e0 3aab 963f 0000 00a0 7ebe 923f
00000760: 9ec2 b45c 149f b03f f6a9 6008 231f aebf
00000770: 0000 0040 8660 98bf 0000 0080 274e bd3f
00000780: 6e3c 1ed3 c298 a53f 004a 37be c8f7 b0bf
00000790: 0000 00c0 1500 babf 0000 0080 7fbc 67bf
000007a0: 6427 61e2 b30d c03f dfcc 40f9 7367 b1bf
000007b0: 0000 00c0 22c7 acbf 0000 0020 8121 c1bf
000007c0: d6ed 26a9 82bf 263f 8701 7b5f 406a c6bf
000007d0: 0000 0020 a660 bbbf 0000 00c0 e130 b43f
000007e0: e75c 360f 5ca4 bdbf 31ed 3a8b 412c 83bf
000007f0: 0000 00c0 29b2 af3f 0000 00a0 1859 b2bf

fc1.bias f8 [256]
0.00882829850525982 0.01747592508789633 -0.11044795214959588 0.0703364095861891 0.16936703392619304 0.08534023396902646 -0.06348088691856522 0.06820416697333195
0.06667413998770269 -0.10880836946080781 0.10273188678219936 -0.2233764538196994 0.04948597219095119 0.20137464662030077 -0.11160201542738711 0.004435623531468859
0.08798523629262575 -0.008458504902606103 0.16923807883768083 0.207598775225531 0.06046002604889948 0.15213122528669032 -0.15177595981227926 0.08174924793604456
0.08041515748584893 -0.033005272650900926 -0.009517631573422749 -0.08703577365551192 0.17172292557097832 -0.08238777249226521 0.1864328510053577 -0.031874801561154895
-0.15791790771246245 -0.10889776961604734 0.0086054156371827 -0.019320815786749546 -0.08937337646438984 0.10162915249437557 0.07355451072272041 0.00800837709321327
0.2456217581793411 -0.07358770603336781 0.15946182477584542 0.1243711199537408 -0.0017575680801507052 0.12282513760523371 0.08149289088587315 0.11726224126342984
0.19395911500414345 -0.058217569905606795 0.12097098905921182 -0.0025725428028859107 -0.1194280067678724 0.08387972796752742 0.13743389933806147 -0.016403731504053037
0.0673050370907383 -0.1488852367985921 0.0828690552263019 0.23498727848844506 0.11849665308130454 0.02682678412190443 -0.04467291480591783 0.06004827752936984
0.18849182481098148 -0.04599358684336945 0.055362038043072666 0.026083910676932404 -0.14806748162167974 0.03866675807293379 -0.08515009057601539 0.18006384450961985
0.01849164921204749 -0.03199832295821298 -0.10890675301455155 -0.00445597471952121 0.11367235023879896 0.006865461044386022 -0.04464751960406936 0.12899066097277845
0.006994945925241141 -0.10879855314015507 -0.15891574746947273 -0.17291107939739 0.05387229915321608 -0.22832007358386489 -0.008010535526685514 0.083606369738899
0.07547208772099014 -0.06976881065987295 -0.015747960955526285 0.09285130031627258 0.14132303171383737 0.023838734609603566 -0.006563600670672844 -0.053891296502569734
0.1452880700856489 -0.10248678831596106 -0.13374342517423107 -0.09722932765945302 0.10501097155782296 -0.18193253055227288 0.07726972366373697 0.05360876639370082
0.15524418602056866 -0.04689968869857654 -0.10126712788098713 -0.051172839877231945 -0.14952537204023447 -0.08225401328312616 -0.1331089301614194 0.08256084527520212
0.09004195448145037 -0.06268659994898113 0.07822078095156985 0.06875849958447032 -0.05180348550782875 0.07125076870191539 -0.15802988535233464 0.10560619468781743
0.1264355038778593 0.1372938505298579 -0.06818867965814966 0.13126681897608503 -0.037591841550827246 0.2152904271923338 -0.16417728651456112 -0.08250157259889154
-0.05867616444391698 0.0861870389705775 0.1497055672848229 0.20284662787872745 -0.046790688030623744 0.12784809544919037 0.0048923818982787495 0.0870423529570026
0.024565533890446866 -0.012580759586309227 0.12284111218289082 -0.13494280750785054 -0.09534902978121347 -0.08524185745515653 0.10768405995769699 0.13880356152707662
0.040490354820648715 0.0064709507127710675 -0.011212348442199361 0.06687577539132089 0.051428935220662955 0.024396532637840376 0.09269510554001739 0.07505421828116274
-0.06369976368565047 -0.1308756823913077 -0.14110325156689674 -0.06646867432308905 0.030285151612670817 -0.032133754846871226 0.09716364006235674 0.021309897352948932
0.14813707540639057 0.06996817976938467 0.16092226891339184 -0.08030514484076791 -0.02625961370797549 0.09058841465543337 -0.08996600412413623 -0.13162980110758846
-0.13013481806654215 0.19100989739141178 0.18729729466989856 0.010426726772644506 0.042190448459354324 0.15314329245773703 0.07322528672346967 -0.09550780640153196
-0.04465979984924602 -0.13452251081119915 0.16215842281115275 0.017501660343299672 -0.001208745823228084 0.2019367840330368 0.12013882899661217 0.10469705310749419
-0.05240018606284141 0.11159139634628779 0.19569942801358317 -0.011629662572391739 0.10652195284178452 0.018850742686910074 0.010307413404313874 -0.03533251826024743
-0.1145360144699061 0.06869881013772969 0.17380024972364638 -0.02213729095751775 0.06931132106073047 0.02688686067880458 0.042220625259613134 0.1412433544658155
-0.15155103861345184 0.012353537937724582 0.10181870939278664 0.10504621706423523 -0.11463206178525688 0.20003022826610473 0.18306260858715828 -0.12602715528626374
-0.0015188470716729179 0.05091627758535894 -0.14393564772811457 -0.08254049850467908 -0.14409845914761424 0.07807942887152981 -0.025965943799111758 0.08767406316301625
-0.07078229087517006 0.030671914986245295 0.006050272785368947 -0.07041379281362838 -0.16920362135391137 -0.156896072351636 0.14668331465943796 0.003203710261932347
-0.05540208673070338 0.006042200395871158 -0.09415580962226434 -0.0004956675189602649 0.00284245053875044 -0.025535914552155484 -0.050997250154405295 0.09158838561403773
-0.07500835393610215 -0.10403600307681905 -0.07938803686147876 -0.11949905111082014 -0.044514704827228975 -0.08871503364659927 -0.04149775516709629 0.05457229111698865
0.10005659710518262 -0.2868426276781205 -0.11866800319573773 0.03830287768813031 -0.013457959568666761 -0.07982482653530405 0.18087797396888122 0.03555687183107045
-0.006043138786289414 0.04661703504638517 -0.20286451821794377 0.04012780067728311 -0.05317538454882013 0.11527476357660842 0.059352727046531384 -0.013363288416954574
00000000: d115 e02a 9214 823f 2723 e17a 35e5 913f
00000010: 2687 6426 5146 bcbf bd07 e422 9101 b23f
00000020: 09e4 dda7 d1ad c53f a811 ee89 dbd8 b53f
00000030: ef7e 3c8d 4840 b0bf 4ef4 990a d475 b13f
00000040: a271 bc72 8e11 b13f 5581 5d84 ddda bbbf
00000050: 5065 fc0d a34c ba3f 6810 ed81 9997 ccbf
00000060: 5080 57b0 3956 a93f df26 bdf8 a4c6 c93f
00000070: 0fa6 6d1e f391 bcbf f596 14a0 162b 723f
00000080: 665c 6850 3386 b63f 2e20 704f b152 81bf
00000090: 3040 ece6 97a9 c53f 8643 24bf 9892 ca3f
000000a0: 46cf 30d5 9df4 ae3f 5c43 a736 0979 c33f
000000b0: 623b db07 656d c3bf c99f 5bca 84ed b43f
000000c0: 1021 8177 1696 b43f 612a 432d 11e6 a0bf
000000d0: 2eee bee2 fa7d 83bf 25b7 6ef9 f947 b6bf
000000e0: 6b80 a64e 04fb c53f 2dcf 7174 5d17 b5bf
000000f0: 21e9 fb1a 08dd c73f b615 8bdc e451 a0bf
00000100: 72f4 896c a736 c4bf 4fb7 1b67 b9e0 bbbf
00000110: 206c d755 b79f 813f d098 beff d5c8 93bf
00000120: d232 0c71 2ce1 b6bf 1296 483e 5e04 ba3f
00000130: 6d01 07ea 77d4 b23f d9d2 ac2d b266 803f
00000140: 357c 48a5 8870 cf3f ce0c cdd6 a4d6 b2bf
00000150: e6b5 2fbd 3e69 c43f 65a9 c424 c9d6 bf3f
00000160: faf3 2e5b c6cb 5cbf 4724 24dd 7771 bf3f
00000170: 2d19 36d5 b7dc b43f 3d37 48f3 e504 be3f
00000180: 5d19 dafb a6d3 c83f 5227 987d b1ce adbf
00000190: ab2a c669 f4f7 be3f 472f 9766 0313 65bf
000001a0: f362 4b77 d592 bebf f1fb 6a50 2479 b53f
000001b0: bf65 821b 6f97 c13f bb7c 5ec9 23cc 90bf
000001c0: 6729 2925 e73a b13f 1c1e 74e3 ab0e c3bf
000001d0: 6521 0c0a e836 b53f c1bd 0a2a 1014 ce3f
000001e0: e16e abf1 cb55 be3f 627b d701 7b78 9b3f
000001f0: ae81 3748 5edf a6bf c4ec 56d8 a5be ae3f
00000200: 0832 9007 8020 c83f e6d1 a2ae 788c a7bf
00000210: a978 abbd 6958 ac3f 85a1 3c9d bdb5 9a3f
00000220: e545 950f e0f3 c2bf 382f bb1a 21cc a33f
00000230: 2e82 4676 65cc b5bf 3730 ae01 550c c73f
00000240: c09a 7592 79ef 923f 18c6 438d 1562 a0bf
00000250: 10d4 821e 50e1 bbbf 1208 139b 6d40 72bf
00000260: 782f bc92 a119 bd3f 8c87 852a f51e 7c3f
00000270: f60f 1829 0adc a6bf 780a 2f17 c482 c03f
00000280: c678 c77f bba6 7c3f 38ce 96d3 38da bbbf
00000290: 2ab3 19e9 5957 c4bf 5f5d 9043 f321 c6bf
000002a0: faf9 0b66 2695 ab3f d110 8898 9739 cdbf
000002b0: 806d e2e0 d367 80bf 170f c41f 3a67 b53f
000002c0: 49c2 8584 2352 b33f e8a1 1068 5edc b1bf
000002d0: 5374 21c5 3b20 90bf f3dc 3f52 1ac5 b73f
000002e0: d6f5 b083 df16 c23f b1e6 1a66 2e69 983f
000002f0: f5ba 9723 6fe2 7abf bfff 08d8 a397 abbf
00000300: 1727 c2aa cc98 c23f 12d1 16fc 923c babf
00000310: 07d4 962a 811e c1bf 4869 826e 05e4 b8bf
00000320: 94e1 8fc0 ffe1 ba3f dc77 66ae 9049 c7bf
00000330: 3051 1bd8 f2c7 b33f df33 e1b4 9b72 ab3f
00000340: 281e ed9e 0adf c33f b251 4e6a 3c03 a8bf
00000350: e09f 687a a4ec b9bf fbab 6e93 5333 aabf
00000360: 96e2 6abb a523 c3bf ed09 0459 990e b5bf
00000370: eea6 eca2 b609 c1bf 9719 6322 b522 b53f
00000380: 3108 c451 fd0c b73f aca5 ada0 3a0c b0bf
00000390: 73f8 0df0 4606 b43f 6f8e 0933 289a b13f
000003a0: ce5d 2688 fc85 aabf f9bb 6389 7d3d b23f
000003b0: 0480 b0c2 523a c4bf 6a6e 70f0 0109 bb3f
000003c0: 40b6 1ae1 092f c03f 05dc fb4a d892 c13f
000003d0: 0fd4 1635 d074 b1bf b7af 46e3 59cd c03f
000003e0: 8a4b 1de4 3c3f a3bf ab6a f7ff a28e cb3f
000003f0: 65bc 29e6 c203 c5bf 7e49 2eb4 d21e b5bf
00000400: 4fc4 ae5e cd0a aebf b4bb b791 5a10 b63f
00000410: 893b c251 8d29 c33f f5e7 6bd8 e0f6 c93f
00000420: c79e b2f5 f2f4 a7bf 4bb3 678e 535d c03f
00000430: 56da 0ac4 080a 743f 0235 515b 6848 b63f
00000440: 7349 ac12 b527 993f 0436 dbf7 f0c3 89bf
00000450: 4606 6edf 8372 bf3f 62cf 8950 ce45 c1bf
00000460: b59a 9d44 cb68 b8bf 3e2b 050e 69d2 b5bf
00000470: a59d d1bb 2e91 bb3f 00df a9aa 50c4 c13f
00000480: 9728 84db 26bb a43f a050 f79a 4881 7a3f
00000490: 9afe f6ee 7ff6 86bf 1c4b 3354 c51e b13f
000004a0: e283 aeb5 e454 aa3f 84e3 4297 67fb 983f
000004b0: 322c cbce ddba b73f c6c6 f1d4 c036 b33f
000004c0: c2f4 cab1 a04e b0bf 462e dbcb 88c0 c0bf
000004d0: 0c67 6bdd ab0f c2bf ab17 6d4e 1704 b1bf
000004e0: d15c ec1e 1203 9f3f 047a 54e4 d573 a0bf
000004f0: 6d9a 6d60 b7df b83f 151f d900 43d2 953f
00000500: 3d07 19db 27f6 c23f 8bc2 de43 6fe9 b13f
00000510: 722f 17d5 1999 c43f 01a9 cac2 e08e b4bf
00000520: e54c 53d8 cce3 9abf 5b71 5766 cd30 b73f
00000530: 0708 7715 0308 b7bf 5fd1 77cd 3ed9 c0bf
00000540: b456 d5f9 41a8 c0bf 3614 4127 0373 c83f
00000550: 4945 9e95 5bf9 c73f e353 f193 9b5a 853f
00000560: c849 ac88 fc99 a53f 5b97 5a0c 339a c33f
00000570: bcaf b773 e4be b23f 0ddd 0119 3373 b8bf
00000580: 2aca 9837 a6dd a6bf a044 419c 0838 c1bf
00000590: f756 5f71 9bc1 c43f 5960 338b f4eb 913f
000005a0: 928e eaf1 d8cd 53bf e701 a485 10d9 c93f
000005b0: e52a 8515 6bc1 be3f 3e92 1513 6dcd ba3f
000005c0: a770 e37a 32d4 aabf f080 d2f5 4091 bc3f
000005d0: 0306 95c9 ad0c c93f 05a6 4be3 4ad1 87bf
000005e0: e5f2 c2cf 0545 bb3f 54e2 61ed 9b4d 933f
000005f0: cfb2 d29b 0d1c 853f f27f d394 1a17 a2bf
00000600: 2ec8 5c74 3b52 bdbf 3ecf d0c6 3e96 b13f
00000610: c8c2 4c2a 163f c63f 4c01 bd72 28ab 96bf
00000620: e9c9 3201 63be b13f b0f4 3aad 3a88 9b3f
00000630: e2d5 6919 f19d a53f 2da0 1a22 4314 c23f
00000640: 8b82 4241 0666 c3bf db99 75cb cf4c 893f
00000650: ac83 f67a ca10 ba3f 2002 dc12 4fe4 ba3f
00000660: a9d3 70dc 8658 bdbf 84a2 4e2c 979a c93f
00000670: 284b 8076 986e c73f a863 2e67 a821 c0bf
00000680: b08b 07a0 81e2 58bf 6858 20c6 b211 aa3f
00000690: 1e44 dcb9 7b6c c2bf 7b52 acc5 5f21 b5bf
000006a0: 11b4 b87c d171 c2bf 2d5b 7e71 03fd b33f
000006b0: bd34 b5fd d096 9abf 951a feb1 ce71 b63f
000006c0: 5fdf 71c8 c91e b2bf 7622 165f 7568 9f3f
000006d0: 71ad ebbb 2bc8 783f 0165 5269 a306 b2bf
000006e0: 6e37 0ada 76a8 c5bf 1281 cfa5 2b15 c4bf
000006f0: 9063 aad3 84c6 c23f 1ba3 a0d9 aa3e 6a3f
00000700: f5ec 468d a95d acbf 36cf 89d1 b4bf 783f
00000710: d157 0e5b 981a b8bf dcc8 4de4 f53d 40bf
00000720: 187f 5703 0d49 673f 11f5 7f37 1626 9abf
00000730: 75bd 32c3 4f1c aabf dadd e720 5672 b73f
00000740: ff14 155b bf33 b3bf 614d d27e 1aa2 babf
00000750: 6f81 033e c652 b4bf 978b 6c64 7d97 bebf
00000760: 011c d9a2 a1ca a6bf 98f9 2c48 07b6 b6bf
00000770: dea5 999a 313f a5bf 0a03 3b3b e6f0 ab3f
00000780: c5d8 5024 4f9d b93f 967a 3e2e a15b d2bf
00000790: 54ac ceb8 0661 bebf 2bc3 064e 6f9c a33f
000007a0: 6a1b bfc1 d88f 8bbf ddc4 605b 666f b4bf
000007b0: beac 616b 0227 c73f ac34 53a3 8234 a23f
000007c0: 32a1 3cb7 b0c0 78bf 33e2 eb21 30de a73f
000007d0: 16e7 a1eb 76f7 c9bf 3880 238f a18b a43f
000007e0: a5c6 2dd3 cd39 abbf 3b9c 9d9b a582 bd3f
000007f0: b0c0 2f0b 7b63 ae3f 8b20 be35 365e 8bbf

fc21.weight f8 [64, 256]
-0.02302814330898469 -0.009762053774086277 -0.1310585428986167 0.2137440257236135 0.01131488313359578 -0.043881409697425725 -0.001045074721877671 -0.09512898547321805
-0.019248392888929284 -0.0009785204153290573 -0.06720795948359135 -0.16700271734322064 -0.12723558615583133 -0.11937197947383266 0.018419018341198662 -0.04932445784419138
0.05338276596067442 -0.03665964496329753 0.10843225834657658 -0.0011268104154698682 0.11526546911471498 0.08027678105871583 -0.08277980083113279 0.1177369400389957
-0.12785547027357858 0.03346294733337452 -0.004261940823968757 -0.04439462912848944 -0.0618963944700672 -0.03849595417903864 -0.21585114392972457 -0.04170778457729691
0.028998556410236624 0.011489628797002957 0.030423289223098865 -0.11421152981632364 0.02981719474666813 0.0204487857209466 0.009284861960914187 0.04021246266793019
-0.1258524372100303 -0.045803865836124544 0.08038998177265473 0.02725502367991004 0.08177944828081497 0.02548369973659927 0.04020451666536202 0.005033104180629175
-0.20409224281156255 -0.0014126275611363974 -0.008135394766210918 0.031445761920030214 -0.08858910956096326 0.07737935463668655 0.09980038822508003 0.06328334586577339
0.01656246150521342 0.11845371585068816 0.06909271138595548 0.09518482042315575 0.13423989737933006 -0.07076822801746478 -0.04981666840110441 0.05152008086551024
0.13533434559302732 -0.016734895564739286 -0.030499742774936334 -0.09852385515495057 0.08533186552287596 -0.035348205052205664 -0.10462502818852898 -0.05101503277569388
-0.0312335042422662 0.03185880294819014 0.006421918309625667 0.1359688123660119 0.05125224354021164 -0.029066872891424844 0.04006774045316311 0.02228534321736563
-0.0810647821561869 0.11478919155147536 0.1660082462680493 -0.06681718548664381 -0.0695894847188221 -0.031714435381143546 0.14559225275040913 -0.07501346605821058
0.044320026387358685 -0.069967797551815 0.12914074674183657 0.02581831461950637 -0.00798775159503083 -0.04611633221433595 0.03420696373134648 0.11397884371405176
-0.04568936155756276 0.00287903193519084 0.06346405346316111 -0.016831459820293573 -0.03683015281060911 0.07619046154110441 -0.1287505760423592 -0.04376426645213136
0.006057337218060068 0.0018642696282333419 -0.012809080349830833 -0.25885545728141585 0.04531710488045281 0.03456850783015904 0.023612339687775426 0.12823176362098965
-0.22434914376508125 0.1465646093429889 -0.15086435422061248 -0.015205522948878562 0.0239682131871433 -0.29849967917978754 -0.020863768274276287 -0.15779115913967545
0.04140985180690846 0.04131522740181356 0.10537884672298868 -0.020128235147757054 -0.05155195049777282 -0.10898467542929961 0.054066870893585604 0.1265926860125152
-0.04733283619762702 -0.153050219341009 -0.0004081446767644294 -0.010908427377675755 0.08203782989936002 0.02942685469184634 0.08526426441514937 0.04477598655809473
0.016104855756422655 -0.2336127497596943 -0.08256430836114789 0.09978712047752891 0.04490765604799561 -0.06929056891561784 -0.09270711419522516 0.13947618229649233
0.06730936980563762 0.04229704864813895 -0.06275651067265453 -0.03689780011974531 -0.12434761404084245 -0.07368533726917367 -0.022369349051214276 0.09671075754798004
-0.004703487876357482 0.008804683322621699 -0.06736399173034482 0.10571709999529032 -0.09673407572063085 0.009943558722096986 -0.021566243842277632 -0.027471649434456166
-0.053409965874737925 -0.06136208299848129 -0.023222701305243 0.052182923707608915 -0.11007391271438839 -0.03513298970648748 0.014948941943990667 0.019339564370827633
0.006027842808124338 0.03975063856440883 -0.062011329258438254 -0.03309480084671653 0.05199192658029881 -0.015587156532031484 -0.1587404243293007 0.04404467251173103
0.11338286244385419 -0.021182823098917038 0.005061231372069 0.007591588982844859 0.04192372317486368 0.010911639606727284 -0.00921938292302468 -0.10802636774669218
0.02970545656201481 -0.15195718920164525 0.0997743164331137 0.08981755557809659 -0.03677869547302037 -0.0013064475974201258 0.06711306169861303 0.02654383494368292
-0.07063348055900365 0.01512171679235188 -0.08838641954508188 -0.00991381182587524 -0.06654938326642369 -0.08306590649136358 -0.022565496487743204 -0.04577596093547765
0.0008381631698266843 -0.04727158565256922 0.06052013185459816 -0.0298600886407875 0.04072724924615409 -0.020801084091324258 0.062001002502740404 -0.08055079400849881
0.06096420345016182 0.03166561267963171 -0.0660956472613454 0.03766125348235299 0.07788812742692591 0.03570224450498945 -0.040935736847870094 0.073683855438927
-0.07684500910535111 -0.008245729619429319 -0.03922737696923903 0.0434525282367913 0.111136891318678 0.007870995027241152 -0.18705860808992344 0.04248793582811044
0.06290857109068708 0.13093040482853097 0.036332086185351525 0.06164705790197235 -0.05597640513771038 0.04293542531902285 -0.16210443205367073 -0.08919192637748714
-0.056871757691999945 0.04714420158371725 0.045122323934909135 0.029375111714088846 -0.002902117467251747 -0.06160228628956415 -0.1665436795307532 0.05436380220061684
-0.03342936254338356 -0.027043638369188015 -0.021865826258486598 -0.0008359971404165909 -0.11426215497500485 -0.04540673121978393 0.056878914529830245 -0.025739436166349723
0.005219119094122523 0.006730796478469488 -0.08662556585677222 0.03272337868412461 -0.006932619981770303 0.0641587506405391 0.16952685217834385 0.05314354105476285
00000000: 7548 9989 b094 97bf daa8 9cad 20fe 83bf
00000010: 5334 cebd 86c6 c0bf fc61 19d8 f65b cb3f
00000020: 5585 22e8 412c 873f 520b 1bc7 9f77 a6bf
00000030: 6a5a 2670 5c1f 51bf 6256 8289 5f5a b8bf
00000040: b583 d5c7 d9b5 93bf 76e9 aa4b 3608 50bf
00000050: 964e 0374 8a34 b1bf a687 aa54 5860 c5bf
00000060: a59d b674 4149 c0bf f41d e67b 298f bebf
00000070: 2878 9965 6fdc 923f 01df aa2a 0e41 a9bf
00000080: 7736 f163 fc54 ab3f 2e92 6690 0dc5 a2bf
00000090: 7a12 6e6b 37c2 bb3f 2bed 8678 2f76 52bf
000000a0: 3daf 34ac 0982 bd3f 787c 46e5 048d b43f
000000b0: d8cf 5699 0e31 b5bf 37a4 ff12 0224 be3f
000000c0: c048 b86b 915d c0bf 0167 d930 0e22 a13f
000000d0: cc8c 4d07 f874 71bf 8d27 7390 e4ba a6bf
000000e0: 7c7f fa5b e2b0 afbf c35e 74e0 bdb5 a3bf
000000f0: d7bd fda1 02a1 cbbf 6907 7f05 b95a a5bf
00000100: fe17 a72d ccb1 9d3f eb13 69df df87 873f
00000110: 38f5 ff60 4827 9f3f 1722 6381 f73c bdbf
00000120: 067e 2e11 6688 9e3f 8f52 a8c7 86f0 943f
00000130: d08f c213 f103 833f 8ccb 1958 ba96 a43f
00000140: 4a30 f8c2 ee1b c0bf 56d2 97b3 9a73 a7bf
00000150: 0dbc a316 7094 b43f 3a7c 6dad bde8 9b3f
00000160: b1dc d977 7fef b43f 8592 cc23 6618 9a3f
00000170: e95b 75b8 af95 a43f 708e a69d 979d 743f
00000180: 0f19 1fd2 b11f cabf b0ec 4b4b fd24 57bf
00000190: b0f9 af33 4aa9 80bf adb2 16ae a819 a03f
000001a0: e399 58a0 c6ad b6bf f0d6 8c25 22cf b33f
000001b0: d408 8eab 848c b93f f4fc df5c 5633 b03f
000001c0: 564c 06fa bff5 903f 1d1b ab93 fb52 be3f
000001d0: e56d cb57 0fb0 b13f bd07 cb4a 085e b83f
000001e0: e403 88e0 c52e c13f 4b4e eed8 dd1d b2bf
000001f0: ac26 2803 9281 a9bf 382d cf0c d760 aa3f
00000200: 9e7e 2cc6 a252 c13f 0131 9cd4 f322 91bf
00000210: d0e0 0417 533b 9fbf c22f c4ff db38 b9bf
00000220: 5738 ba23 4fd8 b53f 2ad2 57f1 2819 a2bf
00000230: ecad 69b2 b4c8 babf 937f c072 a41e aabf
00000240: 3740 0afd acfb 9fbf 661e 8109 cc4f a03f
00000250: ebf9 e091 de4d 7a3f 61a9 3111 6d67 c13f
00000260: e223 b4eb bb3d aa3f a0d5 dcd1 b4c3 9dbf
00000270: 64ed bd45 c283 a43f dee3 3111 f8d1 963f
00000280: 1cdb 375c a9c0 b4bf 8fda a50f d362 bd3f
00000290: 0336 4b1a c23f c53f a6d4 795a ee1a b1bf
000002a0: 0149 03d1 9dd0 b1bf f8d5 8bdd df3c a0bf
000002b0: ad96 0e56 c4a2 c23f 68c8 7a1f 1534 b3bf
000002c0: e47a c84f 1db1 a63f 0519 42da 68e9 b1bf
000002d0: 9629 eb19 af87 c03f c7e7 b6c3 1d70 9a3f
000002e0: 772e f4de e15b 80bf 2c16 5855 8f9c a7bf
000002f0: 030e 0b3d 9383 a13f 3810 30ae b72d bd3f
00000300: 7067 5493 9864 a7bf 7362 2f80 c495 673f
00000310: 1a8b 1822 2e3f b03f e76d e325 443c 91bf
00000320: 3410 a8db 66db a2bf 7f10 96d4 3781 b33f
00000330: 4db7 b81c e67a c0bf 3d69 4a1a 4568 a6bf
00000340: c2e0 0914 94cf 783f 3f57 6345 508b 5e3f
00000350: 710c 8ea9 a53b 8abf 2f8c da7a 1691 d0bf
00000360: 9f67 d2b6 cd33 a73f 4a40 34a5 f6b2 a13f
00000370: bfd2 f64a d52d 983f 34c0 87ff e569 c03f
00000380: eea5 ad05 79b7 ccbf 1988 f00d a1c2 c23f
00000390: 873d c1ed 854f c3bf 82a7 45be 1224 8fbf
000003a0: cb1c 218f 1f8b 983f 3f65 fc65 9e1a d3bf
000003b0: c429 a3c9 4f5d 95bf c829 0d2e 8032 c4bf
000003c0: 8d5a 7c0e ac33 a53f db01 09fd 4427 a53f
000003d0: 078d 5dac 1bfa ba3f 1946 befe 7e9c 94bf
000003e0: feaa dd6a 0465 aabf 83e8 bb70 6be6 bbbf
000003f0: 1bec 9124 a7ae ab3f 0d14 2b6b 3034 c03f
00000400: b9d0 fd6e 023c a8bf a68d 5b4b 2697 c3bf
00000410: 93d8 ea09 88bf 3abf 5309 b456 2857 86bf
00000420: 1fdb 7364 6e00 b53f 3a3d 1aca 1222 9e3f
00000430: 6239 2efb e0d3 b53f b888 d3cb e0ec a63f
00000440: 2a5e 1f93 ca7d 903f 21c1 12c8 05e7 cdbf
00000450: 865d 3a3c ef22 b5bf e053 0313 a68b b93f
00000460: 6edf 21e4 22fe a63f a3ef 69d7 06bd b1bf
00000470: 2135 9347 a7bb b7bf 3266 c404 5bda c13f
00000480: c892 07d6 2f3b b13f ca78 5271 f5a7 a53f
00000490: 783b f388 cf10 b0bf 8107 9eb9 44e4 a2bf
000004a0: c51b a4c7 3ed5 bfbf 7e0d c4d1 0add b2bf
000004b0: 4b5c 6e9a fde7 96bf 9507 d744 09c2 b83f
000004c0: 3489 b2e9 f643 73bf 27dd 6097 3008 823f
000004d0: a2eb 683d c43e b1bf 6f94 1b9f 4610 bb3f
000004e0: 67ff a07b 90c3 b8bf 515a 23dc 495d 843f
000004f0: b325 0020 7615 96bf 6c7b 8d2f 8721 9cbf
00000500: 94c9 6c11 8d58 abbf b9c5 62d7 d96a afbf
00000510: 2def 851a b1c7 97bf 51ba 775d b8b7 aa3f
00000520: 4145 40cf cd2d bcbf 90a2 9983 f3fc a1bf
00000530: c6ed 1206 8d9d 8e3f c363 f731 c0cd 933f
00000540: b104 9fbb a6b0 783f 5c2d 4219 325a a43f
00000550: 75ff 4aee f2bf afbf abca 9b3e cdf1 a0bf
00000560: 7d07 a390 af9e aa3f 4b77 57bc 28ec 8fbf
00000570: c814 8631 9b51 c4bf ed77 00f8 058d a63f
00000580: 5f8b 1fc6 a806 bd3f 7a86 c931 f3b0 95bf
00000590: d045 87f3 15bb 743f 12f2 7ea6 5b18 7f3f
000005a0: 7dd9 ecb7 0677 a53f 1295 0d7a d758 863f
000005b0: ee47 26a1 9ce1 82bf f1e4 93b4 9da7 bbbf
000005c0: 1752 c971 1b6b 9e3f ecae 014b 5573 c3bf
000005d0: 4d9c 0f42 cf8a b93f ca88 d087 48fe b63f
000005e0: 7009 7e3c a8d4 a2bf 6f61 1c6d a367 55bf
000005f0: ec45 2155 522e b13f 9662 f99b 4e2e 9b3f
00000600: 20ea 0029 0915 b2bf 0d03 a978 22f8 8e3f
00000610: 314e 5b0d 7ea0 b6bf 7910 914c b14d 84bf
00000620: 21c1 b260 6109 b1bf 1802 cba7 ce43 b5bf
00000630: a23f bbd5 681b 97bf f15a 525e f26f a7bf
00000640: 0959 99b3 0577 4b3f 67d1 d034 fb33 a8bf
00000650: b255 21a6 7efc ae3f 24df aba0 a493 9ebf
00000660: 9cf4 22b7 33da a43f 9207 931f e14c 95bf
00000670: 5c10 236c 98be af3f 0def ee11 fa9e b4bf
00000680: fc1b 1738 b336 af3f facf bba5 7936 a03f
00000690: ee3a 65f3 a4eb b0bf d7ee 10f8 5548 a33f
000006a0: 949a 0bf0 79f0 b33f 1ae0 1589 9047 a23f
000006b0: 8e9f ff65 87f5 a4bf 5277 5af5 f1dc b23f
000006c0: dae2 f750 1dac b3bf df79 6018 23e3 80bf
000006d0: 5ca9 615a 9c15 a4bf e83b 69e7 683f a63f
000006e0: 99c3 97a1 7773 bc3f 24f3 d411 ab1e 803f
000006f0: 773b 1756 89f1 c7bf 776a b68d fac0 a53f
00000700: cbfb 78af c61a b03f c231 65d7 53c2 c03f
00000710: bc4e ec83 1e9a a23f 42cc 2a03 3490 af3f
00000720: 8c06 d47a f0a8 acbf 228c 2bcf a1fb a53f
00000730: 8b84 1a89 d6bf c4bf bdc9 db36 48d5 b6bf
00000740: 83d3 b486 4b1e adbf 9206 ffe7 4823 a83f
00000750: 736a 3df3 451a a73f 4e70 8360 8214 9e3f
00000760: c048 8d73 2ec6 67bf 77ec f1b9 558a afbf
00000770: db54 78a4 4d51 c5bf ab62 1381 92d5 ab3f
00000780: ed2d b345 a71d a1bf 662a 71d9 53b1 9bbf
00000790: 108b b8c2 fe63 96bf ac77 5630 da64 4bbf
000007a0: dbc2 c9da 4840 bdbf 66e7 3613 8d3f a7bf
000007b0: b9a6 79ab 3b1f ad3f d232 3552 705b 9abf
000007c0: 6fc4 2b9d a460 753f d555 046c c091 7b3f
000007d0: 5c32 5ad4 172d b6bf e79f 8662 1ec1 a03f
000007e0: fe89 8e01 6165 7cbf 87da c037 b56c b03f
000007f0: 142d f34e 0eb3 c53f 54ce a555 a135 ab3f

fc21.bias f8 [64]
-0.0040704204991800184 0.01687949210731918 0.04404220866506425 -0.012646643202374132 -0.029751638111232385 -0.07008528469926306 0.05792850270813973 0.031244461258738053
-0.05217520275193395 0.03820952393102788 -0.026654716486318116 -0.035814651805692224 -0.006996171919389287 0.03523488577310665 0.04276967705498558 0.00783316122059991
0.09405246687121753 0.056986098734528055 -0.032209617396184005 0.015217162277698721 -0.011831771128816296 0.045714499806421637 0.052889942048578345 -0.021903326704020797
0.015652549830994292 -0.03416023639004759 0.03504531951955135 0.046312976756690064 -0.06212414893293146 0.037965313302160686 0.04542271140512147 0.025449842845864837
-0.047529233769667244 0.012053954181975964 0.04098450849487553 0.08818131227349886 0.08048551068897969 -0.04914497737057317 0.01778782513590241 0.08236545155954798
0.06097866212928907 -0.026099171033494302 -0.08545658450086847 -0.015664048322549563 -0.022299785392730923 0.010169450793383317 -0.023544751142348358 -0.06205125398468994
0.012538648874495708 0.057288678464765666 -0.009202024861597321 0.014716803225416344 -0.04810463112076039 0.04134305229464764 -0.04583595448525806 -0.010689073401372217
-0.0025047590385847136 -9.495494321838584e-05 -0.01813788854728103 -0.008156682214977942 -0.0378669250882758 0.040259354047946845 -0.007953480008649658 -0.04228787927914519
00000000: 5c94 cc2e 25ac 70bf 79cd 4b8a db48 913f
00000010: a059 b84b b38c a63f e1c1 aab7 7be6 89bf
00000020: 01bc c2a2 3677 9ebf c4d4 b6f5 1bf1 b1bf
00000030: 9b81 4601 cea8 ad3f 2651 264d 8cfe 9f3f
00000040: baa4 f64a b5b6 aabf a7e6 5bdf 3290 a33f
00000050: 1f1e 5fbe 5f4b 9bbf f236 724c 4c56 a2bf
00000060: 859d 7499 04a8 7cbf a3c7 2594 4e0a a23f
00000070: b05c 6c38 e8e5 a53f 6359 221a d50a 803f
00000080: b3eb 518d d213 b83f db68 c82c 482d ad3f
00000090: 11a4 aa6a c77d a0bf 2aac 90f2 2c2a 8f3f
000000a0: 088b 6a70 413b 88bf a33f 3e13 e467 a73f
000000b0: 129f c5f6 6314 ab3f 9330 785f d36d 96bf
000000c0: 0116 7ed6 3807 903f 4cde 3c54 737d a1bf
000000d0: 6ebe 6dca 75f1 a13f facc 19a1 55b6 a73f
000000e0: 6ae4 ea87 bcce afbf e0c4 0786 3070 a33f
000000f0: d416 f647 a541 a73f a466 d80a 860f 9a3f
00000100: d310 4a71 c055 a8bf fe17 fe57 beaf 883f
00000110: 8c99 41e7 ebfb a43f 2d42 55ec 0c93 b63f
00000120: d005 36cc b29a b43f 9977 23cd 8729 a9bf
00000130: 6915 e7bc f836 923f 6fbe c4f8 e615 b53f
00000140: 34c1 325f 9838 af3f f290 2ab8 bdb9 9abf
00000150: 29ba a893 7be0 b5bf eac0 127d 3c0a 90bf
00000160: 41de e043 c1d5 96bf da5d 9b94 b8d3 843f
00000170: c86a 9880 1d1c 98bf 347f 1495 2ec5 afbf
00000180: 2ede d0f6 dcad 893f 5adc df10 f154 ad3f
00000190: de47 b3de 82d8 82bf fb4a 70e4 d723 8e3f
000001a0: 754d e692 2ba1 a8bf c16e 0ba3 ea2a a53f
000001b0: 6781 fd6a cf77 a7bf e6ad 7725 27e4 85bf
000001c0: ff6d f644 dc84 64bf c8d3 bb80 51e4 18bf
000001d0: 9c29 8418 bd92 92bf 1b89 db5a 73b4 80bf
000001e0: 2c5d b529 4b63 a3bf c9ef fcc1 df9c a43f
000001f0: a55a 3604 ea49 80bf d9d0 0ac5 c1a6 a5bf

fc22.weight f8 [64, 256]
-0.06586337212519928 0.026991687025579338 -0.02973139715076399 0.02594681203936202 0.009246095893794463 0.03886133740839379 -0.010095568825613103 0.013712551145410212
-0.04196446452968517 0.024532812326352717 -0.00798280630148061 -0.033939738342768894 -0.04615972963092215 -0.05236703573974878 -0.05006555248524182 0.03016567441602757
0.04461750961343256 -0.0192177251352255 0.0009136974132346507 -0.04042556890487507 0.022824321948198677 0.03582369102312457 -0.020767687439102477 0.046193480143217294
-0.07683787036454257 -0.020379330549752696 0.04002389809896324 -0.02971390626981551 0.04641077577368465 0.048185996914953594 0.02387228814068198 0.0087940086677531
0.028734372941608743 -0.013832273330025558 0.023734669576676633 -0.008652338108972535 -0.026907056601976266 -0.0007599250467445189 -0.006198314072136948 0.03461235385114675
0.04564886346807424 -0.07026922595094097 0.028791491790074845 -0.0730454861035834 4.499420786735323e-05 0.03654023269453357 0.02183052505970394 0.013442346983132373
-0.0586054684122188 -0.04925438341083635 -0.003626716985958953 0.004676138268670403 0.014905309587958906 -0.028773967337661993 -0.06436160882283129 0.0171171873021533
0.008849947427991799 0.04140084637323595 -0.05160226744767152 0.021379375801125672 0.0452660067105122 0.0283133219362702 -0.002821232790969363 0.03247480199406738
-0.04972479109848645 -0.07049325805142753 -0.0701422785349355 0.04526030585651574 -0.023912986722778275 0.03231649307202985 0.051342139166474655 -0.053156504803658244
-0.01972017263350183 -0.02140021536241499 -0.0533973783671716 -0.04778620301023662 -0.06630712279361282 -0.007790963438801786 0.04398884212860746 -0.04419420693040344
-0.04255287849457832 -0.0696275628139074 0.03338891912446289 -0.02470736896216822 0.02859808121345226 -0.03360487599173466 -0.026992616200957244 -0.027170045627603653
-0.01935819303398482 -0.024147712984804136 -0.07412170084023156 0.019023760041897927 -0.046523915502711115 -0.05749758015480419 -0.02905290441022849 -0.01195641272203191
0.02379665829053189 -0.04382001880670257 0.02103964042955762 -0.06422809865127263 -0.04190414956909783 -0.01999451854862702 0.011321724074560571 -0.03457276589154218
-0.009877063993440129 -0.03159481504583122 -0.0720272385617713 0.008891765001020251 0.01298973664289509 0.011075711712863399 -0.03630438848854981 0.02910765905889209
-0.03183537498816189 0.02719356871171656 -0.04342457472666968 0.014730767794255827 -0.004286861746656729 -0.016455011349272484 0.030114332337165865 -0.01670157685638564
0.023664509484794254 -0.0494832746312935 0.001989856801518058 -0.0029106806347784647 0.015814878394850483 -0.07361260246022186 0.03165585059608557 0.02118104976958042
0.004484316620401265 -0.005332165375814339 -0.03543041557493137 0.025304041687094964 -0.0034297754940980003 0.03421327714772733 -0.028952380315549992 -0.05855055610300904
-0.004017061364339868 0.008926903765138399 -0.06658014605555188 -0.012707695127287894 -0.04846141783717622 0.039524978301002496 0.018650666786968702 0.02079150351861659
-0.04129404501933149 -0.062208528513542936 0.047026722979257925 0.010598812097159039 -0.039584650191883716 -0.0032482234824821256 -0.02884715135031456 0.04970361965002556
0.031197038191314225 -0.032131797013559414 -0.03373065127890694 -0.041736147752261164 0.021554754235638404 0.015379213096079565 0.031255370443570754 -0.05590261472775126
-0.032205067850561 0.033137455477585835 0.044208352418888895 0.010652675716757059 0.03482643446550109 0.039145530560840754 -0.001853054983059932 -0.054711658868079924
-0.05700719924699265 0.026364903545459333 0.05342463011684695 -0.020316893871707334 -0.022117338484443173 -0.06145724866720674 -0.07068388135008329 -0.005357030387986121
-0.05707651897661195 -0.020576907053693676 -0.06177034788318133 -0.06391319528029539 -0.04592411473669407 -0.06360772650435129 0.030657561658675676 0.04663985662268753
0.046465072771750014 0.023094455532181375 0.03401942183559896 0.0154601516190052 -0.03139374606860669 -0.05890363740241588 -0.012126391775904426 -0.03700751450740974
0.01527548969959575 -0.029033978111835664 -0.007056157617549585 0.047740307337849154 0.03788272470890956 0.03109038315408938 -0.07258165596726374 -0.016016976929129807
-0.06843766313597288 -0.07083377022451004 0.029629587468884264 0.04841841650848384 0.04824512288398581 -0.05772314972001929 -0.04071238981758145 -0.027869314937263183
-0.028805903769059345 -0.05975251554657733 -0.019070087585903336 0.0014951552420087082 0.014467988170933614 0.0030190199323589153 -0.02088389912508868 -0.05249262484927051
0.01342849650729665 -0.012346521244161046 0.023100687555748192 -0.0111519479046291 -0.07016036849302626 -0.0650965017587702 -0.01922223759259286 -0.07043086762358929
-0.025260657901661123 0.013553546509875882 -0.06778178254729028 -0.066804320198794 0.0107422805829191 0.04728593472564376 0.0020414813827288533 0.039156089439162475
-0.03756798237376633 -0.020949639063997674 -0.053801120675019215 0.03372306995057052 0.038469120853270374 0.022907169206162727 0.040560782233906974 -0.07203849939097641
-0.05727246924017742 0.02110168994326401 -0.016454758907178464 -0.0583721961080315 0.04206440634143531 0.013788069846058461 -0.0709158058440749 -0.02240174249125522
-0.03726900811990271 0.02426642990834994 -0.010889728348526211 0.0018599836467570248 0.002834784392527519 -0.008675089812604871 -0.03262852938791433 0.03128065321888142
00000000: bd31 4805 6cdc b0bf 0aa9 2774 b5a3 9b3f
00000010: 3c2a b549 e871 9ebf c6fc 9314 cd91 9a3f
00000020: 4f12 d6fb 9def 823f 2ce9 7e1a a2e5 a33f
00000030: 2f32 864f fcac 84bf 26d0 b675 5315 8c3f
00000040: 9190 7fc5 5d7c a5bf 1a7c 7b2a 211f 993f
00000050: 7617 f61f 4a59 80bf 4419 6fa4 8c60 a1bf
00000060: fb63 5082 3fa2 a7bf c207 c823 dacf aabf
00000070: 221b 292d 31a2 a9bf 5e82 5024 c0e3 9e3f
00000080: cdc0 3c31 1bd8 a63f 8b55 d6b3 cfad 93bf
00000090: ac67 0f41 a6f0 4d3f 76bd bc00 a9b2 a4bf
000000a0: f396 4851 425f 973f 738f bb9a 7b57 a23f
000000b0: 363e 75e9 1f44 95bf 7ad0 01fd aba6 a73f
000000c0: 065c 4f8c a5ab b3bf 9af9 e6b8 51de 94bf
000000d0: b276 c92a 037e a43f be3b a97e 526d 9ebf
000000e0: bb8a 4238 27c3 a73f 9cf0 bfc1 d5ab a83f
000000f0: 1e32 6123 fa71 983f e3a8 07dd 9702 823f
00000100: 809a 3820 8b6c 9d3f fa82 a74c 1854 8cbf
00000110: afe8 73b6 e64d 983f 201e b229 51b8 81bf
00000120: 4a66 8c00 868d 9bbf fa20 919c b6e6 48bf
00000130: 43c1 ae43 6763 79bf 0811 a8df b5b8 a13f
00000140: 39d0 63af 495f a73f efe0 5ffb 29fd b1bf
00000150: 71d1 904e 847b 9d3f af70 efe5 1bb3 b2bf
00000160: 0f9f dc35 0597 073f 938f d2c0 66b5 a23f
00000170: 3c66 bebc bd5a 963f ef6d 6445 a987 8b3f
00000180: bffc 6434 8901 aebf c44d dedb de37 a9bf
00000190: fadd 16db c6b5 6dbf f1dc f74e 4927 733f
000001a0: ce7e bcc9 ac86 8e3f 5806 c442 ec76 9dbf
000001b0: ca12 039d 007a b0bf 2626 a6fe 2a87 913f
000001c0: 2c44 32d6 eb1f 823f 1248 66e2 7d32 a53f
000001d0: c4a4 2cc6 9c6b aabf d8b8 7f9f 79e4 953f
000001e0: a463 e224 1b2d a73f d793 07df 2afe 9c3f
000001f0: 18ae 4ad2 8d1c 67bf 9066 0489 89a0 a03f
00000200: 6b09 231f 8775 a9bf d45b eb9d d80b b2bf
00000210: 51dd 5f28 d8f4 b1bf dfdf ebda 5b2c a73f
00000220: f730 b25f a57c 98bf 5b47 bb91 c98b a03f
00000230: 6ddd 4051 8449 aa3f 281b 6753 5437 abbf
00000240: 2c24 2162 8631 94bf 218b 6f24 f0e9 95bf
00000250: 6deb 8eb3 e656 abbf 110a 42e6 6e77 a8bf
00000260: c7f2 e3eb 80f9 b0bf e2a4 c8d2 6ae9 7fbf
00000270: 049d a99c b485 a63f 71a2 e082 9fa0 a6bf
00000280: 9d41 f8aa 7dc9 a5bf 5398 2fa9 1cd3 b1bf
00000290: 5670 6037 5a18 a13f 8a9f a676 e34c 99bf
000002a0: b217 29be d048 9d3f fec3 bd86 a834 a1bf
000002b0: 7730 44cf f3a3 9bbf cc04 9be5 76d2 9bbf
000002c0: 0b65 f657 a2d2 93bf 66f5 2b96 2dba 98bf
000002d0: 645e 08c9 a3f9 b2bf 4f59 e8ec f67a 933f
000002e0: 47cc 218f fbd1 a7bf 2c61 baa4 5270 adbf
000002f0: ebd7 2e69 0bc0 9dbf 62e7 f28c 9a7c 88bf
00000300: 9c9b 72b4 265e 983f 3aaa 5ed7 936f a6bf
00000310: 3b19 425e 6a8b 953f ae04 31af 4071 b0bf
00000320: 5193 eeef 7574 a5bf 48fe 0f6d 7179 94bf
00000330: 489b 1315 d82f 873f 9841 ac85 85b3 a1bf
00000340: c199 a816 6d3a 84bf a7a5 b012 322d a0bf
00000350: 7143 0b8a 6070 b2bf 6996 107f d835 823f
00000360: 9ae3 84f0 5c9a 8a3f 5281 b1dc dcae 863f
00000370: 55ea 8422 7d96 a2bf 775d e2ee 65ce 9d3f
00000380: bd2f dcec b94c a0bf 2b08 1d81 a1d8 9b3f
00000390: fb66 96f0 be3b a6bf ecd1 5e2f 2a2b 8e3f
000003a0: 14e0 11b0 198f 71bf 36d8 661e 95d9 90bf
000003b0: deb2 1da2 4ad6 9e3f 8429 8fd9 371a 91bf
000003c0: 3e96 4059 823b 983f aa14 7b2c df55 a9bf
000003d0: bf1a 5c3c 084d 603f a0cd 55c4 23d8 67bf
000003e0: 9601 fc85 c631 903f badd 2388 46d8 b2bf
000003f0: 6212 1316 3235 a03f 949f 3830 7cb0 953f
00000400: 762a ac93 255e 723f 51eb 7e3e 2ed7 75bf
00000410: 5825 5b78 ef23 a2bf 18c2 027e 4de9 993f
00000420: 6d80 8db2 c218 6cbf 8a7f e014 6784 a13f
00000430: f5f5 625a b1a5 9dbf db04 40a7 56fa adbf
00000440: 724d f9b2 3174 70bf c974 cebd 4448 823f
00000450: 8a1a df7d 650b b1bf d07b d5f7 7d06 8abf
00000460: 17f9 7459 efcf a8bf b917 5b32 9e3c a43f
00000470: e230 980f 2919 933f 82a8 962e 5e4a 953f
00000480: 3952 c139 7e24 a5bf 5bf3 fed6 cbd9 afbf
00000490: 31ca 77fa e213 a83f ad83 ab7a d4b4 853f
000004a0: ded7 fe73 7044 a4bf 3155 13b4 049c 6abf
000004b0: 3d8a 878e 1b8a 9dbf 7f84 c7b9 c072 a93f
000004c0: 7816 0ecb 1df2 9f3f 537e ab32 9473 a0bf
000004d0: 2e3b 3bd8 2445 a1bf 6b60 50bb 705e a5bf
000004e0: efc0 0f12 7312 963f b179 490a 237f 8f3f
000004f0: 024e c233 b400 a03f 1f7d 087c 449f acbf
00000500: 8203 5ec2 2e7d a0bf bf07 197f 64f7 a03f
00000510: 73c6 b227 7aa2 a63f e902 8cee 11d1 853f
00000520: 3798 213a c5d4 a13f d935 160b e20a a43f
00000530: 0117 32a3 465c 5ebf 4ebc 18a3 2a03 acbf
00000540: f705 ce30 0c30 adbf 6eb3 f5b9 66ff 9a3f
00000550: d035 4e1e 795a ab3f c4ee f0aa f3cd 94bf
00000560: 5a69 dc75 eda5 96bf 066e 4112 5377 afbf
00000570: 77c1 c0be 5618 b2bf b80a 1fe5 40f1 75bf
00000580: 5486 bf2c 2239 adbf 0bcf 64db 1c12 95bf
00000590: 2ba7 0af0 5ca0 afbf c100 837b 9d5c b0bf
000005a0: eaa0 c895 5d83 a7bf 0eee 1b91 9848 b0bf
000005b0: f2e4 cb22 b264 9f3f 9de6 c4e5 2de1 a73f
000005c0: 8bfe eb1f 45ca a73f 2228 ebac 12a6 973f
000005d0: 66ea 6c60 fe6a a13f 9835 c26c 92a9 8f3f
000005e0: a2c2 5351 d712 a0bf df83 8418 9e28 aebf
000005f0: e997 c4c0 b8d5 88bf d7f8 0721 a6f2 a2bf
00000600: a36c 8585 c148 8f3f 8f3a da49 15bb 9dbf
00000610: cca7 3ee3 eae6 7cbf 4d21 6fe5 6a71 a83f
00000620: 0691 6a4f 5d65 a33f b8ba 774b 28d6 9f3f
00000630: 683e ab1e b694 b2bf b597 5d20 c166 90bf
00000640: b0d1 fb74 2185 b1bf ec0f 9176 2922 b2bf
00000650: 2cfa b0f4 3757 9e3f a928 db76 4cca a83f
00000660: 49d9 f4b1 95b3 a83f 4708 8a80 e38d adbf
00000670: c6f5 9d1d 41d8 a4bf 5eb0 de10 c689 9cbf
00000680: 82b5 7a7a 4b7f 9dbf eea7 40b8 e197 aebf
00000690: 3fa1 0dea 1b87 93bf d9cd 7ab7 227f 583f
000006a0: afbc 4380 64a1 8d3f 6cb7 03fc 57bb 683f
000006b0: 1a58 05bf 9662 95bf 3d83 0436 50e0 aabf
000006c0: 9a93 aa4a 6680 8b3f cd4e b407 2249 89bf
000006d0: 74a9 44e6 b4a7 973f 66ef 4b1c d5d6 86bf
000006e0: 9c21 27a8 07f6 b1bf 054f 2312 2aaa b0bf
000006f0: 16b7 4387 feae 93bf 177d 12e1 c107 b2bf
00000700: a797 400e eedd 99bf dbb0 0938 f6c1 8b3f
00000710: 4821 4e9b 255a b1bf bf3e 7c82 161a b1bf
00000720: e303 4e7e 0c00 863f 5b34 6aae dc35 a83f
00000730: f05a c6f8 4bb9 603f 3e31 2957 440c a43f
00000740: 6d14 584f 1c3c a3bf 944d 927a d273 95bf
00000750: 7420 930b d28b abbf 52e9 1d75 2644 a13f
00000760: 61fb f07f 39b2 a33f d76e 561a fa74 973f
00000770: e9bd 6302 62c4 a43f b1e9 ef76 1d71 b2bf
00000780: 6709 b22c d152 adbf e25e c970 ae9b 953f
00000790: 12c6 7a2d 84d9 90bf 0634 8fe2 f5e2 adbf
000007a0: 26ce 1f43 7789 a53f a1a1 8268 eb3c 8c3f
000007b0: 63aa deca 8927 b2bf b450 7e7d 7bf0 96bf
000007c0: bb05 0f66 ec14 a3bf 435e 638b 4cd9 983f
000007d0: 4936 f498 5a4d 86bf 9d48 c53b 5679 5e3f
000007e0: 444d 3a48 f938 673f 71ae 47d8 3ec4 81bf
000007f0: 487c 46c5 afb4 a0bf 822d 258d 0404 a03f
