weights/livetest7_intersection_0_1_bn.pth (torch, 379948 bytes, 10 tensors)

fc1.weight f8 [256, 53]
-0.1153615102757005 0.02166373488273636 -0.06670876657580388 -0.062486575051277776 -0.0835951889471997 -0.1485627591025744 -0.0968990264440568 -0.09351984530846097
-0.2247338373799116 -0.0507275393360327 -0.007301785983145237 -0.029777243733406067 -0.07456664784143274 0.11757665577466749 0.07232029736042023 -0.0854465514421463
-0.06538753999660318 0.10327069248443958 -0.033711910247802734 -0.11093614250421524 -0.18821106894204898 -0.07097903286905792 0.02158808335661888 -0.024466272443532944
-0.11225553365687425 -0.11542405759920575 -0.05222916975617409 0.0018827413441613317 -0.023816056980589057 -0.09072144296820375 0.030492816120386124 0.13655267655849457
-0.09238767387608585 -0.07636030211240073 -0.13057895004749298 0.11531748622655869 -0.23676276995132273 -0.1066998901377911 0.021453171968460083 -0.023799283429980278
-0.011239685549238208 0.1070031981098069 -0.11457186937332153 0.002797527937218547 -0.05483929856012171 0.09423073442504656 0.04464556276798248 -0.06733538210391998
-0.17745742989967145 -0.09713681750708314 0.040055155754089355 -0.07959766685962677 0.05559468939826017 -0.008641432232893053 0.012285020792535855 0.07374696199221412
-0.0486376008506785 0.001881848383847193 0.11723436121468833 -0.04926929559360513 -0.07237568696297321 0.13706827982541198 0.04799606080704235 -0.0797157809138298
-0.010441544465720654 0.06659026517745262 -0.030653408459319013 0.04496755078434944 0.07821812480688095 -0.09384220019701749 -0.051948404840878835 0.12345317006111145
0.10345976799726486 -0.07957699076060074 -0.0918576893310444 0.008807418867945671 0.06347240507602692 0.01203143810134491 -0.12817951332572525 -0.08847302943468094
-0.06197318807244301 0.04788377582308033 0.014529315307587195 0.09949091076850891 -0.04200000688433647 -0.033783978976047326 -0.004322457756781397 -0.008360800333321095
-0.010021026246249676 -0.09276209697846205 -0.051212331219462184 0.0023517769295722246 0.017865125089883804 0.050994143627846045 -0.0023015111282481348 -0.11411643773317337
-0.006523793563246727 0.06860894783612491 -0.048393577968084155 -0.0921425074338913 0.05661987140774727 -0.049503370381629976 0.0025861883272480036 0.06620699912309647
-0.051934920251369476 -0.08925835220504932 -0.052217160060529975 0.06808963360094006 0.04532608323598093 -0.07847652336797029 -0.036632321197002334 -0.0513110475218303
-0.12431889435777878 0.015618705019854101 -0.08299463306320233 0.03289131715273413 0.04302157089114189 -0.11870735138654709 -0.1831840841914463 -0.11043760454515775
-0.12264331430196762 -0.10219922661781311 0.0497470379923531 0.00036304352544991363 0.02975020930171013 0.09690006077289581 0.019475485489244257 -0.06456189625488609
0.10729145258665085 0.13535159826278687 -0.18346377898705482 -0.04105327623062628 0.07107660919427872 -0.06393346190452576 -0.15237420488846806 -0.014435941203412682
-0.11512837558984756 -0.018037157133221626 -0.12534182955277484 -0.11136172859187997 0.024491291493177414 0.031213006004691124 -0.061077174439554495 0.05225556548171257
-0.07634538412094116 0.1146811991930008 0.01601235877024622 -0.09996371448520133 0.11312918365001678 -0.011913331225514412 -0.08084794861496754 -0.03423124121456472
0.016983317211270332 -0.1288275271654129 -0.026217811449890334 0.045669064616418745 -0.03364771977066994 -0.08101961016654968 0.04949658734360274 0.06011106786522158
-0.04613585489884871 0.0620594455724918 -0.04627423293009513 0.08277725694168322 -0.10249540439307515 0.11296334179485618 -0.08506309391080792 -0.00811686399188746
-0.028112295983510928 0.042957939207553864 0.12469145655632019 0.021982632253496975 0.17015137085676754 0.02151568979024887 0.049829449504613876 -0.05181599068251341
0.03904679921025458 0.023196499794721603 -0.07369662076234818 0.033923782084315186 -0.04613092158183461 0.10453259944915771 0.1095842644572258 -0.061061954449684305
0.07573214827923354 -0.021667467430233955 -0.11065573990345001 -0.17361854794231127 -0.06891336087395329 -0.004651973955333233 -0.038884006440639496 -0.08099903035704922
0.026702310948034373 -0.07153041660785675 -0.07077998667955399 -0.07694147280213363 -0.010490758866674894 0.04656124860048294 -0.0193814504891634 0.00969646093639622
0.05783865137076007 -0.05940433219075203 0.08537334203720093 -0.08978974758443374 -0.0725781685094186 0.02215661108493805 -0.09323541820049286 -0.029810469921500504
-0.12624718260978343 0.0043482729233801365 -0.09311597794294357 -0.05266510256701756 0.01170353588835562 0.039403105824505416 0.06969462800969368 -0.022181896583587116
0.1602472131204106 0.07226274600389544 -0.03528648035944711 -0.002625657645082419 -0.1444058865569414 -0.09063487953550851 -0.019298823550343513 -0.1334889829158783
0.010934632245462787 -0.01366633017169414 -0.043618328869342804 -0.01667024940252304 -0.021290147703129363 -0.09452049204091592 0.05710749328136444 -0.017086509615182877
0.09553456303850966 0.011471277156474459 -0.09281380474567413 0.12905952334403992 0.016665663544100186 0.07533247432341852 0.11145588755607605 -0.09057527035474777
0.0495124011971173 -0.142808032965886 0.10305020213127136 0.04518605396151543 -0.14137876781447545 -0.08003283583076617 0.13295631110668182 0.09400659799575806
0.03695659336821409 -0.12999358152111634 -0.0764865055680275 -0.09819767624139786 -0.1723890304826088 -0.05881986334397654 0.0706152394413948 -0.09565336257219315
00000000: e7ee d9f9 5488 bdbf 2c80 52a3 042f 963f
00000010: fcb0 cc62 d313 b1bf 248e 9188 3dfe afbf
00000020: ec93 a18a 7e66 b5bf f7e1 dfbf 1a04 c3bf
00000030: 216a 97e5 5fce b8bf 3477 20a5 eaf0 b7bf
00000040: 7cf7 ec10 14c4 ccbf 61dd e8c4 f5f8 a9bf
00000050: 0000 0040 7ae8 7dbf 0000 0000 ed7d 9ebf
00000060: f8ee d9c1 cc16 b3bf 5943 53f3 8019 be3f
00000070: 0000 0040 9583 b23f 0000 0040 d3df b5bf
00000080: f8ee d9e1 3cbd b0bf f31e dbb6 f26f ba3f
00000090: 0000 0000 b042 a1bf 0000 00a0 4f66 bcbf
000000a0: 74f7 ece0 4c17 c8bf f7d2 df90 ae2b b2bf
000000b0: 0000 00c0 2f1b 963f 0000 00c0 af0d 99bf
000000c0: f1ee d955 c7bc bcbf db69 8f58 6e8c bdbf
000000d0: 0000 0020 c8bd aabf 0000 0020 cad8 5e3f
000000e0: d8bb 6787 3c63 98bf 4228 983e 8539 b7bf
000000f0: 0000 0040 8239 9f3f 0000 00e0 8e7a c13f
00000100: f2ee d9f5 b7a6 b7bf a712 4948 598c b3bf
00000110: 0000 00a0 cfb6 c0bf 0000 0060 7285 bd3f
00000120: 7cf7 ec10 3e4e cebf 4eec a01a af50 bbbf
00000130: 0000 0000 d2f7 953f 0000 00e0 d65e 98bf
00000140: 5f77 cf0e d504 87bf 9bf3 72c4 8f64 bb3f
00000150: 0000 0000 9554 bdbf 0000 0060 d7ea 663f
00000160: f0dd b383 e513 acbf fe35 a262 811f b83f
00000170: 0000 0080 c8db a63f 0000 0040 e43c b1bf
00000180: 72f7 ecd0 ecb6 c6bf 7831 6e5e f5dd b8bf
00000190: 0000 0000 1c82 a43f 0000 0040 8360 b4bf
000001a0: dff6 9739 e876 ac3f 46a2 a566 99b2 81bf
000001b0: a3e7 4694 e328 893f 1a98 efb5 14e1 b23f
000001c0: d4e5 0412 07e7 a8bf f417 f050 0bd5 5e3f
000001d0: 0871 6233 1203 be3f dc00 8b3a d339 a9bf
000001e0: 9d10 8888 3687 b2bf c2a5 9511 748b c13f
000001f0: f392 018f f092 a83f 0000 00e0 4068 b4bf
00000200: 0000 0060 6062 85bf e24b 2b43 0f0c b13f
00000210: 2ef4 5f6b 9b63 9fbf 0000 00a0 fc05 a73f
00000220: 0000 0060 1a06 b43f 37b4 d4dc 0a06 b8bf
00000230: 33ec bd37 fb98 aabf 0000 0080 a09a bf3f
00000240: 0000 00e0 567c ba3f 2eb4 d45c 285f b4bf
00000250: 661e 904b fc83 b7bf 0000 00c0 9f09 823f
00000260: 0000 0040 ba3f b03f 105e 5a49 f0a3 883f
00000270: de26 e0b0 2f68 c0bf 0000 0020 2ba6 b6bf
00000280: 0000 0020 f3ba afbf 9e97 56e6 3884 a83f
00000290: 1187 a2b0 8bc1 8d3f 0000 0080 3c78 b93f
000002a0: 0000 0060 0681 a5bf 6d68 a939 224c a1bf
000002b0: 696d 42eb 6cb4 71bf 0000 00a0 771f 81bf
000002c0: 0000 0060 e785 84bf 38b4 d4bc 41bf b7bf
000002d0: 0aa1 7aaf 8038 aabf 0000 00a0 0844 633f
000002e0: 0000 0040 3c4b 923f a097 5686 e71b aa3f
000002f0: b3de de60 9eda 62bf 0000 0020 bc36 bdbf
00000300: 0000 0080 b1b8 7abf df4b 2b23 5b90 b13f
00000310: 9b2f 6b05 0bc7 a8bf 0000 00c0 a696 b7bf
00000320: 0000 00a0 47fd ac3f 8d68 a979 8158 a9bf
00000330: 12b0 2d49 a12f 653f 0000 0020 f1f2 b03f
00000340: 0000 00c0 3697 aabf ca93 9da7 a2d9 b6bf
00000350: 8bfc 7f25 35bc aabf b43d 837d 526e b13f
00000360: fa01 4ffa fa34 a73f b084 5e95 0917 b4bf
00000370: 010f 09bb 78c1 a2bf 183d 0f0e 7145 aabf
00000380: 49a2 8af1 5cd3 bfbf 5010 211a b3fc 8f3f
00000390: 51fe bfe2 223f b5bf 4799 fc76 21d7 a03f
000003a0: 0000 0060 ec06 a63f 0000 00e0 9a63 bebf
000003b0: 19ff 5f79 9372 c7bf ea20 c58b a345 bcbf
000003c0: 0000 0060 8d65 bfbf 0000 0080 ba29 babf
000003d0: 6b03 809a 7178 a93f 09f8 9e11 dcca 373f
000003e0: 0000 00c0 d676 9e3f 0000 0040 71ce b83f
000003f0: fc06 00b5 61f1 933f da83 fbe0 2087 b0bf
00000400: 0000 00e0 7377 bb3f 0000 0080 3353 c13f
00000410: 19ff 5fb9 bd7b c7bf 52bf 9b5d ef04 a5bf
00000420: 0000 00a0 1332 b23f 0000 0080 f15d b0bf
00000430: 23ff 5f79 ff80 c3bf df57 d83a 9790 8dbf
00000440: 0000 00a0 0d79 bdbf 0000 0020 5578 92bf
00000450: 28ff 5f79 330b c0bf cf01 54c6 3382 bcbf
00000460: 0000 00c0 3e14 993f 0000 0060 4df6 9f3f
00000470: 8dfc 7fe5 8145 afbf 694e 8ed1 3dc1 aa3f
00000480: 0000 0000 5f8b b3bf 0000 0040 bf5b bd3f
00000490: e406 0035 8b65 903f b628 80d4 3897 b9bf
000004a0: 0000 00c0 08f6 bc3f 0000 0040 0466 88bf
000004b0: 4dfe 3f7f 73b2 b4bf e83c 09db c186 a1bf
000004c0: 0000 0020 1364 913f 0000 00a0 6b7d c0bf
000004d0: 02f9 ff8a d7d8 9abf d2cf ee85 ef61 a73f
000004e0: 0000 0020 463a a1bf 0000 0080 b3bd b4bf
000004f0: 100b cfdf 9d57 a93f d0af 37bd e0c6 ae3f
00000500: 4a57 ed67 1e9f a7bf b592 4872 41c6 af3f
00000510: ff1b 2a9a 41b1 a7bf 46c8 6aeb e330 b53f
00000520: 19ca db89 233d babf 04e1 a762 2aeb bc3f
00000530: 0189 71e6 b1c6 b5bf ae40 210b 939f 80bf
00000540: 3a67 753f 78c9 9cbf 0000 0040 95fe a53f
00000550: 0000 0080 c7eb bf3f e85f 6f7a 9d82 963f
00000560: 6b85 9926 85c7 c53f 0000 0080 3508 963f
00000570: 0000 00e0 3e83 a93f 1050 c822 a087 aabf
00000580: 2338 3e2b f1fd a33f 0000 00c0 d2c0 973f
00000590: 0000 0020 c8dd b2bf f9af 373d 755e a13f
000005a0: fd7f 0edf 789e a7bf 0000 0000 a6c2 ba3f
000005b0: 0000 00e0 b60d bc3f 0e50 c832 8343 afbf
000005c0: 3579 1d9c 2e63 b33f 0000 0020 ff2f 96bf
000005d0: 0000 0040 ef53 bcbf fd13 b2f0 2139 c6bf
000005e0: 0909 3657 4ea4 b1bf 0000 00c0 f20d 73bf
000005f0: 0000 00c0 9ae8 a3bf 2628 643a 5abc b4bf
00000600: ae6a ffc0 d957 9b3f 0000 0040 d14f b2bf
00000610: 0000 0020 a31e b2bf 2328 64b5 6fb2 b3bf
00000620: 64d3 f0d1 2d7c 85bf 0000 0040 e0d6 a73f
00000630: 0000 0020 bbd8 93bf 4bbf def4 bcdb 833f
00000640: e310 2a18 079d ad3f 0000 00a0 3e6a aebf
00000650: 0000 0000 07db b53f 2b28 64fd 75fc b6bf
00000660: abca 269c 7b94 b2bf 0000 0000 39b0 963f
00000670: 0000 00c0 46de b7bf 43a0 90c5 a286 9ebf
00000680: 5db5 4220 de28 c0bf 0000 00a0 7ecf 713f
00000690: 0000 00e0 72d6 b7bf 28e7 549a ebf6 aabf
000006a0: ccb9 1aff 05f8 873f 5a10 c1d5 a42c a43f
000006b0: 5d2e 02d4 81d7 b13f 741d 8fe1 d9b6 96bf
000006c0: 8d4b d00d fb82 c43f 854e ceb2 cf7f b23f
000006d0: cb00 45ce 1111 a2bf 5a77 ea36 6782 65bf
000006e0: 5b54 0e60 e47b c2bf 5f5e 7bf3 d833 b7bf
000006f0: 0000 0020 12c3 93bf 0000 00c0 2a16 c1bf
00000700: cfb9 1a7f e564 863f f36d 26c9 17fd 8bbf
00000710: 0000 0040 2455 a6bf 0000 0080 0112 91bf
00000720: 0ea3 72a0 15cd 95bf 8e18 1eb6 7e32 b8bf
00000730: 0000 0080 313d ad3f 0000 0040 207f 91bf
00000740: 3457 e3ff f374 b83f 07e1 d7c1 407e 873f
00000750: 0000 0040 a5c2 b7bf 0000 00c0 0585 c03f
00000760: ea5c 8dbf cd10 913f 52bc 8b31 fd48 b33f
00000770: 0000 0080 5f88 bc3f 0000 00e0 f02f b7bf
00000780: 7fae c67f b059 a93f aee7 989b 8847 c2bf
00000790: 0000 0080 7f61 ba3f 0000 0060 a022 a73f
000007a0: 5c54 0e10 b318 c2bf aad0 7f2c 087d b4bf
000007b0: 0000 0060 b604 c13f 0000 0000 d110 b83f
000007c0: 7dae c67f f9eb a23f 7e5b a932 a1a3 c0bf
000007d0: 0000 00a0 9e94 b3bf 0000 00a0 7b23 b9bf
000007e0: 7154 0e00 d810 c6bf 88cb d51a a31d aebf
000007f0: 0000 0020 d713 b23f 0000 0020 bd7c b8bf

fc1.bias f8 [256]
-0.09019856516920788 0.03976269878342084 0.07256067652849815 -0.0290653414984589 0.09252683754212901 -0.058437852552408194 -0.18677297430576406 0.038899321008436585
-0.01004534164734716 0.007730521328823808 0.010642333620984597 0.08847789256691933 0.14443482664681287 -0.16193823786806388 -0.16963248136789535 0.15279977936576328
0.053359094954587856 -0.10426832511337598 -0.16250764360696923 0.039489188068534915 -0.008150174619598223 0.05392045792997963 0.001480511561102762 0.1940660246031084
0.0635915769691811 0.026745213971913175 -0.12940561646271637 -0.15347964068407 0.045888454793039934 0.06692504679708706 -0.004903305271350029 0.07233090567480231
0.024605259641626128 -0.10173212207142196 -0.08138069991815179 0.11824600227142779 -0.06090147663355321 -0.03901924184509338 -0.06349606514565019 0.024763561715833864
-0.148052297142621 -0.030973139388684106 0.0706826938820138 0.05336456056641377 -0.17280473383477388 0.1406003043672341 0.11694232456153116 -0.1372406776127297
0.13785028290416906 -0.06190769411042616 -0.21776817306719037 0.04890675504015697 -0.07276183515593806 -0.11807001204876487 -0.0762395497161216 -0.014453002409055343
-0.04106112879812881 0.07354615164257462 -0.12913851091239778 -0.12161151683118077 0.09070006392466114 -0.06702090742061965 -0.11090172357251014 0.17951782717957004
-0.07483450912580183 0.05255330630201822 -0.12003379250996467 0.31959057922311834 -0.023891160558929554 0.12757508604236262 -0.18517943366135636 0.217019670090029
0.10604744086549929 -0.06622880332914216 0.05707465965051653 0.05442395687555058 0.12294659348849162 -0.13708074499327347 0.06553818383458626 0.057286215032642536
0.1832709266790396 -0.02301084223887184 -0.12713463809688763 -0.06612692208828498 0.14664668077073495 -0.06906121364822966 0.05860030475564935 -0.07867943803285772
0.1205314171824435 0.13064824312310752 -0.12846834159111228 0.03840941162535869 -0.0016088924215614962 0.04378286228569285 0.07760529966363605 0.11564189136863831
-0.107353734273084 -0.023997593055950825 0.14324016534984393 -0.009561135308588655 -0.031880366142116486 -0.13743171684753996 0.019329378914342936 -0.09905659112544489
-0.02579497626353206 -0.17227159428892283 0.08980908957183743 0.12778973319485235 -0.1273964124557477 -0.06312467565408084 -0.002947828156769484 0.033796720937950456
0.03861115178526267 -0.09093777324189126 -0.025074857460745587 0.013956664453862044 0.0890383547747192 -0.10108652484781332 -0.01493580140876989 -0.09991574787732725
0.012747822663708558 0.05481570041518204 0.07520905433207455 -0.06711032977606012 -0.16785024746719365 -0.18970978718637227 0.07608579606578238 -0.03678551626717812
0.0454620801203989 -0.18250903157973974 0.004520872627989385 0.21032320005927876 0.10074090328657623 -0.11726083222060248 0.05809908475428823 0.07166997900786927
-0.08040507823805887 0.05699696673576937 0.06404200036204642 -0.0874394329244085 0.08196585087051152 0.08361129425166935 -0.15628327560391483 -0.010761400202471355
0.051880295290342195 0.002053634179522861 -0.05271222057537495 0.04483611783637544 0.1329494584150333 0.02500711747135116 -0.01301600685820761 -0.09657212081073015
0.06028948320797726 -0.1063000539411247 -0.16725278053837275 0.13125140818031727 0.08275960788736483 0.09842866585568044 0.038643634529203795 -0.00047124136482615205
0.07572346007194045 -0.08580017306386846 0.05296622933821383 -0.07586951898227466 0.07675484326564301 -0.10662035401002887 0.08057222576850515 -0.04919441810655592
-0.14442986731813842 -0.060306156859994874 0.10709132436343523 -0.013024699327819286 -0.08873115764296233 -0.06959891102449973 0.03843786008620328 -0.13203471810547607
0.07545952930065487 0.0870038595212542 -0.07274801361228557 -0.057389044239088874 -0.022668875488709876 -0.05981070632925448 -0.029452420720642497 -0.0930253954501364
-0.07519336169081604 -0.030639754818118335 0.00021348120348803863 -0.041621191617227785 0.10360352573753694 0.09855391660046109 -0.089040779482864 0.15627936797045386
-0.1568883222831879 0.11411809068645251 -0.05382556103635754 0.022632144221174728 -0.06748892383332343 -0.07260913993487596 0.004996879953255812 -0.06362822036410004
-0.0544661462588653 0.13983369208440963 0.014451002508054207 -0.004966620545892388 0.05725228505251508 -0.053088036939222656 0.16863779581454297 0.003452521329405391
0.07842539119544166 -0.04974274249717994 -0.06468554273891904 -0.02524997520589447 -0.04940425143879506 0.05261844559997026 -0.05433908253628614 -0.11544279593211282
0.09772037163929935 0.01659983114467073 -0.07246880229041332 0.1708748795894974 0.018957493703157774 -0.00012547096346973762 0.09707945185486763 0.0897206810679125
0.012875421446011354 -0.1904586149940767 0.0008503624898704295 -0.07927605652140121 0.049309566812016065 0.07913257019391887 -0.0684713270196135 -0.0823844664657119
0.004284542923742224 0.014849216032780086 -0.145021791044297 0.1652362601763893 -0.08756758056268893 -0.11266680486955824 0.11817243411758117 0.018316990679782718
0.11525030339346591 -0.016565261323231845 -0.2055635098275552 -0.1316618252547229 0.09956177749948902 -0.04557134447489686 0.007360247469035566 0.0011655280650760584
0.05333577435394497 0.14068527799199895 -0.07835506667316228 -0.07507243866209319 -0.04819263569487833 -0.02784507555115323 0.09591780459140854 0.09078495952784542
00000000: 6041 8ccf 4017 b7bf 6c40 c0c5 c65b a43f
00000010: 7660 aa24 5693 b23f ee57 bb0c 4ec3 9dbf
00000020: 6ae9 3ebd d6af b73f b143 1ff3 90eb adbf
00000030: 72bf 3544 2de8 c7bf 0abc 229f 9cea a33f
00000040: ffec d1ee a692 84bf 93fe 9c04 0aaa 7f3f
00000050: 5e8d d7d6 a5cb 853f 8b71 feb6 7ca6 b63f
00000060: a5fd 6c24 d77c c23f fabe ce65 64ba c4bf
00000070: 913f e863 84b6 c5bf cc21 9b73 f18e c33f
00000080: 9958 8c1f e251 ab3f 9de2 5e36 54b1 babf
00000090: a02b 52eb 0ccd c4bf 2993 9946 ed37 a43f
000000a0: 8439 95eb 09b1 80bf d909 ca56 769b ab3f
000000b0: 7150 1f2f b741 583f c4b0 77ce 27d7 c83f
000000c0: 233a 629f 8947 b03f 17e7 55ed 1863 9b3f
000000d0: 9623 50fd 5c90 c0bf 3a82 ab8a 38a5 c3bf
000000e0: d03d 3309 b17e a73f a5d9 46f7 ff21 b13f
000000f0: c827 86fc 7c15 74bf a303 5d3a 4784 b23f
00000100: 6fa9 e105 1f32 993f 1cdb 3fc9 1d0b babf
00000110: a98e ac94 5dd5 b4bf 5076 a3b8 5e45 be3f
00000120: e7a3 d674 7a2e afbf 3a5e 477f 54fa a3bf
00000130: 2faa 3933 4741 b0bf ebd4 ce7e 9e5b 993f
00000140: 2fa1 29af 60f3 c2bf 0b57 ea32 6cb7 9fbf
00000150: 43ce 9dd2 4218 b23f 6adb cb84 9952 ab3f
00000160: 0b09 352c 771e c6bf 2f4f 88d6 30ff c13f
00000170: f58e 82a3 eeef bd3f df86 033f 1a91 c1bf
00000180: 2aac 68fc 13a5 c13f 3d6d 2683 5db2 afbf
00000190: c274 b7d6 d3df cbbf e2e3 e662 4e0a a93f
000001a0: 4246 6406 85a0 b2bf f744 6318 d639 bebf
000001b0: 3a48 b164 6f84 b3bf 433f 6825 8999 8dbf
000001c0: 1b4d a6da f605 a5bf 1130 0dac ebd3 b23f
000001d0: fbed 8258 9c87 c0bf 285c 9baf ee21 bfbf
000001e0: 0131 4d90 1e38 b73f f311 853d 4828 b1bf
000001f0: e75f d02b 0e64 bcbf 8682 64ae 70fa c63f
00000200: 72ba 4eb9 5a28 b3bf 1949 ba57 44e8 aa3f
00000210: 05c2 3edd 88ba bebf 13df 770b 2c74 d43f
00000220: f56c 0ea5 ec76 98bf fa0c 2b63 6154 c03f
00000230: 60d1 bbad f5b3 c7bf 950c d0f0 4cc7 cb3f
00000240: 1581 57d2 ec25 bb3f e814 5af0 5ef4 b0bf
00000250: 8433 42c9 e338 ad3f b17e ccf5 74dd ab3f
00000260: ab0b 308e 6d79 bf3f 8326 54a2 dc8b c1bf
00000270: dc72 3544 1cc7 b03f 6155 2768 9e54 ad3f
00000280: 8271 32f6 6b75 c73f 1f3c 7a7b 2790 97bf
00000290: 904f 68a4 f245 c0bf 611b c1a7 b1ed b0bf
000002a0: d016 fd84 51c5 c23f 158d 0ae6 fead b1bf
000002b0: 7d1b ecf0 db00 ae3f 2102 38ed 5524 b4bf
000002c0: a66a f09e 25db be3f 682e bfe5 14b9 c03f
000002d0: 7743 da8e a671 c0bf ad3b 94fd 65aa a33f
000002e0: 473e 5615 2f5c 5abf 82de 4813 b56a a63f
000002f0: 7035 0de0 f0dd b33f aed3 79fd b49a bd3f
00000300: 466e cec9 887b bbbf 3c9e 6e35 d392 98bf
00000310: eb5a d398 b155 c23f 6143 b4db c994 83bf
00000320: d906 ee93 9f52 a0bf 648b a5cc 5c97 c1bf
00000330: 7e08 28a9 14cb 933f 9347 56d3 c55b b9bf
00000340: 72d6 cf8d ff69 9abf 1117 c0df fe0c c6bf
00000350: 2936 987e bafd b63f 0111 6bfa 695b c03f
00000360: 5b05 9090 864e c0bf 1e40 8151 f028 b0bf
00000370: 9cb6 e130 0b26 68bf 4af4 47c6 cd4d a13f
00000380: d470 5b44 d7c4 a33f 4284 0baa b247 b7bf
00000390: 88a9 fb32 39ad 99bf 13ea 1fcb 4f95 8c3f
000003a0: 37d9 d8b5 37cb b63f 67a3 4976 cee0 b9bf
000003b0: e7c3 b854 a996 8ebf 770e 7d15 1494 b9bf
000003c0: 8397 7ccb 871b 8a3f 535b 2eb1 cd10 ac3f
000003d0: 2527 b88c e640 b33f f7a8 9c7f 242e b1bf
000003e0: 17a1 bfed 1d7c c5bf d229 d909 6948 c8bf
000003f0: d1eb cad5 5b7a b33f d602 ab1a 8dd5 a2bf
00000400: 8486 a646 ce46 a73f d007 eeb8 745c c7bf
00000410: 78b2 6281 7a84 723f 111e ece0 deeb ca3f
00000420: 7e3f fce4 27ca b93f 393e 7d4f ce04 bebf
00000430: 6bf7 e4c9 29bf ad3f 359d f1b7 f658 b23f
00000440: 18fc 765d 6d95 b4bf 70e1 33d8 b42e ad3f
00000450: d71a 2079 0e65 b03f da86 ca40 6e62 b6bf
00000460: 55ae e0c8 b6fb b43f 701c 63be 8c67 b53f
00000470: 7bb6 d022 1701 c4bf 6325 6eaf 120a 86bf
00000480: 0d5e 28d7 0d90 aa3f f1ac 7274 c8d2 603f
00000490: 4109 f19e 18fd aabf 03dc 9277 c2f4 a63f
000004a0: eaec f4e3 7c04 c13f d3a4 d33e 779b 993f
000004b0: ce7d 3ede 22a8 8abf ed62 9654 f3b8 b8bf
000004c0: c58d 575d 43de ae3f 8d7b 3df7 7a36 bbbf
000004d0: 77e7 4903 8a68 c5bf ce1d d89c d8cc c03f
000004e0: 0a57 4ed1 bb2f b53f 98cc d6fc 9e32 b93f
000004f0: 7bc5 0035 19c9 a33f f589 1d40 1ee2 3ebf
00000500: ba87 8cd8 9c62 b33f a1ea 4c09 00f7 b5bf
00000510: 01a2 99bd 631e ab3f 6fc8 ca4e 2f6c b3bf
00000520: ebb2 a295 34a6 b33f c69e 8fb5 784b bbbf
00000530: b443 a4a2 61a0 b43f 34aa d3c1 0230 a9bf
00000540: 1338 598a ad7c c2bf 7318 ecd6 72e0 aebf
00000550: 3d87 d347 566a bb3f d8c9 398d b1ac 8abf
00000560: 5e76 36cc 15b7 b6bf 15fc aff6 3bd1 b1bf
00000570: 0b37 ff8f 20ae a33f 748c 197e 83e6 c0bf
00000580: e592 84d2 5051 b33f 3602 458b e245 b63f
00000590: 9150 5023 9d9f b2bf b2a8 4fc8 1862 adbf
000005a0: 7ec5 717b 8236 97bf 9505 4547 829f aebf
000005b0: 28fd 217f c628 9ebf b5e2 2727 83d0 b7bf
000005c0: 619e 5645 df3f b3bf 46e8 9a23 0760 9fbf
000005d0: bfea 1793 3dfb 2b3f e211 a271 5f4f a5bf
000005e0: 0f03 cbba c285 ba3f b812 b158 d43a b93f
000005f0: cda5 e363 60cb b6bf c57f 3c5b f600 c43f
00000600: 1a51 aaa2 ea14 c4bf c059 61db d736 bd3f
00000610: 7715 ae20 068f abbf 75bd 127d e12c 973f
00000620: f3d3 b440 f446 b1bf f935 6939 8396 b2bf
00000630: fa49 b3bf 9b77 743f 8c05 9165 f049 b0bf
00000640: 968a d799 fce2 abbf 1fd4 3007 12e6 c13f
00000650: 8401 55b9 7c98 8d3f 9c5b 0f0d e157 74bf
00000660: 0bf9 d7e7 2b50 ad3f 49f4 ecec 5a2e abbf
00000670: 6c4d f25c ec95 c53f 9e6d 5a46 7648 6c3f
00000680: 0745 5cba af13 b43f c43b 7a78 e177 a9bf
00000690: 6171 9652 3b8f b0bf 26bf ef26 21db 99bf
000006a0: 770c 6d98 834b a9bf 1955 090e cef0 aa3f
000006b0: 1ca7 c60c 55d2 abbf 7854 16b9 a88d bdbf
000006c0: 6f00 58c8 3304 b93f 10bc 8acf 8bff 903f
000006d0: 394f d1bf 508d b2bf f7bc c561 3adf c53f
000006e0: f872 e0dd 9769 933f 1404 915e 1b72 20bf
000006f0: 1e8c d4ee 32da b83f de26 f63e eff7 b63f
00000700: 6a3f 43d0 6d5e 8a3f c50c 52a9 f260 c8bf
00000710: 82f2 b78a 5bdd 4b3f 0e82 1d86 6f4b b4bf
00000720: 84d1 ac81 1a3f a93f aa03 0839 0842 b43f
00000730: 6c51 433e 5687 b1bf 142c 2bfd 2517 b5bf
00000740: 60c2 c53b ab8c 713f 3232 db09 4469 8e3f
00000750: 8f0d dff4 1290 c2bf 8914 c936 7626 c53f
00000760: 5ce3 b436 d46a b6bf ee72 4252 bbd7 bcbf
00000770: b1df d273 8c40 be3f 9324 b96f b0c1 923f
00000780: dbd3 ed3b 0b81 bd3f 752a 88de 7bf6 90bf
00000790: e7eb fab3 e74f cabf cbe3 cc70 4bda c0bf
000007a0: 30bc 4a72 e17c b93f c011 4f94 2055 a7bf
000007b0: 3637 b862 c725 7e3f 9139 033b 9418 533f
000007c0: ee32 1d9d d34e ab3f 098d 00a6 f901 c23f
000007d0: 404e d6e0 130f b4bf d578 e284 f237 b3bf
000007e0: 0462 6f84 b4ac a8bf 402d 6363 6b83 9cbf
000007f0: f9ff d2b9 118e b83f 230a 24e0 ae3d b73f

fc21.weight f8 [64, 256]
0.11685459632896342 -0.06472798756853361 0.04199654735813163 -0.05871195923320449 -0.058439446939618736 -0.008507080597605746 -0.028728998297250057 0.03167924160234475
0.052347308596417466 -0.09626188490623383 -0.03206386380288205 -0.013266348040818743 0.04230039074333678 0.06361103148647312 0.02014102536755372 -0.006444289806711299
0.09209852966137584 0.009229713250642918 -0.03486803085674505 -0.15508991588718646 0.06924977559767831 -0.03999882442009449 0.0624048398383713 -0.045728579416706
0.008604645983069247 -0.04984553669761194 0.03243690288705667 0.11456289160977998 0.1050052149578777 0.03433719291284812 0.059431255533001486 -0.056156516078517606
0.07547850864527231 -0.05331291726159208 0.1292350887292189 -0.10407420688905644 -0.04434691492363321 0.08056781699991453 0.05330569801087192 -0.006417456267964582
-0.1928066682335427 0.018242527604977365 0.023207663207786087 -0.12147857124361659 -0.28227167546518184 0.017135621544612494 -0.005137568914863002 -0.1240496161117063
-0.03872370007277581 -0.09387169470822523 -0.14253725195369116 0.09389158990312334 -0.15772405837518846 -0.04452966413825496 0.012360939891424253 0.00040663071525222133
-0.01742711769206334 0.09315278515546686 -0.10921501934429419 -0.0013344105236918174 -0.04275338852246261 0.03367556571868722 -0.0819239883311116 -0.004152117484956227
0.03505442246728592 -0.09397526673796243 -0.012389785345230579 0.043921649930951774 0.026915774111243157 0.03214971719786203 -0.041565356746938315 -0.016721199620226834
0.011099445977445742 0.08399638443708976 -0.058013722806722935 0.029272984308263573 0.04414730240755571 -0.05954906662300195 0.00602333143437777 -0.002769306091689444
-0.05694852966825067 0.10955515768736637 0.19070330273778072 -0.11562434250978353 -0.06697687786328625 0.010772903019152116 0.04374729122155007 -0.11809147026035928
0.06439134674033256 -0.015705409009291536 -0.08550834496997133 -0.02907658775386409 -0.014327604933692327 -0.05711182738462245 -0.0422892123304544 -0.1712633126452261
-0.04325747113941317 0.09247959473746961 0.0248457619257736 -0.01244627890281839 0.05895968345215564 0.12518684286800102 -0.0447122472739016 -0.17692224856016484
0.09785027095745247 -0.10019462790046556 -0.05717436890197657 0.03252271355633153 -0.07439599350450615 -0.13195995613047284 -0.07750429003229818 0.11353738899819682
0.02458424822506329 -0.017077978171938478 0.04018428693531228 0.0010168489442441888 -0.09132067418211652 0.03201320468830873 -0.06213511371194872 0.07920664755373831
0.02308635163628785 -0.005231145300128663 0.025340700828602385 -0.07700063536550762 0.06740289436599659 0.009209659969526903 -0.08795490861901743 -0.001808829429559835
-0.06624763344882058 0.001195136516687766 0.02032688356277823 -0.018630880885628205 0.008008008900836671 -0.10229970660314733 -0.005984371092091557 0.003599288239508787
-0.09616357816432336 5.948633304982881e-06 0.052314635442945304 -0.022088485359078553 -0.005222841686067064 0.00034981506052287774 0.020688130212273968 -0.04472181367600965
-0.12022759232409583 -0.08780861895332105 -0.032764781518555545 0.05161358214825965 0.10097819496982241 -0.07248592267694079 -0.009963434999490187 -0.03544317517577671
-0.03819430842978035 0.021869731161220218 0.14846683830212135 -0.019077232261677558 -0.008818343286743316 -0.0012926273380939653 0.043781884487582794 -0.2040430754835103
-0.2767648241658811 0.004931355488714808 -0.002389877093736126 0.06061667836435678 0.04544600089709511 -0.06862759468482259 0.09371052565266981 0.02953527728534668
-0.05133151855335239 -0.012168886402294953 0.0007437908165794291 -0.030319169754818152 0.023494258360717623 0.07568124942570119 -0.19363583988952784 0.21431695002388448
0.0400895985022323 -0.023080081501393023 0.13050557769952076 0.025658358203618524 0.03165249176002776 0.19087239484794735 -0.0056955300370584066 0.0661320447405415
-0.08143808769095277 0.029761811049956358 0.06604886435972362 0.07167202839314579 0.06460364065304064 0.05358105806269099 -0.13984614225275302 -0.01435119435945351
-0.1138622239244661 -0.0041994043252949285 0.1401627132810946 0.07528851716847541 -0.14373340181606556 0.05147912390523334 0.07476159454205485 -0.03136794514538625
0.040129682897077544 0.0866510348595796 -0.017069459299277376 0.04151963179883284 -0.12862309313362189 -0.004886228811800947 0.08038819611544602 0.012727493310018108
-0.04162631214411397 0.07380863505158251 -0.035257867491800494 0.051356225844852485 0.07173492922664992 -0.017114858075942534 0.091867259192331 -0.03332596405887533
0.04103181242059436 -0.014370529311860178 0.03800707783734881 0.057078506635244323 -0.13204026423480303 0.01896998680887098 0.022666029872818627 0.02931985294203939
-0.09974604821259911 -0.05322405752073434 0.009397729679893163 0.03636580850138097 -0.039566617907341235 0.015614428174943747 0.023303577447054254 0.017273594983385415
0.047882766883973575 -0.019760642546729778 -0.01003516427836395 -0.05820005529858837 -0.0336987851490389 0.04908912483203601 0.021293063479980497 0.09031118806809797
-0.0497862089310734 0.06953122671120247 -0.1203241919782741 -0.07850692809053007 0.017368719664113824 -0.1194453228526604 0.01243443201454806 0.0383648200790686
-0.03299829375802382 -0.08113287075297819 0.12972998310732858 -0.03317901011515554 -0.07977869898988879 -0.17713019631652235 -0.0935955430907091 0.020067784177485972
00000000: 16c4 9ecd 2eea bd3f a124 be6d 0392 b0bf
00000010: 206c e54a 9280 a53f 70d6 9471 7e0f aebf
00000020: 9ad1 cd72 c6eb adbf 02f6 9b07 296c 81bf
00000030: bebb 8870 226b 9dbf 77ce 49f5 4238 a03f
00000040: 4214 e934 44cd aa3f 040a 866f 9ea4 b8bf
00000050: be63 d5bc ac6a a0bf 4d07 c817 632b 8bbf
00000060: bd88 b395 65a8 a53f d433 e603 d048 b03f
00000070: a9d3 0b55 d99f 943f 7ecc 73df 5365 7abf
00000080: 6dc1 e7ec c493 b73f fdf5 8024 07e7 823f
00000090: 7f49 69f8 38da a1bf b461 5682 fcd9 c3bf
000000a0: a886 7271 5aba b13f 6e87 86d5 b97a a4bf
000000b0: 8f93 6ff4 86f3 af3f 69b1 2c82 bc69 a7bf
000000c0: d93e ba08 509f 813f f184 efab 5a85 a9bf
000000d0: 2cb8 2ada 919b a03f 3a98 cc60 fe53 bd3f
000000e0: 0d4e 272c 9fe1 ba3f 74ba 3101 a594 a13f
000000f0: 47b9 bf05 c66d ae3f a570 0700 8cc0 acbf
00000100: 12ab 2e3e 8f52 b33f 868f 2fa8 d44b abbf
00000110: 3a38 cb7f c68a c03f 2815 f272 9ba4 babf
00000120: 340e 8d8a a3b4 a6bf 56ef 1fab 17a0 b43f
00000130: df56 4b6b e24a ab3f bfef b5cc 3049 7abf
00000140: cec3 418f e3ad c8bf 03ca d64d 2bae 923f
00000150: 59e1 f9e9 bfc3 973f bff8 a73a 3819 bfbf
00000160: fa71 ad37 bd10 d2bf abe1 8518 008c 913f
00000170: 4247 86a7 210b 75bf 59f8 4734 b7c1 bfbf
00000180: 000e c9c2 97d3 a3bf 82bb cab2 f907 b8bf
00000190: 1029 cd21 a93e c2bf 1bdc 007c 4709 b83f
000001a0: 29c5 414c 4d30 c4bf 4cf1 5996 97cc a6bf
000001b0: afe3 a644 b150 893f d674 a19f 21a6 3a3f
000001c0: 8f2d 3412 6ad8 91bf c727 c665 dcd8 b73f
000001d0: 0dd5 50f8 83f5 bbbf f3a6 c163 ecdc 55bf
000001e0: 958b feaa c5e3 a5bf 4d43 df7a ec3d a13f
000001f0: b1d7 a372 f8f8 b4bf 639f e98c cf01 71bf
00000200: 9a81 273c a7f2 a13f a9bd 4559 c30e b8bf
00000210: 6fd6 e5d6 d05f 89bf 7960 1404 e67c a63f
00000220: c89d 3706 cf8f 9b3f c884 e17f ed75 a03f
00000230: 24d5 bfef 0d48 a5bf 5036 13b6 5c1f 91bf
00000240: cc95 d06b 4ebb 863f 26b9 237c c980 b53f
00000250: 9521 5984 f9b3 adbf 8d8f 0ab9 bcf9 9d3f
00000260: 101a 18a8 799a a63f 8e65 4e1b 377d aebf
00000270: b8c0 60b8 ebab 783f d9de 15e3 a7af 66bf
00000280: ebf9 f590 5b28 adbf b217 608b ce0b bc3f
00000290: 01bd 3f40 f768 c83f 3b76 b391 8e99 bdbf
000002a0: f3d0 028c 6525 b1bf fbaf 3391 1a10 863f
000002b0: 2f98 2b82 0b66 a63f c16d b41a 3e3b bebf
000002c0: e226 6588 f37b b03f a6c6 4228 1415 90bf
000002d0: 6b5d 2ef9 dfe3 b5bf f6b0 edc5 40c6 9dbf
000002e0: 3934 f694 ca57 8dbf 38db a9ed c23d adbf
000002f0: 47a5 dd7f eea6 a5bf 686e 68cb f4eb c5bf
00000300: 64f0 b3df d725 a6bf 2adc f122 beac b73f
00000310: 835e a9db 2a71 993f 1589 c146 6f7d 89bf
00000320: 5146 6bb0 f62f ae3f 92f7 005a 1f06 c03f
00000330: 174d 8b0f 86e4 a6bf a516 c063 63a5 c6bf
00000340: 50c0 aa21 b70c b93f 6340 11ea 5aa6 b9bf
00000350: 9ff4 3479 f545 adbf 8207 342e d1a6 a03f
00000360: fc26 0ea7 9d0b b3bf 0422 fb57 10e4 c0bf
00000370: 0f09 fd36 52d7 b3bf 24d8 9e4c c910 bd3f
00000380: b45a 7ef8 9c2c 993f e6cd ebb6 e37c 91bf
00000390: af86 66ec 0893 a43f d8d8 783d f9a8 503f
000003a0: a794 0fad ca60 b7bf 5456 5ae6 0864 a03f
000003b0: 75f1 a672 2cd0 afbf a17d de08 e346 b43f
000003c0: 8d18 0cd5 f2a3 973f 5e3c c1df 406d 75bf
000003d0: 3b2a 44a5 e9f2 993f f983 aa4a 50b6 b3bf
000003e0: b22b f5ea 5041 b13f 2bdd 02a3 83dc 823f
000003f0: cf95 0a80 3684 b6bf d7b9 9dcf c7a2 5dbf
00000400: d99e 19db 9af5 b0bf 952f 3810 c494 533f
00000410: e0e4 8610 92d0 943f d2d4 6540 f913 93bf
00000420: d36d aec2 8066 803f d63b 4046 5030 babf
00000430: 4ee6 0a62 1183 78bf 90d5 e128 417c 6d3f
00000440: 4438 481f 2d9e b8bf 0ebd 3edf 4bf3 d83e
00000450: fac2 a8e0 fbc8 aa3f 3511 f128 5d9e 96bf
00000460: b9d2 bde3 8b64 75bf b7b6 9d3e ecec 363f
00000470: 565b b5ea 442f 953f 3a02 500e c7e5 a6bf
00000480: 1edb 1b49 3cc7 bebf e920 b62a a07a b6bf
00000490: 4f62 2aa2 8bc6 a0bf d55d b66e 186d aa3f
000004a0: d826 01fd b4d9 b93f 525e 51fb 6f8e b2bf
000004b0: 153d d49b b567 84bf e722 7e9c 9b25 a2bf
000004c0: 13d0 3253 348e a3bf 1363 70d0 0465 963f
000004d0: 2b29 861b f600 c33f ddfd a562 fb88 93bf
000004e0: 28f5 2b00 5a0f 82bf 9863 2709 ac2d 55bf
000004f0: ff15 1044 946a a63f d8a5 1660 151e cabf
00000500: 0c71 1ecf 83b6 d1bf 769f c8a8 e632 743f
00000510: 9a96 b07e ef93 63bf 4d89 5536 2609 af3f
00000520: 988c 2cbf b244 a73f c742 c6fa 9391 b1bf
00000530: 911c f8ba 69fd b73f e54e 13e8 7e3e 9e3f
00000540: f19e e1f2 1f48 aabf b944 0349 00ec 88bf
00000550: b625 bb9d 5e5f 483f 76bf 270a fd0b 9fbf
00000560: 8354 36fd e00e 983f 972c 34ab d85f b33f
00000570: 955a d427 0fc9 c8bf db5f aae1 bc6e cb3f
00000580: c626 f4b4 9f86 a43f 9332 f30c 4ea2 97bf
00000590: a81f 1522 68b4 c03f c614 6a45 2f46 9a3f
000005a0: 1778 e461 c134 a03f 8f62 cab2 816e c83f
000005b0: b57d e133 3254 77bf fbd3 6099 07ee b03f
000005c0: 4b0b 4863 20d9 b4bf a465 8454 e179 9e3f
000005d0: 7cea 5c10 94e8 b03f 308e fc19 1959 b23f
000005e0: 34ae ce3b dd89 b03f 82f0 20f8 f96e ab3f
000005f0: 5f42 b977 7ae6 c1bf 328a 75b3 2864 8dbf
00000600: 9862 0120 1326 bdbf 4a50 d603 6533 71bf
00000610: 3a99 d40e daf0 c13f 71c0 00b7 1b46 b33f
00000620: 3548 122a db65 c2bf 0f0d 33c3 785b aa3f
00000630: 6510 8e6b 9323 b33f 7695 1595 750f a0bf
00000640: d399 48b7 e08b a43f 69ee e220 c32e b63f
00000650: 5c9e cd05 a87a 91bf f996 6fa9 0f42 a53f
00000660: 6177 42b5 b876 c0bf bac9 280f 9503 74bf
00000670: d1de 4c21 5294 b43f 0473 363c df10 8a3f
00000680: f4c5 9f42 0b50 a5bf 7f7d b569 1fe5 b23f
00000690: e1a3 9bb7 510d a2bf 1636 e6fc 5c4b aa3f
000006a0: d863 0267 385d b23f 6ef0 d8ae 8e86 91bf
000006b0: 2be1 cdd9 9c84 b73f 2f28 7bcb 1910 a1bf
000006c0: 9b55 e228 1f02 a53f 257d 5dcb 4b6e 8dbf
000006d0: b1e7 a7e8 a975 a33f d714 9bde 6439 ad3f
000006e0: 0664 5204 b2e6 c0bf a471 cc43 de6c 933f
000006f0: a0ba 2284 c335 973f 96d1 0906 0606 9e3f
00000700: 4e75 fafe f488 b9bf a1ee d204 2f40 abbf
00000710: c0e7 0ded 1d3f 833f c57c 690c 8a9e a23f
00000720: 99c8 d963 1342 a4bf 0464 db12 75fa 8f3f
00000730: 4242 0f9c e4dc 973f dbe6 2656 2bb0 913f
00000740: 7708 9e0b 1784 a83f 73d1 f145 223c 94bf
00000750: cca0 15f3 508d 84bf 1b02 44cc 65cc adbf
00000760: 4096 4298 f740 a1bf a457 7cb3 3522 a93f
00000770: 1fd8 1c4d d9cd 953f 8d23 374f a21e b73f
00000780: 7a33 4df6 937d a9bf 0f7f c668 cccc b13f
00000790: 34dd 76f5 90cd bebf 1983 a8b0 0719 b4bf
000007a0: 6819 b90b 1bc9 913f 5ff5 4ffb f793 bebf
000007b0: 3449 c636 3977 893f aff0 1cbf 8da4 a33f
000007c0: 486e 0701 27e5 a0bf 33bf 83b2 1fc5 b4bf
000007d0: 8ed8 60f9 fd9a c03f 0d6c b7d6 d6fc a0bf
000007e0: 6239 1477 606c b4bf 8721 28c8 33ac c6bf
000007f0: 8b3e a0a4 e0f5 b7bf 5761 fb32 a68c 943f

fc21.bias f8 [64]
0.014907360453479686 -0.03357015844924173 0.021874550550019405 0.02370604710910202 0.024395037110547475 0.17769529997937525 -0.050207414892740894 -0.03840950226401542
0.15784273290662715 0.06966921627217655 0.02905113956598747 0.08295425153300887 -0.043903498574330214 0.030176068888736283 0.022700844925165498 -0.05304425600416785
0.09985877342842059 0.005638177791009614 0.088762967180722 -0.029237688209788063 -0.10316115833903754 0.013153556528677016 0.16391323438887015 0.06706381274892827
0.0115247888259216 0.1238655699658506 0.09601256196142187 0.0007762092520486856 0.054689073984843 0.15716829289069523 0.019459761307901946 0.07822932962914364
-0.05553091859479285 0.17784829399370436 0.010518686346315646 0.183892391793194 0.17813840810103726 -0.04530249756144097 0.01733289210746923 0.07668365794734164
0.029606192258532567 0.1825758363507189 0.1434729938676872 -0.03263207322313973 0.1144181731762692 0.12737219715287038 -0.12092330355307257 0.03037662191495944
-0.11787062100082896 0.02276903620390892 -0.07754146012987861 0.06209349367146492 0.16446932789695126 -0.10143428134981083 0.07465763218932421 0.10910785171856048
0.014859387386743682 0.05907839950202965 0.01970265345683347 0.19395991001304377 0.06524700793911645 0.11178231449358678 0.10887611925711232 -0.05298825889632833
00000000: 6464 f00c c087 8e3f b272 5299 1b30 a1bf
00000010: 1e7b e83c 4866 963f d240 34e4 6546 983f
00000020: c24b 4c3a 03fb 983f d73b 0837 b8be c63f
00000030: f948 f649 c9b4 a9bf 42bf 2808 69aa a3bf
00000040: 9663 dfcf 3034 c43f 8d4c 6d7d d7d5 b13f
00000050: 5cc9 63f9 94bf 9d3f 92ff 6565 7d3c b53f
00000060: d50b 1df5 847a a6bf c9f0 feb3 79e6 9e3f
00000070: b03c 2eea e33e 973f 719e 8ee1 9d28 abbf
00000080: 5cff 1736 5890 b93f 81ef 8ad3 0e18 773f
00000090: 731a 2379 2bb9 b63f 11ce af0a 7cf0 9dbf
000000a0: e39c 4809 c568 babf 481d ef78 40f0 8a3f
000000b0: c377 8ade 1bfb c43f 6170 8012 182b b13f
000000c0: 161c cef8 4e9a 873f ee8d 1a6c a7b5 bf3f
000000d0: a325 a17d 4794 b83f ef7f 1bad 506f 493f
000000e0: 0d46 6dd0 3400 ac3f 0083 f732 171e c43f
000000f0: 8022 9f79 42ed 933f 705d 585c d606 b43f
00000100: 4e1d 906e 8c6e acbf eb19 2d9f bbc3 c63f
00000110: 229f d52e d28a 853f 0e14 5e30 c989 c73f
00000120: 664c 7a46 3dcd c63f 4b32 e892 e331 a7bf
00000130: dc98 fcb2 b6bf 913f e67f 054b 8aa1 b33f
00000140: a2b6 09ee 1551 9e3f 9245 151f a55e c73f
00000150: acad 42b4 525d c23f 5b8f 96ae 26b5 a0bf
00000160: 2e32 dc67 824a bd3f a37a 986e bb4d c03f
00000170: b0b0 1562 d4f4 bebf 7236 c096 0c1b 9f3f
00000180: e496 5bde c42c bebf 63cd 6d27 c450 973f
00000190: d887 57d3 c1d9 b3bf b505 3ae9 b7ca af3f
000001a0: cd99 41b8 540d c53f 2238 17d9 98f7 b9bf
000001b0: c162 a638 c31c b33f 8537 defe 7dee bb3f
000001c0: 59d2 ea36 996e 8e3f 41c1 8523 863f ae3f
000001d0: 4f51 f7b0 ee2c 943f 37dd 1ea7 add3 c83f
000001e0: caa6 4225 07b4 b03f 9069 0509 c49d bc3f
000001f0: 4c52 862b 4edf bb3f 743c 10ee 4621 abbf

fc22.weight f8 [64, 256]
-0.058660863832777896 0.00409586672612804 0.01523819817015755 -0.0039350937386206 -0.060764548055995835 0.015792247458567013 0.03470965303297227 -0.008490844348760558
0.007536113101574474 0.038983956450732146 -0.025064142769317108 0.00879070200018473 -0.03953639436981856 0.025670253567174648 0.017369163214090943 -0.0011693287701104108
-0.04846159315664886 0.014853734838353045 -0.02578967884488597 -0.010478308392807415 -0.039647634298306166 -0.032018656662136685 0.0065468027642183665 0.04404280266190061
-0.039476988688778955 0.041370982784091355 0.011406424369315332 -0.01867175569726714 -0.041278862524770595 -0.06075721234083176 -0.037271695429852966 -0.050799214450796666
0.03268793326881607 -0.020379806329207995 0.024346289203492043 -0.04538667835704526 -0.061564286176008357 -0.030790406224581984 -0.02163165794936235 -0.007315272685508031
0.015325867437773663 0.04757007413912524 0.018182238609996893 -0.0567561726636413 -0.010582599364733993 -0.0229977101596767 -0.08718524270783362 0.023041039940631936
0.0319616771460245 -0.025330051201632557 0.02734272742443467 -0.008406899375334901 -0.08302790404358958 -0.029840038354675084 0.033700158517565214 0.014510638327199855
0.04843227987056154 0.026517163384939365 0.044303493660613265 -0.025059569802194488 -0.018309539734144252 0.005798866902607608 -0.0186860045350487 0.03846903491608209
-0.0026844334750822647 -0.03310711913255052 0.02720429977270778 -0.05755540459995228 -0.05661212187040124 0.04176095521458407 0.015482227876543417 0.04189605865340548
-0.016728451910567363 -0.06244832472687717 -0.027257472299240183 -0.040898376498738134 -0.04359322011986184 -0.017834682300968775 -0.015617770050068197 0.02406211550753355
-0.05397339053362657 -0.007640168201339874 -0.0016071564439640753 -0.015161443144919252 -0.051256366364742866 -0.06822466454253576 -0.010368751975263794 -0.05752790860848163
0.015258807595129842 0.03488489268430517 0.0545553943941026 -0.05276525576166674 -0.03080267001068778 0.011524844589028159 -0.0005471826204741852 0.05497710111521377
0.030112728615845952 0.015314415219993646 0.04100970566849066 0.004251963530782017 -0.08173093143831016 -0.0037161678291924385 0.06147640793347129 0.011933513967453192
-0.03707703673253147 0.014210998930349415 -0.008973980715776557 0.04777657385744518 -0.04425171355056901 -0.06858791118001661 -0.016349938874767857 -0.0391777518422537
-0.03160471277611353 -0.020106936732795924 0.0550505291472788 0.005602866461054621 -0.05159027950968233 -0.004614175706229677 -0.0024808164670301136 -0.000177599844267755
0.013781781250075764 -0.06285273176533222 0.020633524929779545 0.018159168828353497 0.04953808061482819 0.042083767344373746 0.050977718237565965 -0.00929590779064599
0.02770586818823825 0.0451861022460681 -0.009488479806255539 -0.056993347520459016 -0.004187870128730735 -0.05456817109656034 -0.014178150526286086 -0.05653186661586163
-0.008332104323865884 0.03702932071899769 0.004312218294509451 -0.04091723114033347 0.03408647780599443 -0.062149684830351916 -0.02826798052022528 -0.05445333641309806
-0.05614014424647805 0.0357429607724918 -0.061436749007389956 0.04386690585113287 -0.03408792002620124 -0.05425301670579382 -0.057258356290206446 -0.02023781539279229
-0.029976759398063994 -0.01622974801401498 0.04755961956741245 -0.08096578666090685 0.03284784421204476 0.02515477188798214 0.041645175280670896 -0.032167856393074554
-0.0520085968079301 0.015017596697456063 0.0007874341410288586 -0.009533058229013945 0.0027794105519567307 0.03969441035135077 -0.04833124215680477 -0.07492767058497048
-0.008198919445375695 -0.04526289762780303 -0.0023007547563107487 -0.011434350114299805 -0.062020485402270675 0.030569270401334375 0.05113231066514355 -0.012760484371381043
0.04137582107061771 0.019508697738727616 0.04323685708419083 -0.06808882887955203 0.028424434831505703 -0.035598737714507354 -0.029439262806214936 -0.031456801431715545
0.031306738363427726 -0.03309790352993143 -0.020384156509172878 0.01818427993293685 -0.06199954177430536 -0.024714516759505405 -0.05658393162034639 -0.05074277450423507
-0.029865722679106702 -0.04569932661892791 -0.06820825314071952 -0.037505215456729926 -0.07214833381052359 -0.05385158369883626 0.05730791624017182 0.011986476647388973
0.016096206961702938 -0.062486603224385005 0.025141476405635826 -0.048603218832879165 -0.06734018137953056 -0.04649198425456133 0.029418642780288214 -0.04074183445648563
-0.03483767377523885 0.03369627077863755 -0.018652426492736778 -0.055183824063847066 -0.004235706535105478 -0.06415157035768962 -0.014278143376320144 -0.026306653270990587
-0.04007435418610547 0.02579522321053238 -0.0486667232630377 0.049598880603327546 0.059001610901866376 0.025353094861483554 -0.06685594545389202 -0.04177812102251166
-0.054105962458585274 0.008497754939937046 -0.04650375927102474 -0.024519807911136685 0.009185290749827397 -0.03632042904286734 -0.05294809709716098 0.02619083617099076
-0.00259484342417869 -0.0637486723752491 -0.05974247154756186 0.039186022030065416 -0.011332444325319086 -0.01384394627662904 -0.04568923802005824 0.014777112299932789
0.057923152836760854 -0.02926004687139252 0.03488958326020011 -0.07040551542194753 -0.056782550923214464 -0.039183064879628624 0.028094994734738372 -0.04674616650799817
-0.05235102766448306 0.05841263423984169 -0.04878025287153622 0.050718781987306234 -0.059276028085897936 0.0003073079826808535 -0.030697172923955542 -0.04376334606660942
00000000: 3e0c 6ff7 cb08 aebf 742d 33da d3c6 703f
00000010: a88b 5356 3435 8f3f b507 a0ae 3e1e 70bf
00000020: ee3d 50e5 871c afbf 44a4 75c9 d72b 903f
00000030: a4a5 43b1 76c5 a13f 77c9 58d6 a563 81bf
00000040: b7a8 f6f4 2fde 7e3f 1e96 0c84 b4f5 a33f
00000050: 5c68 fc25 6aaa 99bf 8322 cc0c dc00 823f
00000060: fbe7 a341 1d3e a4bf 7944 348e 4d49 9a3f
00000070: 5387 dacf 38c9 913f 637b db34 8528 53bf
00000080: 0c92 703b f5cf a8bf 775d d58a a26b 8e3f
00000090: 4e3e da0c 9c68 9abf 4f84 eabe a675 85bf
000000a0: ab98 59d9 b14c a4bf d492 73d6 bf64 a0bf
000000b0: f839 40fc d1d0 7a3f fc34 1d3a c78c a63f
000000c0: c6c9 b9ee 5336 a4bf 2142 1fd4 932e a53f
000000d0: 2347 0b5d 405c 873f 4f8d 5050 b01e 93bf
000000e0: 59b4 1ec9 8022 a5bf 0000 00c0 911b afbf
000000f0: 0e19 e091 4615 a3bf 3913 75c9 5a02 aabf
00000100: f60e ba08 79bc a03f 0026 bba6 71de 94bf
00000110: 46bf a1cf 3bee 983f b366 6f36 ec3c a7bf
00000120: 3a80 74a7 5a85 afbf 687f 0f2f 8587 9fbf
00000130: 9496 cdfd 9b26 96bf 8917 218f 9ef6 7dbf
00000140: 8baf 6c1b 2b63 8f3f ea44 64d1 1a5b a83f
00000150: ddc1 ca60 5d9e 923f d078 df22 250f adbf
00000160: a1f5 6c71 54ac 85bf aa25 1334 b68c 97bf
00000170: 5cbc 1fa6 c551 b6bf ad1a 0b04 1298 973f
00000180: 818d 22ec 475d a03f fe6c 11f6 1ef0 99bf
00000190: 411a 4960 bbff 9b3f c2c9 05ef a237 81bf
000001a0: f5cb 8514 5141 b5bf 01fd 6013 638e 9ebf
000001b0: 2bea 67ad 2541 a13f a7aa 79e8 c0b7 8d3f
000001c0: 91c4 3aa4 1dcc a83f df81 15b6 5027 9b3f
000001d0: a1e3 bd90 f2ae a63f 024f 0243 37a9 99bf
000001e0: 56ac 7369 bcbf 92bf ba7a 357b 8dc0 773f
000001f0: 2ed8 7b89 6c22 93bf 3d1b bf9d 36b2 a33f
00000200: bf02 7b3f aafd 65bf 25cf e093 6af3 a0bf
00000210: 8262 56a7 71db 9b3f e7ff ede8 e677 adbf
00000220: 0428 fb97 43fc acbf 99ef ca21 b161 a53f
00000230: 0519 3173 25b5 8f3f 2ccf 7e73 6673 a53f
00000240: 1c71 7967 4321 91bf 78aa c810 3af9 afbf
00000250: ed2f 6300 62e9 9bbf ea0b 0bcb a1f0 a4bf
00000260: 39f9 7bbd d951 a6bf 8a6c de44 4143 92bf
00000270: 9dda cf9c 35fc 8fbf 7bb0 b53c bda3 983f
00000280: 5c6f 6476 66a2 abbf 2b9a f808 4c4b 7fbf
00000290: ceca 7217 e754 5abf a7a0 bd73 f60c 8fbf
000002a0: b329 7f42 463e aabf 92a2 fdee 2b77 b1bf
000002b0: 8f9f 1255 363c 85bf 3a52 294c 4c74 adbf
000002c0: 6dbc c67c 0240 8f3f 1039 68c2 6edc a13f
000002d0: 5d71 7c45 afee ab3f e80d b92f 0c04 abbf
000002e0: 7631 4d31 bc8a 9fbf 0c95 cf74 569a 873f
000002f0: 3739 ddba 19ee 41bf 5a30 a366 f525 ac3f
00000300: 2dbe 6402 dfd5 9e3f 38c8 3704 2a5d 8f3f
00000310: 885a 5461 39ff a43f d596 efc4 816a 713f
00000320: 9362 997d 51ec b4bf 95da 5e69 5e71 6ebf
00000330: 3d81 19f3 d579 af3f 6789 bb21 9970 883f
00000340: ddca 65e8 c2fb a2bf 12da 31fd a71a 8d3f
00000350: a978 834d f360 82bf a31e 77cc 2b76 a83f
00000360: 11ba fb1c 29a8 a6bf b84b 6b33 fa8e b1bf
00000370: baef 08d3 09be 90bf 715c c935 1b0f a4bf
00000380: 0eb7 8b2f 7e2e a0bf 77a9 c2ae e996 94bf
00000390: 2e4f a13c 952f ac3f 3ee4 6c03 08f3 763f
000003a0: 2238 9286 0a6a aabf f89d 195c 50e6 72bf
000003b0: d216 fc32 a652 64bf 3a2a ba0b 4347 27bf
000003c0: 7363 ff5d 9f39 8c3f ff77 65db 1d17 b0bf
000003d0: c031 196b f420 953f af16 f630 5198 923f
000003e0: ba6a 4b28 0e5d a93f 8884 dfe8 008c a53f
000003f0: 8762 4f61 c019 aa3f e363 949f bb09 83bf
00000400: 7763 1a57 ed5e 9c3f aeda c2fe a122 a73f
00000410: 762a a733 b26e 83bf 0d3f 6167 3b2e adbf
00000420: c57b e2d3 4c27 71bf d446 86fc 5bf0 abbf
00000430: 6914 a026 6f09 8dbf 210b 98ac bef1 acbf
00000440: 3f77 9f1c 6c10 81bf 935e f6d2 81f5 a23f
00000450: 0025 c548 b0a9 713f c963 2e73 1af3 a4bf
00000460: 263d d366 c873 a13f d52b 9b5f 15d2 afbf
00000470: c1ee 6e0f 48f2 9cbf 96cc 1ac6 4ee1 abbf
00000480: 8e0c 10a7 66be acbf 0afe 28bf e64c a23f
00000490: 03c3 8437 a374 afbf 54c0 031c b975 a63f
000004a0: 6603 67cb f873 a1bf 4be4 eb28 0dc7 abbf
000004b0: 9bd8 609f f750 adbf 10a3 04cd 38b9 94bf
000004c0: 01dc 0445 3ab2 9ebf ba22 c5f3 879e 90bf
000004d0: 28f2 4d05 bc59 a83f b3b2 cd7d 2cba b4bf
000004e0: 1c09 45c1 6ed1 a03f 8c8e 632a 2cc2 993f
000004f0: 0ebc bb33 8452 a53f c6a0 6126 4e78 a0bf
00000500: 0c44 cdec dea0 aabf c2d3 70b5 8bc1 8e3f
00000510: fea2 15f1 79cd 493f 3988 986a 1186 83bf
00000520: eaab 87ad d8c4 663f 5c0b 9664 d352 a43f
00000530: 6587 e060 dfbe a8bf 4558 bab6 752e b3bf
00000540: 591d 0b57 98ca 80bf 5435 11d2 b22c a7bf
00000550: f82f e74d 08d9 62bf 32e0 557e e46a 87bf
00000560: 7037 f828 26c1 afbf 5b95 8b02 8d4d 9f3f
00000570: 9ec2 26a4 032e aa3f 5a19 7338 2b22 8abf
00000580: c8d8 af2c 362f a53f 55fe 198b 16fa 933f
00000590: 271d 512e 2423 a63f c0b7 42fd 446e b1bf
000005a0: 82ce 0888 4b1b 9d3f 6b7f 866c ff39 a2bf
000005b0: ec58 e27b 5325 9ebf ba9f c51a 1b1b a0bf
000005c0: d7a8 d4d2 6f07 a03f fa55 745a 35f2 a0bf
000005d0: 36f7 4096 95df 94bf ccfd 735e e69e 923f
000005e0: e443 9368 67be afbf 9bc3 df24 c34e 99bf
000005f0: b4b4 93af 91f8 acbf 450b 02fa f4fa a9bf
00000600: e171 b6b8 1e95 9ebf ca16 8ef2 e665 a7bf
00000610: 8e82 8e98 1876 b1bf 62d6 a133 e233 a3bf
00000620: c355 2d2e 5078 b2bf c20b a64d 6f92 abbf
00000630: 2d5d 1b94 7657 ad3f 11f5 8ea9 5d8c 883f
00000640: efec f529 867b 903f 8bdf 927a 3efe afbf
00000650: 68cf bdeb afbe 993f 292f bc66 85e2 a8bf
00000660: b756 bbc4 343d b1bf ac89 cc1f cccd a7bf
00000670: ef42 89b2 eb1f 9e3f 64a9 231d 1ddc a4bf
00000680: 9315 115b 3ed6 a1bf ed99 fb39 a340 a13f
00000690: 3b01 1c27 9f19 93bf 95b0 3edf 0d41 acbf
000006a0: ce1f b3d0 7559 71bf b25e acc0 3c6c b0bf
000006b0: f588 caf6 db3d 8dbf 834d dd9d 21f0 9abf
000006c0: 3c79 4631 a084 a4bf 193b 5420 106a 9a3f
000006d0: f4ee a241 d8ea a8bf 7510 3844 0665 a93f
000006e0: 0d3c 788a 7535 ae3f 8b3c 2165 29f6 993f
000006f0: 2583 44a3 781d b1bf e0c4 f51e f163 a5bf
00000700: d673 8ed6 c6b3 abbf 239d 735c 4567 813f
00000710: 4993 6b3a 57cf a7bf d483 5474 b81b 99bf
00000720: 2a82 ffda bccf 823f 3de4 d45d 9798 a2bf
00000730: e1e1 d552 031c abbf ecb8 3c43 c5d1 9a3f
00000740: dc8f a4f4 c741 65bf 7bde 033f d551 b0bf
00000750: 023e f5b2 9096 aebf d5af 28b6 3010 a43f
00000760: f77f 16ee 7635 87bf dbad 0b04 375a 8cbf
00000770: 068f 266e 9464 a7bf a4d2 7570 7643 8e3f
00000780: 0fee 3a7e 1aa8 ad3f a677 9181 58f6 9dbf
00000790: a4b2 2526 0cdd a13f 6afe 318a 1806 b2bf
000007a0: dcb6 653e 9a12 adbf 2e1b 6e7c cd0f a4bf
000007b0: f299 442e efc4 9c3f 77fe ba10 1def a7bf
000007c0: 8e3e 76ff c0cd aabf 0477 77c3 42e8 ad3f
000007d0: 2337 8cad b9f9 a8bf b95b dbeb cff7 a93f
000007e0: a0a4 2174 6d59 aebf 8817 44bc c523 343f
000007f0: 77f5 2667 146f 9fbf 883e 3d38 2668 a6bf
