weights/model_25_smgbin_l_suite_w_lims_opp_pen_dgoal_fixo_obs_l_saf_1_bn.pth (torch, 557234 bytes, 18 tensors)

fc1.weight f8 [256, 8]
00000000: 0bc9 7290 f343 d13f 4173 3c69 985a d2bf
00000010: e034 d1cb 8a30 c93f 9c1a bad7 21b4 c63f
00000020: 2c8e a49f 6f18 ce3f 6ce9 7db2 ce2c c83f
00000030: adfa 52e1 7e70 9b3f fb1f bcb9 c7b6 d03f
00000040: 71cb e26d 43d1 b3bf a814 209f 5375 d0bf
00000050: 4306 d6b3 d43b b2bf ef41 0836 e224 c1bf
00000060: 5b62 b009 27c6 45bf 63e8 6fd9 08ef d1bf
00000070: ad8e 74ba b814 d1bf ac59 55de 4eda d0bf
00000080: 46c7 8e3b 836c c63f 507a c293 3925 87bf
00000090: a7dd c301 d37c 9e3f a9e2 a130 dd23 c13f
000000a0: 4ddc dfdd 1ea0 c5bf 8777 1788 ff63 ca3f
000000b0: dcbf 224a 4d6b a13f 0bf6 0f86 a2ec b5bf
000000c0: fa2d c8e5 75b4 a43f c627 47b3 a27e b6bf
000000d0: 6794 4257 d3c2 d0bf 005e 5c9d ecbc c43f
000000e0: eb68 7076 54a4 acbf ee0a 8f97 e0da d23f
000000f0: a69a f126 75c1 9d3f 476e 8a9b 7506 ce3f
00000100: e29a eb9c 2bb6 c7bf d222 4bc2 9e5b b13f
00000110: e8f5 5bde 6108 d6bf f535 7f93 0d48 c63f
00000120: 69f7 f950 29ec d03f f3fa 86e2 6e27 dfbf
00000130: e9db 8f3a 2a42 c5bf a615 6f73 3e88 a83f
00000140: c171 ae59 e9b7 d53f c6c1 83b1 b57d c8bf
00000150: 8126 0033 4d13 863f 8b44 107f d868 c6bf
00000160: 5b66 5d59 a5c8 c1bf 7201 c5e1 3bbd b2bf
00000170: b045 3356 057d bc3f 9386 089b 2bd2 97bf
00000180: 11d9 0277 8dd0 d6bf 4051 bee8 6cb6 d1bf
00000190: a889 bb46 6678 ccbf 5554 316d 9065 b6bf
000001a0: 802c 7fef 1be9 d33f ef7a a85c f9c4 bf3f
000001b0: a80b c5e4 f3e2 c73f 2d5d ac3d 61c3 d03f
000001c0: df7b 7aae 20b5 b8bf 84c6 a666 cc58 6f3f
000001d0: 23a9 f90f 290d d2bf d8dc e72f 3412 c0bf
000001e0: 2e5c 5d52 38d5 93bf 1e97 f3cd 9631 d03f
000001f0: 6a47 9377 c1d7 d2bf 2506 377b 42f3 943f
00000200: e0f0 669a f7ab bf3f 90cb e20c 062c cc3f
00000210: d36e 09d1 c738 d1bf 63bd 9b65 7950 d73f
00000220: c65c 10a3 e6b1 c8bf 1134 2108 a367 ab3f
00000230: 228b 3197 1a87 b9bf ac30 2295 c31d d1bf
00000240: 1e7d dea7 8e53 ca3f a32f bbc7 dd15 d53f
00000250: 2b80 f037 7b73 d2bf ad42 8075 79dc a2bf
00000260: 683f e7d3 3bb4 d53f 7e56 6095 9a9e be3f
00000270: 7442 12b5 61d1 d4bf eb46 7e72 1479 d1bf
00000280: 0d54 040b fa93 9cbf df17 42f4 71c8 ccbf
00000290: 44b2 e326 94fe c83f 9b0d d340 ba94 d73f
000002a0: 279f 71bf 866e 983f 66bf e8e2 11f1 b2bf
000002b0: 605b f1af da68 ca3f a62b 7085 6db1 c3bf
000002c0: ce02 bafe 5486 dbbf f865 e368 9a5d c93f
000002d0: b491 9f5a f116 cbbf b57d 5dc0 6d76 d53f
000002e0: 06c1 0d06 d9e0 d5bf befd 041d 3c3b d4bf
000002f0: 2cc5 dc93 a876 bcbf cd1b d7ea 7aba cabf
00000300: 684d 542e c35c 303f 78c7 59e4 bb60 b33f
00000310: 5858 2ff9 f6e6 c43f d5f1 dd50 50f9 c43f
00000320: 5ed0 ece8 77ee d1bf 7d3d 9f56 2916 c23f
00000330: 6831 5dc6 d5ba c3bf 70cd e4fe 785e d2bf
00000340: 27ba 53a5 ce48 babf c98d 90d3 9a25 b83f
00000350: 15df f643 0f0e d83f 50ee 8247 2f0d cabf
00000360: c652 2cd2 d3cf c13f d4ed 731d b34a d43f
00000370: 5f2d 18e6 7146 b2bf 7d61 bd19 61c5 b23f
00000380: 2aac ef02 17ab bcbf 76e8 b813 e04e d43f
00000390: 6468 da2a 581f cabf 295b 8551 56a3 bb3f
000003a0: bf2e db19 030c c53f ee5a 2b91 a5e6 d2bf
000003b0: 64ba 4419 31b7 d5bf 654f 64ec 4142 d83f
000003c0: d44f b11f d122 bbbf c242 0fb4 74d1 a83f
000003d0: 445b 68ef 0aa8 d93f deea 9cd8 ac58 9a3f
000003e0: 76e1 db6d 07a9 c03f cb7b 77b4 c50c 97bf
000003f0: f1fc dc87 5cfd c5bf f521 dc95 8387 c4bf
00000400: 466b f904 a0ea d33f f2c8 b959 ae2a b93f
00000410: 3d51 8d07 f227 c33f 2440 76e5 6672 b8bf
00000420: 1d0f 50d2 9cb6 bc3f ee43 5b93 f7f4 c33f
00000430: e841 9ad7 6241 cebf aa08 6d27 4933 d53f
00000440: 3393 358a 7d55 b23f 4dec b2ac 0718 ad3f
00000450: 16b6 c814 af3d 8d3f c15c abf5 4b95 babf
00000460: c7e1 83a6 5e48 9a3f a2e7 3018 817f bc3f
00000470: dee3 2dcb e99e a03f 137c e453 2b7b cdbf
00000480: 6d20 d0fa 1500 d4bf 9878 1d24 5330 cbbf
00000490: 1b1f 3585 6f0d d0bf 8d9d eea3 b0b6 babf
000004a0: 0dde 6555 e17e d33f 43dc 8a91 7cf3 dbbf
000004b0: 3938 da76 c512 b43f 8d55 ffd9 5ded d43f
000004c0: 548a 8914 02bb c0bf 0b67 a68c cbab d73f
000004d0: 7461 23fe 66fc d33f 5e4a c342 5c1f b2bf
000004e0: 5ea8 2e8c b3f1 d03f ba7d f181 e00b c7bf
000004f0: 19e1 ef83 2596 b63f 40b5 2046 97a9 c33f
00000500: b3b9 1d78 b7bb ba3f 6d65 cbe5 5f62 d23f
00000510: df75 2f84 9aaf b13f 75f3 a783 558c cdbf
00000520: af62 b20e 1d6f d33f f8a9 bf55 5038 c5bf
00000530: 9091 cf95 a226 d7bf 08b0 ff9f ae13 d2bf
00000540: 3c37 6564 f699 b0bf 449f 8fed ac2f c5bf
00000550: 4de5 4153 3538 c73f 76f8 69f1 9725 bcbf
00000560: 62a3 b701 de25 ae3f be2e 0f4c 4895 d2bf
00000570: e46a 641c a318 c2bf 1a67 fa13 c408 dcbf
00000580: d359 33dd fc51 84bf 11db e3f6 8346 92bf
00000590: db5b bb7e d623 b93f 9f85 ac02 0aed ce3f
000005a0: c1ef 6f7b 24f6 cf3f 5274 839c 85c6 c1bf
000005b0: 4bf3 33c0 9a5e be3f 0d92 9ce4 2293 d23f
000005c0: 6027 f350 0e2f bfbf f3ec ddfb 293f 9d3f
000005d0: a5dd 1179 ad73 a13f db59 f362 90cf b4bf
000005e0: e1bf 6353 fc0a bdbf 7bdc 24d2 3cbc d03f
000005f0: fd11 0c03 08d1 cbbf 73be c6bd ab7a d2bf
00000600: 52de 6650 0587 a5bf 7b55 655b 054a d5bf
00000610: bdb2 762a ddc3 c53f 1627 570f 3d91 d33f
00000620: d80f c94b d945 cebf 81c6 3c03 4aec c13f
00000630: 93d6 b939 17a8 b0bf 615f 067b 2008 d1bf
00000640: eaa8 0184 19d3 9abf 87a5 ae22 3540 c53f
00000650: 173e d0a1 a3be d83f 39dd c9a2 8a06 b93f
00000660: f09f 283f fda0 d0bf e627 b108 8113 b13f
00000670: 38c6 65be 8c0b d1bf 2f21 d4d3 bbca c83f
00000680: 40c5 f13e 3a35 bdbf 1eb9 4e72 99c9 c3bf
00000690: fb5b a02f 2ec5 c43f ab08 c7f8 de0b d0bf
000006a0: 6aef 921f 780d c4bf cb12 6a75 9e1c c23f
000006b0: 8c66 c0ab 773e c63f 9a21 47c8 7d4e d63f
000006c0: b11f 3756 ab16 c4bf f3af 2ea0 8d87 c23f
000006d0: 2705 0564 4a21 d1bf 0cde 5927 2211 843f
000006e0: 6d80 387d 79e9 b5bf 7bca e595 6363 733f
000006f0: bfd7 a78c 6ddb 683f 7f68 028b 2b3e d53f
00000700: c1d0 73a9 4b15 ca3f b7d7 ae71 378a a5bf
00000710: 15a7 db80 1fb2 ddbf 5dc1 8ba2 aa65 c4bf
00000720: 5761 0dda 7b16 c63f 34fe 1ecf 9d3f d53f
00000730: ce3a 80e8 8c41 c8bf be91 cfa6 7fe0 cc3f
00000740: 2e18 54a1 9b4c c43f fe72 9616 5a1b afbf
00000750: c65a b6c5 0f6d c2bf cf85 9062 5e48 bbbf
00000760: 1117 23f1 b775 d6bf 38c4 ebfc 0d37 d03f
00000770: 18f4 8bdb 9021 923f 6a05 f83f 8457 d43f
00000780: d0ea 523a acc4 d73f 3904 eb4e dccf d43f
00000790: 88f3 4ffc 199e c13f 1080 064d 34c1 d23f
000007a0: 0c5c 7b5b 0418 d5bf 2215 03b9 785b cebf
000007b0: b737 107c 23d5 c03f 5a73 8e7b 9f6c b93f
000007c0: 1d05 7efe edfd c33f 901c 4227 d8c4 b43f
000007d0: 514e 5297 f255 d0bf f71a e928 5261 933f
000007e0: 73b4 a1e9 8689 9d3f 25d5 9483 f6f9 c83f
000007f0: 62da 5c1e fbc5 d2bf 6b3b 80d3 43d5 c03f
0.269772425711509 -0.28677950169531036 0.19679388954174382 0.17737219842475305 0.23512072844560927 0.18886741366788884 0.026796324255651417 0.261156016713812
-0.07741185601007118 -0.25716105022031366 -0.07122544661071921 -0.1339380992726684 -0.0006644907583704494 -0.28021451219649957 -0.26688974579358665 -0.263324467775784
0.17518654258815952 -0.011301469632880728 0.029773041708691796 0.13390698313357532 -0.168948992097031 0.20617670197583157 0.03402177362420364 -0.0856420113850264
0.0404393046374842 -0.08786980511572925 -0.26189120789996995 0.16201551135667103 -0.05594123788633162 0.2946092109743138 0.02905829477495083 0.23457212538493108
-0.18524689828992452 0.06780426257604269 -0.344261614940335 0.17407388402936844 0.26441414745192177 -0.4867818081074084 -0.16608169421644384 0.04791445883851546
0.33935006864501466 -0.191336356808746 0.010779002303041853 -0.17507463650011731 -0.13893572677152374 -0.07319998037292466 0.11128266672610354 -0.023262673699838542
-0.35647904035740036 -0.2767593644032509 -0.22242430165995342 -0.08748724618756516 0.31110285175663677 0.12409933578645015 0.18661354704280808 0.26192503950865637
-0.09651378879287574 0.003826522083920038 -0.2820532470710921 -0.12555553759714289 -0.0193680572768608 0.2530266772504194 -0.2944186847427007 0.02045921208423897
0.12371776122649036 0.22009349469371076 -0.269090608727976 0.3642867557782294 -0.19292910539727454 0.05352506136168967 -0.09971777144668839 -0.26744165004562137
0.20567496487363085 0.3294596148014028 -0.2882984205516574 -0.036838336556802666 0.3391255921715044 0.11960760256655509 -0.32527964289423683 -0.27301512890799867
-0.027908236429613754 -0.22486710001629626 0.19526912592790968 0.36845260935316454 0.02385912459831654 -0.0739909342744319 0.20632489767987305 -0.1538521672776742
-0.4300739753307824 0.19816904183862483 -0.2116376583573022 0.33535331521667483 -0.34184861746963724 -0.31611540636000857 -0.11118558511659121 -0.20881592242059668
0.0002496696964311069 0.07569479298561343 0.16329848448976025 0.16385845135290703 -0.28017995592677447 0.1413013146361485 -0.15413925348037627 -0.28701615230530475
-0.10267344986252934 0.09432380356934468 0.375858131762912 -0.20352736465234722 0.13915488970146422 0.31705930591826115 -0.07138740413227172 0.07332426908886265
-0.1119856245201595 0.31731416631703924 -0.20408155529441097 0.10796107759720698 0.16442908060559167 -0.29532756020255035 -0.33930613963722167 0.37904403767719536
-0.10600001357789718 0.04847302148812595 0.4008815134015331 0.025728893967633996 0.13015835632519285 -0.02250965990048907 -0.17179447778651238 -0.1603855592477569
0.3111953781678277 0.09830751123971362 0.14965653771163004 -0.09549563505265773 0.1121614469012084 0.15591330237523898 -0.2363704254862704 0.33125523424326764
0.07161697983026442 0.05682395918980685 0.014277808973100863 -0.10384058711803147 0.025666693604735415 0.11132056084252764 0.03246241193023257 -0.23032132717432371
-0.3125052403779652 -0.21241225493844662 -0.2508200455526876 -0.10435012819526986 0.3046191534008081 -0.4367362424195031 0.07841142799063129 0.3269877079850055
-0.13070703509136428 0.3698605416808369 0.31228041475471646 -0.07079102163269499 0.2647522801368093 -0.18004995674981022 0.08822855445021495 0.1536130039616328
0.10442682917139372 0.2872543090903353 0.06908574797804289 -0.23084515503424155 0.3036568301700226 -0.16578106104800816 -0.36173309926950825 -0.2824513018119892
-0.06484928084429681 -0.16551744079264996 0.18140284123709663 -0.10994863170523836 0.05888265391315063 -0.2903614752546949 -0.14137686621037127 -0.4380350298975927
-0.009922004223352687 -0.017847120231603123 0.09820309251823238 0.2416088593536587 0.24969917323312354 -0.1388709081865352 0.11863105003790257 0.29023048711158667
-0.12181176639856295 0.028561264035926247 0.03408567526724519 -0.08129217544351468 -0.11344887767677349 0.2614891102015872 -0.21731662892138096 -0.2887372353825192
-0.042045751633335585 -0.3326428787744004 0.17003979276105055 0.3057396554764734 -0.23650661659678351 0.14002347143246044 -0.06506486090969536 -0.2661210252203912
-0.02619590633586536 0.16602195924251026 0.38663569261641 0.09775606607751265 -0.2598260037216269 0.06670385801513098 -0.2663299426413661 0.19368694155878916
-0.11409343754509838 -0.15458982545300953 0.1622674686957167 -0.25072454733539 -0.1566610483331446 0.14149838193056605 0.17378135572726128 0.3485407310331766
-0.1569418116544035 0.14476175614743134 -0.2676568962816241 0.009798304391764233 -0.08559378916879874 0.004733456617361238 0.0030343188893721946 0.3319195611490002
0.20377488874476593 -0.042070133807484415 -0.46399676879683344 -0.15935261666119063 0.17256115099986388 0.3320078394571937 -0.18950044014532924 0.225601154757113
0.15858788850181454 -0.06075555349091209 -0.14395329622194292 -0.10657300859795459 -0.3509349684576231 0.2533602685862806 0.01770616855627702 0.3178415894218093
0.37137895293896594 0.3251868029292982 0.13763737506806373 0.2930422546578493 -0.32959088262345015 -0.23716649087706637 0.1315044742372586 0.09931370512499652
0.1561868183744445 0.08112860640004471 -0.25524582650652855 0.018925937411291973 0.028844936380143026 0.19512826371070804 -0.2933337971220792 0.13150832965080936

fc1.bias f8 [256]
00000000: a3d8 d17a 3f03 bcbf 709f b174 8bf4 cebf
00000010: 2ff5 66ad 4f05 b23f 157d ad6e 5eb6 b1bf
00000020: 6ec5 7861 eb9b d2bf 631c 02b8 7a49 d83f
00000030: c323 5275 9530 b63f 60d7 8a28 e4a2 be3f
00000040: f697 5bdd e120 5bbf 0817 d98f f080 d43f
00000050: 1188 9a71 a68c b83f 803e f12e 929a a6bf
00000060: b901 a7d7 0715 cd3f a1c0 d459 cc3c d03f
00000070: ba08 48ff 3417 d83f 0cd2 ffe1 0e89 d13f
00000080: d051 ebfb 7e80 d63f 1a77 bebe 4b5b cb3f
00000090: 5756 b911 7c79 d53f 3ff2 f65d 6164 ba3f
000000a0: 0d13 4139 1234 bebf ea6d b41b f2af 59bf
000000b0: abba ddcb f89d c93f 9db1 7aca 9328 b4bf
000000c0: 0571 9106 d090 b93f c931 87f6 085b b43f
000000d0: aaac f042 dd0c c23f 897b 9ce1 708f b93f
000000e0: 9035 f119 030c b8bf f868 f2de 8d26 d53f
000000f0: d57f d41c cd1e d1bf 7fb7 efa6 6c0b 94bf
00000100: b3ef 2689 f443 b8bf 85a7 ce84 23c8 c2bf
00000110: b2cc f7ba 83d7 a8bf c90b afb2 8204 bbbf
00000120: 0357 d486 bba9 d03f bb5a 3dfd ca1c acbf
00000130: 0d12 6dbd f8b7 c6bf 49f8 1292 ffd3 c03f
00000140: f7ff d95c 8739 9abf afad 8b1d f8da ce3f
00000150: f2e3 afbe 230c d13f 57d9 01c8 3cca c3bf
00000160: dec8 6fbf 9ac5 d63f 1412 825a 0156 d53f
00000170: 4dbc 5c28 9240 9abf e4f0 278a 5dc8 c7bf
00000180: 91a0 5a7f d5a5 cdbf c0de 622c 6366 cdbf
00000190: ba41 42f1 cf60 d4bf be2a b8f9 baa5 c43f
000001a0: f682 1248 8c21 ba3f f9c7 4ead 50e7 7abf
000001b0: e93c 2eac 35dd d13f ed52 0a14 e343 bbbf
000001c0: 4999 9cd9 2ad2 cabf 99ff 4bf7 172f d1bf
000001d0: ba8a 647a 9aae 9b3f 8d34 190b b764 ab3f
000001e0: 3230 f2af bbcf c6bf d9c3 c982 3b1b cc3f
000001f0: 8b6c 882f 9a3d c7bf 76b3 a307 dd79 ccbf
00000200: 4f58 f67c 1f47 c8bf 2332 867c 4795 d73f
00000210: b1ac aa12 2ffc d83f ad83 3656 6553 95bf
00000220: bdf0 b45b efb1 c9bf d9d0 055a dd9e bc3f
00000230: de4f ff43 465b d1bf a6a5 69c4 5bec bdbf
00000240: c1f1 9d20 4b30 d73f 3d3c 4452 5ac4 ccbf
00000250: 3d82 d5c6 549d cbbf 9077 c7c5 856a d53f
00000260: eacc c659 14ec d43f c72e 40a5 2ae9 a2bf
00000270: 9f81 b229 d92d c93f 996f 6e07 f372 95bf
00000280: cfbc ce21 7d4a 51bf 8edb 9f3d 6d16 c1bf
00000290: ed3f 8d95 b23f d2bf afbb 2e6a 763b bbbf
000002a0: d9f6 fdaf f788 d0bf f274 35fb 489d b13f
000002b0: 4e8c 1f17 c3c9 c93f 97f5 399b 09fc ce3f
000002c0: a238 dd27 cf96 c73f d503 4a58 8329 62bf
000002d0: 0238 8bd6 5dcf 9b3f 644a f79e 0760 c93f
000002e0: 849f 9e6d 5348 b73f b86d c135 9201 b9bf
000002f0: 3042 dbb8 75dd b1bf 6326 2433 2bba d53f
00000300: c703 f797 f4de ca3f a28b 7825 ba47 d13f
00000310: ea76 fb92 0f13 bd3f fc11 d372 6bf7 d2bf
00000320: 21fd dff5 ebad afbf 24b3 73f9 3906 67bf
00000330: 1704 7912 39cf 95bf 0215 b20c 735f adbf
00000340: 51a8 1adf b900 b6bf 1709 716c 4f45 d33f
00000350: d16c e290 23ac b13f 79f7 cc74 ae03 c6bf
00000360: 0934 9537 dfe9 d03f 5cd0 fc1d b0cd c33f
00000370: b73a 9085 b492 d13f 3f0b 5bac 0f7d c2bf
00000380: 3320 3037 7b00 d53f 80c0 47f0 af33 cebf
00000390: 5990 e6f3 2ff0 ab3f fad2 3089 2cb1 c3bf
000003a0: 9f54 4f93 920b d43f 8e38 2340 1145 ac3f
000003b0: 2550 0b81 6f1d c7bf d7e9 b75c edac aebf
000003c0: bf25 31fb ed0e b43f eab5 6843 a857 b2bf
000003d0: 0ace 605a 5fa4 ce3f 5a83 b429 bcac d0bf
000003e0: a81c 116f 0a4d b0bf 6e6f 327c 917b be3f
000003f0: 1a17 7a5f 142b c03f 3db7 e247 3c30 d1bf
00000400: a768 c6f7 6087 d63f c468 cf2a 7c2c be3f
00000410: fe88 ccc2 1c7e b3bf 51c2 417a f4a6 cf3f
00000420: 3f45 e5ea 5e36 a03f 8fd1 6018 83b5 d63f
00000430: 0b5d 2793 0a35 d23f 0e6f 4297 0aa5 d83f
00000440: ed3e a7b6 4170 d0bf 8564 c8e3 b3af d4bf
00000450: c779 d7a2 be48 92bf f8ca 9a59 2052 8dbf
00000460: 566c b064 ee68 c53f 12fa 9d87 ca60 b33f
00000470: c5af 85d0 7bdb db3f 0f21 c8b8 a954 c2bf
00000480: a044 2054 8b3d c73f 402e 5339 6382 d43f
00000490: d6c3 ec55 727c 79bf 405b f55f 6a33 d53f
000004a0: 5082 c2ee 3244 d1bf 8eaf 3083 9c94 a03f
000004b0: ece9 96e7 4b0d b5bf 2ba3 1cb0 d633 cfbf
000004c0: 4976 64d4 a835 d33f f38f 4188 5f0d a6bf
000004d0: 073d d2c9 c47d ca3f 613c 9ed9 f338 c7bf
000004e0: 53d8 be85 1494 aa3f 4470 3406 3344 d23f
000004f0: 9afd 6e6d 10fc c6bf 4a25 ae59 2970 b7bf
00000500: 2503 4604 412d cc3f eb07 48dd a2ab b7bf
00000510: 8fcb 7190 6465 ac3f 7b41 c054 d7e6 cc3f
00000520: 9fbb 43fe 3956 c7bf 0015 46bf 108d c3bf
00000530: 20ff 8ac0 ba37 aebf 0a47 b693 c5d0 c8bf
00000540: 1691 3487 bb09 c4bf 896f 3699 5858 cc3f
00000550: 346f 38a9 8ebb b5bf b9a6 cb2b fdc8 b03f
00000560: 7c40 e897 a558 d33f 7c60 938c 9aa8 cbbf
00000570: 32a4 e329 5b36 803f 31b2 264a 3664 acbf
00000580: 114b bf41 999b cfbf effc 68bf 43ac 7fbf
00000590: 5cab 46e5 b1e0 a6bf 65d1 0e59 345b d63f
000005a0: 63fa 131a 702e d1bf 562c e602 a64c c6bf
000005b0: 3e51 cad8 ff22 d13f 0087 6058 abf3 c7bf
000005c0: 5a21 8807 a523 bf3f 9cd7 f029 075a 84bf
000005d0: 09aa b3ad 596c d0bf ea9d cd84 a40d a63f
000005e0: 836d a20b 5a7f d13f 680e 21e0 b667 cf3f
000005f0: d4b0 a23f fd64 b13f 5c93 83ca 041f b4bf
00000600: be90 b01f 8dd2 c7bf ba78 e0ff eac7 c23f
00000610: b880 df40 5379 c5bf dcb4 6bb0 b993 c03f
00000620: 99ce 9bd8 b722 94bf 6c3e 41f0 8840 d13f
00000630: 88ad 79a3 6331 d0bf f8c9 ff1c 6d6b bebf
00000640: b8b3 d976 1f92 d63f f45e a7ca 8b67 c23f
00000650: 7511 3685 5507 b1bf 260a c982 5488 c53f
00000660: aae6 22ba 03db c6bf 5073 53d7 e6ba d43f
00000670: 0d4f 0a21 1f9a c33f 6099 5c16 d2de acbf
00000680: ecf5 8faf 9614 a63f 4c0e 863b 75da c23f
00000690: e180 bab2 7602 d3bf cd97 f0e5 1094 b7bf
000006a0: 96ce 99cf 84f0 cfbf 708a 0985 5deb c7bf
000006b0: 49c3 319e c656 d13f 078e d8f7 a926 a5bf
000006c0: 0725 8123 aaac 98bf 4774 f240 ee45 cd3f
000006d0: e8a4 4b8a 914a c4bf 5fe0 d7dd b57d 42bf
000006e0: a17f 1134 c373 d53f 3623 b209 2b59 b33f
000006f0: 067b d2aa 1890 bfbf 278c c9cd a058 cabf
00000700: e6fa de4c 10d6 96bf c51d f088 be00 723f
00000710: 5d1b 5317 22c4 91bf 6070 790f 13da bcbf
00000720: 6a05 a4ad 4046 b63f aede f13b c144 cc3f
00000730: c1f6 c2db 1c64 d5bf 35fd 9261 86f8 c6bf
00000740: c7d5 13d0 93c5 be3f dd46 a6e4 5ad7 c43f
00000750: e4d0 0f9e 3521 d23f 295d ad5d c2c4 c23f
00000760: c5b0 e050 1fdc b43f c978 c379 f394 b8bf
00000770: 44df b03a e127 d33f 2490 3211 6cd1 d5bf
00000780: b7e4 14b5 ae36 c0bf ceda b473 6cc7 d13f
00000790: cd68 6852 5dbb d63f ab7c 7ded e96f c3bf
000007a0: af37 3174 60a6 c2bf 624b 0468 4224 c4bf
000007b0: 0e90 e82a db14 c53f c2ea 89a6 63af cbbf
000007c0: fe12 cd4e 2223 d63f f552 075f d74b b5bf
000007d0: e845 0a26 4394 d43f 9298 27a5 f3c7 d63f
000007e0: 815b c614 6b23 a23f 8e6c cd49 5789 d2bf
000007f0: ff31 006b f506 b1bf 8739 0940 627d c8bf
-0.10942456005600092 -0.24183791349355088 0.07039354308559063 -0.06918897821514165 -0.2907665683624917 0.3794848248439335 0.08667883028296246 0.11967302312663497
-0.0016557889661554782 0.32036985442788124 0.09589615129019104 -0.04414803336169104 0.2272043040266121 0.2537108304268348 0.3764164441091783 0.27399036474460625
0.35159277535902067 0.21372362912819015 0.3355398343167954 0.1030941824346394 -0.11798204324538748 -0.0015678276384453135 0.20013341860199793 -0.07874416058866136
0.0998659149203754 0.0795140840411427 0.14101758736192 0.09984498508536722 -0.09393329032282893 0.33047816059264745 -0.267504957346316 -0.019574830712307808
-0.09478691433372326 -0.14673274979332632 -0.048519245694387605 -0.10553757536312881 0.260359651250255 -0.054907172596974495 -0.177489368909065 0.13146967537426438
-0.02561007980557403 0.24105740969330955 0.2663659441164433 -0.1546092964742438 0.35581082053171353 0.33337434614830497 -0.02563694354392636 -0.1858021664228381
-0.23162335127313274 -0.22968711535735586 -0.31840895233565514 0.16130768960313974 0.10207440146997357 -0.006568255562273245 0.2791265660716378 -0.10650462378755395
-0.20953879952976198 -0.26849936628422594 0.027033246727237815 0.05350276957015252 -0.17821451274028416 0.2195810688604343 -0.18156745263045013 -0.22246897576351515
-0.18967050172494956 0.3684862819725671 0.3903920824329346 -0.020825942408581422 -0.20074264505263342 0.11179908225841774 -0.2711959518467192 -0.11688779397231616
0.3623225992703532 -0.22474221245690443 -0.2157388659352523 0.3346266204297246 0.326909148857523 -0.03693516986103656 0.19671167884827143 -0.020946309403015204
-0.0010553571694165602 -0.1334969092274289 -0.28513779263175715 -0.10637607662532277 -0.2583598345444052 0.06880622990634658 0.2014697897821826 0.2420665748540329
0.18428983160487628 -0.0022170605973887794 0.027158228130069524 0.1982430959893292 0.09094735552082339 -0.0976802235831461 -0.06978545916650414 0.3394878386903654
0.209929060174572 0.2700028768469399 0.11357209528383874 -0.2963513013203565 -0.06187379242327951 -0.002810586196224556 -0.021298305275426168 -0.05736884622550954
-0.08594857880476182 0.30110536184305786 0.06903288161486222 -0.1719873495402984 0.26427441051492956 0.15471459831462908 0.27457917254734404 -0.14444156566431762
0.32815437688305166 -0.23595236999927138 0.05456685879042373 -0.15384442042127217 0.31320633302432016 0.055214442328734056 -0.18058580208764954 -0.05991307980362464
0.07835280783287767 -0.07165004392364663 0.23939124978061016 -0.26054290840879946 -0.06367554866402492 0.11907300264505036 0.12631468450506916 -0.2685690595634361
0.3520128650358267 0.11786628766222679 -0.07614307170709719 0.24728256196569245 0.0316648160684374 0.35482861881907807 0.2844873845146629 0.38507332583843457
-0.25685160481678687 -0.32322404140865785 -0.0178556239023864 -0.014316799864308546 0.16726474682295372 0.07569566546406062 0.43527121890542403 -0.14320870897814372
0.18156568153111596 0.3204582271398273 -0.006222197173699725 0.3312631547063809 -0.2697875339163476 0.03238381482546436 -0.0822341385273046 -0.24376948928081651
0.3001501154084037 -0.04307077921183113 0.2069631562667171 -0.18142555356868953 0.05191101200709682 0.2854125557512399 -0.1795673879951039 -0.09155519904574763
0.22013104160944255 -0.09246271040322511 0.055461065895449406 0.22579471243126278 -0.1823189250494268 -0.15274247493304216 -0.05901893234613298 -0.19387120926381157
-0.15654701330016313 0.22144610863767536 -0.08489314681395116 0.0655668479845656 0.302285574290188 -0.21608287681624805 0.007916176048143073 -0.05545205741086468
-0.2469359942466203 -0.007732643737255559 -0.04468303607730803 0.3493166799264798 -0.2684593443554261 -0.1742141260295706 0.26776119395187326 -0.18712369742666368
0.12163764413719971 -0.009937339751654943 -0.25661317790096 0.04307283517010403 0.2733979333513263 0.2453526110058306 0.06794722369767509 -0.07859830803097395
-0.18611301467274716 0.1467260121725696 -0.16776505153302934 0.1295082198552454 -0.019663689227810897 0.2695638986815314 -0.2530144783438222 -0.11882669408786473
0.3526686344765113 0.1437849750061485 -0.06651815893389375 0.1682229651069786 -0.1785587939137277 0.32390757587363783 0.15314091790480014 -0.0563874866768852
0.04312582867713019 0.14729180723598956 -0.2970253701587478 -0.09210305799260184 -0.24952755104788044 -0.186870279273609 0.27092137764616503 -0.04131060743773323
-0.024096163193722677 0.2286966149448821 -0.15852565052708845 -0.000564302255667403 0.33519058308410804 0.07557934748377879 -0.12329248590911498 -0.20582971618850474
-0.02230096310790488 0.0043952410478662095 -0.01734975116121561 -0.11270255210678348 0.08700947036051834 0.22084823061935793 -0.33423539601413316 -0.17945937885631627
0.12020229177490825 0.16282211460616383 0.28327694354744737 0.14662961553651968 0.08148380016854435 -0.09602281306021888 0.29930906993421424 -0.34090711287922404
-0.12666877595782974 0.27779685306033464 0.35518582389489667 -0.15185283752632492 -0.14570241616678234 -0.15735654906219582 0.1646989783777148 -0.21628995544218382
0.3458944100896558 -0.08318849630388654 0.32154921259743086 0.3559540856207458 0.03542647007559819 -0.2896326275565081 -0.06651243078540146 -0.19132640959510303

fc21.weight f8 [64, 256]
00000000: 4ba5 0d98 4a23 7c3f add2 6369 7b8c b2bf
00000010: e900 aee0 ee34 a53f f55b 3de1 8549 a33f
00000020: ae57 3bbe e75b aebf 50bc 9c71 b228 bd3f
00000030: 0874 855f 992d 9a3f 5a0d cf33 d4a6 693f
00000040: 11f9 f821 c488 a0bf 6e13 5665 866b 21bf
00000050: 0377 5e03 903b b53f 4a71 8799 9d9b 79bf
00000060: ac45 e68b 8d06 943f 4896 b991 e227 b33f
00000070: a8bd b0e3 7842 343f f961 98a4 9561 b43f
00000080: 257b c953 022d a33f e9a9 145b 7050 973f
00000090: 456f b1c1 472b a1bf b4d8 dac1 9652 a0bf
000000a0: 09fb 5441 d579 7fbf 9ee5 7e75 4b36 a6bf
000000b0: 7c3e bedd f6f4 973f c618 5fe0 0e02 ab3f
000000c0: 662f 16e8 5906 913f 7d03 55b9 4ded a3bf
000000d0: 3b4d db1a bc66 b23f a58a 8906 c543 90bf
000000e0: 1a2f 1897 2459 b3bf 28c5 5fce 9123 a83f
000000f0: 300b 8844 c455 443f a701 9c1d 1018 67bf
00000100: 3fea 78bd 6aa3 74bf 5ba3 f12d 1488 82bf
00000110: f173 d772 21a8 b2bf 3f6b 9c7d 2279 a2bf
00000120: 4b02 2145 4781 ba3f e90f 0d78 d53c 98bf
00000130: c9e4 a8a8 4219 913f 26a3 9e56 b10d a0bf
00000140: d50d cdaf 6c33 9b3f c5ad 6893 f586 643f
00000150: 3208 07eb a054 983f 4875 1eac 97ce c5bf
00000160: dff0 f682 e498 b93f a155 c41b 9ecc b53f
00000170: 29db 2ede b174 81bf a137 5908 85e6 a2bf
00000180: 302e 8ab5 ce1d 933f c2aa 95c6 7464 a1bf
00000190: 95cb a17c f518 c6bf 4d3e b715 66ab adbf
000001a0: 472a 74bf 1225 983f e061 9e24 32be a53f
000001b0: 4ba9 4eb8 1924 613f 5b60 e964 366d 9b3f
000001c0: 0a8c a082 f9d1 5cbf 8feb b734 1cac 843f
000001d0: 00f7 e3bf 3eef 983f 24e1 2fae 9aaa a23f
000001e0: c1c7 990c 2890 a1bf 8be8 0760 6c9f 9a3f
000001f0: 23ac 755d 1dff aa3f afec 72c6 efe6 93bf
00000200: f677 4232 860e b7bf 1e01 a33b f68c ab3f
00000210: 2de6 8b00 9312 a63f 9a95 c9ed ffe4 afbf
00000220: 1dda cfaa 7bb2 a6bf 9029 c072 8e21 b13f
00000230: d2b2 9a0c a366 afbf 7ec5 6bf8 7dbf 8dbf
00000240: f955 d0df d80f 54bf fcaa c7dc 7095 b63f
00000250: c732 6698 1b23 a8bf e140 190f 56bd bc3f
00000260: 1dec d260 784a bc3f 433a cc4a 36ef 9dbf
00000270: f9af 1344 96a5 b73f 402f 2e59 61c5 91bf
00000280: bf36 07be 0f5e 703f 2e6a 28cf aed4 8bbf
00000290: 8f92 211a 502f 9cbf c8c1 d8f3 4c32 b5bf
000002a0: b2cc b607 53a9 a1bf 127d a7be d461 a63f
000002b0: d7b6 a025 c7c0 823f fd0c b864 2395 953f
000002c0: 1672 ec15 a118 573f fa45 d137 1667 96bf
000002d0: 636f 8424 8622 b73f 3777 532e 36e3 95bf
000002e0: 3920 3269 959b a63f 40e1 7aa0 8405 883f
000002f0: a61e 2c08 dc29 96bf 1876 6019 8066 ae3f
00000300: 3e59 d574 ae58 a33f 6707 8a3b f10e b13f
00000310: 7b7a 723a 81d8 a0bf 68dc abbf c142 8cbf
00000320: cf0f 87b2 f99d a23f 99f3 280e 5b09 b5bf
00000330: 9de9 ef8c af97 953f b25f 21bf ad19 a53f
00000340: deeb 217b d61b a43f 6a95 ce86 4346 8e3f
00000350: e952 db27 3433 86bf 239b 6a0d ea6e a9bf
00000360: 51b7 7e33 c880 ae3f cd37 8b68 b1b6 9cbf
00000370: 0df5 4b58 ee22 b43f 6ff3 901f 5c83 ad3f
00000380: 5c43 bf93 7c74 b43f 3803 47ca 0a49 97bf
00000390: 7c29 32a9 5b3d 923f 38d4 0662 407b abbf
000003a0: b0df 340e 2320 a43f f693 910a 63d9 92bf
000003b0: ab55 dabc 5e40 aebf 8317 1fd3 835f b1bf
000003c0: 6752 9703 06f2 abbf f947 5346 275a a33f
000003d0: d282 fb7d 8469 9c3f 540c 5d93 437f afbf
000003e0: 2d87 408f bb5d 97bf 70cb e7d5 b6c9 b03f
000003f0: e4d0 4c09 2bee b1bf ff96 a46e 5314 99bf
00000400: 26e1 af8e 1692 a13f 0c59 03e6 955b b43f
00000410: 531d 920c da4c ae3f 1512 aba4 93f7 93bf
00000420: aad1 27c0 47a5 853f ccd2 098a 9d96 87bf
00000430: edbc 85fa 4b96 aebf cf99 cc65 a652 b03f
00000440: 3aa0 8147 7216 893f 575b bbb6 74ee c0bf
00000450: 8147 48ba 714f 913f f819 a763 5f12 a43f
00000460: 899b b8f2 8bd7 b03f 7325 d8ca b48c afbf
00000470: 5215 5e20 6c24 463f e913 3122 3813 b53f
00000480: c128 63a2 a1e3 b1bf cc71 ce4f 0ad6 91bf
00000490: daa4 d681 6b43 7a3f dc2f 9cf4 1f84 50bf
000004a0: 93e6 3f16 5a5c acbf cafb 5dab e26e a5bf
000004b0: 7f19 08ab f3e6 acbf a901 9c75 c284 a8bf
000004c0: efc4 0157 6912 b63f b88d 06e7 1b84 7abf
000004d0: 8224 26db 422e 9fbf 4aaa 8590 951d a4bf
000004e0: bc63 6ec2 fccf 923f 8c27 0c78 c283 6c3f
000004f0: 27a3 3025 50ef 87bf 344a 5d70 aacd 783f
00000500: e63b 0f18 d7cb 9fbf 74fd 6f97 6625 78bf
00000510: bb51 0a46 28ce 883f 402d cb92 c1c8 b4bf
00000520: 3207 d7c1 6f82 a9bf 6e09 6b06 bd4f b43f
00000530: fb9b 91d0 322b a63f 1002 4458 9923 983f
00000540: c851 45bb 8878 ac3f 9c87 d2e1 8f21 813f
00000550: 5099 7409 de5f a13f 47a1 233b 007c b1bf
00000560: 25be fa3c 4b42 723f ebbe 20e8 c5c5 b1bf
00000570: 8871 a6f4 a727 943f 4e9c f92c 5ccf b13f
00000580: bb28 5fee a0f9 893f 2e24 fe89 d501 b0bf
00000590: 5472 9a86 188d a63f b630 dffd 94e7 b23f
000005a0: 6e10 6a50 abfc 903f ba22 9f52 6d1e bdbf
000005b0: 86f8 54dd 53a5 94bf 1c7d 8765 2c71 aebf
000005c0: 3650 d3ee da16 8abf 655f 1ec9 8a9e a73f
000005d0: dbf0 bedd 5eec 9d3f 1329 8653 e692 a93f
000005e0: f71f 0107 0f00 a13f 52a0 b91a 1906 be3f
000005f0: a61a 8c07 8d88 aa3f 87fe b1c5 d1de 9c3f
00000600: 8923 9cc0 9c2c abbf 56e5 7e49 6f1c ad3f
00000610: d3ee 8435 fc87 97bf cb08 36fe cc35 99bf
00000620: 7c1f de8c a328 b13f 2d54 1e07 9dd3 a1bf
00000630: b767 7e58 cdd1 a1bf f4ad 1ecf 61cf 993f
00000640: 3f8e a3c9 b733 86bf ab3b fbef af5d b43f
00000650: 5705 ab46 d500 a6bf f3d2 757d 4bc6 ab3f
00000660: 33aa 7959 305e a03f e471 af22 f129 733f
00000670: 88e8 df0d 407d 86bf 13a4 2654 289e 93bf
00000680: dca7 096f 8932 9cbf a8a4 a712 73b5 b03f
00000690: 9b4e 1d64 8349 933f 3df5 9863 1c95 983f
000006a0: ba61 3806 a3c3 a2bf d340 e5a6 814f 9ebf
000006b0: 0e3a f052 7f13 713f fc76 3fc6 1190 a0bf
000006c0: a797 3166 6d9a 983f ae53 8c2b 0039 80bf
000006d0: 0d1e 7160 a4ec 8abf 8989 351e 63cd a43f
000006e0: 71af 9a17 70e0 84bf 9ed5 4db8 f37b 5fbf
000006f0: 6c9a 2402 2d28 a23f 99f3 b84d 5457 a23f
00000700: a648 7eee 2df5 afbf 451a f4a5 f6a0 8b3f
00000710: e9ca 5f82 08b8 ae3f 7fbd a77a 5fda a93f
00000720: ba2e 479f 947b ab3f 0379 faf1 748e bb3f
00000730: 5866 ce55 de5c b7bf 7038 0e61 05e7 b7bf
00000740: 761a 047f c527 b93f d9fd f28b 6748 b13f
00000750: 4f5b 8015 f2a7 a53f 9049 646b 3d65 9e3f
00000760: 5fbc 5a93 4678 a7bf 47d9 cbf5 e00a 84bf
00000770: a56d 9b39 aeac b0bf 6f5b 748d 0f52 aa3f
00000780: 0786 cb5a 70f9 ac3f 3ad5 e3b9 a673 b53f
00000790: 97e6 7fa4 d5fd 803f 8b34 7756 ce8b a0bf
000007a0: 7214 dccf 55bb a73f 3f1d 7ed4 ca1b a2bf
000007b0: a77e 6383 e54a b63f ee20 9837 96e9 a93f
000007c0: aed0 3fc0 3db7 b23f 4dfa ef2f 5d58 823f
000007d0: a45a a69e 4811 9e3f 05c6 d812 80b4 893f
000007e0: 93e7 6c24 f8d0 b13f 4fe2 7589 1786 843f
000007f0: 2163 a3bf 734e 9dbf f142 4878 ca32 b9bf
0.0068695939852230865 -0.0724560863780634 0.04141947262451302 0.03767031073100916 -0.0592949313847123 0.11390223764168295 0.025564571814687326 0.00313130803849197
-0.03229344286636338 -0.00013290420126224216 0.0829401024079424 -0.006251922248761874 0.019556247390544776 0.0748273473523905 0.00030913783456562116 0.07961402195395086
0.0374527671126457 0.022767787512899238 -0.033533327478578324 -0.03188010326759763 -0.007684548404823807 -0.04338298615716528 0.023395402225615744 0.05275007714185302
0.016625790396161653 -0.03891985785822436 0.07188010841064323 -0.015883520626071363 -0.07557896317319682 0.04714637417044748 0.0006205757463820568 -0.0028190912970560036
-0.005038659051531057 -0.009048612262817881 -0.07287797025442423 -0.036080434640288754 0.10353513181417744 -0.023669562771161088 0.016697923225568432 -0.03135446722382644
0.02656335661892036 0.0025057598498016997 0.023760332436502725 -0.1703672018456166 0.0999892062890839 0.08515346696761707 -0.008523358910549188 -0.03691497542295897
0.018668393926914273 -0.033969544640816376 -0.1726366861872434 -0.05794829382977849 0.023578923163805745 0.04246670434003241 0.002092409357335933 0.02678380003848733
-0.0017590462325720612 0.010093899115408948 0.024350147687974832 0.03645785690599926 -0.03430295137231055 0.025998776780376914 0.05272762075295414 -0.019435640799866757
-0.09006537177125992 0.053809828548312164 0.04311046010657225 -0.0622940042274351 -0.044330467797341046 0.06691828061608462 -0.0613299324880693 -0.014525398391443952
-0.0012244813835925446 0.08821778669486585 -0.047142851212901564 0.1122640406476907 0.11051132549157257 -0.029232834162991727 0.09237040674241816 -0.017354508464946905
0.003995954030370618 -0.013589254090267646 -0.027524234385412568 -0.08279877618111364 -0.03449496716657431 0.043715141556953566 0.009156757198151606 0.021076729795834293
0.0014096806623406003 -0.02187761989291024 0.0903705443528771 -0.021374556138531644 0.044155758944782915 0.011729274890385555 -0.021644056319046222 0.05937576589370169
0.0377859609240425 0.06663425162881041 -0.032901800522485446 -0.013799203550190778 0.036361506503027045 -0.08217400642111129 0.021086447693940625 0.04121153791555744
0.03927488568384495 0.014782455016595992 -0.010839850870448102 -0.0496743337037542 0.059576278959282754 -0.028040668493126298 0.07865800529176088 0.05764282117204444
0.07990244490725956 -0.022739571186096458 0.01781218738737199 -0.05367470928778356 0.039307685360142286 -0.018407390136776024 -0.059084854653672046 -0.06786369232494675
-0.05458086770855602 0.03779719098533003 0.02774626749931281 -0.06151782201643444 -0.02281849920121386 0.06557791445065475 -0.07004040696193986 -0.024491599681957684
0.03431768886361146 0.07952248445085192 0.05918008235408458 -0.01949911778025822 0.010569153358098788 -0.01151774480352099 -0.05974042351851403 0.06376113877613608
0.012249844367218644 -0.1322770969624922 0.016904618258258623 0.03920267192329513 0.06578898120697664 -0.061620378266591745 0.0006757286034690202 0.08232451281317278
-0.06987962927374537 -0.01741806137180095 0.006411952924659315 -0.0010080635133275983 -0.05539208909608564 -0.04186161367305592 -0.05644952261723101 -0.0478878754202044
0.08621843694870156 -0.00647364520446863 -0.03044990980700791 -0.03928820981203225 0.018371533743991128 0.003480796644343925 -0.01168692220206109 0.00605551316933144
-0.03105102619502622 -0.005895043133022571 0.012111963880024548 -0.08118829568700381 -0.04982327691278811 0.07934171110813334 0.04329832836156552 0.023573299419696936
0.05560710226078275 0.008364795760204484 0.033934534696799745 -0.06829835361316326 0.004457754039023186 -0.06942402760682469 0.019682525927792877 0.06957031343482464
0.012683160089995807 -0.06252798670733803 0.04404522555453086 0.07384616087000748 0.016588856490230723 -0.11374552981500133 -0.020161924728420398 -0.059457194703776944
-0.012738905347227197 0.046131455469718564 0.029221994671147705 0.04994888085919249 0.0332035728502546 0.11728054907291721 0.051823050662325884 0.02819373864303867
-0.05307473994441298 0.056857564660684076 -0.022979679838711697 -0.02461929608899353 0.06702634991790818 -0.03481760703940782 -0.03480378823515145 0.0252051623025817
-0.010840831604986721 0.07955455407066718 -0.04297510612151239 0.05424724489686197 0.031968604013702516 0.0046786708216725904 -0.010981083320064991 -0.019158010612645947
-0.02753653278561062 0.06526869969788385 0.018835118279936763 0.024006312922428597 -0.036648840436274324 -0.02960016804837624 0.004168984755791983 -0.032349162531074754
0.024026593553933797 -0.00792122013948834 -0.013146671479389327 0.04062947982562821 -0.01019370624575064 -0.0019216423108593182 0.0354627671352333 0.035822519767385326
-0.06241744552893751 0.013490607203960123 0.05999781218988238 0.050494178507388014 0.053677219813463364 0.10764246852565766 -0.09126081080321435 -0.09336885089416724
0.09826311446168198 0.0675110546753709 0.04229694855182819 0.02968307464568337 -0.04583950566063132 -0.009786374569995216 -0.06513489633964882 0.051407323853871804
0.05659056766831943 0.08379594839410212 0.008296650965337533 -0.03231663518418156 0.04635112917279906 -0.03536828845886441 0.08708033044558282 0.0506102507461622
0.07310853904329193 0.008957603478845355 0.02936280697175654 0.0125513082267359 0.06959486855785561 0.010021385080777238 -0.02861958367506923 -0.09843125759676831

fc21.bias f8 [64]
00000000: 7ac8 8502 0322 a63f 0e88 978c 38af a7bf
00000010: b65c 3f5a 83e7 86bf 18d4 7452 e2c1 973f
00000020: 7692 ed8f 9632 b3bf 4d47 4b16 e2bd 7c3f
00000030: 2ae5 e974 6749 873f 28ef 2291 3cd3 a93f
00000040: ede2 a9ca f217 a03f 9404 209b 49a4 963f
00000050: 1f78 01ab 00fc 88bf 3244 8a21 567a 9d3f
00000060: 8cd4 c811 83d3 a13f 3fc8 dc22 293d 343f
00000070: a2e8 33da d5ba b1bf cb3f cb26 f5dd a13f
00000080: da93 f1ee 1945 5ebf f411 c25f d058 af3f
00000090: 57fb f84f ccc9 a53f b58c e925 d197 af3f
000000a0: a23a c3c2 befd 9f3f ac2d 6c17 cdfc b93f
000000b0: ce22 bfd5 d022 aabf bdd4 9f0e 235f 8cbf
000000c0: 4cd3 bdc6 7b31 ae3f 011f f2d7 4f58 743f
000000d0: 7d82 b6ad 8552 9fbf b43c 6003 4fa3 a33f
000000e0: dd33 781c 5c4f 843f b523 f232 436f 923f
000000f0: 6af9 6a70 19db a93f 0d6b a4d5 a705 9a3f
00000100: df5e 6001 54c3 abbf 1ba6 7b7d bde3 95bf
00000110: 73f1 2523 84cf a4bf 778e 365b 34a3 a2bf
00000120: 4e35 7826 8606 963f ea1e 0c6d 42ab a0bf
00000130: 0c69 5a61 9e97 a03f 7210 a068 a737 75bf
00000140: a482 9fe3 a803 703f 999f dfb2 9e41 763f
00000150: 2f53 e623 3b17 ab3f 12cc 74e7 11d9 983f
00000160: 1a45 7b7c 3746 9dbf 445c 1d0b 8c83 7d3f
00000170: bfbf ff8f 262a b33f 1fbc d2c2 8d46 a2bf
00000180: 841b 02a8 cd78 a2bf 1f50 87d7 b08a 9cbf
00000190: d333 848b 81a8 a2bf 443e 1f74 dc58 9bbf
000001a0: 3b7c 5a77 1a7b a8bf 577c 4979 bc0f b1bf
000001b0: af90 d3e7 f279 a13f bf3d e45c bcf2 83bf
000001c0: 2167 4395 684e a13f e3c8 4f5b eff3 9c3f
000001d0: 2ff0 6455 33d4 433f b60c 7758 fc2b 8ebf
000001e0: c153 a1ca b78c ad3f e5e6 238a 5b41 5bbf
000001f0: 7c16 5c81 4236 a2bf bc13 f785 db70 abbf
0.04322823911469782 -0.04625870434007605 -0.011183763686786068 0.023200546534287353 -0.07499066366069393 0.007017024185829457 0.011370476012631931 0.05043973228154491
0.031432711829386985 0.022111082165797116 -0.01219940683239079 0.028786989018559868 0.03481683342071404 0.0003088212423448845 -0.06925713135925318 0.034896527276600496
-0.0018475297217943527 0.06122447174951509 0.042555222284582576 0.061705146673170765 0.031241398465506116 0.10151368924942145 -0.05104687318050126 -0.013853334316062388
0.058971279154241246 0.004967033280202094 -0.030588234641643276 0.03835532108507192 0.00991699182397981 0.018002557739723552 0.050499720547565755 0.025412199415863635
-0.05422461048891391 -0.02137657240283462 -0.04064572266631474 -0.03640140164796162 0.021509262178417025 -0.0325566061129033 0.032406758674556085 -0.005180028858379969
0.003909740184071229 0.005433673779385994 0.05291161359051554 0.02426555609890719 -0.0285881681182377 0.007205531162831017 0.07486191764451088 -0.03569453242504771
-0.03607790637857192 -0.02787281337244007 -0.036441849022686455 -0.0267061658740302 -0.04781420428229707 -0.06664636574849801 0.034133520888447115 -0.009740325531793268
0.03380133459150004 0.02827428812811029 0.0006051302578167268 -0.014732333612192821 0.05771421764863006 -0.001663531679297164 -0.0355702193174183 -0.05359540949169836

fc22.weight f8 [64, 256]
00000000: 7f9a 7a04 825e a4bf 1418 08fe 4549 94bf
00000010: d620 d55e 66a3 a6bf 2a79 8bb2 8403 843f
00000020: e3ed 54e8 421f a03f 3206 d792 4029 8c3f
00000030: 3e20 870f 2256 a6bf 1cb9 c17c 5c6b 77bf
00000040: bbf9 30d9 71be a03f 740f b4bc 5d0e 76bf
00000050: 619e de19 927b 86bf c4dc 39c4 cac4 a0bf
00000060: ddd2 60e9 23bd abbf c2e1 1781 3724 a13f
00000070: c072 05d3 c75c a73f c439 0cca 84fb a63f
00000080: 2b66 30d2 7592 92bf dfc2 7c41 5298 a43f
00000090: 3cf0 8667 22da 9d3f e9de 22a8 eade 91bf
000000a0: ed5a 0d62 8f46 a73f b16d ddfc ce95 96bf
000000b0: 28ad 3154 e645 a6bf 29ca 3e16 b659 a93f
000000c0: 03f9 ae24 c345 a5bf 7356 dc8f ce9e 963f
000000d0: be3a c707 cc07 acbf bd7c 452d f755 a3bf
000000e0: 0450 115e 2e2c a2bf 3549 fb18 5ba2 a7bf
000000f0: 8b44 593d d6a2 683f fe57 dab4 639a 993f
00000100: 5909 0085 8a9e ab3f 2a27 dd55 678b a9bf
00000110: edd0 27bd 0a72 9dbf 8f5a 1159 084e 9abf
00000120: 1274 a823 c7ce 933f 9765 89c6 e323 9fbf
00000130: 1bb7 451d b572 b0bf 5442 3018 d5a4 acbf
00000140: a533 85ea 921f a0bf 0695 03e2 e1b5 933f
00000150: e95c 0c99 1ee8 a43f 7d60 5d85 efd0 ad3f
00000160: b260 175e 89c0 a0bf 6cff 1b62 d829 a93f
00000170: 4b39 210f 0b39 953f 2316 7668 b871 84bf
00000180: 4a3f 13e5 ed47 6bbf db11 310c 3691 60bf
00000190: fe07 f2d2 2066 9f3f dddd 36e8 aaf9 a23f
000001a0: 6577 8755 87b7 afbf 3a09 0d43 ab8f 933f
000001b0: bd40 d9b4 d2b3 893f aea6 3311 6715 963f
000001c0: 417e 94a8 1d3d 553f 1c13 97e6 6fd9 863f
000001d0: dcd2 a3dd a085 a43f cbb7 2ef6 620e a4bf
000001e0: 8d73 6ed2 b7a4 a93f e862 05b6 eceb abbf
000001f0: 9705 3f66 e6fc 9f3f f4af 1687 5e36 76bf
00000200: e826 4b36 2843 a73f ec6e 96b3 8d79 2cbf
00000210: 596f f184 0e86 72bf a5e2 fe4d fe54 aabf
00000220: 3aed 09c7 1069 9e3f 02ed 6fa2 b6a5 a43f
00000230: 1398 7f21 30bc aabf caa4 f0eb d05b a7bf
00000240: 76ee eee1 6f9c 873f d979 62ce f457 abbf
00000250: 74da 8e95 60bd a1bf 8686 14c3 e770 95bf
00000260: 97ea 03a5 7713 25bf 31ff db8a 111a 77bf
00000270: 317b 9728 3acf 97bf a7da ef61 3ecc a8bf
00000280: e01b 78f5 a678 94bf a3a1 25bc 65c1 5e3f
00000290: ff7d a696 d7de 9f3f 8941 1e2a 62bd 9cbf
000002a0: 4b0e c5e5 362e 8f3f b5a3 eefe 371c b2bf
000002b0: 1f30 a0d6 c3e4 4b3f e51a 4e18 51c1 a03f
000002c0: 59e7 b500 4425 a83f b821 5fc2 cb42 52bf
000002d0: 354e 0ec7 07af b0bf 85ca 91cf cb13 703f
000002e0: a512 456e 5d53 a9bf 1556 226a f744 9d3f
000002f0: 9d82 4fd9 cf03 afbf 54f2 faeb 270d 973f
00000300: a3a6 cb43 d270 a1bf 33a2 bdf9 fde5 86bf
00000310: 0db6 5d3b 8281 aa3f e25c 9730 c44f a4bf
00000320: 3135 7d52 92d5 aa3f bfa9 b107 4f5e a6bf
00000330: 6022 ed48 2db1 ac3f d8cd ab27 d7c2 883f
00000340: 1edf 6448 54ad 983f 7342 5159 93a7 9d3f
00000350: 1b66 96fe 6c3b a43f a56f 117a 04cb 9b3f
00000360: 0bae 8622 7891 b1bf 7c8a 4e6c d0c7 9abf
00000370: 68af 8457 0d05 8c3f 66c5 a61f ec1d 99bf
00000380: d235 3c1c 6bc9 89bf 1387 dd47 54bf a33f
00000390: b374 8ae8 21b9 a7bf ecb9 fa9e 31b2 8b3f
000003a0: b210 c0e6 58cc a03f b2eb 9949 a126 a3bf
000003b0: a10e 0494 6b75 99bf 4bb0 84e2 9167 adbf
000003c0: 4db3 2735 a709 a13f 1d0c 5b56 8584 81bf
000003d0: 3922 faff 03a0 aebf 265a a539 762b 893f
000003e0: ec76 44a7 d5c1 9e3f 6c10 1c2a f999 973f
000003f0: aa03 86d9 a1f1 9a3f cf56 fbba 8e63 a7bf
00000400: debf bbd2 e0e7 823f 018a 465b 10b4 b0bf
00000410: 0c27 5f27 3bd4 87bf 8701 f192 84f7 9dbf
00000420: 3353 94ed 5a98 9c3f 56a9 80d5 8b6e 8c3f
00000430: c396 3406 e3e8 823f 5739 cd9f 6464 a2bf
00000440: 25aa 294f 5349 a43f 86df a877 43b2 a0bf
00000450: cd59 27ab a626 9fbf 7b3d a7ef eec7 a5bf
00000460: 7e3f 3211 96d5 ab3f 0557 e0ea d6ca a4bf
00000470: 438a 2d27 325a a0bf 0e5c 6ebd d0c2 ac3f
00000480: 4469 f901 c4ad 9cbf d6e8 0b9c eaf9 86bf
00000490: eae2 2b41 a2c0 a53f e527 09cf 3eff a43f
000004a0: 9b9a 91cb 31a7 603f 6891 20b4 603d afbf
000004b0: 36d3 4d1a 0b7f a03f d89e a87a 99e3 7e3f
000004c0: b15a bf30 c272 51bf 56bf 098d 91e8 9dbf
000004d0: 3a8e d598 d13b a7bf 237c 8c24 d4ce 99bf
000004e0: 76fc 3e17 66e5 afbf 12e3 c0c2 846f 813f
000004f0: 999d 3614 5e7f a03f e844 fd4e 2382 82bf
00000500: 87c9 975b dc14 acbf cedf b677 338e 8fbf
00000510: 5ca4 548a cc1b 94bf 1516 c301 e200 9f3f
00000520: 9767 cfaa 81c6 9c3f 5794 8f3b d581 80bf
00000530: e904 60ce d6a2 9ebf a462 bc00 20fd aebf
00000540: dea5 da5c 3f29 963f 611c 7a74 2d29 a73f
00000550: b7f3 31d9 44ac a3bf 32c3 1681 8219 94bf
00000560: 457d 2957 9ccc af3f c450 7ef7 24e8 a63f
00000570: d05b 792f 6204 9a3f b759 bc9d 39e7 a1bf
00000580: e786 6499 b59d 9a3f 78a7 31db 8e7a 9dbf
00000590: 7148 a263 ca1d a8bf d91e 5a49 b4f8 6dbf
000005a0: cfe7 2aaa ce1f 98bf 751a b677 5c6e 98bf
000005b0: 89a3 e0e8 d158 abbf fff2 eb6e a689 8d3f
000005c0: 4e26 cd73 04ad a93f 9ca9 8c03 a779 a5bf
000005d0: e73a c0a2 aa42 aebf 41a2 1de4 e11c 9bbf
000005e0: 158d d85b cf23 99bf 6896 fe78 d465 aa3f
000005f0: 3e35 afce 5c46 ac3f 225d 2f14 4d17 7e3f
00000600: 36a0 a28d e52c 94bf c95c 8cf3 887e 48bf
00000610: c170 16b4 2e12 a4bf 0cde 5b1a 6727 9dbf
00000620: 2a62 916d a014 adbf 729f c38d 65ba 63bf
00000630: e71d 7b44 a13b 95bf f835 9a3e 75e6 87bf
00000640: 8031 6e63 448c abbf d4b8 0c8d 0686 a7bf
00000650: 3324 ddc5 cb99 88bf e10b d03f d60d 9d3f
00000660: 15ee 66a2 2e76 833f 2967 2972 11c5 a4bf
00000670: e8f7 e0a0 f5c9 74bf 4329 060e ddda 9a3f
00000680: 41ca 2782 b0f1 9e3f d6ba f62d e628 a0bf
00000690: 83d2 c1e9 1dc3 8b3f 63d7 cb00 3be9 a53f
000006a0: 8a48 8495 1bc2 84bf 606e bd13 6616 a43f
000006b0: 89b2 7b12 2333 a13f 498e 0639 b834 b1bf
000006c0: 6685 48ef f3d2 9fbf 87d0 747d 5c1b 93bf
000006d0: c89f 743d a0d4 833f 83b8 22f1 ddae 8c3f
000006e0: 1901 6b28 0b9d 833f 421e 58f7 82b1 8abf
000006f0: 0460 e88f e810 85bf 5d54 1a11 6186 9d3f
00000700: 4d62 6e10 690f a93f 527f 48dd 28eb a03f
00000710: 6430 4444 b66d 993f 5add 9138 a1c3 9ebf
00000720: ab10 0f0e 9d8e a23f 340e 53db 46e3 89bf
00000730: c63b ddd6 4c87 833f cb61 8448 ece0 8a3f
00000740: f68a 3bd4 788f 883f e7fc 39c4 9d55 893f
00000750: dec2 33f3 579d a13f f02e b61a 8dff afbf
00000760: 7d1c cf03 2d80 85bf 61b6 954b 7e00 9abf
00000770: a609 c3c6 0daf 99bf bf62 f5c1 dfc6 973f
00000780: fac6 cba5 a344 a13f b710 2b5e 68dc b1bf
00000790: 898a 74ea 1a34 743f 7d89 5c64 95e8 a3bf
000007a0: 25e7 fbf1 c641 af3f 5bd8 1d91 e6bc ad3f
000007b0: de37 56cd afca 973f 7029 95d5 1ffb 80bf
000007c0: 3b08 a3d8 ddf8 96bf 0a46 f271 451a b1bf
000007d0: f2e7 0d24 b0ef a5bf 0ec9 4776 e769 903f
000007e0: 4461 200f f7bc 9ebf 591a 8577 b332 95bf
000007f0: 4d7e c59e 05c7 a7bf 7d8e 9d87 4fde 95bf
-0.039783537909262805 -0.019810765867099248 -0.04421539218543706 0.00977233571887533 0.03148850523072235 0.013750557404708184 -0.043625893016326675 -0.005717622069012298
0.03270297790776363 -0.005384794388422754 -0.010977879919507662 -0.03275140424096315 -0.05417740081649012 0.033479437359293054 0.04562973452514063 0.044887685455353515
-0.018136826471254402 0.04022461938291654 0.02915242916945736 -0.017451921951503833 0.04546020576406371 -0.022055849250461616 -0.04350204255828266 0.049512567725646335
-0.04154786894604181 0.022090175180969184 -0.05474698634099216 -0.03776523997907464 -0.03549332521711793 -0.04616055183363913 0.003007334172061398 0.02500301162088902
0.05394394753968141 -0.04989169047492077 -0.028755348010194238 -0.025688295780435907 0.019343482543366326 -0.030410346024245163 -0.06425029720932367 -0.055945071413707
-0.0314908896712958 0.019248513622092588 0.04083343141808788 0.05823467734325136 -0.03271893762183832 0.04914737889885043 0.02072541503758289 -0.009982529342560892
-0.0033301969893741222 -0.002022367059483649 0.030663025736892273 0.03706106266639229 -0.061947087469646424 0.019102741210425857 0.012550016540587067 0.021566019463455426
0.0012963094362205138 0.011156915878822775 0.040082003646522785 -0.039172260810445524 0.050084824025567 -0.05453433725296525 0.031238174429523004 -0.005422944306172173
0.0454342428470918 -0.00021724562411128774 -0.004522377697039414 -0.051429698010399684 0.02969766821705131 0.04032679303051091 -0.05221701058307828 -0.04562237625243311
0.011528848726690227 -0.05340542811721933 -0.034647959000200595 -0.02093851211714661 -0.00016079745774518338 -0.0056400952578313105 -0.023251446464082896 -0.048433255629722276
-0.0199915015528197 0.0018771642213214277 0.0311235128116305 -0.028066190548601298 0.015224865805641438 -0.07074308370523748 0.0008512455217455395 0.032724889962130445
0.04715931423829884 -0.0011145582043231416 -0.06517075166475979 0.003925129066476023 -0.04946414919917189 0.0285833986786966 -0.060575957562609896 0.02251112344559865
-0.0340638835676377 -0.011180862602217711 0.05176932310756053 -0.03967106907992403 0.05241067177721915 -0.04368826836510519 0.05603925242627805 0.012090378664175214
0.02409869853838053 0.02895956261301298 0.039515882566046844 0.027141637754865795 -0.06862593501016805 -0.02615285550167322 0.01368151114782963 -0.024528207237101717
-0.012591206359071547 0.03856910111677627 -0.04633432353623714 0.013523471511999362 0.032809045951610286 -0.037404098734405436 -0.02486198511998217 -0.05743080034366751
0.0332767727266857 -0.008553544710030942 -0.05981457233162186 0.012289928087438073 0.03003629525584632 0.0230482990218807 0.02631237878950158 -0.04568143875591845
0.00923133509738244 -0.0652475569573099 -0.011635267390278446 -0.02926451823100387 0.027924938917823282 0.01388272519405535 0.009233258845209652 -0.035922188288725
0.03962192860929673 -0.032610042912380385 -0.030420879551309277 -0.04254099536376096 0.05436390838542503 -0.04061004273550676 -0.03193814018483867 0.056173823474800696
-0.02800661336946432 -0.011218865286981499 0.04248530431317994 0.041009867451592 0.0020328495561899424 -0.061015150058923606 0.032219263993204114 0.007541274574158506
-0.001064958228189344 -0.0292074911434946 -0.04537825575496553 -0.02520305131031021 -0.06229704889073499 0.008513486092952802 0.032221736876915937 -0.009037280891478663
-0.054846655064369414 -0.015407945719616036 -0.019637294714957995 0.03027680526499495 0.02810099225084847 -0.008060136680749048 -0.029918056818137116 -0.06052494057639038
0.021641721765865422 0.045236034839995616 -0.038423682702137744 -0.019628562096559672 0.062107930793667644 0.04473987122688208 0.02540734686621332 -0.03496723223195224
0.025992238509508516 -0.02878783429006357 -0.04710228410944318 -0.003658630487567521 -0.023558835159498245 -0.02385849457416574 -0.053412017514637596 0.014422703037320071
0.05014814294424906 -0.041943759139331876 -0.05910237538056667 -0.02647736506279075 -0.024550666790799165 0.05155815102561406 0.05522432349207883 0.00734644040036095
-0.01970251728985791 -0.0007475060184302325 -0.039201220973354996 -0.028470622047249747 -0.05679799401758985 -0.0024082168075558125 -0.020735282711738547 -0.011670032475445943
-0.05380452836752436 -0.04594440910146749 -0.012012092567276955 0.02837309612733552 0.009502758341901655 -0.04056601065231142 -0.005075416074815188 0.026225522976838233
0.030218847221428872 -0.03156203566628839 0.01355574960346329 0.04279503235549844 -0.010135856151951356 0.039233388814605474 0.03359326935410418 -0.06721068756319783
-0.0310781588360717 -0.01865906253551988 0.009682895541644046 0.014005407258391727 0.009576880618056326 -0.013033888982149414 -0.010286156551089227 0.028832928341746434
0.04894569707466143 0.03304412556849336 0.024832580486915737 -0.030043143346543878 0.03624430462471769 -0.012640527313471407 0.009535408312926107 0.013124319041296758
0.01199240110094511 0.01237033133588601 0.03440356105591545 -0.06249657584257118 -0.01049838226198418 -0.025392506945925656 -0.025081839806043192 0.02321958180741279
0.03372680090786946 -0.0697694044020548 0.004932503833773646 -0.038883846760898934 0.061048714675008754 0.05808182259981783 0.023234126003039417 -0.00829148169090807
-0.022433725688422817 -0.06680711776632378 -0.0428442996989843 0.016028992265952495 -0.03001771955322964 -0.020701221628110698 -0.04644029200676112 -0.02135586037856151
