weights/model_base_single_input_obs_wc_nolim_linp_f_fullsuite_0_bn.pth (torch, 380610 bytes, 10 tensors)

fc1.weight f8 [256, 53]
-0.12170800007904707 0.03849255822166842 -0.10650636311649468 -0.13110499725857291 -0.05729130435901393 -0.09063974159411775 -0.10243450056351977 -0.17263188522164535
0.14541508816157678 -0.1270360829091097 -0.002947912784293294 0.12193815410137177 0.14579788409148553 -0.11140208785552674 0.05255063995718956 0.046425241976976395
-0.1151336226614827 -0.06955330004763675 0.09998444467782974 0.07780621945858002 0.13649558089648584 0.14391137428309037 0.048229169100522995 0.04541323706507683
-0.11729242838944139 0.17971962096476934 0.09564253687858582 0.06380711495876312 -0.04985010065163335 0.013712818679055034 -0.011836386285722256 -0.010836451314389706
0.11514894477998082 0.03430353847310594 -0.12476526945829391 0.10244201868772507 -0.005064731464039846 -0.05227978314200853 0.037694405764341354 -0.04170234873890877
0.007784704910341356 -0.02384221085682778 0.11526911705732346 0.03378744423389435 0.01593731809382475 -0.0451070416516935 -0.10535033792257309 0.005083708092570305
-0.013351961970579184 -0.04296110666248553 0.07954602688550949 -0.05271030589938164 0.2533382921520381 -0.14323108737674015 -0.20343856405603333 0.15053835123126402
0.09648233794806627 0.04893076420536986 0.09454852857424467 0.13911838671276044 -0.07267405295567694 0.08009816611799915 0.08613345223752905 0.13241615891456604
0.08377040922641754 0.054131216357085274 0.024207997128744857 0.05052366852760315 -0.1170242503285408 0.0002946471670602165 -0.133623894136353 0.07974168658256531
0.02675829827785492 -0.12856078242268817 0.06465988680814402 0.0774063840508461 0.09316256642341614 -0.16809146200623776 -0.053578296831932014 -0.04508528485894203
-0.032750453799963 -0.06252407935765063 0.004180072488047634 0.1301639825105667 -0.09128421545028687 -0.11266456638779902 0.06446684365295824 -0.09975215047597885
0.09934769570827484 -0.06142252405491145 0.027018327382732965 -0.04760891571640968 0.08116970211267471 -0.03992445255946785 0.06366539256886163 -0.09821794182062149
0.01705033890902996 -0.15136686061826005 -0.0013616702423003293 -0.09598265588283539 -0.05680495500564575 -0.05915959553178818 0.09374255746729829 0.1130974143743515
-0.06455609202384949 -0.1500235383823071 0.08390896672233024 -0.2121629096867338 -0.027837800218087853 0.18112712893495672 0.11292639556078485 0.1959079800446297
0.0460160631331331 0.15582130560936797 0.02196493835969851 0.07928244084241703 0.05206252634525299 -0.12687884271144867 0.2185989180378529 -0.0909458339367886
-0.02168942615389824 0.05203678458929062 0.19234915168806047 -0.16313630095726014 0.0024547900538891554 -0.11886479705572128 -0.002374916357556053 -0.04947444148722561
0.10647790879011154 0.016775915399193764 0.16006067113800976 0.002288254974281649 -0.10511085391044617 -0.1300652176141739 0.2077613333038899 -0.07710636538848015
0.03245558217167854 0.0958138182759285 0.1339840842209672 -0.1334544120054886 -0.09870363026857376 -0.0784526914358139 0.16186203153654075 -0.03978273993831928
-0.07491370290517807 -0.028820471838116646 0.23972069563194248 0.11841510726525392 0.058186810463666916 -0.10277723520994186 0.02532661052270816 0.10760303389074963
0.09270002692937851 0.01023279968649149 0.12465781809612214 0.076581772881606 0.10243561118841171 -0.02260231226682663 0.025137398523025076 -0.15150407563257173
-0.16940609574367763 -0.08321541379449593 0.18416651597561337 -0.034215460174021724 0.05775572202068937 -0.04344423523229185 0.09155792235292927 -0.08591913293409349
0.06675684756801982 0.01800967939198017 0.05487184226512909 -0.0669867587398291 -0.019964926456793625 0.1072298213839531 0.02432546578347683 -0.03332395620006313
-0.032547911334480685 -0.04527636244893074 -0.023801952600479126 -0.061575688899636216 -0.013377887475561052 -0.0991746187210083 -0.07594643533229828 -0.029226215102851328
-0.055365128029069836 0.025501100346446037 0.10628914088010788 0.017496911330938333 -0.10366073085611269 0.010203145444393158 -0.05788659676909447 -0.10388316075611112
-0.12359916919565986 -0.07889280468225479 -0.013643820770084858 0.01486583192539217 -0.06602406276983902 0.016045229509472847 0.05496470630168915 -0.0631117452989816
-0.008071399872553458 0.05157709866762161 0.07364650070667267 -0.03111283808308834 0.02760728348170004 0.11069639772176743 0.0036826105788350105 -0.012359058962345043
-0.037636018078466005 -0.032580140978097916 0.12890763580799103 -0.05429955536148993 0.10265374324950745 -0.2513869660410737 -0.18989782264795738 0.057453922927464714
0.11297689327824172 -0.0440980065818813 -0.020642985550901927 0.010474533532599995 0.11492510281238147 0.15811829314480233 0.09360569715499878 -0.13580937683582306
-0.06684864171114373 -0.17355363015538952 -0.10957027971744537 -0.055416859686374664 -0.06761471785870002 -0.0970905014741034 0.06505525857210159 0.026202231645584106
-0.09330340333548001 -0.057616749982435704 0.04269329458475113 0.0012333389604464173 0.09568453721437045 0.08093520748125162 -0.12666255235671997 0.07061576098203659
-0.09638734020557813 -0.0014419993674067192 0.10896759480237961 -0.034504640847444534 -0.05316753544178424 -0.023914291911937217 -0.073203906416893 -0.009342493489384651
0.03778721905979695 -0.045109104679579605 -0.11706487834453583 -0.015894288197159767 0.04797107495102467 -0.0324317234387821 0.07051613926887512 -0.10122060030698776
00000000: 4b46 0068 4128 bfbf 6123 67ed 4bb5 a33f
00000010: 03b8 6642 0044 bbbf b7ab c86d 0cc8 c0bf
00000020: 1a61 222d 4955 adbf 2c58 dd85 2a34 b7bf
00000030: 6804 e7bd 2539 babf a20b a336 cd18 c6bf
00000040: e8dc ff2b f69c c23f 4fd7 c0e6 b742 c0bf
00000050: 0000 00a0 3826 68bf 0000 00c0 5637 bf3f
00000060: e8dc ff4b 81a9 c23f d8ac 0be4 d884 bcbf
00000070: 0000 00e0 eae7 aa3f 0000 00a0 0cc5 a73f
00000080: 4d46 00a8 6579 bdbf d391 08bd 3ece b1bf
00000090: 0000 00a0 9498 b93f 0000 00c0 1beb b33f
000000a0: e8dc ffeb af78 c13f aebd 081b b06b c23f
000000b0: 0000 0060 7eb1 a83f 0000 0060 6740 a73f
000000c0: 4d46 0068 e006 bebf 3021 3f73 0d01 c73f
000000d0: 0000 0080 077c b83f 0000 00c0 a955 b03f
000000e0: b68c 00d0 f385 a9bf b7a3 195e 7715 8c3f
000000f0: 0000 00e0 ac3d 88bf 0000 00e0 6b31 86bf
00000100: b7b9 ffb7 667a bd3f 2c15 c2bf 3b90 a13f
00000110: 0000 00e0 9df0 bfbf 0000 00e0 a339 ba3f
00000120: 7a65 0480 c1be 74bf ff7d ac6d 6ac4 aabf
00000130: 0000 0060 ae4c a33f 0000 00a0 025a a5bf
00000140: 9a9a fbcf dae2 7f3f 99e0 93af 176a 98bf
00000150: 0000 00e0 4682 bd3f 0000 0080 964c a13f
00000160: 8de6 fe4f df51 903f 093a 6d29 4518 a7bf
00000170: 0000 0060 3df8 babf 0000 0080 a7d2 743f
00000180: b932 0200 4658 8bbf 3f0e 3b88 fffe a5bf
00000190: 0000 00e0 205d b43f 0000 0060 d8fc aabf
000001a0: 1385 e7cf b136 d03f efdc 0672 6555 c2bf
000001b0: a4d4 ae5d 460a cabf 4c80 aa37 d744 c33f
000001c0: 98e9 2006 11b3 b83f 2a8a 0f00 740d a93f
000001d0: 507e 1c16 5534 b83f 240f 9a9c a1ce c13f
000001e0: 2660 b648 c49a b2bf 1146 f23b 5081 b43f
000001f0: e4a6 7388 d70c b63f 0000 0040 03f3 c03f
00000200: 0000 0040 fa71 b53f 1e8c e437 16b7 ab3f
00000210: 58e4 e02f fbc9 983f 0000 0000 3dde a93f
00000220: 0000 0020 4df5 bdbf 9d22 46f2 5b4f 333f
00000230: 90d0 a377 961a c1bf 0000 0080 f369 b43f
00000240: 0000 0000 8766 9b3f efdc 0602 ae74 c0bf
00000250: fe3b 34e3 8c8d b03f 0000 00a0 e7d0 b33f
00000260: 0000 0080 80d9 b73f f2dc 0662 0584 c5bf
00000270: 5b49 5651 9d6e abbf 0000 0020 6b15 a7bf
00000280: 0000 00e0 aac4 a0bf ebb9 0dfc 9301 b0bf
00000290: fde0 18aa 1f1f 713f 0000 00a0 36a9 c03f
000002a0: 0000 0000 675e b7bf e3b9 0dc4 95d7 bcbf
000002b0: ec71 2a29 e680 b03f 0000 0060 5b89 b9bf
000002c0: 0000 00c0 d96e b93f d173 1be8 c572 afbf
000002d0: 907e 0142 b1aa 9b3f 0000 0020 3260 a8bf
000002e0: 0000 00a0 89c7 b43f cf73 1b54 fa70 a4bf
000002f0: 1963 f80a 604c b03f 0000 00a0 cf24 b9bf
00000300: 0000 00e0 a475 913f eedc 0642 fd5f c3bf
00000310: 06c5 264a 424f 56bf 0000 00c0 5192 b8bf
00000320: 0000 0000 8a15 adbf d073 1ba0 2a4a aebf
00000330: 1ec1 9022 83ff b73f 0000 00c0 f3f3 bc3f
00000340: 0000 0080 bf86 b0bf 0cb9 7da7 f833 c3bf
00000350: 1ddf e9db 0e7b b53f 34ad 437b 2728 cbbf
00000360: b1f8 1d26 8381 9cbf 77d5 987b 2c2f c73f
00000370: 3eea c987 bee8 bc3f e796 a83f 8313 c93f
00000380: 6eb5 7edc 6a8f a73f 6e5e ced9 f3f1 c33f
00000390: 887c a70f fa7d 963f 4cb3 90a2 da4b b43f
000003a0: 0000 0080 f0a7 aa3f 0000 00e0 903d c0bf
000003b0: 9fef f4a1 0cfb cb3f c248 77e6 3948 b7bf
000003c0: 0000 00c0 c035 96bf 0000 00c0 90a4 aa3f
000003d0: a1ef f4a1 e59e c83f af6f b37a a6e1 c4bf
000003e0: 0000 0060 111c 643f 0000 0060 ec6d bebf
000003f0: 121b c482 8f74 63bf 15db 59c8 b654 a9bf
00000400: 0000 00e0 2242 bb3f 0000 00a0 b42d 913f
00000410: a2ef f439 de7c c43f 093f f188 d1be 623f
00000420: 0000 0080 8be8 babf 0000 0020 faa5 c0bf
00000430: a0ef f461 ec97 ca3f c82d a825 3ebd b3bf
00000440: 0000 00a0 049e a03f 0000 0020 4187 b83f
00000450: a8ef f4f5 6326 c13f 9905 89bf 0815 c1bf
00000460: 0000 0020 a444 b9bf 0000 00c0 7915 b4bf
00000470: a3ef f421 e5b7 c43f 02f1 f53d 675e a4bf
00000480: 0000 0060 8b2d b3bf 0000 0020 1d83 9dbf
00000490: a2ef f4f1 2aaf ce3f 2e7d 0ed5 7350 be3f
000004a0: 0000 0060 a9ca ad3f 0000 00e0 9b4f babf
000004b0: 8a7c a70f 38ef 993f aeda 8257 df8b bb3f
000004c0: 0000 0060 30bb b73f 0000 0020 eff4 843f
000004d0: 2cdf e923 93e9 bf3f cc06 fff1 dc9a b33f
000004e0: 0000 0060 3839 ba3f 0000 0080 0f25 97bf
000004f0: d96b 4042 9ebd 993f ccbb 064d 7c64 c3bf
00000500: 6927 7b54 19af c5bf 583d c5f8 9a4d b5bf
00000510: 3717 91b5 c492 c73f 4916 ee54 b084 a1bf
00000520: 53b1 7872 2892 ad3f 387b 0ba3 523e a6bf
00000530: d10e 320a 5770 b73f b977 0dda cbfe b5bf
00000540: 31b5 160d fa16 b13f 0000 0020 2171 923f
00000550: 0000 0080 2918 ac3f ba77 0d52 0b26 b1bf
00000560: c8bf cb88 af71 94bf 0000 00e0 6973 bb3f
00000570: 0000 0060 c6e8 983f 61ef 1a6c d60f a1bf
00000580: e52a 78ad 1eaa a0bf 0000 00a0 762e a7bf
00000590: 0000 0000 8a5f 98bf 68ef 1a44 d986 afbf
000005a0: 97aa 93a9 dd65 8bbf 0000 0000 8263 b9bf
000005b0: 0000 00c0 3971 b3bf cdde 3518 7aed 9dbf
000005c0: d789 726c d158 acbf 0000 00e0 f51c 9a3f
000005d0: 0000 00e0 c335 bb3f 1f21 cad7 b5ea 913f
000005e0: e60d e878 8289 babf 0000 0000 63e5 843f
000005f0: 0000 00e0 4fa3 adbf b677 0d3a 1698 babf
00000600: ca14 82f5 31a4 bfbf 0000 00a0 5132 b4bf
00000610: 0000 00a0 4af1 8bbf 4d42 942f fa71 8e3f
00000620: 5473 58f6 f3e6 b0bf 0000 0020 296e 903f
00000630: 0000 0080 5524 ac3f b377 0d62 1728 b0bf
00000640: 036b e2f3 bc87 80bf 0000 0040 5068 aa3f
00000650: 0000 0040 7fda b23f cede 3538 0bdc 9fbf
00000660: fdbf bd6e 1545 9c3f 0000 0060 9956 bc3f
00000670: 0000 0080 fe2a 6e3f 90bd 6bd0 b44f 89bf
00000680: 18ec 9835 0745 a3bf 0000 0020 58ae a0bf
00000690: 0000 00a0 0b80 c03f b50c eebc 26cd abbf
000006a0: c590 1106 8447 ba3f 6c5f 725b b916 d0bf
000006b0: 0b63 ed64 924e c8bf e92f 00c0 996a ad3f
000006c0: 5b6f d5bd 0dec bc3f ca0a 2d90 0394 a6bf
000006d0: 1dea 544f 6f23 95bf 8dfc b417 ac73 853f
000006e0: d290 1146 bb6b bd3f f566 fa60 383d c43f
000006f0: 0000 0000 8bf6 b73f 0000 00a0 3362 c1bf
00000700: 2b6f ee19 fe1c b1bf 094b cf5e 0137 c6bf
00000710: 0000 0040 cc0c bcbf 0000 0040 995f acbf
00000720: 2a6f eeb9 324f b1bf 2b61 9550 ecda b8bf
00000730: 0000 0020 76a7 b03f 0000 0000 c2d4 9a3f
00000740: 2e6f ee59 bbe2 b7bf 8fb3 c051 f17f adbf
00000750: 0000 0040 e5db a53f 0000 00a0 ff34 543f
00000760: d290 1126 c87e b83f 6919 3a75 2bb8 b43f
00000770: 0000 0080 7a36 c0bf 0000 00e0 df13 b23f
00000780: 2e6f ee39 d7ac b8bf 9165 ed07 2fa0 57bf
00000790: 0000 00e0 4ce5 bb3f 0000 00a0 97aa a1bf
000007a0: 65de dc73 c638 abbf 6ed1 acf6 fc7c 98bf
000007b0: 0000 00c0 7dbd b2bf 0000 0040 2822 83bf
000007c0: 9b21 23ac d858 a33f 6d86 b362 8a18 a7bf
000007d0: 0000 00c0 f6f7 bdbf 0000 00a0 9746 90bf
000007e0: 9b21 232c aa8f a83f 4183 0b0f e49a a0bf
000007f0: 0000 0080 580d b23f 0000 00e0 97e9 b9bf

fc1.bias f8 [256]
-0.04542680395433376 -0.14826865056559904 -0.10890107328016084 0.03397938135322352 -0.11638471548128566 0.06637105166769956 -0.08834421786024521 -0.09237276804797279
0.008795348192671523 -0.1334681869259735 -0.09363137713100796 0.04446830623502335 0.017468891697599055 -0.20312201473459154 0.006092208662999172 -0.016053761942314483
-0.18046452720825273 0.1372633541241256 -0.08995421403931467 -0.015167497129333197 -0.17286792346286245 -0.14642308163077367 0.02293263859888365 -0.08193834671128014
-0.02633757800873531 0.09096248958806108 -0.010664792838442487 0.0444255796102123 -0.03857306645294145 0.07781724152956283 0.028969260198912505 0.13242757417085801
-0.0946231928672194 0.10468312802935315 -0.009639842691496906 -0.08561714468166794 -0.13632992963618154 -0.0314961228708096 0.011831148706107332 0.14065647320552685
-0.018366054857120884 -0.003992413364707297 -0.16316073763886377 -0.12633428697048688 0.05376233649700787 -0.03375772784150946 -0.12288173153870734 -0.0013703409093917937
-0.023163308734280713 -0.056507831116586166 0.019673625718241702 0.11352269931984468 0.04706517840712764 -0.09839553424737582 -0.09883316192307551 0.13559647751917203
-0.05659855473345979 0.10670328074881266 -0.10910635546672007 -0.0937283609198687 0.046990498053994724 0.02059728722069332 -0.026219355655706295 0.10556009116529701
0.07268445253281086 0.028057163028437353 -0.0385538106262334 0.08391851161843332 0.07131872139866577 -0.08924990578689226 -0.049131556448129526 -0.03697575851169198
-0.08217169662484794 -0.03416927712506472 0.0058082891693490325 0.07878042917467297 0.055479058429371765 -0.03899190031153034 0.043622773621817976 -0.08863011226709284
-0.13011999830597512 -0.12840859822827794 -0.041862102074835254 0.14478624651338204 0.13193808779023747 -0.07627942685835434 -0.11949821753290284 0.03668558422373417
-0.024897544217128868 0.0440163102156248 -0.06276189781091063 0.02231272740139402 -0.05623913413528834 -0.002703449968194235 -0.00019391161879404127 -0.005223309727424849
-0.02244749888204211 0.02323085511758295 0.029337518312831976 -0.048420906128271074 -0.08546549262732563 -0.021683599134147857 -0.040623170452373944 -0.07711804943848688
0.02075705626476272 0.09288429410071025 0.13963792275770137 -0.14379862920384182 0.12652105543547829 0.13079582079101137 0.14258341902205918 0.10661441788158092
0.007643485228050289 -0.1161842638432614 0.07812764695345763 -0.03131345326617609 -0.009420501801659832 0.030394421021499807 -0.028085645762420182 0.04611364347028719
-0.06933528729600535 0.11742211990304563 0.028935691951221996 0.07992682533174293 0.05037411939238697 -0.014182545808572724 0.1344030275928035 0.04822959342743253
0.0745691836373825 -0.06526130583685379 -0.0775915463352032 -0.1463473554126102 -0.14850023314635086 -0.0022729765778851494 0.09276729512863588 0.11196800756405266
0.10493357587717896 -0.07191970583271756 0.01818238762786842 -0.0030973618530192684 -0.08695547569165935 -0.1270714164903879 -0.08626845716630822 0.05060383166907748
-0.04656342392761266 0.0838078562022829 -0.04319192816351896 -0.08781068943000299 -0.017808895015365787 -0.1598581754273754 -0.02322391452207319 0.08304791416985295
0.03477620631691953 0.0953305618361664 -0.10811696732876552 0.06751859916561986 0.131009195561756 -0.16212199324370946 0.04541282430202429 -0.11814196489702501
-0.1027607548463526 -0.10976639881538436 0.09841018078830124 0.028210157943980404 0.07914912276223496 -0.0027427492810987854 -0.001356796145239454 -0.027291631565524284
-0.12391758245878277 0.08871721767948447 0.10200548567570629 0.0403015936743046 0.07751555088085371 -0.11707365161453305 -0.1662354500319691 0.04493694062614112
-0.09688903706076343 0.12321409863246617 0.12173365283053432 0.05599481974023995 -0.05451027891620781 0.04039145147915266 -0.04534786238064901 -0.08231051582058875
-0.055588111666948 0.16108659025430114 0.11185995349193074 -0.07481565846481389 -0.09013376559000229 0.1123312234048529 0.006816583712652128 -0.11089779985000288
0.011716449381040703 -0.062225622305479636 -0.04239437564167164 0.0690726019233008 -0.039189294338684566 0.10985653965251974 -0.01304459418376248 0.17333717524044223
0.028251711834529694 0.045660098878620325 0.02477081671185181 -0.14613336289573933 0.11351643014539652 -0.14392274564564916 -0.034299559066884394 0.02238509719748836
-0.11837811440919943 -0.15420136481534208 0.14712777081001033 0.017160049874241766 -0.04493325485586847 0.11361070647241922 -0.01264133432391461 -0.07536023457465896
0.10166612090258695 0.017776166521322773 -0.06633618443862564 0.14130050943705713 -0.09526375314275312 0.0006820371551879515 -0.04971604417257269 0.08671870055871103
-0.06043458283392518 0.12764799972332944 -0.1325795653644136 -0.08438172767549554 0.1556086055605375 -0.1383918726331027 0.19933240252484755 0.08338369690739593
0.04130821776244997 -0.18688840709318852 -0.03131591588302542 -0.015570408188598934 0.058805161189516585 -0.0023259842542726096 -0.019998870563051052 -0.08084596346590184
0.1247770906739487 0.03684719132001849 -0.066611083355489 0.0552694456623853 0.05846224386866683 -0.020967807985320226 0.08280756827249852 0.10909659260448785
0.026502798367303838 0.07174212364604449 -0.06729832758234225 -0.017956905600193772 -0.004899047865704849 -0.042369345246605565 -0.09544578659064766 -0.08434090577331427
00000000: 43fb b09a 2e42 a7bf 31c4 9996 77fa c2bf
00000010: b7d2 3cd4 f0e0 bbbf 2e02 4dd7 be65 a13f
00000020: 3513 bf82 63cb bdbf 7b5b 5078 b1fd b03f
00000030: a41d 8006 ba9d b6bf f899 cee1 bda5 b7bf
00000040: 9e72 c1a6 4b03 823f f0a4 f34c 7c15 c1bf
00000050: 1d39 a8d6 39f8 b7bf 08d3 f9c1 8cc4 a63f
00000060: aa7a 277a 5de3 913f 57fc 30f5 e6ff c9bf
00000070: 61e2 7ccf 24f4 783f 8a7d 14ba 6570 90bf
00000080: 3e49 392d 7619 c7bf 6481 7378 d891 c13f
00000090: 76ad 6f47 3d07 b7bf 07b0 0f01 2310 8fbf
000000a0: 5674 e63e 8920 c6bf 40ea 7dd5 fdbd c2bf
000000b0: aa3a 2c53 a77b 973f 3ccb 6957 e9f9 b4bf
000000c0: 6e3f d0f0 3cf8 9abf c886 f155 5149 b73f
000000d0: 8f84 ad43 6cd7 85bf cd3b 1017 f3be a63f
000000e0: 90f8 d755 d9bf a3bf 3135 6fab d4eb b33f
000000f0: 5317 9324 1eaa 9d3f 7783 1302 63f3 c03f
00000100: 7ecc cebe 3939 b8bf cc3c 5473 83cc ba3f
00000110: d5db c9c8 0dbe 83bf 5979 6254 01eb b5bf
00000120: c96e a056 4273 c1bf 2fa2 5c83 4220 a0bf
00000130: f47e 22e6 ed3a 883f 57b8 3104 0801 c23f
00000140: ed1a df13 8dce 92bf c524 564d 595a 70bf
00000150: 5138 1378 73e2 c4bf 906b 73cf b82b c0bf
00000160: 7cbb 05aa bc86 ab3f 1413 2262 b148 a1bf
00000170: bb0e 3c5a 2d75 bfbf b72d f958 a073 56bf
00000180: 986d ec55 1fb8 97bf 8c2d 3a2d 98ee acbf
00000190: fce0 36ac 5225 943f 16b0 eed8 d20f bd3f
000001a0: 3ffa 1354 ed18 a83f aa38 aa21 7330 b9bf
000001b0: 2c4a 384e 214d b9bf f8e5 32b2 395b c13f
000001c0: c482 295b 7cfa acbf a22a 31fd e750 bb3f
000001d0: 96eb 83e4 64ee bbbf 01c8 dbf4 94fe b7bf
000001e0: 95b4 ba78 230f a83f 612d ff8b 7417 953f
000001f0: 58f9 402c 3fd9 9abf b356 5173 fc05 bb3f
00000200: b85b 8ec2 729b b23f eeb1 8056 04bb 9c3f
00000210: 2d3c 8d37 53bd a3bf 6f1f eefe ae7b b53f
00000220: 36f3 ff97 f141 b23f be99 86f2 14d9 b6bf
00000230: 14e7 4a78 c527 a9bf aee2 1a93 7cee a2bf
00000240: 2a1a a94d 3409 b5bf 166b 8faf a27e a1bf
00000250: 64f4 72c0 6eca 773f 8fbc de46 f42a b43f
00000260: 1551 224b c067 ac3f 7238 4b11 bff6 a3bf
00000270: de0e 2264 b955 a63f c9c2 a089 76b0 b6bf
00000280: 79ce a3a8 c5a7 c0bf 4234 f564 b16f c0bf
00000290: b7da b40e f36e a5bf c1c0 d710 5b88 c23f
000002a0: caf2 13e6 58e3 c03f 7ad9 b66b 0c87 b3bf
000002b0: bbee 3b68 6f97 bebf c580 f3f0 73c8 a23f
000002c0: 8133 a7e8 bd7e 99bf 00c0 bb49 4e89 a63f
000002d0: a462 88ea 2911 b0bf 64ea e4c9 25d9 963f
000002e0: 7d9b bb33 60cb acbf ac7c 64a6 8b25 66bf
000002f0: edf4 3f1f 986a 29bf 3d77 4c87 0965 75bf
00000300: 1e2d 4d26 7afc 96bf 23d9 f34b d4c9 973f
00000310: 4c33 cc86 a70a 9e3f ecf7 8600 a0ca a8bf
00000320: 3959 c507 11e1 b5bf e01d 90b4 3934 96bf
00000330: ee05 1b69 8fcc a4bf 5005 452c 02be b3bf
00000340: 7407 4677 5641 953f 247f 79dd 43c7 b73f
00000350: 304a c3cb a7df c13f d1ef d154 fe67 c2bf
00000360: 6fe6 ac89 d731 c03f 881c 60de eabd c03f
00000370: e867 d368 2c40 c23f 235e 151e 154b bb3f
00000380: 2c9b 4f71 c64e 7f3f b742 847d 40be bdbf
00000390: d71a 9468 2c00 b43f 43f6 6723 5108 a0bf
000003a0: 2747 3359 0e4b 83bf 20a2 1211 b71f 9f3f
000003b0: d283 25c8 7bc2 9cbf 2965 351d 359c a73f
000003c0: c025 6517 f5bf b1bf a081 cf44 600f be3f
000003d0: b673 786a 51a1 9d3f 0379 df9c 1576 b43f
000003e0: dbcf b5f6 a2ca a93f 8eee 5f13 bd0b 8dbf
000003f0: 034b ff4f 1e34 c13f f5bd f09c 8cb1 a83f
00000400: df10 034d f716 b33f 6b77 4306 f7b4 b0bf
00000410: 1bad f421 0add b3bf 4737 ad98 82bb c2bf
00000420: 0cee 673e 0e02 c3bf d982 2102 c79e 62bf
00000430: 5643 b7f2 98bf b73f 4796 af72 efa9 bc3f
00000440: cd12 a544 eddc ba3f 684d 7d70 5469 b2bf
00000450: 8949 e660 679e 923f 5562 9a7b a35f 69bf
00000460: d4c5 4dcc b642 b6bf 0093 0a4d e043 c0bf
00000470: d5a6 348a b015 b6bf 1557 24d4 bee8 a93f
00000480: 5af2 ea3d 29d7 a7bf 9663 8981 6e74 b53f
00000490: a7b5 d39d 401d a6bf bd50 57e7 c27a b6bf
000004a0: 69f2 acb6 7e3c 92bf 3aba ba91 3b76 c4bf
000004b0: 44fb 6d85 02c8 97bf eb4b 5ccb a042 b53f
000004c0: c9c7 9ed9 2fce a13f b048 656d 9567 b83f
000004d0: 08db d1b6 8dad bbbf f8be 491f e648 b13f
000004e0: 86dd 34c9 e8c4 c03f 20d7 78d9 69c0 c4bf
000004f0: cd72 6486 5940 a73f 4195 8443 8d3e bebf
00000500: 879a 6061 874e babf e49c 1c95 a619 bcbf
00000510: 8a46 14dc 6831 b93f 3f37 23a7 1fe3 9c3f
00000520: f058 c5ed 1d43 b43f 5f8e d44e f677 66bf
00000530: 8698 8dc4 d03a 56bf 0217 1d64 56f2 9bbf
00000540: ad52 0f0c 10b9 bfbf 1787 86ec 2bb6 b63f
00000550: 9560 fd10 081d ba3f 6b9a 9d15 69a2 a43f
00000560: f8f5 f623 0fd8 b33f 2560 e8f0 89f8 bdbf
00000570: f65c a906 3447 c5bf 683e be84 f901 a73f
00000580: 4654 844d b8cd b8bf e355 088c f58a bf3f
00000590: bbd1 bac9 ef29 bf3f d73a 0f5f 5aab ac3f
000005a0: ea5d 7b72 c5e8 abbf 2c28 4836 30ae a43f
000005b0: 6d9e bcc3 d537 a7bf 4dfa 904d 4d12 b5bf
000005c0: 11d7 4f83 0b76 acbf 33b2 7b42 7c9e c43f
000005d0: 45dc fa99 daa2 bc3f e2c7 5576 1e27 b3bf
000005e0: 9f71 79a7 0113 b7bf 77f0 d732 bdc1 bc3f
000005f0: ea4f dcc1 b4eb 7b3f 8dda 8d57 cc63 bcbf
00000600: 18a0 5537 cbfe 873f eaf1 8c69 09dc afbf
00000610: a7a4 d431 b7b4 a5bf 8169 4ff6 bdae b13f
00000620: 9070 1383 9e10 a4bf 402e 0fe5 8e1f bc3f
00000630: 0654 45cb 1fb7 8abf 305b 6b9d e92f c63f
00000640: a491 8a49 04ee 9c3f d0e3 d4ae c260 a73f
00000650: abc1 b05e 855d 993f 09f0 3e7f 7fb4 c2bf
00000660: 4b7c 08ab 690f bd3f 626b d97e 0f6c c2bf
00000670: 1c42 eb38 b68f a1bf 3a23 8671 1eec 963f
00000680: c81c f331 074e bebf e4b2 70cd debc c3bf
00000690: 322f fb31 15d5 c23f 96c7 0774 6792 913f
000006a0: 19b3 37d8 7d01 a7bf 6045 c65c 9715 bd3f
000006b0: d9fb fd2b b3e3 89bf b4c3 eaee ce4a b3bf
000006c0: 6646 6378 ca06 ba3f 48e8 6d57 ea33 923f
000006d0: ef8f b47e 68fb b0bf be5b 7895 2216 c23f
000006e0: 1e0a 3e90 3463 b8bf 552a 5aa3 5759 463f
000006f0: b089 9d9f 6174 a9bf 8aed d95e 3233 b63f
00000700: 9a62 a319 48f1 aebf fd12 1b08 c556 c03f
00000710: 9bd4 ad00 5ef8 c0bf 0609 bf78 0a9a b5bf
00000720: f9e8 ed97 fbea c33f 54e5 7e2b d3b6 c1bf
00000730: 494c f062 b983 c93f aba1 3c4b a258 b53f
00000740: a008 b1c8 5926 a53f 6bbf 3b96 f5eb c7bf
00000750: e3ae 1fc5 a308 a0bf 57aa a4cf 60e3 8fbf
00000760: 1b3b 4ac8 b51b ae3f 8817 b349 f10d 63bf
00000770: e0d8 197c 957a 94bf 4483 1931 52b2 b4bf
00000780: 1f11 bc33 64f1 bf3f 957e 5693 a2dd a23f
00000790: d51d 9088 6c0d b1bf 8a0d 2ddb 464c ac3f
000007a0: 60f3 ee62 c3ee ad3f 1256 43c6 9578 95bf
000007b0: 9477 9775 e032 b53f 2560 5719 c1ed bb3f
000007c0: 3dd0 f5b0 8c23 9b3f 602b ce1a b15d b23f
000007d0: e2a9 0a94 763a b1bf f627 2989 4b63 92bf
000007e0: 95fa d525 0611 74bf 17cc 5f50 6fb1 a5bf
000007f0: cba4 f293 226f b8bf 44eb 0298 5d97 b5bf

fc21.weight f8 [64, 256]
0.05658619968122982 -0.04244256289901299 0.03506261479042143 0.043652578291723754 0.07663495166795453 0.0009669171574925972 0.0884429015241878 -0.006959418948863307
0.02327669381448146 0.09271241957982543 0.016656067199587468 0.07571739172328458 0.08878050388622624 0.06765946549242575 -0.07647762671678711 -0.002819542099648853
-0.016833523482224114 0.019697832671222906 0.15920184875091276 0.052724557839062124 -0.12409295239797258 0.005587502116160169 0.08943858856588317 -0.1419171506148666
-0.043067375022304004 -0.012401963752029725 -0.0197247211626544 0.025785469017754685 -0.003729881723892672 -0.026694927701386175 0.11957427203698691 0.03536846365658455
0.039377753747408525 0.09959933664262763 0.03224433820283578 -0.1311985336504006 -0.0869155820349926 0.07813539971293315 0.041868022314826225 0.10417987437761994
-0.10540808091172452 0.022041884225945874 0.06817254685359003 0.016072357843157206 0.05019394674252739 -0.03859173159196964 -0.07629114981340182 -0.029195979952090525
-0.1743441590154772 0.05414115201667393 0.03888159907299718 0.11623669422540715 -0.0010920053428822903 0.08158009963766594 0.09353696529981415 0.02364881481739953
0.05580068782824298 0.029661888780746597 0.03634716595688889 -0.06578012255287442 -0.17646186885868093 0.0014533325715996644 0.08448218353559901 -0.025033369744164338
-0.03145104937771479 -0.06836811910474293 0.05056152181968556 0.03614742619022777 0.03989535613796053 -0.04024959985110537 0.011359886742088324 -0.019309556625676388
-0.11920406615245445 -0.014862864431565795 0.003626630928394192 -0.07119213048882594 0.007325077608101735 0.03340172405300432 0.08910019795289296 -0.04388964206891256
0.14491111326804343 0.023062681565499548 0.021559053635927795 -0.00019085543246322916 0.059475927048746276 -0.04271717423360899 -0.12666473026742828 -0.0549711873299683
0.014302918747331786 -0.00574586939706038 0.03008098730497486 0.06306788960813957 -0.02567189954289098 0.08166386070203104 -0.1790404234756835 -0.06042088175376233
-0.023339434255802302 -0.06714425738767417 -0.024353282955731626 0.05078567037429407 -0.026671055130746888 0.08368567844110429 -0.001676508595346334 0.05869746521927581
0.09127579899678424 0.11167156656121138 -0.04115781096057245 -0.008344539477766299 -0.006557715769820406 -0.1146455599555326 -0.1591381267592404 -0.11794168843546096
-0.138847155767985 -0.15218104536834887 -0.01024858956254712 0.07372523905034543 0.10447749935502099 0.015403496058409526 0.10214626721360046 0.018856291072119863
-0.06329651628622651 -0.03164764669089764 0.0434983095456032 -0.08875349952806917 0.005781719528300403 0.02597628490844942 -0.07034328141382942 0.04177324716985233
-0.011376527804285547 -0.05542694096685732 0.06706134126049074 -0.053034492255214255 -0.1193623403001091 -0.05169139124802295 0.036448225861092 0.010206135761362386
0.012190708785981438 0.03428830606866465 0.03626863635681951 0.025672793851732156 0.031970837980283454 0.09811118695367411 0.04295635644162502 -0.0149205346894417
-0.12143180368552252 0.03339677484162215 0.042820368056168366 0.014887902740933557 0.011717460056067984 -0.044785279787928046 -0.0030925515065709816 -0.11910716017103393
0.03598737806697212 -0.05622449599913751 -0.11249037116396583 -0.020952210466946068 -0.0006637826554550535 0.0895079902297106 0.033086464612261945 0.08866867490131423
0.02973628605553386 0.0816235074537365 -0.016342375619555777 -0.05654807187248712 -0.028745406063655717 -0.0099733192609521 0.02791654030395212 -0.007778792932057936
0.009101615696346915 -0.017075036251057968 -0.0190285267420143 0.00013947950334668825 -0.08446769151032785 -0.10497785118755912 0.037585978638561314 -0.04003639296338154
-0.013258953259194848 -0.08148142739778207 -0.058470053510750075 0.03837254962437413 -0.011983134100382603 0.026550283760154753 0.016815966521114105 0.10463425524036085
0.021146887294976078 0.07474067317256215 -0.06546636942826392 0.09691903541622968 0.11815576444947497 0.002336924274399341 -0.027287292468833345 0.08037349813005575
0.03781957377875939 -0.1544974333895816 -0.046806638754028324 -0.019116353575228385 0.057137936132094426 0.041811599149336666 0.002565072964446127 0.12946057467866876
0.020985444101276538 0.04735516070390771 -0.049063065189986585 0.06723840580063743 0.026710281583981168 -0.11949814169140607 0.11791097054131743 -0.1278836643851188
-0.022949762045838873 -0.19405639442132888 0.061062117229904025 -0.12280441817868248 0.08376668391001413 -0.008184088343773106 -0.006869714033950236 -0.03129853840870881
-0.00047021093836249885 -0.05284912503216321 -0.16151808557187858 0.031298420678262724 -0.09687010684657074 -0.06629473591593409 0.038244466182998 0.0736906914441424
0.0686128947181408 -0.04072373660233531 0.09490560352153808 -0.12669290724218568 -0.04760729558275893 -0.030076416283895326 0.05328505098664846 -0.18052913838737553
-0.05190066217628477 0.07375628479383527 -0.04704649076754256 -0.17448086044601227 0.04973045637825228 0.06464562483303686 0.027359497025252612 0.08755279734520924
0.0921558131412719 -0.01644900091685371 0.004646498659075362 0.03446750189039197 -0.005265314347617234 -0.05971784369810532 0.009971929347833813 0.030186599923321226
0.1167170512473904 0.009069625839314484 0.06401303769996297 -0.04823077806422457 0.0020078567915003437 -0.0005662919295660187 -0.07275587236459861 -0.010665170036077668
00000000: 6355 12ca ddf8 ac3f 7828 3817 08bb a5bf
00000010: 2699 ac1f baf3 a13f 104e 4c78 a159 a63f
00000020: c0f7 2423 599e b33f 662e e1c8 16af 4f3f
00000030: 9a17 9ca9 31a4 b63f f56f 8dcc 7a81 7cbf
00000040: f5d0 c47a d8d5 973f ee43 074a 00bc b73f
00000050: 04dc 9bbf 490e 913f 259f 3009 3762 b33f
00000060: d6b7 b6b0 51ba b63f f907 8e77 2152 b13f
00000070: e5d1 9fa9 0994 b3bf 002c 7223 0219 67bf
00000080: 4195 54a3 ce3c 91bf 77fb 7f2c ab2b 943f
00000090: 4688 ece6 b960 c43f 4bcb 3a97 b6fe aa3f
000000a0: e09f 3644 8ec4 bfbf cc0e afad ebe2 763f
000000b0: e90f e484 72e5 b63f 1ef1 5058 572a c2bf
000000c0: 37a0 7d4e ed0c a6bf bce7 c465 3366 89bf
000000d0: 53e9 43a1 b732 94bf 5eb7 9288 8167 9a3f
000000e0: 1fc6 b400 218e 6ebf 4741 c945 ea55 9bbf
000000f0: 8984 d763 6b9c be3f a4f9 6db5 d01b a23f
00000100: 86f3 1129 5229 a43f 6658 9595 577f b93f
00000110: 6feb 1f74 5482 a03f 5de3 a711 1dcb c0bf
00000120: a764 5a7e 1940 b6bf a84b 6d7a ae00 b43f
00000130: e045 2eb5 b96f a53f a46f 5a41 88ab ba3f
00000140: 9afe 3f24 06fc babf 5d14 92cf 2592 963f
00000150: 5ca0 388b c173 b13f 0450 39ad 4575 903f
00000160: 9cc1 6e5f 05b3 a93f 15c3 2aa2 4bc2 a3bf
00000170: 723c 6c19 d187 b3bf d78d 460c 8de5 9dbf
00000180: 2d2c 9cce e850 c6bf c30a 8f9a 63b8 ab3f
00000190: e491 def8 49e8 a33f 1f14 4b20 b0c1 bd3f
000001a0: 18ed 05cf 33e4 51bf 04bd f2f3 6ee2 b43f
000001b0: a006 eede 09f2 b73f 9968 eb18 6537 983f
000001c0: 8f1a a262 e891 ac3f deea 00a9 af5f 9e3f
000001d0: 4c9b 2c82 189c a23f 6d6a 1753 f7d6 b0bf
000001e0: 069a de71 4d96 c6bf 9df6 5ff7 b7cf 573f
000001f0: 194c 61d7 9fa0 b53f 977f 7001 59a2 99bf
00000200: ed1b 0119 5a1a a0bf dfd6 a4b3 9280 b1bf
00000210: a396 4d25 33e3 a93f 09a9 a45a ea81 a23f
00000220: 89e7 bf03 2a6d a43f 373e 1376 989b a4bf
00000230: 0228 5930 da43 873f 6b85 d468 e2c5 93bf
00000240: 9dcd ac5d 2884 bebf f584 44e5 6b70 8ebf
00000250: cc7c 6da7 98b5 6d3f 449c 2ec0 a539 b2bf
00000260: f082 478c e600 7e3f 4c16 e0e0 071a a13f
00000270: 6359 4644 45cf b63f 6264 a302 b478 a6bf
00000280: e116 2886 728c c23f 0bd9 535c be9d 973f
00000290: 3d32 3299 9313 963f 1461 6fae 0b04 29bf
000002a0: 11b5 25f3 a073 ae3f 402c 9f84 06df a5bf
000002b0: f312 07c5 8c36 c0bf dfe7 9bf7 2e25 acbf
000002c0: f59c 0e42 d94a 8d3f aa00 5c12 fb88 77bf
000002d0: 5a35 d3e2 8ccd 9e3f 4f71 4b9b 3725 b03f
000002e0: 2806 da03 bc49 9abf 71f6 fa3a ece7 b43f
000002f0: 00ba beed cbea c6bf 1b7b 415e 7cef aebf
00000300: 5cdf 57eb 4ae6 97bf e121 98b5 5d30 b1bf
00000310: 4d62 6127 11f0 98bf f4de b952 9400 aa3f
00000320: 693e 2536 a84f 9bbf 4751 0cb4 6c6c b53f
00000330: bc94 a965 c977 5bbf 6624 f31a 980d ae3f
00000340: 5d82 9bcb d95d b73f 7203 46fe 8196 bc3f
00000350: 6de9 19f8 a212 a5bf 59eb 4121 f116 81bf
00000360: ce14 496c 43dc 7abf a8ff a352 6959 bdbf
00000370: 4f23 fd5c a35e c4bf d252 aa2e 6d31 bebf
00000380: 3443 955c bec5 c1bf a4cd 7622 ab7a c3bf
00000390: 2f98 0268 36fd 84bf 876b 9c42 a8df b23f
000003a0: 1cce e592 09bf ba3f 06fc 843e de8b 8f3f
000003b0: a244 17fd 4126 ba3f 2819 ea45 104f 933f
000003c0: 446b 6653 3334 b0bf f7c6 10cf 1e34 a0bf
000003d0: 22fb db11 6945 a63f 7dec e0a1 8cb8 b6bf
000003e0: 6a7e 9e84 92ae 773f a90c 9df8 8699 9a3f
000003f0: c26c 2a6d 0402 b2bf 536d e294 4d63 a53f
00000400: 3d3b e4b6 934c 87bf 233a 8a85 eb60 acbf
00000410: fc29 8a9b ee2a b13f cc9b 9743 5627 abbf
00000420: 9b86 f6c3 878e bebf 563d ca45 4b77 aabf
00000430: 3327 2484 57a9 a23f 2b3a 825a f4e6 843f
00000440: 1e24 683c 71f7 883f 747a 66a2 3c8e a13f
00000450: 0cce 0b7e cd91 a23f 20e7 f507 f849 9a3f
00000460: e220 1a4f 7b5e a03f 3d78 5693 d01d b93f
00000470: 15ea 2424 60fe a53f 1a69 3d44 a88e 8ebf
00000480: 670b 8699 2716 bfbf 3c29 79cf 6119 a13f
00000490: 6bcf ce20 8dec a53f 47d6 067b 8c7d 8e3f
000004a0: 392e dddd 52ff 873f 850e 10a0 18ee a6bf
000004b0: 4712 9ff2 8c55 69bf 266e a78d ce7d bebf
000004c0: 1a9d bb07 f06c a23f 34cb 1907 75c9 acbf
000004d0: 559e 4341 2bcc bcbf a111 f00a 7f74 95bf
000004e0: 0593 fe65 36c0 45bf 6a6d c4e2 fee9 b63f
000004f0: c05c e686 b5f0 a03f 277c e182 fdb2 b63f
00000500: 31bb 7360 3073 9e3f 8a3e 1937 47e5 b43f
00000510: 05bd 4c43 0ebc 90bf a139 b06e def3 acbf
00000520: 5f87 d08b 6f6f 9dbf 6f83 7740 e46c 84bf
00000530: 0de4 7d4e 2796 9c3f 5ec0 edd3 a7dc 7fbf
00000540: b674 0d2e dea3 823f 98f0 1a49 1e7c 91bf
00000550: 482a 31d0 367c 93bf f23e 88cf 2748 223f
00000560: 6800 9bb4 ac9f b5bf eaa8 a715 d4df babf
00000570: 85e0 142a 783e a33f fbe4 da6c a67f a4bf
00000580: 5ffc 0495 8227 8bbf b7a5 e781 f7db b4bf
00000590: 6082 3f6f c9ef adbf 66d2 661b 91a5 a33f
000005a0: e38e 8408 9d8a 88bf 782b cc61 ff2f 9b3f
000005b0: 0e07 0969 3438 913f 6875 4c80 4fc9 ba3f
000005c0: 0961 6095 87a7 953f af09 f56a 3422 b33f
000005d0: caa7 ae6b 67c2 b0bf 7efa 7897 afcf b83f
000005e0: b9f5 24c8 743f be3f e1e3 9daa e224 633f
000005f0: e606 0033 33f1 9bbf 6507 ef89 5b93 b43f
00000600: 798e 0e51 165d a33f 4eb2 dc67 92c6 c3bf
00000610: 6c54 5e2d 0af7 a7bf 4d90 b2c5 3c93 93bf
00000620: 75b8 18fe 2e41 ad3f a535 e175 5468 a53f
00000630: 6c13 d00f 5903 653f 37e1 2e03 2a92 c03f
00000640: 5996 6d50 357d 953f 974b 0a85 ef3e a83f
00000650: be71 dd48 cb1e a9bf 0fec f241 8936 b13f
00000660: a708 7ba7 f059 9b3f 3253 7f22 6e97 bebf
00000670: 2b88 50d2 692f be3f 5505 1dee 7d5e c0bf
00000680: 605e c075 2480 97bf b644 cf05 d7d6 c8bf
00000690: 2acd 0da9 8843 af3f 50ba e13f 1c70 bfbf
000006a0: 1c4c e3bf bb71 b53f e4cb 45be d1c2 80bf
000006b0: 2630 bdd1 6a23 7cbf c589 c1ad 5c06 a0bf
000006c0: 19ae 3c9a d4d0 3ebf 604d 455f 0a0f abbf
000006d0: 2233 9fe7 9fac c4bf a18c 75ba 5806 a03f
000006e0: 42b5 ddb4 7acc b8bf a3e8 a71a b1f8 b0bf
000006f0: ab95 0457 c794 a33f 1fb0 c5a5 64dd b23f
00000700: 60f7 e55a 9d90 b13f 7182 c1d9 bdd9 a4bf
00000710: af07 55cf bb4b b83f c2c3 9e22 7937 c0bf
00000720: c66c 28c3 fb5f a8bf bae5 4721 5acc 9ebf
00000730: fce9 b49e 2d48 ab3f a9a6 ac2c 941b c7bf
00000740: c332 603d b992 aabf 4b61 101f b1e1 b23f
00000750: 45f0 7946 7a16 a8bf 4360 b28a 6355 c6bf
00000760: b6fd 8437 4576 a93f dbc4 7c9c 9d8c b03f
00000770: f778 d5c3 2004 9c3f 8e5f 4531 dc69 b63f
00000780: 13fb 93fb 8597 b73f d483 f5c3 01d8 90bf
00000790: 4f95 81fc 3408 733f 25c1 c972 b9a5 a13f
000007a0: 809d d10e 1591 75bf 958d 5753 5693 aebf
000007b0: a36e 6ab3 296c 843f eeda ca6d 3ce9 9e3f
000007c0: a83b fe2d 2be1 bd3f 443b ef92 1893 823f
000007d0: 6c5f 708f 2863 b03f dc98 e45c b4b1 a8bf
000007e0: 893c 25e8 c772 603f 8703 a3a8 668e 42bf
000007f0: dbdc 65fc 20a0 b2bf 2f01 17e4 9ed7 85bf

fc21.bias f8 [64]
0.005087765949847541 0.0695468778780051 -0.002293068197055771 0.06808082908680645 0.0014369764509833457 0.04301747154618756 -0.012404815324931043 -0.04282078570415081
0.044286919488601716 0.05935530532385939 0.05808660752251203 -0.04113486629008903 0.03812612925423795 0.06783160764111913 0.023579061897698587 0.07182189757987763
0.00423002698705189 0.0787242579045164 -0.01891988757239899 -0.0085753894793878 0.07383525568879178 -0.020439521619355142 0.011475420615365307 0.08708545553299257
-0.0012940877367771963 0.06266108076719325 0.0480974167306065 -0.07662440500835317 0.08614289337532748 -0.057898026196625464 0.06862985586885416 0.07386886325297208
0.01277935952231995 0.004742345744265867 0.023186012613027076 -0.023024165676179043 -0.005707611534860282 -0.02512295835046469 0.04110544211058718 0.01890096835137653
0.08420356865445786 -0.01728173413300739 0.009303088219068245 0.002930414912183712 -0.012393149782804267 0.03511656584074361 -0.0259500410373954 0.09286241922821961
0.04509168881462978 -0.011858485809378748 -0.06505236080965804 -0.02352071501501728 -0.05177928047451439 0.027068404785195302 0.06002808926701654 0.07229271435994317
0.09275989228931014 0.014991885406708235 0.07150353735945898 0.04492339976754788 -0.03447696309216546 0.051236406267111345 -0.015414757163407773 -0.051629885273374344
00000000: af29 d4c5 e8d6 743f 5362 06fe d2cd b13f
00000010: 0347 3e9d e9c8 62bf ff92 69c6 be6d b13f
00000020: 1893 2cb7 1d8b 573f e71c e5d2 6206 a63f
00000030: a267 1121 b267 89bf ae6f 6024 9bec a5bf
00000040: bb31 b06d c6ac a63f 658e 6b8e d163 ae3f
00000050: 2e20 4a1f 87bd ad3f 84ed e112 a10f a5bf
00000060: 2d40 8a9c 4485 a33f 5d26 7488 695d b13f
00000070: 4e47 e20e 1c25 983f 2d03 3e7d eb62 b23f
00000080: 091e 2139 8153 713f 6e0d 1ae1 4527 b43f
00000090: f144 7829 bc5f 93bf e25b ea4a f98f 81bf
000000a0: ffa3 7908 dee6 b23f c1a3 9a13 19ee 94bf
000000b0: 74b7 01e2 6c80 873f f4b1 787f 3b4b b63f
000000c0: 0aba 7c20 cc33 55bf 418a a07c 8e0a b03f
000000d0: 5d94 c27f 39a0 a83f 151a 9631 a89d b3bf
000000e0: d370 d4ed 750d b63f 35f0 0862 cfa4 adbf
000000f0: 6765 7cea b991 b13f f33c dddf 11e9 b23f
00000100: dd90 b299 102c 8a3f d111 0cbe b56c 733f
00000110: 1723 97f7 12be 973f 2033 639a a593 97bf
00000120: 5084 164e dd60 77bf 51df f931 d5b9 99bf
00000130: 7ded 1ac3 c50b a53f 3842 ba83 c65a 933f
00000140: a6cf 9375 5d8e b53f 0480 ad8b 4db2 91bf
00000150: 4dbb 385d 7f0d 833f 05ef c486 8601 683f
00000160: 05b4 1768 9461 89bf 0deb aa6b ccfa a13f
00000170: c085 57c6 a592 9abf 4ad6 9cdd d4c5 b73f
00000180: 217c 8f01 4216 a73f 39d4 d905 4349 88bf
00000190: b07f 3482 45a7 b0bf dd77 1277 d015 98bf
000001a0: ed34 7f58 d082 aabf d4ad 3ae5 d1b7 9b3f
000001b0: 5285 7c70 00bc ae3f 1c3f ea7b c681 b23f
000001c0: 8858 c3bf 1cbf b73f 31b0 37cc 10b4 8e3f
000001d0: 3dd7 814a 0e4e b23f 0f4c a729 3300 a73f
000001e0: d77a e4e9 f6a6 a1bf c049 9082 a83b aa3f
000001f0: f714 24af c591 8fbf c5a1 7d79 3b6f aabf

fc22.weight f8 [64, 256]
0.05303148904637704 0.10096318460169507 0.08259594331827008 -0.004891979301329993 0.00048383401260197924 -0.027477895193288405 -0.025135569844484645 0.06532023892822061
0.05580351109544122 0.04020137574010569 -0.044160123546894255 -0.0341280995255547 -0.06003202642773897 0.002530863936393033 -0.017816728157017986 -0.00827760109520858
0.017082434322507258 0.030987305653672144 -0.01701695443172251 0.004162590589701573 0.06473692987537205 0.06839081106795557 0.05654868579966517 0.03081061025837261
0.06301176613234642 0.03009045575585729 -0.0024274046521685845 0.023179386935407272 0.033663005649447034 0.07662548857216904 0.04190053603787443 0.02925193112976315
0.04845154255596761 -0.017708087517565772 0.030782259665219344 0.03961634989193169 0.07601656103199432 -0.025122729158767475 0.06810761079288154 -0.010330126726592913
0.051363466940448264 -0.03522110628313578 0.04919936890364317 0.023929667280605083 -0.03165426120433767 0.07288616099592232 0.042183395721837366 0.04749540871600246
-0.04400754238565303 -0.016588840838204846 0.0254553538815777 -0.03102070516698417 0.05915728236990979 -0.01654892633499179 -0.0411371110692716 -0.01947330096283693
0.0385277727479564 0.08070297680423194 0.03171968953326307 0.08491744398104473 0.005751793241884113 -0.002069121315542289 0.0073996518048380176 0.0994270253352467
0.06706510119731769 0.03511551181045765 -0.06843356187508558 -0.012739742786538567 0.014535398087459355 -0.006882663933729819 -0.020119288191417443 -0.0584532377596413
0.019320188809126383 -0.022683566759014746 -0.028143634038965675 0.01723712923205917 0.07875283324357478 0.06766866005467718 0.05117871260546557 0.012902818032301453
0.044647655248377924 0.03156001053632841 0.07805880276689847 0.006499601595881147 -0.028075890047453148 -0.009755306357766998 -0.012953398660076212 -0.04292060657607964
0.0583317647032012 0.037454686776311114 0.05995023833086895 -0.06389674605819283 -0.004316140309993832 0.02966654964323132 0.05417282467869881 0.06395645832727555
0.03459659738355825 0.030425543178836226 -0.03646046966948393 -0.028625082280909313 0.04403285391058531 0.07369450149364157 -0.023317932405171223 -0.02215623094619296
-0.02655769002912873 -0.05531288915387384 0.03342980323609959 -0.014148696473967699 0.06074586439001422 0.06256916472472482 0.05267124358999203 -0.02775627473817786
0.011448237167275901 0.08728303815808523 0.07964759039387206 0.01934413040511459 -0.036063419653134775 -0.02643204386890577 -0.03655060918746638 0.045595877211944975
0.06277959736585449 0.03736174922237163 0.03649804171349633 0.00960460582588511 -0.024462742943362238 0.06353292351730173 0.06432613877078783 0.0013166954246105953
0.06656044803071448 0.08139506206872088 -0.0028534622171988906 0.029959394554681735 -0.02140071275287901 0.002556667876983896 0.029759240744558053 0.059085413776148205
0.06275946026756546 0.012220499158630006 -0.054237162986487134 -0.003259556162302696 0.00874845336254031 -0.05152163080545479 0.012668784306037916 -0.0012550998034578636
0.0007441253010185476 -0.043727189039320116 0.08268363947596176 -0.04378899818391005 -0.012600490613778525 -0.015131492017605571 -0.0676322326412791 -0.03136925048774922
0.027249153636678132 0.0662617608779529 0.003176414710435651 0.039861094151796284 0.012688849806302888 0.03355611121980681 0.020065128682005544 0.061052675659390966
-0.025311013697959028 -0.0007869814748379298 0.031200610399375914 -0.06789346051729313 -0.022185432251865797 0.05792902629471891 -0.008754593894884822 0.017007880418275313
0.024585438431187677 -0.027873694056600517 -0.044117636071430495 0.0078121810284444305 -0.026946061461505164 0.06020485229058542 -0.04752460795362604 0.005136912899899465
-0.04267755385761076 0.06404256687175644 0.04921442826753899 -0.0700573997583411 0.07336071899569996 0.01768432785610378 0.03373874686957758 0.0618826781356202
0.0741741254803646 0.03345129617937881 0.05164283068623668 0.018000509704813986 0.014794767519429118 0.09409378827166429 0.03126383239978609 0.01731373921815302
0.07874955398897644 -0.004025021281600455 0.06439451384401773 0.04696037133590029 0.049995394977031954 0.014461443311873752 0.0022275292157848867 0.02581964477505835
0.09278126581409751 -0.023053869064234303 0.0080381376077052 -0.008269312507569277 0.07212140371927987 0.07344170970012966 0.01876644317855117 0.053943002249171736
-0.02147107517714879 -0.027315674927101397 0.012011369024270475 0.0175381374935945 0.036345048960395525 0.09107018061785396 0.01702243259490648 -0.003417736406772616
0.0856672138188331 -0.05059316947235011 0.08082207413487169 0.02796643259767303 0.05048665300826032 0.02777041389633457 -0.021151876509600796 0.06486757362434524
0.027472852194393715 0.0754109900181923 0.018363462939338566 0.05066757682322199 0.001995817503288578 0.06587769638751806 0.08153157850592482 0.07366762408638662
-0.024938215058500916 0.08003165676885617 0.06377314021499403 -0.03170736509354619 0.06566294879749288 -0.031929586155418785 0.027334378807116005 -0.01240863535417812
-0.02878159786963329 -0.0011374812341992083 0.04798768588888698 -0.016503439792269016 0.059534461027162325 0.10024773515604699 0.050587581471936434 0.010143757375311249
-0.01603033531228043 -0.013576025132815424 -0.05918514817843172 0.019109658576145595 0.07502499609006057 0.06656040759064373 0.03752489475580727 0.02368897587405269
00000000: c688 397e f126 ab3f c8db f627 b9d8 b93f
00000010: bc90 55fb 0125 b53f f06d cab1 9c09 74bf
00000020: 21f7 c442 63b5 3f3f cd52 df54 2a23 9cbf
00000030: 8825 cb89 23bd 99bf 62af f6c1 d3b8 b03f
00000040: 4d54 501e 4792 ac3f 29ad 1d54 4695 a43f
00000050: 81ab d7dc 279c a6bf eb7c acfe 3c79 a1bf
00000060: a082 708c 84bc aebf 2e42 cc3a 9bbb 643f
00000070: e842 0663 8c3e 92bf 7c2f f2cf d8f3 80bf
00000080: 2a44 01c3 0e7e 913f 62a5 7ee1 22bb 9f3f
00000090: 8d0d 0c7b e46c 91bf f0c3 30e7 ca0c 713f
000000a0: b87d a874 9992 b03f ab3f e268 0f82 b13f
000000b0: ea5d 4808 f3f3 ac3f 1ed2 b70d d18c 9f3f
000000c0: 8337 cd02 8a21 b03f d293 924d 08d0 9e3f
000000d0: b10f 0cf3 a2e2 63bf 2fcc 5053 56bc 973f
000000e0: 92e9 b208 473c a13f eb1d 755f ba9d b33f
000000f0: 6a61 efaf fc73 a53f 2f4f 30de 37f4 9d3f
00000100: aff0 6ffd a3ce a83f 56f4 0ca3 1122 92bf
00000110: ec83 3c7a 6285 9f3f 5871 581e 9848 a43f
00000120: c338 9643 d275 b33f c620 7ed0 c5b9 99bf
00000130: c1d0 f618 806f b13f ec4e a223 f627 85bf
00000140: 73d2 6ff5 4f4c aa3f 5ee2 3a37 8008 a2bf
00000150: de97 d9e0 a830 a93f 4058 7fc9 0481 983f
00000160: efa7 4dc1 fc34 a0bf 5cf8 cedd aaa8 b23f
00000170: 1e79 1ee2 0f99 a53f c36f 4a76 5151 a83f
00000180: c9bd a516 2888 a6bf f4b9 8343 aafc 90bf
00000190: 5cca b7e1 f710 9a3f fba3 c348 e4c3 9fbf
000001a0: 1eb0 3202 dd49 ae3f b420 92a5 33f2 90bf
000001b0: c98d 6365 ec0f a5bf 7b48 1f1b cff0 93bf
000001c0: f360 e187 e9b9 a33f cc63 1046 f3a8 b43f
000001d0: ec88 5e2a 903d a03f 002d c24c 26bd b53f
000001e0: 6e3d e03d 318f 773f 35f9 360c 43f3 60bf
000001f0: ea9b 0ee8 184f 7e3f 5e48 27ae 0c74 b93f
00000200: c96c 58b0 2d2b b13f aace 9d0d a9fa a13f
00000210: f3c8 33a6 dc84 b1bf 8765 0555 4b17 8abf
00000220: e31d 5c1b bcc4 8d3f f75d 1308 ff30 7cbf
00000230: ce28 3493 269a 94bf f2c2 0b31 95ed adbf
00000240: 4dd9 59ec abc8 933f 25e1 8b65 5c3a 97bf
00000250: 5bdc 264f afd1 9cbf b181 5029 9ca6 913f
00000260: 639d 3f4b 2529 b43f 8f23 e6b9 bb52 b13f
00000270: 8ea1 c8a1 1834 aa3f 12bf cceb ca6c 8a3f
00000280: 260d 45b6 0edc a63f 32da 3a3a a228 a03f
00000290: 707a 0c65 a9fb b33f 0453 a984 539f 7a3f
000002a0: 4157 3d16 edbf 9cbf 3e0e 270e 97fa 83bf
000002b0: 5bc6 efbc 4f87 8abf 7e32 2393 b0f9 a5bf
000002c0: 0cba 6f3b a9dd ad3f 2c86 92bd 422d a33f
000002d0: 3b77 0932 ccb1 ae3f 8708 a482 895b b0bf
000002e0: 0037 9f17 cdad 71bf 39e8 0272 e860 9e3f
000002f0: 6566 a75c 8abc ab3f ed35 e250 735f b03f
00000300: 006a a12c a5b6 a13f f11f aaa3 df27 9f3f
00000310: 238b a759 f2aa a2bf 3e9e f7c0 e44f 9dbf
00000320: 70b3 fd66 798b a63f 2a6a cf91 a4dd b23f
00000330: e2b8 5cf4 a7e0 97bf 511e 447d 1fb0 96bf
00000340: 5297 8768 f031 9bbf 7923 ed93 f851 acbf
00000350: e4b5 380f b61d a13f 9701 18e5 fdf9 8cbf
00000360: d73f d8f9 141a af3f 1e11 3b64 8804 b03f
00000370: 973c 51a9 b9f7 aa3f bb7c 0911 246c 9cbf
00000380: 68a8 d761 2c72 873f 576e 6262 2e58 b63f
00000390: 0267 f2d3 c863 b43f 168e d69d f2ce 933f
000003a0: 73f9 fb8f e776 a2bf 28fd ee6f 0011 9bbf
000003b0: c7d4 37ee c2b6 a2bf 495c eac2 5758 a73f
000003c0: 41da 8add 5212 b03f d918 1046 1421 a33f
000003d0: dd15 0e0f dfaf a23f 5720 4e5f 94ab 833f
000003e0: 9a16 a6e3 c20c 99bf 65e0 b994 b143 b03f
000003f0: ee69 4c86 ad77 b03f db52 66f2 9e92 553f
00000400: 30c0 7f03 1b0a b13f 9c1b a489 4ed6 b43f
00000410: 6d59 e7dc 2460 67bf 9501 48ef acad 9e3f
00000420: 3cf0 8985 11ea 95bf 955d 639d b8f1 643f
00000430: 22b5 01d7 3479 9e3f 94a9 ad7f 7140 ae3f
00000440: 5422 5d05 0111 b03f c71f d1a1 0f07 893f
00000450: 0a73 8232 f9c4 abbf 40e7 bae3 c8b3 6abf
00000460: 5a5a a988 b5ea 813f cf28 b10e 0b61 aabf
00000470: c632 3272 17f2 893f 78f6 fa26 4590 54bf
00000480: b700 7fea 2c62 483f 2a62 bdfd 6863 a6bf
00000490: 9da8 7647 c12a b53f 14be 3ff6 826b a6bf
000004a0: 3341 cc38 49ce 89bf 0ba8 d77a 42fd 8ebf
000004b0: b489 5993 5850 b1bf e4cb e361 a10f a0bf
000004c0: 4254 dabe 33e7 9b3f d938 f2df 87f6 b03f
000004d0: 5268 98a9 6c05 6a3f 408c 875f ac68 a43f
000004e0: f010 8997 9cfc 893f 9c3e 8a40 442e a13f
000004f0: 4ebf eafd f38b 943f 9dac 94da 4b42 af3f
00000500: 73d0 3e60 21eb 99bf acdc 36d9 adc9 49bf
00000510: 594a 1f85 0df3 9f3f edb6 8840 7761 b1bf
00000520: 0ca7 e027 c7b7 96bf f891 d992 dfa8 ad3f
00000530: a70f bfb3 eded 81bf aade ae88 836a 913f
00000540: 463f 14d8 ec2c 993f 5336 91f1 eb8a 9cbf
00000550: 310e 3538 9696 a6bf 320d 7160 aaff 7f3f
00000560: 49c4 ee92 bf97 9bbf 0812 4c9f 2bd3 ae3f
00000570: e503 d539 2555 a8bf edfd 848e 710a 753f
00000580: 83f5 2e14 d5d9 a5bf 461e 44fa 1765 b03f
00000590: 9303 cd2f a232 a93f 2e0c ce20 48ef b1bf
000005a0: a0c7 e5a0 c4c7 b23f abc1 2c27 d71b 923f
000005b0: 2262 d37c 3446 a13f 6f11 901d 16af af3f
000005c0: e7c6 2553 13fd b23f d0cf 323e 8720 a13f
000005d0: a491 bdd9 ed70 aa3f d159 f9c1 b96e 923f
000005e0: 0cd7 2e15 b84c 8e3f 1a30 62cf 8716 b83f
000005f0: 49cf 6823 d001 a03f f98f da5e b1ba 913f
00000600: b10d f546 ee28 b43f 20a6 526c 8a7c 70bf
00000610: e87a 00ab 287c b03f 9500 3196 300b a83f
00000620: 3c00 c114 ff98 a93f 17a1 9e10 f69d 8d3f
00000630: 6beb 3ea4 773f 623f d7e3 9c07 7770 9a3f
00000640: 4860 5a56 83c0 b73f 7467 b5f6 6e9b 97bf
00000650: f4ae 2a91 4c76 803f 9749 3e56 80ef 80bf
00000660: 1fe0 505e 8c76 b23f c10a 536d 13cd b23f
00000670: 2942 dbae 8237 933f f538 04cd 6a9e ab3f
00000680: cd82 c876 83fc 95bf dd96 ebe9 a3f8 9bbf
00000690: 048d 1da9 6a99 883f 2ef7 de7b 84f5 913f
000006a0: f715 5079 d19b a23f aefd 6417 6050 b73f
000006b0: 0d88 2c1d 546e 913f 766f fd42 83ff 6bbf
000006c0: d6fa b059 49ee b53f 0ac8 9110 59e7 a9bf
000006d0: ec43 3465 c1b0 b43f 9638 9285 3ba3 9c3f
000006e0: 1726 1cf7 62d9 a93f 34b0 eced d86f 9c3f
000006f0: 395a 6e67 d6a8 95bf 5795 494b 299b b03f
00000700: 10a1 cfe6 d721 9c3f 311a e377 224e b33f
00000710: 4525 1023 dfcd 923f 91bb d8c2 19f1 a93f
00000720: e81b f95c 8859 603f 502c 8557 5cdd b03f
00000730: 3632 46e7 40df b43f 099d 39a4 e1db b23f
00000740: 8133 6348 6789 99bf 0189 7764 f47c b43f
00000750: d82c 96bf 6f53 b03f 5dfc 3ca0 f23b a0bf
00000760: 4ee7 a479 49cf b03f c6ea 9f20 1359 a0bf
00000770: e8d4 211c 8bfd 9b3f 7902 46d8 b269 89bf
00000780: fd89 4e56 ec78 9dbf f241 d82c f1a2 52bf
00000790: 7ac9 018b d791 a83f 8a9a b718 47e6 90bf
000007a0: f27b 3106 4d7b ae3f 5648 fee7 d5a9 b93f
000007b0: 71eb 0290 9de6 a93f 3bf2 7b11 40c6 843f
000007c0: 9000 a497 416a 90bf 0414 a43f bfcd 8bbf
000007d0: 96a9 ab07 844d aebf ad34 7d7a 7b91 933f
000007e0: dbde 9690 d634 b33f 376c cf55 1a0a b13f
000007f0: 5629 8687 7636 a33f 1781 9e42 ec41 983f
