weights/model_30_norm_doorsuite2_lfnew_so_ego_0_1_bn.pth (torch, 599558 bytes, 14 tensors)

fc1.weight f8 [256, 30]
0	0x3fc2dbd1abdfa6c9	0.14733334438579096
1	0x3fac295766fb37f2	0.05500290996643277
2	0xbfbcb621a0000000	-0.11215410381555557
3	0x3fb3051c68869c8e	0.07429673721218163
4	0xbf8d1c6923ec707a	-0.014214345368195536
5	0x3fc41f88682e857c	0.15721230589864976
6	0xbfac0d5733dc0d0f	-0.05478928096820301
7	0xbfc120cfa7c9222f	-0.13381381695423175
8	0x3fc60478d9fb1d14	0.1720114769325184
9	0xbfbac7b58d9430ec	-0.10460982042804162
10	0xbfc5b603b2ec41ad	-0.16961714016407595
11	0xbfc0cbe24930b8a7	-0.13122204374071098
12	0x3f952a42a1c4b9d3	0.020669022677958736
13	0x3fa7a2fc23e7672a	0.04616535127907036
14	0xbfc4c724630ddec3	-0.16232733570699595
15	0x3fb314d7937e44a5	0.07453677512082153
16	0x3fb532434aeb5f2d	0.08279820040786197
17	0xbfc151c9bff356f3	-0.13530847427926282
18	0xbfc2707017c9c965	-0.14405633126768716
19	0x3fb06395756aa658	0.06401952854744175
20	0xbfb5bbba5e1250e2	-0.08489575192135448
21	0xbfbfefe253f19559	-0.12475409078031897
22	0x3fc39287c7e5896d	0.15290925274446057
23	0xbf9a92b25afe0d09	-0.025950228503927728
24	0xbfac1a183ae0d078	-0.05488658636787219
25	0xbfb32548a24e6ce3	-0.07478765451962803
26	0xbfc674edfb456cf1	-0.175443408671391
27	0xbf9031015e65d276	-0.015811940561848613
28	0x3fa48214d102e8c1	0.040054941667635464
29	0x3fa83047e629f0ad	0.047243353696985714
30	0xbfd514176b4c0ea2	-0.32935128668052915
31	0xbfd20ffd39663e0b	-0.28222590070160497
32	0xbfbe48b180000000	-0.11829671263694763
33	0x3fb3e5edeab40834	0.07772719364223307
34	0xbfc5b4212ecaf636	-0.16955961975865969
35	0x3fa7ad0d4d1c4cd8	0.0462421566609465
36	0xbf747d2e9ee9710c	-0.005002195465376735
37	0x3fb035262d6d5bdb	0.06331099137365419
38	0xbfb49014d34464c8	-0.080323506907365
39	0x3fce9bc4cfd5fffd	0.23912868641127707
40	0xbfc984608d105790	-0.19935233009226438
41	0xbfa6160dece17b31	-0.04313701168643148
42	0xbfa34ec639431479	-0.03771037529944805
43	0x3fc12c9c5fee1ef5	0.13417391475763166
44	0xbfd4f8834285076a	-0.32766801353510877
45	0xbfb3fce3ea43e1fa	-0.0780775496422236
46	0xbfc88f05cb1d314d	-0.19186470430066507
47	0xbfc1cf4122e64af0	-0.1391374035270796
48	0xbfa1e7bdebf9244e	-0.034971175246547234
49	0xbf9123e46b0bb9d9	-0.016738480599934966
50	0xbfc0c8fafa56f28f	-0.1311334345208661
51	0xbfa46a1ff0f0fde2	-0.03987216774157411
52	0xbfcfdfc9072c61d9	-0.2490168843294345
53	0xbfb6df714d565cd2	-0.08934696329230299
54	0xbfd0732fe5563ad5	-0.2570304622285396
55	0x3fbb75dc761bcb4f	0.10726716884145769
56	0xbfd51288f475fde6	-0.32925628541121765
57	0xbfb659ab7cef2222	-0.0873057537093094
58	0xbfb8d05d0b57ee87	-0.09692937399807465
59	0xbfbabc774af34a17	-0.10443826274721633
60	0x3fc48627d941b4e7	0.16034410579906153
61	0xbfa5f0d0a951d093	-0.04285289828195107
62	0xbfc667a280000000	-0.175037682056427
63	0x3fc53367b1dbc41b	0.16563125786299868
64	0xbfb36ec07925c76e	-0.07590868909553958
65	0xbfc45a6d9fa92c19	-0.15900965019167826
66	0x3facb26795ec017a	0.05604861931897438
67	0x3fc91a04c2223c59	0.19610652426897238
68	0x3fc22766aa0b2a0d	0.1418274240771357
69	0xbf9b30be1b99d0eb	-0.026553125795957404
70	0x3fb8b01bb03ec05b	0.09643719723567427
71	0x3fc2ea357c7906f7	0.14777248933574302
72	0xbfb7fde87dcf91c1	-0.09371808120301407
73	0x3fc130255eafeb62	0.13428179858587003
74	0x3fc48ca9350508dc	0.1605426319966402
75	0x3fae6b96a0cb7f91	0.05941458428219371
76	0xbf9e86462844d2a9	-0.02980908985883227
77	0xbfc5553d6d860534	-0.16666381690814946
78	0xbf9607643cc041d3	-0.021512571533152624
79	0x3fa91876de932c5d	0.04901477305391986
80	0xbf93adb0278fb574	-0.019217255034097616
81	0x3f9f2637ac2b9e3f	0.030419225581594708
82	0x3f51558eb1be2858	0.001057996129903779
83	0xbfb559d13d3ec422	-0.0834017538570753
84	0x3f9d501d2ccf6a14	0.02862592302322227
85	0xbfc6c4b4aa374a0c	-0.17787798224760853
86	0xbfc43eb5be68bc43	-0.15816375539131586
87	0xbfc3ac69489164ff	-0.1536990742049866
88	0xbf676d7968be0e58	-0.0028598185799085067
89	0xbfb737569e46ed0d	-0.09068814624963668
90	0x3fca965b97fac91f	0.2077135555351299
91	0x3fccfdc64b23cc44	0.22649458569466863
92	0x3fb2e73e80000000	0.07384100556373596
93	0x3fc741008eedeecd	0.18167120913482507
94	0x3fac40b5cba61576	0.055181199178188686
95	0xbfbdca9546ccfd34	-0.11637242296727807
96	0x3fa287eb74d262eb	0.03619323540732985
97	0x3fcb9cf34ec5935c	0.2157272467258292
98	0x3fa341a6a4940777	0.037610251989476255
99	0x3fa83c262bdb002e	0.04733390126557456
100	0x3fb8e255fab309a2	0.0972036110934256
101	0x3fc321a2499e2b3a	0.14946392626401367
102	0x3f7c89deb506f329	0.006967420530085624
103	0xbfaa3823a8c09e50	-0.05120955882040035
104	0x3fd5796a08dbc428	0.33553553452572027
105	0x3fc7467c43eb0981	0.18183854404749059
106	0xbfb65b4979657cc9	-0.08733042920856628
107	0x3fc8c1b8a275a0e8	0.19341190273849596
108	0xbfb134d03f25804a	-0.06721211949980091
109	0x3fc0efed86486238	0.13232201630377616
110	0xbface25a4d7fca22	-0.05641443439516915
111	0x3fa46b83affc79d7	0.03988276980657062
112	0xbf97aea9fad06a8b	-0.023127227719764092
113	0xbfa1f856efa99a6e	-0.03509780574386388
114	0x3fafe806ff3d8f84	0.062317103059085915
115	0xbfa7f76a756c62da	-0.04680950816527281
116	0xbfb6e3991a1ee48e	-0.0894103707095317
117	0x3fafb4cdf88d082b	0.061926304426848176
118	0xbfa14b6bcf077885	-0.03377854253970817
119	0x3fae10508759d992	0.05871822025521846
120	0x3fc20f8dc8bf2d20	0.14109966566170673
121	0xbfb2054440f2d3f6	-0.07039286218316917
122	0xbfb46e0240000000	-0.07980360090732574
123	0xbfc64a4b0a664ae5	-0.17414224632064826
124	0x3fbcb5e621696792	0.11215055766788698
125	0x3fb309132c4727c9	0.07435722189907702
126	0x3fc11017e27b3e07	0.13330362852728703
127	0x3fb9ca5d6d045720	0.10074409400507678
128	0xbfba7222e789b506	-0.10330408242016995
129	0xbfcf5b24febca943	-0.2449690097649385
130	0xbf91243f6ac3f67f	-0.01673983658928657
131	0xbfc18a6540b1dacf	-0.13703599604533287
132	0x3fb3b4c0e9b7063e	0.07697683053904655
133	0xbfbd8310b1a8774f	-0.11528114640574681
134	0x3fc06a7d3fee3744	0.1282497942124171
135	0x3f9f9b90a527c35a	0.03086687095668892
136	0x3fa78b8b2d6caa7f	0.0459865086507607
137	0x3fb28f690aabe44b	0.07250076780828
138	0x3fc8e70e54134db6	0.1945512686275898
139	0x3fc3536f6e048923	0.1509837424465071
140	0x3fa1a2f04380ec1c	0.034446247329889185
141	0x3fbb61b1badcb189	0.10695944606840703
142	0x3fc17fc00c626064	0.13671112637235006
143	0x3fc4797d73b425a9	0.15995758199305257
144	0x3f8d739a3edb37fd	0.014380650561545133
145	0xbfbf63271e5983e5	-0.12260670176466666
146	0x3fc9cb90be493e5f	0.2015248231059443
147	0x3fb28de95d555b44	0.07247789887092632
148	0x3fbd43ad57d0e61d	0.11431392091699207
149	0xbf9e36ee7ad9fd7b	-0.02950642227960774
150	0x3f771e5c1283d2a3	0.005644187600627379
151	0xbfb9cd21389f7298	-0.10078628189462291
152	0x3fbeb345c0000000	0.11992298066616058
153	0xbfac27552ce1be5e	-0.05498758480905218
154	0xbfb794a4798b9e57	-0.09211185424248335
155	0x3fc68890802618ee	0.17604261643663882
156	0x3fb0b497ae5f963e	0.06525562293207884
157	0xbfb8db64210eb78c	-0.0970976429659613
158	0xbfc2a0dc441b9411	-0.1455340702588335
159	0x3fba70f1a5d51bcd	0.10328588770526821
160	0x3fb581c7830e3aee	0.08401152562712941
161	0xbfad3a91bed7072e	-0.0570874734362533
162	0x3fb574fc52438da0	0.08381630905528548
163	0xbfcdf8e856e29811	-0.2341585563892186
164	0x3f9e4fadab84ffb9	0.02960082396862138
165	0x3fb5787a1ad81943	0.08386958270429994
166	0x3fac97c8c5b873c8	0.05584552205639387
167	0xbfb692e4baaf36e6	-0.08817891652799012
168	0x3fc3518b7e88a674	0.15092605284126004
169	0xbfbd232bdbd63785	-0.11381792180165291
170	0xbfc4453af5e22a16	-0.15836274152782498
171	0x3f823b086ed635a6	0.008901658899754871
172	0xbfb2508b1bed8833	-0.07154149467308528
173	0x3fc3101f54046028	0.1489295158614834
174	0x3fc2401d43356dd6	0.1425816133658901
175	0xbfc549d9aaa508a7	-0.1663162310815711
176	0x3fb87108bb810a4e	0.09547476365791249
177	0xbfc04f38faa18dd9	-0.12741768110127685
178	0xbfc10c2100577116	-0.13318264500311078
179	0x3fb8795ae9dc63f9	0.09560173234457627
180	0xbfc14ea9330f7285	-0.13521304124050829
181	0x3f9cbd1f5fbefd2b	0.028065195292353778
182	0x3fb51ba240000000	0.08245290815830231
183	0xbfbee53b29428426	-0.12068528897590677
184	0xbfb87505267ecb1f	-0.0955355853064188
185	0xbfc980cd4db2788e	-0.19924322408491374
186	0x3fc56970abd3de5f	0.16728027715702162
187	0xbfa1ea4da5b7b61a	-0.0349907173912067
188	0xbfc44e8d2fa9cc30	-0.1586472017985172
189	0x3fb58b6c9fc8b7cd	0.08415869618394752
190	0xbfb88ab35f135355	-0.0958664042585274
191	0x3fcae18a780b7fd8	0.21000796186035475
192	0xbf8d4533239a05dc	-0.014292144321418947
193	0xbfb878f3a474f4a7	-0.09559557690677654
194	0xbfb46f92f60c80df	-0.07982748515178482
195	0x3fba9fd843467f8d	0.10400153772797989
196	0xbfb006b75fd88c57	-0.06260248270022949
197	0x3f6ba5e933a492af	0.0033750109406745703
198	0x3fbbc98fa19d5c71	0.1085443276946181
199	0xbfb7bce9d5d65ed2	-0.0927263400138785
200	0xbfa1242eabc4998c	-0.0334791741063781
201	0x3fba12da37e6fad8	0.1018501650314464
202	0x3fc08a17bb54ab04	0.12921425482758064
203	0x3f8afb86fdf738b7	0.013175062776010866
204	0x3fc580fea9e97a39	0.16799910828099643
205	0xbf814ec0cd060835	-0.008450990921804994
206	0x3fb2f4915cb1ebb9	0.07404430878697967
207	0xbfa2f730563657c7	-0.03704215099712332
208	0x3fc37077ae5d05de	0.15186973584972824
209	0x3fb73ed906b789a7	0.09080273069370169
210	0xbf92f30a9e5919ab	-0.018505254664228293
211	0x3fc0891fd36c4cbf	0.12918470214262887
212	0xbfc31c0420000000	-0.1492924839258194
213	0xbfd098b54176c007	-0.2593205584807951
214	0xbf99a523fa293018	-0.025044023650750175
215	0xbfc267c73c99218f	-0.14379206141371667
216	0x3f862a6564516131	0.010823051570853255
217	0xbfc4b491c9182fa7	-0.16176054305139795
218	0xbfbd03c252e0f406	-0.11333860896498046
219	0x3f923f7547e0f2b4	0.017820198547485247
220	0xbfb9df549a098b35	-0.10106400261569777
221	0xbfc5d0bcedf7467f	-0.17043267840795193
222	0x3fc16b2a4c527018	0.13608292318974757
223	0x3fb12c3a1477c299	0.06708109855368106
224	0x3fb7306613ada39f	0.0905822561304732
225	0x3fafdfb93ac911df	0.0622537502536351
226	0x3fc40fb0c675cb48	0.15672883692203698
227	0x3fa4458d9f8852a6	0.03959314892214154
228	0x3fa3bab497dc3724	0.03853382447969825
229	0x3fb0dca0afe0aaff	0.06586651128661102
230	0x3fc6ebb656181dd6	0.1790683670408117
231	0xbfc3e18a6c5e5412	-0.1553204564230844
232	0x3f8d78bfa2bd4731	0.014390465883170474
233	0xbfb81484154f646c	-0.09406304855601072
234	0x3fc66d825b10c809	0.1752169556289689
235	0xbfb4a26bb5d4a882	-0.080603343860874
236	0xbfc392a894df72ec	-0.15291316289121626
237	0xbfc196e6bc7aa282	-0.1374176426227401
238	0xbfb69417873ae224	-0.08819720317377083
239	0x3fbf5b0c13ec1541	0.12248301969892329
240	0xbfc57fc831886bf4	-0.16796209734533785
241	0x3fcdd4a6aba4575d	0.23305209523158057
242	0xbfc0d6d2c0000000	-0.13155588507652283
243	0xbfccc4afb470b746	-0.22475239096223215
244	0x3fbf7aebeb7dcd8d	0.12296938418676558
245	0xbfd604e47992ff2c	-0.3440486132858378
246	0x3fb3687e6812ec2d	0.07581319847933861
247	0x3fb400566a560b7a	0.07813015075775623
248	0xbfd286d5a8bb1fa4	-0.28947965123779285
249	0x3fa205861e68ebf4	0.03519839402402872
250	0xbfa85c6170b6f4a9	-0.04757980824386127
251	0x3fd1ac709491f6ce	0.27614988812261465
252	0xbfcbe145bcb206dc	-0.21781226838725487
253	0xbfd4452e1c3bea32	-0.3167224193308896
254	0x3fbf63de1c89cddc	0.12261760899291779
255	0xbfbed37752eab925	-0.12041421675050808

fc1.bias f8 [256]
0	0x3f5372ebdbd10c77	0.001187067347260732
1	0xbfb145b71940d15e	-0.06747001997502397
2	0xbfb1b93f44341285	-0.06923289694902664
3	0x3fc61252833e3365	0.17243415268276432
4	0x3f9f1f6d8a3aec12	0.030393325387859056
5	0xbfa21971d17eec22	-0.035350376914230944
6	0x3fc4035af71a2d0a	0.15635239663638628
7	0x3fb565b1a8b9f3b2	0.08358297700210818
8	0xbfc0b2e00e952f82	-0.13045883857773438
9	0xbfc44f4a7e8407be	-0.15866976907278557
10	0xbfc3f69ddd895ed5	-0.15596364323822934
11	0x3fb57e1582abc1fc	0.08395513954361172
12	0xbf960e8412311f85	-0.02153974877390354
13	0x3fbe9b45286fc174	0.11955673444004394
14	0xbfbfafaff8d8f74c	-0.12377452683810225
15	0xbfc3da2770ee5839	-0.155095033781153
16	0xbfba2dba6065c753	-0.10226025441604962
17	0xbfb74fb0266cdd04	-0.09105969369999306
18	0x3fb943f0adecef64	0.09869293447712618
19	0x3fbcfd45966d8d32	0.1132396213775351
20	0xbfcad08571e6991e	-0.20948856412469125
21	0xbf969f42698c73cc	-0.022091901485612728
22	0xbfb78ca875b8f1d9	-0.09199002145846381
23	0x3fbe14316b696f3b	0.11749562141761498
24	0xbfba8e9877670b3d	-0.10373833575344533
25	0x3fb7b32ffc9c3fc7	0.0925779334759219
26	0xbfb310973113b35e	-0.07447190235298026
27	0x3fc1d025c47bae0f	0.13916465848829815
28	0xbfb9a70ceadc32d1	-0.10020523771181479
29	0x3fbf883e21e2bcce	0.12317264869010389
30	0xbf91c0a2f02a02f1	-0.01733641234250433
31	0xbfc48f5b59397f67	-0.16062490326566634
32	0x3fa559702da14dd0	0.0416979842854307
33	0xbfbc563aec2a550a	-0.11069076791530477
34	0xbf9813b5acd54139	-0.02351268641842916
35	0x3fc32e41133bd4cf	0.14984906615396773
36	0xbfa31d208cc1b766	-0.03733159750195973
37	0x3f98e758865adb2e	0.024320014191029297
38	0x3f8416166355e144	0.009807753473737642
39	0xbfc877428b8ffeeb	-0.19113952459883107
40	0xbf81c796102e6eec	-0.008681461685959367
41	0x3fc0c2ee2e3132cf	0.1309488034770738
42	0x3fa190efcd181537	0.034308904443643255
43	0xbfb28bb80f1b6b9b	-0.07244444245172448
44	0x3fb2d3da72ea18fe	0.07354512506035246
45	0x3fa9b2c0dd304a76	0.0501919050222072
46	0x3f8dd4c99102756e	0.01456601594719117
47	0x3fa9775be1cc4579	0.04973876124689531
48	0x3f8fa296e06a6b82	0.015446833346961734
49	0x3f94dd17016e7468	0.020374640905732738
50	0x3fbdf029c27b560a	0.11694584844675418
51	0x3fb1dc0583c6678e	0.06976351229823605
52	0xbfb67c424082bcf4	-0.08783353877037198
53	0xbfc2815eeeaa94ab	-0.1445730843890137
54	0x3fc834728066e9da	0.1891005637133521
55	0xbfbecf23a903e990	-0.12034819485044168
56	0x3fc377524153c068	0.1520788973789451
57	0xbfc2964a8b1730de	-0.14521152297527967
58	0xbfb90a680d447205	-0.09781503986273073
59	0x3fbbd438fa1ecd8d	0.10870700937703344
60	0xbfc8c9d8c96b0632	-0.1936598762022626
61	0xbfbc02327b34337f	-0.10940852649600961
62	0xbfc0bafff8e1c81c	-0.13070678379477918
63	0x3f9a5534b7da0b01	0.025715659829539387
64	0x3fc16869e5310959	0.13599895182603453
65	0x3fb61ab8c2856a8a	0.08634524106074984
66	0xbfba3ccd895cdee9	-0.10249027827819258
67	0x3fb04794e587d38c	0.063592248952615
68	0xbfc3f610fc2f65b2	-0.1559468490002423
69	0xbf77f1eb9098d4ea	-0.005845947432637314
70	0xbfb93991604cc6d0	-0.09853466607162464
71	0xbf6c366b727fa491	-0.003443918092660932
72	0x3f9ef16c9862a7f5	0.030217835236420815
73	0x3f9e1da3d60100cd	0.029409942566645243
74	0x3fc4a168fdca9369	0.16117584602502724
75	0x3fb0b945710cdb63	0.06532701501860809
76	0x3fc14981740b62c8	0.13505571523889714
77	0xbfbaede600038b0d	-0.10519254207933333
78	0xbfae46571417dcc3	-0.05913040275839301
79	0xbf93558aa81d4bef	-0.01888100291337119
80	0x3fbcf18128fc1ec2	0.11306006670576621
81	0xbfc099b311dae312	-0.1296905362303496
82	0xbfc2927d23af0741	-0.1450954841839636
83	0xbf994c37397d2e8c	-0.024704802402352885
84	0x3f90c55767b37287	0.016377797798542672
85	0xbf9fc6450733e44b	-0.031029776157968574
86	0xbfc37bdb93e57c08	-0.15221733781342572
87	0x3fc1b1eea39edec7	0.13824255933081117
88	0x3fc28e7f5f6b343b	0.14497368010634823
89	0x3fb34f9649a40ac7	0.07543315217848622
90	0x3fb1fbc5ea2ae88f	0.07024800269110386
91	0x3fbdfb1a71d21c9e	0.11711278227640995
92	0xbf82f362f039d1c4	-0.00925328536616455
93	0xbfb066a8fb2a1897	-0.06406646854347496
94	0x3fb884bca05802a9	0.09577540316241574
95	0xbfc0da536e9d6d54	-0.13166277791138248
96	0x3f9c91eb80825ba7	0.027900390356616758
97	0x3fb26a94a167c492	0.0719387907081617
98	0xbf39398f32998f1e	-0.0003849005321170262
99	0x3fc607e343390996	0.17211571485865979
100	0x3f8dcbc7b949b790	0.014548836080589017
101	0xbf9357b2daaa39a8	-0.018889231296776693
102	0xbfa8e85a00ffb5f1	-0.04864770185654866
103	0x3fc005873942f640	0.12516870780921074
104	0x3f8e4c6b28561fa8	0.014794194382161965
105	0xbfc2d72cb8d0f8ea	-0.14719161056741054
106	0x3fb80d381a864b2c	0.09395170829365601
107	0xbf902e68dc841ad2	-0.015802038630705458
108	0x3fc0b074f55cc0c7	0.13038503628332007
109	0xbfa0190474f09c61	-0.03144086768616528
110	0x3fa02889b701f12f	0.031559280004304184
111	0xbfa8fbf906c42803	-0.04879739959331177
112	0xbfbe59f0b446f839	-0.11855987931537094
113	0x3fbe041be186ebac	0.11725019699126332
114	0x3fc0e74a6806991f	0.13205843047507757
115	0x3eee3bf10d2ccb36	1.4416764690138727e-05
116	0x3fb7f25d07b752e5	0.09354192198163565
117	0x3fc046e7bf558034	0.12716385691146714
118	0x3fc40071d2410d33	0.15626356855691767
119	0x3fc68baa3c1b6b47	0.17613723692815084
120	0x3fc066ba024262c9	0.12813496694868423
121	0x3f7df7cef1613c52	0.007316406603492602
122	0x3fc3a3748d5a622f	0.15342575933461108
123	0xbfa5abb2a72075f2	-0.04232557573434893
124	0xbfb272fcad237f3c	-0.07206706263559409
125	0xbfb35776db9c70c4	-0.07555334912871375
126	0x3fb6aa1f7b67abbf	0.08853337061707033
127	0xbfa3d6e25d6d8bdb	-0.038748811630987944
128	0xbfb9293f1a8014b9	-0.09828562161426903
129	0xbfa817c9819116ab	-0.047056481424573825
130	0x3fba7f5c565ae794	0.10350586994436944
131	0x3fa607484306ce77	0.043024309331852466
132	0x3fb3c8faee948b49	0.0772854645224871
133	0xbfccc50b0fa6516e	-0.2247632814802602
134	0xbfb105ead314f33b	-0.06649654057850977
135	0xbf92f365c5f79f8b	-0.018506612976039654
136	0xbfb3dd9d3c9ff35a	-0.07760031442735507
137	0xbfb57dd70d6094a3	-0.08395141674607713
138	0x3fc59f472b86f56d	0.1689232790503569
139	0x3fb34e21bb0d8728	0.07541094605178655
140	0xbf7cd73e01b20b33	-0.007041208470698379
141	0x3fc1d8b29e6d2dd9	0.13942558990161905
142	0x3f9535b7a43c2eb1	0.02071272792731688
143	0xbfb1be0c02380f6f	-0.06930613569426013
144	0x3faaa9b5ab3292c6	0.052076031826151545
145	0xbfbdea19ac1b7d12	-0.11685333682861579
146	0x3fc9f5c7d98c5729	0.20281313059302278
147	0xbfb4b1cebe4f7477	-0.08083812853097237
148	0xbfc900e86f251e16	-0.19534020831109505
149	0xbf8e8e34732d43f1	-0.014919671788136997
150	0x3fc2199bee5b0a57	0.14140652788599326
151	0xbfbdcf59de033dd0	-0.11644517584067349
152	0x3fa50fe2bb2d638a	0.041136823033134
153	0xbfc567ddcd4293af	-0.16723225138153228
154	0x3fc3f9e8fb930738	0.15606415065672663
155	0x3fbdcdd3c9ef100d	0.11642192535424574
156	0x3fc7ce48531a93aa	0.18598274286082744
157	0x3fbc95201551cb7a	0.1116504718827808
158	0xbfb66224ec0b93bc	-0.08743506205389812
159	0x3fc52a1994f5d940	0.16534728787855535
160	0xbfc012ba8b418db7	-0.12557155418026664
161	0xbf8aaa88b814df4d	-0.013020580404017013
162	0x3fa08cb3fa8925b7	0.032323479016280236
163	0x3fab6448376fc5f4	0.053499466674008206
164	0x3fbab723af159ab7	0.10435698532601632
165	0x3f83462ad1059330	0.00941117716201631
166	0xbfb01228c86175eb	-0.06277708904368466
167	0x3fa470ce76530ae6	0.03992314524068323
168	0xbfa4b2fb9e21581b	-0.04042803101826583
169	0xbfc4c9b3c1c4615f	-0.16240546189579683
170	0xbfc51089f9530cbe	-0.16456722902339566
171	0xbfa29cacbccc737b	-0.03635158352537978
172	0xbf99b3a3e6e6732d	-0.025099335639981724
173	0xbfb5e39f3e67a02b	-0.08550448678545368
174	0x3fc0ec857efa71ef	0.13221806240188935
175	0x3fc26af2ac286a08	0.14388879209657568
176	0xbf5970ad91cc28cd	-0.0015527434363229898
177	0x3fb2fa638e41e62d	0.07413313124734407
178	0x3fc2438ba1bb0c9c	0.14268632313733043
179	0x3fb29e177ed6ba14	0.07272478911065888
180	0x3fc2fea10f6ae5a9	0.1483956647187317
181	0x3fb92d6860dc218b	0.09834911694281893
182	0xbfb3ab8451b88dcc	-0.07683588976993078
183	0x3fbb78237bfcd9d4	0.10730191971820285
184	0x3fd3d15b55121f88	0.3096531229752988
185	0xbfa594f4455d1d2e	-0.04215205523228814
186	0xbfb918b55c860a92	-0.0980332709205334
187	0x3fbd4eead72e6028	0.1144854331345192
188	0xbf9565420c283075	-0.020894081108096835
189	0xbfb7dfdd244b8aa5	-0.0932596410380407
190	0xbfc22636d4febba7	-0.1417912044539353
191	0xbf780cddccc897e5	-0.005871645360945953
192	0x3fba05121a06eb6a	0.10163987288880852
193	0xbfc4423eff7d57f0	-0.15827167010382892
194	0x3fb1987c74526d13	0.06873300399677289
195	0x3fbfabeab2194b98	0.12371699188342544
196	0x3f9e22ac44131484	0.029429141669215855
197	0x3f9f421a1d00ae04	0.030525596637899013
198	0x3fc5cc8901bd37a1	0.170304418420014
199	0x3f9f0aece02bdf1f	0.030315114195189282
200	0xbfb1e91cf3507707	-0.06996327343264507
201	0x3fc3f3bafddb7281	0.1558755626237094
202	0xbfa5a07dd7d69106	-0.0422400785421662
203	0x3fa2bc69b074c56b	0.03659372595792373
204	0xbf74997c00f513ce	-0.005029186620338201
205	0x3fb4ce0058d52201	0.08126833122981482
206	0x3fa3879b8c72e045	0.03814397897207348
207	0x3fcb0e56bbf1f159	0.21137508561140342
208	0x3fc4be5dd718db29	0.16205952647006797
209	0x3fbdae4ea04c2c93	0.11594096578135042
210	0x3fae090a3be22357	0.05866271954534479
211	0x3fb3b707a52082b2	0.07701156407757528
212	0x3fb79d54f8d7aaf3	0.09224444461112195
213	0x3fbc7bca1b761b5c	0.11126387758677708
214	0xbfb7538625f893c7	-0.09111822535540091
215	0x3f987fe52cde962c	0.02392538153039518
216	0x3fc1bc5602e1e651	0.13856005802863305
217	0x3fc2f135fa5b4c14	0.14798617100186162
218	0xbfb3ab8f93acd92a	-0.07683656077719961
219	0x3f9ced61bef2710f	0.028249289779169347
220	0x3f6049f47e6ea91e	0.0019883895178810637
221	0x3fc5afaf5614cc18	0.16942397788224706
222	0xbfbf6c3884fc310a	-0.12274506804186927
223	0x3fc59e4030a9a9f0	0.16889192939863973
224	0xbfa44afa1e0c1585	-0.03963452927386427
225	0xbfc06f2970cd5f56	-0.128392391280381
226	0xbfccc83934c1d1c2	-0.2248603351214467
227	0xbfc0f6ee1e18d8ef	-0.13253571004469886
228	0x3fb3f7f305565dcc	0.07800215606982092
229	0x3fa25341110d0cff	0.03579142888204422
230	0x3fc406e573b05cdd	0.15646045826790714
231	0xbfc1b72344070432	-0.13840142079973955
232	0x3fc2f708a99c66e4	0.1481638744524424
233	0x3fb3a05b8d302d78	0.0766656131456126
234	0xbfc5d3e5b92b08f4	-0.17052909413730044
235	0x3fb9f6c7b50290d9	0.1014218155783654
236	0xbfc08b2db828dd13	-0.12924739353341205
237	0x3fc1247c13ae4ad3	0.13392592392900457
238	0x3fc2b679c231c261	0.146193713971587
239	0xbfc2bb738a16f287	-0.14634556048067202
240	0x3fa2c422bb906f93	0.03665264644243318
241	0x3f9e891729a0d3b1	0.02981983367517999
242	0xbfae24aec64a39ce	-0.058873616891208166
243	0xbfa104ac3e5ebefd	-0.03323877583841115
244	0x3fc423e90d8a5c45	0.15734589730411322
245	0xbfc68e3cc7b8033f	-0.17621574165243634
246	0xbfabdb446b5e03b0	-0.05440725145945835
247	0xbfcbd37715ca3dd0	-0.21739090503659364
248	0x3fb5ec0e7bf51aad	0.085633187544867
249	0xbfc0d15f7c5f897f	-0.1313895566264129
250	0x3f941b43886de508	0.019635253145200898
251	0xbfc3c8f78dd7bb17	-0.15457052637017263
252	0x3fc3fce8ef90e9b3	0.15615569779931845
253	0xbfc94278c657e53d	-0.1973410576318119
254	0xbfc5810ae4c3b5ee	-0.16800056619778964
255	0xbfc5c9a919f8b37f	-0.17021669166697603

fc21.weight f8 [128, 256]
0	0x3fba1573161aca60	0.10188979425110167
1	0xbfaeedd7888f58c0	-0.060408339900889896
2	0xbfb568960e639abb	-0.08362710810943501
3	0x3f8b40cea55a90c2	0.013307203694531092
4	0x3f92c1d0d10d7e9e	0.018317473182263393
5	0xbf8996284b363bfe	-0.012493433757098767
6	0xbf941442815df79c	-0.019608534952105225
7	0x3fb8d2c13bb877d0	0.09696586330434731
8	0xbfab3b990804f353	-0.05318906996624286
9	0x3fb3b4036d52eed4	0.07696553629915154
10	0x3f9c7a83d10b0a44	0.027811107286434003
11	0x3fbc12d0240853a9	0.10966206435871463
12	0x3f8aadca48805660	0.013026790940823207
13	0x3fb3d040169b1416	0.07739639808558282
14	0xbf62735241c5e101	-0.0022522551136568984
15	0x3fbcd7bf1cca34f3	0.11266703083875367
16	0xbf784f058079383f	-0.005934735766983278
17	0x3fb1306cbf3dea37	0.06714515370359996
18	0xbfa245bae16a3d83	-0.03568824769638026
19	0x3f8118e62097d438	0.008348272199308324
20	0xbfa4ab9b52e23321	-0.04037175547373396
21	0xbfb0bbbfd26fef41	-0.06536482703807868
22	0xbfaf6fce6580ee10	-0.061399888887958665
23	0xbfa51dbb1ee7302a	-0.0412424540732846
24	0xbfc1cf475d4715ad	-0.1391381459672351
25	0x3fb09077555efdfa	0.06470437845472779
26	0x3f98b753ad1f32f6	0.02413683647300765
27	0xbfa64b1654583904	-0.04354162005994236
28	0xbfbd25b6ac0a5735	-0.1138567132969371
29	0xbf827f4d83efd499	-0.009031873310940507
30	0xbf932b8847a86bb4	-0.0187207502113826
31	0xbfb10a6530fec523	-0.06656486936733023
32	0x3fb320475cf8ea73	0.07471128482658589
33	0x3f959d1b4e160d49	0.02110712684726693
34	0xbfa127ec8a789a7e	-0.033507720854960774
35	0xbfaa7ac70aae993b	-0.0517179680385191
36	0x3fb3ddf5b04c0350	0.07760558656810912
37	0xbf485ef31d4b3ef1	-0.000743740757195936
38	0xbfb8ba3acfb8fc33	-0.09659164019920823
39	0xbf9e2882cb0ec57b	-0.029451411861093995
40	0xbfa18a112d682e9a	-0.03425649337085908
41	0xbfc18baad8365206	-0.13707480962024493
42	0xbfa87df0e220b73a	-0.04783585319851942
43	0xbfcca80f0f27b206	-0.2238787483214681
44	0x3fbfe89b5689a54d	0.12464304793106358
45	0xbfb5a472aa1d3330	-0.08454052594352102
46	0x3f90e158c9727da2	0.01648462991272271
47	0xbf84e4e60ab381af	-0.010202214433264382
48	0xbf6b2cb0c59b6ec8	-0.0033172085357885163
49	0x3fb66ef0de0a173f	0.08763032360920152
50	0x3f96ce1f22fb3ba2	0.022270666608899987
51	0x3fa34758d2644b7f	0.037653709108915294
52	0x3f8da9716d5ad255	0.014483343267195506
53	0xbfa0a1e1045584dd	-0.032485038546619306
54	0xbfb5a742a2276654	-0.08458343943439078
55	0xbf604c5c00a3ab1b	-0.001989535992028902
56	0x3f8089dd49c123dd	0.008075455487544342
57	0x3f9113f4f112c0e7	0.016677691663688512
58	0x3fb48b7d3292f323	0.08025343403546663
59	0x3f7979068cc83022	0.00621893461767445
60	0x3fac3681e5a20ed8	0.05510335853707965
61	0x3fb5cc57a18b4d3f	0.08514926618527328
62	0xbfa01afabc947c0c	-0.03145583679201289
63	0xbf979b0714450997	-0.02305232106415075
64	0xbfa51d93b3e628e4	-0.041241279325804375
65	0xbfb10484ca737176	-0.06647520010614535
66	0xbfad98ba045b76f9	-0.057805836707968745
67	0x3fa737b546b9fc83	0.04534689415322026
68	0x3f969d5ae6f44d44	0.022084637018520384
69	0x3fb4503afb77995f	0.07934921874366328
70	0x3faa4a102db476b6	0.05134630735322558
71	0xbfb782f3f4126f25	-0.09184193333424824
72	0xbfbafa4037a821cc	-0.1053810249214912
73	0xbfb22722c8d35613	-0.07090966608969777
74	0xbfb20f7ecd2428d2	-0.07054893978434798
75	0x3fa1105bc1d7323d	0.033327929889854314
76	0x3fa1cb78153ae497	0.034755470840033435
77	0x3fc3aeeb826db859	0.1537756335123415
78	0x3fb542fdffcc6a23	0.0830534696109813
79	0xbf92d8029c727c75	-0.01840213851812363
80	0xbfa79136430d6e3e	-0.04602975433837429
81	0x3fadb7a2d8e0bc9e	0.05804165742335353
82	0xbfa93bff9e2cc817	-0.049285877283537775
83	0x3f8242a60e68adc0	0.008916184725498932
84	0x3fb57cb9de4191c0	0.0839344184510713
85	0x3fa1d919dc7a47fc	0.03485947433831879
86	0xbfb2f71a7f2f8a03	-0.07408300023192997
87	0x3fb566859a08552e	0.08359560976562783
88	0xbfb0dcfcebb4442c	-0.0658720088433859
89	0x3fa41f886b2c9587	0.03930307682302741
90	0x3faec411bdf732a2	0.060089640082513954
91	0x3faa4776819f7baa	0.051326468775861514
92	0x3fa96fa36588b591	0.049679857391633615
93	0x3f6b917f584afd45	0.0033652770237890006
94	0x3fb28931f6716a56	0.07240593210864552
95	0xbfa2d2112c259a9a	-0.03675893463041753
96	0x3fc534ed3002bd42	0.16567768902084806
97	0xbf7867a55fe430d8	-0.005958219522892182
98	0x3f99da768d8d64be	0.025247433080356478
99	0xbf9b0b6c9d179d81	-0.02641076763930306
100	0xbf8a16181b4b4542	-0.012737453778216893
101	0xbfca663e2065e4ad	-0.2062451990312061
102	0x3f9da0222b1d9595	0.028931173211636702
103	0xbfa8cfa98858a737	-0.04845933713325084
104	0x3fa5f505c488f6f7	0.042884998551455604
105	0xbfc514cfac0412d3	-0.16469760798658814
106	0xbf7dddf05825317a	-0.007291735501280145
107	0xbfb2712c469c9ba4	-0.07203938220901179
108	0x3fbb603189fb094a	0.10693654650370835
109	0x3f8374f597d56e7b	0.009500426002595255
110	0x3f7e47ece53846c4	0.007392812130562813
111	0x3fa4185e92e9d28a	0.039248423990021555
112	0x3f9e9dbd9f02b813	0.029898608045805086
113	0x3faf946f8de68482	0.061679349967797684
114	0xbfc80ee1b00a1c25	-0.18795415015867536
115	0xbf6f9fcccdc54424	-0.003860378272442693
116	0xbfc57b936f03271c	-0.1678337375690767
117	0x3fae2b249fd5053d	0.05892290545535637
118	0xbfa5cfce4c83780c	-0.04260105785373022
119	0x3faab0275853571f	0.05212519601052023
120	0xbf87029072b6a5d9	-0.01123535966947291
121	0xbfb0344744828e3a	-0.06329770491225242
122	0xbf6faec5d61b4c80	-0.003867517851952551
123	0xbf94603ebd25de36	-0.01989839581935212
124	0xbf9950bde48635cb	-0.024722067902578176
125	0x3faa63863f39693c	0.05154056093006651
126	0xbf7a0f99fb8956eb	-0.006362534994499329
127	0xbf95b78013e7057b	-0.02120781060671593
128	0x3fb514a5cfdb4481	0.08234630894300389
129	0xbfa32fa391e0826f	-0.03747283130383471
130	0x3fa75dae0adc683e	0.045636595559884516
131	0xbfbfdd3198827529	-0.12446889851931488
132	0x3fa1bc0ff99b5d81	0.034637927264777886
133	0x3fa8fa6f2b241be3	0.048785661712876814
134	0x3fa0993a4033b249	0.032419033372069146
135	0xbfa830c4b9e33115	-0.04724707383283736
136	0xbf724fcee7c17d6d	-0.004470642303288625
137	0x3fa297a089e00d6a	0.036313072996587106
138	0xbf9f9433c6c6975b	-0.030838784224804665
139	0x3fadb12c5368d9ca	0.057992348844368616
140	0xbf833c71e9b618c2	-0.009392633385470698
141	0xbfb26f8810da75ca	-0.07201433574160557
142	0xbf98c6dfa725eb9b	-0.024196142746841436
143	0xbfb759f5068b610a	-0.09121638688828085
144	0xbf99eed09338dde9	-0.025325068460203246
145	0x3fa3a49d5b3d0dd0	0.03836528528929828
146	0xbfaaa03d6a150dd6	-0.052003783416264035
147	0x3fb4142fefb6f43c	0.07843303301247401
148	0x3fb1260791725602	0.06698653508131971
149	0x3f975807e50a15d2	0.022796748499350823
150	0xbfa5d163c9341e21	-0.0426131423101277
151	0xbfb82eb2be790075	-0.0944625582715178
152	0x3fba7a2932c1281e	0.10342652787326798
153	0x3fa80a3535534a50	0.04695287967628714
154	0xbf9ba12563cece2f	-0.026981910912310333
155	0xbfa2d4219eec7867	-0.036774683618418895
156	0x3f9d7a00d73bb370	0.028785718094627766
157	0x3f961da84ff9674d	0.0215975092708967
158	0x3fa14328ba1c540b	0.033715508192621334
159	0xbfad97a60a3180d5	-0.0577976119463998
160	0x3fabebb9aacd85d1	0.0545328160285511
161	0xbfb1843f64b954f6	-0.06842418870049358
162	0x3fae538329cb6b68	0.05923089871585924
163	0x3fbf585ff2b965ad	0.12244224239238717
164	0x3f8fe3e5783a1b04	0.015571396571670622
165	0x3fb52aad3e453c58	0.08268244524264057
166	0xbfb1672f2851c152	-0.06798071607932357
167	0x3f8b4f56d7bb30f9	0.013334921320528258
168	0x3fbcaf4a23d79951	0.11204970717480946
169	0x3f92edea1d41ad06	0.018485696826627616
170	0xbf5ab0c961311fa7	-0.001629063281841406
171	0xbfbce9f5094cf78b	-0.11294490315500931
172	0xbf2119d4a4e41b65	-0.00013046952012293469
173	0xbf935ed628c49ec6	-0.01891646026447693
174	0xbfc4ddfb32fe2d57	-0.16302433004271208
175	0x3fafd19e38ae4c20	0.06214613382248779
176	0x3fb5b5c72dccec61	0.08480496280837847
177	0xbfa438b0fe91c9ef	-0.03949502093827905
178	0x3fbb866f5e464dc7	0.10752006579996652
179	0xbf81203edf9f5214	-0.008362284850513858
180	0xbfb136dcaf42c229	-0.06724337843730467
181	0xbf4e9245cca01a6f	-0.0009329644028646787
182	0xbfa49789bb3cd55a	-0.040218643289714875
183	0x3f6e210f12b1d7d6	0.003677873076919784
184	0x3fb0899e4cb3be14	0.06459988949404077
185	0x3fb33932848b3b02	0.07509151206907563
186	0xbfa638e7ae79b5a6	-0.04340290074183466
187	0xbf948c1e24f1768f	-0.020065756802401465
188	0x3f6064d3c0634f44	0.0020012031337532116
189	0xbfb43d51444f816e	-0.07906063001383298
190	0x3fb086d90e512690	0.06455761527572634
191	0x3fb0ca564f697fbf	0.06558741987964732
192	0x3faa98d703de4db2	0.051947325918401246
193	0xbfa261e7eb81b76a	-0.035903213022591654
194	0xbf93e15cc08bccb2	-0.0194143764992531
195	0x3fac2bb7d50a2740	0.05502104259092144
196	0xbfa75b5e127b7c29	-0.04561895347227846
197	0xbfc84fc61f650634	-0.18993450673046797
198	0x3f90af7fb2f45f07	0.016294474885483214
199	0xbf8971b7f0941932	-0.0124239321035132
200	0xbfbcc88c8a8e32cd	-0.11243513472272611
201	0x3fb45de202c63f87	0.07955753867849867
202	0x3fb7910a36a547ab	0.09205688318368625
203	0xbf7408054ecf7133	-0.004890461667823853
204	0x3fb095a9888348dd	0.06478366453964975
205	0xbf86211a6a5b2af2	-0.010805326815348935
206	0x3fbe336ee0f0b13c	0.11797230712608536
207	0xbf9c54ea170b0dd1	-0.027667672783321443
208	0x3fa05641ffa116a3	0.0319080948398043
209	0xbf9c8f34c75c79c1	-0.027890038173717494
210	0x3fb8824e3b8f06f7	0.09573830560750794
211	0x3fb75b57d592ddd9	0.09123753513528444
212	0xbfa1aeca6ddd217b	-0.03453667250738853
213	0x3f97709cc09caad2	0.022890519386389148
214	0xbf95bc52af78d0e7	-0.02122620769496644
215	0x3f53c95dcdb37c15	0.0012076774644851397
216	0x3f9f72adcbec1c12	0.03071090275900807
217	0x3f75be4b2f8d9bdf	0.00530843133387912
218	0x3fb9a9f5ae518a31	0.10024962907622449
219	0xbf606b9dbc00bb89	-0.0020044403791170157
220	0xbf958eac50568d64	-0.02105206718773668
221	0xbfbab198a7bd6568	-0.10427240462504062
222	0xbfb75ab503fa8fdd	-0.09122783038270606
223	0x3fac46590b04ef92	0.0552242113066931
224	0x3f9b4e9e519402dc	0.026667093018661756
225	0x3f9d7c6c00171708	0.028794944291596486
226	0x3f7a91a239428af2	0.006486543356148943
227	0x3fa03787280189d3	0.031673644670053534
228	0xbf873abd37a63c07	-0.011342504750045291
229	0xbfabbcf595fdb07b	-0.05417602020210751
230	0x3f8d49f7f9c1ea05	0.014301240262502022
231	0xbfa0658c433c3343	-0.03202474899999299
232	0x3fb44271df74f5ab	0.07913886743059233
233	0x3f9b1df8f51ae405	0.02648152347567036
234	0x3fade7251baf248f	0.05840412104550651
235	0xbfb401762a613836	-0.07814730200445372
236	0x3fba3931002495a5	0.10243517163742995
237	0x3fba0ac60970567a	0.10172689180793695
238	0x3fbd7589d7b5a717	0.11507474438044728
239	0x3f82578276d7befd	0.008955973865311767
240	0x3fb756a6e7ee604b	0.09116595423108824
241	0x3faa574e2e5bf5ea	0.051447337302288634
242	0xbfb3d1c7628bb36b	-0.07741972118283307
243	0xbfca4c936e52dc9f	-0.2054619110765303
244	0x3fb358f6ba782067	0.07557622959586895
245	0xbfad3b56c207b873	-0.057093344865152405
246	0x3fa0f3eef227adec	0.033111064014374
247	0x3fbe74b8764aa570	0.11896851432779498
248	0xbf8efc8048a40e3a	-0.015130045143911908
249	0xbf735e2226bb498e	-0.004728444484231166
250	0xbfa783a0ec71fb6f	-0.04592612158102482
251	0xbfb469af9f9351e2	-0.07973764081845716
252	0xbf6b30e35d6ab18f	-0.0033192101212390977
253	0x3fc4fca2d5e47734	0.163959841193838
254	0xbfc3c69e1c9c83f8	-0.1544988288597151
255	0x3f973e521e0b1444	0.022698672374435583

fc21.bias f8 [128]
0	0xbf94a91ba95a9a7c	-0.020176346026938394
1	0xbfaddb717497ae62	-0.05831484363792751
2	0xbf9307bb4d598b56	-0.018584181400352527
3	0xbf54e9cc4e30de27	-0.0012764449281926855
4	0x3f745e336a9f4c7f	0.004972649427105512
5	0x3f938e6dc5943f11	0.019098010238905398
6	0x3f8fb4d4258292bc	0.015481622118678977
7	0x3f9a64e542793966	0.025775510961744706
8	0xbfa31c42a2392f5b	-0.03732498388543944
9	0x3fa37660aac4ee70	0.03801252445779546
10	0xbfb0287ebd0f8db2	-0.06311790576687917
11	0x3fb0fb83fd529cab	0.06633782324444108
12	0x3fa0a2af3fc0f1ce	0.032491184742386645
13	0xbfaaf5d55929ac95	-0.05265680993473968
14	0xbfa31612d1d4a50a	-0.03727778254899235
15	0x3f852847f2ce01ba	0.010330736253082107
16	0xbf94d94c3c4488ac	-0.02036017530293381
17	0x3f8960f6b31c37a5	0.012391974774370438
18	0x3f9eecf0ea8c3b10	0.03020073348585145
19	0xbf968cc606ae0993	-0.02202138343592137
20	0x3fbafadb4dd644ef	0.10539026880566714
21	0x3f54783be2df20a7	0.0012493691278781334
22	0xbf9927ca533eb7fc	-0.024565850573416967
23	0x3fab42b79e1d8869	0.05324338727111028
24	0x3f9581a544217559	0.02100237110459111
25	0x3fad2d56fc12a0c3	0.056986540098763715
26	0xbfaca221ed96d1c2	-0.055924473049717274
27	0xbfb385b4fd8d1bcf	-0.07625895681586246
28	0xbfa2c7af2cf82f58	-0.0366797201532722
29	0x3f97135c9e1812d2	0.022534796857160817
30	0x3f97db345101a91d	0.023297135776752066
31	0xbfa5a6299edb9b21	-0.04228334488089148
32	0xbf73c94398e042a7	-0.0048306122316864935
33	0x3fa1c931e5f29b7e	0.034738120384012014
34	0xbf69db5c6ac94026	-0.0031563572904716062
35	0x3f8cdd94aea2b00c	0.014094506816341855
36	0x3faf6ac7d9de60b7	0.0613615468457182
37	0xbf8458e4ff1ea8ff	-0.00993517783702602
38	0xbf9e30ef7f1d093c	-0.029483549245250304
39	0x3fa6904a69bf442e	0.04406960049494334
40	0xbf862235900b7b99	-0.010807436426544291
41	0xbfaeb5535fb6b72f	-0.05997715514545942
42	0xbfada1ef9dfcf647	-0.057876098666821245
43	0x3fb0896df6f88fad	0.06459700851024648
44	0xbf950c15dca464c1	-0.020553914634636742
45	0xbf9b5f507a3a9552	-0.02673078294778481
46	0xbf8d07d6db34d65d	-0.014175108494423211
47	0xbfa252841d711f6f	-0.0357857976856043
48	0xbfad04c316d2c556	-0.056676956687975164
49	0xbf6b4f8a65c4da01	-0.003333826358495218
50	0x3f99b93745e874f3	0.025120605127189454
51	0x3f947361030ed375	0.019971385776176704
52	0xbfabc7cd06ad9f57	-0.054258734765254495
53	0x3fb00f37f66486aa	0.06273221745916638
54	0xbfac7f5146846507	-0.05565885530286079
55	0xbf86c36992a5027c	-0.011114907062279793
56	0xbfb06f2b03837380	-0.06419628940370892
57	0x3f934e053d07203c	0.01885231194481228
58	0x3fbc4eab6fb437c2	0.11057540394924018
59	0xbf957c11366fe966	-0.020981091449337262
60	0xbfb80dfef1c07d21	-0.0939635601248381
61	0x3f94e5182bce3c2a	0.02040517585151861
62	0x3fb15ee18187b76f	0.06785401737553597
63	0x3f90137862453077	0.015699273107472735
64	0x3fa933b72b653ab8	0.049222682997983325
65	0xbf7eef40c9924ca2	-0.007552388263451311
66	0xbfb0545b47264642	-0.06378717886971066
67	0xbfbb6861447b6bf3	-0.10706146165777834
68	0xbf8830e38a802786	-0.011811998047068572
69	0x3fa03c921fda3650	0.03171211851904998
70	0xbf72a16303319d6c	-0.004548441665156982
71	0x3fac73078c30a2be	0.05556510530761248
72	0xbf951fdedeb8392b	-0.020629389137007664
73	0x3fbcc80760cf0761	0.11242719758504684
74	0xbfa5d0994808ce41	-0.04260710720373285
75	0x3faa9cd7bbfbdaf4	0.05197786493038406
76	0x3fa958b97b681ede	0.049505039514824864
77	0x3faefdaf62a8543a	0.06052921370807281
78	0x3f9954b25ef87797	0.02473715500502002
79	0x3fa589355e50be1c	0.04206244255362554
80	0xbf9bf3d97684d655	-0.027297399386233618
81	0xbf7ff331cb2eebf6	-0.007800287729817326
82	0xbfa34aa900189fbb	-0.037678986798993695
83	0xbf647b90301a9e96	-0.00250032579136301
84	0x3fa36bcfe1103579	0.03793191549639636
85	0xbf95493bd5c02264	-0.020787177010819127
86	0x3f8feb07885efdfa	0.015585001801695409
87	0xbfb166c6b1248704	-0.06797448944828594
88	0xbf83ab1f0e16ce38	-0.009603731744255758
89	0xbf799f9b34430d96	-0.006255728021815973
90	0x3f97dd3b31e97152	0.023304867669467662
91	0x3f8604219c9d1a6b	0.010750067321749065
92	0xbfb6eefdf0364f3b	-0.08958422770075185
93	0x3f9a488d27920f76	0.025667386570162397
94	0x3f9453a20c3d6191	0.01985028457360866
95	0x3fa63be9ed3202cd	0.0434258558316337
96	0xbfa02c9312617f71	-0.03159007644057866
97	0x3fb36cfecfbcf4f1	0.0758818871663214
98	0x3fa01f3d60286ecc	0.031488340366392004
99	0x3fa0856369d971d1	0.03226767222506378
100	0xbf976a0061215e6c	-0.022865301063886553
101	0x3fbf0227b0008ed7	0.12112663313797199
102	0xbf9ad2e16d115dfe	-0.02619507053563374
103	0xbf94635c0c758895	-0.01991027666134267
104	0x3f8fcc3ca966612c	0.015526269836116123
105	0xbf9d5da1d56e5fd0	-0.028677490855983312
106	0x3f8b7e834eef9a2c	0.013424898001130968
107	0xbfa6296c569e4b52	-0.043284783910300675
108	0xbf9a22d308d93cd4	-0.025523469367098553
109	0xbf9e004bca975f65	-0.029298004379455195
110	0xbf26ec03cdd9be3a	-0.0001748804706269579
111	0x3fba706a9cb82577	0.10327783895640673
112	0xbf7b1d0b409a17fc	-0.006619495348450851
113	0x3fa7e3c838f6db2a	0.04665971465458647
114	0x3f9644eab2ce12e2	0.02174727169360125
115	0xbfa5658e3ce733f3	-0.04179043286749353
116	0xbfae234928c0dad7	-0.058862959122441154
117	0xbfab4924a6d4841d	-0.05329241310597175
118	0xbfb7f712c3406597	-0.09361378924258755
119	0x3f4aff9621ef6b19	0.0008239253110063654
120	0xbfb64f564fd0b754	-0.08714808891883524
121	0xbf97c6b48739a215	-0.023218937638747123
122	0xbfa0fd501cdc1642	-0.03318262436191023
123	0x3fa92bd6efed1ebf	0.04916259459292637
124	0xbfa0b9d524e164f9	-0.03266779017639893
125	0xbfb5777ac72afb70	-0.08385436403749025
126	0x3fa2f1dbd24c50d0	0.03700148527255609
127	0x3f8e3cd3d55d2afe	0.014764456700182556

fc22.weight f8 [64, 256]
0	0xbfa471a06c395cd3	-0.039929402552553526
1	0xbfa434ea50bfe4fd	-0.039466211659552976
2	0x3f57a4b5f04daf4c	0.001443078684327542
3	0xbfa89ab2d26ca741	-0.04805525606782491
4	0xbfb40707d0b67e0d	-0.07823227735070067
5	0x3f9965d9f5220858	0.02480259474442223
6	0xbfa370339872e587	-0.03796540485331961
7	0xbfae8cc0f03c3c23	-0.05966761524734234
8	0xbf82f2d9c834bd9b	-0.009252263471892166
9	0x3fa16f911beadd45	0.03405431237973259
10	0xbfa913ed77947621	-0.04898016056743538
11	0xbfa2e4b8342b1b98	-0.03690124165364422
12	0xbfa5edb6e385b8d6	-0.0428292420136686
13	0xbf969a72d951b7d9	-0.022073549760925324
14	0x3fb0f73471f24ced	0.06627204687019957
15	0xbf9a5d0f6e46b71d	-0.025745621782042528
16	0x3f57656f9139be66	0.0014279927753725551
17	0xbf8c4a2fd7e4aa41	-0.013813375259435936
18	0xbfb49198c96b643f	-0.08034663121669981
19	0xbf99935723abdce6	-0.024976121475415967
20	0x3fe0b8d5570f6dab	0.5225626659770816
21	0x3fa2b1bf4d9abc33	0.03651235410995248
22	0xbfb6e3b5e4940cb4	-0.08941208677792895
23	0xbfa420e162b3c532	-0.039313357637988836
24	0x3fd6f486e416ec13	0.35867473863953697
25	0xbf92e6647741743c	-0.01845700242880731
26	0x3f828fac94e7a72e	0.009063099188057668
27	0x3f8d0262c0ed13ae	0.014164706719052091
28	0xbfa425d820aed8bd	-0.039351228704093334
29	0xbf96a305336e3459	-0.02210624815375115
30	0xbfa7948a78b2cd4a	-0.046055152162262816
31	0x3fa1dd45c7dc8dcf	0.034891300818596364
32	0x3f50002e3aba6e9c	0.0009766055544905622
33	0x3f82489237530513	0.008927480996478587
34	0x3fca57a55b59e88c	0.20579974136837043
35	0x3fb18132c8528091	0.06837766066246533
36	0xbfa394ef6dce9a38	-0.03824566092889764
37	0x3fa38c2d05926c46	0.0381788319875445
38	0x3faaa718cd5423b3	0.05205609804585922
39	0x3fb6fd5f835a5c74	0.08980366665706346
40	0xbf95c44aa8f3294d	-0.021256605684166364
41	0xbfabdf704744498e	-0.0544390761371175
42	0xbfb5f12bea650209	-0.08571123573802465
43	0x3faffc62ea3f9112	0.06247243031956108
44	0xbf613710a8d31e80	-0.0021014523868848056
45	0xbf90313772da8566	-0.015812746415240574
46	0xbfb22d4698915bb1	-0.0710033533554071
47	0xbfaa142a2f49cc57	-0.050935095093244946
48	0xbf857ed598cd6671	-0.010495823598535044
49	0x3fa140c6c3b512d6	0.03369732989316325
50	0xbf6a3cf0803f014d	-0.0032028863224412897
51	0xbfa3659304891204	-0.03788432531704092
52	0x3fc1b215e17ddd8d	0.1382472373040681
53	0xbfa8fb8be5687870	-0.048794147256772
54	0x3fb3c6ed92fb9aec	0.0772541507572943
55	0xbfc46e5df5015581	-0.15961813414712014
56	0x3fa42ad0a3e95448	0.039389152535172445
57	0x3f86088ef1fac426	0.01075851131403922
58	0x3fcbcfaf9249a94b	0.21727556841808346
59	0xbf988e8fe9a60e31	-0.023981331477911098
60	0xbfb4a8de9494804d	-0.08070174338763643
61	0xbfc24bdc9ce43960	-0.14294011746137425
62	0x3fcc9beec85d003c	0.22350868972171323
63	0x3f44b52d5773d8e5	0.0006319495577418425
64	0x3f51e8f3863c1424	0.0010931375663301235
65	0xbfb430008d988c45	-0.07885745484286229
66	0x3fdedf56abd78bad	0.48238150388186335
67	0xbf98b1bb196b978d	-0.024115489412813985
68	0xbfb0c95ded5a5e18	-0.06557261509657797
69	0xbfb2245c8a807dc8	-0.07086733228106035
70	0x3fa2ed4a5779650a	0.03696663205909985
71	0xbfb23dcdb818bfe1	-0.07125554794833945
72	0xbf7a547d0f6fe193	-0.006428230778503868
73	0xbf90eddc6501f6dc	-0.016532367386836153
74	0x3fa8d29071be5389	0.04848147762746808
75	0x3fbbd379050ea14c	0.10869556783166451
76	0xbfaafe9683e1d557	-0.052723601912399935
77	0xbfb0e2f1cd1871dd	-0.06596289880003021
78	0x3f400c9742304963	0.0004897821967253909
79	0x3f960837ef729c1f	0.021515726079680882
80	0xbf7349f4cb6d4c31	-0.004709202031182123
81	0xbf9014f70d1ff1b5	-0.015704975296090235
82	0x3fb8c8fddf770e33	0.09681688981714202
83	0x3fd2c8a6da18f0e8	0.2934968118531871
84	0x3fadb2de1bc6f562	0.05800527657582212
85	0xbfae1b8c8f73b6ea	-0.058803932677489915
86	0xbfa309d721734cfe	-0.037184450944232936
87	0xbf5f2218907035ed	-0.0019002189526448013
88	0x3f9899532292c081	0.02402238749044772
89	0xbfaa31b69aee11c4	-0.0511605323909268
90	0x3f8ebfb0cf1f8259	0.015014058419127329
91	0xbfb37c23e575e681	-0.07611297943176433
92	0x3f9d4ffe6efb9836	0.028625464938976296
93	0xbfac91294f0bbd7e	-0.055794993304398396
94	0x3f9afe771cb84efe	0.02636133301537224
95	0xbfa8bb6cb3927031	-0.04830493633309663
96	0x3fa271c90bffe5e1	0.03602436324576864
97	0xbfb5602c2345bd47	-0.08349872456687023
98	0x3fb1125e68b61777	0.06668653541973223
99	0x3f85628896209736	0.010441844064256505
100	0xbf5fe13e063bd19b	-0.0019457917887254264
101	0xbfadb609c19d7926	-0.05802946556535664
102	0xbfa3ed286fff4d70	-0.03891874663500061
103	0xbf9e474460d64fef	-0.029568737421484966
104	0x3f81685ad2745581	0.008499822185096264
105	0x3f76161b360ac86e	0.005392175954215357
106	0xbfb6dd91ddf9cd39	-0.08931838673907046
107	0xbfaa117231c8a005	-0.05091435296736794
108	0xbfa25d66337eb13e	-0.03586882952308422
109	0x3fbfff1057a3a173	0.12498571529034112
110	0x3faf8a517ccd942a	0.06160215996241221
111	0xbfbe18f1ab9e3b40	-0.1175681156148416
112	0x3fa5d0685d217d0a	0.04260564934588203
113	0x3fad98976d1a756e	0.05780480582073265
114	0xbfa08af98f3b32c4	-0.03231029389789833
115	0xbf9dddc324bae987	-0.029166268460110636
116	0xbfa6159f96afeb50	-0.04313372339671295
117	0xbf97cbda129d148b	-0.023238570581515943
118	0x3fb0893bdc914401	0.06459402213046418
119	0x3fa534a118bf32b3	0.04141715457044395
120	0x3fd43875912a7365	0.31594599891996317
121	0x3fa22048b2f6cde0	0.035402557226372755
122	0xbfadabb8ee8ffa2d	-0.05795076286448295
123	0x3f9df4e8eb96d6a5	0.02925456941530648
124	0x3fbab8778f1b2518	0.10437724345969845
125	0x3fa1967c16f6e4c2	0.03435123234107486
126	0x3fae92fe4a444a64	0.059715220037237754
127	0x3facb2f8817d0057	0.05605293827693519
128	0x3f86baa32c1032e1	0.011098170072750548
129	0x3f2c520fda4f70c5	0.0002160686828166556
130	0x3f909650d033de6a	0.01619840880172633
131	0xbfc22cf5351f37b6	-0.1419970044502727
132	0x3f799daa5c45a088	0.006253877134760562
133	0x3fb9df5590050c1a	0.10106405988794656
134	0x3fa159a8fb7f1196	0.033887177181472314
135	0x3f9133f4bda844fb	0.01679975898338613
136	0xbfb44d9e7ff18502	-0.07930937408083952
137	0x3fb0bf6b39eb2caf	0.06542081989316516
138	0xbfb6772fb269d15e	-0.08775613885683728
139	0x3f68b3472238c6cc	0.0030151738481202003
140	0x3fbcbada7e8947f7	0.11222615803970358
141	0x3fab602fcf818295	0.05346822174101821
142	0x3f93dd1141227e25	0.019397992706784124
143	0xbfaa97eda1ea99ac	-0.051940370574175304
144	0xbfb5d6ec507cd47b	-0.08531071629552571
145	0x3fde7105dfa86c83	0.47564837304680213
146	0x3fc36c80d8894242	0.1517487580590729
147	0xbf81fb75d8f53c6d	-0.008780403789073266
148	0xbf9c40dbf0ac5cf5	-0.027591167988330906
149	0x3fa1650ee7fa8933	0.03397413808603957
150	0xbfaa61bf58afabde	-0.051527003837541704
151	0x3fe102a982af4174	0.5315749695237586
152	0x3fc2d6669ae0a66a	0.1471679931867585
153	0x3fa80228363ca25d	0.04689145719595864
154	0xbf9cc359f6bc21e7	-0.028088956532004074
155	0xbf81852c6c6d9f33	-0.00855478959938658
156	0x3fc14ce98ec04ed2	0.13515967817567415
157	0xbfbdb9821c7ea9be	-0.1161118812148407
158	0x3fa1377aea19b723	0.033626404835429356
159	0x3f9f578ad5fca63c	0.030607384978031713
160	0xbfa9bc4103251c47	-0.05026438868895205
161	0xbf7478d1ed3647c4	-0.0049980354555305175
162	0xbfa62120229b26ca	-0.04322147772252334
163	0xbf9a115736536779	-0.025456774416717096
164	0x3fa2ac72b80114b6	0.03647192474503795
165	0xbfafe8400a813109	-0.06231880310278554
166	0xbfa4272c641a9973	-0.039361369342532
167	0xbfae003e94c1161c	-0.05859561506126118
168	0x3f988ea53a8359f0	0.0239816491092259
169	0xbfaff8ab0c6ccdaf	-0.06244406248734024
170	0xbf8d1a8c98d97011	-0.014210794844238735
171	0xbfacce74cf1d8a40	-0.056262636454239345
172	0xbf82f80371abd120	-0.009262110620945452
173	0x3f91dbc8faf75bfa	0.017439976041568862
174	0xbfa622a6a432556d	-0.04323311571458075
175	0x3f9a90712fab6712	0.02594162801219741
176	0x3f9f0f4add9043e9	0.030331773541607907
177	0x3fa7ece391bfb054	0.04672919420394864
178	0x3fa2c2100899767d	0.0366368303773301
179	0x3fa86e38339b1be2	0.04771590833620799
180	0xbfab6523e5c38490	-0.05350601367695973
181	0xbfb908bc5ba8e1df	-0.09778954732690391
182	0xbfa27ab79348e46e	-0.03609250710400934
183	0xbfa664403b46334d	-0.04373360370218524
184	0x3fc21ad76db3731f	0.14144413811200082
185	0x3fb3fa37090f5141	0.07803672763049453
186	0xbfb047b74e75805e	-0.06359429994108853
187	0xbfbb80879c30e508	-0.10742995799309452
188	0x3f594591d0ff3205	0.0015424655903074635
189	0xbfa65fd9e179fd52	-0.04370003583334871
190	0xbfa6a4e0e7fbb4b7	-0.044226673429741785
191	0x3f8d9a81aa56b196	0.014454854021857238
192	0xbfb3470e24d2aa34	-0.0753029670619661
193	0x3fe07d20ed26eb0b	0.5152744895816296
194	0xbf53cf2fae77a6c9	-0.001209065021493693
195	0xbf9236d5d58a7a83	-0.017787305029396194
196	0x3fa0eddfb9cbfa17	0.033064834051391205
197	0xbfa141e3ece48166	-0.03370582834964146
198	0x3f83799fe34b2da9	0.009509324192001527
199	0x3fc0f45fa8530341	0.13245769232710283
200	0x3fc2531e340ea603	0.1431615595040939
201	0xbfa756c231b666a5	-0.045583790367527834
202	0x3f504e9376a1256d	0.0009952964851599147
203	0xbf9d70dec52baf7a	-0.028750878128377157
204	0xbfa3d426516ed264	-0.03872794860891274
205	0x3fb5aa7d161ef45e	0.08463269987164909
206	0x3fc4a9cce2527cf1	0.16143189478768918
207	0x3fc1e8f7b29bad9d	0.13992210599040514
208	0xbf9fd68fb622dfb6	-0.031091924182618157
209	0x3fb47bac16c37001	0.08001208835361241
210	0xbfa23b7546dfa4c0	-0.03560987939983695
211	0x3fab5d8eae203078	0.053448160892089314
212	0xbf96105223f869b6	-0.02154663414521859
213	0xbf9140cd39584245	-0.016848761200949153
214	0xbfb91681de1254d0	-0.09799968406362614
215	0xbf9b948a5c31ac9d	-0.026933824421956677
216	0x3fa17b90f2c1fe34	0.034145860322493254
217	0xbfb237a6961cb057	-0.0711616627201591
218	0xbfb37aa66ca86ef6	-0.07609024193555655
219	0x3f74a15142581e25	0.005036656778890901
220	0x3f94f056c08058de	0.020448070048666327
221	0xbfa29e5ccb722cab	-0.03636445983382804
222	0xbfbb53dea72f5bf6	-0.10674850064911809
223	0xbfbae9b3ea7e8d49	-0.10512852168044619
224	0xbfa79ceecd0241bd	-0.046119177365770515
225	0xbf7f48e18b44e9c4	-0.0076378641427318796
226	0x3faa9578280cdc29	0.0519216107263037
227	0x3fa43861b1df6a20	0.039492657626130745
228	0xbf86366009832623	-0.010845899858753566
229	0x3f9bab3103ea403a	0.02702023111720584
230	0xbf8e69fd1a2baff8	-0.014850594865002606
231	0x3fbe8a8baea6ddec	0.11930153860054532
232	0xbf7e341d9de6cdff	-0.007373920145642198
233	0x3f99cc7b1a0b98ac	0.025194095101050237
234	0xbf9c5b98a082b655	-0.027693161770619607
235	0xbfa2a03beccad65f	-0.03637873902827659
236	0x3fa06b416e720266	0.03206829522332981
237	0x3fc2ed0e55b28760	0.14785937485163014
238	0xbf3cc3df527e0e04	-0.00043892099574113796
239	0x3faf2649cd09e8d3	0.06083899143136908
240	0x3f784417af7c0ad8	0.005924313088828646
241	0xbf804d1c72a74b4d	-0.00795957779783909
242	0x3f9d5263cab7220c	0.028634604690326568
243	0x3f838fde1ecb3c06	0.009551749529604702
244	0xbfa6e32b7ef319d6	-0.04470191883733647
245	0xbf92da459207afbe	-0.018410765684094825
246	0x3fae286ac178b635	0.058902107350473555
247	0x3fce564510d8d10f	0.23700774500469676
248	0xbfb26f6fd01a9739	-0.07201289015446556
249	0xbf9c279a477b354e	-0.02749482213294146
250	0xbf94e9c7f24823ab	-0.020423053896624726
251	0xbf98f1dacf934fbe	-0.02436010257663645
252	0x3fc34a5d7039fcbe	0.15070693950472064
253	0x3fb067a90f5c5776	0.06408173203484843
254	0xbf99748456eb1634	-0.02485853939540146
255	0xbfb093e59a55664d	-0.06475672738943068
