weights/model2_l_saf_1_bn.pth (torch, 80196 bytes, 10 tensors)

fc1.weight f8 [128, 8]
-0.03562573354276559 -0.014113422917092673 0.06857617014283723 0.11310656654027133 0.2560524426611163 0.007367564147498566 -0.22473499294492996 0.028108845043343433
0.16700777819879517 -0.14679120341165877 -0.31078256723410386 0.19550297805946154 -0.1480704564429006 -0.26974730702066474 0.1461948819455061 -0.2443110098616871
-0.10148435065459809 -0.29014253417159197 -0.032258665073636186 -0.272548664787098 -0.277656442425029 -0.1897557311254227 -0.09094041698887455 0.061195731580209356
0.3128191503294671 0.1767379943584257 -0.02003638398994472 -0.08296855729861832 -0.31040475599079226 0.14841693071705442 0.2273171358956376 0.06063635316321763
0.050653133189949025 -0.10433374421518377 0.33304476953481477 0.19678553051557396 -0.028334278205995378 -0.0804803330172736 -0.12441641282475326 -0.11992741690158605
-0.17255698958935314 -0.1963926508658091 0.22213974409500037 -0.1867756680207286 -0.13308326718948688 -0.349640254265179 0.22010351061633743 0.19716972306552744
0.0500815058027877 0.29862484025076663 -0.10572344632545204 0.21244899083221463 -0.0509829848844947 0.3783701340969052 0.36341254202401335 0.2974563939013997
-0.06503504873953755 0.1268892326620956 0.28817450375095616 0.0743145810052798 0.12814531066055743 0.2872057647466532 0.09338801731484395 0.03210347965519908
0.2178800362931234 -0.022796014041752927 -0.3128629464205089 0.08878078416475885 0.15377661307561843 -0.3639920353645557 0.28033575699678565 -0.2678633899850416
0.033330700612575904 0.1493257651484595 0.18818648608389238 0.20898572701362447 -0.13045119705922545 -0.3125631696261839 0.015282973228312027 -0.12410251776130093
-0.04261128562556103 0.2667484659982116 0.18078800170246728 0.17134993519229413 0.3004994943118204 -0.07185290296922056 -0.09641741454571921 -0.3234974951099444
-0.1838808953067313 0.25268515073554954 0.2787825594235188 0.011022848665262533 0.22981071316455434 0.14851698042333145 0.1869522145392686 0.2366687998325999
0.24900121677566334 -0.08838882018474034 -0.036678789593722 0.1039254501972714 0.17619015566849527 -0.2866459008963955 0.24943195844233637 -0.14247735836800135
0.09339335094490311 -0.1852789428826113 0.11438832471093993 0.36240352256573455 0.06968302678985863 -0.08531785561180862 -0.07808144785948289 -0.26791195250281713
0.13682479239792641 -0.026044403581763135 -0.056833330244874886 0.267307372235097 0.20419456115576679 -0.09416866680262698 0.31580638120061705 0.11169665122479548
0.035320207677699327 -0.10239810010078262 0.15104516820930378 -0.010618575764652426 -0.25963739053365187 -0.08554973171926401 -0.21472766815625013 0.0756261300019164
0.008602727441617554 -0.28610949278614634 -0.22006481318028495 -0.25817821661724344 0.328242719357924 0.06974193849603944 0.037079970231972625 0.07751462802834085
-0.13427652981382385 -0.38393225145754617 0.15085721413581638 -0.038638724442859436 -0.26366437015313743 0.20572903662996675 0.3230825369152088 0.016143095987732364
0.03873188266586169 -0.3054077348353194 -0.16150760729166916 0.06694092121200876 0.3557214480658431 -0.21566368309920042 -0.2975587199631025 0.04734563762334329
0.3413744625259513 -0.3022061441207021 -0.21081606895887323 -0.3205087579952189 0.12937049261246653 0.2807941157668427 -0.20789768159889105 -0.13575129555130538
-0.06994143865062118 0.24268957593403276 -0.2764039603786403 0.22108987709259859 -0.2506109469613176 0.313918738206106 0.2796894737033309 -0.10435534987553585
-0.13454190520383524 -0.18978519190067733 -0.14945034668300394 -0.23291326385827096 0.33769438134913426 -0.2024593760889669 -0.14107496566452693 -0.19285639865845233
0.279615062246103 -0.03227356248336542 -0.3134984502718589 0.12120851055786305 -0.3300541276748467 -0.33147806400606294 -0.13377420002260054 -0.20917673611934207
-0.158368769573204 -0.0348968449642981 -0.10793595683998397 -0.040481894042876554 -0.055729113415551756 0.26720648014356885 -0.034467904835906 0.23679184654454727
0.3870505511418998 0.36029294942944207 -0.2740307438514214 -0.20050253926896183 -0.14201955892497592 -0.26667675819807 -0.14191211771679924 -0.29524922682982413
-0.3209700695350236 -0.07284498335696901 0.21876371831752253 0.2823568102259528 -0.2663553759508279 0.021949212377471786 -0.21280868859056343 -0.16951020210439607
0.150239092824675 -0.23934886012303644 -0.12806049960501834 -0.02649398325886788 0.2980153608787679 0.07340158155277056 -0.15982860453894782 0.3751285533924668
-0.06447807751329504 0.16583963055818027 -0.29219545547534603 0.2862552153521691 -0.15794002679236235 0.24091858861824478 -0.2567245702935577 0.05539829834018558
0.33586355965696524 -0.12156534519144993 0.1845032511950071 0.0579173891755513 0.11441046736172625 0.05918129969722461 -0.046471084286017324 -0.22981700122743962
0.03552361679143502 0.12545057479471716 0.23534684858099159 0.26373858764547653 0.2648366909827818 0.046870597985822805 -0.2518721831031803 0.2667695701155968
0.24395055119970485 0.11538743252767326 0.17724896451384406 -0.3048654605800857 -0.19495644253441216 0.3099072262025921 0.19119873420906303 0.12807314860600105
0.22336725788946712 0.11034502707143783 0.14738569372098856 0.03894340356605712 0.004638241777768302 0.02084220942187128 0.004154745228823895 -0.09564774835183881
00000000: f6a3 ec40 893d a2bf 6482 e88e 7fe7 8cbf
00000010: 1865 0c38 358e b13f 23d9 404c 8df4 bc3f
00000020: 1396 d2c8 2963 d03f c5f6 0871 732d 7e3f
00000030: cd8d 7bc2 1dc4 ccbf 200a c2a8 90c8 9c3f
00000040: 234e c5c8 8260 c53f e92c ffdc 0dca c2bf
00000050: 51fe 9b90 dce3 d3bf 6a9b 84d8 3d06 c93f
00000060: d388 f603 f9f3 c2bf f29e 7535 8a43 d1bf
00000070: 3736 668e 83b6 c23f 9d4f b44a 9545 cfbf
00000080: 0b07 1edf e0fa b9bf e483 dcfd b191 d2bf
00000090: 32fd 012f 3584 a0bf 330f 75f4 6f71 d1bf
000000a0: 294f ef86 1fc5 d1bf eec4 b471 ea49 c8bf
000000b0: cf10 da04 df47 b7bf f865 9503 0c55 af3f
000000c0: 7d90 0e9d 3a05 d43f f672 ddc0 599f c63f
000000d0: ce1d def7 6a84 94bf 52a1 3168 6d3d b5bf
000000e0: 4736 e0e8 abdd d3bf f81c cd73 53ff c23f
000000f0: cffe 3e58 ba18 cd3f 97c7 9163 ba0b af3f
00000100: 5145 fb1c 35ef a93f 6400 46c3 9db5 babf
00000110: 7260 5002 9b50 d53f a2f8 f1ac 4430 c93f
00000120: 3087 0039 a903 9dbf edc6 47ee 5b9a b4bf
00000130: c9fe 2a08 c1d9 bfbf 116f 7c2d 90b3 bebf
00000140: 0bc2 7df1 5816 c6bf ce5a 52f6 6423 c9bf
00000150: a8d1 033c 136f cc3f e635 ebdc 43e8 c7bf
00000160: 6aa1 1c5c df08 c1bf c6c7 5b84 8160 d6bf
00000170: 9a7d ea11 5a2c cc3f eaf5 2984 db3c c93f
00000180: 8164 1d7b 48a4 a93f fa9d a95c ab1c d33f
00000190: e762 6318 b110 bbbf fea5 d84d 8731 cb3f
000001a0: bf75 7619 711a aabf 8bad ee5d 3737 d83f
000001b0: 5dc2 bcad 2642 d73f 0dba f28a 8609 d33f
000001c0: b619 6e0f 23a6 b0bf 2fc6 3f08 e83d c03f
000001d0: 4fb0 4979 7371 d23f 4a9b 08c7 4706 b33f
000001e0: 1720 36c7 1067 c03f 97cf b349 9461 d23f
000001f0: 0a9e 34f0 46e8 b73f 5cec 6906 de6f a03f
00000200: e645 2a37 7ee3 cb3f c568 279b d657 97bf
00000210: fd66 c04e f205 d4bf 4639 8064 56ba b63f
00000220: a153 06ba f3ae c33f a64b f93f a54b d7bf
00000230: 97d6 0c63 05f1 d13f 3d03 f27c ac24 d1bf
00000240: 4de5 2aba b810 a13f c3a3 e14e 1b1d c33f
00000250: e6c5 a3a9 7e16 c83f bb59 6d57 0bc0 ca3f
00000260: 57f5 8bf4 9fb2 c0bf bca0 def3 0801 d4bf
00000270: a825 9cf1 ad4c 8f3f f4d3 22bf 2ec5 bfbf
00000280: ce93 677c 25d1 a5bf 751c 6e28 6812 d13f
00000290: 0220 69ad 0f24 c73f b44b e96f cbee c53f
000002a0: e329 223b 623b d33f 621e 60ac f364 b2bf
000002b0: fb1d 3dca cfae b8bf ca72 75d6 2eb4 d4bf
000002c0: 62ce d9bf 6889 c7bf 5a04 a656 fe2b d03f
000002d0: 02d4 dacd 92d7 d13f db5e 35b4 2593 863f
000002e0: 17f6 a7fc 6f6a cd3f 16d1 e8ba 9a02 c33f
000002f0: 1933 aed7 0cee c73f fbdd a1c9 294b ce3f
00000300: 6c9b 5b99 45df cf3f 2686 0654 a6a0 b6bf
00000310: e717 86f3 8fc7 a2bf 68c1 d1b9 db9a ba3f
00000320: 4896 3c26 668d c63f 7c7a 780c 6858 d2bf
00000330: f924 0bec 62ed cf3f 7c36 4eb5 b23c c2bf
00000340: bae2 f86b a0e8 b73f fdbc 286c 38b7 c7bf
00000350: c67e ada1 8d48 bd3f 7500 588b 9e31 d73f
00000360: 7a13 2631 bfd6 b13f f118 9e17 64d7 b5bf
00000370: 3f16 fb50 25fd b3bf 3541 8d2c 7825 d1bf
00000380: 57c7 508c 7983 c13f d18e 8256 62ab 9abf
00000390: 5cf2 721d 4219 adbf 25af 6e61 901b d13f
000003a0: 0ab1 1721 0c23 ca3f f4a6 3910 701b b8bf
000003b0: 0ffc c7f7 2b36 d43f 934d 15d8 2698 bc3f
000003c0: e72f ba81 7d15 a23f 36fb 1a0b c336 babf
000003d0: 73c1 d6b4 7255 c33f 063f 1d1d 31bf 85bf
000003e0: ca4a 4a25 e69d d0bf b572 ea53 96e6 b5bf
000003f0: fd82 233c 327c cbbf 76ce 14eb 3b5c b33f
00000400: 612b 2588 4e9e 813f 89dd a530 9e4f d2bf
00000410: c909 ce73 152b ccbf 5348 3aed fd85 d0bf
00000420: 83b6 32c0 ed01 d53f b408 0091 9bda b13f
00000430: a048 f756 25fc a23f 67e4 57a8 ffd7 b33f
00000440: e3da 152c f92f c1bf a2f2 f893 5892 d8bf
00000450: ae1c 8a08 4a4f c33f a1b6 ae73 74c8 a3bf
00000460: 0967 bb85 e0df d0bf cbe6 143e 5455 ca3f
00000470: 0369 7d60 62ad d43f 6843 4bd5 d087 903f
00000480: 8f8a b952 aad4 a33f 6f0a 44e2 cc8b d3bf
00000490: 2dbc af01 48ac c4bf 06a4 5e4b 0a23 b13f
000004a0: 816d 7be4 23c4 d63f de48 ec18 de9a cbbf
000004b0: b964 b8ba 330b d3bf 6cab 66fa af3d a83f
000004c0: 3744 0f46 14d9 d53f f283 6970 5857 d3bf
000004d0: 7227 d35c 05fc cabf 61f2 6a2a 3783 d4bf
000004e0: 0e42 6b59 368f c03f 532e 08e2 87f8 d13f
000004f0: 9ed3 b027 649c cabf 8828 6467 4c60 c1bf
00000500: 5fbd a39f aee7 b1bf 6dbf dbb7 7310 cf3f
00000510: b7e9 933c 9ab0 d1bf 7e70 cb4f ac4c cc3f
00000520: 14fb 4d7f 020a d0bf 8d98 8c9e 3e17 d43f
00000530: 2dd7 a5ad 6ee6 d13f d0c8 e03e 08b7 babf
00000540: 6860 654d ab38 c1bf 443f 3d94 e14a c8bf
00000550: 008f b05f 3021 c3bf d9b6 8911 1ad0 cdbf
00000560: bdff fbe4 c89c d53f f40b 8957 30ea c9bf
00000570: a81f e895 be0e c2bf 6efc 87ba 84af c8bf
00000580: 9e39 f492 36e5 d13f 5e6e c80e 2986 a0bf
00000590: 8fea d0cd 5b10 d4bf cec7 d75c 8507 bf3f
000005a0: 577d 1159 9b1f d5bf fad5 0fc5 ef36 d5bf
000005b0: 10a4 1253 831f c1bf 6cb9 5ba4 4dc6 cabf
000005c0: 6c28 0387 6d45 c4bf 5de2 b5cf ffdd a1bf
000005d0: dcb0 b0dc b0a1 bbbf d813 fdf5 0aba a4bf
000005e0: e017 1cbf 8688 acbf dabc 5f35 e919 d13f
000005f0: 7f4f 10f8 c6a5 a1bf d623 6ffa 314f ce3f
00000600: 3468 c3ac 6fc5 d83f 71d8 b128 0a0f d73f
00000610: a52f bc3e b889 d1bf 366b 7634 11aa c9bf
00000620: 9ed0 7c68 b22d c2bf c018 c464 3b11 d1bf
00000630: f8f7 3f20 2d2a c2bf fcd0 5903 5de5 d2bf
00000640: 1a75 e90b c68a d4bf fa22 3205 f8a5 b2bf
00000650: 95d0 dc13 7300 cc3f 4c4b 6e4c 2212 d23f
00000660: 54a5 346b f70b d1bf 7438 56b5 da79 963f
00000670: 0b8b e6aa 503d cbbf bd38 30a3 82b2 c5bf
00000680: be9f 21db 083b c33f df1a 48c3 fba2 cebf
00000690: c142 db54 4964 c0bf 63e9 8c1e 3d21 9bbf
000006a0: 3c84 2b05 af12 d33f 696b 3e30 72ca b23f
000006b0: 7ee4 ba82 4375 c4bf ab73 2731 1b02 d83f
000006c0: 9882 3aa2 a281 b0bf cb65 d0a6 3b3a c53f
000006d0: a39c 5391 54b3 d2bf e7ce 0f65 0152 d23f
000006e0: 4aba e6f8 6037 c4bf 4892 8e99 6bd6 ce3f
000006f0: 1564 5fe4 2c6e d0bf 6b13 406f 2a5d ac3f
00000700: 9444 29df c97e d53f 3a9a ec0d e81e bfbf
00000710: 78b1 f172 cd9d c73f 9be4 c118 59a7 ad3f
00000720: 2a81 a31f 014a bd3f 4dfd 77e5 024d ae3f
00000730: 51ab 6fd6 0ecb a7bf 2f17 2bbc a46a cdbf
00000740: e2ae b5c8 2630 a23f b6fc 00b2 c30e c03f
00000750: 729e ef74 d81f ce3f f45a 28d0 17e1 d03f
00000760: 6d52 a397 15f3 d03f fd73 fc4a 6cff a73f
00000770: 71d1 4c81 ac1e d0bf d5b9 cdac c012 d13f
00000780: 4f38 9f8b c539 cf3f 3965 13e1 078a bd3f
00000790: 131d eb14 18b0 c63f c2c5 b76b ea82 d3bf
000007a0: 0137 6a2c 55f4 c8bf a763 551e 85d5 d33f
000007b0: 7675 3b3b 3379 c83f 4417 6170 b364 c03f
000007c0: 6df4 d05d 4c97 cc3f ab4d 8c5a 923f bc3f
000007d0: 9107 37cf 88dd c23f 361b 6cc9 63f0 a33f
000007e0: 987b f18b 8cff 723f 568f 5fff a857 953f
000007f0: a49e 18ee 9004 713f 8470 1bef 5e7c b8bf

fc1.bias f8 [128]
-0.028298198165652762 -0.07764559382748597 -0.26100555831776356 -0.07142557080345151 0.3660597825968123 0.04519496427237544 0.1751814846634515 0.27683168954193643
-0.14422820082897986 0.24031779733938097 -0.1564037164758874 0.012515740745886244 -0.1877805427089735 -0.05111274290268993 -0.11313881259471802 -0.3498595767399954
0.25986675102505563 0.2109548615429163 -0.1975611156862101 0.3541098965485963 -0.22141978748000868 -0.2310413968100422 -0.18134479510971402 0.09852678694449309
0.04371189145492763 -0.18151512695319055 -0.10451414621388028 -0.0785777561368912 -0.14250142058796114 -0.011799303663650668 0.03355930407166613 -0.1360066001971457
-0.2641478216614198 -0.225710914773701 0.3358155302313014 0.15261317598063642 0.1397530674255578 0.28226919187362015 0.09806636616986697 -0.1821533157576538
0.2396780539370791 0.2790187431244618 0.09204491113595467 -0.3090155826978369 0.08537766158285436 -0.11500451447008075 -0.020578428519878095 -0.1542560447829935
0.29296864285567237 -0.24276845548982431 -0.2774200256915894 0.042967381702308044 0.151613947894755 0.17188633816890037 -0.0858653305806859 -0.21175419992942357
0.14107495934901548 -0.10960480959983504 -0.21623726314250058 -0.03986557296361216 -0.07869103216822754 -0.31104884923294035 0.013800987595196377 0.01014923131681466
0.10241774797017435 0.1683904433034431 -0.15581547748131136 -0.08131777748008578 0.3333345497816695 -0.07838432483657211 -0.06178386042798967 0.05814104320238345
-0.3373850429957115 0.09616795934092566 0.21482520693971374 -0.19306638742094767 -0.04095150222524446 -0.008142031586437549 -0.25298405394284074 0.27463011742903304
-0.34020348654888916 -0.10376840377358867 0.33451073597280717 0.12557025774582065 0.03165964164890965 -0.021526627861162165 0.3261115299974397 -0.02349201771553063
0.24251105065201367 -0.038591168586990486 -0.08717840488885434 -0.0803009835240749 0.04715652791923015 0.13416344946009043 0.09777822939956611 0.023677644895310036
0.1298494495302748 -0.2984800264712461 0.11216856267260648 0.0817831421762974 0.16390905174686973 -0.28483992839058464 0.03472358887484675 0.23556197571158835
-0.3226628296512109 -0.14806997212067238 -0.2740101014030514 -0.27511099348696794 -0.050031027386514104 0.212465676691177 0.20600353322362078 0.2883993030322786
-0.3196434372737889 -0.2764347730424818 -0.2907615622385106 0.04323485539204449 -0.24327348188397727 -0.09038332995176451 0.040204400989933185 -0.10020543585419103
-0.01942063795055367 0.19242824674233602 -0.023376790118907094 -0.143905900646279 0.10473560944949631 -0.3063682132639473 0.05954234163839738 -0.3410737655787939
00000000: 8ffa a0ee 33fa 9cbf abe4 2ae6 94e0 b3bf
00000010: 1123 43a8 50b4 d0bf d3ee b23a f248 b2bf
00000020: 6396 a802 866d d73f 9dcb fc5a cb23 a73f
00000030: 9343 bfcd 586c c63f 070f 4543 9cb7 d13f
00000040: 7656 dcd6 1176 c2bf 3415 1ccc bbc2 ce3f
00000050: 3a4f 9e77 0905 c4bf 83a7 8249 daa1 893f
00000060: 554d e15c 3109 c8bf cb10 5a0e 732b aabf
00000070: 87a9 004c aaf6 bcbf 8b9a 126c 1964 d6bf
00000080: d81a 3e27 a8a1 d03f 0328 a1a3 9100 cb3f
00000090: 9ab1 6ac1 ae49 c9bf 3d6f 378e bca9 d63f
000000a0: ecfa f4cc 7b57 ccbf 0820 a9b5 c392 cdbf
000000b0: b8e4 2566 4e36 c7bf f5e0 b42f 0d39 b93f
000000c0: f58c 7db0 6761 a63f 8a22 ff3e e33b c7bf
000000d0: 0c3e f567 70c1 babf 0f0f cdfc ab1d b4bf
000000e0: e187 878e 7c3d c2bf 3dc0 ceba 3b2a 88bf
000000f0: 18bc ed62 af2e a13f 8b85 f10d aa68 c1bf
00000100: aa1b d643 cce7 d0bf 2dd2 a662 18e4 ccbf
00000110: 0a45 f56b 007e d53f 7144 e31b d488 c33f
00000120: cfe1 0db3 6de3 c13f bbfe f0cc b210 d23f
00000130: f881 899b e01a b93f 30bf 04c3 cc50 c7bf
00000140: 5945 9d3d c5ad ce3f 9932 2c6e 71db d13f
00000150: 3e97 175b 4190 b73f dc0f 694b e9c6 d3bf
00000160: 33ac 4e78 4fdb b53f 4896 8a94 ef70 bdbf
00000170: 58da fbf5 8212 95bf 81d1 c67d a9be c3bf
00000180: 3864 f48c ffbf d23f 1d24 6a68 0913 cfbf
00000190: 6e74 66ec 3fc1 d1bf 0c8e 6916 d2ff a53f
000001a0: 63a7 e9f9 1568 c33f 9645 881c 5f00 c63f
000001b0: 584b b432 45fb b5bf 0c67 bef9 c21a cbbf
000001c0: 7022 5888 be0e c23f 7431 b790 0f0f bcbf
000001d0: acd1 afa2 a9ad cbbf 61e3 3aa8 4269 a4bf
000001e0: 54a9 a671 1825 b4bf 8f7d ba6e 39e8 d3bf
000001f0: 9faf fd32 b143 8c3f bc9b aec4 1ec9 843f
00000200: a9d6 0fae 0c38 ba3f d83e 796b d18d c53f
00000210: ee15 fff5 c2f1 c3bf 7441 dcea 3dd1 b4bf
00000220: 1b1b 7c6f 5a55 d53f a12e b1bf fe10 b4bf
00000230: a0ed ea57 22a2 afbf 4018 38ae a9c4 ad3f
00000240: 64df 746f b797 d5bf 5dd6 4aa0 769e b83f
00000250: e4cc 1473 647f cb3f de04 f73d 66b6 c8bf
00000260: 201a 8f65 98f7 a4bf 7a0f 18fb c4ac 80bf
00000270: 1c04 8607 e430 d0bf 73ad 3633 8a93 d13f
00000280: 239c 2dd8 e4c5 d5bf d2d0 90ec 9090 babf
00000290: 9380 cab7 9f68 d53f f82d 2fab af12 c03f
000002a0: 1e65 f84a b135 a03f 519e a08a 130b 96bf
000002b0: 6f00 0ce5 02df d43f 3695 389f 4a0e 98bf
000002c0: 2208 bc23 9a0a cf3f 4bb8 fdbd 38c2 a3bf
000002d0: 6a42 eaed 5251 b6bf c191 12f2 9a8e b4bf
000002e0: 6979 6982 e624 a83f 1df4 df95 442c c13f
000002f0: 0d2c 8879 fe07 b93f 4dfa e2d9 f33e 983f
00000300: cd6c 9121 e89e c03f 7f01 0df8 4b1a d3bf
00000310: ab73 5134 14b7 bc3f 94e5 0271 bdef b43f
00000320: efb5 62c8 f8fa c43f 2f15 4240 d13a d2bf
00000330: c403 3c4d 4ac7 a13f b963 ee12 e526 ce3f
00000340: 3d27 3fff 81a6 d4bf df92 e3f3 f4f3 c2bf
00000350: 182f 13aa 6189 d1bf 6ffb f223 6b9b d1bf
00000360: 801a d2b4 aa9d a9bf 689f 7446 1332 cb3f
00000370: c127 07e3 525e ca3f 039f ad59 2275 d23f
00000380: 7134 5ebf 0975 d4bf 0375 6c79 1bb1 d1bf
00000390: aee3 2f62 d69b d2bf 9b88 e903 e122 a63f
000003a0: 597e 56e0 9523 cfbf 7414 3fa6 5c23 b7bf
000003b0: a366 d0d6 ab95 a43f 8e0b e03d 10a7 b9bf
000003c0: b5d8 75f3 00e3 93bf b3df 4a21 7da1 c83f
000003d0: 1245 2fd4 15f0 97bf ae14 7d30 826b c2bf
000003e0: 56ed 4ff1 f3cf ba3f b72a 206c 899b d3bf
000003f0: a7db 2074 557c ae3f b0ce 2b0f 27d4 d5bf

fc21.weight f8 [32, 128]
-0.011529409983523881 0.07546142015079897 -0.0007833186212723896 0.0455776904285366 0.048971511852849405 -0.06177460136117324 0.04175390127499923 -0.09200222010816361
0.004623280974564875 0.08835166733725455 0.07274950611188082 -0.00277063659635962 0.04428366791591863 0.005114279376945618 -0.06524163503627227 0.008375125474916666
0.018752732821670493 -0.07508752908871622 -0.041107542476880074 0.08014534444894345 0.03891157672980682 0.08767552992228894 0.09379315765087567 -0.018826361179351905
0.05377395789422581 -0.07658242624509357 0.06954324904728729 -0.002073294154220949 0.07330794315422316 -0.06230265082261857 0.032436820412487 0.029984490206992422
0.05998775242209202 0.1160013234680933 -0.10508326074899219 -0.03336915890093583 0.01218553154833515 -0.03514339505494165 0.062497844247736065 0.02364113728660677
-0.0290626492063487 -0.015094343631222605 0.061606160040673597 -0.043491459958118824 -0.05412219891122876 -0.02021454184918666 0.056547782566877904 0.07382284441870571
0.017624933601073044 -0.049986001452966985 -0.08921805364224197 -0.04873741453673596 -0.10306495604918922 -0.04504238717714778 0.05863566594459276 -0.053436125940234135
0.10523637435998988 0.05154511947960563 0.08172486123544562 0.005932743794715021 0.048630495706684616 0.048236982562769176 0.008463139027330967 0.04848387673611173
0.05601589238554897 0.008902667677203492 0.07548376993181231 0.021100415735534443 -0.13079070676223017 -0.06650850195640264 -0.040738573579259744 -0.04465409116456537
0.10355145181282573 -0.10083272331641573 -0.014710374808965792 0.020025430359930457 -0.0012926982308739824 0.03490270515431458 0.05923599670237674 0.04816348692028177
-0.09571349751354295 -0.03197297439062689 -0.04180062101203188 0.051319684110468826 -0.0965798958562553 -0.04829861682685619 0.05324260615096392 -0.0725088072246256
-0.0625462893044838 0.11705345193630533 -0.048026525073251766 -0.06015143378455584 0.07695484815867998 -0.05015837184672966 -0.04301379103842506 0.014991957672382112
0.010626649323250931 -0.002658802624226054 0.026155053363789278 -0.05589373837172995 0.054369220975161774 -0.06640054005011073 -0.04627419736477669 -0.055491784356439956
-0.0003393901058050946 -0.03571177053359578 0.009218478064550131 0.05953654075585379 -0.07375504059123228 -0.0032263927641445886 0.10232881682596681 -0.07025540896861429
0.029769118503972514 -0.08270026367216815 0.004857282086990153 -0.07552134296044427 -0.13739827272220645 0.002674434792085846 0.048985891981930055 0.00192813172671965
0.06423983648361971 0.04412108988411754 -0.01467937842055368 0.04722653405788431 -0.0964298074814438 -0.03803974103264716 0.007660952308178652 -0.0006235990084650856
0.05368766042237112 0.06284489671530887 -0.12143323453415514 0.09344971538559006 0.02530672133197164 -0.03181170803357277 0.09271276569990189 0.02204964778589172
0.05178175175767952 -0.04732337230537088 0.013800006987616706 -0.04684438661290566 -0.04688795159595588 0.030838035822715715 0.018208192403274093 0.010339517961840107
-0.08196930935076388 0.04575463147922569 -0.010691867465935364 -0.04370144837306802 0.06503407121685746 -0.04634144483790244 0.09382726115655456 0.00781811111410865
0.09755439760015484 -0.005166329679670739 -0.05210236028693074 -0.04168049800767978 -0.06919789008509952 -0.03026954460717615 -0.006367686853495319 0.03248356634681297
0.006974192923911006 0.06795225532503221 0.028715346495529773 -0.013414182338210968 0.056275880577953276 0.033049031818164015 -0.01345053645069973 0.015361655426503456
-0.04782823530198085 -0.03443961279669997 -0.05657373359298619 -0.09052602314555118 0.05001465838580968 -0.04317127915177639 0.030132709476844547 -0.045981473468827354
0.01836777134088508 0.0110487066480262 -0.04100942681648422 -0.07405717662214531 0.0050116970814857885 0.0284229237401262 0.055073280799781674 0.10613432597282436
-0.011479015705192597 -0.07634884248515682 0.04118797356313476 -0.0027848441557794274 0.01883321147710895 0.07331141990318678 -0.016460471809202033 -0.06625290089102803
-0.038066029446703294 -0.04001349775528585 0.05633890418875403 0.07763358984610345 0.05128143768696078 -0.038487218734673666 0.052516201282673966 0.04696713517954086
0.05649543988341882 0.036452934569907246 -0.08986224938172006 0.0481360533813299 -0.028027888505158385 -0.08639132618065164 -0.038849451897896556 0.013021888406432007
0.062389688522133974 -0.07761027048772472 -0.012889711223208353 -0.07356031347130652 -0.12125317204788069 0.059600989145327236 0.009324234621552345 -0.004763215718440994
0.026359249122605875 0.04455924779292695 0.00313943300871932 -0.034563194229983656 -0.00655621480298609 0.027788322574092778 0.07598204084675705 -0.08839652541213754
-0.05182235437620371 -0.035631018709479614 -0.04445786666374372 0.061650405487146995 0.019502027174762546 0.016880664597453514 0.0028453227084676547 -0.01486384885326237
0.028098023681923292 0.0663295407753371 -0.072317834495874 -0.02668340490194127 0.07581547944693777 -0.1087474140524684 -0.010714572533653061 0.042834690067632485
0.05663501409883177 -0.0058462152372837535 -0.11108521342120437 -0.03202307759468008 -0.016247478708653618 -0.04134903060492851 -0.08165038910167467 -0.07443763792663055
0.05182343289391095 0.025893420042281137 -0.08281018148628999 0.03095575421414597 0.011771087072375203 -0.030412891889408607 -0.00507540177562536 -0.060552755404648606
00000000: ea3f 9236 bb9c 87bf 2b4b a88b 7051 b33f
00000010: a3d5 2bee f3aa 49bf a8b3 a283 f555 a73f
00000020: cdf4 af43 cb12 a93f 98ac 23a9 eba0 afbf
00000030: e0be e970 c460 a53f 0022 861e 758d b7bf
00000040: 7a27 6089 dcef 723f 5ab5 c201 379e b63f
00000050: 61f9 8c2d b69f b23f 7d40 4132 72b2 66bf
00000060: 3e3f e452 59ac a63f e658 aaea b5f2 743f
00000070: db7f d100 adb3 b0bf ec07 1e50 fa26 813f
00000080: 6d03 b898 ea33 933f 1a03 c6b1 ef38 b3bf
00000090: 3e40 1d3d 0c0c a5bf dcb9 55c1 6784 b43f
000000a0: 8f0a fbda 37ec a33f b4fa ac4d e771 b63f
000000b0: 1ef7 b210 d402 b83f e7a1 45b6 3747 93bf
000000c0: 037a 109d 4288 ab3f 3ec7 2be8 e79a b3bf
000000d0: 8ad0 501c 96cd b13f cab5 cb52 03fc 60bf
000000e0: 0f69 6232 4fc4 b23f 6479 790f 22e6 afbf
000000f0: 0539 b715 8f9b a03f 5718 4e13 41b4 9e3f
00000100: e679 a0f5 b6b6 ae3f d692 9642 43b2 bd3f
00000110: 5e22 4690 bce6 babf 2f5e 592c c315 a1bf
00000120: cd34 e05b baf4 883f 2bde dca8 50fe a1bf
00000130: 6ea3 3aaa b7ff af3f 3fe4 f1dd 6135 983f
00000140: dd6b 815f 99c2 9dbf 2c68 0182 c8e9 8ebf
00000150: 18b3 36b5 d78a af3f d9cf 593c 8344 a6bf
00000160: 3767 9fa4 e7b5 abbf 9661 95f0 1eb3 94bf
00000170: 6576 92b9 d4f3 ac3f 92dd 79ce 0de6 b23f
00000180: 93a3 a445 450c 923f 6621 ffe2 c397 a9bf
00000190: 1e30 9b8e fed6 b6bf afc2 0d43 1cf4 a8bf
000001a0: 524e 9807 7762 babf 0b20 b8b7 cb0f a7bf
000001b0: 1bf0 3877 7e05 ae3f 2b2e adda fa5b abbf
000001c0: 07cc 3962 c5f0 ba3f f4db dd34 1f64 aa3f
000001d0: a6c0 46a6 ebeb b43f 317b 2ec9 ee4c 783f
000001e0: 6b05 4ca9 18e6 a83f 8c2f 218d 84b2 a83f
000001f0: 3948 c04a 1f55 813f bb06 eef1 e0d2 a83f
00000200: 0552 b473 1dae ac3f 817c 2ad4 8f3b 823f
00000210: 6365 3c83 e752 b33f de82 10ee 589b 953f
00000220: 7d0e 15f8 bfbd c0bf 0d07 cf80 b306 b1bf
00000230: f7ce 6ab2 afdb a4bf 186b 5eaa e6dc a6bf
00000240: bd49 fd12 5982 ba3f 23b8 0261 2cd0 b9bf
00000250: 5635 bb15 7920 8ebf 28d9 efe1 8b81 943f
00000260: 444a 0328 f82d 55bf 2e03 5c72 c4de a13f
00000270: fa53 2a39 2e54 ae3f 982c 5e72 e2a8 a83f
00000280: ef3f 9b05 ae80 b8bf 3628 bafe c25e a0bf
00000290: 43f9 6518 e466 a5bf df80 cad9 9246 aa3f
000002a0: 0b59 27c6 75b9 b8bf 7d40 6da7 98ba a8bf
000002b0: 662a 5868 9d42 ab3f f0a4 b3eb ef8f b2bf
000002c0: 8885 0c9b 0803 b0bf 6f49 f30b 37f7 bd3f
000002d0: 8e6e 0fc5 ee96 a8bf d808 d331 2bcc aebf
000002e0: 8434 1c1c 50b3 b33f 4f95 67ad 5bae a9bf
000002f0: 6ff3 9253 e705 a6bf 2a47 3f7f 1ab4 8e3f
00000300: eab2 79ba 6cc3 853f 4f88 29ca e9c7 65bf
00000310: 355a 4aeb 63c8 9a3f 602c b7a4 1a9e acbf
00000320: 57a0 fe53 48d6 ab3f e6b3 f333 a0ff b0bf
00000330: a325 a968 40b1 a7bf 5de3 034e 6b69 acbf
00000340: eb50 af67 053e 36bf 5450 0c2d d048 a2bf
00000350: 88f7 722e 23e1 823f ef3d edce 927b ae3f
00000360: 9826 413f 9ce1 b2bf de60 fe6c 3c6e 6abf
00000370: feb5 b4a9 3832 ba3f 5226 e32b 42fc b1bf
00000380: b009 9fb9 cb7b 9e3f a4b0 d72f d82b b5bf
00000390: 3d8a 60bb 3ae5 733f 8444 2ae2 5d55 b3bf
000003a0: b633 ef3f 4496 c1bf 0311 f43e b2e8 653f
000003b0: f238 0ec8 ad14 a93f 635f 5aad 2b97 5f3f
000003c0: 352b cc9c 0572 b03f 7d79 3b1c 0a97 a63f
000003d0: 0762 efd1 3810 8ebf fa67 9086 132e a83f
000003e0: 6f0c 7eb5 9faf b8bf 7df7 5de7 f179 a3bf
000003f0: 85e0 ea39 1761 7f3f c33f 70ac 206f 44bf
00000400: 0af9 6cf3 f27c ab3f 25dd 1c68 9a16 b03f
00000410: f2c0 f89a 3f16 bfbf 65d0 660f 52ec b73f
00000420: 1d8f f551 01ea 993f 2ba8 44cb 9f49 a0bf
00000430: 6450 9a18 06bc b73f 28d0 83d0 2e94 963f
00000440: a05b a844 2383 aa3f f1a7 c6e0 c43a a8bf
00000450: 6b32 9295 2d43 8c3f 2cd9 01c9 fcfb a7bf
00000460: 18b4 5c95 b201 a8bf 2065 538d 0194 9f3f
00000470: e0ba 901b 2ba5 923f d422 059c e22c 853f
00000480: d2ee efce f0fb b4bf 6607 b0ab 266d a73f
00000490: 9e7c cb28 9ee5 85bf 83ae 1947 0960 a6bf
000004a0: 198c 00a9 12a6 b03f 7a6d 0edc 10ba a7bf
000004b0: d501 243a 1005 b83f 6da8 691c f102 803f
000004c0: a90d 4633 53f9 b83f 468e 3b10 4a29 75bf
000004d0: 141c f41a 29ad aabf 6be0 a56f 2557 a5bf
000004e0: ec21 def2 f3b6 b1bf 474c 9cc0 fafe 9ebf
000004f0: 8645 97ec 0015 7abf 76e8 3b9e afa1 a03f
00000500: 8e17 63a8 f890 7c3f fe79 4faa 5165 b13f
00000510: a4ce 5d48 8e67 9d3f 67c3 8f13 e578 8bbf
00000520: 1d96 4535 31d0 ac3f e49e a57d cdeb a03f
00000530: 4af4 5a71 f48b 8bbf 76a1 5a7d ee75 8f3f
00000540: ab11 e544 f17c a8bf 4526 4ca5 11a2 a1bf
00000550: 4a61 307f 3bf7 acbf 53da d8a4 b62c b7bf
00000560: 64e2 2c74 859b a93f faae 2ac0 8b1a a6bf
00000570: 21bf f8e6 1bdb 9e3f a77f 8a39 e28a a7bf
00000580: 2189 d644 00cf 923f 5c20 bb4d b4a0 863f
00000590: 7f4e 0206 30ff a4bf 4a4f a03f 69f5 b2bf
000005a0: 33c1 ff30 2587 743f 18a3 ae1f e61a 9d3f
000005b0: ee43 d6a7 9032 ac3f e949 0983 9e2b bb3f
000005c0: ba42 5a68 4f82 87bf 0fab 8f05 998b b3bf
000005d0: f164 e20e 9716 a53f 445a 5ad2 3dd0 66bf
000005e0: 67c8 7d6d 0349 933f 9f52 e886 89c4 b23f
000005f0: 3596 6390 03db 90bf 8493 973a f3f5 b0bf
00000600: e9d3 1fff 637d a3bf f1d9 8330 a67c a4bf
00000610: d762 f7ed 73d8 ac3f 97c8 7581 cbdf b33f
00000620: 7cc4 8383 8f41 aa3f 6310 8fc3 98b4 a3bf
00000630: 8ed9 094e 67e3 aa3f fe76 2a8b 130c a83f
00000640: 2847 5865 f8ec ac3f 6b57 a483 f5a9 a23f
00000650: d14e 3d5e 3601 b7bf 7509 10ee 49a5 a83f
00000660: 47b9 05c2 57b3 9cbf 9b9d 9af0 bd1d b6bf
00000670: 5eec bc4a 13e4 a3bf afc9 b346 38ab 8a3f
00000680: 7cd1 9e8f 8af1 af3f 0718 9445 44de b3bf
00000690: 38bd 44c1 eb65 8abf 8f8c a444 d9d4 b2bf
000006a0: 625e 7ba8 720a bfbf 177a 6056 0584 ae3f
000006b0: 1c11 1496 9518 833f 2680 c0fb 9782 73bf
000006c0: 79ff b643 ebfd 9a3f ed8c 0240 78d0 a63f
000006d0: eebd 3643 deb7 693f 0fe5 b959 44b2 a1bf
000006e0: 1649 a182 b0da 7abf d86b aac2 8a74 9c3f
000006f0: 0e29 851c 8f73 b33f 53a4 b999 27a1 b6bf
00000700: 9aba 7eaa 7588 aabf 7227 2998 3a3e a2bf
00000710: 6dcd bd76 2ec3 a6bf 6672 b456 a490 af3f
00000720: 796b afe3 56f8 933f 7ef2 8539 2a49 913f
00000730: 7b87 57ff 124f 673f e455 bd05 f070 8ebf
00000740: 4733 2f73 bac5 9c3f 8586 6308 f9fa b03f
00000750: 36cb 13ee 6b83 b2bf b15b 99fd e452 9bbf
00000760: 0752 c1ac a468 b33f 9c42 e1da ded6 bbbf
00000770: 0a35 fb94 85f1 85bf 0b16 f3b1 6dee a53f
00000780: b1d8 b9ba 43ff ac3f d4fe fd73 33f2 77bf
00000790: c097 b69e 1470 bcbf 360c f92d 5465 a0bf
000007a0: a0d4 c8d6 2da3 90bf e9c4 563c b32b a5bf
000007b0: e1b9 e536 0ae7 b4bf 9482 7c54 580e b3bf
000007c0: a83f e4da 9988 aa3f 4481 0d01 ce83 9a3f
000007d0: ac6a 424d 0c33 b5bf 1d1e e47f ddb2 9f3f
000007e0: 501f 1d90 701b 883f f2cb 2aa0 8e24 9fbf
000007f0: edf5 3eca f1c9 74bf 0893 4a50 c500 afbf

fc21.bias f8 [32]
-0.042991417750377625 0.09577584888111387 -0.07781570329023613 -0.015684461798417284 0.08030479735787868 -0.02425199195449088 0.009527062910184066 0.04341144910960259
0.1130237419179396 0.0070868274928290054 -0.10480833712667992 -0.00893773440304125 0.06779254684912348 0.06679865344749146 0.051855492322908966 0.0376014751374354
-0.05663524516025928 -0.019871849945791286 -0.04866869724514146 -0.030685576574081202 -0.04311429672581218 0.08508369921340743 -0.08617480573408899 -0.008785590970754936
0.06928386583178923 0.024000140804875614 -0.031936134699279015 -0.06142748244658182 0.058136871295574946 0.07000167099765618 -0.0035386140806939453 -0.04892610016176597
00000000: 403b 7e9a f802 a6bf d6e6 b01a c484 b83f
00000010: 882e bfdc baeb b3bf b712 eb69 960f 90bf
00000020: da2e 5dee da8e b43f 59c5 3aa1 83d5 98bf
00000030: 1e68 02bd ec82 833f 6f3a 6584 063a a63f
00000040: 3e87 35bb 1fef bc3f b287 06c5 1307 7d3f
00000050: d0a6 4e1c b8d4 babf 85f0 b067 f24d 82bf
00000060: 1629 a133 da5a b13f d74b f96f b719 b13f
00000070: ce2c 4a97 cd8c aa3f e147 fe23 8040 a33f
00000080: 8c4c 877b 4bff acbf 0345 8346 4959 94bf
00000090: 527c 037e 1aeb a8bf 3bda 602f 0a6c 9fbf
000000a0: 97d4 dabc 1313 a6bf 5156 8b99 0bc8 b53f
000000b0: 01f8 5d54 8d0f b6bf c3d4 290f 2efe 81bf
000000c0: 1753 e361 96bc b13f 50e3 6c2f 7e93 983f
000000d0: de27 30dc ee59 a0bf b20b 5e48 6c73 afbf
000000e0: ba00 d0b1 1dc4 ad3f 47ac 9927 a1eb b13f
000000f0: 7cea fdf7 02fd 6cbf 9930 3b80 d70c a9bf

fc22.weight f8 [32, 128]
0.02104218304157257 0.012121496722102165 -0.0628938302397728 -0.03802726790308952 -0.06921512633562088 -0.03492702916264534 0.03147054463624954 0.003342044772580266
-0.07807081937789917 -0.06276851892471313 -0.06146768853068352 0.08599329739809036 0.031218180432915688 -0.06419699639081955 0.00974088441580534 0.07503138482570648
-0.01440089289098978 -0.06973597407341003 0.08141452819108963 0.0766059011220932 0.07966025173664093 0.015587653033435345 0.04865928366780281 -0.05769794061779976
-0.054443445056676865 0.009479047730565071 -0.058824554085731506 0.02089560590684414 0.04774218052625656 -0.08780640363693237 -0.049200668931007385 0.004234630614519119
-0.05746527761220932 -0.02414456009864807 -0.03453531488776207 0.06158246472477913 -0.06042083725333214 0.08653333783149719 0.00023482115648221225 0.04595309868454933
0.05666579306125641 0.07468975335359573 -0.05818991735577583 0.007990431040525436 -0.02581828460097313 0.009803504683077335 -0.055205732583999634 0.047940805554389954
-0.053951557725667953 -0.043506018817424774 0.035873740911483765 -0.01255099382251501 0.00458389101549983 0.016443107277154922 -0.025017283856868744 -0.013762821443378925
-0.023038025945425034 -0.08303362876176834 -0.08671567589044571 -0.020759493112564087 -0.016869887709617615 -0.025820760056376457 -0.08602265268564224 -0.0174783393740654
0.027874629944562912 0.07290451228618622 0.024895552545785904 -0.07159677147865295 0.07293572276830673 -0.005545334424823523 0.06781010329723358 -0.0005427460419014096
-0.038190100342035294 -0.03183811902999878 0.02351238764822483 0.07011940330266953 -0.05503841117024422 0.07588021457195282 -0.05567549169063568 -0.00896218977868557
0.06063200160861015 0.01804691180586815 -0.039344146847724915 -0.07342398166656494 -0.05019523203372955 0.06365456432104111 0.06453423202037811 -0.0777585506439209
-0.07942157983779907 -0.08626867830753326 -0.08402389287948608 0.07960833609104156 0.04239870607852936 0.0151205500587821 -0.030175110325217247 -0.054744213819503784
0.05933979153633118 -0.06570880115032196 0.08248510956764221 -0.022755030542612076 0.015490800142288208 0.07164281606674194 -0.08110929280519485 0.05265344679355621
-0.049083366990089417 -0.0028527304530143738 0.039909861981868744 -0.05526863783597946 -0.06114047393202782 -0.013439849950373173 0.05149798095226288 -0.03228362277150154
-0.011573145166039467 -0.04530159384012222 -0.0852392166852951 -0.06647488474845886 0.05625627562403679 -0.017156358808279037 0.0415937639772892 -0.07935738563537598
0.03914286196231842 -0.001507076434791088 0.010865267366170883 -0.005803410429507494 0.014244738966226578 -0.07143903523683548 0.00760142644867301 0.019611654803156853
0.07876049937343563 0.06418368256770171 -0.08288411942166976 0.0354990842176232 0.07914321768064687 -0.024119020017729666 -0.028186081270740918 -0.08347571843965888
-0.07091191466305392 0.0642912357277092 -0.04448474097166655 -0.013267997619464683 -0.0585990809560103 -0.07561994863511143 0.03399125725034626 -0.04484467685287993
0.058506510723801024 -0.012969276259160833 0.04366771255906659 -0.0724044323087235 -0.10698054695390029 -0.032968780086966985 0.05550713717776394 -0.02717151645299697
0.027876961557005312 -0.0325668964545449 -0.05705774973410118 0.032970324408014305 0.05817721896859051 -0.022114804307374922 0.030744561857851307 0.09282749029830899
0.07478791795660196 0.07751564729519843 0.03972537703856769 0.005190249588362438 -0.0203345801122599 -0.06270063968887377 0.0075685890113110195 0.004869374141107639
0.038160184091497816 -0.0029040972912303792 -0.026261368030323796 0.031311747830378905 0.04219968939921575 0.03167681351837757 0.07340518792591016 -0.01177200445196412
-0.016994280096007185 -0.05218180473713431 0.03466002492115738 0.006518870719617518 0.060646887975002284 -0.03141436568185702 -0.018039161953237907 -0.06615482866093951
-0.05979349794991694 0.06621970951937835 0.03430091671228278 -0.04881779981275214 -0.01883380903733397 -0.058771783741646925 -0.012146211537544655 0.06067801155281386
0.09466764586161784 0.04898123241633378 -0.026790895339671217 -0.09274502910452626 0.024143665197615235 -0.06080200193930283 -0.03053918054461225 0.09561151400700497
0.037631435715308914 -0.10712770306501478 -0.07200660914078885 0.05623411577655782 -0.07545708751551944 0.04517568584531734 0.023366619391784527 -0.037665273546516165
0.044870282077644805 -0.007165479784042902 -0.01888675942623027 0.022598776504072757 0.10779933635455133 -0.09220371035454292 -0.06562057136660557 0.07375586711676457
0.011663107273461967 -0.06797063204741273 0.013269223057513931 -0.05294202042276203 -0.03908072071863821 0.05224707974330592 -0.057369968459635566 -0.07301026681394131
0.034462259935681375 0.012542803131078842 0.07046801694109225 -0.03703817602425646 -0.0008443767010237142 -0.04085817784171462 0.034381623893483766 0.006398151517650561
-0.045583894573714014 0.06775128883861688 -0.04783198980070901 0.026317408141999562 -0.08805935796357314 0.005900709422636808 -0.030484984494302276 -0.01636203380000622
0.03996418993848045 -0.034396447954759456 -0.040689011009194496 -0.07325520862683976 -0.0322960263748995 -0.044624501132028836 -0.08537494318680315 0.049781177604163666
0.03159539948379746 -0.056245804893916646 -0.045093198626217024 0.0791625121904404 0.07254983966561719 -0.02249277029522803 0.05760484745952441 -0.012344441350498314
00000000: 0000 0000 158c 953f 0000 00c0 27d3 883f
00000010: 0000 0060 cf19 b0bf 0000 0060 4f78 a3bf
00000020: 0000 0020 15b8 b1bf 0000 00a0 f4e1 a1bf
00000030: 0000 0040 e81c a03f 0000 00a0 c660 6b3f
00000040: 0000 0000 73fc b3bf 0000 0000 9911 b0bf
00000050: 0000 0060 b178 afbf 0000 0020 a803 b63f
00000060: 0000 00a0 a8f7 9f3f 0000 00e0 366f b0bf
00000070: 0000 0060 07f3 833f 0000 00c0 4135 b33f
00000080: 0000 0020 377e 8dbf 0000 0080 37da b1bf
00000090: 0000 0020 95d7 b43f 0000 00c0 719c b33f
000000a0: 0000 0040 9d64 b43f 0000 0060 6bec 8f3f
000000b0: 0000 00a0 dee9 a83f 0000 00a0 958a adbf
000000c0: 0000 00e0 02e0 abbf 0000 0040 c069 833f
000000d0: 0000 0080 401e aebf 0000 0060 a865 953f
000000e0: 0000 00c0 a971 a83f 0000 0000 7b7a b6bf
000000f0: 0000 0080 d430 a9bf 0000 0000 5558 713f
00000100: 0000 00c0 166c adbf 0000 0000 5ab9 98bf
00000110: 0000 00e0 9cae a1bf 0000 00a0 bc87 af3f
00000120: 0000 00e0 7aef aebf 0000 0080 0c27 b63f
00000130: 0000 0060 4ac7 2e3f 0000 0020 2a87 a73f
00000140: 0000 0080 4c03 ad3f 0000 0020 de1e b33f
00000150: 0000 00a0 11cb adbf 0000 0080 495d 803f
00000160: 0000 00c0 1b70 9abf 0000 0020 dc13 843f
00000170: 0000 0000 ed43 acbf 0000 0080 b28b a83f
00000180: 0000 00e0 899f abbf 0000 00c0 6b46 a6bf
00000190: 0000 0000 0b5e a23f 0000 00e0 55b4 89bf
000001a0: 0000 00e0 8ec6 723f 0000 0040 76d6 903f
000001b0: 0000 0080 219e 99bf 0000 00a0 ae2f 8cbf
000001c0: 0000 00c0 4797 97bf 0000 0020 b141 b5bf
000001d0: 0000 00a0 ff32 b6bf 0000 0000 fa41 95bf
000001e0: 0000 0000 5746 91bf 0000 00e0 c170 9abf
000001f0: 0000 00a0 9405 b6bf 0000 0080 d7e5 91bf
00000200: 0000 00c0 2a8b 9c3f 0000 00c0 dea9 b23f
00000210: 0000 0040 387e 993f 0000 0080 2a54 b2bf
00000220: 0000 0060 eaab b23f 0000 0060 b4b6 76bf
00000230: 0000 00c0 005c b13f 0000 0040 e2c8 41bf
00000240: 0000 0020 a78d a3bf 0000 0000 164d a0bf
00000250: 0000 00a0 a113 983f 0000 0060 58f3 b13f
00000260: 0000 00a0 fe2d acbf 0000 00c0 e26c b33f
00000270: 0000 0080 7f81 acbf 0000 00c0 c45a 82bf
00000280: 0000 0060 280b af3f 0000 00c0 e37a 923f
00000290: 0000 0080 ea24 a4bf 0000 0000 eacb b2bf
000002a0: 0000 0080 30b3 a9bf 0000 0060 aa4b b03f
000002b0: 0000 00c0 5085 b03f 0000 0000 fce7 b3bf
000002c0: 0000 0000 f954 b4bf 0000 0040 b415 b6bf
000002d0: 0000 0000 9782 b5bf 0000 0040 3661 b43f
000002e0: 0000 0080 48b5 a53f 0000 00e0 85f7 8e3f
000002f0: 0000 0060 39e6 9ebf 0000 0000 6f07 acbf
00000300: 0000 0000 c961 ae3f 0000 00c0 4ad2 b0bf
00000310: 0000 0080 be1d b53f 0000 0040 184d 97bf
00000320: 0000 0000 a4b9 8f3f 0000 0000 2f57 b23f
00000330: 0000 0020 94c3 b4bf 0000 0080 64f5 aa3f
00000340: 0000 0080 7421 a9bf 0000 0000 9c5e 67bf
00000350: 0000 00c0 106f a43f 0000 00c0 2b4c acbf
00000360: 0000 00e0 cd4d afbf 0000 0020 5a86 8bbf
00000370: 0000 0080 f15d aa3f 0000 00a0 7a87 a0bf
00000380: 0000 0040 a9b3 87bf 0000 0040 c531 a7bf
00000390: 0000 00c0 3cd2 b5bf 0000 0080 7f04 b1bf
000003a0: 0000 0060 9fcd ac3f 0000 00c0 6f91 91bf
000003b0: 0000 0020 c74b a53f 0000 0000 c450 b4bf
000003c0: 0000 0080 880a a43f 0000 0000 23b1 58bf
000003d0: 0000 0080 8740 863f 0000 0020 51c5 77bf
000003e0: 0000 0080 582c 8d3f 0000 0020 d449 b2bf
000003f0: 0000 0060 ac22 7f3f 0000 00e0 1315 943f
00000400: 6e89 06e9 a529 b43f faab 9081 576e b03f
00000410: ba19 46c6 e437 b5bf 365a 819b ef2c a23f
00000420: 757a a3db ba42 b43f 3739 c008 a8b2 98bf
00000430: d479 0ae5 cfdc 9cbf 435c b528 aa5e b5bf
00000440: 21e3 5f82 4827 b2bf 3eb4 def2 6375 b03f
00000450: d0e6 4937 b4c6 a6bf e33e df7e 402c 8bbf
00000460: b03d 90e0 b200 aebf fe20 5036 d45b b3bf
00000470: 43f6 7a54 4d67 a13f 8c32 f7a8 e1f5 a6bf
00000480: 47d7 52bc 90f4 ad3f e04a 16cb a28f 8abf
00000490: c725 aa4a 9d5b a63f 37f6 d9cc 1889 b2bf
000004a0: 53a6 79be 1363 bbbf 8b6b 86b0 48e1 a0bf
000004b0: 9604 bf75 6e6b ac3f 1d82 319a d9d2 9bbf
000004c0: b1f7 cb38 c78b 9c3f beb2 68b6 9bac a0bf
000004d0: 23c1 2e62 ac36 adbf 3351 2482 7ce1 a03f
000004e0: 7f45 af89 67c9 ad3f 49cc 0765 43a5 96bf
000004f0: 1458 d69e 807b 9f3f 2b41 00db 8ac3 b73f
00000500: fd70 c20d 4d25 b33f 67a7 0fc2 10d8 b33f
00000510: bd61 6776 e256 a43f f26c d703 5f42 753f
00000520: 4c7d 3d92 96d2 94bf fae8 e62c 260d b0bf
00000530: bdb4 7ca4 3d00 7f3f e43b 02ab e8f1 733f
00000540: 6359 5d4d bb89 a33f 9bd1 7c5c 55ca 67bf
00000550: 6d95 5a93 42e4 9abf acfb d2e9 1708 a03f
00000560: 57f2 bd9b 329b a53f 3db2 347c f137 a03f
00000570: e49e 7fb1 aeca b23f b752 09b1 eb1b 88bf
00000580: f3f7 ecd4 f266 91bf c2a1 95d1 92b7 aabf
00000590: 0fa3 0773 f5be a13f e401 c308 88b3 7a3f
000005a0: 10e3 e9e0 1b0d af3f 79d1 7432 8b15 a0bf
000005b0: 91ad 8baa db78 92bf 633b 92d9 85ef b0bf
000005c0: 0eab 6adc 409d aebf 6d81 bc5e c6f3 b03f
000005d0: e50f 01c7 e38f a13f c01f 518b a5fe a8bf
000005e0: 1672 7f87 2b49 93bf 8f27 32d2 5517 aebf
000005f0: aaa8 97ea 1ce0 88bf 654a 6936 3011 af3f
00000600: 8307 f78a 233c b83f 8f1d b16e 1114 a93f
00000610: 50fe 418d 126f 9bbf a4d9 de62 23be b7bf
00000620: 7fa2 b7f1 1db9 983f 0da5 b8a3 7021 afbf
00000630: 0235 beb6 a945 9fbf 49f8 c705 ff79 b83f
00000640: 40c6 6573 6d44 a33f 1beb 289d b86c bbbf
00000650: da04 5b6f 066f b2bf e40d 5cd0 b7ca ac3f
00000660: c46c 21db 2751 b3bf 385d 8f7a 4421 a73f
00000670: 4055 6c48 6bed 973f 4084 27dc dc48 a3bf
00000680: 46eb 2bd4 3cf9 a63f 7062 52d5 8c59 7dbf
00000690: b697 40f8 0c57 93bf ccf4 0e38 2224 973f
000006a0: 825d 2cc0 bc98 bb3f 0ae9 8a90 a99a b7bf
000006b0: 3ee3 f67f 82cc b0bf 8c95 271d aae1 b23f
000006c0: b85c 79c2 d3e2 873f 116a bbf9 8566 b1bf
000006d0: de51 9af8 e42c 8b3f 0990 996c 371b abbf
000006e0: af04 c862 6302 a4bf a435 9e15 21c0 aa3f
000006f0: fb05 9db4 985f adbf e9f4 3c04 cdb0 b2bf
00000700: fa70 bd8e 09a5 a13f 1536 fc89 0ab0 893f
00000710: 0e0c 2d24 310a b23f 8791 74f5 aaf6 a2bf
00000720: d3d5 7f28 25ab 4bbf ed68 35f3 5ceb a4bf
00000730: c169 69dc 779a a13f 0adf 5eb8 f234 7a3f
00000740: 4d3a d6b0 c556 a7bf 9dde d201 2658 b13f
00000750: cf15 cb3f 6f7d a8bf 9f38 245d f3f2 9a3f
00000760: 1270 8fde 0e8b b6bf b410 e59f 572b 783f
00000770: c539 b0ad 7437 9fbf deae 4480 35c1 90bf
00000780: 0904 98b1 2f76 a43f 6be6 2046 699c a1bf
00000790: 4ba1 2ea7 30d5 a4bf f85d 5075 dac0 b2bf
000007a0: 2353 24d2 1a89 a0bf ebbc ecc9 05d9 a6bf
000007b0: ff9a e2dc 21db b5bf ff51 8823 eb7c a93f
000007c0: 8653 f9ae 452d a03f 94f6 1c09 40cc acbf
000007d0: d846 beaa 7416 a7bf 3c59 ed90 fe43 b43f
000007e0: 6da1 b154 a092 b23f c8fd 4143 5808 97bf
000007f0: 0d05 dcef 617e ad3f 932c 1adf 0a48 89bf

fc22.bias f8 [32]
-0.08181553333997726 0.06006638476416248 -0.09626425780476797 -0.0307243358199795 -0.04994422682925826 -0.07847943746591979 -0.07962124496136462 0.11991318762781862
0.021891970985922538 -0.02869723948158434 0.08876804902059948 -0.0745407900303614 -0.023924152299906826 0.05121351750328023 -0.016695730366210592 0.011557991702770096
-0.014525152742862701 -0.09770817512606483 0.03413784917945372 0.020896399171416512 0.1073692986926564 0.04599694403532941 0.005952526824566914 0.06181233433055941
-0.004524634749483823 -0.08219600604640642 -0.03634590107017859 -0.06174546499058241 0.05145192860776926 -0.044450286575209615 0.009021124227270971 0.05406637195028613
00000000: 0000 00e0 dcf1 b4bf df53 4d6c 05c1 ae3f
00000010: a691 0b3f c6a4 b8bf 6a0c 2746 3376 9fbf
00000020: 611a b629 4a92 a9bf 2819 5379 3a17 b4bf
00000030: 8b05 2dd3 0e62 b4bf c578 3873 a1b2 be3f
00000040: 9dd3 b74d d96a 963f 484c 3c24 cf62 9dbf
00000050: 9c23 79bb 80b9 b63f e0fd 65ef 1a15 b3bf
00000060: d8b9 d9ae 927f 98bf 2755 947d a838 aa3f
00000070: 1372 9f7f af18 91bf 5879 f762 b7ab 873f
00000080: 0000 0000 5dbf 8dbf cce1 b728 6703 b9bf
00000090: 3f25 9023 847a a13f 237c 2e9c dd65 953f
000000a0: eeba 7aea 8d7c bb3f 6303 b254 e98c a73f
000000b0: 7028 a440 ad61 783f fcda e0c4 dda5 af3f
000000c0: f1f2 6764 6c88 72bf 30c5 d425 cc0a b5bf
000000d0: a750 e110 ee9b a2bf 9e29 9f01 1a9d afbf
000000e0: 607c 5f3d e857 aa3f 39d6 461e 30c2 a6bf
000000f0: 40f8 3bcc aa79 823f e800 ae66 96ae ab3f

fc31.weight f8 [2, 32]
0.13576340133950235 0.11271111062920208 0.04143981213646019 0.13877638309901 0.13467935396712177 0.14676330856128847 0.15417285616316148 -0.048875045665757955
0.11427237870339664 0.07464014841524469 0.055891593052308286 0.16995656024449263 -0.0729020197707182 -0.10712974508387038 -0.19239863166400645 -0.03184867114770204
-0.08819753964266014 -0.1511499402164375 -0.13169073297927786 -0.19109440578712195 -0.11295296903422698 -0.15782453863805798 0.10971926336974477 0.022418135307968365
-0.15841418138362276 -0.049845435868521255 0.15138040093818608 0.09009291838727566 0.05823404344885433 -0.15858699032417056 0.16284207363919057 0.1846021610250051
-0.15776120449059394 0.019055894872273726 -0.18132985295154502 -0.0027813027289621596 -0.12435561773975912 0.04668241884085795 0.18716989265529577 0.11658688346486742
0.18633875147489184 -0.022034710405186977 0.05548008737147552 -0.10048329195165054 0.034247484254592085 -0.10256889887964507 -0.08916216322956927 -0.04727946143998535
0.0814566930840067 0.14435027150629828 -0.14820369293309305 0.12798999996214924 0.023927121644633294 -0.09628692241074865 0.11995461041769251 -0.16280587915720585
-0.06787289039286122 0.19763444629243038 0.042703972121686334 0.09106101414654594 0.07677824017604358 -0.04193543036299179 0.13431822418250203 -0.1425795014273549
00000000: ef99 5ff4 b160 c13f d45a 0ca6 a2da bc3f
00000010: 2fc8 c15b 9937 a53f 7507 6fad 6cc3 c13f
00000020: e61a 5e4e 2c3d c13f bf01 43dd 23c9 c23f
00000030: 996a 93a7 efbb c33f f02a 7365 2606 a9bf
00000040: d501 5e61 f440 bd3f e87c 69e4 9d1b b33f
00000050: e0df 8fa8 d29d ac3f e2d0 fef5 22c1 c53f
00000060: b042 baee b4a9 b2bf ee64 90df da6c bbbf
00000070: 2662 65b3 84a0 c8bf 8c39 0012 784e a0bf
00000080: ec56 5a2c 1d94 b6bf 65cf 0299 e158 c3bf
00000090: ba87 aaef 3ddb c0bf 66f1 a60f c875 c8bf
000000a0: 7df4 fc5b 7cea bcbf b376 fa2f 9833 c4bf
000000b0: 3e0d eac7 8f16 bc3f ecaa f097 c7f4 963f
000000c0: 6df4 2178 ea46 c4bf 0901 d249 5785 a9bf
000000d0: d976 a4d7 6e60 c33f 7315 135a 5410 b73f
000000e0: 34db 4040 dad0 ad3f 78b6 8118 944c c4bf
000000f0: 0cb9 5852 02d8 c43f 0ac9 2f2a 0ba1 c73f
00000100: 7cad eee6 8431 c4bf d3f7 1675 6383 933f
00000110: 6891 1b0e d135 c7bf 0d7d 5b88 d0c8 66bf
00000120: f021 440f c5d5 bfbf 2977 700c c2e6 a73f
00000130: ae0a e0db 2ef5 c73f 86c9 9f53 a3d8 bd3f
00000140: f3f3 c7bd f2d9 c73f 37b8 4462 4490 96bf
00000150: 77ee add1 e267 ac3f e20c bae4 45b9 b9bf
00000160: bbff afe1 e288 a13f ba59 4692 f441 babf
00000170: b892 1cdf 54d3 b6bf 7880 5079 0335 a8bf
00000180: d70b d688 58da b43f 17e6 a4d7 117a c23f
00000190: caa3 25af 56f8 c2bf 69b7 06f0 f961 c03f
000001a0: c2f0 cdf3 5980 983f 3862 c97e 42a6 b8bf
000001b0: d097 bf68 58b5 be3f 32d2 49b3 d2d6 c4bf
000001c0: 85b7 8524 1e60 b1bf 9ecc b1e5 154c c93f
000001d0: 5408 5887 4bdd a53f bc33 b34d c64f b73f
000001e0: 05bd 991e bda7 b33f e7cc e78b 8f78 a5bf
000001f0: 3771 0fee 5631 c13f d5f0 da8b 0b40 c2bf

fc31.bias f8 [2]
0.022782759517838057 0.0780870757828376
00000000: c6bf 2a1c 5d54 973f 7241 babc 83fd b33f

fc32.weight f8 [2, 32]
-0.1226692870259285 0.003050769017524869 -0.0004449202710984305 -0.0627514622988765 -0.13891455179132856 -0.09401873751159223 -0.08212305185891235 0.06116403817104872
0.04892091188088513 -0.12072655548468826 0.09280794692897998 0.11174801119907958 0.1582346626345991 0.05477458587833568 0.0022425657317860516 -0.0180995474031721
0.12930844724178314 0.11102261728994336 0.0933580917416892 -0.04936243668347189 0.18651375282948182 -0.024568238754882756 -0.16158148877330253 0.16053253790614253
-0.06590396998452153 -0.07262175431067491 -0.01827810464980404 0.0729029713406163 0.17722867426536576 -0.018333997810380257 0.12585382265809428 -0.11774241834913429
0.10276878625154495 -0.13392341715658498 -0.12448684532167657 0.20678389401455613 0.08677419472957423 -0.1509853916020315 -0.04102922924463387 0.11649606334143879
-0.15527647561630814 0.04762460994282279 0.17834333618922613 -0.1696663562451325 -0.06472134328766176 0.026587305638171636 0.1723319719412139 -0.13923155655300612
-0.11800065636634827 0.10754834479622159 -0.16353405693944031 -0.04049790924786911 0.13341893276441058 -0.07509490228413009 0.12407395640230799 0.10382404053840356
-0.011140225534621344 -0.007500291917002389 -0.16969828873660547 0.08372211439019119 -0.008237946516645988 0.05854296453236897 0.004408976088020912 -0.1167785052214103
00000000: 0000 0020 4167 bfbf e9ac 0d25 edfd 683f
00000010: 8c87 8103 8628 3dbf df8f 59d6 7a10 b0bf
00000020: b6ed 70b8 f3c7 c1bf b4d0 d2aa 9c11 b8bf
00000030: 5953 fb2d 0406 b5bf 3a9b 458f e450 af3f
00000040: 65e0 3c69 290c a93f 59c2 907f efe7 bebf
00000050: 706e def8 42c2 b73f 0d3b 7e85 849b bc3f
00000060: 25fa 8d8e 0841 c43f bab0 ff1d 6a0b ac3f
00000070: 03d3 444f 005f 623f 2015 ad10 b088 92bf
00000080: 0000 00e0 2d8d c03f e26a 606e fa6b bc3f
00000090: 41f7 d8de 50e6 b73f f7aa 6986 0846 a9bf
000000a0: b913 54c2 aedf c73f d7e1 e397 6a28 99bf
000000b0: 3acd f5c4 b3ae c4bf fc18 2088 548c c43f
000000c0: f894 c223 15df b0bf 3414 bedb 5697 b2bf
000000d0: 1aaa d0d6 7eb7 92bf 986d b0e5 c4a9 b23f
000000e0: 220c f1df 6daf c63f 0188 00c4 25c6 92bf
000000f0: 0f51 3262 fa1b c03f e456 29fc 5d24 bebf
00000100: 0000 0020 0e4f ba3f 9d94 6d0c 6724 c1bf
00000110: f355 70b1 5ede bfbf f9e6 1007 e577 ca3f
00000120: d610 8068 d536 b63f 8c5f 8d43 7d53 c3bf
00000130: f852 927b c801 a5bf 970a 2a9e afd2 bd3f
00000140: 8a1a 4e7c 19e0 c3bf 3edc 60bc 4062 a83f
00000150: 8f35 3256 f4d3 c63f 44f4 a68d a0b7 c5bf
00000160: f710 c6f4 9391 b0bf d19d d1e0 b339 9b3f
00000170: 4e77 c55b f90e c63f e4b0 fbf2 56d2 c1bf
00000180: 0000 0080 4a35 bebf 1382 a3cf 4988 bb3f
00000190: 0726 2b19 afee c4bf 704c 8d57 24bc a4bf
000001a0: 86f7 7120 df13 c13f 811a 6865 6b39 b3bf
000001b0: 9782 0891 4fc3 bf3f 59a9 a65a 3694 ba3f
000001c0: fce7 bac2 afd0 86bf e755 e747 a0b8 7ebf
000001d0: 1acb 276c acb8 c5bf f101 42ff cf6e b53f
000001e0: 7964 0077 0edf 80bf a2a2 27ec 57f9 ad3f
000001f0: 68d8 b581 250f 723f af3d cd34 32e5 bdbf

fc32.bias f8 [2]
0.15199258682554329 0.1761111077398893
00000000: 1438 d33a 7e74 c33f 9642 1a0c cf8a c63f
