weights/model_30_norm_doorsuite4_lfnew_so_ego_0_1_bn.pth (torch, 599558 bytes, 14 tensors)

fc1.weight f8 [256, 30]
00000000: 512f 8c39 6435 cb3f 549d fa9d 8c57 bc3f
00000010: 0000 0080 6dea c53f 0da4 5942 ea9e d13f
00000020: 4732 3ce6 6f6c c83f 9c7f c2d5 a24e d2bf
00000030: e5a5 2f3e 2e9b a03f 4464 95f2 c254 d13f
00000040: 9fb3 de98 0a70 b5bf 75c8 f8cf 830d b43f
00000050: d6a4 7d79 608d a8bf 0ccc f11b c6fc acbf
00000060: df28 d1e0 a4b1 c93f 7d27 04e1 7a0a a33f
00000070: 082a ef0d 5ead 7e3f 373a 70a2 1cfe a13f
00000080: cc80 5477 b8a7 afbf ff01 f34b d07e c33f
00000090: 3b54 62c7 0b9c c43f 52a5 766f eaa9 a2bf
000000a0: 5418 32b6 8f11 c53f 92f1 6b23 d6d6 ad3f
000000b0: 8c88 e45a 2313 a0bf 203d ab78 dd40 90bf
000000c0: 2660 a9af 610b c93f 2fe5 1d1a 4b50 bebf
000000d0: e580 9423 9759 ae3f 1723 dddb 8deb 873f
000000e0: 80d7 c7f5 4dc9 9c3f abe9 4a49 1893 8bbf
000000f0: 8933 1cf9 cfc2 bcbf d2c5 bd7e 8d0b d1bf
00000100: 0000 0020 bdf0 c6bf dec1 6bb1 418d 7ebf
00000110: ad23 19a0 5ed1 b1bf 9db5 def8 c199 853f
00000120: 2d46 3394 bf6c b83f 9b4c 2095 edf6 a53f
00000130: cd2a 2bbb 113b 97bf 51c6 d014 8147 94bf
00000140: 0d7f b1ca 0fad c1bf e521 a235 acd2 c13f
00000150: 08ad 41ab d015 b43f a605 00f8 015c cfbf
00000160: 6a83 fcba d5e9 ba3f 48d2 bf68 4f56 c33f
00000170: 7b2c 7f25 0bc7 adbf 14fa eff0 d2db a53f
00000180: e59a f775 1da3 84bf a590 1bfd 81cc a43f
00000190: 11af 9f08 bdaf c13f ce3e c580 f68d c5bf
000001a0: 03a7 e3f6 6044 be3f 6033 c633 34c8 a33f
000001b0: b060 0714 f60d 9fbf 13da 2059 37db aa3f
000001c0: 7be7 de5e e7dd a9bf 3dbf 59f2 cbf9 adbf
000001d0: bb33 3c48 ed86 a8bf d586 c718 f799 c0bf
000001e0: 3836 33c5 f6c2 c9bf 451d ad61 3de8 c63f
000001f0: 0000 0060 98d2 ab3f a673 2dd3 0a7a afbf
00000200: 4290 e732 41b0 b8bf f4a0 35cc dc91 933f
00000210: 5c6a b824 bad8 d3bf ecbc 63fd 2e15 d13f
00000220: c0d9 56ce 1ce0 a0bf fce3 69d0 10c4 babf
00000230: 46f8 8a24 2c09 953f 7fdd a847 fedf d1bf
00000240: 8429 5e3b a88a b13f 974c 4cac 0252 c93f
00000250: 910d c8fe 4277 983f f255 d0b1 e51e a63f
00000260: 4249 181b c8c7 b1bf e654 7ab1 c703 97bf
00000270: d5b5 a9dc dd81 d1bf 17a1 8cd6 6830 bbbf
00000280: 1236 481f cf2e 9dbf 8abc 3373 3058 bc3f
00000290: 0cd6 c68d 16df c5bf f324 24ef 5452 ae3f
000002a0: db96 64a6 9369 b6bf e3b9 8ca4 299e b53f
000002b0: 3480 585d cb7b d3bf 98c1 7a9d 7563 bdbf
000002c0: 48d4 8429 da15 b6bf f111 5957 fc02 cc3f
000002d0: 49f2 d4b8 3c11 b7bf 659e 210f ef1a d0bf
000002e0: 0000 00c0 fa41 b4bf 98bf d66f 8e8c b4bf
000002f0: 56ea 9747 a396 c0bf 8a1a a51f d5a4 a3bf
00000300: 1213 8b9d cae3 d03f d219 5ac3 5447 94bf
00000310: 2b7b 008d 5897 c33f eb79 37ed 4bbf cbbf
00000320: 70bb e5ed 04c5 c0bf 4be7 d5e5 5fbc c13f
00000330: f650 cf35 782e a2bf eaf2 365c 8d59 c6bf
00000340: aa60 6b2a 8e83 c4bf 5a9d e98d 9d08 9b3f
00000350: 8967 c59f 2043 bebf 7911 f3bd 7548 c7bf
00000360: df5a 0b76 5ef3 b33f dac5 d432 c11a b3bf
00000370: bdae 302e 0d7f acbf 0f31 8135 b449 953f
00000380: 7a5e d070 be9d b63f 8771 c55d 11c5 a4bf
00000390: 0824 d5a7 b40b 943f c3a2 2851 4b16 a9bf
000003a0: a579 5a7d e31c c9bf b27f 8b7c f5aa cd3f
000003b0: f4ea 4432 7bff a63f d3ab c6a4 a61e 8f3f
000003c0: d630 c5a9 655e bc3f a3f0 51e8 a27c c9bf
000003d0: 0000 0080 9594 be3f 1fe6 4029 6af5 b0bf
000003e0: 8ede ff54 0771 cc3f d464 8d2d 63cf b93f
000003f0: c7fd f887 3f36 b73f c774 cadb c4e4 bdbf
00000400: 1863 e0f9 b7a8 c7bf 6c32 5a21 2436 c4bf
00000410: 341b dce3 91e0 b13f 2292 a6a8 3c40 c73f
00000420: 5706 4d15 8659 a83f 4c42 89a4 c2b1 b8bf
00000430: fb05 35f8 233b b3bf d4be b094 687e b93f
00000440: 3d5b 5788 f798 acbf e983 20db dda4 a8bf
00000450: 7a59 2fb6 b730 babf 3c4d 683e ce2f a53f
00000460: 83b0 257d a5cb bebf ce72 78fa dce6 c5bf
00000470: 6d2c 9bea 97c0 943f 86b3 826e 2dd6 aebf
00000480: af15 2fe4 3b90 9a3f 05d1 2ded 6e68 c8bf
00000490: 0916 c8bf a5a3 adbf 27df 8878 e104 bc3f
000004a0: d67e 3938 740d b63f 726d 194c c781 c23f
000004b0: cdf4 d538 3469 c43f ed83 e55b d1a1 a4bf
000004c0: 0000 0000 7b5b a53f 58ac 5d2d 72b1 be3f
000004d0: 7b36 d628 4559 8ebf b1d7 654a 8886 bd3f
000004e0: 8060 5214 b454 cd3f 96d1 8489 b7fb bfbf
000004f0: 44bd 73ee 557d b93f 1e4e afe8 2b7c c73f
00000500: 0bea 90de 6b09 c43f 14f6 faee 6ba9 c33f
00000510: 4570 99d2 1014 c1bf 2a62 1072 6d5b ad3f
00000520: b0f7 676c 7d26 c6bf 3298 d360 511c bdbf
00000530: c9f5 ef36 2b16 b1bf 6e03 4b18 b4f3 b23f
00000540: 3dfa 40fd 92ae a13f 6db4 7092 bb5b 60bf
00000550: 3baf 3551 a69f b1bf 11b9 7a1c 6168 8abf
00000560: a0b9 77b7 d5e8 b5bf 669f 4873 9dfe 993f
00000570: c5e2 d2cc a877 bfbf aa73 cb7c 995c bbbf
00000580: e6b3 c74e 68c9 c43f eea9 136a c918 b7bf
00000590: 8003 46f3 0e7b c43f 189a 3740 c029 c73f
000005a0: 5c1d 2221 efec b5bf 8f45 d756 b7d7 b6bf
000005b0: 0000 00c0 ed66 bd3f 3784 d597 f016 a23f
000005c0: 31f6 85ef a35f babf f339 a3e5 1297 a63f
000005d0: cff2 712e 03e2 cdbf 8f95 1178 ad54 b0bf
000005e0: 0059 a776 f4e3 c33f 5e61 88ac 4e68 b73f
000005f0: 8deb a92f f3f3 9c3f 758e cbc2 f824 9cbf
00000600: 85b7 93aa 92f6 a53f 973f c53a c673 b4bf
00000610: 4423 6549 890e c1bf 691e 7b49 8c74 ba3f
00000620: 515c ed3f 6291 c63f 1c53 0fdf f077 943f
00000630: fe2e e869 72d4 9fbf 40ec cdab c998 b53f
00000640: 7e25 f9b7 3561 993f 4cfd b4d1 ac9b b73f
00000650: 6303 4039 d46f b1bf e9dd 0424 2a7e c5bf
00000660: 6584 c088 2dd0 c23f f479 df4c 8eb5 c5bf
00000670: 0a3d 8637 9917 c03f 3a10 e7ce 3f32 a73f
00000680: da61 b8f2 2708 bd3f 7db0 d21f 47c3 c1bf
00000690: d69c 46ee a2f8 a43f c189 a8e0 e302 be3f
000006a0: 0000 0080 5609 c13f 130d 654a 8610 c83f
000006b0: c1c8 83d4 0a58 9b3f 139b 5658 0672 c5bf
000006c0: 6eaf d8be ff1e c5bf 5e6c 3981 4619 593f
000006d0: cee3 1acd 6406 b2bf 109d ccf3 0acb a43f
000006e0: ad4b 5242 80ef d0bf e855 152d 8c67 a73f
000006f0: bfec f658 2f69 b83f a1f2 cffc 6dbe bd3f
00000700: ce5b 8b33 2fca c0bf eb09 d84f 63ed c1bf
00000710: 10c5 7dcf d35e aebf 961e d904 bc8e 95bf
00000720: ebd0 3f4c 4afa bebf f27a a7a6 5bd9 bdbf
00000730: 937e a914 778b b33f cf0e 9943 25c8 ca3f
00000740: f609 1a73 4134 babf fee2 c1f0 758e a43f
00000750: e97a 8caa 3de6 c4bf cb15 a621 a986 98bf
00000760: 9726 6f8f b67f c9bf 8bbb 228f 2a93 cebf
00000770: 6e1d f966 a725 ad3f f3dc 22db a349 c63f
00000780: 775b 691f 2107 ba3f 4d7f 4d33 1211 ccbf
00000790: 0000 00a0 d331 c03f 6aa6 9eb9 4b94 c0bf
000007a0: 3199 8bc0 d4e6 b83f 6006 5e97 e280 c6bf
000007b0: 0724 9c01 2064 963f 3437 5746 a277 aabf
000007c0: 5a27 98b8 92fb c2bf 5450 779e 3bc7 c4bf
000007d0: e734 8511 308b c23f 1d2e 7cb5 fb45 b8bf
000007e0: 9e07 19d0 1778 c53f cdf6 e9ea c66c bebf
000007f0: 785e 1e45 d737 bf3f 762c 223b 068d b1bf
0.21256687936726817 0.11071089608104973 0.1712166666984558 0.2753244064284111 0.19080923788023282 -0.2860495650766042 0.03243393429859135 0.27079843225289246
-0.08374086601425156 0.07833122088848816 -0.047953619795245636 -0.056616011534878025 0.20073376634019888 0.037189331023980345 0.0074895547867961446 0.035141844586281605
-0.06182648140588895 0.15230754574260172 0.1610121463351407 -0.03645260439527455 0.16459843059800738 0.05827969725030181 -0.031396012158681236 -0.01587244080547834
0.1956598384592791 -0.11841267955414446 0.05927727040602963 0.011679752609454348 0.02811166584611824 -0.013464154946053982 -0.11234760124007272 -0.2663301217754369
-0.1792217642068863 -0.00745893155429697 -0.06960097702643848 0.010547175795944603 0.0954093682114709 0.04289953656566433 -0.022686268853059844 -0.019804016967276464
-0.13809392354141217 0.13924172037901808 0.07845787221019773 -0.24499535188082894 0.10513053717705892 0.1510714780303195 -0.05815920670246385 0.04269274893885125
-0.010076742327283348 0.040622770449574554 0.13817561074335363 -0.16839486396428643 0.11823087718553542 0.03863680965432681 -0.03032669541593752 0.05245373690597801
-0.05052111657228316 -0.058546422323046056 -0.04790441042687329 -0.12969864568645187 -0.2012623274699068 0.1789623953757006 0.054341088980436325 -0.061477983740338346
-0.09643943302904837 0.019111108745534858 -0.31010297380422513 0.2669179415233447 -0.032959842861078226 -0.1045542248556472 0.020542802553557026 -0.2792964649010727
0.06852199029359524 0.19781526005735792 0.023892447281480825 0.043204477268016364 -0.0694546762609081 -0.022475357253445426 -0.27355143117060027 -0.10620742071171595
-0.028498874935442293 0.1107206612830273 -0.17087060854616742 0.05922189158634152 -0.08754847347571675 0.08444462077452601 -0.30443081012527107 -0.11479888052668341
-0.0862709380497374 0.21884111657176633 -0.0901067687272611 -0.2516439101950481 -0.07913176715373993 -0.0802697203678221 -0.12959710117123063 -0.03836694728174901
0.2639032877453228 -0.0198033565743801 0.15305621037347214 -0.2167754085812271 -0.1310125505073887 0.1385612365955303 -0.0355107846914126 -0.17460791590374153
-0.16026475020658398 0.026400052820830446 -0.11821178341543094 -0.18189880156399932 0.07793226606313962 -0.07462699404711462 -0.055656825912902864 0.020788970723786323
0.08834448103186246 -0.040566008278548664 0.019575903648078735 -0.04899821630198666 -0.19619411106846232 0.23177975255293642 0.04491791714322871 0.015195180800977958
0.11081538576872005 -0.19911609977487385 0.11945471167564392 -0.0662447310177403 0.22219936037412363 0.1008207308017462 0.09067151136058903 -0.11677198759066974
-0.18483638478280606 -0.15790225628406362 0.06983291447623402 0.1816478560914599 0.04755801210422977 -0.09646240727421079 -0.07512116250747873 0.09958509092461593
-0.05585454501458862 -0.048132832526114395 -0.10230587194323518 0.04138035308656149 -0.1202948980841843 -0.17110788564686746 0.020265935606215302 -0.0602277943993164
0.025940833856812947 -0.19068705159191537 -0.0578891560181028 0.10944947426548578 0.0861427914874143 0.14458552566325583 0.1594605710523979 -0.040297071903076055
0.041713565587997437 0.11989511115614115 -0.014818706806887896 0.11533405128815734 0.2291474436976877 -0.12493464572327748 0.0995687205465759 0.18347691403924754
0.15653751723751017 0.15360783738098915 -0.13342485697910625 0.05733816163428103 -0.1730496196104787 -0.11371334661416269 -0.06674451915019754 0.0740311202344068
0.03453502027013087 -0.001996866561532465 -0.06884231074007811 -0.012894400292989635 -0.08558402756873429 0.025385341798169668 -0.1229196071680106 -0.1068817071604388
0.16239646765407584 -0.09022196616903219 0.16000544432247565 0.18096163879018046 -0.08564657744328968 -0.08922906751765523 0.11485181748867035 0.03533126691287019
-0.10302185628639716 0.044121351749357184 -0.23345985191180893 -0.06379207784046613 0.1553941325534609 0.09143535339570039 0.028274345192112405 -0.027484785928108175
0.04289682705153467 -0.07989157614542673 -0.13325611194366094 0.10334088129013143 0.1763117611069185 0.019988788237088703 -0.031083858217285425 0.08436260647242566
0.02478488860496019 0.09221916312980233 -0.06811262510019626 -0.1679127384065702 0.14697808434815154 -0.1696031451565002 0.12572016917372536 0.04530524635950468
0.11340570140635667 -0.1387719064126748 0.04095944555893431 0.1172316001398377 0.13309746980667114 0.1880042899375459 0.02670304224097531 -0.16754226029771555
-0.16500851458237825 0.0015319050334230626 -0.07041006095359068 0.04061159349503829 -0.2646179816885546 0.045711880210244804 0.09535499498354037 0.11618697569060511
-0.13117017762007638 -0.1400570049155044 -0.059317225531126394 -0.02105230121222109 -0.12100662576250769 -0.11659787005144631 0.07634681944318293 0.20923295784643023
-0.10235985813236667 0.04014938892300356 -0.16327639415336329 -0.023951189688451707 -0.19920999530431935 -0.23886615742727843 0.05692790157314219 0.17412231636055928
0.10167128579028693 -0.21927096848502928 0.12652058899402618 -0.12952562869513723 0.09727220249951497 -0.17580826178532316 0.021866321657430656 -0.051693984114179165
-0.14830240262409228 -0.1623301051864724 0.1448726735638168 -0.0948178594664388 0.1677274480917363 -0.11884730563357522 0.12194581448999908 -0.0685581106537699

fc1.bias f8 [256]
00000000: 9a47 9abd 403b b0bf 9043 c326 ed7f bbbf
00000010: e915 bc2f 297b bcbf 5c74 105c a9a7 ca3f
00000020: 7259 1e7c c67d a33f 43bb 436d 87ff 9e3f
00000030: f231 5573 2289 a5bf e7a8 8d47 7ebc b3bf
00000040: a9a0 6739 eacb bebf f961 bd4b 6349 c53f
00000050: 5d99 86b8 68a2 b7bf 43a4 ca9c aa55 9bbf
00000060: 7f9c 539f af4a bdbf 3047 d527 598a 803f
00000070: a173 e528 b354 b2bf 46d7 d5c4 477b c4bf
00000080: 13b4 a39f dedc bc3f b1f5 0eee 325e b53f
00000090: e1cc 4445 dc95 953f d13b bb2a 42e4 c4bf
000000a0: 6e31 6c4c 8604 98bf 1846 7351 4b50 c6bf
000000b0: b2f9 3894 7876 aabf e426 73de 185b bc3f
000000c0: 2610 20bd 960b c13f 1704 e33a e183 c93f
000000d0: 0ed8 4220 6e0f b7bf 6609 dc1f e4a2 963f
000000e0: 1b21 809b edc0 b03f 2afe 9651 6e29 823f
000000f0: fb69 1686 8405 c13f 5553 79d2 e135 b0bf
00000100: 40bd a19c 81b1 c2bf a20e 5a22 56c8 b4bf
00000110: 3cae ec43 1a24 c43f 68c8 ebfa 764e adbf
00000120: 9368 3648 b870 9cbf 86ae 0aa2 8d53 9f3f
00000130: 2617 c67a 4a62 b1bf 485a b201 7094 813f
00000140: b3df 46a5 f962 b8bf 69cc 16f5 4f88 bfbf
00000150: 224b fbfe ee60 afbf 2957 75d9 e734 bebf
00000160: 6e7a 1414 34e0 923f 5e09 db35 f2a4 9cbf
00000170: 6692 7a5d 05a9 ae3f 41dc 4418 99af 8d3f
00000180: 8ad5 c9ba 36fc a83f 82fc 2cf3 df36 c1bf
00000190: 660b 0532 0aad 99bf f67e 3ac1 0ae5 8b3f
000001a0: 0659 0558 b2e0 85bf 80ef 80f3 5b48 b23f
000001b0: e5a4 6993 3f25 c2bf cc8e f48c eb41 803f
000001c0: d293 c3e7 0054 bd3f f709 7af3 ed33 c83f
000001d0: ce3c 115c 1ace 913f 9124 5ddd 66ad c1bf
000001e0: 8fd1 db1a bd8f ba3f 9edc 2d40 55ce c4bf
000001f0: e2d3 c26a e011 83bf 2646 9aec 6a2d 9e3f
00000200: 6ea2 e9e7 1690 c3bf 1cc9 5501 dd7d b3bf
00000210: 14a0 e44f b8e7 c43f 3770 2322 acdc c2bf
00000220: f236 2fc0 400a c23f 736f cf28 b8f7 b2bf
00000230: 08f3 8c7c b940 ab3f 1462 6fab 7de0 c03f
00000240: 2120 95a4 c80b c63f 62ff b3d1 2ba0 a33f
00000250: dda3 df85 dae6 a13f 8772 51dc 34d0 cabf
00000260: a381 ca60 10bf c4bf 0393 4d81 628c c0bf
00000270: 102e 243c 1ec0 c7bf 6e85 e98b 83b3 b2bf
00000280: b472 e731 d58b ba3f a6e1 5a86 88c0 79bf
00000290: 8cd6 d0d2 10ba 92bf df4a 01ca 1546 873f
000002a0: d053 c088 24f1 c4bf 49fa 9dab 550c bbbf
000002b0: e4b0 42af 47c3 bbbf 5bc2 6383 4c17 c4bf
000002c0: 5739 43c7 b767 c33f 256b f301 2e48 bcbf
000002d0: 6a76 173e 97f4 c8bf 82f2 2806 1c21 c13f
000002e0: ebba ea5d c298 84bf e6f5 fffe c7e3 b8bf
000002f0: bb97 add9 b392 be3f fcb6 78b5 a939 c23f
00000300: 916d 2370 b70b bebf 428f f86f 2647 b73f
00000310: 9f32 b8ae 29b3 c4bf 4ac3 b703 c892 a1bf
00000320: 9954 8806 89e4 b9bf a2bc 9a3c bbb2 c5bf
00000330: 399d 0ee9 9cae cebf 36b8 ab93 fe22 a43f
00000340: 25d2 87a3 043f b2bf e0e9 abe5 6eba b53f
00000350: 708c cb37 a9e6 b5bf 8f04 30dc 53ae af3f
00000360: e335 410e 95ca b8bf 18db 5d6a f250 bd3f
00000370: d59f 0c88 4928 b23f ef15 e6be c32c b9bf
00000380: 8068 1013 e60b c2bf 19ce be59 73e7 883f
00000390: 9299 37d1 4076 be3f 7c0f 48af 39fa c0bf
000003a0: 23da 9a83 35f3 ca3f a10f 2d8c 113e bcbf
000003b0: 6be5 13fe e984 9d3f c741 1643 b8a5 b23f
000003c0: 1c03 1774 64a1 b83f 10c1 4bc6 3629 c53f
000003d0: e62a 8b92 0576 9ebf 21b5 ac80 87fe c63f
000003e0: 9b04 8897 5274 903f 3a75 a1bf 8713 87bf
000003f0: 94c6 ab54 ff3c 613f 496b 73dd dcac c2bf
00000400: d15d 0d73 cd85 ad3f c714 8700 1c18 afbf
00000410: 8be7 a699 7fc9 be3f a876 6a39 de5b cb3f
00000420: 5081 61a0 9be0 be3f 4172 4b91 5921 b03f
00000430: 0863 0d11 4946 d03f 5d71 ed25 c54b 88bf
00000440: 9cc5 b331 283c c83f 959d f30b e62c c4bf
00000450: 8b60 4478 1572 a4bf aa24 ce82 39cd c13f
00000460: 3392 85b8 d8e1 babf c7b8 17a7 b3c2 b73f
00000470: ceb5 554d 1c27 b9bf 7287 977c e8d4 84bf
00000480: 2151 983f bf9c a63f 54e3 9d18 41f3 b63f
00000490: 0f58 a778 7683 c8bf f2a1 fdd3 0f2a be3f
000004a0: 157f 90a3 2842 bc3f 0e84 8ce9 58c6 91bf
000004b0: 1a90 7dd5 043f c23f 8f45 3e00 81a8 c4bf
000004c0: baca 9889 b3b3 943f ffd3 7c2e 5d73 b2bf
000004d0: b742 889e cc79 ba3f f47d 15fd 3d10 b1bf
000004e0: fc6f 521b edfc b7bf 395c 6595 86fe be3f
000004f0: 1580 7810 9bc4 c4bf 8614 dc69 1d1a c43f
00000500: 6bce 367d 05a5 ba3f 07b6 18cb 3543 b03f
00000510: e7c7 ae7a f1b4 c83f ac2d daa4 b407 bc3f
00000520: 0356 4b5d c1f8 693f cd93 c12c 8e0a b73f
00000530: 723e ea54 52fa abbf 1d73 576f e2d1 823f
00000540: 0ed6 6500 5c23 c33f 715f 73d9 a158 c6bf
00000550: c676 600a bf48 c13f 5e46 2b9b 71b2 b0bf
00000560: 82f3 e762 cf9f c73f 76f8 7a55 2157 a9bf
00000570: 8422 1864 39e5 b83f eade f3f0 dd7b a13f
00000580: c074 5f26 9982 7bbf c8c6 a7ec 46e8 94bf
00000590: 99ce a450 ac32 c83f c1b2 cfba 1a78 b6bf
000005a0: 9014 f3b9 560c c13f 6edc 3a72 2f9e 89bf
000005b0: 6cf4 c71e 7490 40bf f15b c00a 0471 a0bf
000005c0: 4c08 609d 8485 bbbf 467e 472c f070 ae3f
000005d0: 5c7b b727 ffad 993f 6476 7980 3149 a6bf
000005e0: f01a 04c9 3c39 b1bf a9da 6ef0 9180 a2bf
000005f0: 2476 8cfa 7014 be3f 325d 32de 77e1 b33f
00000600: cefc 4449 8d0e c33f dccc 6120 65eb b03f
00000610: 3e39 3d5f 67f6 bdbf 4c84 44b2 09f4 b03f
00000620: a5cc 3e7a 5d10 d23f 5271 b80d e9b5 8fbf
00000630: 1dee 7a34 1736 c3bf 8001 21f2 110e bf3f
00000640: 9105 2403 5874 b13f e499 1899 179c be3f
00000650: fb25 6510 545c c1bf f2e7 cecb d522 b9bf
00000660: eaca a1e4 4af0 c53f 3033 8b19 b0ec a1bf
00000670: 48ed ddc2 4643 b0bf bccd 4391 f07b b3bf
00000680: 5b2c cd40 1c27 923f c7fb e66d 9eca c4bf
00000690: fe07 fbfe 5b46 c33f bd74 d424 16df c4bf
000006a0: 8a06 56d5 7840 b1bf 17ee 9516 1bae cbbf
000006b0: 0b4f db13 2878 63bf 7209 e7af 3b33 69bf
000006c0: 0c3b 0d9c c465 b33f 81b7 b315 bb85 ac3f
000006d0: 8db4 57a4 6fa8 c4bf f6d3 edac 4986 a43f
000006e0: ebc1 f9e9 a7a4 c43f f580 6afe 59b3 babf
000006f0: d312 7cb1 5e21 a13f 171c 9864 72e8 c13f
00000700: 99b1 b722 5639 c63f 00f6 0f59 0d3d c03f
00000710: ee5b 2f16 0177 c63f 9a24 50a8 72f6 bfbf
00000720: 1f9b edb5 89f3 903f 8099 8277 dba5 b23f
00000730: 1522 7bf2 d699 bb3f 2008 9314 f9b4 c43f
00000740: d5ca b9f4 13ef be3f 84a8 c03c 5227 c83f
00000750: cb5b fcc0 790b 833f 34e2 7cb5 5a21 c0bf
00000760: b4f4 c034 2e93 b93f d3fe 43b8 5f8f a7bf
00000770: eaca 33fe bd13 c0bf 5df0 5815 e003 c7bf
00000780: 7ecb 3145 b837 c33f 1ea8 ac8d 6275 98bf
00000790: 913d 426d e162 b43f 360f 3b0b 3bc1 bfbf
000007a0: 6fd9 9539 78bd c8bf 70cc 5264 ae7a 93bf
000007b0: e386 f05a 439a 99bf 3f1a 62d2 ace6 60bf
000007c0: 679a 8946 aa31 bbbf ed96 98d5 96d7 913f
000007d0: 4ce2 0ebc d3a2 c73f 6b90 fbda ddc0 bcbf
000007e0: b01a 5706 9d14 b03f 1c3e 369f 3daa 99bf
000007f0: 02b2 0573 b625 b03f a01e cb6d 6ac8 a73f
-0.06340412739726134 -0.10742075153690522 -0.11125428595922639 0.20824162478757813 0.03806896462554023 0.030271640819530942 -0.04206187875624669 -0.07709492918880621
-0.12029899503216036 0.1663021201918722 -0.09232191567443722 -0.026693979091451558 -0.11442086829957708 0.008076378372297549 -0.07160491703457562 -0.16001221762751977
0.11274520299384987 0.08346861183141276 0.021079484680012753 -0.16321589552396046 -0.023454759993044964 -0.1743253848749624 -0.05168511208875105 0.11076503210929506
0.13316616282111332 0.19933715224581824 -0.09007919585823762 0.02210575527625149 0.06544385000609447 0.008868085732387138 0.132980885956229 -0.06332217587016704
-0.14604206226383987 -0.08118189181009908 0.15735176388385408 -0.057239263658531325 -0.027773742110732313 0.03059216786884502 -0.0679060506573391 0.008583903362063286
-0.09526024136618964 -0.12317371114368005 -0.06128641951149506 -0.11799477633516332 0.01843339321669151 -0.027972969567380594 0.05988327756975735 0.014495082905893965
0.048799238492317334 -0.13448714612784235 -0.0250741570500951 0.013620456716409528 -0.010682481108841301 0.07141661353028717 -0.14176172922024147 0.007938232649912356
0.11456304224300531 0.18908476246367886 0.017387782925933952 -0.1381043034437295 0.10375577836732063 -0.1625467837691063 -0.009311440713966893 0.0294701296721255
-0.15283476184710615 -0.07613927157016004 0.16332153225926105 -0.14735938708224847 0.14093789466863132 -0.07409239765496327 0.05322818417923797 0.1318509184918787
0.17223461185699399 0.03833138403751836 0.03496439823340556 -0.20947895772669176 -0.16208080984234838 -0.1292842036592888 -0.18555047928417467 -0.07305166402649885
0.10369617908822698 -0.006287129688353243 -0.018287909381078424 0.011364145495610099 -0.1636090915423254 -0.10565696182127583 -0.10844848660298428 -0.15696102538597043
0.15160271863573868 -0.11047637508037818 -0.19496431857890012 0.13382292080668284 -0.010056990138165264 -0.09722566581327605 0.1194260031166711 0.142384732827331
-0.11736628043893506 0.09092941507020405 -0.1617176154253643 -0.03432297749885167 -0.10114342126355992 -0.16951694926453792 -0.23970376376858285 0.039329486395090305
-0.07127408020443989 0.08487599475112217 -0.0855508576601538 0.06187688887440245 -0.09684115980163414 0.11451640221444526 0.07092723437801791 -0.0983393040715652
-0.1409881203733825 0.01216020696288127 0.11899190051881295 -0.13263627108255693 0.21054715086002415 -0.11032209083810908 0.028827339298890402 0.07284118306984687
0.09621265253282413 0.16532025034349163 -0.029747092313111255 0.1796426180166373 0.016068735598314104 -0.01126771977959128 0.00210428113256784 -0.14590035260229176
0.057661457342586105 -0.060730814995204656 0.12026212216633618 0.21374109080800463 0.12061474481152357 0.06300887868150885 0.2542898813749592 -0.011863270015674382
0.1893358462034883 -0.15762019713950495 -0.039932890826265575 0.13907545935606908 -0.10500864510465462 0.09281466321383212 -0.09825302970940372 -0.010171715070956575
0.044164635193882036 0.08964926577563165 -0.1915119256142934 0.11782931256823995 0.11038450234672965 -0.017358197455113404 0.14254818367328498 -0.16139233123662364
0.020216756127590975 -0.07207281479789172 0.10342100973526668 -0.06665408543403101 -0.09370309750596556 0.12107125422822741 -0.16224993042214977 0.15704696339540564
0.10408052737221289 0.06352554520045582 0.19302195062988334 0.10949257874215473 0.003170373597053412 0.090004812170789 -0.05464417730865713 0.009189385435939773
0.14951658267425255 -0.17457984082897895 0.135032539431384 -0.06522283590609265 0.18456451730153495 -0.04949287575208043 0.09724768346507956 0.03414815489116825
-0.006716345063947304 -0.020417316622064502 0.18904642045673795 -0.08777014790366434 0.13318904952590005 -0.01250874583580083 -0.0005055014603950864 -0.03211224204294883
-0.10750607340017487 0.059455399899658576 0.02507780723487528 -0.043527171070974174 -0.06727962405794208 -0.03613716182683408 0.11749940983687474 0.0776591222259995
0.1488815887223382 0.0660918430383392 -0.11704107356238055 0.0662237224792232 0.2822488492776734 -0.015483685237136644 -0.1500882154704052 0.1213084427008706
0.06818151547124375 0.11956927764604292 -0.13563013840239066 -0.09818779207026276 0.17139564670249935 -0.03500891029179909 -0.06352655656330797 -0.07610991999154398
0.0177273191978141 -0.1624334370262359 0.15058469724868923 -0.1630580596765067 -0.06739001472853992 -0.21625078776183734 -0.002376631046766669 -0.00307618768349121
0.0757716065393021 0.05570778503339025 -0.16139026188412622 0.040087034568308796 0.16127489971724115 -0.10429918729142058 0.03345771709976977 0.1399062148268235
0.1736247701186471 0.1268631634592765 0.17550672133685857 -0.12485424622731714 0.016554023484242394 0.07284328143814456 0.10781615657754913 0.16177285675627306
0.12083554005384241 0.18869998899873874 0.00929923172183846 -0.12601789342603953 0.09990204608853298 -0.04601573108993553 -0.12560248291227732 -0.17980576555590036
0.15013793352735755 -0.0238852881404129 0.079633797811985 -0.12404221557795556 -0.19328215419563885 -0.01902267920804629 -0.025002529550085206 -0.002063119452091727
-0.1062265798769687 0.017423970019215074 0.18465658838774102 -0.11231791111237192 0.06281453518668445 -0.025063479273340503 0.06307545002136553 0.04645092573406129

fc21.weight f8 [128, 256]
00000000: 5c81 0ffd 069d a13f f79d e9aa 85c2 cc3f
00000010: 1375 3125 8e67 673f f498 8004 c325 a3bf
00000020: d06c ba95 d96a b83f 163d 37a3 e482 a1bf
00000030: cfa0 1774 0b6c aa3f 4328 cc1e 1b18 bf3f
00000040: 6700 78d8 39f8 c03f 4cb0 f672 a67a a2bf
00000050: 44e2 39e3 2d82 b43f 4e00 a20a 4d4a 763f
00000060: 7e99 376c 4400 923f af3b 1ca5 2d32 a03f
00000070: dfb9 1a47 45e9 86bf 559c 4e35 1ca3 b03f
00000080: c433 bfa9 e074 643f 18ff 9573 dc6a a13f
00000090: 3152 e020 6c8f b8bf 4360 8a99 9397 be3f
000000a0: 00a7 54e9 e0e1 9bbf 3da3 b5e5 0cf9 a23f
000000b0: a7ca 21b4 0b9a 8cbf 937c b0a4 a386 773f
000000c0: d492 f40d a65a a83f 444e 4649 0d63 afbf
000000d0: 7096 d313 2743 c8bf 4793 a251 3b27 a7bf
000000e0: 1428 3675 5b34 b2bf 42a2 8ad4 fddb c13f
000000f0: 1891 5778 d666 bbbf 4aed 1b67 142c c63f
00000100: 981a 7baa 093c c9bf 4252 99b6 2819 ad3f
00000110: 342f 9a49 8fd7 793f 5576 cd64 7c1e a5bf
00000120: af22 09c8 94fc 71bf eef2 d276 64b0 b6bf
00000130: 7b47 36da 193f c2bf 7b3d 5f38 dd9e bb3f
00000140: fbce e4f0 368b 973f 59c2 efdc aa09 a0bf
00000150: 1009 4fef df26 cebf 2b22 7f59 3984 9a3f
00000160: f56d c1d3 4f07 a5bf 2a0f e72f 10de babf
00000170: 0a3a bd53 a1cb bbbf 0e8c e44c 8422 b03f
00000180: aa9a caf9 e0a6 a33f 108b b7ba 4cb5 763f
00000190: 1844 b0a9 6d69 d7bf 4166 6f5b f134 9abf
000001a0: 5aac cd9a 31af c23f 23b0 0e79 fcd6 be3f
000001b0: 581d ead9 7f9e bfbf e312 7efe 9542 90bf
000001c0: 833c d069 63c2 a93f 684b 4e28 95e1 b4bf
000001d0: ae2b 0681 9fc3 ac3f 33a9 c4dc 2879 9dbf
000001e0: 2e7f e875 04da c0bf 0b82 254a f419 b63f
000001f0: b2fc c54d 0fe4 b83f ad0c 08ed 4857 abbf
00000200: 28f6 ad21 0f13 c43f 6f8a 16b7 bffa aebf
00000210: e444 02f0 cdbd bbbf ea3e b9c4 e216 ae3f
00000220: e64c e1b6 3302 a23f 507f 8e99 d25d b0bf
00000230: 14a8 e246 5e73 83bf ac54 26e1 cd28 c0bf
00000240: 31e1 c778 64a5 b5bf abf1 3ba1 ca84 b13f
00000250: ca3d d504 9b76 b4bf 70f2 be67 f733 a6bf
00000260: 6685 0815 646a b93f c79a 29d9 6d50 953f
00000270: 2535 ad03 7311 80bf 7a26 ee5a 381e c33f
00000280: f95f bf1d 0674 afbf 5b8c 5b7a 251e abbf
00000290: 8c37 7e4c 72d9 ba3f 3eeb a33b 2051 c1bf
000002a0: 825b 51ac 50b7 a73f ded4 07c4 d9e0 bfbf
000002b0: b943 d06f 34de b2bf 72fc d314 178f abbf
000002c0: 0ec7 4375 5709 c53f 4285 5dce e2df adbf
000002d0: 39df 7c0d c44c b33f 7472 ed29 323a ac3f
000002e0: 735a ee0e 5890 c23f e392 0c02 098d c2bf
000002f0: 1ec3 1965 97f2 9bbf 2e88 507c bd19 ab3f
00000300: 1a55 0db1 fa4a 9bbf 0ad2 6525 ecc2 80bf
00000310: b0fa eb44 13b2 bb3f b409 d80b 05b5 5cbf
00000320: e912 72d4 8c44 8dbf c06e e2e7 ae45 c2bf
00000330: a57b ac24 0359 c7bf dc84 3864 097e c63f
00000340: d2ea 0a0d 65c7 a6bf d7fe 9522 adcc 943f
00000350: 0c7c fbc4 db83 c83f e6c7 02e1 3dc2 bd3f
00000360: 7c4c 9327 01d7 94bf d33a 37ce a18d cbbf
00000370: a20d 241d bdc2 96bf 0b94 643f 243a b73f
00000380: 65db 1793 557d a4bf a35f 56b1 9299 83bf
00000390: f61a c8fc 7856 8b3f ff71 8bd5 d373 b4bf
000003a0: 0091 4ead 869b d5bf 7704 b5ba 2ff8 abbf
000003b0: 98f6 d302 cf61 c0bf fbb5 d96e a540 8c3f
000003c0: f7f8 2154 d904 bb3f f31c ecd6 5aa8 5f3f
000003d0: f898 7188 23e0 a1bf 0429 e8da 7f62 a43f
000003e0: cdde 8912 eb55 a63f a9cf 035a f005 a53f
000003f0: 5040 a9b6 4dc4 b83f c8e5 40b2 8974 c7bf
00000400: 1485 ff75 cd0d 733f 9cd2 0e51 0f12 8dbf
00000410: 264c 1669 2a93 b03f d470 ebd2 b8e8 78bf
00000420: 9cab 4dfb 8229 9a3f 8f0f 94a2 4e71 ad3f
00000430: 7482 fdaa 37f6 b1bf 2498 6b49 306e a93f
00000440: 4d10 eddf 1b40 c3bf 8db2 9d02 f352 97bf
00000450: 99b1 d21e d05a babf 6ee1 8d9d 2408 ac3f
00000460: afff 7cbf 9d09 95bf c3f6 318a 859c b6bf
00000470: 3afb 45b8 63fa 753f 6da3 70fc 2877 b23f
00000480: d4eb b64b d698 ba3f ef18 5850 f13f 97bf
00000490: 41d1 aeb2 1537 803f 9015 ba67 2051 c9bf
000004a0: 36b2 4e6b f72b 9cbf 220f e3a5 cf36 bdbf
000004b0: 71d2 d8b1 ebb8 c1bf 0864 8064 3881 babf
000004c0: 7b44 bc90 5fe2 b8bf d58a de9f 81c2 bbbf
000004d0: 02a7 4f6d ca08 8bbf 936d b700 d923 97bf
000004e0: 7d29 9a7f 1bb8 b4bf eead c750 0ea2 86bf
000004f0: 30f9 c944 6cc5 c1bf b644 9905 0bf8 853f
00000500: 08a4 66a4 03f7 923f 731d c2f4 9521 b9bf
00000510: b832 2022 b677 c33f a4b8 dd2b 895d b1bf
00000520: ccb8 f585 10fe a1bf 5311 111e 614a c3bf
00000530: 42c4 966f 1a16 a33f 9684 2d5f 8d8d b5bf
00000540: 9628 7c73 2240 cabf a28d 414f ac59 933f
00000550: 1612 6dfd 0342 9bbf 8f17 6cd0 715c c3bf
00000560: 4f13 824d 1800 be3f 6f7c 7730 b340 b33f
00000570: ecc0 a03d b877 be3f ec50 2dd5 2413 b7bf
00000580: 9160 8ca7 b4cb a6bf 9d20 1622 b0b3 90bf
00000590: 806b aab6 1b01 b7bf d65b d3a2 4eb3 be3f
000005a0: 9bff e2c2 179b 9ebf 9809 4c0b 5eb3 b03f
000005b0: 962a 1dbe 4a01 b63f 38d4 2b7f b767 703f
000005c0: cddd 3c22 d0bb aabf 891b b918 19b8 a43f
000005d0: d7eb 2c6e f74f ba3f 30d4 71b5 022f c13f
000005e0: 74a2 6ea4 a19e c03f 46c0 f6c8 640b b7bf
000005f0: 2046 d71c 95b8 b13f 1aa1 e4f2 bbb0 a8bf
00000600: ba25 9571 aea7 d0bf a899 343c 31ac d2bf
00000610: b6d4 d50b 8034 993f 3833 2892 1e55 933f
00000620: f1ed 3155 5c00 c1bf 5b30 9e0a f92e b33f
00000630: a2d7 f0d3 9999 ccbf 55d9 9f5e 89d6 b1bf
00000640: 5ba7 a5df 5a43 a43f f324 5de1 f915 a43f
00000650: 59e0 133d 22a2 c4bf cbe8 7bc1 6758 d3bf
00000660: fef1 54ba 0fe6 c2bf 7d65 54b7 d5c0 a23f
00000670: dd9c cc7d 3ba2 cd3f 729f 304e dca9 72bf
00000680: b493 506b fd46 c0bf c849 c4a2 cd04 b7bf
00000690: 715a 5c1a 57d7 acbf 3997 add5 ce21 babf
000006a0: c85f 7c67 1dea bfbf dc3c e692 3562 bfbf
000006b0: 3650 c4bf 63f8 85bf c4e6 21c1 cfa0 cb3f
000006c0: e3c8 d77b c606 a83f 5951 3910 bb61 bfbf
000006d0: 4c0c 0d70 599f 94bf f1bc 0409 efc2 bf3f
000006e0: 05fd 4469 cce6 8fbf a78a 7e6b c720 a03f
000006f0: 5190 57fe 97c3 b33f 0306 dd82 b4ab ac3f
00000700: 0db6 c510 9c90 c3bf 165f f0b3 028e ba3f
00000710: 0b6d 9b36 ca26 a43f 715a 5ab2 1d23 bcbf
00000720: cd34 6f9f fb23 90bf db65 ec29 3da1 b5bf
00000730: 78e6 b9b7 9f2f d4bf 945c 2572 cefa c6bf
00000740: 3671 6dad 66b6 97bf 0943 8223 6101 bd3f
00000750: 3a4e f30c 4dbf c5bf 9b02 7303 7fe8 a9bf
00000760: 598f 96fc 6cd4 ad3f 37a6 bac5 23c7 a8bf
00000770: 3353 6cd2 dee5 c3bf 2db0 6f8b 8ecb c23f
00000780: f073 cb5d c885 923f d43d 4a49 7ed8 1fbf
00000790: 9526 6325 5dd8 b6bf 65ff e688 53b2 c03f
000007a0: 86ea 26a1 b369 b5bf 4dd1 824f 9724 953f
000007b0: 5bcd d374 bdc1 92bf 678b 723c 0e32 c63f
000007c0: 81b5 0a6f 8ff3 bb3f ac30 82ea 8b9c 8fbf
000007d0: 469d 79b5 3415 c53f 7260 ff9f edfd c1bf
000007e0: 37fe f6d9 c779 a6bf 7a5d 0445 a73e bdbf
000007f0: 2988 c1ed e557 713f 72d3 9db9 a88a a3bf
0.034401148215468 0.22468634457912603 0.002856996181022206 -0.0373974745746625 0.09538040070985976 -0.03420176021938397 0.05160556594984344 0.1214615774335082
0.13257525510562404 -0.03609199670185656 0.08011137769234106 0.005441952651494898 0.01757914457803044 0.03163283005243699 -0.011187115890916864 0.06498886395876131
0.0024971378279361207 0.034018410787210296 -0.09593845179217265 0.11950037478016022 -0.027228845826505754 0.03705635360785784 -0.013965693888370835 0.005743636352263287
0.047566594317947214 -0.061302581019074626 -0.18954933612910763 -0.04522118922731138 -0.07111140834436497 0.1395261085319977 -0.10703792989767569 0.17322020563720236
-0.19714470695744946 0.056832573213487794 0.006309089390594203 -0.041248214058879164 -0.004391270806600885 -0.08862903500535044 -0.14255068926700773 0.10789282442350683
0.022991999104489996 -0.03132375666598781 -0.23556136307713205 0.025895019614639175 -0.041071409796781845 -0.10495091599937881 -0.10857590002454046 0.06302668454422664
0.03838255929195118 0.0055439946404216706 -0.3658098370661391 -0.025592585759886658 0.1459714895130187 0.12046792941572497 -0.12351225919893716 -0.015879005105960863
0.05031119028728261 -0.08156711801556826 0.056179985523235984 -0.0287824997659893 -0.13165336377368803 0.08633353052346864 0.0972299160839494 -0.05340030568552243
0.15683163780697496 -0.06050681219064279 -0.10836493596640967 0.058768354906190215 0.0351730499975476 -0.06393162011090436 -0.009497391260385547 -0.12624524587287078
-0.08455493878125676 0.06843248783474702 -0.07993477695457965 -0.04336522237233431 0.09927964700229594 0.020814625148342338 -0.007845781850529374 0.14935974540667357
-0.061432067042630885 -0.05296437376616644 0.10488046996598949 -0.13528826629757335 0.046320458445442206 -0.12452469859984514 -0.07370307664702026 -0.05382606629609023
0.1643475840169732 -0.05834873932941288 0.07539010361949473 0.05513149987993851 0.14503002862030065 -0.1449290523534251 -0.027292600198452914 0.05293075697433412
-0.026653210693742137 -0.008184285060203873 0.10818596298848138 -0.001752142837518106 -0.014290905221295573 -0.14275156328664274 -0.18240393915854472 0.17572133439629212
-0.04449001106464369 0.020312028156239528 0.19152400129584668 0.11624514335088029 -0.020351427116861207 -0.21525976723793025 -0.022227244285216614 0.09073092029264289
-0.040018724637710425 -0.009570261036784993 0.013348527159008122 -0.07989238704198696 -0.33761755871297794 -0.05462788728846928 -0.1279848827179435 0.013795177884470702
0.10554273895283815 0.0019322287659536113 -0.034913168340425516 0.03981399104312014 0.04362425423908931 0.04106093500914138 0.09674535474300794 -0.1832439537409256
0.004651835042723169 -0.014194602643194991 0.06474556985476507 -0.006081315964106621 0.025548979366628907 0.05750509008978987 -0.07016323017661269 0.049668797457158825
-0.15039394792450125 -0.02277736381022293 -0.10294819595828243 0.054749626381581304 -0.020544495403782722 -0.08832583068757587 0.005365743189371492 0.07213073885999473
0.10389460896014607 -0.022704859284225994 0.007917565837353481 -0.19778828682698846 -0.027511468815349903 -0.11411760139440877 -0.13845583137448927 -0.10353424504900499
-0.09720418246821964 -0.10843668129977442 -0.013200360737716025 -0.022597685497982644 -0.08093425622261026 -0.01105128463765134 -0.13883736952625148 0.010727010830267818
0.01852040949748715 -0.09816872811835768 0.15209080377862505 -0.06783349343251871 -0.03514148364307487 -0.15070737808322096 0.03727800953073103 -0.08419116567303528
-0.20508223189273583 0.018896763169676263 -0.026619016974352837 -0.15125868489138525 0.11718894855773708 0.07520599301595764 0.11901427750194998 -0.09013586239354127
-0.044522901013068446 -0.01631045539900865 -0.0898606606446446 0.1199235103152739 -0.029888507146779025 0.06523692870908915 0.08595721379712482 0.004005162033299085
-0.05221414964620017 0.04046705652995459 0.10278269233542346 0.1342471490822006 0.12984104660906193 -0.09001760393471256 0.06922275499462005 -0.04822337474826295
-0.2602344617085596 -0.29175978545608894 0.0246143347953491 0.018879392309872872 -0.13282350692666925 0.07493549832560246 -0.2234375271670475 -0.06967981872717151
0.039576377678556006 0.039230164299235336 -0.16119792921358814 -0.30227083105968394 -0.14764591787560727 0.03662746298705153 0.23151343958418283 -0.004556522911151594
-0.12716644039133274 -0.08991704200551631 -0.05633041569506226 -0.10207836834669316 -0.12466605926999741 -0.12259230457697207 -0.010727671899566454 0.2158450787572318
0.046926691644232375 -0.122585002385056 -0.02013911959080543 0.12406820268801134 -0.015576931917733914 0.03150008380113905 0.07720327338717083 0.055997506117375216
-0.15285063570938498 0.1037294091514663 0.03935844341841673 -0.10991082767791639 -0.01576226387605999 -0.0844915606834528 -0.31540673200615954 -0.17952900479824463
-0.023156742415595143 0.11330229870715071 -0.16990054256767612 -0.050601929827739776 0.05826130469657071 -0.04839431561169898 -0.15545258783881763 0.14683706100856977
0.01808846542813919 -0.00012148161688173921 -0.08923895037437497 0.13044208702740004 -0.08364412960410492 0.020647396305052457 -0.018317184691978166 0.17340257598433625
0.1091851850603316 -0.015435307592518953 0.16470965252958986 -0.1405617743719208 -0.04389786277488066 -0.11423726496683698 0.004234216841810614 -0.03816725984407911

fc21.bias f8 [128]
00000000: 24dd aa2c 8d7d a43f 3251 1f36 18c8 a1bf
00000010: bac0 807f e600 a9bf ccb9 c5e8 2201 a83f
00000020: 476e 8851 8de8 b1bf 5b5a 1939 7aeb 9ebf
00000030: 45cc 6d2f b169 a1bf d16b ce54 2ff7 ab3f
00000040: ed04 ebba a2fc a33f 4234 da5c e237 b0bf
00000050: 0cfd 70da 2e29 9a3f d4ae c858 8201 953f
00000060: ae2c c2f2 6c57 a13f a51f 46a6 cba8 a7bf
00000070: 9287 2e4e 0b4f a5bf 0eb1 a114 eb1f 9dbf
00000080: 9295 d8ca f277 97bf 940e af27 67fb b1bf
00000090: 4f8e 3deb aa5a 81bf 079c 2f24 3051 ab3f
000000a0: b9d6 5948 81a8 983f 2b8f 9ee9 6a66 a4bf
000000b0: fa9a 425b 69fe a2bf 5ede 2857 5202 943f
000000c0: 4013 19c3 00ea 8c3f d2c4 4973 ae5f 843f
000000d0: 7df5 26b8 87db a6bf 06e5 35e9 93af b63f
000000e0: 536f 36d4 cad6 a3bf 9469 6e92 2889 47bf
000000f0: e854 2cd5 b640 4bbf 7719 058a 4890 8a3f
00000100: 0511 340e 8607 99bf 937b bbf9 df49 ac3f
00000110: 2be6 28a4 4114 b0bf fa06 1d0f f15c a6bf
00000120: 6b6f 6f1a 63e2 9ebf 801f 9073 d84f a23f
00000130: 3c81 79fd 8f42 76bf ae40 e315 d552 9dbf
00000140: 8d68 5b8e c359 a4bf aba1 e9cc 718c b0bf
00000150: 95bf a4c8 4b40 a03f 304b fc23 513d a63f
00000160: 5240 fe91 545c 90bf b9c9 01f0 2b70 983f
00000170: 8712 24e4 6819 ac3f ec0c 3bec cff9 b33f
00000180: bfea 70b4 8f0e b4bf 113c f291 3274 aebf
00000190: f142 ce7e 6cf6 b23f ca4d cde2 393d 6d3f
000001a0: 29b7 4624 114c b1bf 17ea 3e8e ae5d a83f
000001b0: 1ed6 fce0 4588 9fbf f4de 83d4 9da1 7a3f
000001c0: 83fb 87a1 f102 86bf 0475 c9f5 cf40 a5bf
000001d0: dfeb 4815 27ee 74bf ea35 a39f eae9 a83f
000001e0: 0a60 bb78 e0de abbf fe44 55e0 41ab b1bf
000001f0: 9fb4 3b84 0390 a2bf 44b3 1288 cf02 b93f
00000200: 7f2d ad42 c90f 8d3f 1c79 dac6 e318 973f
00000210: 6f77 5701 947b b53f 9c53 6815 47bd adbf
00000220: 9990 8e21 becb a03f c784 dc90 d15d ae3f
00000230: c042 0a1e 6d2f a6bf e9c7 4e1a 7453 a33f
00000240: 2174 4703 69b4 8bbf 34c9 df9a 149a acbf
00000250: 86fd f731 f1bd afbf a6f8 0f8a d524 963f
00000260: 6600 5ea4 61a0 a33f 86e5 6d9c 4bf3 a5bf
00000270: 06c4 44e7 f357 b33f cdcd 4258 f7b9 b0bf
00000280: 82ee 2ee7 a4da b7bf ed56 634d 079b 57bf
00000290: 022a e510 a27f 9bbf e827 5b30 5a6c b0bf
000002a0: 1d56 3f9f 0a6e b13f 588e 782c b4a2 1abf
000002b0: e172 68ae 7078 70bf dacb 9031 869e a93f
000002c0: 446b 817e 1bc5 a2bf 4c51 ff39 0926 b8bf
000002d0: 3e2d 0dd3 ce06 583f adcf d69f ebfd b13f
000002e0: 0780 d3c0 f790 b03f 486b 81a7 c67b 913f
000002f0: ba1d 4dee 4092 8abf ee9f d512 6323 7a3f
00000300: 897b 3496 7d2e 95bf 9da6 0c12 38c1 a33f
00000310: 79e6 53db a6a2 a5bf 46ae c74d 930b 6c3f
00000320: f1e7 cfa6 cbb0 b3bf f548 ef8a 5554 9a3f
00000330: f309 2867 a8b5 63bf d9b6 a543 9db1 b53f
00000340: d9a8 17ee d317 8fbf 155d 92bd 06ca 933f
00000350: 7e55 33a5 4a72 833f 146b 2303 9205 b73f
00000360: 42d5 f6e0 a8b8 a3bf ff0c ced6 3d2e 9cbf
00000370: 7152 6f42 f788 a03f eaf4 96e7 346f 90bf
00000380: 5884 88ce 2ace 693f 5dfc 7f42 dd56 8d3f
00000390: d4c8 6740 1d23 9ebf c336 fb5c 288c 6f3f
000003a0: 40d1 2dd1 3e8b b03f 83ca bc6b 066e 953f
000003b0: 377e a4f5 c1cd a8bf de79 b062 b181 b0bf
000003c0: 9d14 ef7e 5aec a9bf eb62 09e8 f5f6 a73f
000003d0: 52d5 4536 5ee5 883f 375a 687f 9450 843f
000003e0: 86eb 9c45 cb4d 88bf 2e21 d72b b664 b13f
000003f0: c5b3 e7ea 52eb b4bf d789 9367 b3bd 99bf
0.04002038164383695 -0.03472972546265608 -0.048834994377445054 0.046883669771762365 -0.06995471230077853 -0.03019515012268879 -0.034009491958294315 0.05462024603112748
0.039036832158226044 -0.06335272566703146 0.025547725756266224 0.020513569516125 0.033870129235844856 -0.04620968250952665 -0.04161868409506932 -0.028442071089032565
-0.02291850436281135 -0.07024235457270783 -0.008473716072052854 0.05335379068110773 0.02408029560179756 -0.03984388448523498 -0.03709725607887111 0.019540106363108094
0.014118200258175784 0.0099481228764681 -0.04464363215400178 0.08861660426727633 -0.03874811020361215 -0.0007182548623519296 -0.0008316891420202784 0.012970511161836324
-0.02444276296320515 0.05525112079134611 -0.06280908830458347 -0.04367783841600033 -0.03016047333572606 0.035765422922906076 -0.005434572659936795 -0.02863629289714769
-0.03974734413869028 -0.06464301350354755 0.031740539782162326 0.04343656124378581 -0.015977212343898657 0.023865400813926494 0.05488136086390676 0.078030581639769
-0.07834718852329113 -0.05948026687212161 0.07407262893526557 0.0035692339501254043 -0.0675669396939297 0.04758973585508757 -0.03079327760425176 0.006501785778020287
-0.010747802488365604 -0.04151010394410018 -0.005109932583361647 0.04865964125347573 -0.05443479036119932 -0.06901942946321424 -0.036254987613440585 0.09769913742156883
0.014190265986733007 0.022555884372757892 0.08391690285449525 -0.05808469902345978 0.03280443343763401 0.0593095292408719 -0.04333058349323471 0.037746074878114495
-0.013527698910303755 -0.05586304083398588 -0.0619960187432254 0.021624886085185445 0.038332988085131345 -0.04287182125603821 0.07556080242353866 -0.06533761887367646
-0.09317999500393095 -0.0014407702743048326 -0.026854069024276235 -0.06415332489555647 0.0680853499209992 -0.00010160660451013473 -0.004021110688452651 0.05003756861733395
-0.03666006011254422 -0.09433038392973464 0.001466466881725761 0.07028076793977674 0.06471203286810133 0.01707373044369412 -0.012974269173027565 0.0063814039288914
-0.02068515996245027 0.03858351917581369 -0.04225655963268777 0.003423488333501176 -0.07691643545686568 0.02571233425607829 -0.0024059571380814436 0.08474142934366159
-0.015182166770462068 0.019325356789150556 0.009495337645072818 0.08992874695415437 -0.03851821657318989 -0.02752014754834153 0.0322949665639144 -0.016049219737159705
0.0031500660009134256 0.014325836746136906 -0.029430825286859655 0.003851012071982436 0.06462471587093876 0.02092752487733175 -0.04844480632368369 -0.06447895678909485
-0.050631359095441676 0.04680603463629559 0.012156234771036143 0.009919319284603307 -0.01186713033859178 0.06794298715897604 -0.08171575770366164 -0.025137713619992254
