weights/model_base_single_input_obs_wc_nolim_linp_f_fullsuite_1_bn.pth (torch, 380610 bytes, 10 tensors)

fc1.weight f8 [256, 53]
0	0xbfa0716ded8ba162	-0.03211539768909934
1	0x3fd40efb44ab9604	0.3134143992050158
2	0x3fc34ee92641e03d	0.15084566467317187
3	0xbfc19f92cd49b72b	-0.13768229507280103
4	0x3fb790d36327d6ff	0.09205361529151544
5	0xbfb78412e1f717b7	-0.09185903565148022
6	0xbfbbbffe5b5c8be6	-0.10839833956246955
7	0x3fb89206eb830d7d	0.09597819566538664
8	0xbfb80887d0c5d0ae	-0.0938801655482304
9	0xbfc0e77fc14bbbae	-0.13206479013703415
10	0xbfbc6c6e00000000	-0.11102950572967529
11	0xbf848e9100000000	-0.010037548840045929
12	0xbf5265e431742695	-0.0011229256104478326
13	0x3f8ccb331d0993ef	0.014059447597171341
14	0x3f99844c20000000	0.02491873688995838
15	0x3fc112f8c0000000	0.13339146971702576
16	0x3f96c691bce8bd8e	0.02224185672292616
17	0xbf945ee10a459fd5	-0.019893184902144718
18	0xbf8d6b2ba0000000	-0.014364567585289478
19	0xbfb6a1bd60000000	-0.08840545266866684
20	0xbfc406ade862e83d	-0.15645383688917205
21	0x3fb8637252468809	0.0952674342029526
22	0x3fb8bc2e60000000	0.09662141650915146
23	0x3fb2b99ca0000000	0.07314471155405045
24	0x3fa04f2bbe745ec8	0.031854025839661626
25	0x3fb72424ed664750	0.09039526744734627
26	0x3f8071bfc0000000	0.008029459044337273
27	0xbfbeef0b60000000	-0.12083502858877182
28	0x3fac1bbbde745eab	0.05489909258375055
29	0x3fb5eb2903c7b836	0.08561951010025912
30	0xbfbba7b800000000	-0.10802793502807617
31	0x3f9bf31b60000000	0.027294566854834557
32	0xbfb786fed0c5d0ae	-0.09190361592283366
33	0x3f9612333337f7fa	0.021553802491318642
34	0x3fac2789c0000000	0.054989151656627655
35	0x3fa54c2e00000000	0.041596829891204834
36	0xbfc07a742862e85d	-0.12873699161520138
37	0xbfb892b5335f27a0	-0.09598858360473494
38	0xbf91de0f40000000	-0.017448652535676956
39	0xbfc17080a0000000	-0.13624580204486847
40	0x3fa5c7c7de745ebe	0.042539831070994336
41	0x3fab92652d6ce598	0.053851281924333694
42	0x3fb2cf0a40000000	0.07347168028354645
43	0x3faeeae3a0000000	0.060385812073946
44	0xbf952d83a3174271	-0.020681435422206854
45	0xbfc20a1e938d973d	-0.14093382076969788
46	0xbfab811bc0000000	-0.05371939390897751
47	0x3fa40c91c0000000	0.03915839642286301
48	0x3f9fabda3ce8bd8f	0.030929002730940843
49	0xbfbcf3d70c567fff	-0.11309570361345321
50	0xbfbdca1c20000000	-0.11636520177125931
51	0xbfae0abbe0000000	-0.05867564305663109
52	0x3fc50a93cb4285fa	0.16438529419706055
53	0x3fb3c0e4c6ddc733	0.07716207366118226
54	0xbfcdc17069500d71	-0.23246579305860451
55	0xbfbaa257762b06ea	-0.10403963694536925
56	0x3fb147c2c7da0db6	0.06750123385614057
57	0xbfc43d15d666a695	-0.1581141754989416
58	0xbf3a6298b80afc3b	-0.00040260532845687633
59	0xbfcc89095bd3d320	-0.222932023847215
60	0xbfa3add0ae8f2c5a	-0.038435479458336544
61	0x3fa27a539dbb8e5e	0.036089528088066855
62	0x3fcb86bd5abf3842	0.21504942828181767
63	0xbfaf3ea140000000	-0.061024703085422516
64	0x3fba208f00000000	0.10205930471420288
65	0x3f994e19bb771ca0	0.02471199232766408
66	0xbfca63bd91c54720	-0.20616883866983304
67	0xbfc191ebe0000000	-0.1372656673192978
68	0xbfbd98bc80000000	-0.11561182141304016
69	0x3f98e147e7771ca0	0.02429687834026295
70	0x3fa9d48ee0cfb595	0.0504498147418914
71	0x3fa6cf55a0000000	0.044550586491823196
72	0xbfbbb48760000000	-0.10822340101003647
73	0x3f9771dab1771c9f	0.022895257073994753
74	0x3f8094e1c0132126	0.008096469568400776
75	0x3fbd9c34c0000000	0.1156647652387619
76	0x3f70ee5c60000000	0.004133568610996008
77	0x3fb1382036ddc728	0.06726266231069344
78	0x3fad84924b287816	0.05765206496674595
79	0xbfbc8786c0000000	-0.11144296824932098
80	0x3fbc4efe20000000	0.11058033257722855
81	0x3fb3708356ddc728	0.0759355628086068
82	0x3fbb0424d35fe21d	0.10553198013793304
83	0x3fb3c99640000000	0.07729472219944
84	0x3fb26f45a0000000	0.07201037555932999
85	0x3f4dde536ee394b4	0.0009115130794980137
86	0xbfa88c4526878f08	-0.04794517608004695
87	0x3fa98edc80000000	0.04991807043552399
88	0x3fc1750d20000000	0.13638462126255035
89	0x3f932e4af7771ca3	0.018731280664522242
90	0xbfb053b732298737	-0.06377739882148324
91	0x3fb7d8c520000000	0.09315139800310135
92	0x3f70ed9b00000000	0.004132848232984543
93	0xbfa234bcf24471a0	-0.03555860955586643
94	0x3fb00024322714bf	0.0625021574442881
95	0xbf864d96c0000000	-0.010890176519751549
96	0xbfbfc7d680000000	-0.12414303421974182
97	0xbfb202a3592238de	-0.07035275388827553
98	0x3fb4dda05b8713ef	0.08150675043641774
99	0xbfb13b7160000000	-0.06731327623128891
100	0xbfa107ecc0000000	-0.03326358646154404
101	0x3fbdd63026ddc726	0.11654950093159452
102	0x3f751dddbb48dcef	0.005155435694681672
103	0xbfae635f40000000	-0.05935189872980118
104	0x3fb6d56280000000	0.08919349312782288
105	0xbfc0dc4a21c626ec	-0.1317227044021857
106	0x3fb792ce4f3780b4	0.09208383020404903
107	0xbfb806b3632f3ef7	-0.09385224505899346
108	0x3fc1a5bcb87b4ddf	0.13787039764302642
109	0xbfd4a489bfe83bb8	-0.3225426076978084
110	0xbf820dad9cb9fb0d	-0.008815151544010935
111	0xbfa31be79a99c5f1	-0.03732227098670283
112	0xbfba1e91e11934da	-0.10202895875518739
113	0x3fcdbfbaec81af30	0.23241364048168967
114	0xbfa2d8e6e590fea4	-0.03681108047794382
115	0x3fa6eb690255cf2c	0.04476478723054664
116	0xbfbc7258e0000000	-0.11111979931592941
117	0x3fa7b4b7e0000000	0.04630064591765404
118	0xbf9415d73321fd56	-0.019614565368553848
119	0xbfb3eb605b033dc1	-0.07781030866612239
120	0x3fb6af00a0000000	0.08860782533884048
121	0xbfb0ae3cc0000000	-0.0651586502790451
122	0xbfa4ae8c6990fea3	-0.04039419926311651
123	0xbf8377945439ed3a	-0.00950542337454029
124	0x3fb1251780000000	0.06697222590446472
125	0xbfb9de8c20000000	-0.10105205327272415
126	0xbf810443c643fa9a	-0.008308915603717982
127	0xbfa775bbd2972081	-0.04582011171038492
128	0xbfc09eb180000000	-0.12984293699264526
129	0xbfa1043420000000	-0.03323519602417946
130	0x3fae28939e6f0169	0.0589033251667413
131	0xbf5aa7b63d252d0b	-0.0016268996883635502
132	0x3fa478f160000000	0.03998522087931633
133	0xbfc16c4f40000000	-0.1361178457736969
134	0x3fb6d220ef3780b0	0.08914380874876104
135	0xbfb444e24939ec8e	-0.07917608535528783
136	0xbf6bb7ab20000000	-0.003383478382602334
137	0x3fbffa8360000000	0.12491627782583237
138	0xbfbfb1ae30c87f53	-0.1238049382304756
139	0xbfab784f37fa5c35	-0.05365226324391196
140	0x3fc0938a40000000	0.1295025646686554
141	0xbf95f6b100000000	-0.02144886553287506
142	0x3fb686fc6f3780b1	0.08799722399953926
143	0x3f924ad3350d01de	0.017863559830631696
144	0xbfa0dceb20000000	-0.03293547406792641
145	0xbfbf992640000000	-0.12343062460422516
146	0xbf653ac0190fea60	-0.0025914909278957204
147	0x3fb00c93a46e46e9	0.06269190563605388
148	0xbfbbb67d40000000	-0.10825331509113312
149	0xbfa1edbe80000000	-0.035016968846321106
150	0xbfa8f3543190fea5	-0.048731452036461044
151	0x3fa9d5a375020e68	0.05045805743523318
152	0xbfc1047760000000	-0.13294880092144012
153	0x3fa7297c80000000	0.04523839056491852
154	0xbfbd19d310c87f4d	-0.11367530021425161
155	0xbfa9dd42c9185bbf	-0.050516211555240435
156	0x3fbda4d1a0000000	0.11579618602991104
157	0x3fbe2e4540000000	0.1178935319185257
158	0x3fd1019f1cd55a4b	0.26572397056353186
159	0xbfaaeec6347e0349	-0.052602952869171
160	0xbfb3d2aba19b5526	-0.0774333257243894
161	0x3f96fad8c862a992	0.022441279631189533
162	0x3fbdce78623e86fd	0.11643173597851937
163	0x3faf51c0a956aff6	0.06117059771653992
164	0x3fb32be7b3230002	0.07488868831114817
165	0x3f6e7d6b9f71af82	0.0037219144829147574
166	0x3fb092206e0b6742	0.0647297161734999
167	0xbfc25fe39d1f80c4	-0.14355130359672874
168	0xbfc92e232db5a0a0	-0.1967205022040206
169	0x3fb655e4e0000000	0.08724813908338547
170	0xbfb0cf2e20000000	-0.06566131860017776
171	0x3f85dd7cae07f2e3	0.010676359234815752
172	0xbfc31f3ea929c68a	-0.14939101467057397
173	0xbfb0abeee0000000	-0.06512349098920822
174	0x3f9a3e29c0000000	0.025627758353948593
175	0x3f96dd6c5703f971	0.02232903748608223
176	0xbfc0e797d15fc2a8	-0.13206765864699332
177	0x3f880c2180000000	0.011741887778043747
178	0x3fac18eb80000000	0.0548776239156723
179	0xbfb38fd6ea3f01a8	-0.0764135667695941
180	0xbfc258a98c05413e	-0.14333075844707283
181	0x3fb31a14c0000000	0.07461671531200409
182	0x3fbcc07dc0000000	0.1123121827840805
183	0xbfb0947fc23f01a7	-0.06476591579758538
184	0xbfb8af80f9c03552	-0.09642797563011143
185	0x3fbd8ab740000000	0.11539788544178009
186	0xbfa8f566c0000000	-0.048747263848781586
187	0xbf7f15dca3f01a86	-0.007589208485120685
188	0x3fb7b97dfe3febc1	0.09267413575427864
189	0x3f83f768e0000000	0.00974924024194479
190	0x3f71e079e0000000	0.004364467691630125
191	0x3fb00d1a45c0fe61	0.06269993021941779
192	0x3fa2d5c324b26c41	0.03678712676011076
193	0xbfbd11c300000000	-0.1135522723197937
194	0xbfab180600000000	-0.052917659282684326
195	0x3f9340d3d703f972	0.01880198478556267
196	0xbfb611998e4548d7	-0.08620605204967845
197	0xbfb2b1d840000000	-0.07302619516849518
198	0x3fb3c54020000000	0.07722855359315872
199	0xbfc58c3dcd1f80cd	-0.16834232822203035
200	0xbfb36e3d7e1fa0d2	-0.07590088204563308
201	0xbfb94adb20000000	-0.09879846125841141
202	0x3fae8875a0000000	0.05963485315442085
203	0x3fa16c2c4b81fcc1	0.034028419701820585
204	0xbfa3b13752d67469	-0.03846142660334168
205	0x3fb6dd5340000000	0.08931465446949005
206	0x3fab554000000000	0.05338478088378906
207	0xbfbd4345ba3f01a0	-0.11430774495148066
208	0xbf7a11569acba5a8	-0.006364191340915516
209	0x3fbc36c2a0000000	0.11021057516336441
210	0xbfabc23340000000	-0.05421600490808487
211	0x3fbb846fa9eefad6	0.10748956583754973
212	0xbfc20e5a0599ed66	-0.1410629775381082
213	0xbfcafda700768428	-0.21086585543255976
214	0xbfc40180ac0cf6c2	-0.1562958564845101
215	0xbfbfc3d7563447a3	-0.12408204893679779
216	0x3f8de96ec1b3e0e6	0.014605393682800071
217	0x3fb40b51856b8183	0.07829770572016596
218	0xbfa50c6734f5ec47	-0.04111025353901048
219	0xbfb3db879dedf506	-0.07756850820256397
220	0x3fb798ed14cc251c	0.0921772170805934
221	0x3fc3d6d709c865f1	0.15499389627147722
222	0xbfa73bedc0000000	-0.045379094779491425
223	0xbfb76a42a0000000	-0.09146515280008316
224	0x3fb002a174cc2524	0.06254014111995737
225	0xbfc454613ea0b894	-0.15882506902693605
226	0xbfb3014fe0000000	-0.07423876971006393
227	0xbfbfc95640000000	-0.12416590750217438
228	0x3f8cb0bca661292d	0.014008973910808986
229	0xbfc073f2d79d92f8	-0.12853847053624867
230	0x3fbe6811c0000000	0.11877547204494476
231	0x3fb6850be0000000	0.08796762675046921
232	0x3fbf4e69f4cc2522	0.12229025103092231
233	0xbfbc87f3d2c4bf7f	-0.11144946952549438
234	0xbfa54ce500000000	-0.04160228371620178
235	0xbfa8b18480000000	-0.04822935163974762
236	0x3fa3e7eec9984a41	0.03887888155818021
237	0x3fb1370d906c4500	0.06724629188490283
238	0xbf813d8a60000000	-0.008418160490691662
239	0xbfb1e0bb00000000	-0.069835364818573
240	0x3fafb31ce9984a49	0.061913398280144145
241	0xbfc05250257ff9c8	-0.12751199561166815
242	0xbfb5580200000000	-0.08337414264678955
243	0xbfba247100000000	-0.10211855173110962
244	0x3fb25154d4cc251e	0.07155351824998887
245	0x3fb0e4e5a45bd7f5	0.06599269163766038
246	0xbfc0b48840000000	-0.1305094063282013
247	0x3fb363ce60000000	0.07574167102575302
248	0x3f9a333413309492	0.025585950537920406
249	0xbfb9b176d8b717b3	-0.10036413947008675
250	0xbfaf7934a0000000	-0.0614716000854969
251	0x3fbebab460000000	0.12003638595342636
252	0xbf834d03cd9ed6ea	-0.009424237930811558
253	0x3fb295afa3156809	0.0725965283540121
254	0xbfc0ee5da0000000	-0.1322743445634842
255	0x3fa86fa840000000	0.04772687703371048

fc1.bias f8 [256]
0	0xbfc3adfc96133373	-0.15374715164071126
1	0x3fbd30d550515db6	0.11402638636479065
2	0xbfbfaf476f368ef1	-0.12376829590953854
3	0xbfb55e0b88c0ef27	-0.08346626366340769
4	0x3fb6c522ca18ecf4	0.08894555505769458
5	0xbfa50e948f50fc02	-0.041126863951369344
6	0xbfba68cc9adc6b13	-0.10316160946642254
7	0xbfbee46b7f86e5bd	-0.1206729112954212
8	0x3f8d8bd524146d8e	0.014426865733688368
9	0xbf8f642ff999bd54	-0.015327811054901254
10	0x3fb35b02b9d018e7	0.0756074622769095
11	0x3fb79faa00cce797	0.09228003043690901
12	0x3f946d32a40493e5	0.01994780660711006
13	0xbfc2590afdcee363	-0.1433423747346537
14	0xbfb09ca9b844ff73	-0.06489048718230865
15	0xbfb4a84ea45a29e4	-0.08069316399102139
16	0xbfa4ed62fba2979b	-0.0408736164256844
17	0xbfa676bf1e6a77e0	-0.043874714339139365
18	0x3fc4171f577c3a31	0.15695564052335123
19	0x3fb0c66d9d50e806	0.06552777376865046
20	0x3f9c4203eb7c6064	0.027595578430095094
21	0xbf767bfe3c4aa6c2	-0.0054893427920121324
22	0xbfc1f8db27a2e0c0	-0.14040698466647505
23	0x3fb3742ea3b1bc5f	0.07599154945795437
24	0x3fb4c524d3d34286	0.08113317653192995
25	0x3fb0f363503de25c	0.06621380528475512
26	0x3f7c654be8caf719	0.006932541390310986
27	0x3fa43b4f3376810e	0.039514994651883226
28	0x3fbbeaffbf41eae1	0.10905455035564728
29	0xbf955d616de7e5ad	-0.02086403115570128
30	0x3fb873e8cd13791a	0.09551863676776798
31	0xbfc0c928dbb40d52	-0.1311389038820417
32	0xbfae2ecf8e7d08bb	-0.05895088781700638
33	0x3faf349c09540776	0.06094825376386741
34	0x3f8cffa6763b6df3	0.014159489138754621
35	0x3f8ef00e6138f972	0.01510630830955215
36	0xbfa13ed0d60d9743	-0.03368237126305342
37	0x3fbc8cfc02ed07f4	0.11152625152047319
38	0xbfb464ba7f848d22	-0.07966199506022467
39	0x3fb7d48ca0427a74	0.09308699524488323
40	0x3fbd0dc2967a7666	0.11349121259487446
41	0x3f72e51c1472928e	0.004613027274136384
42	0x3fafe5820a13dbb4	0.06229788182275034
43	0x3fba728c6a96e285	0.10331037142067075
44	0x3fbd9ee05463f844	0.11570550976100075
45	0x3f9e4293c4d7b0e9	0.029550846947970753
46	0xbfa0ef6a0938d68a	-0.03307658541272669
47	0xbfa971493293f5e1	-0.04969242803961627
48	0x3f8f8cbd6a2499bd	0.015405158807493597
49	0x3f66657661ab3b1f	0.0027339279307406895
50	0xbfb4b14a2155bce7	-0.08083022416916529
51	0x3fbdf871e5f6f66c	0.11707221855518818
52	0xbfb2ab02618c9384	-0.07292189485140282
53	0x3fc6211a8a796acf	0.1728852440017676
54	0x3fc3c717a37a0d78	0.1545133159853369
55	0x3fc0b7ae988551da	0.1306055302362797
56	0x3fb2db3e1d5b03e6	0.07365787712753011
57	0x3f97e822936776e7	0.02334646248515684
58	0xbf91251131a24a42	-0.016742962507644295
59	0xbfaa810b02f1f914	-0.05176577006294472
60	0x3faca507a9de2256	0.05594657848911726
61	0xbf8433e9a8c30d33	-0.009864640677170832
62	0x3fb3d22873a09567	0.07742550681048997
63	0xbfbc84bfb2a2b5ea	-0.1114005862352411
64	0x3fc4d95f0fb83ce6	0.1628836466556784
65	0x3fc42354c3b5e602	0.15732821994951968
66	0xbfb6bcbb3c0c75b0	-0.08881731239349366
67	0xbf7e325ae7ca10f7	-0.007372241114925729
68	0x3fb7b4a964b892b5	0.09260042866714964
69	0x3fb2b668ad2d2098	0.07309583881317605
70	0xbfa8af88589e9582	-0.04821420747547746
71	0xbfafee19f1bf09c5	-0.06236344409946385
72	0x3f97a40c4fd60089	0.02308673131256048
73	0xbfb7579029f57f62	-0.0911798574866203
74	0x3fbdf754e21011b7	0.11705523032293895
75	0xbfbff840638af01e	-0.12488176756136268
76	0xbfa9f858a74a1905	-0.05072285692317461
77	0x3fa894ab3c0974bb	0.04800925357697269
78	0xbfbd38ea8b301618	-0.11414972208157115
79	0x3fb6f3bb4133686d	0.08965654699150756
80	0xbf5c79df3507b67c	-0.001738040900927911
81	0xbfb6f050002143f8	-0.08960437777683683
82	0xbf908207ee2f2414	-0.01612102881680151
83	0xbfadb9ad3627f270	-0.0580572250946475
84	0xbf97b6e0cc130044	-0.023158562141134334
85	0xbf716e1ac60b1a6d	-0.004255394539262808
86	0xbfb6fdd64db303f0	-0.08981074711756754
87	0x3fb483e55a307065	0.08013757182965404
88	0x3f74830718c0344a	0.00500777027265282
89	0xbfc223c84a08f684	-0.14171699156752393
90	0x3fb731a44f95fbcb	0.09060122435583577
91	0x3f58b631c8bec318	0.0015082822965092942
92	0x3fb5d52d96d0f0c0	0.08528408939395415
93	0xbf7382927972a6c6	-0.0047631951958153115
94	0xbf92222376b9f42a	-0.017708353158458014
95	0xbfbd4733a282f6f1	-0.11436770169799694
96	0xbfb67844b1eaedb2	-0.08777264922803488
97	0xbfb37f643635b1cc	-0.07616258929710468
98	0x3f9c5a97031fa338	0.027689323011063055
99	0xbfb7fb5eb9faab70	-0.0936793521929482
100	0xbf395a6616c93f54	-0.0003868579140417956
101	0xbfae840dfd06f6c4	-0.05960124696455929
102	0x3fc04f07832bd9d7	0.12741178421829488
103	0xbf84306f53888950	-0.009858007179961575
104	0x3fa1086300212a42	0.03326711060124811
105	0x3fc6ef6d078966d7	0.17918169849399732
106	0x3fa7297d015727ef	0.04523840562212899
107	0x3fb959d28e3aca68	0.09902683231738652
108	0xbf85a86d9d266c0b	-0.010575157507267027
109	0xbf816c9ed5ee547d	-0.008507958320288939
110	0xbfb07f31b7a0bb4e	-0.06444082959272388
111	0xbfc305c0a9d05d4b	-0.148613055149989
112	0x3fb1c813257c42dd	0.06945914902849944
113	0x3fad897eeb1c73de	0.057689634513941476
114	0x3fa6c8ff8bae04b7	0.04450224475932301
115	0xbfb6cdaf2901f91f	-0.08907599211849913
116	0x3fb112ba077bb514	0.0666919964093789
117	0xbf733f114fee4cc5	-0.004698817850015751
118	0x3f8e5e8597011c91	0.014828723593508538
119	0xbfbb00e4223c9db4	-0.10548234783038063
120	0x3fba3115c8fe5b7c	0.10231147915906819
121	0xbf955465e6427b1f	-0.020829765490471105
122	0x3fb52854306b67bf	0.08264661962621654
123	0x3f7f7e5261d522fc	0.007688829236322855
124	0x3fa98df0c7a5b4d6	0.04991104542828288
125	0xbfc9635e32d4ad47	-0.1983449695775141
126	0xbfb5463bb3ac7fec	-0.08310292374198952
127	0xbfb0006d7ebfa725	-0.06250652641724892
128	0xbfb2db99c04a631a	-0.0736633390864764
129	0x3fa3222483f4acf7	0.03736986265934122
130	0xbfbcc17853ed8806	-0.11232711838741247
131	0xbfb2f981f89bfb08	-0.07411968535960167
132	0xbfa663028e8eba34	-0.04372413625911911
133	0x3fa7a2bd1d8d38ca	0.04616347299325836
134	0xbfaf92a2fbd9b69f	-0.06166562389703966
135	0xbfa13e028b324929	-0.033676223270179335
136	0x3fbc9788337a7b4d	0.11168719536588619
137	0xbf89b7c99fc92bfa	-0.012557578266884296
138	0xbfab4ba3c78e094f	-0.05331146059963265
139	0x3fb1480850c7a7ea	0.06750537845769569
140	0xbfba23fd926b6216	-0.10211167168325405
141	0x3fbe6b2fb310c9c9	0.11882303353994596
142	0x3fb75f80037e377a	0.0913009651687541
143	0xbfa1154bb0299d17	-0.03336559796735566
144	0x3fb9c589452b97a2	0.10067041338660812
145	0xbfc0d0220a0916a2	-0.13135171403898932
146	0x3fb9985c104f9792	0.0999810733624982
147	0xbfac6b5d22d148a5	-0.05550662088411799
148	0x3fad6e8aa684e203	0.05748399050429855
149	0xbfbaade657c6a73d	-0.10421600001305094
150	0x3fa1b0f7aed95014	0.03455327996621818
151	0xbf6bec6f9510fc6a	-0.0034086398450479576
152	0x3f7c783c08b64cb7	0.006950602062164516
153	0x3fb0aa5e38dafa4f	0.06509961021490905
154	0x3faf97af98687dd1	0.061704146723282734
155	0xbfaa2d3b0e89c3ef	-0.051126332783390065
156	0xbfab1a37673a83cb	-0.05293439040293143
157	0x3fb9b42f884793f4	0.10040566517962174
158	0xbfba77b86921f172	-0.10338928763116487
159	0xbf9f8674b95fc4f5	-0.030786346258484937
160	0xbfbd574bae99bf57	-0.11461327564916012
161	0x3fbb07037dde224b	0.10557576964323194
162	0x3f6e2ea078481ffc	0.0036843427826660485
163	0x3fb212ef3632e6f9	0.07060141633237639
164	0x3fbd23be8b2f1567	0.11382666490597658
165	0xbfa90dcb3fcf4e28	-0.04893336442878776
166	0x3f6c68ca4c2504df	0.0034679366227981924
167	0x3f79661dd7f69f25	0.006200901581372685
168	0x3fbdd8b848f9d6f6	0.11658813268317289
169	0xbf99b0cfca8a3c78	-0.025088545548495905
170	0x3fa96fd1c0ec3e8e	0.04968123893752106
171	0xbfb47015a7e4ad55	-0.07983527516323836
172	0xbfb0246840834e79	-0.06305553030989043
173	0x3fb2b6b8d2dd495f	0.07310061595970783
174	0xbf827c4309b1eba5	-0.009026073201530435
175	0xbf656762411e0d1e	-0.002612773802810899
176	0xbfb175da8c335a85	-0.06820455477586947
177	0x3fb1637aeffa35b9	0.06792419775793847
178	0xbfa3acc2dc957c08	-0.038427438189266694
179	0x3fabd33fad3851ff	0.05434607495786636
180	0x3fa75aa207123762	0.04561334930723039
181	0x3fb0f06ad2e09010	0.06616847656601998
182	0x3fb6b8c47f86d681	0.08875682939000208
183	0xbfa87098f9ddfe4e	-0.047734051228868965
184	0x3fb50164dd6ce9b4	0.082052520808168
185	0x3fbdbd1126cda854	0.11616618344638258
186	0xbfc04926bda05207	-0.12723240145773237
187	0x3fc538cf696e00ee	0.16579620979246762
188	0x3fc4fed0f07916e5	0.1640263723549459
189	0xbf9889c6d3c1bae4	-0.02396307628117257
190	0x3fc01a2e7db1a53a	0.12579899918936538
191	0xbfbc4dd5cd2ff5b1	-0.11056267032105073
192	0x3f982782e6cff6e2	0.023588223779362212
193	0xbfa7dd8c6a002a93	-0.04661215585664027
194	0xbfc84e3e60a3afea	-0.18988780707093095
195	0x3fc15e642b981b4a	0.13569309357282072
196	0xbfab1f9d27d858dd	-0.05297556983366445
197	0xbf974be5bb1e7c29	-0.022750463052599344
198	0xbfbf61bb929677c2	-0.12258503273775914
199	0x3f7b0c273c535409	0.006603387130970092
200	0x3fb09a98f696d57c	0.06485897083515185
201	0x3fb21d4a02723ba4	0.07075941619608145
202	0x3fba534ab1db8913	0.10283343164659113
203	0xbfc20b316f2c9f9f	-0.1409665863841356
204	0x3fb748ac33c51df5	0.09095264686504108
205	0xbfa1961e25e2c2f0	-0.03434843265984522
206	0xbfab446f22593cb7	-0.05325648588461134
207	0x3fac885c7f891669	0.055727854316995735
208	0x3fab7d8e733b499e	0.05369229466090818
209	0xbfb6e6bac3119ece	-0.08945815336630433
210	0x3fb1a495eaa6d22e	0.06891762713241498
211	0x3fc20270a25ec644	0.140699462206202
212	0xbfc23e34ed59819a	-0.14252339925134266
213	0xbfac06f5086d89b4	-0.05474057891730713
214	0x3fb6d4c40e2edbab	0.08918404909387216
215	0xbfbff304f7129a6f	-0.12480193168685515
216	0x3f9cd06d236c0dfe	0.028138833319657046
217	0xbfc0692ba014d85a	-0.1282095462462987
218	0xbfb361425562b8b0	-0.07570280632600901
219	0x3fb855f081526ea3	0.09506133229518325
220	0xbf99d96b9639d83e	-0.025243454975189865
221	0xbf70541a01156a21	-0.003986455515895077
222	0xbfa276efe3efe0f8	-0.036063667845100456
223	0xbfbb67ab92a0798a	-0.10705063180691901
224	0xbfc33f11a8fceb44	-0.15036221267095062
225	0x3faff243ba5eb843	0.0623952069284859
226	0x3f8f0d3fdb71dee7	0.01516199005548864
227	0x3fad7e270c31f5ed	0.057603092421213954
228	0x3f54a9ec06db18a9	0.0012612156819371923
229	0x3fc1dbf9bd7c07e1	0.13952562095806711
230	0x3fa43665e9ee844c	0.03947752457248352
231	0xbfbbde2d554eef48	-0.10885890324328529
232	0xbfc135ddd40c8d5c	-0.13445637563664092
233	0x3fa4fa3aea2c1960	0.04097160442875025
234	0x3fb5f1749104f377	0.08571556606780271
235	0x3fabd7feb30ed72f	0.05438228545919654
236	0x3fbfd3831ea0ce50	0.12432116983182451
237	0x3fbb62974baf4111	0.1069731292511771
238	0x3fc16cabad025fa5	0.13612886378973346
239	0x3fab93cd3a488882	0.05386201225725619
240	0xbfc5bba1ed8f38c0	-0.16978859042723649
241	0xbfc2e2bde0f8b5e3	-0.1475446079725052
242	0x3f95fae225ed9bf8	0.021464856686545603
243	0xbfc4461ea68a91e6	-0.15838988429926742
244	0x3fa4bcb2df0f8202	0.04050215695292893
245	0x3fbbafc25109a5e4	0.10815062025508088
246	0x3fbce2ce846f631c	0.11283579571989971
247	0x3fb92878bfbc88f3	0.09827379876199753
248	0xbf9d7e2588c8807a	-0.028801523660263652
249	0x3fb58852f68df10d	0.08411139029880506
250	0x3f8599e89e146692	0.010547463726243298
251	0xbfadcf86b6ae146e	-0.0582239244459196
252	0xbfc4e333953a8e3d	-0.16318363939818595
253	0x3fc0623b99ae5115	0.12799782756759073
254	0xbf9384ac9384d4a5	-0.019060799125516188
255	0xbfc6dd2f5812337c	-0.1786250286135348

fc21.weight f8 [64, 256]
0	0xbf9f47741d2e27ec	-0.030546011239074675
1	0x3fa4cc1c9ad2317a	0.04061974897294625
2	0x3fb61d583af37c37	0.08638526381717858
3	0x3f8dc2aad7b2c1e7	0.014531454761113017
4	0x3fa962f3e44e1209	0.04958307420659842
5	0x3fa06249a81b5b53	0.03199987580381127
6	0x3fbae78de9e2719f	0.10509573898384027
7	0xbfb310f4ff2179da	-0.07447749356058556
8	0x3fa89ad940a43f36	0.04805640138704208
9	0x3f90a91ec0b37458	0.016270142089400558
10	0x3f72a1df1e585f89	0.004548903996258854
11	0x3fbc8d73294e922e	0.11153335340947798
12	0xbf9bc6563a38bf49	-0.027123782447403575
13	0x3fb17342e0e72a21	0.0681649970130498
14	0x3fa96244d7824a7f	0.04957785731052854
15	0x3fb682b3992ae493	0.08793184747163911
16	0x3fa7b0f99c6739be	0.04627208742350629
17	0x3fa612a5202e1ec9	0.04311100023101983
18	0x3f91c85487f8834a	0.017365761565204786
19	0x3f5f770f3abf2a12	0.0019204758382210846
20	0x3f9f4645004007d5	0.030541494503274997
21	0x3fba39fc59ef5800	0.10244729228665506
22	0xbfa4dc0a3894b04e	-0.04074127140697269
23	0xbfa2a1b179b1b061	-0.036389871697651406
24	0x3fb5106177b96f18	0.08228120015104101
25	0xbfac414f50866b38	-0.05518577440235223
26	0xbfa127ffcdc16f4f	-0.03350829493203255
27	0x3f99c838799156f2	0.025177843494325232
28	0xbf926dd9b9f2ca0d	-0.017997171377553346
29	0xbf94541714428312	-0.019852028476296253
30	0xbf864a4233c15b72	-0.010883824543425045
31	0x3fafeaa82dc5568c	0.06233716543890208
32	0xbf54177aabd84093	-0.0012263009988409442
33	0xbfa501c2932a5b4f	-0.04102905317738836
34	0xbfa8909829154d25	-0.047978167548217855
35	0x3fb45c93c67bc8b1	0.07953761668958027
36	0xbfa39d450222c7a5	-0.038309246550297694
37	0x3fae123deac74e72	0.05873292437504753
38	0xbfa7fafd9a824e7f	-0.04683678160759274
39	0x3fb6042358f17d5a	0.08600064202754734
40	0x3fa53e4abb5a2c74	0.0414908746434656
41	0xbf83c8f70aa277ac	-0.009660654079478657
42	0x3f9ec8bb94cb2238	0.030062609631189313
43	0x3fb9f1e01967d26d	0.10134697551968382
44	0xbf9072cb94f3a8ad	-0.016062909094139034
45	0xbfa1aefb3c460802	-0.03453812704812266
46	0x3fa621f6e26c53f0	0.04322787774996317
47	0x3fa1fedd0a8eab75	0.03514757875321709
48	0xbf8bbfa51dfa644b	-0.013549127557143012
49	0x3fadedb1f2da69b0	0.058454094786799415
50	0x3f69f4bc6257ae30	0.0031684569719254915
51	0x3f50d32c6989bb47	0.0010269101823287706
52	0x3f9f5344fafd3292	0.03059108526149374
53	0xbfb38dfc0185ff5f	-0.0763852599829966
54	0xbfa069d9ee4e5418	-0.03205758127220565
55	0x3fb4fcbc67c52eed	0.08198144467786124
56	0x3f758c40645c06a3	0.005260707408298568
57	0x3f99eee5a2cd5379	0.02532538229145895
58	0x3f98535ccafb3b4e	0.02375550259494768
59	0xbf6b3084988738fa	-0.0033190336000422623
60	0x3f7af4dd170d7fef	0.006581176407820507
61	0x3fc1ed96d5751ab0	0.1400631468079232
62	0x3faf3eb6f3b207c0	0.06102534985349406
63	0x3f9e4b6c8648eceb	0.029584594436738703
64	0x3fa713fd31061719	0.04507437919077812
65	0x3fb301ff3f679d41	0.07424922273604741
66	0x3fa6a9ec93eec1e5	0.04426516824549135
67	0x3f920ab214deb762	0.017618925594141806
68	0x3fabfc0a4f0eaf63	0.054657289648587314
69	0x3fb80399cf8ef4eb	0.09380494420379974
70	0x3f5bb39fa3c30be8	0.0016907748204608667
71	0x3f8639867803eb44	0.010851908242775495
72	0xbf98db9004b7009c	-0.024275064742824357
73	0xbf652d9004c76ddd	-0.002585202490292578
74	0xbf90255e46020202	-0.01576754858297314
75	0xbf84a5bf986da121	-0.010081765021553725
76	0x3f79f291e961ce90	0.006334848372819515
77	0xbfa18f1fed5997da	-0.0342950799211363
78	0x3fc0f52fec11d4de	0.13248251940573302
79	0xbfc4531ddf93b539	-0.15878652016491815
80	0x3f778527f98b12d0	0.0057422219767359756
81	0x3fb1ca9fb0c6c0c3	0.06949804368810235
82	0xbf9c7910844a0194	-0.02780557448795802
83	0x3f944319e9c19efd	0.019787220852236043
84	0xbfc166b3054d2d77	-0.13594663390027126
85	0xbfa3dce3619ce6ce	-0.0387946182876938
86	0x3f9bde9348efc8d6	0.027216245009136518
87	0x3fa53fbf9a529299	0.041501987064554054
88	0x3fb3abc8fe970228	0.07683998313496743
89	0x3fc16b129b2fe6dc	0.1360800988912193
90	0x3fb5bbe87801dd59	0.08489849977364851
91	0xbf95c2eccd23832b	-0.021251392384218065
92	0xbfa751e33f7c8b12	-0.04554662847501424
93	0x3fa3b9c8b1b667d9	0.03852679414121924
94	0x3f9444b2d196c28f	0.01979331402043499
95	0x3fb535d7d3186cb4	0.08285282996841908
96	0xbf97cc1f3dd7b2d0	-0.023239601277895983
97	0x3fb4c0be32a2374c	0.0810660241715741
98	0x3fb2dee31faa74c5	0.07371348879901791
99	0x3f94416775d9b612	0.019780747001666717
100	0x3faa133ce54a381f	0.050928023328296705
101	0xbfa5d0aa87a53396	-0.0426076212484993
102	0x3fb504a7d7cc50fb	0.0821022893763405
103	0x3fae1e104d6959a5	0.058823117684983196
104	0x3fa178568426125c	0.034121230727610835
105	0x3fb23b6f78dd3b55	0.07121941281114393
106	0xbfb099d96585a18a	-0.06484755257191047
107	0xbfa144668a075a7d	-0.03372497973366693
108	0x3fb19de011e407cb	0.06881523548875561
109	0x3fa306dcd59cac1e	0.03716173274582267
110	0x3fb298d802ad12cf	0.07264471116384218
111	0x3fa59162b46a2f11	0.04212482883767
112	0x3fb310fb37fac7d2	0.0744778644246076
113	0x3fb3580642c1b94c	0.07556189660838192
114	0xbf8cf23b2f50e99a	-0.014133894330474562
115	0x3f914b577ce865ac	0.01688896846653669
116	0x3fa80558fe99a769	0.046915799216391836
117	0xbf5bc1b3ef814758	-0.0016941315825715533
118	0x3fa29af27e923eba	0.03633840365466541
119	0xbf9772a1639a0629	-0.022898217872812907
120	0xbfa2b1388751411b	-0.036508337515103594
121	0xbf9c93940937458f	-0.027906716406339845
122	0xbf7381876880963a	-0.004762200296715197
123	0x3fb28e9dbdee5e2a	0.07248865019789066
124	0xbf9d49637e82434d	-0.028600267979132444
125	0x3fa0d0d161758a54	0.032843154093616406
126	0x3f9fc410e6de8241	0.031021370020996256
127	0xbf8b68835888a0d1	-0.013382936610540604
128	0xbfb18a305d6502b8	-0.0685148456586927
129	0x3fbaf770bc842d00	0.10533814051102652
130	0xbf91208012ca9361	-0.01672554125493109
131	0x3fa3c73c8dd3152d	0.038629429161611696
132	0xbf762cd97064ebad	-0.005413865443467819
133	0x3fb5c6eae3cee2e7	0.08506649076197058
134	0x3fa2ab4bb46b4195	0.03646313264255522
135	0x3fa2e8fdffd868db	0.03693383930313284
136	0x3fae72b2431e595c	0.05946881360357523
137	0x3f7777c45ed1f1c1	0.0057294531553648284
138	0x3fac88916e3be82d	0.05572943182592414
139	0x3f736d742ca1afa1	0.004743055158637961
140	0xbfa30547ebf727df	-0.03714966540753983
141	0x3fbaca3cca20ea7f	0.10464839873103847
142	0x3fa80f02c0b3d02f	0.0469895229561249
143	0x3f8679af5a779ce6	0.010974283169117926
144	0x3fbb1602b45b9160	0.1058046045614609
145	0x3fb3663194e567d0	0.07577810177954736
146	0x3fb70e8d3ed5d1bc	0.09006579193175573
147	0x3f6b3ac941031a87	0.003323929857376232
148	0x3fb3279e01ff6f5c	0.07482326077245943
149	0x3fba354123d4cc1c	0.10237509846483345
150	0x3fac8e7ef8f2897b	0.055774658097351236
151	0xbfa6c9a6dabb01e3	-0.04450723094987887
152	0xbf72b85ee39ed244	-0.004570360813819511
153	0x3fae0d1dea08424b	0.05869382364119654
154	0x3fb1dfae81f4f205	0.06981936142705798
155	0x3fa41dce70ae13e9	0.039289904837495566
156	0x3f878818962cf61a	0.011490051348682907
157	0x3fb96e3ce9404255	0.09933834738354481
158	0x3fbaae37c3775f66	0.10422085306288195
159	0xbf9cab3c68f09319	-0.027996963410390572
160	0x3f93e0fdcd0443a0	0.01941296161482209
161	0x3fa263418d8d9f60	0.03591351368851181
162	0xbfaf0859823651cb	-0.06061057772163599
163	0xbfb269c23ca1097a	-0.07192625026894986
164	0xbfa9eeb067896945	-0.050649178160443266
165	0x3f97a9db8c67fa27	0.023108892864906274
166	0x3fb164bc574f098a	0.06794335490761774
167	0x3f82b03aaead3fc4	0.009125193076812262
168	0x3fb55e22fe566c82	0.08346766194738289
169	0x3f89aed8c1d65f4c	0.012540524878928892
170	0xbfa8706e5ae58871	-0.04773278102472112
171	0x3fb5c7b74ff42d02	0.08507867528912885
172	0x3f978a6a0c6cd855	0.022988945968983227
173	0x3fb75895994c9ecb	0.09119544022234576
174	0xbf56ced349ee1acc	-0.0013920844428142896
175	0x3fc7850256ad0cb1	0.18374661667085015
176	0x3f986aaae65529bb	0.02384440451468504
177	0x3fa7cb9f24ccf209	0.04647538494325338
178	0x3fa7bfe85948c670	0.04638601388832064
179	0xbfa9fdc666cc390b	-0.05076427464347163
180	0x3fc0b0bc3ae0b8fa	0.13039353251355817
181	0xbf9ac0cc78567873	-0.02612609371646397
182	0x3fa2b41d5485a1f9	0.036530415122630396
183	0xbfadaa5c06b38a4b	-0.05794036466410953
184	0x3fbb84c0974826d7	0.10749438947109567
185	0x3f99de9f6cd9370b	0.025263300913414926
186	0xbfb1c43f9476a888	-0.06940076231572523
187	0xbfb481478d142621	-0.08009764856628766
188	0x3fa88d4502e62689	0.04795280132664199
189	0x3fb2e13551b3c367	0.07374890560801149
190	0xbfc40716724dda00	-0.15646629887824304
191	0x3fb91afedd7f3408	0.09806816966666088
192	0x3fb57066edd3ef09	0.08374636942238224
193	0x3fc8e2d23152a250	0.19442202957476917
194	0x3fa57c91e680fcf3	0.041966018092802225
195	0x3f97392610fe75d0	0.022678942477446118
196	0xbf852ce3e7fa1a10	-0.01033952762305737
197	0x3fa8f84e06af1128	0.04876941520299943
198	0xbf95bc627a314018	-0.021226443012267365
199	0x3fbf04f4b0f2ec68	0.12116936988870608
200	0xbf9c5d883c688e3d	-0.02770054691985834
201	0xbf84210c368c21b5	-0.009828658499387946
202	0xbfa464b0ac9ac817	-0.03983070475568711
203	0xbfacd549ec9d1117	-0.056314764150132195
204	0x3fb1cca0bfad64c7	0.06952862434026762
205	0x3fa72a0b8f984257	0.045242654112489226
206	0xbf874b5ae6e025c0	-0.011374197169078282
207	0x3f91a35b37ce7e37	0.017224717408337944
208	0x3fa72cee11a8a05c	0.04526466336784615
209	0xbf941bffce5c8bff	-0.019638058634097174
210	0xbf7a385e67761e48	-0.006401413694568321
211	0xbf6619d30239f95d	-0.0026978608382812034
212	0xbf90e21b4e7fde16	-0.016487528482654744
213	0x3faa4dccd608eae4	0.05137481796960744
214	0x3fb7a66e49d079b1	0.09238328268154451
215	0x3fb28020aa406534	0.07226757198840944
216	0x3f8e99e5184d6bab	0.01494196873107064
217	0xbfb2ff236c47f57d	-0.07420560258466043
218	0xbfb830025b659d77	-0.09448256236429652
219	0x3fc27bb18a423db8	0.14439982653537498
220	0xbf919296871080d7	-0.017160751336746962
221	0x3fb57ca09c11d956	0.08393291292472801
222	0x3fce1ec20718b57a	0.23531365725049708
223	0x3fc0ef32b2dc5a76	0.1322997449248821
224	0x3fc042f56c90d2ab	0.12704341698704033
225	0x3fbad93169aa85ff	0.10487660245646423
226	0x3f9980d1cf7c59e4	0.024905470169949498
227	0x3f907040c046a8b1	0.016053210960003287
228	0xbfab33bd110a93b3	-0.053129108743895335
229	0x3f526f4de2afb5cf	0.0011251698112987212
230	0x3fa9556c1991b978	0.04947984516262499
231	0x3fbc7d92a14bdec5	0.11129108846568687
232	0x3f926a6ce9b6b4e4	0.01798410583949285
233	0xbf80073db336ab62	-0.00782631114164695
234	0x3fb0bf73bab7a341	0.06542132671860391
235	0x3f921c1991829982	0.0176853175222731
236	0x3fa80eee79f0a1b8	0.04698891867184635
237	0x3fa1f2e7cb29eeee	0.035056346464413454
238	0xbfab5976dda21dda	-0.05341693358883122
239	0xbfa24510b8d5d7c5	-0.03568317657747814
240	0x3fb55f139c54c079	0.08348200384785
241	0xbfb13e07ff4e10f5	-0.06735277159720339
242	0x3fb2397b5fd49a6f	0.07118960466014256
243	0x3f71884c8407f5ba	0.0042803753753992094
244	0xbf9bcff299f2f03f	-0.027160444876003217
245	0x3fb3d134d7f90687	0.07741098664066658
246	0x3fa0cdd412489373	0.032820346099731966
247	0xbfab1ac8b259247c	-0.05293872048475465
248	0x3fa0f6236ec2a012	0.0331278870301618
249	0xbfa2797bc3f19c84	-0.03608309523479483
250	0x3f7cbf23b31cc8f3	0.007018222286023101
251	0xbfa874ed6ce534ad	-0.047767085593116355
252	0x3fa34d65e9d4bced	0.03769987563497943
253	0x3fb1ca23b90e2b00	0.06949065463974691
254	0x3fc18ed572975e69	0.1371714410331493
255	0x3fa6da0bf196eecd	0.04463231395808762

fc21.bias f8 [64]
0	0x3f9d53aff80d3030	0.028639554514754362
1	0xbfa6ee1cd99e1379	-0.044785405697473864
2	0xbfa3c7b5e49da518	-0.0386330453464529
3	0x3f9ee080036af6ee	0.030153274735076722
4	0xbf7433f4c3852007	-0.004932361706160299
5	0x3fa7bf4cb166d3f9	0.04638137498424295
6	0xbfb59553a6c6b9fc	-0.0843097955864564
7	0xbfa29349304db3a8	-0.03627995218889818
8	0xbfb2c8308aa803a4	-0.07336715111888609
9	0x3fa24181f65a2592	0.03565603382328243
10	0xbf4336d8187429bf	-0.0005863719133299346
11	0x3f9945b654bc13d3	0.02467999355487278
12	0xbf90e79f6e818d84	-0.016508570785288793
13	0x3fb00766043e4c99	0.06261289218518797
14	0xbf9342d310f3838b	-0.018809602651234363
15	0xbfa7a8a2bd3e5c30	-0.046208463288330726
16	0x3fa685d08a190377	0.04398967443240214
17	0xbfad27ea8da1f570	-0.056945161618368156
18	0x3f9cb6e1793676de	0.02804138471912309
19	0x3fa174a9e0167964	0.034093197445360685
20	0x3fb5ba3c51c2cc16	0.08487298008076069
21	0x3f938a8670233d10	0.01908311900552656
22	0xbf9e6b8d9f11da56	-0.029707157930227567
23	0x3fadfb350330f576	0.05855718292194016
24	0xbfb1f0c2a49cff69	-0.07007996100310056
25	0x3fa3a93a548c3bd8	0.0384004810531377
26	0xbfa0c9c6bc38a57f	-0.03278943107245435
27	0x3fa3fb0568d9045f	0.0390245142448371
28	0xbfb47b8fdc0050c5	-0.08001040574191894
29	0x3fa642526f9b76f4	0.043474746822296156
30	0xbfa2e78834d5eef6	-0.03692269940344588
31	0xbfa9a4a3ca1e8bbd	-0.05008422701145985
32	0xbfa54ae36ec679d4	-0.041586978218436293
33	0x3fa1671abdaa5ac3	0.03398974957706493
34	0x3f74f409a36747d3	0.005115544938648814
35	0xbf8b0e40bcc10fd8	-0.0132107789614863
36	0x3fa51673a2660c65	0.04118691785245047
37	0xbfaa2ddef0c6fb1c	-0.05113121689963959
38	0xbfa5997eb55de59d	-0.04218669856977473
39	0xbf931238b053e7b7	-0.018624196779434245
40	0x3f9e8ed17143ce87	0.029841682947291417
41	0xbf431596774d299a	-0.0005824074456566742
42	0x3f9697bf40b31e18	0.022063244174914315
43	0xbfa4aaebdfe967b9	-0.04036652668283076
44	0xbf819b5d4ba47392	-0.0085971153935647
45	0x3fa3d3ffad9d5496	0.03872679704969888
46	0x3f99363846222d10	0.024620894699677598
47	0x3f74e3ac75e23289	0.00509993903518747
48	0x3fa78478d3e92833	0.04593255602647197
49	0xbfa79a14a307e383	-0.046097416783545085
50	0x3fa33e6860389960	0.037585508104075016
51	0xbf7794d00fe59a47	-0.005757153265540333
52	0x3f6339af3bbbfcde	0.0023468420530431263
53	0x3fa5ae099eb6071b	0.04234342634573648
54	0x3f7633ad8541aac7	0.0054203775544958204
55	0xbf5fda58681c824f	-0.0019441474291356402
56	0x3fabe92cd399ab02	0.05451335986147933
57	0x3f90f114daac4374	0.016544652792677764
58	0xbf891d825e20a52e	-0.012263315675300559
59	0x3fa203f422f7c6be	0.03518641402105292
60	0x3fab40c2374af8c0	0.053228444337479086
61	0x3fb2229567cbc11b	0.0708402040870663
62	0xbf8ddcd51110666d	-0.014581360419515488
63	0xbfb2ef150ac130c9	-0.07396060478749002

fc22.weight f8 [64, 256]
0	0xbf9d902d965e4a1f	-0.02887030821109182
1	0xbf92547929a6b9fa	-0.017900365035240264
2	0xbfa5130b17523f35	-0.04116091403659398
3	0x3fa683e629d07a6d	0.043975060085576036
4	0x3f9485e11f02723d	0.02004195930259044
5	0xbf97ef7d9d042a7c	-0.023374521931183598
6	0x3f9031888e88564b	0.0158139550204253
7	0x3f81d9b1f554da59	0.00871600179617109
8	0x3fa9bf5d173dee25	0.050288113677165826
9	0x3f9a226ec20b7cfb	0.025521975129660906
10	0x3fa92751caddb9b6	0.049128108991556216
11	0xbfa2ae60e17d0808	-0.036486651921691815
12	0x3fa3a2f55c1e8385	0.03835264920713314
13	0xbf967bb16e1d93a1	-0.021956226678770844
14	0x3fa8b0d1bda3c787	0.048224024199853104
15	0xbf9dc84e85b0e948	-0.029084422025541984
16	0x3f9284a7493d1015	0.018084157796025197
17	0xbfad9cd96b1b9d83	-0.05783729011983054
18	0x3fa4d78d5a00fd10	0.04070703242950391
19	0xbfabb9591809a61e	-0.05414846819332929
20	0xbf5f7bae7e2e8969	-0.001921577838154132
21	0x3fa14ea49a361fd9	0.03380312330688157
22	0xbf9344b0aaa361b3	-0.018816719450883656
23	0xbfb17f8f87086540	-0.06835267111491294
24	0x3fab2e6de688f038	0.05308860243937413
25	0xbf973cdb32985716	-0.022693085635260145
26	0xbfa1c34793aea444	-0.03469299009095342
27	0xbf8911d094a0aa54	-0.012241010223154415
28	0xbf6ee7442a5b1581	-0.0037723857265940523
29	0x3faa8ad70014f7dd	0.051840513954161095
30	0x3f9b281f6ac0881d	0.026520243540410705
31	0x3f91095a7b3febe5	0.01663724305397442
32	0x3f8b59280d9e2831	0.013353646197874354
33	0x3f9eaf4e77e8780e	0.029965616291626467
34	0x3fa4fc462513576b	0.04098719790060453
35	0x3fa1eb47aa293200	0.034998168489071446
36	0x3f32a2b0e9253c91	0.0002843553458164528
37	0x3f91528e3fd52b73	0.016916487356222597
38	0xbfb20486843775f4	-0.07038155296273613
39	0x3f9709b0ba32dbf0	0.0224979032179497
40	0x3f8750331731f073	0.01138343729530098
41	0xbfb0ad23ae0a8f78	-0.06514189719251628
42	0xbf9ef83bcd5507ba	-0.03024381104228955
43	0x3f9a5e252b153411	0.025749760393683433
44	0xbf9d357e08a78d11	-0.028524369505146533
45	0x3f9da7076b28e3a1	0.028957477489004572
46	0x3f9aed1d7a49cdac	0.02629514750374333
47	0x3f9946fa6b36f060	0.024684822839603604
48	0x3f8440a1da142503	0.009888901202901318
49	0x3f93db0c09505e54	0.019390285557248824
50	0xbfa01a674a920c3d	-0.0314514425781671
51	0xbfacccf3eab5bdd5	-0.056251165772547
52	0x3f9b8cc857eab637	0.02690423046686005
53	0xbf70fc4162a27a58	-0.004146819506927267
54	0xbfa387e4c9385ad6	-0.03814616161633004
55	0xbfb11584ccfa025a	-0.06673460010825619
56	0x3f504716666b9004	0.0009935110808152467
57	0xbfa4325c4ea79066	-0.03944672069681658
58	0xbf0835cc757273bc	-4.617719849273709e-05
59	0xbf90f67e7a9f00d2	-0.01656530021114195
60	0x3fa1d76215a737db	0.03484636797257653
61	0xbf8784ed3d0ad673	-0.011484006333698482
62	0x3f9c6c187430a0dd	0.02775610169570163
63	0x3f93728a8d8354a9	0.018991627585667335
64	0x3fa2061e6a131a9f	0.03520293278557073
65	0xbfb187c1cafcd1e9	-0.06847773748160758
66	0x3fa391d158c80ae8	0.03822187622792744
67	0x3f858b12e2d6de91	0.010519168422305188
68	0xbf8b7435989b651d	-0.01340524551362648
69	0x3fa47b2a2ba168fa	0.04000217230414367
70	0xbf9d2f1d39ff6a79	-0.028500038781070523
71	0xbfb00eff70afc50b	-0.06272884846818642
72	0xbfa0316ad974ab95	-0.031627024693384666
73	0x3f5ce592879e8798	0.0017637186960901326
74	0x3f874084272fb616	0.011353523679612326
75	0xbf9b9ab0a6ec765a	-0.026957283199513384
76	0xbf9abf88525e7d9c	-0.026121263530169622
77	0xbf8522c74deca6d8	-0.010320241036953545
78	0x3faa9f3775174ab4	0.051995976489384615
79	0x3fa69211d48a7691	0.04408317298405707
80	0xbf9847105d86b69e	-0.02370858736838121
81	0xbfa5af3a5db0c841	-0.04235250848468342
82	0xbfa419206e17e465	-0.039254201354147956
83	0xbf91b896f4f11ba0	-0.017305716228544932
84	0x3f9643c6cd1d995e	0.021742922086013798
85	0xbf9e81c1a4e32017	-0.029791856469074753
86	0xbfab4e02e684ac6c	-0.05332955421393923
87	0xbfa5852ca6cb070f	-0.04203166519211098
88	0xbfacdf12697ea8ac	-0.05638940370347831
89	0xbfa2c06f4e8bcf79	-0.036624410951758564
90	0xbf8e3c76b4c683db	-0.014763762847737219
91	0x3fa21995a3dbb182	0.03535144448491946
92	0xbfa8c207a2463673	-0.048355330046530386
93	0xbfa5a83f990baf66	-0.042299258644418455
94	0xbfa1644c03f5166f	-0.03396832989032538
95	0x3f39388243908f0c	0.00038483791610331784
96	0x3fa6cc02f7a0e8c0	0.04452523491677729
97	0x3f9ebfec6ec4290b	0.030029005299220517
98	0x3fa67f8b9c579855	0.04394184382890446
99	0x3fa5b664c266c9dd	0.042407177668241515
100	0xbfaed802b59f6605	-0.06024177996705408
101	0x3f95a5baa3e51665	0.02114001870474737
102	0xbfab64d1e9bf68c1	-0.05350357035031684
103	0xbf93f4029d3f7589	-0.019485512588166585
104	0xbf9cb1d914f03501	-0.028022186186764667
105	0xbfa725c08479e4f4	-0.0452099000658083
106	0x3f746d7e87760fb0	0.00498723435828545
107	0x3f99f951a30c7408	0.025365138603877596
108	0xbfa0af550a08a7e9	-0.03258767840846117
109	0xbf939c395a0effb8	-0.019150634881725387
110	0xbf8399f5ac846771	-0.009570998503977997
111	0x3f951d0552f3b9a7	0.020618518054953985
112	0x3fac588f0a142827	0.05536314962417093
113	0x3fa48ab08d527d39	0.040120618106124835
114	0xbf848c6387009b3b	-0.010033395345158893
115	0xbfafa8a59f702128	-0.06183354922547074
116	0xbf9162e689bb937e	-0.016978838116205257
117	0x3fa43d2f86b2f1b5	0.03952930945658598
118	0xbfb00d60c2ee447e	-0.06270413168955888
119	0xbf9c8320b22fc760	-0.027843962550782364
120	0xbfa5bd0d513d4544	-0.04245797745410099
121	0x3fa0983f832bd419	0.03241156078539848
122	0x3f9772b490703ada	0.022898503604717436
123	0xbfab641b5df00cbc	-0.05349813005161638
124	0xbf76edad55a66e2a	-0.0055977602845831784
125	0xbf872f2b39519012	-0.011320436178898805
126	0xbfaac7e31a4a7707	-0.05230626769956186
127	0xbfadaeb3a2125f75	-0.05797349313178205
128	0xbfb29fcd59c10047	-0.0727508873105772
129	0x3f5531cd958a8195	0.0012936122567809062
130	0xbfa2f597a2331487	-0.03702997069334751
131	0x3f9544eae2b986a4	0.02077071198289694
132	0x3fa4b9ec9426f272	0.040480988583543445
133	0xbfb1fd5aa6a2ec3c	-0.07027212684890655
134	0xbf57bf2ca9cea51f	-0.001449388138306702
135	0x3fa05d66bdc12da1	0.03196259561863291
136	0xbfa53fa2f34116d4	-0.04150113315021789
137	0xbf9235f5550639ea	-0.017783959688637475
138	0xbfa04787ea4da474	-0.03179573760173407
139	0x3f812b27fa050f43	0.008383095090387043
140	0xbf838447f57f933f	-0.009529649905695712
141	0xbfab5d8e7b06295d	-0.05344815494307185
142	0xbf90e88717806abf	-0.01651202279036101
143	0x3f85b43258b910e2	0.010597604115112739
144	0xbfa8ea18425080b0	-0.04866100129606943
145	0x3f9dd97ed0d21d3c	0.029149991507918957
146	0x3fa639eedbc31768	0.04341074402468231
147	0x3fa1594f89f9698d	0.033884511559068554
148	0xbf9925810fbc21e4	-0.024557129464513397
149	0xbfac06a95498ecd8	-0.05473832280810037
150	0xbfa92dadecd485b3	-0.04917663112633921
151	0xbfaee60422a71120	-0.06034863398557122
152	0xbf942bf8d60422a5	-0.01969898992777765
153	0xbfaa41c0ecbba9c7	-0.05128291024978498
154	0x3f870d8b7d711847	0.011256303563765736
155	0xbfa68c56271beef9	-0.04403943278700057
156	0xbf9e2590f2a86149	-0.029440178690579164
157	0xbfa3f22db0c4b4d9	-0.03895705015961832
158	0xbf820b70f9f69606	-0.008810885074875163
159	0xbf9968e2d495892f	-0.024814171052079444
160	0xbf95e7f5520eabde	-0.021392663129215943
161	0xbf7eaf7e7b81c762	-0.007491582939211346
162	0xbf936721bf0e6ecf	-0.018948104177623656
163	0x3fa31faf20e27642	0.037351105465159865
164	0x3f911814488f1acd	0.016693417481088702
165	0xbf70475c5ec829ae	-0.003974304982430272
166	0xbf92f84ffa233c3b	-0.018525361673536116
167	0xbf98adaf0ae2138c	-0.02410005096364247
168	0xbfa348bd9ca4c882	-0.03766434228090622
169	0xbf82293d0e994281	-0.008867718704238971
170	0xbf7102c95fb8a175	-0.00415304814990979
171	0xbfaf5ae9549b2651	-0.06124047429836977
172	0xbf8c563d42d37b52	-0.013836363412733785
173	0xbfa9cb642ab2c3bf	-0.05037987729281878
174	0x3fa2355aa52b6457	0.03556330934743162
175	0x3fa265652e9b5fb1	0.03592983430797803
176	0x3f91bb15246d69d6	0.01731522593341047
177	0xbf9a7fd8b321c61b	-0.025878320630402834
178	0xbf8c0c98a3632a70	-0.01369590042704269
179	0xbf8534a8ac1dd13b	-0.010354345085695207
180	0xbfa813b2a4be11d0	-0.04702528248802518
181	0xbfa28db87bba957a	-0.0362374926601587
182	0x3f7fae5452f3e6b2	0.0077346128375609825
183	0xbf90e4403e3619ea	-0.016495708272055078
184	0x3fa26242d3b895cd	0.035905922264912606
185	0x3f8d67facd037d0d	0.014358481771010756
186	0x3fa372ac3b245159	0.03798425886103258
187	0xbf7679f15c3e1112	-0.005487387479551369
188	0x3f6cd6ab2fe5cf91	0.003520330762677611
189	0x3f98332b22cf8b5f	0.02363269233672882
190	0x3fa22fc7186fb5d6	0.03552076504989159
191	0xbfb018957cb4cad3	-0.06287512106500097
192	0x3fa31f89ff4e7c56	0.03734999887023409
193	0x3f94891c2018d18e	0.020054282626192292
194	0xbf98cf27b711f849	-0.024227734135358756
195	0xbfa1d711392f589e	-0.034843958120903226
196	0x3f95aedd7ef6cec2	0.021174870371125427
197	0x3f964f282775ad79	0.0217863344272877
198	0x3fa51a3b67b5883c	0.041215759668162794
199	0xbf7ad8028f62c977	-0.006553659439463614
200	0x3f9a4fbd0ecd55aa	0.025694803265044953
201	0x3f92d1d95130acb9	0.01837863500638257
202	0x3f73f7e1c6f64773	0.004875070516748059
203	0xbf669797372c880f	-0.0027578309467495353
204	0x3fa1e32d9ebb317c	0.0349363571418477
205	0x3f98769d855a85b5	0.023889981521852472
206	0x3f9dc1953dd0eda8	0.02905877294345563
207	0x3f9ad62832d8a2c7	0.02620756922093184
208	0xbfb08131179faa16	-0.06447130991697522
209	0xbfa06b29827bd1e0	-0.03206758230036022
210	0xbfafc3be893f27a4	-0.062040285352466
211	0xbfb218fd6fddcf7a	-0.07069381695856505
212	0xbf7f7498af0e670f	-0.007679554387232348
213	0x3fa9eb914d81f8c5	0.05062536307467406
214	0x3fa3a2a198467321	0.03835015281513266
215	0x3f907239f5e70557	0.016060739167874285
216	0x3f9ba0e11ed709a1	0.026980893618892336
217	0x3f9ed6bf7b9c5837	0.03011607353172271
218	0xbfa8833cc5c87b42	-0.04787626184792383
219	0xbf8b2fc4c5f2b651	-0.013274705210586964
220	0xbf97fc91bb0a030c	-0.02342441276641964
221	0x3fac75aa3be99ab3	0.05558521252969708
222	0x3fabf94368d2d0e3	0.0546361031969427
223	0xbf882b191d842e3b	-0.011800953114764137
224	0xbfb05b6f93d106f2	-0.06389520033647125
225	0x3fa969005e448b10	0.049629222399991346
226	0x3f9f4cbbbcb153d6	0.030566151992690603
227	0xbf8dda05dd755e6a	-0.014576001950145929
228	0x3fad5ab069ec191d	0.05733252804752651
229	0xbf88cae9670693c6	-0.012105773407549491
230	0x3fa30bab263a324f	0.03719839898721899
231	0xbf6aa1cb37c3e599	-0.0032509774301813896
232	0xbfb0d3782e7f18ed	-0.06572676787536454
233	0xbfae27f7c45a8c6f	-0.05889868041892831
234	0xbf9a7e0710ca68da	-0.02587138214094229
235	0xbf3ee07f16a04e91	-0.0004711447023748395
236	0x3f715c0e24b867d1	0.004238181350524743
237	0x3fa216eb16d11476	0.03533110288166423
238	0x3f914510f8b1cd3c	0.01686502950583456
239	0xbf750777e7588073	-0.005134075521283521
240	0x3f9e73a23fbab943	0.029737982883198965
241	0xbf9fff91fd7e2175	-0.031248360726324493
242	0x3f90d2a180cff5b1	0.016428493010598625
243	0xbf9ab72347794efe	-0.02608924030057746
244	0xbf5c04222a03da50	-0.0017099698671338044
245	0x3faa2bbe73373c22	0.051114989818977344
246	0xbfb13eed68be2bc1	-0.06736644561003315
247	0x3f969091a4b78551	0.02203586166240729
248	0xbf52a337278b512b	-0.0011375464074961465
249	0xbfb11e6dee7fcac7	-0.06687056610807494
250	0xbf8610d7f432b06b	-0.010774314060050657
251	0xbfaf2e5ac799424a	-0.060900532593795534
252	0x3f96ff2b4212748f	0.02245776739856758
253	0xbfb0769c22774e31	-0.0643098434587095
254	0xbf9698b1ffb34cac	-0.02206686137362783
255	0xbfaf4bbe81689221	-0.06112475709622723

fc22.bias f8 [64]
0	0x3f7e8ee10225cbc2	0.007460478724499122
1	0x3faf7af90450a522	0.061485082413421446
2	0xbf78a773389de472	-0.0060190678431065615
3	0x3fa53be61d3ff20b	0.04147261721661629
4	0x3f9ae8e4f03522e6	0.026279046212297617
5	0x3fa60bdca66b4644	0.04305924922449525
6	0xbf90397825386f7a	-0.015844228049999277
7	0x3fa0a96d92cbeddd	0.03254263321829474
8	0x3f794a0fec9db108	0.006174146846984259
9	0x3fa02772244c9ae5	0.03155094807725848
10	0x3fa8740eebbb0f0b	0.04776045444080353
11	0xbfac354b8e4a7d84	-0.05509410964918529
12	0xbfa1fe79b32930ca	-0.035144618149020326
13	0xbfa0ffccaf028f9a	-0.03320159565308174
14	0x3fb0f414af9e02cd	0.06622437751321826
15	0x3f9bd37912d0db46	0.027173892758777705
16	0xbfac1c302fa19f4c	-0.05490255910336703
17	0x3fb3736ed590bc0c	0.0759801169776752
18	0x3f9a34552b9bf68f	0.025590258394905304
19	0x3f914d89b5e60663	0.016897346236424925
20	0x3fb05d7069819707	0.0639257676681063
21	0x3faf93303aa2e0d0	0.06166983333372544
22	0x3faec201641439ee	0.06007389399211492
23	0x3fad4ec3d4b4b147	0.05724155398852076
24	0x3f70267d7ec5c352	0.003942957130093587
25	0x3fb4ae7ecfce96d1	0.08078758786595165
26	0xbf6c75bdab92838e	-0.0034741119857958974
27	0xbf7e9820994a449e	-0.00746929868604798
28	0x3fa46d492dbcfaa6	0.03989628489806778
29	0x3fb5dae2f2017b49	0.0853711930117075
30	0x3fab901e67b3b4f6	0.053833913954671006
31	0x3f9010c98835a3ae	0.01568903821808803
32	0xbf770265f36c3c8c	-0.005617521520220891
33	0x3fa6e0902bfda372	0.044682031030624084
34	0xbf66292eb1660624	-0.0027051841709073866
35	0xbf910ec16ad22011	-0.016657850403618172
36	0x3faeb277a9d873b3	0.059955348475546975
37	0x3f9edcd6b938d21a	0.030139308028269786
38	0x3fa584a57fb8091f	0.04202763732975456
39	0x3fa77a99289c7263	0.04585722561589447
40	0x3f80204099c21437	0.007874016468358487
41	0x3f9db798dd7aa4bf	0.029020679967889814
42	0x3fb9c05893bf2d4f	0.10059121710871931
43	0x3fa777093fe55203	0.04583004860856834
44	0xbf97faf7bebb76da	-0.023418303505301143
45	0xbf6b1ed32c928fb2	-0.0033105968946802395
46	0xbf8b4b9c474af1b2	-0.01332780926292618
47	0x3f9d2376025bdeb9	0.028455585378621893
48	0x3fb22688dabfac39	0.07090049114747012
49	0x3f95620693f46665	0.02088175085109469
50	0x3f81eb037ad5ed49	0.008749034105440716
51	0xbfa5c78f3a3acb47	-0.042538143022645296
52	0x3f6181664dcb4101	0.002136897861738985
53	0x3fa7d7547f4af350	0.0465647130381287
54	0x3fa84aa7313bb8cf	0.047444557914660394
55	0x3fa5d44b87e19558	0.042635307633455966
56	0xbf9a2eb5b249850d	-0.02556880856207493
57	0x3f908e03b1900722	0.016166742050706458
58	0x3fad4568f5fc624e	0.057170181300709375
59	0xbf847439febb298a	-0.009987309538151096
60	0xbf92c85c1a3d8f55	-0.018342436887351116
61	0xbfa72dc880458854	-0.04527117315116472
62	0xbfada1591d4026b5	-0.057871613331440676
63	0xbf9266ba86c32604	-0.017970003581274
