weights/model_test_obs_l_saf_1_bn.pth (torch, 287732 bytes, 10 tensors)

fc1.weight f8 [256, 8]
00000000: e76f c83a 64c6 d5bf 2b25 20e6 3cf4 c2bf
00000010: 5e55 c5ee e3a5 cabf d112 b494 1b52 d43f
00000020: 794d ade2 89d1 c7bf b89f c531 05ae b4bf
00000030: cf2f da0a 8da4 b53f 0e32 bfcd 7bf8 d2bf
00000040: 8a53 5680 002e ce3f 1758 a5ad 1151 cdbf
00000050: 132d 7654 5c10 c6bf 09c7 0649 5b9f bd3f
00000060: 71fc 696e e1d2 cc3f 3dd1 8cd6 aa7a 82bf
00000070: d0c7 201b ed15 d9bf 51a0 8d03 d548 cabf
00000080: 49db 63eb 76e2 d4bf 125c b19a 48d8 cebf
00000090: 0159 28ef c943 c73f 71d5 0857 b979 d03f
000000a0: 5b55 bced c71b cc3f e535 a4da b859 d4bf
000000b0: c30b b10f 4751 d13f 1268 61be b857 d03f
000000c0: 93d9 6392 23fc d23f 85b6 d8fd e840 cd3f
000000d0: 697d 3c5a 2def bbbf e787 ad49 2b5d cebf
000000e0: 18e5 1113 2aac d33f 3967 2f89 c1d8 d8bf
000000f0: ad9e 30a7 de12 d83f 1550 2e81 e30c cc3f
00000100: be75 9717 a465 be3f 5fca 7444 364a c1bf
00000110: b6d1 75cd 1427 d63f b68f 507a 72ce c0bf
00000120: 249b 58c5 120d 9d3f 8ec1 8c33 09a2 be3f
00000130: f5d7 402b b41e d1bf c3c8 fa45 ef37 a4bf
00000140: 8c6f a90c aea5 ca3f 5307 fa8b d216 d4bf
00000150: 0211 1bec b1fe d43f 48fb 0764 ed67 b0bf
00000160: 70b5 1385 303c b1bf 5b02 ed08 b79e cabf
00000170: baf1 6a60 f3de babf cdee aa8d 761a b13f
00000180: c419 5593 0a70 d0bf cd98 4372 3b8b a5bf
00000190: ad4f 1efc eb68 d0bf 4dc4 ea9c f06d d33f
000001a0: 280e bd4a dcae 73bf 798e 4d80 e9ad d4bf
000001b0: 357f 56e0 d35d cc3f 52d0 d647 5649 a8bf
000001c0: 8f31 3303 d9cf d2bf d16b 33ad 910e d63f
000001d0: fbf5 ed5d 8356 bfbf a634 9695 c414 d03f
000001e0: f634 32fa 723a c13f aecb 333d 44d6 af3f
000001f0: 6f81 8e16 737f 9a3f 0ebe c298 ab38 d23f
00000200: be7f 114f 7e1a c1bf a460 18a2 2a47 803f
00000210: 837d 6e3d 67d8 d63f 08c7 4584 3e1b d43f
00000220: ba71 e356 989e bb3f 15c2 e4c5 79c5 d13f
00000230: 672b 565b eafc d73f 6ed1 0db9 075f a63f
00000240: 12b5 0908 3694 d0bf d765 f059 03d7 d1bf
00000250: c095 1e88 aa6c db3f 941a 7cd1 a257 c9bf
00000260: 2268 7142 626f 773f 1116 5586 35d5 cd3f
00000270: 2fdc f75e 1421 c53f c95d 38d9 a339 74bf
00000280: ef4e 0552 3e25 d1bf 404f 5599 a9fe b83f
00000290: 3baf 8a80 03ab cfbf 1414 00a5 d091 b1bf
000002a0: e7c6 4f81 599c d5bf 2897 565d 3703 9e3f
000002b0: 32c4 6a31 6069 7cbf 2680 02bd f3c0 c0bf
000002c0: 81be f84c 88c3 b43f 2359 5f92 319a d43f
000002d0: 6d72 22aa 34a1 d4bf e6e5 7486 efda a43f
000002e0: 8dfb 03ed ac06 bbbf 9486 a72a 8dab d1bf
000002f0: 6a32 0d07 0caf c5bf d3e0 b5ca 2377 aa3f
00000300: 7a3b 1918 4872 d93f a492 4940 700e d43f
00000310: 2140 2b6e e07c bd3f 3116 d33d e535 b03f
00000320: bd06 decc 671e cdbf 82b5 c858 fe0e c23f
00000330: 9726 bfc5 51e6 d23f 1675 be8c 36b3 723f
00000340: c8f6 7c76 792b acbf d32e c484 a84c cbbf
00000350: 61ee 03c6 c090 c9bf 185c 9cfc ffcf d7bf
00000360: fef9 7a80 dfc7 bbbf 3177 1324 dffc cfbf
00000370: 1d47 8847 3470 ac3f 39bc e728 9494 c9bf
00000380: edd9 c462 e6c6 c33f e586 14f3 a175 d13f
00000390: b1a1 9603 d2f5 b6bf f109 9349 576f a7bf
000003a0: 59f2 15e4 7864 a5bf 9c06 9d6f 4825 b4bf
000003b0: adbe 23d6 540f c4bf 1e24 da11 84cc c2bf
000003c0: be58 5131 c0bd d2bf 457a ee3e 3c35 c2bf
000003d0: 0029 6f37 3055 cbbf f347 4ad6 70ce ca3f
000003e0: a08a c8ef 8726 a53f fca8 8a51 7e18 7cbf
000003f0: bd15 c1c4 f4d5 bdbf c60f c06a 2440 c1bf
00000400: 94a1 dba0 e507 cabf ed95 2a44 b220 d63f
00000410: 76d6 fbe1 851c b2bf 2922 ab70 91bc d43f
00000420: d5af 6e3f b111 d63f 13a5 c16b 423e c8bf
00000430: ccfd 3b41 3a09 d73f 6ccd 5466 c83e b53f
00000440: 7515 3478 c9ee b53f a73c 2699 26c4 b0bf
00000450: 15ed 4e23 8799 d33f 3eae fa6f 406a d43f
00000460: 7b14 c0bb 4871 d2bf b36d 0966 2f1e 12bf
00000470: d925 dbd2 f1b8 d4bf 0768 7e0d be21 99bf
00000480: 841d bac1 8d69 b43f b8a0 02ae eb96 8bbf
00000490: 2ed1 b081 cd7b c9bf 1016 6212 be40 c9bf
000004a0: de0c b08a 47a1 c6bf 44cc 5bf2 8e05 cb3f
000004b0: c57a 0bf0 1d07 923f 3545 0d66 cbf9 b73f
000004c0: 5c2a 29ce 3868 d93f 3fc4 c16f fc36 a13f
000004d0: f792 642c 2dd0 d73f 5e5d 99de 6cfd ad3f
000004e0: f2e9 bac6 0737 c5bf d9aa 42da 98be 9b3f
000004f0: afbc 85fc 69ed cc3f 2e97 41d3 c9c3 d43f
00000500: f3a6 c443 58fe 85bf 8762 595b 2b1e d6bf
00000510: 721c 6034 7b92 d63f 9bfa d4cd 578d cabf
00000520: f52e 059a 647c b13f 8a4f e7c3 620c bebf
00000530: df9e 2cbe e2ba d1bf 6209 7e24 9ca8 d63f
00000540: f317 7039 28ed c7bf 0654 df9a 66a0 c63f
00000550: a78b 046d 1fae cabf 7fc1 a48e 1510 c9bf
00000560: cb4b 05b1 5459 cabf b30a 6eac 478e d83f
00000570: 083d 4e49 65e1 c2bf 6c1c 6722 7caf bbbf
00000580: 57fb 368a 7747 acbf 1a0a 1743 4f6c d6bf
00000590: f8fd 1c5a 065a d3bf df00 fd3e 1c53 a5bf
000005a0: 31b0 a252 f3a4 cfbf c379 41c0 8891 d23f
000005b0: 7ef8 f31e cde2 d43f f883 ecc6 270d d9bf
000005c0: 5677 aaf9 77c0 d7bf b8c7 4e3a ccab cfbf
000005d0: 158c 5289 f9ab d1bf 96a1 8cdb ced5 713f
000005e0: ba37 93ea a7be d13f 8cea 7474 34de d53f
000005f0: ba11 a6e1 3aea cfbf cd30 f26b 4456 b5bf
00000600: 4f0b 4eb8 58b5 b0bf d107 2aa7 267a d1bf
00000610: c09e 8e5b 27ca a93f d29f 4dbf 6c99 d23f
00000620: 23f9 f22e d6b2 cebf 65cd fbc5 0cdb af3f
00000630: c793 1089 e0bd c6bf 9619 9b91 64c0 4bbf
00000640: 79f2 f096 4801 c9bf 5613 6b92 ca7d cd3f
00000650: 96b8 d785 11db d33f b66f ea84 5a81 af3f
00000660: 7b92 2e8f b357 d43f 2f7b dba7 7352 bf3f
00000670: b593 395e cd75 b03f 2cf4 6cae 37fc 86bf
00000680: 8737 27fd 2901 d23f 3d58 ea7d bc61 c63f
00000690: a80a 6de7 ed21 d83f 55c5 ce82 d946 c23f
000006a0: ea52 2abc ff84 ccbf 5577 fe65 5e24 b43f
000006b0: d5cf 7f1c b716 adbf 71e6 f4e9 702e c2bf
000006c0: f533 a13c 7278 d93f a5ae 0677 de92 9e3f
000006d0: 3ad5 0a8b ab8a cbbf 5b59 b81e dcca d63f
000006e0: 586c 6aa8 a083 6d3f 0de7 1429 5c44 c83f
000006f0: 7af9 76b9 b2a9 cb3f cca7 b5ea 8927 ccbf
00000700: 0e69 d3df a732 c23f 43d5 d5d9 ae93 d03f
00000710: 0268 fbb3 7f8f c53f cd0d d892 ea0f c3bf
00000720: b64e c562 fc25 d63f ff2a 45aa 4a70 d7bf
00000730: 33f2 bc73 9665 b1bf 16a9 5c47 db95 c63f
00000740: 2aea c1f9 a06e d03f 37f9 a341 02f2 993f
00000750: 2ba6 7468 7535 a93f 76f0 a154 826e abbf
00000760: b760 5e07 7582 68bf 84e2 1863 9425 d2bf
00000770: 7f8e a427 004a d53f a0f2 90ab 6a5b d1bf
00000780: f973 7e61 008a b93f 2803 bf3c 0f22 a8bf
00000790: 6a8b 3435 71dc d83f 513e dd84 e874 adbf
000007a0: 5231 ff18 ae08 d5bf d80d b79c f020 c83f
000007b0: d40a 810d 994d d23f 8b21 e9cd 012b b73f
000007c0: c55d 76d3 d4a2 d1bf bf6e 5029 d877 b4bf
000007d0: c700 55ab 2e14 cdbf b7fe 2cad 8579 bf3f
000007e0: 9601 1308 ae9d cabf 1a97 573d 2a74 96bf
000007f0: 8264 2cef d9ce d7bf c36d be5a 84af a3bf
-0.3402338575413055 -0.14807854878044088 -0.2081875720856869 0.31751145860498037 -0.18608211105548003 -0.08078033890853831 0.08454209818790946 -0.29641623585192256
0.23577886835542144 -0.22903653124620924 -0.17237428783514783 0.11571283848641313 0.22518556491192812 -0.009023031876133398 -0.3919632687494614 -0.2053476588582748
-0.32632229792891515 -0.24097545197830122 0.18175625016801436 0.2574294424005848 0.2195978079622972 -0.31797620155052037 0.2705857899892942 0.25535410491795674
0.29663934036161627 0.22854339976168006 -0.10911830380472555 -0.23721829507400047 0.30738307821555244 -0.3882297362994112 0.3761517174448084 0.21914333160077662
0.11873841834991247 -0.13507726996029398 0.3461353308150835 -0.13130026790997612 0.02837018327241049 0.11965997227230771 -0.26749901031450857 -0.03948924760097008
0.20818114870314408 -0.313892971702548 0.3280453496665957 -0.06408580486457283 -0.06732466935109982 -0.20796859680014532 -0.10496445754956243 0.06681004484829174
-0.25683845889980383 -0.042077882478950814 -0.2564039194196493 0.30358519863063266 -0.0048054318575086255 -0.32311475305161924 0.22161339239118552 -0.047434517163680426
-0.29393601715562395 0.3446392241873442 -0.12241383593751458 0.2512675724800125 0.1345962258969064 0.06218159911249842 0.02587680649924223 0.28470888059652644
-0.13362101422080558 0.007948239394906693 0.3569582080762858 0.3141628543590831 0.10788871880817555 0.27767795873208573 0.374811734386347 0.04369377263984374
-0.25904608521416705 -0.2787483576117586 0.42850745480458485 -0.1979869387507348 0.0057214582694431766 0.23306912478635458 0.1650720084869319 -0.004937782319323466
-0.267898159120917 0.09763584130751912 -0.24740642334415405 -0.06863121059730332 -0.33766782405937906 0.02930914408866339 -0.006936431650204121 -0.13088843087189267
0.08110858802023736 0.32191123289284657 -0.32233921637251833 0.04073284641567536 -0.10557060991776109 -0.2760956684634064 -0.1694045099669837 0.05169021462910597
0.3976001963937318 0.3133812549406605 0.1151867169348866 0.06332237967861755 -0.22749040129933987 0.14108256659657675 0.2953075820083568 0.0045654421664072155
-0.05501918383968768 -0.21327692492228909 -0.1997300116416794 -0.3720703093435431 -0.1085185707733913 -0.24990453015828387 0.05554355023572397 -0.19984676358532896
0.15450744459822321 0.2728047250585475 -0.08968842113120591 -0.04577133916020049 -0.04178216728448509 -0.07869389271675192 -0.1567178769687322 -0.1468663298767589
-0.29283146682918104 -0.14224961350278612 -0.21353724200009339 0.20942507232081162 0.04130959322016747 -0.006859296256758404 -0.11654596141405356 -0.13476996624387833
-0.20336599687949486 0.34574562699194084 -0.07074772612744504 0.3240092849996779 0.34482985682074957 -0.18940000783485597 0.35993820543805266 0.08298923967668309
0.08567485031752205 -0.06549302329061622 0.3062455982978503 0.3189850896403391 -0.28816431365004974 -6.911434457761746e-05 -0.32378812400255935 -0.024542779515833526
0.07973562221206093 -0.013471451995727399 -0.19909066040566742 -0.19728828332533555 -0.17679685851917432 0.21110712846675217 0.017605273986982767 0.09365531198024686
0.39698619969263915 0.033622635500144764 0.37208108268013923 0.058574106381167765 -0.16574189380283105 0.0270942576613987 0.2259953005809385 0.3244499743508297
-0.010739030426140305 -0.34559139176193593 0.35269050707615357 -0.20743844557178623 0.06830433616886096 -0.11737649233628936 -0.2770315987749949 0.3540411335344712
-0.1869249611337974 0.17677004396560408 -0.20843880484707464 -0.1958033510686725 -0.2058511604651286 0.38368408049442876 -0.14750352935195843 -0.10814643707191046
-0.055232749578400124 -0.3503606944251786 -0.30236967849847884 -0.041649706543923186 -0.2472213891500146 0.2901327016351411 0.3263428499484532 -0.3914279406181431
-0.37112235433038643 -0.24743035170609828 -0.27612150583644396 0.004354293859059407 0.2772617140552672 0.3416873109123706 -0.24933563249591179 -0.08334758410836969
-0.06526712894087193 -0.273080504652282 0.05037043564453603 0.29061430627780027 -0.23983266155659874 0.06221809307853724 -0.1776695889722346 -0.0008469096239529957
-0.19535167093444608 0.23040134572343146 0.3102458769852857 0.06153376457697794 0.317852868867966 0.12235186431960864 0.06429751921093792 -0.011223254213854693
0.2813210460852748 0.17485767505849195 0.37707088089170293 0.14278715979666382 -0.22280880630264416 0.0786799429901895 -0.05681392882243556 -0.14204226897873043
0.397976454933825 0.02985713578679729 -0.21516937531638708 0.3561315822602375 0.0036028039788340953 0.18958618169727295 0.21611627632041658 -0.21995662651471404
0.14217089108462527 0.2590138556764325 0.16844173706232374 -0.1489232270251776 0.3460684742505963 -0.36622873905132275 -0.0679563553393983 0.17644825920553647
0.2567522467649349 0.025337252861384853 0.04923598194211495 -0.0535774925528764 -0.0029918943136629478 -0.2835436790224224 0.3326416384827339 -0.2712046313716119
0.09976198559020578 -0.047134853520679976 0.388454725225691 -0.05753256437185129 -0.32865478936289094 0.18850524570562643 0.28598619765049915 0.09049998547664566
-0.2755634369909468 -0.0799536801209184 -0.2271784149725191 0.12294803121494167 -0.2079370059418692 -0.021927509302165672 -0.37200020176675974 -0.03844846351349986

fc1.bias f8 [256]
00000000: bb22 aee2 7068 c73f 8279 34da 3fdc a73f
00000010: 0314 2ae2 16d4 ae3f 30de 71a1 4479 c73f
00000020: 168e 71cd 4876 cfbf f535 b48a e12f d4bf
00000030: fa3d 5e43 5083 c2bf b41b 9994 fcfc d33f
00000040: 924f 3298 1b46 c1bf 58a1 b562 fd6a c4bf
00000050: 7f8d dfd6 2d0c cebf a9c2 ad62 fbc8 9dbf
00000060: 676b 9428 5cba a0bf 72a9 f32b f02f bc3f
00000070: efe5 1429 e53c c53f fb0f 97eb 75f7 d43f
00000080: c0e3 328c 68ad ce3f 5c0e b1b4 62fc 37bf
00000090: fa5c bb9c c016 c2bf d3af 8401 2c4d d0bf
000000a0: 547b 9697 ae78 71bf fb65 71f1 133a d2bf
000000b0: f70f 0f12 f9b4 c3bf d880 c62d 1064 b73f
000000c0: f6ac 9cc5 d1d8 d53f 0b35 496b 37cb c7bf
000000d0: 29b6 bf0f 1ec9 c13f 3e74 aa18 7ac0 d63f
000000e0: d5c9 564e e5b0 b63f 9671 a3e8 587b d2bf
000000f0: e67e ecd6 401e c5bf 6d9e 4bad c693 cfbf
00000100: adf9 de84 a2aa b13f 803e 6a06 35a8 c2bf
00000110: 448e bfd1 125f babf 2ff8 5e24 fbd8 c03f
00000120: c107 3223 5980 a43f 12c0 c741 f9ce 973f
00000130: afd5 5060 bfdd c7bf c67c 4609 6941 d5bf
00000140: bb63 3e99 63eb d3bf 2150 6e5d b7ad b53f
00000150: 8b60 a4b6 26b7 c93f 051f 47d9 a288 bebf
00000160: 6f79 075d f656 d23f b395 e371 b79d a6bf
00000170: 5a11 ddc6 5305 d43f f253 955c 9373 d43f
00000180: 0201 7b16 c68b c33f ea07 67ab 132d b8bf
00000190: 7ac2 c7a5 a91f c13f f577 dc15 c9ed d4bf
000001a0: 9f4d b0e9 0ab2 c2bf 0afd eb81 4ffe c2bf
000001b0: 9a8d e1ad c3f8 b4bf 8666 eb1d 6a58 d33f
000001c0: a0aa 9cc7 e5e9 d1bf 2257 2be2 78f8 b7bf
000001d0: 62c2 f2ca f417 9cbf 2708 8300 fd46 cbbf
000001e0: 7895 1446 7651 c0bf 3ec5 c4b3 136f cdbf
000001f0: c802 5e27 a6a3 cd3f 08ff ae5f 9cb7 c4bf
00000200: 565f 905c 1c5d d23f 6d56 4dfe cadc 803f
00000210: 9b91 e8fa 2e4b d5bf 3128 0d2f 9459 b13f
00000220: 9f5d a317 83c4 b63f 16a9 c4db 385f d5bf
00000230: 4c22 5eb3 f204 d3bf 4d11 27c6 3469 d03f
00000240: ded6 68c0 c21f b23f 1ff0 b0b5 3d73 d1bf
00000250: 6489 4b92 e9d6 d63f ad8f 5111 f8d4 d7bf
00000260: b601 3b0a 2af6 5dbf afe4 cd5f 5fcd c4bf
00000270: f3d5 4e8d 1429 d03f 5e2c 666b 1890 cfbf
00000280: f0eb 186b 9cb6 953f 2e81 249e cb7e cb3f
00000290: 19ac 5714 504f c2bf 4c07 4d7c eae2 963f
000002a0: cb97 44a8 8980 d5bf e52e 600f 0c53 d1bf
000002b0: 3f38 76bd 1a3b cbbf 127e 66ad 00eb a6bf
000002c0: d23c 82c6 9eee bb3f 946d 4923 d43e 90bf
000002d0: 9895 5340 c636 cb3f 8ded ddf9 2d7c cdbf
000002e0: 4339 84e3 8d87 d13f cc9c 6927 063a c63f
000002f0: 5f54 54f1 3e80 b23f 8f24 3f85 cd0a ab3f
00000300: 77a6 ff59 95cd c43f bc00 c74a 807d 77bf
00000310: 0586 4ba7 b88b c7bf 84ec d0ca 88cd 86bf
00000320: 5471 34a4 7e9b cabf c48b 8815 d397 d13f
00000330: abac dd97 853b d63f 1a1f 074a 56bd c7bf
00000340: 1241 1226 10ea ce3f 1dc8 b78b 1d9a 8dbf
00000350: b6a4 a9ce fb25 a3bf 705d aa92 77c0 963f
00000360: 2d61 d032 32e3 b5bf 50c4 ed19 7710 c1bf
00000370: 14c7 8c29 da59 cb3f 8561 e2f6 f193 d1bf
00000380: 6195 7d7c 628a bd3f dfba 9ac2 69ee d33f
00000390: 97d6 6eb4 a57b c93f 3a22 b8e8 d0c4 c23f
000003a0: 76c6 7813 5cb2 c73f bac6 ac26 08f4 c8bf
000003b0: d751 b335 94db c13f 20c4 d15c 8de3 d53f
000003c0: e6c3 0572 1118 9b3f eb13 8ba1 9808 d43f
000003d0: 48bb 6c71 1909 bc3f 982e 016f 5441 773f
000003e0: fa41 4b68 2bb8 af3f fe44 146c 906f 9b3f
000003f0: 3065 e3d5 d36d d63f b875 aad7 9c78 ccbf
00000400: 9521 0e82 5600 af3f fef2 463a 7318 cf3f
00000410: c27a ad70 d3d5 cc3f 76e6 123a aae8 c53f
00000420: 9812 0efb 8bd2 abbf 41d8 037a d3a8 c4bf
00000430: 22f9 f9ae af21 c23f 47e3 e6c8 f9a8 c23f
00000440: c91a 28f1 8d6e d5bf 7aff fbc6 ffc6 90bf
00000450: 8f44 1aa7 009b c8bf 9a09 89a7 aa6c c8bf
00000460: 10da 7a38 96ac c6bf 0d28 0a67 40a7 c73f
00000470: a62b a301 85ff c1bf ba9f f388 8648 d63f
00000480: 3c91 6bde 8a0a d13f e605 0810 4f1d cabf
00000490: 5134 4aca e7e1 a2bf 1b67 6bbd dde1 cf3f
000004a0: 92b1 138b a2ae d13f 6889 0d81 335a babf
000004b0: f5a4 b463 8620 d4bf 567e d991 785c ce3f
000004c0: cce3 9132 aa34 a1bf cb59 935e 276b d83f
000004d0: 3199 aeb1 805a ccbf f86b 91c4 2618 cfbf
000004e0: 8b0d 12c4 1625 c9bf d79a 6cfc 81aa d53f
000004f0: b7f9 c18f 1df3 c43f d39b c85c e330 c0bf
00000500: ee38 2085 7759 c43f 1d1f fbb4 57e9 d2bf
00000510: 5fb2 3793 cf7d 9d3f 45d5 f94c 2ee9 b33f
00000520: 02e4 f1da 4bdd c4bf d1b6 c403 3e7d cbbf
00000530: d2ae 2477 1d75 d23f ef06 e1ac e859 c1bf
00000540: c0f2 b364 21d9 d0bf b4e3 0f49 d37b a73f
00000550: fb8f 0c8f f4fb bcbf 4086 bf0c 882f d53f
00000560: f10b 88b8 188e c33f a589 f6a1 9c7b c63f
00000570: 0733 92ea f3c3 c9bf 0757 02d8 199a a4bf
00000580: 908d 4107 7225 c03f ad23 66ac ffde a2bf
00000590: 6467 81ea 1017 d3bf b38b ee1a 8052 b43f
000005a0: 8d19 3c83 eb63 d0bf c2e6 2242 47c9 c0bf
000005b0: d550 cfaa 6206 d5bf e1e9 b36c be1d d03f
000005c0: 1ab5 d2fc 7d5b 853f 2efe 00ac 7b34 ce3f
000005d0: a710 f597 15ef a53f f6d0 636a 54c7 cd3f
000005e0: 3c06 d27d 08a2 d1bf 13b2 6ecf 0bad d13f
000005f0: ebb1 97e2 219b b5bf 1ba1 0651 d1cc d6bf
00000600: 0c32 62c5 1d3c c13f a713 b998 39db bfbf
00000610: 8f59 71ef 7cfd c93f e935 ff97 01b3 c0bf
00000620: 68b8 48ac a747 b9bf a270 41ce a1f0 b93f
00000630: 77e1 9305 819c d1bf 9805 4853 541c d73f
00000640: 81c3 df69 70fd 41bf 8aad 11cd 0906 b93f
00000650: 9d9b f999 fc05 a13f 5c05 e4a6 f49f c43f
00000660: 003d 9bdd 474a d2bf 3ad5 7899 9ee0 d6bf
00000670: 035a 8fc2 47b4 c43f b672 fa17 cebb d43f
00000680: 3aa1 fea4 a3bf d13f cfad 0dc5 2320 913f
00000690: 0e56 e459 805a c0bf ecbc 6e74 cb52 c0bf
000006a0: a554 6d31 858e c03f 2975 60bc b833 ae3f
000006b0: b981 96b2 d427 d6bf dae7 0bf1 93e6 d3bf
000006c0: f8be 3f4b 1e6c b0bf 418c d51f a7c3 d53f
000006d0: fc0e ed84 0252 c3bf 2922 c6b1 025a c83f
000006e0: 9b76 0390 0bb7 d23f e5ac 5aaf d70a c13f
000006f0: d352 2b83 45fc c93f 9df6 a30b 5ad3 93bf
00000700: 8e09 fbb8 b41a c2bf 2ce5 fe33 c774 d3bf
00000710: 55e2 1433 f5fd b7bf cdec 041f 98ec cebf
00000720: 3ac7 9eb1 56eb b63f 3059 3778 2933 c33f
00000730: 3464 355b 1fbe 8e3f ea86 2230 427e d3bf
00000740: d5a7 1c1f 5448 a8bf 56b0 9d80 810a d5bf
00000750: cfe3 e6c9 b3b5 d33f c03f 152e 4177 b4bf
00000760: a416 caa7 57d4 66bf 7623 190b 5682 d4bf
00000770: fb26 1b40 a751 bf3f 1042 4239 70f3 cbbf
00000780: fb8f 37c9 6c17 a53f 44b1 2f8e f23c d43f
00000790: ebf8 b99a a456 d63f 62a2 c93f bf1d d53f
000007a0: 8b8c 67e1 05c5 b73f eeab 39fa f8f4 b9bf
000007b0: a6bc c0e8 6d2d b63f 10bd 8690 c963 d1bf
000007c0: 1802 a0c6 3907 bf3f 8c4d bd86 447d d1bf
000007d0: 4e84 b016 c3c3 c7bf b81d 9d64 e701 d03f
000007e0: 1aae 3575 9d57 b7bf 3a2a 3a06 52d3 a43f
000007f0: 554e 2302 4afa d3bf 1a2b 7ecd b1f3 c9bf
0.18287478512163155 0.04660224474558829 0.0602118636207152 0.18338830836340625 -0.24579725295471694 -0.3154224257021661 -0.14463237084827069 0.3123160792496791
-0.1349520199915984 -0.159515069196696 -0.2347466754136853 -0.029086997888443964 -0.032671813920578434 0.11010647843401047 0.16592087274493347 0.3276037979778718
0.23966700406688624 -0.00036599550066205243 -0.14131934788631623 -0.25471019886276486 -0.004265481949373779 -0.28479479387678425 -0.1539603555848996 0.09137059323848307
0.34135860727356204 -0.18588917482922115 0.13895011681545213 0.3554978600385005 0.08863671457837737 -0.28877852171515295 -0.1649857568199799 -0.24669726812065865
0.06900993102951843 -0.14575827420457088 -0.1030132066803669 0.13162173534323204 0.04004171900397991 0.02325047935477193 -0.18645469859045025 -0.3321173277453905
-0.3112420078774069 0.08468194991138535 0.20090183179923246 -0.11927240185388761 0.28655776104814995 -0.04417203202482813 0.3128251497294251 0.31955417672480657
0.15270305726699723 -0.09443781790380937 0.13377876848928222 -0.3270132745254835 -0.14605842981891912 -0.14838594287719103 -0.08192084307807193 0.3022713939841214
-0.279900975164006 -0.09363513490401634 -0.027435135733585254 -0.21310389065735189 -0.12748602315802393 -0.2299522998596703 0.2315566723082354 -0.16185335800218348
0.28693303145836546 0.008233629117664532 -0.3327138376501126 0.06777311466899573 0.08893603636840063 -0.33393689595927023 -0.29717700497034083 0.2564212737163601
0.07079713056085832 -0.2726587557151578 0.3568672112143274 -0.372373597061819 -0.0018287096544754417 -0.16251747301047234 0.2525073413811178 -0.24658494228455913
0.02120441821737623 0.2148069879704137 -0.14304543488773971 0.022349990689014818 -0.3359703200570691 -0.2706937933114502 -0.21274122477592702 -0.0447616779013026
0.10910980554966734 -0.01586467233060558 0.2126090826124425 -0.23035216045887488 0.2738985750046547 0.1736457531398855 0.0722693766768585 0.052816793933353805
0.16252390760864774 -0.005734921589862715 -0.1839514557714638 -0.011134213151413393 -0.2078703214437022 0.2748916349684658 0.34738292532592635 -0.18546560873641554
0.2415180383582159 -0.014454108072616429 -0.037399167039276746 0.022218578650237075 -0.08549798718047859 -0.1333149792294841 0.2136795714264329 -0.2746548567752359
0.11539283313103034 0.3114265823777895 0.19908591566279618 0.14663134921308246 0.185130605228142 -0.19494726074622354 0.13951351759045735 0.34201368393320486
0.0264590001910995 0.31302467132292006 0.1095138456264354 0.005677537745281257 0.06195197723502939 0.02679277095473242 0.350453337550408 -0.22243080645141133
0.060549453140143296 0.24293365808070883 0.2252754497703418 0.17116287074695763 -0.05434071960101966 -0.1614021631027658 0.14165302318355893 0.14578172979033807
-0.3348727088017936 -0.016384121437112743 -0.19223030242259084 -0.19081624203142838 -0.17714193113143084 0.18479161292299331 -0.14061033801985195 0.34817660688576846
0.2662684604713552 -0.20401943476467393 -0.03687977165564205 0.2490803885364635 0.27628387052279735 -0.10293886089997317 -0.31448516594771486 0.23719699021875112
-0.033604925797540014 0.3815401481237159 -0.221511923559953 -0.24292454336213587 -0.19644436429744547 0.338531967647595 0.16366929549617534 -0.12649194746447154
0.15898031235014493 -0.2954921023742701 0.028800242767760383 0.07777680758757295 -0.16300342741649848 -0.21475958999638192 0.2883981383808819 -0.13555630151136408
-0.2632525905062657 0.04586658732291174 -0.1132195328942202 0.33102608914314047 0.1527739430458435 0.1756473341784616 -0.2012925048224121 -0.04023819696264579
0.12614274362850297 -0.03685759524802932 -0.2982828416912666 0.07938385636820904 -0.25609863105673797 -0.13114252785981334 -0.32851473503729994 0.2518154202986392
0.01042841365628049 0.23597665690066222 0.04283969383189517 0.23264556116885843 -0.2755147198405188 0.2761868978221013 -0.08439838201565635 -0.3562510768192781
0.13464710367078714 -0.12443885782802387 0.20304834071675912 -0.1304628364727443 -0.09874961811212446 0.10132800374543874 -0.2751772455663039 0.3611040890974322
-0.0005490111250293501 0.09774838692253787 0.033248800082950704 0.16113145970306675 -0.2857837356686588 -0.35745968806743955 0.1617517185211029 0.323962710777589
0.2773217307353836 0.016724165823161215 -0.1277618826795081 -0.12752669511016934 0.1293493739455346 0.05898835467835745 -0.3461810821554781 -0.310948357960681
-0.06414975487836816 0.3400667010193424 -0.15094024172332599 0.19024690323227958 0.2924221903211703 0.13314338743416623 0.2030112162089127 -0.019360930405119537
-0.14144000084168024 -0.30400257184699586 -0.09371883866413928 -0.24159528269397015 0.08952848278457007 0.1499988400452792 0.015011067362751353 -0.3045812101428128
-0.0474268234232366 -0.3287662273421622 0.30796522824271916 -0.07994468092988338 -0.002786799623495666 -0.32045508464630446 0.12233968081559603 -0.21836664958802077
0.04119434314978317 0.3162199390924523 0.34903826818471256 0.32994061688672194 0.09285008194960846 -0.10139423474326723 0.08663069660609554 -0.27171553720377606
0.12120400523418373 -0.2732707324805339 -0.18566168411146794 0.2501162035518649 -0.0911806498676743 0.04067474676147183 -0.3121514340284411 -0.2027494672186883

fc21.weight f8 [64, 256]
00000000: c939 5c6d d5c2 a93f 7b37 3ec6 376f a7bf
00000010: e390 54cf b79c 97bf e656 a0a0 028a a73f
00000020: 03b0 ee16 55c8 a23f 71ad 75c5 dd8e a0bf
00000030: 3a1f f0a9 0502 8b3f 6a84 d7bc 1d3c 933f
00000040: 21a3 d8ea dec5 abbf d0eb 2205 00e4 a13f
00000050: cb6e 5c2a c1a3 a4bf da7e 6767 264a b23f
00000060: 2351 275c 26e8 b73f 1011 048d 701e 8fbf
00000070: 46ff dac7 d359 a43f fa50 2d67 aee4 aebf
00000080: 971c f1c1 1fb9 983f 5c9d 6538 5d11 92bf
00000090: 9a5e 7ac8 6cf2 7dbf 109d 9ff1 de7a aa3f
000000a0: d30a 2991 993f 8d3f 18b9 461e 1ba1 9fbf
000000b0: 07e2 d3b9 9ed2 9ebf 6edc cf21 6607 a03f
000000c0: 7939 7e82 f436 93bf 8872 0864 5f70 853f
000000d0: 988c 2763 e5b6 9e3f ad61 9168 2826 b13f
000000e0: bd5f 18a1 cea9 b23f 1352 b60c 2381 8bbf
000000f0: 372d a0a1 d295 a9bf d84c 077d 5247 a9bf
00000100: 24e5 69b7 2f70 aa3f a1cc 23b3 3061 9fbf
00000110: 38a1 29cb 1b95 9b3f f3b6 0c48 bed6 8cbf
00000120: d94e dc36 c8de a23f b2f0 664f 668b 81bf
00000130: 7d37 6e6f 6416 9abf f7ff 8e6c 1a11 b3bf
00000140: 0abd daaf 6a38 693f dfd7 9fca e9f0 aa3f
00000150: 3518 25d3 3218 693f 19ca d6ba c1c1 683f
00000160: 8639 6bc5 1ec7 b13f e5ad 3a59 9567 a93f
00000170: 26b4 c3bd 9c8f 923f 8365 22f5 afbc 9f3f
00000180: 4e35 ebb8 3b18 a8bf dcc7 6063 6cd7 80bf
00000190: 0ac2 f413 4bd3 403f b930 f743 42b6 963f
000001a0: c324 9559 7c6a 9e3f 594a e825 d1dc a7bf
000001b0: 0935 e9b5 032c a6bf 95fa abd0 f6c1 973f
000001c0: 5753 50a1 932b 8d3f 4c71 1e0d 1715 933f
000001d0: 34b1 b9df 8eea 733f b159 ed07 b9da 92bf
000001e0: 8f79 4565 1085 953f 4ca7 14b6 60b5 a3bf
000001f0: 0725 8c59 30b7 983f 3ddb 3326 597b a83f
00000200: e4fd 5e37 64a9 a03f 5f31 5c23 2b0d 0b3f
00000210: befc 95ba 63fc 963f 369a efca aca6 9dbf
00000220: 33b5 ba65 c2a8 a93f b750 a73a 1c18 a2bf
00000230: 0070 6176 9d35 29bf f8c8 629c 6c12 983f
00000240: 4917 5ade bc95 a4bf d116 c673 72d7 9cbf
00000250: 10cc ab12 4d53 933f 351e c22b 97d2 7a3f
00000260: 6f8c 71d1 3ae9 843f 65dd c7ab 4136 ab3f
00000270: 8862 22fc 4cdf 56bf d6ce d24d de64 833f
00000280: 44fe 12a7 7464 91bf e5b0 4937 b0b3 913f
00000290: 2436 7bfd 649f a5bf 80ca 49d2 e471 863f
000002a0: b423 b4d7 887e aebf 6c84 cb20 9cc5 993f
000002b0: 55ba 4171 36c0 b3bf d356 9eb4 bd5d aabf
000002c0: d199 57e0 c0f7 9abf 59e9 4419 2867 933f
000002d0: 54f7 3d8e e1af a63f a5e8 83e8 abe6 fc3e
000002e0: 45bc 1ec2 c2b6 8d3f 5636 71eb 5290 a7bf
000002f0: 4510 2442 7449 9bbf 42a7 0262 8679 b13f
00000300: 3f95 ca8b 981c a8bf 9a1b 76ce fe77 b53f
00000310: 046a c247 8bc7 abbf 114b 73a7 d612 82bf
00000320: cefa 8675 9b9c 95bf 549c f29c 4639 933f
00000330: ab5a cf30 5550 833f f86a 2211 4444 b13f
00000340: 2262 3d4e 4009 4dbf a82b 8fae d974 733f
00000350: 2390 709f a590 833f 54ae 6b7e 33f5 993f
00000360: 447f 7571 1007 8d3f ad89 a2d1 cc4f 7bbf
00000370: 6026 31d3 9888 b43f 2afc 6787 3c63 91bf
00000380: 436b bd45 cb8d a5bf d26c 9535 16fd aabf
00000390: 158e 7cb4 1f6c a23f 754c 26bb 3b99 6abf
000003a0: fb53 e8b4 b6af 8b3f 77d0 3903 1a94 9cbf
000003b0: c597 69c1 2277 9b3f f470 ce11 6756 953f
000003c0: 4286 fd1d 6cb6 aa3f 2d65 9db6 f2f4 ac3f
000003d0: 9606 615a b0e0 a2bf 28dd 5fee 3882 8f3f
000003e0: 25ff f4b9 226b aa3f d18f 44ae c5bf 92bf
000003f0: 641f 3ccd fd65 aa3f b274 f990 a10e 80bf
00000400: b4ed 062c 993f 91bf e6d2 e2a5 d621 a33f
00000410: e4a4 90ec ed0e a73f f136 8fbb de9e 893f
00000420: 967f aa18 7b4f 993f eacb d68f 62c5 a2bf
00000430: f325 cf44 4975 82bf f301 b9d4 40a7 9d3f
00000440: 19a4 fa96 a609 913f c834 c03f 01bd b43f
00000450: 2473 b2e5 7296 7a3f 7363 d32a 0d66 a83f
00000460: d79d 72bf e828 82bf fd18 dcea f334 853f
00000470: 830a 465b b166 a0bf eeb3 9269 6b33 aebf
00000480: ce44 ac81 7c52 2dbf f6fa da6b 4d88 a0bf
00000490: 529e 37ba 0041 b0bf 5a72 c51f f79b a6bf
000004a0: a91b 8c4e 1dc0 b0bf 2a51 bb82 ef4b 88bf
000004b0: 5ee2 c17b b64f 98bf e0b2 44c4 80b9 a5bf
000004c0: ad27 4ddc 0d93 9d3f 5658 5951 a71c ab3f
000004d0: 7c1a acba f1d7 afbf f36c fa0a 8b0e 9f3f
000004e0: b7dd 09b9 01cb ad3f 9af0 f47a bb32 9bbf
000004f0: 40f8 3fef f27c a0bf d719 ecbc ddce a73f
00000500: 8b16 3142 a628 b1bf 1c1d 4473 14ca 98bf
00000510: 4442 287b 1f22 743f 05f8 f817 6593 aa3f
00000520: 0788 4027 43fd b03f c692 fb12 1217 9abf
00000530: bee0 56bf 98b3 a93f 1ac0 10a7 0d94 a83f
00000540: 0c36 9599 97c5 953f 7a78 3a8b dc4d 8b3f
00000550: bcf1 33e0 7814 91bf a350 9888 9928 a8bf
00000560: 39a8 3915 0249 9e3f 8d44 d449 9060 abbf
00000570: 07a7 21e9 5288 a3bf c374 8928 d7bf abbf
00000580: 5576 6e4f b0d0 a6bf 574d d667 b1d5 84bf
00000590: d29f ba53 29f6 a63f 8bf8 1c1f 4322 8b3f
000005a0: d3c2 0a63 7467 b1bf c129 7c56 952b 5bbf
000005b0: f8aa ec38 e111 7a3f 346a aa5d 93e2 9fbf
000005c0: 1dc7 f619 2d72 783f 217c 013b c6a8 b03f
000005d0: c4c1 bec5 8b82 6abf e11e 5243 ec3e 943f
000005e0: 4584 ad1e cdd7 983f 5a03 a8cb 6b1a a5bf
000005f0: 1134 5b79 ff99 b83f 5431 4a70 9d6e aa3f
00000600: 43dd 46f5 7031 b5bf cea5 d8ca 695d 9d3f
00000610: 1ae5 8693 08ca a9bf 86db 1055 e3bb a63f
00000620: 9616 1f80 928c 90bf b3cc 9e4d 7bb2 9dbf
00000630: 0c77 6aa9 4d74 76bf 2fb3 28ac d284 b73f
00000640: b679 a51b 8900 99bf ee42 5412 3dd5 a5bf
00000650: 3b8a 0b6d 4a49 b53f 0723 7c2a f857 943f
00000660: bb9f 832a 72f7 a4bf e00b e2d8 e4a5 a7bf
00000670: 7bc2 3cd3 5e16 a9bf 9032 9f96 a126 993f
00000680: ad63 3020 2fcd 9abf 8d77 7a52 4728 a23f
00000690: 1167 eb6e ba99 49bf 720f fd18 ea94 60bf
000006a0: 2564 8fbb efd1 70bf eda5 5c82 9b54 a93f
000006b0: f755 e842 65a0 823f 70a2 982b cf02 623f
000006c0: 4425 b53c ba4a 90bf a89e 9ef2 d051 9fbf
000006d0: 9c1a 7eeb 2051 a3bf f3df 3084 c178 99bf
000006e0: fd8a 339c 9ecd 6a3f 260a 76ed ebce 97bf
000006f0: 06c7 cf8e 417b afbf 260b 9a5e 6b55 a03f
00000700: 0256 5dd3 4d71 ab3f 6e76 b02a 892b 8a3f
00000710: 2c2a 2bb4 49bb 6a3f a06e 810f 55f3 ae3f
00000720: 29d1 1674 1519 81bf b07c b1ce 80fb a0bf
00000730: cbb9 c279 706a 87bf b513 9ced 0b80 b13f
00000740: 1b63 4856 17b8 953f 3f2a 2db6 fd6e 853f
00000750: e868 789c 7097 a4bf ec08 fd84 5e1f 3dbf
00000760: 569b 8d9e 566f aa3f 730d 7356 10f1 aabf
00000770: efbb d93f a828 aebf cf3f 2968 9ecd a43f
00000780: fd79 4b11 58dd b1bf f8bb 8ed5 71fb b03f
00000790: ab5e f098 f5e1 96bf 26cb 53c7 7ea4 9c3f
000007a0: c475 04d8 b585 abbf 24b5 707c 0a18 823f
000007b0: 690d 0fcd 3a33 853f 3c4f 52ba 5b5b a2bf
000007c0: a4c5 e50a 94b6 a7bf 36aa b020 5d88 84bf
000007d0: 2800 c1ee 104a 86bf 574f 34e0 b529 95bf
000007e0: 2036 881d 6c93 613f 031f 1d0c 920b 803f
000007f0: 0ab5 10bd 0653 933f db62 ac6e d8b8 b0bf
0.05031458816494056 -0.045770399999226684 -0.023058769254149857 0.045974809749322706 0.03668466477333256 -0.032339983324017114 0.013187450646014665 0.01878401246165532
-0.05424400917792683 0.034942627551081906 -0.040311848088291656 0.07144393944281138 0.09338607549517923 -0.01519477777811365 0.039747827669542476 -0.06033844956860608
0.02414369221903864 -0.01764436394424017 -0.007311272558261495 0.051718680377058956 0.0142814633774199 -0.03088800785342824 -0.030100326625843745 0.03130644953483218
-0.018764324631371097 0.01046824001337511 0.029994568039808017 0.0669884925167767 0.07290355141628786 -0.013429902863927123 -0.049971182088564374 -0.0493722703573895
0.05163716424881162 -0.03064418881781406 0.026935991549551036 -0.014081465314656571 0.036855942437026896 -0.008566664980087377 -0.025476044942073884 -0.07447972441059379
0.003078659413254696 0.052619272217199635 0.003063296572835684 0.003022077921479804 0.06944458312793786 0.049618403570402404 0.0181259623358764 0.030993222557844213
-0.047059885333150406 -0.008223387511041062 0.0005134693709916715 0.022179637335100397 0.029703085868537437 -0.04660657489525439 -0.043304553943565756 0.02320085190421624
0.014243272171407346 0.018635139632907013 0.0048623639118939195 -0.01841248618014796 0.021015411549677728 -0.03849317763008617 0.024136310067693702 0.047816072381400045
0.03254235435405997 5.159652611838832e-05 0.02244716478662378 -0.02895612705824587 0.0501156567746456 -0.03534019676195171 -0.00019233271740659585 0.023507782979046404
-0.04020490850693521 -0.02816561538340673 0.01887245584925884 0.006548491012047066 0.010210475460729477 0.05314831945355073 -0.0013960124784146172 0.009469734907134802
-0.01698477048625892 0.017287019133093735 -0.04223170847181404 0.010959422748077374 -0.059559131937994364 0.025167884351393985 -0.07715168252045974 -0.051496437357099765
-0.026335729305992765 0.018948198835667316 0.04431061612466061 2.7562199222488097e-05 0.014508744763445 -0.04602297901201939 -0.026647392784994634 0.06826057331877869
-0.04709316927373174 0.08386223354874148 -0.0542567753884278 -0.008824994073085375 -0.021105221794409705 0.018773177460982574 0.00943056636053304 0.06744790476151852
-0.000886112593870673 0.0047501090238694435 0.00955323593922947 0.025349430647948104 0.014173630201809957 -0.006667900155806467 0.08020930439047325 -0.016980119480646184
-0.04209742761914594 -0.052712148705461495 0.03598116949276801 -0.00324689546796147 0.013518741031512951 -0.027908712813271976 0.026821654372177556 0.02083741232091625
0.052173021946839274 0.05655630568680645 -0.03687049010524139 0.015385098242389164 0.05159863014205105 -0.018309677850211706 0.05155938272770191 -0.007840406643646911
-0.01684417086810948 0.03736754202819785 0.04503577721363586 0.012510051821574804 0.024717257862561924 -0.03666217809531942 -0.009012768185033137 0.028958332999765756
0.016638377156287108 0.08100898558059832 0.006491135423087244 0.047653590657950405 -0.008867090551872998 0.01035490570530983 -0.032033483878895395 -0.05898605025991076
-0.00022371072631036662 -0.03228990499109401 -0.0634918646461469 -0.044158671024636845 -0.06543143432291622 -0.011863585641017044 -0.02374158029894812 -0.04243090053419052
0.028881279536370808 0.052952984504984243 -0.062194398915427634 0.03032891516214149 0.058189443433487247 -0.026560716037452005 -0.0322032849362448 0.04650013858013196
-0.06702651134500053 -0.024208373580248396 0.004915354702931089 0.05190578382142522 0.06636447628309848 -0.025478632362949914 0.05019833884893064 0.048004557269791984
0.021261566876367197 0.013332102774537658 -0.016679657634982567 -0.04718475143832392 0.029575378938183603 -0.05347109700427053 -0.03814944358675914 -0.054198001573902775
-0.04456091851828307 -0.010173212033612584 0.04484681269724401 0.01324894369792797 -0.06798484247225227 -0.001658340299345626 0.0063647077320563225 -0.031137755004787063
0.005968261887959317 0.06507529202052399 -0.0032360773020274364 0.019771281823095847 0.024260716435837066 -0.04121720181502182 0.0960998221664371 0.05162517543530734
-0.08278566349223575 0.02867665577483596 -0.05036951828828702 0.04440222180749402 -0.016161240644371043 -0.029001165974204834 -0.005482009283381616 0.09187046721553992
-0.02441610556831516 -0.04264250611061536 0.08314957773431157 0.019866826623032654 -0.040950362863270105 -0.046187545275664155 -0.04899879768925516 0.02456142885039242
-0.02617334016767685 0.03546355134788746 -0.0007812652891871793 -0.0020241329401943725 -0.004106461005869232 0.04947362867671843 0.009094992737156622 0.0021986051840666085
-0.015910062747285694 -0.030585541542363842 -0.03772833704629372 -0.024874709790509496 0.003271875176879545 -0.023250280731654048 -0.06148724430376089 0.03190169839674288
0.05359881596693229 0.012778350463175072 0.0032631339575790643 0.06045022787358545 -0.008348624806651177 -0.03316881678687744 -0.011433485713806221 0.06836008597390626
0.021210064545900225 0.010465604898532209 -0.04021789464987241 -0.0004443746338333016 0.05163069425071025 -0.052620420983226966 -0.05890394000459042 0.040631246771794964
-0.06978369161831917 0.06633674110229026 -0.02234634157147634 0.027971249500249894 -0.05375450384074612 0.008834916994681814 0.01035161913194456 -0.03585325860436092
-0.04631483681704232 -0.01002571826946506 -0.010883457456770954 -0.020666925248476655 0.0021454917553061087 0.007834568972284744 0.018871407785060725 -0.06532051755892658

fc21.bias f8 [64]
00000000: ffff 51ee d9b5 9d3f 91d1 71e4 a862 6f3f
00000010: 3f8e 386d c24c 953f b636 ff29 2f21 93bf
00000020: 509d 5777 10f6 843f 4ef6 e67f 4e6b a13f
00000030: 8585 ae65 ab6f a6bf 92c8 363f 8710 a5bf
00000040: 9112 2f50 8c87 9cbf 0d21 fc05 8f01 af3f
00000050: 3eee 802c 0408 9dbf 6787 b28d 1326 b23f
00000060: 8cac 3b91 ffe8 a83f f649 bd92 c597 b33f
00000070: 4db5 4674 8e9a 5b3f 77ca 5aa7 dcc4 b1bf
00000080: c3f6 e22c 6abb a73f ba31 c181 3d1f 953f
00000090: 07d1 ea8c 881d ab3f 9100 02d0 30e2 74bf
000000a0: 80bc b435 f18e a63f 8fbc b7e0 57b7 a03f
000000b0: 1872 92d0 1787 a5bf ea16 366f 2eb5 b13f
000000c0: dc4e 60c6 d1b6 6bbf 0000 0080 65d6 adbf
000000d0: 8a2a c34f a376 ab3f 8713 26bd 667e 8cbf
000000e0: a713 1f63 7b0d a43f 5b55 85f9 afd9 893f
000000f0: 2e42 e15c f909 afbf 1943 2a3f f2f9 84bf
00000100: 3a81 d647 846d 953f 71af 204c ac33 a6bf
00000110: 4103 14ee 7bd1 913f 2ce2 6853 cb12 a0bf
00000120: 77af 5b92 427c aa3f 832c a2b0 56a8 9e3f
00000130: eeae 63e1 2ac4 a6bf ee0b aeb7 00d1 a03f
00000140: eebc 80fd ff5d 51bf 29b0 18a1 bb54 733f
00000150: 01c0 73a6 16b4 98bf 96dc 00ea 1da8 ac3f
00000160: 6bf4 9a1a a8c0 a43f 6824 978d c9d0 94bf
00000170: 14ab aa6d a94a a73f a220 e22a 622c ad3f
00000180: 95ba dce9 6fbd 743f ca88 117c b751 943f
00000190: 05f5 cb86 6204 7d3f 2bcd d4e8 752a 78bf
000001a0: c311 b01e 6069 713f 0c40 4987 5cec a83f
000001b0: 5801 89d7 2306 a4bf bf7c bcfb de1b a63f
000001c0: 9690 6b65 4c5b a8bf cad4 ce81 cfe4 9fbf
000001d0: 4808 a048 0c73 633f 0cbd 55f6 698e 863f
000001e0: 3a3b 78fd 3c39 99bf f63c 02f1 ff7d ab3f
000001f0: 8b35 42c1 beaf a7bf 68d0 6648 6ebf aa3f
0.029014020129125125 0.003831224315542233 0.020800626674953412 -0.018681275308884714 0.010234955446277866 0.03402180968576528 -0.04382072082740777 -0.041141725985100255
-0.02786082496074244 0.06055876682336434 -0.028350892273222288 0.07089349946411759 0.048652636030817126 0.07653460342888949 0.0016847983507476017 -0.0694101246433919
0.046351736049002244 0.020626984638782743 0.05295969696217822 -0.005098524736354319 0.04405931263533436 0.03264879816185228 -0.04204630299611639 0.06917085852736773
-0.003383073536506005 -0.05827634036540985 0.05363951061879842 -0.01391296639190799 0.039165359353808875 0.012622237016936813 -0.06062297114170111 -0.010242359688420731
0.02092558563674738 -0.043362983982972454 0.01740068092931613 -0.0313933886831744 0.05172927891348327 0.02993903592191006 -0.04446538926444342 0.032844564840182375
-0.0010600089936010876 0.004719479491125647 -0.024124483022148983 0.05597012979017639 0.040532353637424766 -0.020327710406295912 0.045491499554677045 0.05697924397924338
0.00506347385616714 0.019842974612750898 0.007084259862265134 -0.005899868568394677 0.004250884502657151 0.04867829467241344 -0.039109344540068036 0.04318138907387369
-0.04757155168570752 -0.031146280572745856 0.0023741950908524913 0.01101382048611168 -0.024632409067687912 0.053695676965725456 -0.04626270398248796 0.052241751039589

fc22.weight f8 [64, 256]
00000000: 1ab9 9a12 76a0 a0bf 3e3b d68b 9b96 aa3f
00000010: 1cef ead4 dc4d af3f 0dfd fb7c 4d73 5a3f
00000020: 2126 7e65 5d89 8c3f 0483 4eff 1b9d 8d3f
00000030: e295 8d3e 07f5 36bf ba6a 85a1 b434 913f
00000040: a04f f401 b276 a93f bc61 b7be 3d0c b03f
00000050: 3c8e 2c9b 13e2 993f a702 e270 f24c 833f
00000060: 05c8 6587 bdee b33f 021d 6671 2a3c 9e3f
00000070: a5ba 21fe 84d4 913f 462f 5865 02b2 8cbf
00000080: 0853 5df6 1261 a9bf 6ae9 ed1b 0b7b b33f
00000090: 842e 672f a1c6 9fbf 79b6 91f1 214d a03f
000000a0: 396c 4459 ea84 5abf 0df8 1664 69f2 89bf
000000b0: 1743 5540 a88b a53f 1520 c6ae 6e39 a1bf
000000c0: 1c44 ab71 a8d9 63bf 6819 bf82 ee0b b63f
000000d0: 3f44 c55c eb9a 92bf c9e4 a981 1ac0 b33f
000000e0: f7e3 1cf6 dd2e a93f 32ff 2ee0 fbc2 8d3f
000000f0: 26f1 23ac c1c1 b53f 5993 a798 e4ac 9fbf
00000100: d140 7159 f3d8 8f3f 8643 3531 4c10 8d3f
00000110: 8c29 9813 a891 ae3f eaa5 5be1 c56c a13f
00000120: ce78 2b3f 26eb 90bf 56a2 2dc2 50d8 89bf
00000130: f55a a152 667d aa3f 1d2f 14cd 37c0 b23f
00000140: 607a 8bbd bbf0 98bf c399 136c ca16 a93f
00000150: d2e5 03c3 4ddd b03f aac8 4bb3 dbee a9bf
00000160: 5108 3ef9 1541 603f d074 f85d d5bc a73f
00000170: b7f3 a644 5067 b3bf cd65 18f3 34fd a63f
00000180: 27c1 d73b 7345 a53f 77eb c782 ec70 5d3f
00000190: 0bab bed6 7349 713f b5f0 ea77 d66b 873f
000001a0: 581c e9ee aa33 803f 17a7 d820 70f8 a0bf
000001b0: 561c 995c fd73 ad3f 88cf 4718 cdb8 623f
000001c0: b6a2 aef7 e702 abbf 6440 1e8a b840 a23f
000001d0: 5d98 b365 3074 a43f 9f3a 59e2 82cd 4e3f
000001e0: 5814 5d48 3b71 903f 54ce 7681 fdef a23f
000001f0: 7386 695d 82b0 9ebf fc16 d161 588b 503f
00000200: 033d 9529 65a5 a1bf 0371 976d 0560 a83f
00000210: 4f95 72f4 7aa2 a3bf 17ac 054e b78d b03f
00000220: dee8 4252 1700 913f 8984 3328 abb7 b8bf
00000230: 7dc3 2653 cfcc b43f c58f 7fcf 457a b13f
00000240: 2d72 f2d2 8f90 883f 5a7f 9970 46dc ac3f
00000250: 5e85 d512 f3ee 96bf cd32 8f71 af72 983f
00000260: b347 44a3 d763 a33f 89f5 7776 552e a83f
00000270: ffcf f0cf e087 a53f a6cb 555b 1dc9 7ebf
00000280: 9f85 fb18 ee9c a9bf b48f bdb7 0a34 a4bf
00000290: 5406 4cf8 2cd4 983f 09a3 2aca e346 693f
000002a0: d9a1 5dcf fe97 99bf 3ab7 b71c 08d4 833f
000002b0: 1157 681b feec a43f 1d38 5eb2 c149 a3bf
000002c0: 8f93 ff3f 2922 a5bf 588b f7e6 7e3f a0bf
000002d0: bf77 c84e 81fc 813f bc47 f24b 6106 7a3f
000002e0: fb6b 74a3 a9a2 b0bf 95d1 57da 93a5 b03f
000002f0: fa3b 3b1b ec77 ac3f 9915 7555 ed67 933f
00000300: 4d1d 9fee bf93 773f b20f 2397 b4be a63f
00000310: 9f5f 1294 2342 7abf 8f5d b68d 0060 b63f
00000320: d379 0228 c8b7 a23f 8388 06f6 a807 a6bf
00000330: aee3 ad03 576f 973f ad7c 13ec 97d3 923f
00000340: 28a3 d2eb 6b5a 903f dc3d 7d67 d9ff 163f
00000350: 43f4 255f da88 aebf 3787 abd3 76a1 ac3f
00000360: 15d0 c390 4415 753f e927 8530 50fc 983f
00000370: 7a48 f5fe b816 a3bf 5695 8695 560e 903f
00000380: 3dba 2297 1fce 843f 3929 dd20 df57 913f
00000390: de99 e63c 2fd7 aabf aaff 4e65 d98e a53f
000003a0: b3fb d1e3 6743 b03f f3e2 edeb a84e 953f
000003b0: 02f9 d178 9be1 91bf 79e4 edbe 2b8b a6bf
000003c0: fdba 3a2b 9223 af3f 440c 638d ad8d a13f
000003d0: 9ec1 2544 e0f2 b43f 5322 a268 7fbf 8fbf
000003e0: c93d fff9 f464 9cbf 0141 8e96 582b b43f
000003f0: 7dc6 9f24 d60b 9a3f aa6f 6275 14d3 afbf
00000400: e1a7 3f18 6de5 b23f f76c bf72 0a43 7b3f
00000410: c66e 649b e54e aabf f5a9 d51e 558e ae3f
00000420: 8f3f edd8 7091 8b3f d997 9f18 b706 813f
00000430: 71d3 3828 4830 a43f 47f6 4395 f171 61bf
00000440: 72cb c3d0 7819 733f 0fad 6a1a e134 9ebf
00000450: fa46 f0a4 4bbb ac3f 6e3a b20c 4359 95bf
00000460: 5d30 b537 c476 913f 394d 120b 6945 ac3f
00000470: 3453 fa57 b720 8fbf 59b0 4676 6771 ac3f
00000480: c93d b90f bcb6 a23f 5088 9189 f6de a93f
00000490: a1e5 6d22 8c87 ab3f 7f7a ecdf 671a a63f
000004a0: 67bf 06cd 81cb 90bf b7f6 3b24 5a91 83bf
000004b0: 187b 4174 0c6e a0bf d0ea 7f76 0d73 823f
000004c0: 6f7a 22b8 1bab 8bbf 48ad 84b8 3d1f b43f
000004d0: 8fb6 650a 52dd a93f 1fc7 8d52 6a61 a1bf
000004e0: c03d 2278 1414 81bf 83f6 1e71 b8b1 95bf
000004f0: 5650 faa8 6a43 b13f 37ef e221 1fe2 aa3f
00000500: c608 dc81 dc9e 70bf 8f51 6305 12f4 aabf
00000510: d13d 8110 b69d a8bf 7ebd 9354 e043 a3bf
00000520: 3362 d736 a992 97bf 5da8 170c 8217 87bf
00000530: 573a f529 460a a33f 9202 47c1 fb42 9f3f
00000540: 76c9 2f62 ead1 a63f db91 d11d 43a9 963f
00000550: 6006 046b 04a1 973f a3db 7a76 7aca 983f
00000560: 5cd1 5c80 9f7d 95bf eb1d 36ae 6336 91bf
00000570: 4d0f 824b d213 a93f ea88 9f55 c117 9f3f
00000580: 0bd6 683c 340a 9c3f f15b 72b6 30a4 9fbf
00000590: 27e3 8249 8af3 9dbf e809 2974 555f 95bf
000005a0: 5c32 9f9f 7002 94bf 456b 04b6 30be b53f
000005b0: 80b1 0079 b855 a83f e012 c695 4941 99bf
000005c0: 3fe6 8bfc 7d82 9dbf 374c 1110 f097 92bf
000005d0: cf5e 76ab bee3 ab3f 8479 71bf 7ab6 713f
000005e0: 7174 151c 45e8 b83f 3b9f d741 9310 823f
000005f0: f209 1279 7c1f 703f 8b3c 8705 3bba 923f
00000600: dfae 2918 d565 6f3f 2881 ac7e bb20 a03f
00000610: d548 cef7 017a 993f 96a3 22b1 286a 81bf
00000620: 6c53 9a80 9050 883f 7ba0 b88a 718f a5bf
00000630: ca04 b6ba aea9 a2bf 8808 3cbf c5f8 aa3f
00000640: ca8d 05fb d607 9e3f 488e e653 27f0 b13f
00000650: 48ae 4ddf 4911 a23f 7b5d d6f8 ad48 b63f
00000660: 548a 8b8e 78db a93f c99a 0014 752b 97bf
00000670: 0f73 a01e 0597 b13f 8f2a 5df0 0fee ab3f
00000680: 2bed ff5d ee31 9abf 0d82 e2be 600d 92bf
00000690: 1bb8 c84e b259 933f 0664 8f3b 639b a0bf
000006a0: 3b65 0bc7 28c4 813f 559d 9fbe 9e95 b13f
000006b0: d8da 9ec6 0df3 9c3f abc0 e6be a6a0 953f
000006c0: 774a 43a0 33f4 9bbf 020e 5809 8e88 8dbf
000006d0: 1fd1 3f31 1642 aa3f 2f31 a633 1309 afbf
000006e0: 7659 f705 63cb a23f 9399 9e9e 0a7f 89bf
000006f0: 97eb 37d0 b1b2 953f bcbe f776 f8f7 b23f
00000700: db6b c2d7 d6e1 acbf 9182 ac81 0eee 97bf
00000710: 3772 11aa a97d a43f 1873 ae76 03b0 80bf
00000720: 2d71 e8bf 3517 8f3f 3d23 8b0d c7cd 9d3f
00000730: a2e0 c3cd dbf8 a43f 9dd2 abd4 7af3 94bf
00000740: dda3 7d42 3891 a13f 5dc1 ea44 7d94 713f
00000750: 5d81 19e0 547f 87bf 8c51 52f2 f985 843f
00000760: c830 83e9 191a 703f a7b7 a38f 3022 94bf
00000770: e7d0 4ce9 9201 83bf 32b7 6963 7a0c 853f
00000780: 1f6e 4e94 c4e6 94bf 31b8 c17a 5ecc 983f
00000790: 68f9 be07 edc2 9f3f 1a83 aa14 e419 90bf
000007a0: ae17 6b3b 4bab b53f 01fa d5c7 32b7 a0bf
000007b0: 6d27 fe48 59e8 85bf 88eb 572f 0d1a b13f
000007c0: 7607 7c94 2640 b13f 2abb 17a5 06ef 92bf
000007d0: d81d bd31 371d 963f 54e8 0003 85b0 663f
000007e0: ae4d e0ed 911d 8cbf 2271 b256 1bcc adbf
000007f0: d6ab 56b4 d18b 91bf a7ac cb5e 1af1 82bf
-0.03247422196487744 0.051930294818808495 0.061140919676715394 0.0016144043656252688 0.013933877620519177 0.014459818581430202 -0.00035029818405116046 0.01680261836859629
0.04973369859558763 0.06268678575668835 0.025276476236412146 0.00942410857192162 0.07786163859944402 0.029526389285391204 0.017412260066005065 -0.01401140090731413
-0.049568741391942395 0.0760962432085869 -0.031031149404766825 0.03183847497790011 -0.0016186035691763258 -0.012669394843097615 0.04208112511935818 -0.03364129909010686
-0.0024231233522660333 0.08611956302693147 -0.018169095551744837 0.0771500174104346 0.04918569211299222 0.0145320585050964 0.0849877400650639 -0.03093297178010643
0.01555051914888886 0.014191241504393447 0.0597050212782789 0.03403299690200952 -0.016522023778514243 -0.012619620252466362 0.05173797377272208 0.07324551350410187
-0.024355824893854794 0.04900200433057791 0.06587682734598069 -0.050650468479845515 0.001984160344307852 0.04636256000615335 -0.07579518962934527 0.044900564837188385
0.04154548745634861 0.0017969426800152602 0.004220440383430067 0.011436152968024119 0.007911048332188184 -0.03314543152766996 0.057525556138494124 0.002285385681028932
-0.05275654695953362 0.03565003095639055 0.03994895211671754 0.0009400261958008755 0.01605694417164147 0.03698723035213605 -0.029970204307011316 0.0010097849947369722
-0.034464989973111336 0.04760758364474962 -0.03834900125483875 0.06466241507375546 0.016601910014949144 -0.09655256015277493 0.08125015049041724 0.06827198329807434
0.011994479775517675 0.05636806606776075 -0.022395895027675798 0.023874989801515412 0.037871111564654746 0.04722849913739952 0.04205229318941405 -0.007516016650117507
-0.05002540640794994 -0.03945954792905529 0.024246885924190956 0.0030855607049783446 -0.024993878752327923 0.009681762100594338 0.04087061008992355 -0.03767209341377529
-0.04127625375966836 -0.03173443383618374 0.008782396523255074 0.006353740754223066 -0.06498203507037197 0.06502651291504542 0.05560243446745257 0.018951137867835397
0.005756139502359159 0.04442371697362492 -0.006410731294771126 0.08740237674498118 0.03655839432143506 -0.04302719119302003 0.02288566551166909 0.018385289939825956
0.01596993090484769 8.773579054132487e-05 -0.05963785563924564 0.05591937383520789 0.00514723571199129 0.024399998628076878 -0.037282734988040425 0.015679695965123606
0.010158774184984337 0.016936766033986948 -0.052422977623155495 0.04210547792126758 0.06352853118913408 0.020807876014688764 -0.017462186097412243 -0.04403053956679854
0.060818259980228696 0.034284041890281475 0.08183099426037763 -0.015501971607833875 -0.02772887016163653 0.07878640819240347 0.02543577765022186 -0.06215728695789775
0.07381326524742306 0.0066557319769018275 -0.051383185595310674 0.0596796608104632 0.013461000080184053 0.008313589514681684 0.039430861387166234 -0.002129527894907199
0.00466296380567398 -0.029498593556735616 0.05611645115290105 -0.020848319673456954 0.017054620647556685 0.055217058755398125 -0.015199119922991146 0.05555270499039073
0.036550404471764227 0.05052919797232447 0.053768519594949334 0.04317020996517317 -0.01640131772882061 -0.009554580908566519 -0.03208960456026072 0.009008507899115697
-0.013509956890911582 0.07860170130577615 0.05051666619224903 -0.03394634492623382 -0.008339080730620618 -0.021185762314181133 0.06743494630274091 0.05250642098095997
-0.004057751995562414 -0.05264335933466945 -0.048078240885498176 -0.037627229999880094 -0.023020404789209258 -0.011275306695967819 0.03718775999242457 0.030528958961215276
0.0445702786309025 0.022130058951363423 0.023075169593545275 0.024209893685760552 -0.02098702641451787 -0.01680904150773969 0.04897935077408864 0.030364056445144984
0.027382675349334955 -0.03089977372709635 -0.029249344574711202 -0.020871482100355637 -0.01954055761580019 0.08493332332402044 0.04752899624904483 -0.024663114325011004
-0.02881810048982047 -0.018157721501051518 0.054471929960696046 0.004324416621868447 0.0972941583217606 0.00882067722973511 0.0039362776016127355 0.01828853818170421
0.0038327371597029892 0.03149972840606302 0.024879484891763354 -0.008503263383617992 0.011872414517066075 -0.042110012229671555 -0.036450825015899094 0.05267923316388684
0.02932678134074055 0.07007070349077893 0.03528815127250745 0.08704650235300974 0.050502555275461575 -0.02262671408257225 0.06871063230250861 0.05455064591531766
-0.02558109711388316 -0.017629157686885267 0.018896852549168935 -0.03243551351597067 0.008674925398212898 0.06868927148717792 0.02827092671187867 0.02112064876718082
-0.027298742920559307 -0.0144206139184524 0.051285451423526356 -0.06061611180766346 0.03670796821431825 -0.01244934364860909 0.02118947823872083 0.07409623054968056
-0.056410516584228985 -0.02336905161348796 0.04002123070742807 -0.008148219165201406 0.015180988234583548 0.02910529155886653 0.04096114050656864 -0.0204600517563046
0.0343110638776307 0.0042920010879899636 -0.011473334397294971 0.010021164615218202 0.003931142062537592 -0.01966167332368909 -0.00928034567332543 0.010277706297724263
-0.020411559631254513 0.024217106096721067 0.031017020795610334 -0.015723766099316007 0.08464498711245369 -0.03264769257929246 -0.010697076358855384 0.06680376439901015
0.06738511204824058 -0.01848993666311142 0.021595823679744303 0.002769717968502264 -0.013728275367646283 -0.05819783623994314 -0.01713493025969711 -0.009248929994518497
