weights/model2_25_smgbin_l_suite_w_lims_opp_pen_dgoal_fixo_obs_l_s_ori_sg_1_bn.pth (torch, 557570 bytes, 18 tensors)

fc1.weight f8 [256, 8]
00000000: c59d 998f 79fd 7dbf e108 937b 822c d13f
00000010: fda9 4119 50e2 d7bf e4bb bceb 80d2 d4bf
00000020: aa8e d838 3837 a3bf 32d5 b3bc 51de c6bf
00000030: daaa 672e e62b d53f d7f8 dc8a 75f6 c03f
00000040: cb51 c1bf 1c94 bdbf 0fde 1383 5140 c43f
00000050: d49c afa4 f4ba 963f d89f d60e 2d76 aebf
00000060: 30ea 19fe a1f2 8abf dfb1 f306 b54e c53f
00000070: fc13 ccd7 4846 d6bf 0667 c9d6 e85d cf3f
00000080: ffa7 8bf8 c8a1 a4bf bf93 3234 d6a5 d2bf
00000090: 4c1d 6a18 2b66 d73f 8ecd 7655 46b6 cbbf
000000a0: c962 5b34 cd52 7f3f e15a e3ba 8385 a33f
000000b0: 8006 f668 7e97 913f 6f8d 25c9 c946 ba3f
000000c0: 5324 4509 5f05 d8bf e2ed d890 f864 afbf
000000d0: ae03 1c62 8fdc d3bf e620 069a 40dd cc3f
000000e0: f354 75e7 8b21 d33f 7366 eeb6 2d28 cf3f
000000f0: bb08 2293 00eb a0bf f376 6c81 b84a d43f
00000100: a57e 1feb 8df3 c2bf b497 3f84 e6ac d4bf
00000110: d58a f0be 5db2 b6bf 7ace 6acb b10e d23f
00000120: 2cf1 e099 b231 d43f de86 0e83 1541 c13f
00000130: d5ff c160 2ba8 9ebf ed66 c0a3 6223 d73f
00000140: 6692 9236 a54e d23f bfd6 26fd ec82 ce3f
00000150: 394b 4e9a 349b ce3f afa5 a9ff fc21 d4bf
00000160: efa2 5031 6acf d43f 5397 277a ee50 ca3f
00000170: 1bfb e01a 9427 d0bf 756b 9044 e972 d13f
00000180: 6691 b4e5 ed54 b8bf 4e20 cee1 8836 bc3f
00000190: fb04 f876 29d4 c53f 61dd c4f8 8f28 b43f
000001a0: 626e 9bda a8ac d4bf 2adc 3667 822e cd3f
000001b0: 3404 534b f3db d4bf d748 d87f a3f0 cebf
000001c0: 7cad 50fd 2bec c43f 822b 616c 422f b5bf
000001d0: d374 7e47 6ec8 c93f 516f da1a 8f06 cf3f
000001e0: bb09 46a8 5c87 cc3f 503b b21d 4c27 b33f
000001f0: ef2e b87b ab39 bc3f 234e c893 b079 cc3f
00000200: 3cc3 ab2a 55fd d2bf f930 26ba ad67 d33f
00000210: 7fda d58e bcba cbbf f09d b02b b7ac d73f
00000220: 1ddc cabe f58f d33f bc1c 3e9f e511 cdbf
00000230: 32df d802 2ebe cc3f 53c5 0815 7678 cfbf
00000240: a73b 80c8 d451 c3bf fd64 6799 2cf7 d73f
00000250: 1cfc 9c4c eda6 d23f 657e b19f 7d78 c1bf
00000260: c149 b6ac 1b20 d53f bddb e8e1 d814 c1bf
00000270: 222d 41d0 6282 dabf da3f 3077 4449 b13f
00000280: 6a37 cf1e 5413 bb3f 21ab 3e8d 2613 d0bf
00000290: 3f6f ca97 23ba b1bf 1a27 1f95 533b c03f
000002a0: 4224 e614 e90d d0bf 2d03 8c5b 5056 d93f
000002b0: 2582 09e4 8a02 cfbf 222b b54f dab2 cd3f
000002c0: 2e7a cc30 c435 c4bf 0e54 2993 3fb8 d83f
000002d0: 39d7 9a89 fad0 b8bf 6729 926b 12c2 c0bf
000002e0: d0d8 e3dd 6ff8 a1bf 8b14 ef02 bbff bd3f
000002f0: 0680 6276 2e45 d2bf f0a4 6adb 8b17 cd3f
00000300: 0bbb 5639 41c5 c1bf a46d 193b 222c d23f
00000310: b95a b731 aa17 c5bf 99b2 edc1 0ba5 a7bf
00000320: e06c 4c76 7981 d03f a66f b4a4 44ff aebf
00000330: 0d61 9170 c49a d8bf 3e43 5d1a fce4 adbf
00000340: cfc2 957a 30a9 aabf 0f27 d826 6766 d2bf
00000350: d7c2 611d add0 d3bf 013c ec25 769d c6bf
00000360: 952a 8508 b469 a13f 71c1 782c 0ac9 d7bf
00000370: ac26 b2f8 8b7a d03f 08d1 f14a e6b3 d43f
00000380: cf78 21db 7ba7 cd3f ffc5 0d10 abdf ca3f
00000390: 6252 fa42 e3b6 c83f f8fb 43af 66f2 d2bf
000003a0: 9155 feef 708a d8bf 96b3 b00f f5de a23f
000003b0: 503f 2eeb d97b c23f c7fc 090a 8676 b63f
000003c0: 4d0e 59cb 9dc2 cdbf 265d fa55 a67a d4bf
000003d0: e6be 5c99 ab09 af3f c8f1 120b 8bea c13f
000003e0: 921b 718c 9d02 cb3f 751f de4f d327 79bf
000003f0: 4b85 25e7 1cda cf3f 3cb1 6b66 0906 cbbf
00000400: f28f b0bf 360e d03f a9cd 00f4 cebd d4bf
00000410: 7fed 8c0f 463f ad3f 7548 037e f2cb 8b3f
00000420: 53e5 3485 bd30 d43f 1110 1d4c fb3b d7bf
00000430: 9359 3849 b6ef c53f bf00 3450 f4a4 cfbf
00000440: 280f 900f deb0 c53f d9fb a370 2496 c73f
00000450: a788 9bde 8be9 c73f 449c e927 e806 d83f
00000460: 0cfb 96cf 6697 bb3f 9682 e607 b450 d0bf
00000470: 8247 edfc a0fe cc3f 0fe7 bebf b33c c7bf
00000480: 6d4e 8c6b 6cf9 d1bf 4cd4 8122 ec93 d1bf
00000490: 0ede 97af 92a7 7d3f 98e4 6a83 5b62 d13f
000004a0: 22e8 31c2 f829 cd3f 5281 3374 d48a d5bf
000004b0: 6ae2 ee40 9ed9 ca3f 1828 bc63 75a2 b33f
000004c0: ceaa 6c06 295e c3bf af07 eb4b 6a00 d7bf
000004d0: ae92 e695 2754 cf3f 23ce 4ba8 fb5b d43f
000004e0: 6761 fa1d 4643 a1bf 53cd 8bcf 6e3d 97bf
000004f0: 96a2 2bde 70f5 d73f b5fe dc9a 5a24 84bf
00000500: 7a7d 2e1a 800b c23f 8a98 e83e 8fc7 cc3f
00000510: da39 6fab 3b7b a3bf 0921 2181 597c 643f
00000520: cb47 d28e 5b3d d53f 4771 b3de 71c2 ce3f
00000530: d579 ef25 a8f1 c4bf 31b0 98ca f4e4 d03f
00000540: 61e5 0da6 6e5e d23f fe0a 0866 ff39 bb3f
00000550: 0c3b 3608 7f98 c93f 1b9b 8b7a 9716 c13f
00000560: 4cc3 8f92 7afb b2bf 0885 9914 4e66 bc3f
00000570: 3ec9 9620 1a20 c9bf 15cf 0290 1421 77bf
00000580: e2b2 83b6 1f5d bd3f e4e3 75a4 90f5 d6bf
00000590: 216d 86fe 5cc9 5fbf 9b87 0fc7 df5b c3bf
000005a0: 0dbe d572 9bab 3ebf 2cea 3761 dcaa cd3f
000005b0: 2c3a 9f10 7173 d23f 2828 cf73 ddab d53f
000005c0: fda8 1ffe 4984 c93f 6efb b877 a2c3 d33f
000005d0: 8a0c 29c1 6b8f bc3f 9819 44fd 0be0 d63f
000005e0: 2252 5dd8 f6d1 98bf 9e5a caaf 8006 c73f
000005f0: 1f4e 8971 7213 d5bf c593 be86 e6fd c53f
00000600: fdb4 2014 b5f3 d6bf ef5d 224f 4dd0 903f
00000610: 9f09 b618 3957 d33f e59d 5798 32a4 a83f
00000620: c702 c35d 9c50 d1bf 430d a979 4f36 d6bf
00000630: 49ec 9da1 210b cebf cfc1 4dd1 e876 d0bf
00000640: 2f76 e353 aee8 a83f 8fd1 983d aa3e d33f
00000650: 07db cd8d d97e c63f 89c2 cf25 d497 d73f
00000660: f5d8 97d3 b691 cd3f 9f3f ef54 848e b2bf
00000670: 7518 fc9b 61fc d1bf 8749 6d49 3684 c9bf
00000680: bb29 f23b 566b d63f 56ed 6b6b 41c2 c93f
00000690: 2e5e 981b ad9f d5bf e5a1 744c a142 d13f
000006a0: d1ec 53c9 85e2 d23f 1afd b2ea 0164 d03f
000006b0: 2ab8 f920 3641 c73f 7d2e 0405 7517 d6bf
000006c0: 03c9 f8d0 c3ac cb3f f2fb 0286 212d d13f
000006d0: 07b6 f877 1f75 d43f 45d4 b779 63e8 863f
000006e0: 3f2e b78f fafe 86bf 40bb 9e00 7466 d43f
000006f0: d2ce 2925 8e5c c33f c1b2 fda1 0dbc d43f
00000700: d27f 85c3 f8af b03f f50a f422 2145 d3bf
00000710: ccfe 8903 1ec2 c8bf edb3 e219 5cbb d5bf
00000720: 9355 b592 0fec d83f 3601 4ac5 ab2e cb3f
00000730: 30ec 7b9f cfb2 a43f cb8c 9a44 6c4e c7bf
00000740: be7d 60e5 4c10 d2bf 1353 4e38 70ee d4bf
00000750: 3fa0 1478 cc1a d73f 5126 e712 7edc b9bf
00000760: 519f e677 e210 d63f e0c5 1af6 6df0 cabf
00000770: 1874 ffde 1272 c73f 4f52 3915 40c2 983f
00000780: 1e74 6963 7b88 d13f 1824 19cb 2aca d1bf
00000790: cf1f 24d5 b00e b8bf ab5f bfe4 e3be 8ebf
000007a0: 135a 5ab5 c6a8 d0bf 0bb1 8e21 577d d13f
000007b0: 206c 5e5b cbfa d8bf 0f9a c140 e83f d93f
000007c0: 8430 a511 5f3e ccbf 3ab8 e212 bd0d c93f
000007d0: f9ba 808a 3d2d c83f 868f 4dca 53ed d53f
000007e0: 2487 d231 06a8 b53f 88b2 5b7f 483a d7bf
000007f0: 40c5 3502 3c83 b73f 3704 5a02 3f18 b83f
-0.007321810576832848 0.26834165637786894 -0.3731880423207768 -0.32534811993804014 -0.03753066724700933 -0.17865964616763957 0.33080439120992156 0.13252133636883087
-0.11554126435777971 0.15821284199022087 0.022197554160723623 -0.059495361386609324 -0.013158097807935837 0.1664644512124047 -0.3480398280519805 0.24505339133866516
-0.040296821918516905 -0.29137187096995015 0.36561086067418525 -0.21650008366632928 0.007647325115350775 0.03812801033352798 0.017179465442956232 0.102642642601088
-0.37532783417970456 -0.061317222291531484 -0.31033691960333953 0.2255020858831422 0.2989225159011106 0.2434136527270315 -0.03304292484337298 0.3170605911162589
-0.1480576894818927 -0.3230530063141217 -0.08865915214168336 0.2821468817230436 0.3155333044740185 0.13479870700125834 -0.029938390522602127 0.3615347479950362
0.28605013207769614 0.23837053643153713 0.23911149534668555 -0.31457447974261304 0.32515959564129465 0.20559483494360595 -0.25241568207631965 0.27263862319676174
-0.09504591806450477 0.11020713341542995 0.17053716954254824 0.07874393294774996 -0.3230383047900657 0.22798185386429398 -0.32592470508467675 -0.24171870939659953
0.1634573923960082 -0.08275237222657775 0.20142916193882474 0.24238766490167987 0.22288091866000834 0.07481837964062987 0.11025497217650203 0.22246367660464825
-0.2967121998508906 0.3032030408728726 -0.2166362473905856 0.369916718164375 0.3056616175849188 -0.22710867190855832 0.22455382479687952 -0.245863685866008
-0.15093478956302173 0.37446131687973133 0.2914384124923701 -0.13648958489919774 0.3300847231522788 -0.1334487059663995 -0.41420812928545747 0.06752422246813641
0.10576368095573022 -0.25116885941922545 -0.06924650626973249 0.12681050092060603 -0.25084902802388254 0.3958931821835446 -0.24226509222627715 0.23202065364815733
-0.15789081938506072 0.3862456261752535 -0.09693876132481884 -0.1309226060150863 -0.03509854873293394 0.117183387962614 -0.2854725032902937 0.2272810765619293
-0.1388322381949013 0.2839437081472289 -0.1647846930270214 -0.046181075499452 0.2579024939784187 -0.060541291337556744 -0.38444624894101836 -0.058387640207576016
-0.05207206245802853 -0.2875001792277638 -0.309611586278192 -0.17668034412096748 0.03400957683569065 -0.3716454920095407 0.2574796608611034 0.3234801990395373
0.2316737003301967 0.2099508121860225 0.1930812909164557 -0.2960449897363442 -0.3834497779547173 0.036857278981506855 0.1444046400397334 0.08774602646916484
-0.23250172070594247 -0.3199859466198681 0.060620653601629645 0.1399701885292315 0.2110173164130314 -0.006141496121820346 0.2488437775273645 -0.21112172604569845
0.2508675453157131 -0.32408498600417573 0.05712336482835222 0.013572592230421269 0.3154748726697864 -0.36303598816834987 0.17137793135834709 -0.24722150722664613
0.16946006545924175 0.18426948070552276 0.18681476945409267 0.3754215612193017 0.10777895515546393 -0.25492573520208717 0.2265206561083311 -0.18153998243888522
-0.28084860327474 -0.2746534668907017 0.0072398881834412464 0.2716282637953298 0.22784337503600322 -0.33659850452206286 0.20976617975772466 0.07669767079292489
-0.1513110429162538 -0.35940034307361207 0.24475569552773407 0.3181141990200748 -0.03371638408606508 -0.022695285241707563 0.3743555230744645 -0.00983496461014908
0.14097596434019605 0.22484007426936997 -0.03804956882196438 0.0025007007725755853 0.3318699736347496 0.240308984509179 -0.1636247811538413 0.26397437844093746
0.28701368538130195 0.10635372391702089 0.19996631527870823 0.13350194438609084 -0.07414976194537565 0.11093605044290566 -0.19629217711696784 -0.005646782228882837
0.11470220762175701 -0.3587380987224249 -0.001940098585783208 -0.15124127597578937 -0.00046799225932311965 0.23177675959580435 0.288295999748615 0.3386148100804598
0.1993496409261936 0.30881559077891196 0.11156342950657652 0.35742473347672776 -0.02423845000824277 0.1798859461166175 -0.3293119534257318 0.17181092814749213
-0.3586247154770062 0.016419609026881273 0.30219867146674945 0.0481277285542168 -0.2705450931207846 -0.34706484681028743 -0.23471470252465768 -0.2572576564771482
0.048650214901254756 0.3006997682125751 0.17574614929227314 0.3686418885472809 0.23100934344956384 -0.07248713563535468 -0.28102913124929013 -0.199347291806202
0.35030132154556853 0.20124070878214678 -0.33787086195795524 0.2696917769085572 0.2950758424846756 0.2561039726242186 0.18167759523515886 -0.3451817082393303
0.2162098665590478 0.26837957465244167 0.31964861598939404 0.011185433532754039 -0.01122852088055659 0.3187532430701374 0.15126206221213195 0.3239778596824117
0.06518511556123421 -0.3010943261471504 -0.19342398808293237 -0.3395605328358318 0.38940800978647266 0.2123617852521506 0.0404267198736864 -0.18208077764311378
-0.2822448959359142 -0.32705312250736646 0.3610106632863825 -0.10102069818017269 0.3447805567652625 -0.21046232716393742 0.1831687535149349 0.02417850617924194
0.2739551993198023 -0.2779643042927673 -0.09397416309013738 -0.015012531679459892 -0.26030128202674624 0.2732751682003857 -0.39030727312791846 0.39452558826306555
-0.22065342294297718 0.19573176786565388 0.1888806272777044 0.34261030918263946 0.0845950957905442 -0.36293232381175544 0.0918462281604393 0.09411996657765163

fc1.bias f8 [256]
00000000: 6672 7dce 2539 c2bf 99d8 2018 977e c8bf
00000010: 036e f10a 7546 bd3f b960 70c3 224a bebf
00000020: cde6 46ef 1615 c83f 6554 6571 373c ac3f
00000030: 1ca6 59aa 6653 d43f 7c33 1036 cde1 a7bf
00000040: af3e 4e59 b227 a7bf d158 6d9d e059 d73f
00000050: 85fa 7e1e 1fd2 c6bf 4f77 1c6c 6ee6 a2bf
00000060: 243b 8917 2005 c8bf 96d6 6e82 431c cf3f
00000070: a404 de0d 336d d13f e741 f329 2ab2 b13f
00000080: dd03 bec9 3123 a73f 408f 82b6 758f d63f
00000090: 0ef0 ed47 64ac 963f 647d f6c1 e99e c2bf
000000a0: 6df2 2675 5acc b03f 603b 1d0a e3bc d1bf
000000b0: 4663 a4bd 8aea cb3f 8329 67fe e598 cc3f
000000c0: 7ceb 6158 85b0 c53f 1caf ab36 0b75 c13f
000000d0: 6c1f b04c c3da c7bf b676 74b0 f805 d4bf
000000e0: 5fdf 142c b8d1 84bf aed2 47b1 2d57 c83f
000000f0: 0fbd f3f0 b251 c7bf c788 e00b 4de0 b6bf
00000100: e7d5 86cf 5929 d83f 36b0 9457 8459 c23f
00000110: 5258 6a0b f2b0 c6bf 6d39 a646 91fd cfbf
00000120: 38f3 2fd0 8088 c9bf 8845 0d42 d137 d2bf
00000130: e411 3342 dae2 d43f ea86 25c9 f898 d23f
00000140: b288 a456 a90d bbbf 8dc8 f9ca 592f d2bf
00000150: d4b5 f617 23c0 c93f 0a3e f20c f465 b0bf
00000160: 47f7 8c9d 0d24 7d3f e3f5 6407 53d9 d4bf
00000170: 4c22 9448 9dd0 cb3f f469 d6f2 26b8 ccbf
00000180: 4a65 1554 0ee1 a13f a60e a0cd a205 c3bf
00000190: 258a 237a 0598 b73f fb95 dddd 5c67 bfbf
000001a0: 1516 1943 b590 c1bf c56f e560 e303 d03f
000001b0: ec79 286c 55b3 a73f bee2 1c64 009a b83f
000001c0: c103 f51d 3cae 96bf 99ea 1dca 4a44 d03f
000001d0: 813e 5fbe a7db c63f 6434 8ba6 301a 9c3f
000001e0: 67ed baad 8ba1 cc3f a42c 1a19 c721 7f3f
000001f0: 214f 09fe 4a82 c53f e73e bb68 f91e c73f
00000200: 08ca 9d73 5f4d b8bf 5bae f18e 024c c63f
00000210: 47b4 ea2f c7cd b43f 4b35 28e7 1a4a d73f
00000220: 6780 2d39 9537 c5bf 9f0a 42f9 9b46 d83f
00000230: 7057 5011 553e cebf dda7 5ae0 ca96 b4bf
00000240: ee1d f2bb 25b3 c8bf a3f9 7b17 b45d b6bf
00000250: 537d bf2a 1ae5 903f 78c8 8f27 8202 cfbf
00000260: 26c7 843e 9651 b5bf 4942 f849 72f2 993f
00000270: 95be 3eaa b0dc c63f 3eca 2199 c02c d33f
00000280: 9006 3a46 d5d5 a03f 3498 fe84 0e36 cdbf
00000290: 4b3e e6db 3088 d33f 30ea b952 fb28 bebf
000002a0: df98 14ad f2f9 d33f 1617 8138 0501 cd3f
000002b0: a3ab 2cf4 576c c0bf b4a5 7327 41e7 c23f
000002c0: d93b b1d4 d382 c83f 380d 2906 3f17 d23f
000002d0: 966d b34d 23a6 6cbf 5f9e 7533 f901 c03f
000002e0: 9610 3ece 85c7 ac3f a491 11ee 5d99 bcbf
000002f0: 8791 9583 80b1 ca3f 42a8 d30e 13bd cbbf
00000300: 13f5 abba fed9 bb3f f6be 8db7 3f15 cc3f
00000310: 6f91 06bc c486 d03f b6ca ce78 01a3 d3bf
00000320: 1c9c 1198 8819 be3f e979 1291 599a c13f
00000330: ea6e afd2 468e bfbf 4106 c8e6 e30a cabf
00000340: 55c2 2146 111a d63f f53d 4269 9302 c63f
00000350: 919d 36cc c508 ca3f 9041 b5a2 4455 b83f
00000360: 89d6 53c8 eee8 d43f 88f1 a7a2 8013 cd3f
00000370: 0ee6 9301 7267 b5bf f9c6 34de 1846 c7bf
00000380: b3dc 0e15 2c78 d3bf 644f 5712 bc61 c63f
00000390: 35b1 4b0b 5aa8 d33f 2625 156d c139 ca3f
000003a0: 93d7 ad4e 6d5f c53f 84b0 41c0 97b8 c3bf
000003b0: 021e b4cc 4863 b63f 5dcb 3124 7148 d43f
000003c0: f374 a3b9 05f1 cabf 0108 3aa3 a3c3 cebf
000003d0: bcc3 bc04 20cc d03f ee18 126d 7b17 b63f
000003e0: 3a44 fc79 4a84 c43f ea8d 96cd 7a9a b5bf
000003f0: 34e1 6a29 abc6 673f 17f1 2e37 4438 c2bf
00000400: 68e1 3114 0750 b83f 4fde 3b32 5141 d03f
00000410: 893e c98c 692d babf 7845 8124 74fe d0bf
00000420: 0095 22b7 5fa9 be3f fcc7 a02f 1382 a83f
00000430: 84e5 0b8c 329d b7bf 27d5 a7ee 4e2c d0bf
00000440: 7d96 3574 82f2 cfbf e7fe 30fc 9b18 d03f
00000450: 24d4 6a59 6ef2 d03f 5035 8321 ddf3 d33f
00000460: 82c2 75b9 08a2 d43f 5431 9792 b8c7 c93f
00000470: 009e 8dd1 3312 d2bf 67c2 f0d4 88b0 d73f
00000480: 69af b260 24e2 9c3f 471b 91d1 9c0d b7bf
00000490: cde9 96cf 2943 cabf 9d6d d9a3 d548 d23f
000004a0: 97cc 2ac9 f234 c0bf be49 8f86 33c6 c5bf
000004b0: eb9f e8f4 3fb7 c6bf 05df b1fb ea21 d03f
000004c0: 804f 8a3d bd64 d63f 166a 8185 acb9 69bf
000004d0: a2e6 de79 7206 bf3f 4d20 739e 09f9 9fbf
000004e0: 59e9 fe60 91f0 c8bf 3cc2 e118 1555 d1bf
000004f0: 608c dd7b 97cf b03f 2ac5 b1e0 52b4 c63f
00000500: ce21 d909 fa77 d33f dc5d 3b99 a99b b13f
00000510: 7704 17bf 1c96 b1bf 74be 4d27 0bc9 d4bf
00000520: bfce e3b3 ea25 c13f c058 e6d1 e1aa aa3f
00000530: 5c29 7c56 8d12 d1bf 0431 effe 8517 b73f
00000540: c352 1072 f0c2 ce3f 01ba 60b6 5b3d 813f
00000550: 3f5a 3e79 c675 af3f d88a dfe6 f80a c83f
00000560: 92f7 463c 138a c13f 70c0 5d6b 6d43 c9bf
00000570: c251 f662 7c81 c6bf 6e54 db3a 7262 d1bf
00000580: 0242 dd7f 0440 2f3f bf13 433c 6f4f c03f
00000590: be89 dd67 3ded b03f 20dc b3dd e50e c73f
000005a0: a06a ba4a 805d b73f 3dd5 920a ca72 c4bf
000005b0: 0aa5 3cb3 a6a9 d3bf 085d 17a4 5cf0 753f
000005c0: 3e5a a2bc 62fb d13f 0d1b 79f3 ddcd cdbf
000005d0: c212 9951 6f83 a1bf 538b 034e 2304 d5bf
000005e0: 70be 252f 79dd adbf d1e6 26db 3017 ae3f
000005f0: df6e cbc7 4b66 c0bf d21f 63d7 0196 d73f
00000600: a7fb d35e 21a2 d63f 5c50 a334 225f c5bf
00000610: ed43 3b9e 0709 bbbf e893 52d4 15c2 b8bf
00000620: 5bf9 dc51 22f6 a7bf a6c9 f54e 1fcb c9bf
00000630: c863 0633 40a3 b3bf 51ad 7f36 3fae cebf
00000640: 5fbb 5099 b186 80bf e47b c03e 7931 ba3f
00000650: 4d7d 9357 9239 d13f c8b2 dd08 830a d43f
00000660: c08e a2c7 1532 a2bf eaef f4ed c7c7 c33f
00000670: 79d6 6028 7336 d03f d346 40ff 7fac d63f
00000680: aa45 3d11 fa30 c8bf 4466 7718 76cf bcbf
00000690: 8a9e 8ca7 aac3 d0bf 0b43 f4e6 15e1 b0bf
000006a0: a0e7 83aa da02 d93f b5c8 ddb2 7c02 a3bf
000006b0: 1eb0 70f6 fd41 d3bf a08d 568a fcc7 d2bf
000006c0: e95b 6e28 5e4f d03f 4674 aefe 1e29 abbf
000006d0: 8255 9f02 bdf1 d0bf 55a8 18aa a545 bbbf
000006e0: ea61 5300 9270 d03f 0239 18e3 34fc c0bf
000006f0: 5b06 fab0 ddd6 d1bf c1a2 b222 325b c43f
00000700: b4aa 86e3 bf16 c5bf 081e 8fbc 56f0 c53f
00000710: 812e df6b 8414 b33f 05dc 8144 50b8 bf3f
00000720: 55ee 5480 7977 d53f e421 d0e5 4e25 a83f
00000730: 5cb2 9301 5ec7 d03f a803 1bd2 1637 ca3f
00000740: 8ffa ae45 d79e b9bf 61ef fe2d e7d4 cb3f
00000750: 340d cd2b e39f 90bf 5551 d100 d1ba ccbf
00000760: a603 f5fb 1fd6 d63f eee3 4fa5 d0b2 d4bf
00000770: 25b4 9ad0 9578 b53f e682 14a8 6ea6 c53f
00000780: e86a ea5c 8d66 c8bf 88c2 a526 5428 b73f
00000790: 37cd ce67 7140 d0bf c1ff bda1 0b85 d4bf
000007a0: cb19 1c63 d612 c7bf 2f18 4c9b d4b0 d63f
000007b0: 691c 983c 928f c6bf a30b 5b7a 3d8d c23f
000007c0: 305f 8c04 c8f0 c73f 47e9 b28c 9f8d d03f
000007d0: 5a66 8d67 5982 d43f 92ce 7e2d e5e4 ba3f
000007e0: cf33 16ea 28b7 6bbf aced 2b1f d616 c23f
000007f0: 0f12 b997 4729 d43f be9c 748d 265f ce3f
-0.1423690088512501 -0.19136322668208974 0.11435634152569922 -0.11831872245272991 0.18814360316701198 0.05514691600061709 0.3175903953147967 -0.04664460453941552
-0.045224736596649044 0.3648606812834148 -0.1782874010950374 -0.036914301583449764 -0.187656413547722 0.2430500399474808 0.2722900042936749 0.0691248276155033
0.045190387608279294 0.3525060922931864 0.022141997232651582 -0.14547464342920613 0.06561818466338716 -0.27715373981202696 0.21809515247221095 0.22341608926792497
0.16944948974181873 0.136384393400811 -0.18636361355333564 -0.31286446792533285 -0.01016563305402912 0.19016047626759786 -0.18218075528373176 -0.08936006107299753
0.3775238539340919 0.14335684086234018 -0.17727494771378588 -0.24992576551126025 -0.19947824635883094 -0.284656824592354 0.3263459822158252 0.29058665888997715
-0.10567720761585767 -0.28414006063315683 0.20117605848410725 -0.06405568424292354 0.007114461121828181 -0.3257644245348656 0.21730390590552628 -0.22436987740805103
0.03492016579066133 -0.1486094955472385 0.0921634123983855 -0.12267094055786025 -0.13722863937634658 0.2502373167278587 0.04629008240975793 0.09609987682496077
-0.022149028137622432 0.2541682218358488 0.17857834620962268 0.02744365707876674 0.22367998106879414 0.007600572325496522 0.16803872493857688 0.18063275922622
-0.09493061611809861 0.17419464091959722 0.08126492423862529 0.36389801572734787 -0.16575875560647832 0.37930964795683936 -0.23627723069574413 -0.0804259107341347
-0.1929671447471572 -0.08736730168673161 0.016498955592280606 -0.2422640507862217 -0.08327616716703953 0.02533892227626414 0.1786099272990113 0.29960646585746875
0.03288141710528436 -0.2282121800791984 0.3051874301390611 -0.11781283158953992 0.31213061239613 0.2265936399364185 -0.1283063833483001 0.14768232752184718
0.1914925373589245 0.2826688347015138 -0.0034971894761903306 0.12506022465389585 0.05620973723037641 -0.11171519338819863 0.2085419313908796 -0.2167075941463868
0.10879509026922944 0.21939846479971664 0.25822561609154254 -0.3068240813983424 0.11757711136452581 0.1375228842125147 -0.12326471942600006 -0.20345734375591643
0.3453410324937399 0.17195360793674266 0.20339271994928912 0.09505108806957296 0.32671708644134206 0.22715766851605346 -0.08360970057028558 -0.18182669496450624
-0.30420972877932256 0.1748576249652799 0.30715037444203414 0.20488756014155135 0.16697470037223336 -0.15407082450417786 0.08745245931287829 0.3169215062582021
-0.21048041881923715 -0.24034543485691987 0.2624588056815431 0.0862958089147445 0.16028719860381263 -0.08438842314949793 0.002902349758496703 -0.14234211630344681
0.09497112505949235 0.2539866438450859 -0.10225543677483463 -0.26553062024057494 0.11977194043227612 0.04786739307782281 -0.09224239272216123 -0.2527043657895142
-0.24958830522807665 0.2515020335012949 0.26479681713255077 0.31175926468570925 0.32238977538421676 0.2014075008177182 -0.2823609873216526 0.37014981074302117
0.028206413652397986 -0.09005146137597562 -0.20517466198164272 0.2856954670039274 -0.1266158563863413 -0.17011112280176904 -0.17746734102661263 0.25207018451281754
0.3498986340502981 -0.003140294033113787 0.12119212603911447 -0.031223440452578455 -0.1948415492641498 -0.2708180182444584 0.0656675984769648 0.17737804385573358
0.30419779741035036 0.06878147116673666 -0.06869678178101589 -0.3247707256150314 0.13396962913212992 0.052084977028401536 -0.26675733037759186 0.09020268892271949
0.24032407350082083 0.008417812827329564 0.0614454291345976 0.18783484719377586 0.13702621882651705 -0.19737022154322714 -0.17582659561288777 -0.2716336798451441
0.00023841910290879625 0.12742414896470497 0.06611999307418778 0.1801421482593648 0.0912704641763562 -0.15975308910643973 -0.3072296858177458 0.005356180075487112
0.28096836491878097 -0.23284506214459846 -0.03420589324062952 -0.3283775579313232 -0.058330332761099224 0.05877068209833925 -0.12812182670210512 0.36853071245104474
0.3536456514411221 -0.16696574754917293 -0.10560653317521913 -0.09671150621086577 -0.04679972886377711 -0.2015113006160167 -0.07670975919462741 -0.23969259415694436
-0.008069407931626747 0.10231740743664336 0.26913889458042634 0.31314159265347685 -0.03553836881590433 0.1545343315027588 0.25332335417929347 0.35427856375563954
-0.18899465410008293 -0.11254060838054963 -0.26194254266963723 -0.06593453300980572 0.39079920436744864 -0.03712835009982155 -0.30090283457207245 -0.2934562064130777
0.2548442263445723 -0.05304810389427721 -0.2647545362099991 -0.10653148081533577 0.2568707469158925 -0.13269673431972967 -0.2787393787658396 0.15903307623127286
-0.16475676164312392 0.17139705855355225 0.07453181871022176 0.12390615150967228 0.33541715176008796 0.04715963893255884 0.26216840890882565 0.20480618723925414
-0.10007996989495836 0.21743478532686836 -0.016234921978378128 -0.2244511846535128 0.35681914906677503 -0.32341400283581734 0.0838712343490476 0.16914160925900673
-0.19062964474581823 0.09045911735098333 -0.2539332879780036 -0.3206204490197671 -0.18026237334579628 0.35454287687059866 -0.1762564464445149 0.14493530725857537
0.18703556272589017 0.2586439966213629 0.32045588600667474 0.10505516396261275 -0.0033832358464622523 0.14132191202211908 0.3150195104283577 0.23727876574523593

fc21.weight f8 [64, 256]
00000000: c6c1 ffcf 6e46 a6bf 8bce 680d 74f0 93bf
00000010: 8dc0 b218 4e7a 74bf 0d0a 1972 6bc9 91bf
00000020: 3207 5cca 18e1 9dbf f048 9edb e051 a2bf
00000030: fbff 0b71 cf7e a93f 8bfa 34dd d68b 8f3f
00000040: 3b72 5a1a fc81 adbf 1032 44c8 367a 99bf
00000050: 1a36 aa32 80df 6a3f bd5e 2a42 1e3f a23f
00000060: 42ca 7ed7 0a12 b0bf 4d3e 27db 449b adbf
00000070: ee0c d8dc ca4a a0bf dea0 6162 9e28 9fbf
00000080: a619 9a47 1279 8fbf 99a4 5c47 a70a 8d3f
00000090: 117d 55f1 90e1 763f 23a6 5ef6 79ae adbf
000000a0: 7c74 4b7b 70ea a73f c9c6 529c 9d8d 823f
000000b0: cbc5 56ab e89c b3bf 95b9 d2b9 e7d9 943f
000000c0: ef08 89a1 b1b9 783f e42b 6fa7 f11f 97bf
000000d0: 2f76 5aa2 8c3a adbf faff 31f0 ede5 a9bf
000000e0: 847f ca6c 58f0 a43f c92d 701f 5e73 42bf
000000f0: 0b7b 8dfa 26f4 93bf c122 7f5c 3dd6 a63f
00000100: bcb2 be01 68fc 933f 5cec a152 2b68 983f
00000110: dbd8 9a5d 6aa0 8bbf 3e0d b717 e312 a4bf
00000120: 6a3d 3c63 5676 7a3f b0a5 b9ac aa30 a4bf
00000130: acb8 d768 4126 a83f 6bfc 645d 1e16 983f
00000140: 0000 0080 289c 93bf 0000 0080 2795 963f
00000150: db6d 30dd f24b 943f 5bdf be76 557a 9d3f
00000160: 5787 c725 1524 9b3f 55c6 5099 139d 8ebf
00000170: 58c3 3c6f 4808 a53f 0000 0000 8496 6abf
00000180: 1655 0762 d369 96bf b8ae bad2 e104 913f
00000190: ed8f c46a 0b1b 65bf ed1f f2ae 4d2e a7bf
000001a0: 583f 8ce8 e18b a83f 3dc4 6fa7 e688 a7bf
000001b0: 3abc 71b5 adb5 a03f 7c47 382a 0499 b1bf
000001c0: aa68 c72b 7de3 98bf 01b6 25f6 c2d8 923f
000001d0: 2e04 96d3 0480 793f 096b caf6 fa2c 913f
000001e0: 7e31 c0e1 a9c5 a83f 3c82 9011 dd93 aabf
000001f0: f699 920b c08c 9d3f ccda 6a14 1933 abbf
00000200: 0b31 0310 b2c5 98bf 339c 29fb e1c7 b0bf
00000210: 25ac 783f eae0 8c3f 296e 8338 fb8e afbf
00000220: ff3e 13a4 a6b0 a73f a235 4768 2946 9ebf
00000230: da39 0cef aa14 8e3f d0a7 31d1 0f53 933f
00000240: 39f2 5453 eff0 a33f 0290 9d9d 1012 813f
00000250: e4fd 669b 20a1 9d3f 2389 1f87 ec98 aabf
00000260: 2c51 7f4f 2d22 b0bf ae3f 73f8 d469 7ebf
00000270: 44e1 e672 4577 ac3f a7e5 8b43 f14e 743f
00000280: 05b7 e1ee a1a5 acbf ab02 7699 87a0 a93f
00000290: c5cb dabf b501 a2bf 4a3c ea4b ae0e a9bf
000002a0: f3b1 f7a5 dbf1 a7bf 3f27 42d9 ec64 92bf
000002b0: d296 52a6 08c8 a0bf a9d4 088a c995 993f
000002c0: 4f64 b7cb 2bc5 a33f e045 186e faf1 9c3f
000002d0: 3c62 0361 a704 713f 0ef1 aa5f 912a a83f
000002e0: 6b7b b0bd 9cd0 90bf 57cc ac84 a266 a03f
000002f0: 05c7 a240 c416 a83f 8136 9486 5985 553f
00000300: 65c5 6e84 92f1 863f f38b f33b 01b5 a33f
00000310: 48db 5308 9aee a6bf 5e13 0c99 82ce a9bf
00000320: 6e72 ec74 fe58 8cbf 878a d3f2 c862 9c3f
00000330: 11b1 492c 04cb 9f3f d3f7 f58b 6577 afbf
00000340: 6cfe 97dc 44f9 aabf c08e 8e69 8e37 a43f
00000350: fcab 6159 8882 8dbf 0246 3711 be16 a6bf
00000360: 57f0 f484 e350 a13f a981 2e4a fa78 a63f
00000370: 55a6 e93c a253 9b3f 5329 af41 437b a63f
00000380: 58b9 8c05 52c5 50bf 2907 a7b4 8ce5 a9bf
00000390: c445 e6e6 9973 a5bf f1e7 7a6f a742 a2bf
000003a0: 8492 8f8f 5985 a63f 97ef 8db1 d4bf a6bf
000003b0: 4deb 5050 c05e ad3f 8cba 88cf f853 743f
000003c0: 97c9 2029 65a1 67bf fa6b ead4 ac7a a5bf
000003d0: 36d8 7359 22b0 a9bf a2d9 9917 cb50 a3bf
000003e0: 0f12 954a 2616 74bf d777 9264 e862 a33f
000003f0: fe53 7197 dbbb 87bf 6882 780e 464a b1bf
00000400: 9fcf a4f7 2e44 ab3f 3a9c ecd3 0385 8dbf
00000410: 6b28 69b5 c6e6 9a3f 81c0 c56a fe1c a53f
00000420: 2acd 9ce1 4d0d 913f a53f 7c11 9558 913f
00000430: 652d 7751 243f a5bf 6cd9 a6ef 533c b0bf
00000440: bc1a 4718 1d15 883f 8e74 6564 717b a1bf
00000450: fe93 822e 47a7 a4bf aeb9 d311 0ea8 a7bf
00000460: f3c9 2c9b edd3 a0bf f06e 3fbf 5b22 9fbf
00000470: c1f7 5ec5 066e 9f3f 6a13 bff9 13ed 963f
00000480: 6807 4ae2 2f35 a23f 85f1 51e4 6c9d a73f
00000490: b46c 1222 3866 9ebf e22c 615e ebdb 853f
000004a0: 9dae 7753 0f98 77bf 2524 e76f a4ea adbf
000004b0: 5a4e d511 4aa3 913f 8284 d98e b878 53bf
000004c0: 5e3c 0be7 eaf9 9cbf d4bb 29d8 13a1 a83f
000004d0: f242 8f1b 2892 a53f 56f9 650a 2eed a03f
000004e0: b0a9 89fc e943 953f 0b44 f422 f0f8 a7bf
000004f0: 83d4 d82f 7568 aebf 7d40 13b5 08b2 5d3f
00000500: c590 1fd6 24f3 b0bf 72bc a4d3 6ac9 a7bf
00000510: 114d 9f93 747d a9bf a84c ac26 48d8 923f
00000520: 8546 da02 4c5e a73f 12e9 a715 7ba4 943f
00000530: 66a2 ba47 43d0 a7bf 7006 fe59 e1a4 8fbf
00000540: 5ea0 d071 f48e 9b3f 330d b923 2a45 8c3f
00000550: 0daa 2dd0 98a4 893f aa01 aac7 0985 8cbf
00000560: 04fb 413e f31f ad3f ae5e 4bf6 3960 b2bf
00000570: 95bc 8035 e6bd a53f 7a62 d559 386d b1bf
00000580: 6838 455a 9049 a2bf 064c 97da 888b a73f
00000590: b5c1 5404 eec2 a5bf 3691 637f 1147 96bf
000005a0: 6e96 0659 52b8 a9bf e56f 6d12 bbb3 9abf
000005b0: 32c4 83c8 7f3b 93bf f4d6 ad56 9f7a a5bf
000005c0: a5c7 1377 28ba a13f b3c0 84a2 a072 aabf
000005d0: 0eef 2e18 bbc5 a5bf 0000 0000 14d2 743f
000005e0: 44c5 cfab 2324 adbf 421e fbe3 4124 a5bf
000005f0: 5843 c2cd 03e5 a63f 1d1e fddf a323 a9bf
00000600: 1040 baf5 aba7 adbf 179b ad6e be14 afbf
00000610: ff2d dfb9 dc81 773f 7331 6ef6 a418 a7bf
00000620: b0ab e5df f97a 953f f7b5 2723 346c 883f
00000630: 61a2 6b70 d10b 973f d0be c3a0 9f7e 883f
00000640: 1bb9 ab40 141a adbf abc4 1112 4aaa 9f3f
00000650: e98f 2d1e 6610 a8bf 74d0 5f00 e79e a13f
00000660: 206c 747b 9275 85bf c3cb a623 7684 a3bf
00000670: 9dcf 0dc7 451f a63f 87c8 bf1d 9cff 4a3f
00000680: 7177 aacc eeb0 a3bf 0000 0000 e3ac 893f
00000690: 5b5c 3bfe 6339 8d3f 3d59 4094 316d a5bf
000006a0: 1df6 89a9 2f78 a63f 39f5 98c6 6082 843f
000006b0: ff8b 49b5 c0b3 993f 0e4a fc9e 0c21 74bf
000006c0: a4bb 14bc debc a43f add8 973b dcc5 abbf
000006d0: e9ce 8499 8ece aabf 58ab 5d1f 2abc 90bf
000006e0: 0072 63ec 4763 a0bf 0000 0080 9c72 92bf
000006f0: af1f a971 e93b 94bf f2f9 437d 4a59 83bf
00000700: dadf 3621 7867 90bf b6c0 2605 11c2 a13f
00000710: 0664 1981 a344 a53f de2e c013 1926 88bf
00000720: d383 90a1 c938 77bf 35c9 5a21 4a74 aebf
00000730: 57ab 38ad c2d8 96bf f6eb 04c3 e3ce 8abf
00000740: 43c4 e130 fe06 b0bf b208 e5e2 843a a53f
00000750: 2491 1175 f20a 97bf cf2d 0187 26f2 abbf
00000760: df92 3534 5b35 8fbf 9b8b 5cb6 5c88 8abf
00000770: 2908 bb59 9b98 9cbf f976 fd04 a0f3 863f
00000780: 46cb bdb0 d60f a1bf 4707 c024 6b68 a43f
00000790: a247 fd95 d3df acbf 2aff 9d2a 90cb 9fbf
000007a0: cd94 8f9c 3b87 b1bf 0f85 4dee 963a a0bf
000007b0: e9d1 2fc5 1a5a a9bf 1139 1346 13a9 91bf
000007c0: 9f75 4e7d 49ba 8fbf 21e0 c5e4 564f a4bf
000007d0: 96d5 d266 0dca a5bf 9554 2a7f ec67 aa3f
000007e0: f7c7 ad0a fc1b a73f e4dd 1a66 28b8 9ebf
000007f0: 43c7 83c7 2e36 a63f 189c d9be 29f0 8dbf
-0.04350611008692655 -0.019471944158978387 -0.004999451698651691 -0.01736991771600498 -0.02917898879150655 -0.03578093224418122 0.04979561095206005 0.015403441072178189
-0.05763233014770149 -0.024880271886148775 0.0032804015984939762 0.0356378036278193 -0.06277530442347604 -0.05782523322306741 -0.03182062097405401 -0.030428385500642523
-0.015367644128912183 0.014180476060192059 0.005586210424865416 -0.05797177441065695 0.046710505533817476 0.00905917294798843 -0.0766129892642972 0.020362492291206975
0.006036466475565868 -0.022582794041038926 -0.05708732110836611 -0.0505823474604767 0.04089618995681035 -0.0005630693038950969 -0.019486054461022067 0.044603269139377406
0.019517541033269067 0.02383487407540162 -0.013489562017053583 -0.0392065969895392 0.006460511638365455 -0.03943379744016384 0.047166866348434894 0.02352187581095359
-0.01915038377046585 0.022053353488445282 0.019820971250835356 0.028786979077011093 0.026504831724998592 -0.014948037258451988 0.04107881887319448 -0.0032455995678901672
-0.021888068063920484 0.016620186316386593 -0.002576372431706267 -0.04527514229363292 0.047942218434512796 -0.04596634668258346 0.03263609733482338 -0.0687410929752143
-0.024305301472715847 0.01840500476230567 0.006225603917642748 0.016773148835095095 0.04838305359598659 -0.05190935935411686 0.02885723181375429 -0.05312422155605176
-0.024191648700068884 -0.06554996854684773 0.014100866376869867 -0.06163773598538242 0.04626961472388124 -0.0295645208259906 0.01468785802856314 0.01887154306715627
0.03894756214365142 0.008335237321894343 0.028934964642528885 -0.051947967047242714 -0.06302149954655495 -0.00742514793019204 0.05559746768580223 0.004958097874572165
-0.055951176081050526 0.050052869303731505 -0.03516929594970678 -0.04894013096520007 -0.046767105111800954 -0.017963124046708186 -0.03277613668732972 0.024985455560643164
0.0386136709382262 0.028266823739675817 0.004154828857473588 0.04719976704424954 -0.016420792653771537 0.03203304166381631 0.047048695459478686 0.0013135313295750408
0.011202950159573797 0.03849033219173483 -0.04478913642554133 -0.05040367239238351 -0.013841617530084362 0.027720584698622843 0.031047883227459275 -0.061457799277362966
-0.05268302147669321 0.03948636091743429 -0.014409127452571717 -0.043142261125137096 0.03382025716788977 0.04389173656022944 0.026686224906745732 0.04390916992959384
-0.0010236073487238286 -0.05057944970350398 -0.04189759200665891 -0.035664780004893155 0.04398612859202891 -0.04443230311787188 0.05736351948185945 0.004962894360274316
-0.0028845763963769133 -0.041951561918914096 -0.05017192213010484 -0.03772577918146004 -0.004903935981307685 0.03786398151099462 -0.011588779029048975 -0.06753957608499095
0.0532545735644867 -0.014413862137713552 0.02627096636050689 0.04123683026671277 0.016652314086241272 0.016939477150173982 -0.04149735922291135 -0.06342053032753875
0.011759021094701942 -0.03414491987744227 -0.04033873026609312 -0.04620403258910542 -0.032866883461242134 -0.0304045043447862 0.030693155094688288 0.02238875591116899
0.035562034962835665 0.04612293517218106 -0.02968681056937035 0.010673369233833833 -0.00576024996506033 -0.05843080392839565 0.01722446187825564 -0.0011884500812800185
-0.028297109939384384 0.04810392392834442 0.04213071190281949 0.033059538621261694 0.020766883886986498 -0.04682112147032321 -0.05939069947309241 0.0018124661476584252
-0.06621008136386582 -0.04645856698550056 -0.04978527357129726 0.01840317474404843 0.0456413033945298 0.020158694454928634 -0.04651079416845931 -0.015451202925535784
0.02691251701995189 0.013803796019721126 0.012520974972820143 -0.013925625234379197 0.056884385442563384 -0.07178079855963901 0.04246444132911013 -0.06807281678391944
-0.03571749784406181 0.04598643940303053 -0.04250282099599493 -0.021755479240611574 -0.050234387748145135 -0.026076243400311134 -0.018781658757635884 -0.041951159792842946
0.034623398338126145 -0.05165578826779562 -0.0425241915722535 0.005083158612251282 -0.05691634628591172 -0.04129224689455359 0.044715994708105 -0.04910003766286428
-0.0579198586902977 -0.06070513821651085 0.005739080630472681 -0.0451098967379008 0.020976928988072963 0.011925132105683451 0.022506020056342616 0.01196026524891583
-0.05683959283293146 0.03092303977286252 -0.047000113662562466 0.03441545371598034 -0.01047815741781305 -0.038119975902553026 0.043207340763643055 0.0008239280973596643
-0.038459265216473144 0.012536786496639252 0.014269620128670881 -0.04184870657643323 0.04388569778982918 0.01001430135795066 0.02509976488580534 -0.004914330769468579
0.040503464182953836 -0.054243929171137274 -0.05235715507515499 -0.016342790760443066 -0.03200745354272172 -0.018015332520008087 -0.019759795725150017 -0.009447652766991308
-0.016019703891032445 0.03468373477824242 0.04153929663579707 -0.011791416087383263 -0.005669391271141816 -0.05948096902047199 -0.02231125051745705 -0.01308992327596135
-0.06260670369535241 0.041462090203383 -0.02250269736795575 -0.0545818366814178 -0.015238487749863193 -0.012955402674895746 -0.027925898887367993 0.011206865455899872
-0.033323964190364694 0.03985915015802149 -0.05639516073155383 -0.031049969292779846 -0.06846973964964605 -0.031697002973269155 -0.04951556832375898 -0.017246533538860357
-0.015492033134985315 -0.03966781180037083 -0.042557162095742715 0.051574125788797755 0.04513538008076517 -0.02999938128661296 0.04338213143809224 -0.014618230950146624

fc21.bias f8 [64]
00000000: 17a3 5699 ef7b b0bf 5802 8644 50b2 b2bf
00000010: 5f15 5b5a 697c 7abf 03c8 2771 3731 b43f
00000020: 4585 d09b 4dd2 b33f c7dd e74b 8631 ab3f
00000030: 97c6 610d bde2 55bf 32e5 18f4 a967 92bf
00000040: f053 7ce2 7219 653f 1ffd 1a39 0047 a73f
00000050: 7065 7f03 5900 80bf 717b ed59 9a53 a4bf
00000060: 6037 c9fb 9481 a2bf fdd5 9dff 33a6 a83f
00000070: 6503 4932 f703 b23f 6f8f 5f74 017a 98bf
00000080: 7b49 3417 88a5 af3f ef50 cf80 524d 8a3f
00000090: 9c5b 3587 d21e 993f bf64 cb11 3c17 b13f
000000a0: 213c 305e 3c91 9dbf 6697 547d 8b82 a7bf
000000b0: 2548 0c1c 4e68 853f a30e d9f1 b8eb a93f
000000c0: a26c faf5 6e10 973f 0000 0000 1426 99bf
000000d0: 95ba e7c7 88cb a0bf 21ba 8f14 b627 b3bf
000000e0: 7d14 cd6d c283 5cbf 2377 7c4f 51c6 a63f
000000f0: 6d95 63a3 b40f a73f 1511 bf77 6d32 a43f
00000100: 9024 c5c6 0d18 843f 7685 865f 03c0 9a3f
00000110: 1cf1 0003 3c81 9d3f 23af 06cd 83b9 81bf
00000120: 7c06 4647 1e75 a8bf ebcd b70e 5d89 a03f
00000130: 959b 889d 92b6 a9bf a2d5 ed10 aecf afbf
00000140: b48b 8aea e5ad aebf b0df bb9e d3a5 9e3f
00000150: 61fe c38e 0f4a 8b3f 28bf e33c 1f23 a03f
00000160: 1823 4185 56cf 663f 99fd 77c2 249d 9dbf
00000170: 9ac8 36c2 1acb a53f 3742 06c3 0ea4 a13f
00000180: 0895 bc0d 996a 8f3f 86b3 04a8 e9f3 aebf
00000190: e022 f6b5 2757 ae3f b97b a222 71a0 923f
000001a0: 15d8 d8af 70bc b0bf 356c dd8d adfd 833f
000001b0: d086 0761 e9e1 83bf cb85 fbaa 765b b53f
000001c0: f29d a0f4 bc36 a8bf c437 967b 05e2 213f
000001d0: 85b4 36ba 2908 903f 0d2e dfe4 70ac 9c3f
000001e0: 0fa0 3a3e 1c9c 9cbf ee6c 3f63 3073 a53f
000001f0: 0000 0000 fb1b aebf b84f bad0 df19 a03f
-0.06439111226667325 -0.07303334877907142 -0.0064663043355655805 0.07887598526556876 0.07742772153917084 0.05311221767982093 -0.0013357969487767568 -0.017973571322930933
0.002575611480902122 0.04546356865966516 -0.007813163203467893 -0.039700339772699496 -0.03614488194999299 0.04814302916831179 0.07037301042238438 -0.023902914741384004
0.06180978091483077 0.012842793041194926 0.02453164053198585 0.06676078257023031 -0.028874343155674723 -0.04591785340225733 0.010452852469402594 0.05062654449696182
0.02252362610179815 -0.024559319019317627 -0.032802843477715594 -0.0748246956061185 -0.0017403982848958326 0.04448179335871163 0.045041699356981414 0.039447232120013144
0.009811504009706234 0.026123097138797978 0.028813302691774387 -0.00865462274017365 -0.047768541527159564 0.03229800038016236 -0.05022104428308364 -0.06213134724286397
-0.05992048728992164 0.029929453433368003 0.013324853462562904 0.03151795976907429 0.0027844133237845507 -0.028919767732075028 0.04256518955971096 0.03445478563947229
0.015340038043698559 -0.06045465637212204 0.05925869079789492 0.0181901624097198 -0.06537536900654602 0.00976119603335777 -0.009708236001589127 0.08342687296273892
-0.047292618619675056 0.0001364356701682429 0.01565613936479739 0.02800156018183313 -0.027939263628155738 0.0418944474365278 -0.05880722403526306 0.03144740508028526

fc22.weight f8 [64, 256]
00000000: 0000 0000 10b1 8d3f ab88 97f5 3ae6 9dbf
00000010: f436 8bab 83b0 9b3f 3883 6d09 49f0 afbf
00000020: 2a46 58e5 1dfb acbf 55e1 4aea 2f9c 9dbf
00000030: 9a7d 71f0 7266 b1bf 200d 4262 20bf a4bf
00000040: 652e 2628 4749 5dbf 3cb7 b8aa ac41 a63f
00000050: 4cac b42e 39a6 a7bf 8745 510f fde0 a23f
00000060: 38b7 f075 ec01 af3f 50e4 dd14 1c3c 9cbf
00000070: 9a62 cffe 1c36 853f 6a0c f196 1b24 73bf
00000080: 5749 6ec7 9479 9ebf 6092 48b1 724b a63f
00000090: 5991 cc1b a9a8 8d3f 7e9c d2d2 511e 803f
000000a0: e5d0 409c 2d8c a3bf 4119 6e51 2654 afbf
000000b0: c28a 8335 98db 893f eb4f 9cbd b288 acbf
000000c0: 8c3d f29f 700d 84bf c81d 188f 5569 a63f
000000d0: 68ec 156a d2ef acbf 8e45 03ef bf16 94bf
000000e0: 5493 e611 f05a 42bf f5ec cda0 2e80 933f
000000f0: 9db6 c953 a277 903f efc8 a9e7 0a3b 74bf
00000100: 70c8 aa49 ae0d a0bf 74da 82bb 74fc 943f
00000110: e485 df0c 32a7 9d3f d86c b08c 973b a5bf
00000120: dd1c 8a3c 702e af3f 8865 527c 283b a23f
00000130: 5f7f 2188 7525 92bf c3f8 2687 3b9e 95bf
00000140: e8fc 2188 6b0b acbf 6212 a307 0d52 6cbf
00000150: b7a3 bb9a 3ca4 ae3f 5790 0b24 13da a2bf
00000160: de7d cee7 7ece a3bf 6bdb 069a 0193 9cbf
00000170: 9848 cbeb bd0e 9d3f 8816 67f1 b839 8a3f
00000180: 7374 7c5d 8b46 acbf 5fe5 2c53 23d1 a03f
00000190: 904d b297 906a 92bf edb8 a5f3 a2ef a83f
000001a0: 0b71 6267 3bdc a9bf b6e1 a859 ec81 a6bf
000001b0: e8ff ff8b 5f38 9dbf 725a 03e7 9b69 6e3f
000001c0: b50b 114d 4b3e 9fbf 4f01 cc9b 227d 723f
000001d0: 0eea 0fb6 8920 b1bf 35f2 bf9e 3fb3 a4bf
000001e0: dd7d a18c e92a 9dbf 761f 6102 4ec1 883f
000001f0: 0979 b9c9 75b6 79bf 0237 557a 478d 9a3f
00000200: fae6 c410 99d3 8bbf 28ba dac8 f969 8ebf
00000210: ec63 a90e b0df a1bf 1b65 4a41 8d3a 4a3f
00000220: fefe cc87 d73f 91bf 35fc dfc8 7634 a8bf
00000230: 1a19 bf84 8a73 a8bf 70bc 2462 9a35 9dbf
00000240: 676e b85c cf61 94bf 2987 da3e edf7 953f
00000250: 31e1 d294 5c0d a6bf 637d 214b a56c 9e3f
00000260: df2b d8e6 1c62 94bf 4b6b 5fa9 0e6d 91bf
00000270: b7ea c5ec a8bd b0bf 7d13 56ea 2c27 a43f
00000280: f625 9098 0183 a8bf 3318 1896 c697 a53f
00000290: 9588 7ed2 f1c9 a93f 0000 0080 2391 ac3f
000002a0: abaa dfe2 e6f5 903f 4b77 46d6 d38c 803f
000002b0: 88db e80d 1986 a3bf 21c2 6ca1 834f 7dbf
000002c0: c011 bf39 f306 8fbf 4fb0 59d5 056a a2bf
000002d0: 6d8b 7179 8a35 aa3f 1739 9a0e aa23 42bf
000002e0: d4c0 3480 a189 93bf c61c 01c4 b55c a53f
000002f0: c97e b138 0426 6f3f 0000 0000 0ea0 9cbf
00000300: 8239 7e3a a51b 8a3f a299 69b5 8717 9c3f
00000310: 2be0 b85e eff9 a83f 0000 0000 82b5 95bf
00000320: 6993 827a 22ad 91bf 2e78 b5ea 802f a73f
00000330: 5d1d 6f6a 8a61 833f 9172 eae0 ee09 a2bf
00000340: bc01 d074 995b aa3f a2f4 fcf5 f6c9 9ebf
00000350: 8fb6 f385 12e6 9f3f cf17 a759 666c 6e3f
00000360: b48c b97a 670d 7b3f 1231 7d9a b887 88bf
00000370: 082e 04cf 9923 873f 8e0b 5e9f bfee 94bf
00000380: 0310 b6fc 99a1 a03f 158f 5fca 74cc 933f
00000390: ef2b 8ccb 09dd 85bf 361a 50d9 0a64 903f
000003a0: d39e 5264 272d a7bf 3f34 dcff 017b 9abf
000003b0: 0bec 0a27 2838 a73f b7b7 b18b 9e70 a53f
000003c0: 4d32 eee2 a885 9cbf 8061 5dac fcd6 7fbf
000003d0: 8f40 2f43 c985 6a3f 60de 06d4 4e6c b1bf
000003e0: 3bfb 5311 7758 af3f 9a6a 26fc dc84 963f
000003f0: c41d 5ea0 1338 abbf d796 fc6c 8b42 90bf
00000400: e201 d097 7066 9abf b5f5 fb83 2811 a7bf
00000410: f19f 4b86 8d1e a0bf defc 7c7f a047 b0bf
00000420: a879 6f6b 2199 91bf 9af4 e802 a3aa a6bf
00000430: fa86 65e0 72ec 88bf a936 f0e2 e012 a3bf
00000440: 80d1 c6f3 182f 96bf 0849 ffda 620f 913f
00000450: d884 d22f da03 abbf 5fdc b07d 193e b0bf
00000460: 4458 447f 7375 adbf 3acd b753 9e6e 713f
00000470: ca51 4cf1 fa89 a93f 5ecb 4bb8 257c 8bbf
00000480: a9e0 04a2 dc15 92bf 9baf dc60 5f93 923f
00000490: e0e8 bfeb 6344 8a3f 04f2 ebe5 dda3 a73f
000004a0: 2d54 77bd a86a 8dbf 6bbc 6b47 360f 893f
000004b0: 297b fe67 1e23 a73f 99b8 f8c4 ad85 a33f
000004c0: 7db8 ce1e 6285 aa3f 8c00 ff3b 27da 79bf
000004d0: 491b 7f6d 2955 a4bf 3aaa a69e cb02 acbf
000004e0: ecde 8236 3ab9 abbf d10d 1b9c b8d8 92bf
000004f0: 50e3 9115 7e69 a33f 2d83 ae99 92b3 99bf
00000500: 0605 be44 19ff 80bf 6a6a 998e 3177 a6bf
00000510: 692b fa5f 81b8 98bf 41d1 bdef 878a 9b3f
00000520: 0318 7639 ade3 aebf a243 1efa 33f9 a33f
00000530: 5849 9f27 f592 a53f 4ea9 6891 e17c a33f
00000540: 13df b3c3 c77e 9a3f 9fec 7583 f778 a2bf
00000550: 2b76 5219 4dee 81bf d9a9 5e0e f56f 913f
00000560: 9dfc b489 f53a 9fbf edfc e826 bc00 94bf
00000570: e561 07e4 6be0 863f 5306 a42a 0d78 a03f
00000580: 0b30 5e8f bea3 a3bf b11b 217c 472c afbf
00000590: 3a9f b653 e119 a8bf e799 bf13 2c95 9e3f
000005a0: c8f9 1c98 97af 913f 44f4 764b 5c42 ffbe
000005b0: 3250 56a4 8b6e 87bf 86a0 a589 f422 a03f
000005c0: 70d6 0b63 dcdc a1bf 863b 0969 a749 953f
000005d0: 6971 20a5 8162 a53f eb72 e071 104d a43f
000005e0: 0079 7184 734d aa3f b84d dc9d 7ee9 78bf
000005f0: c474 4f1f 0e1b b1bf 5cff 407a 8127 703f
00000600: 8ce9 b498 1ea5 943f a280 9beb 0d1b 933f
00000610: f8c3 3d94 c19b b0bf b043 4481 d3e4 243f
00000620: 0000 0080 0db9 9ebf 79b5 465e e91f adbf
00000630: af8b 7ef2 cb37 aabf 587c 35df 8e99 883f
00000640: 6ce4 3e4c 5e17 a3bf 2438 bfd1 beed a2bf
00000650: 5253 f9b2 3764 9dbf 0df5 add1 e010 a03f
00000660: 0429 8032 0555 81bf ed22 0203 1b32 a83f
00000670: 1596 a945 6114 a7bf 6859 0c1e e457 98bf
00000680: 4a74 41de 45d6 a9bf 0ad1 ddf8 dc7e a4bf
00000690: b39b a517 8593 a73f 26bc 659c f627 abbf
000006a0: 3ef8 f861 1924 b2bf 5e3b ff25 18bf 9b3f
000006b0: 70e2 5ade 9e35 a03f 8413 5da2 c587 a5bf
000006c0: 2777 c5fc 1234 91bf 732e 835b a482 82bf
000006d0: f435 539e 4107 96bf 6461 c26d 4933 983f
000006e0: d9b6 94e5 45d7 9b3f ce5e 732a dc87 98bf
000006f0: 8331 25eb 5549 9c3f 8ee8 7760 f67c 8ebf
00000700: 0000 0040 3799 a43f eff9 5701 4b36 b2bf
00000710: 6c9c 4f24 786c a4bf a57c 88ed 4cdf a0bf
00000720: bcb9 ccb7 b623 acbf 2fc8 d5b1 f10f afbf
00000730: a589 77ef 5563 99bf 5871 4ee7 9e2b 913f
00000740: 02e8 9b0d 32f2 a63f 102f be87 efea aabf
00000750: 4c98 bb2e 8182 613f 84c1 84f4 c9f2 a73f
00000760: 36ff 926f f810 adbf 0000 0040 5116 a2bf
00000770: 3852 25ca a0a7 a53f 7861 e6f3 7a2b 803f
00000780: edb8 9ff1 ca95 8dbf a3ed 225e 8904 aabf
00000790: 2ef7 1717 6027 89bf 8538 6de7 5115 9b3f
000007a0: a8f8 3b2d 254a af3f 85a3 e80d 7cb8 963f
000007b0: abf4 ddc3 da11 a3bf 0b97 2032 e729 aa3f
000007c0: 2e93 bb60 d0d0 8b3f 1d27 1173 df44 64bf
000007d0: b37c 3c32 659c b0bf b12b 1fc5 7f22 abbf
000007e0: 3832 a1bd 13c0 98bf 002a 0ae6 4411 a5bf
000007f0: 8dbc a20e 8620 953f a9bb 5671 9151 72bf
0.014497876167297363 -0.029198571433774727 0.02704053625603016 -0.06238010635457275 -0.056603368993944095 -0.02891611926563205 -0.067969497396453 -0.040520679468523335
-0.001787490357488952 0.043469806518585646 -0.04619005866182899 0.036872776145751955 0.060561551472672226 -0.02757305028305651 0.010357119108378488 -0.004673106929717988
-0.02976067034939808 0.043544372693109734 0.014481850777493465 0.007870330091760854 -0.03817884952914755 -0.06118888610858387 0.01262587464629428 -0.055730424543213385
-0.009791259652302008 0.043772386281542064 -0.056517196130663916 -0.01961803337400663 -0.0005601570335796815 0.019043663563462727 0.016081367839822936 -0.004939119908714525
-0.0313543763089833 0.02049429316022118 0.028958112750734247 -0.04147027580639823 0.06090117205627064 0.0356075908432088 -0.01772102015854615 -0.021111421703374555
-0.054774628036278916 -0.003457093666926079 0.059846776855756394 -0.03682002844814807 -0.03868481235189923 -0.027904534364746974 0.028376548306206034 0.012805409304643037
-0.055225711023219846 0.03284559622120286 -0.017984637507266366 0.04870328163348057 -0.05050836216944007 -0.04395998568037689 -0.02853535930626086 0.0037124676674509744
-0.03051107080342393 0.004513869466564137 -0.06690273947598532 -0.040430057648312014 -0.028484009941505895 0.012087449500668628 -0.006277523145028726 0.02592956241760814
-0.013587184738401249 -0.014850570146646438 -0.03490972689605329 0.0008004369470483748 -0.016845100082035984 -0.04727526857458778 -0.047756508545307066 -0.028524791946605565
-0.01990436557217237 0.0214535779583748 -0.04307069126793051 0.02971132536947375 -0.019905521001458367 -0.017017582977000328 -0.065393979841171 0.039361384969232006
-0.047874498246596106 0.04217358190730671 0.05036884016523505 0.05579482018947601 0.01656304130293999 0.008081107117330474 -0.03813246054453773 -0.0071559087580657385
-0.015149975013522332 -0.03596513966917369 0.051189734768533814 -0.0005535679203647917 -0.01907970757491813 0.04172294633513611 0.0038023073625906606 -0.027954310178756714
0.012748041961256677 0.02743351025346786 0.048781853020443876 -0.021200209856033325 -0.01726201889745785 0.045284298563942435 0.009463387845143495 -0.035232033687156
0.05148009825643693 -0.03006730915443668 0.03115109388902809 0.0037137984302004555 0.0066045801318949555 -0.011977617468482058 0.01129837191594786 -0.020442003347408248
0.03248292169431013 0.019334626056561072 -0.010675503277090185 0.01600663138745003 -0.045266371723582964 -0.025859862557855214 0.04535031773180983 0.041874842216983614
-0.02785362134049967 -0.0077733869601036565 0.003237622347548159 -0.06805889774738594 0.06122181021236491 0.021991207971590578 -0.053162206007125984 -0.015878847624796712
-0.025781401887799656 -0.045052782164911966 -0.031483099597437454 -0.06359294044976901 -0.01718570917352627 -0.04427060518762822 -0.012169740174332134 -0.03725340624087654
-0.02166403758902069 0.016660256020096603 -0.052763765657127315 -0.06344756430267882 -0.05753670624305632 0.0042558846139287235 0.04988083072217682 -0.013420386015672466
-0.017661521328790872 0.018140306746473916 0.012825756675728106 0.04617207938824566 -0.01436359241680848 0.01223604588946455 0.04518980998476813 0.038129263204937654
0.05179888368671557 -0.006311562785356394 -0.039712233177445606 -0.054708827129918494 -0.05414754786892026 -0.01840485050958113 0.03791421902946601 -0.025099077825532824
-0.008299062166545312 -0.04387812486375682 -0.024141332133278768 0.026895641334207857 -0.060330785049743006 0.03901064327431604 0.04213682278318015 0.038062142372228366
0.02587425357793822 -0.036079153821412684 -0.008755304656285897 0.0170286455174081 -0.030498348741499915 -0.019534053683170894 0.011170237442386497 0.032165919737974356
-0.038358645440070026 -0.060884698774820285 -0.047072450131337054 0.029865921693181276 0.017271393450977418 -2.981111603416279e-05 -0.011441317513153224 0.03151668720494265
-0.03488815983830029 0.020788780008213624 0.041767169386931986 0.03965045347306336 0.051372156064404706 -0.0060820527994737625 -0.06681907905972923 0.003943925639816683
0.020161130972363092 0.01865789175542488 -0.06487665051623981 0.00015940744254597022 -0.030002795159816742 -0.05688409114678001 -0.05120694480071763 0.01201163881949989
-0.03728766136868775 -0.036970103362918644 -0.028702612208081853 0.031378770442623695 -0.0084629446064537 0.04725727473948447 -0.045077361825672714 -0.023772777875899292
-0.050462897663898845 -0.0400303891937331 0.046047362457833606 -0.05303927096508003 -0.07086332933337844 0.027096154517319497 0.03165909256262445 -0.04205148322083743
-0.016800209691942982 -0.009038242380845695 -0.021512055672067334 0.02363314373414606 0.027188388955599805 -0.023955764857275956 0.027623503186349218 -0.014886784380895326
0.04023144394159317 -0.07114094527057778 -0.03989005511521601 -0.03295364760946854 -0.054959974228370595 -0.06066851898039293 -0.02479299806680903 0.01676796232969599
0.04481655517697904 -0.0525736668779172 0.0021374247643164753 0.046774207209071356 -0.05677009927739933 -0.0353265181183815 0.04229452579116749 0.00789543206046582
-0.014445863245751112 -0.050815861455215904 -0.01228213377452966 0.026448516607438428 0.06111255814720212 0.022188127850458556 -0.037245594415233306 0.05110094534783912
0.013581874801681684 -0.002474247383848728 -0.0648864028594172 -0.05299758225699892 -0.02417021603496236 -0.041147378045099714 0.02063188042000923 -0.004472320686018807
