weights/model_base_single_input_obs_wc_nolim_saf_1_bn.pth (torch, 378188 bytes, 10 tensors)

fc1.weight f8 [256, 52]
00000000: 2f98 fbc4 dbfe bc3f ec63 cd63 4f53 b5bf
00000010: 469a f61f c785 c13f 5109 a49b f21e c23f
00000020: 1ae5 84c2 3b0c a93f 24e6 15ea 1abe b73f
00000030: 245d 3e92 ee4b b93f 1207 a485 58b7 853f
00000040: 5d30 f7c9 4e58 ab3f ee02 22f8 cf81 b6bf
00000050: 0000 0080 235a c03f 0000 0060 bf7b 7e3f
00000060: d267 049b cf6b b9bf 8d7e 9f5d 1a5b c43f
00000070: 0000 0000 a254 9e3f 0000 00e0 c50e a43f
00000080: 5e30 f749 30f4 a33f 2458 3029 2c82 a8bf
00000090: 0000 00c0 da93 bbbf 0000 0000 5f2a c1bf
000000a0: a4cf 0876 6b88 abbf f5c3 e419 28bb bdbf
000000b0: 0000 00a0 00d8 b4bf 0000 0000 663f 9b3f
000000c0: d067 045b bb2c bfbf 752d 6ba9 cd14 bd3f
000000d0: 0000 0020 658c 6a3f 0000 0000 2e64 b9bf
000000e0: 5b30 f709 1782 ae3f 574c 8931 8fb7 bcbf
000000f0: 0000 0020 6cbe c13f 0000 0080 08fe 98bf
00000100: 2e98 fb04 1d58 ba3f bc1b abe5 530d b9bf
00000110: 0000 0040 d0f0 913f 0000 0060 1b9a a4bf
00000120: d267 04bb 03d8 b1bf 9e65 4fc1 81f2 93bf
00000130: 0000 0080 1e1f bcbf 0000 0080 dddc ba3f
00000140: 17cc 7dd2 c4e6 c13f bbc0 384f 07fe a4bf
00000150: 0000 0060 e054 b7bf 0000 00e0 d3a3 c0bf
00000160: 469f 112c 8d84 9abf 8468 0d07 9eda 843f
00000170: 0000 0040 46b8 76bf 0000 0020 7901 c13f
00000180: 823e 2358 a6cf 80bf b438 dca8 935d a93f
00000190: 0000 00c0 ee22 97bf 0000 0060 b4c6 9fbf
000001a0: 6b32 00e2 c884 bcbf 1945 a4db eca8 b3bf
000001b0: 2e91 9cb3 1deb bc3f a966 be02 5f84 ba3f
000001c0: 7cd0 77e3 de0d 82bf 7696 e7a6 d946 afbf
000001d0: 0839 1c60 0ade c03f b49a a4c9 5cdf 84bf
000001e0: 3819 0041 f91e c3bf f442 b254 fa3b b8bf
000001f0: 0000 0080 c8ec a43f 0000 00e0 8589 ba3f
00000200: 269b ff5b 0d15 a23f 8bc8 b954 9730 bf3f
00000210: 0000 0040 f42d b53f 0000 00e0 0be7 a2bf
00000220: 91cd ff3d 2b5e b53f c85a 3f45 f4de bfbf
00000230: 0000 00e0 52ad b23f 0000 0040 9135 87bf
00000240: 8ecd ff3d 236f bd3f edf4 fb4d 389f c13f
00000250: 0000 0060 b166 973f 0000 0000 46cd a7bf
00000260: 239b ffbb 1ae4 ac3f bc2d 349d 80bd b1bf
00000270: 0000 0020 6bdf c03f 0000 00c0 6f60 b43f
00000280: dc64 00bc 6349 a3bf ef12 0ed8 dafd 99bf
00000290: 0000 0020 32a3 babf 0000 0080 6688 c0bf
000002a0: 6e32 0032 8d23 b5bf a25f ba11 f76e 913f
000002b0: 0000 00c0 882f b33f 0000 0080 ede4 93bf
000002c0: 249b ff3b b9de a43f 9e75 e0b6 a1b0 b6bf
000002d0: 0000 0060 4be3 b03f 0000 00e0 1e57 a83f
000002e0: da64 0044 71ec afbf bb57 7a7d 60b6 763f
000002f0: 0000 0000 4fd7 bfbf 0000 0040 6271 b23f
00000300: 91cd ff7d 3fdc b33f 1017 d6d9 328c 98bf
00000310: 0000 00c0 d6cf 943f 0000 00c0 813b b6bf
00000320: 6f32 0082 d728 bcbf aa6b db42 a4e7 bbbf
00000330: 0000 00e0 45f8 ba3f 0000 00c0 7051 5d3f
00000340: 0302 8e6a 4049 aabf 1db2 cfb5 8654 b83f
00000350: c5a1 1ae4 cb35 ab3f 8b41 7731 c690 9a3f
00000360: 5864 6d12 ce4b b0bf d96c e2fc b8e3 b4bf
00000370: e7d4 b635 76a3 ae3f 7778 b05b 9474 c03f
00000380: ccdf 1fd7 a375 623f e4d5 4505 53a3 b9bf
00000390: 0000 00a0 1a9c c0bf 0000 00a0 3b3c b5bf
000003a0: 7f7f 5cdd 70b7 c03f 6458 8241 7d34 8b3f
000003b0: 0000 0020 311c b43f 0000 0080 50a4 bebf
000003c0: 0201 47a5 33c3 b4bf e331 3dd2 7bc0 bb3f
000003d0: 0000 0080 b510 82bf 0000 0040 01da ad3f
000003e0: 0201 4725 0b64 b9bf e54c 529d 4ad9 babf
000003f0: 0000 0040 ea6a c0bf 0000 00c0 f425 a83f
00000400: fefd 71d5 6aa8 ab3f 5461 4b62 3d72 a13f
00000410: 0000 00a0 864d b1bf 0000 00c0 05c1 843f
00000420: 0302 8e0a 5b56 a2bf a0b8 c254 bff7 b03f
00000430: 0000 0020 1fd0 c0bf 0000 00a0 5567 ae3f
00000440: fefb e3ea d84b 9a3f 59d5 6ac6 a557 ae3f
00000450: 0000 0060 991d b03f 0000 0020 c29b 91bf
00000460: 5a40 c0d1 a578 54bf 0d08 0300 f33c a1bf
00000470: 0000 00a0 d8a8 c0bf 0000 0000 a493 a03f
00000480: 0504 1c15 e244 9ebf e7b8 c74e 7a8d aebf
00000490: 0000 00a0 8e44 c03f 0000 0000 aca2 b2bf
000004a0: 0704 1c15 ac2d 90bf ef81 b576 5758 b83f
000004b0: 0000 0060 ca99 ab3f 0000 0080 cfcc bf3f
000004c0: fefe b8ba 3c96 b93f 8d36 8d19 896e bc3f
000004d0: 0000 0040 454c c0bf 0000 00a0 fa77 b1bf
000004e0: 363c a6db 3d82 abbf 23dc 3d26 af1e c0bf
000004f0: 5ab8 c72b a16e 73bf 7cc1 bce4 7d9f bdbf
00000500: e62c 4a07 5730 b5bf b7c4 616f 7f5b 95bf
00000510: 42c2 8ba8 f058 84bf 4b44 ae84 0251 c33f
00000520: 1c1e d36d 30d3 bdbf 9470 7f6b 5eac be3f
00000530: 0000 0040 ae3f b9bf 0000 0060 cd8e b0bf
00000540: 631e ce36 7e4f 7b3f fb67 817f 11f7 bdbf
00000550: 0000 00a0 5d97 b2bf 0000 0060 85fd a3bf
00000560: 363c a61b 9e3d a8bf 1ca6 b0c6 e5b6 b33f
00000570: 0000 00a0 56ad c13f 0000 00a0 c189 b1bf
00000580: 9787 b3b8 357b 903f d7d2 d099 832f bebf
00000590: 0000 0000 5040 aebf 0000 00a0 b669 b73f
000005a0: 363c a65b 1495 aebf 0e53 7e9e 7f29 b0bf
000005b0: 0000 00a0 ba3c afbf 0000 0020 0241 a83f
000005c0: cac3 5994 cba2 a03f b269 eb7f dabd afbf
000005d0: 0000 0040 6d86 92bf 0000 00a0 06b8 ae3f
000005e0: ee70 1639 3a09 c23f cd8b a3c1 6f0b bebf
000005f0: 0000 00e0 308a bd3f 0000 0060 64de 7cbf
00000600: e8e1 2cf2 f1de bd3f 303e cf8c a482 b63f
00000610: 0000 0040 4c06 c03f 0000 0000 8328 ad3f
00000620: e8e1 2c92 d706 bc3f 9eca b38d 1ec3 9bbf
00000630: 0000 0080 669c b4bf 0000 0080 302d a93f
00000640: 6978 4cb7 2396 9bbf e5aa d841 622f adbf
00000650: 0000 0000 556c b93f 0000 0060 4ee5 af3f
00000660: 3a3c a61b cdf1 aabf 3b8b d3f2 a1d2 b43f
00000670: 0000 00a0 dfa4 b93f 0000 0020 2fb9 b9bf
00000680: bcf1 26aa c36e 87bf 3366 3e90 e4a5 b33f
00000690: fcda eba3 8541 9abf 7e17 bf1b 9a3b c23f
000006a0: c826 9248 21c1 c1bf a6aa bede c2a7 b5bf
000006b0: 6979 581c e848 b53f 98c4 977a 024b b83f
000006c0: 2187 ec5a 4633 963f ccb3 cbb1 346e b23f
000006d0: 0000 0060 ab3a b83f 0000 00c0 8748 7d3f
000006e0: 6fbc 897a 83d8 a8bf 4a56 eb9e 5c70 a6bf
000006f0: 0000 0020 d329 ad3f 0000 00c0 73af 9b3f
00000700: 6fbc 89fa a8b5 a3bf d0b1 9368 7d9d aebf
00000710: 0000 00c0 e641 ac3f 0000 0040 dafc 91bf
00000720: cb21 bbe2 ac2a b73f 7708 a633 9d9b b4bf
00000730: 0000 00e0 d0a1 ba3f 0000 0000 1be4 98bf
00000740: 36de 44fd 0177 bfbf 54d7 d336 c87f b9bf
00000750: 0000 00e0 4fa4 c13f 0000 00a0 11d4 b43f
00000760: 36de 443d c1cf bdbf de67 db4e 3f01 b4bf
00000770: 0000 0040 c455 bf3f 0000 00e0 85eb b2bf
00000780: 9143 7685 e67b a73f 88e8 a605 696c b3bf
00000790: 0000 00c0 940a b73f 0000 0040 0401 bdbf
000007a0: cb21 bba2 1e87 b43f 64db 6540 54d3 b0bf
000007b0: 0000 0020 2eae 843f 0000 0080 aa6c a33f
000007c0: 35de 44bd 5bdd b6bf bf55 8dbb ce64 acbf
000007d0: 0000 00a0 c599 a93f 0000 00c0 21b5 a5bf
000007e0: 440e d98d ec83 8d3f 263c 09d7 1da5 a9bf
000007f0: 0000 0080 fdfb b5bf 0000 00a0 ce37 a6bf
0.1132638317027108 -0.08330246149615989 0.13689507542331308 0.14156944846770128 0.048921458716401925 0.09274452414492679 0.09881487913513759 0.010603610590354449
0.053408109811784434 -0.08791827972346386 0.12775081396102905 0.007442233618348837 -0.0993013146839126 0.15903024264752155 0.029619723558425903 0.039175208657979965
0.038972386387826616 -0.047868137386260196 -0.10772483050823212 -0.13410556316375732 -0.05377517524576028 -0.11613703376930558 -0.08142093569040298 0.026609033346176147
-0.12177630397891837 0.11359868417928516 0.0032407736871391535 -0.09918487071990967 0.059586257902623806 -0.11217589339621391 0.13862372934818268 -0.024406559765338898
0.10290700313234488 -0.09785961491716838 0.01752019301056862 -0.04023824259638786 -0.06970237079477151 -0.019479777740206587 -0.10984984040260315 0.10493263602256775
0.1398550060071961 -0.04100058404981285 -0.09113886207342148 -0.12999962270259857 -0.02589626866793473 0.010182604398938595 -0.005546831525862217 0.13285745680332184
-0.008208560528515155 0.04954205929071645 -0.02259419485926628 -0.03103143535554409 -0.11140113370510966 -0.07679634439798057 0.11296258578346816 0.10358232323633366
-0.008815518681309913 -0.061087419151402964 0.13177613919146602 -0.01019165506711537 -0.149382740725011 -0.09466518943578334 0.04086901247501373 0.1036609336733818
0.03531686542537775 0.12183519190310414 0.08273245394229889 -0.036918994039297104 0.08346815360692107 -0.1244957608281353 0.07295721024274826 -0.011332640424370766
0.11497707618382533 0.1376715069563156 0.02285267971456051 -0.04648798704147339 0.056427798699408414 -0.06929782712921101 0.13181819021701813 0.07959650456905365
-0.0376692931169573 -0.02538244193739819 -0.10405267030000687 -0.12916260957717896 -0.08257372351381218 0.01702486081794031 0.07494406402111053 -0.01942797750234604
0.04076174600031937 -0.08863268580213066 0.06596823781728745 0.04753967747092247 -0.06235078768822584 0.005545021929398371 -0.12437909841537476 0.07204259932041168
0.07757946802285277 -0.02397231535498806 0.020324092358350754 -0.0868455022573471 -0.10999819682928956 -0.10900332100156498 0.10535084456205368 0.0017894364427775145
-0.051340115554015874 0.09503976763489459 0.05314480933640512 0.025942894715457448 -0.06365669202695423 -0.08159977125108088 0.05984086423578976 0.12855772473352875
0.0022533607489058968 -0.1001483810303721 -0.1297639161348343 -0.08295033127069473 0.13059817131670212 0.013283709108048387 0.07855517417192459 -0.11969473958015442
-0.08110354218570495 0.10840581782139895 -0.008820932358503342 0.058303870260715485 -0.09918279323665405 -0.10487810459953868 -0.12826278805732727 0.04716458171606064
0.054019297175724276 0.03407470536120863 -0.06758920103311539 0.010133786126971245 -0.035815091169755696 0.06628032512046156 -0.13135136663913727 0.059382129460573196
0.025679959618170038 0.05926244780622864 0.06295164674520493 -0.01719573326408863 -0.001249467785786626 -0.03366813063759375 -0.13015277683734894 0.03237640857696533
-0.02955964330522322 -0.05967313968345583 0.12709219753742218 -0.07279467582702637 -0.015799225605409386 0.09509798668069157 0.05390770360827446 0.1242189109325409
0.09994868811281418 0.11106163858240788 -0.1273275911808014 -0.06823698431253433 -0.053728039801278646 -0.12593640677707282 -0.004744176458627869 -0.11571490129859358
-0.08276885917637208 -0.02085684888192382 -0.009935264724363017 0.15090972403098343 -0.11650374108568723 0.11981763958414354 -0.09862793982028961 -0.06467898935079575
0.006667607330093614 -0.11705121386458466 -0.0726221576333046 -0.03904358670115471 -0.04734510505215221 0.07700954533415721 0.13810236752033234 -0.06850824505090714
0.016095008276245073 -0.1179125071074155 -0.059084415435791016 0.0914568081498146 -0.059731136500993307 -0.06313321704358207 -0.061010200530290604 0.047370973974466324
0.03249202905579514 -0.06199534236448602 -0.018090922385454178 0.05999775603413582 0.1409065989254325 -0.1173620078803161 0.1153898760676384 -0.007048027124255896
0.11668312227710198 0.08793095052464461 0.12519219517707825 0.05694970488548279 0.10947940176709603 -0.027111508749792727 -0.08051148056983948 0.04917289316654205
-0.026939924299874827 -0.05700213483608766 0.09930926561355591 0.062296342104673386 -0.05262604677692946 0.08133899858834763 0.1001720204949379 -0.10048193484544754
-0.011441734914904404 0.07675007363868573 -0.025640571718180447 0.14244390826041448 -0.13870636027814087 -0.08459108293633708 0.08314371768981278 0.09489455693234772
0.021679972934300133 0.07199410763469344 0.09464522451162338 0.007149248383939266 -0.04852686758828716 -0.043826002501799424 0.05695972219109535 0.027036484330892563
-0.03849533136678295 -0.0597953024060619 0.05519028753042221 -0.017566118389368057 0.0904949239294474 -0.08049948225928626 0.10403161495923996 -0.024307653307914734
-0.12290966447187021 -0.09960604990541572 0.13782690465450287 0.08136091381311417 -0.1164513372976835 -0.0781440322420219 0.12240244448184967 -0.0739062950015068
0.04586716059851093 -0.07587295902240687 0.09000520408153534 -0.1132967621088028 0.0801867625515406 -0.06572462627614822 0.010097847320139408 0.0379384309053421
-0.08931516047311379 -0.05545660056547374 0.05000131204724312 -0.042397551238536835 0.014411781386235785 -0.05008786439849926 -0.08587631583213806 -0.04339452460408211

fc1.bias f8 [256]
00000000: 6b4b 8991 2ce8 ae3f 5922 409e 004d a5bf
00000010: bc94 3d5b fc93 943f 2046 2dfc 6cb9 ab3f
00000020: 740b 92ff bb6f a5bf a288 f7fb 6249 ba3f
00000030: 8260 daf6 5e0d c0bf ccf5 6e4e 2243 a8bf
00000040: 4b46 b3f3 9836 af3f 3f8c a026 29fb a5bf
00000050: 6592 d7d5 934a a1bf 450f 3bda d123 adbf
00000060: 1d63 09ac a636 9fbf ad8d 37d5 092f a5bf
00000070: 711e bfd6 877d b03f 2e63 17af 55c9 853f
00000080: 7eb3 f597 eaa4 923f 7399 e632 16d8 b5bf
00000090: dda7 ae80 7bb6 bc3f 3aff 5e70 395b bc3f
000000a0: d378 55a2 c9de bc3f 8f5f ed3c 7d7a 9f3f
000000b0: 1623 1cb5 79d2 b83f 9968 c0be c1db bbbf
000000c0: cdc2 4e8a 549a a7bf 1d57 a240 69c9 523f
000000d0: 4e00 0116 12f3 a3bf 2b3d 0dab 486a c0bf
000000e0: c844 c444 86db 9ebf 8d0b 452a b4ef b43f
000000f0: d774 a225 0352 acbf 7b52 298c 6b9c b73f
00000100: 68b1 68d3 0c8b c23f 3995 24d5 7739 b8bf
00000110: f220 13cb 5dbc aabf 4c88 688c 6eb4 b4bf
00000120: 1f88 2a95 9a73 bcbf c375 c688 d8f9 af3f
00000130: 4efd 7c84 3e62 ab3f 85ff cf79 1e67 c2bf
00000140: 158d ff9f 19b0 b53f 1f56 b3ca 0f80 b93f
00000150: 7b56 9303 6b73 bdbf 255a 5bad c9e2 bb3f
00000160: c96a 433b 00ca b3bf 2290 6ec0 bdc0 b8bf
00000170: 92db cb3c f15d b9bf c5b1 fcd4 7ee5 be3f
00000180: 434b e5f2 fb34 a03f 5ac2 ffc4 b8d3 94bf
00000190: 6a44 8daa e700 70bf 476e 5c8f 2944 9b3f
000001a0: 7a94 563e c595 c1bf 585d 5100 b230 b1bf
000001b0: 2f76 76d8 550c b4bf 0788 d002 2226 9f3f
000001c0: d3a5 15a9 ed3b c0bf ea0a 0acb 25a3 b33f
000001d0: 33b9 09b3 8265 bb3f b2c0 d63d 5d11 bf3f
000001e0: 86b4 59af 3627 9fbf da51 d8f7 b7d4 b6bf
000001f0: f9f3 4aa7 5757 903f da1b 0654 5fa0 603f
00000200: 37fa fa40 1dd6 873f 18c2 ee23 7dea b2bf
00000210: b3f3 4508 32cd b9bf dfd3 c0c6 7dea b93f
00000220: 117c 1fa7 d0e1 c03f 44d1 a781 58e7 9bbf
00000230: fadf 3f85 1e8c bcbf e4b6 7d75 b7d7 aa3f
00000240: d32b 7123 8118 963f 750a a284 5ffb c03f
00000250: 993a d5fd 9530 b83f 750d cb48 ae0c b23f
00000260: 4b36 2423 342d 9e3f 4feb 7da7 2b26 b43f
00000270: cd32 dc1c 747a 78bf cc52 a896 13bf b8bf
00000280: 9bd6 d0ef da24 bbbf 1f08 1d5f 016d 913f
00000290: 542e 6423 ac61 b23f 98b9 9adb db90 8cbf
000002a0: 86cb 1be8 181f a4bf 2b59 420e 2f92 b13f
000002b0: cb45 2878 93d8 b8bf 36c7 d7ae f6ae b03f
000002c0: b73a ef07 1808 a33f 9117 2bb4 758a a83f
000002d0: 2ca9 ccbd 819a b13f dedb 56be 1e18 b8bf
000002e0: 4be2 b54d 3d69 babf cfe9 ec0a 678f c03f
000002f0: 8eeb 28a4 9ab1 a33f 74ac 4041 b0e8 b13f
00000300: 8fef 8088 f2ba b33f ebee 7005 68bd 92bf
00000310: 5273 0eac 1a1a bbbf dfde 18f9 e9cd b5bf
00000320: fee0 06bd 0211 a93f b25f 6d30 8596 b9bf
00000330: 14a5 5f3f 59c7 b5bf e1f9 036a eeb7 b5bf
00000340: 97da d3b2 bf47 bfbf 696d 9a33 1f93 b03f
00000350: 36ed 3d41 f3be b4bf 8b2f 81c2 1b10 ab3f
00000360: b461 1fec 8e3c ac3f 0d9d a58e aa64 b43f
00000370: 781b a219 a690 94bf dc36 7be7 f1c7 913f
00000380: 6797 2bad 039a 843f f38c 0606 a657 bebf
00000390: cf13 ba46 80a7 c1bf a5ad 36d3 32f2 af3f
000003a0: ead6 0710 83bc 9a3f a3d6 102f 3c90 943f
000003b0: aa98 049c 3d0e b7bf 7401 b211 b020 993f
000003c0: 0371 539f 7a46 bf3f 3b8f 3cb9 3944 a43f
000003d0: a1dd 02c0 e917 973f 3c1d f32b 06f5 ae3f
000003e0: 183d ae04 1b04 903f 234c 8933 97ef aa3f
000003f0: dcb0 a570 a4f7 b53f 2855 1aa4 3b5f a9bf
00000400: 71a4 197b fd6e 99bf 9be7 1866 09e1 c33f
00000410: a22f a162 1b89 923f fe50 a626 af63 963f
00000420: 0da1 9a47 3ef4 bb3f cfaf 46bc 3ef4 94bf
00000430: 6c20 a357 a7c0 b03f 1962 b213 2ae4 b33f
00000440: b267 5178 200a bdbf 1c00 a3fd fb47 a33f
00000450: 037e c3b7 69d1 b83f f533 6c96 e0bf a13f
00000460: 23e6 95bf d90e c03f 2f6f 80c8 6b8d c1bf
00000470: f58d 9be6 d5ab 773f 059a 07ca faa4 afbf
00000480: 63d1 886b e27b aebf 76cc 4769 cc7b adbf
00000490: 3093 aae6 1b82 a93f 4952 e7d6 c739 b13f
000004a0: d424 1ebc 592e afbf 1067 5c5e f35e b6bf
000004b0: 2f97 88e8 6c5e b2bf a065 80d9 0ec9 95bf
000004c0: d695 e03d b74e c23f 52b6 44b3 399a ae3f
000004d0: 2345 e5bd 9d5a b3bf aaea 7803 bcda b03f
000004e0: 535f effb 8757 b2bf b0c4 4bab 8618 bbbf
000004f0: 0265 2861 9e6e b9bf 5a66 6180 9667 95bf
00000500: 461b 5408 49c9 a23f df6a 820e 4133 c03f
00000510: bad2 2d90 b5ba a6bf cf78 c773 01ac bd3f
00000520: c2b0 bbe9 a950 bcbf 8c58 fd19 d2a3 aabf
00000530: 3ad8 4bf0 d56b a2bf ee31 600a 6029 bc3f
00000540: b4f3 6947 29ad afbf bcb9 4267 7eff ae3f
00000550: 8c3b 5b0a 2eff b0bf 656e 3dbc 7fb0 a03f
00000560: ff9b b51e 49ae 393f f2c3 b663 ea10 6bbf
00000570: 0299 64f7 b713 bfbf 175c b5ac 760c 9b3f
00000580: aa28 ebca 0623 a0bf 2f6c de8f ee39 a63f
00000590: f05e 6ecb e1cc bf3f 3b46 4119 e273 9cbf
000005a0: e4e8 6e2d 4495 a53f 05c7 f7a7 2e33 b63f
000005b0: 984f d915 6517 b8bf 8dd9 3b22 ea61 65bf
000005c0: 3cf9 7172 1979 b3bf 2894 3d78 f277 a9bf
000005d0: b393 ea47 f5bf bc3f 2eea f8f4 cdb1 acbf
000005e0: acc5 8c72 8585 bfbf bb68 e68c 4bb0 a5bf
000005f0: ae18 8bb4 91fa a73f a2d9 5ffc 769d 93bf
00000600: 1e25 a711 1b70 b0bf 4e02 2db5 2887 95bf
00000610: b563 e5fb ac7b a0bf 5152 82d1 2602 b53f
00000620: ba2a a15c 79d5 a6bf a642 f8fa 1b7f 7abf
00000630: 9d57 5145 ef17 bebf 4fc4 87b2 6e74 bb3f
00000640: 3789 d566 7eba 933f 1b3a 44df a47e 83bf
00000650: 0c8c a26c 112d 9fbf 096c b787 ab1d a4bf
00000660: 989f b419 66cf a73f b632 7789 ee53 823f
00000670: 0fc3 13c3 5f68 b1bf 6ccb 358c 8b65 813f
00000680: 03e7 01c4 b856 c0bf 0c65 6ad8 b03e acbf
00000690: fe24 9a09 f17c a63f e1fa dbd6 c246 843f
000006a0: c1b7 9e8c abc5 9a3f cda6 4715 e3f5 9a3f
000006b0: cf79 ba7e b87e 69bf 827a e033 017c bb3f
000006c0: b279 3d83 df5d aabf c1c7 4386 05ca b6bf
000006d0: a4f4 177f 84da a3bf 9f2d e414 3b23 b9bf
000006e0: 7701 f34e cc8d b4bf a139 f702 bf24 acbf
000006f0: 0d52 d29b 850d b8bf caca 2d1f 3fa8 acbf
00000700: 15e8 d967 9a62 aabf cf7f 2351 bf0c 9ebf
00000710: cae0 5e1e f472 c03f db1f 032e d3f0 b83f
00000720: 45b7 2904 629c af3f a5f5 9051 9014 ba3f
00000730: e990 3c5c 8c7f aa3f 10f8 c8e3 9c79 b6bf
00000740: 0d4f ed1f 78ab 6d3f 326b e196 e042 a73f
00000750: 534b a3d7 c7de b5bf 12d9 bec3 b578 a13f
00000760: 94fe dc0f d807 b83f b3fb 9a22 2bb0 a4bf
00000770: ed07 f135 069a b3bf fb2b c8a3 1736 86bf
00000780: a71a e355 b0c5 6ebf c373 8549 e770 c23f
00000790: 1075 e78b 400c 933f 3f46 d702 f1b1 b73f
000007a0: 35d5 9be9 770a b73f 6ee5 cb22 fc24 bbbf
000007b0: 3e92 b56e 42ce bfbf e3cc 1c79 f7e5 a53f
000007c0: aa79 e58f 4c15 a83f 38cb be47 81b9 a0bf
000007d0: a1a4 b491 b009 bebf 38ba a3db d5e2 a83f
000007e0: 4076 0d51 5552 b7bf 181c cd40 4e7a b83f
000007f0: 3a89 8eac 9357 adbf bdc0 2d52 b9b6 b5bf
0.06036509777609108 -0.04160310680169194 0.020095770901566765 0.05414906099634842 -0.04186809057957577 0.10268229152237265 -0.12540804913874487 -0.047387191843408866
0.060963420628138275 -0.04293182941935258 -0.03377210603119777 -0.056913907899370154 -0.030481914758954 -0.04137449958559656 0.06441544525943656 0.010637921720375223
0.01820723106850463 -0.08532847159094618 0.11215946094185321 0.11076697343287104 0.11277446950177543 0.03074069675798757 0.09696160003307983 -0.10882197291394603
-0.04609932125402381 0.0011466529709073866 -0.0389638568744891 -0.12824352600225927 -0.030134294459519123 0.08178258926368027 -0.05531320413977319 0.09223053142461339
0.14486847231581668 -0.09462689355548982 -0.05221837142886611 -0.08087817123353708 -0.11113897458793119 0.06245304746264992 0.05348391883171165 -0.14377194354892367
0.0847183242436141 0.09961031626456716 -0.11504238927167336 0.10892925722451048 -0.0773010391889485 -0.09669099758190261 -0.09908969625744948 0.12068932247047488
0.03165423717532303 -0.020338904403560988 -0.0039071130239146466 0.026627206206383282 -0.1373831323991544 -0.06714928157577071 -0.07831322226271518 0.030418902799404204
-0.12682886844713312 0.07670818526279857 0.10701767798466193 0.12135870704401233 -0.030423025562801097 -0.08918332863715453 0.015958184800854956 0.002029596507955739
0.011638859315437162 -0.07389051558744375 -0.10078728391631735 0.10123430349706507 0.13189132843305676 -0.02724970141748996 -0.11151304963266276 0.05242703732697665
0.021577852047169287 0.13267129875392283 0.09449136206715493 0.0705059936254225 0.02946931328283701 0.07870743598134065 -0.005976155820246643 -0.09666559627687404
-0.1060311160552722 0.017017384939443155 0.07180286277815046 -0.01394817127160479 -0.03929975350720043 0.0686368379414019 -0.09705468829658696 0.06516973274827084
0.03717112633568347 0.04793136429138579 0.06876383670593061 -0.09411804339366323 -0.10316832682827586 0.1293762973162544 0.03846438650040006 0.06995679467279264
0.07707134087189459 -0.018300652820683643 -0.1058670682964025 -0.0851732476374951 0.0489579063173 -0.09995300705247592 -0.08507306859214153 -0.0848378189875585
-0.12218855014712414 0.06474490175098925 -0.08103866904086918 0.052857272618523764 0.05514952308994073 0.0796610449084378 -0.020083041491058634 0.01736429190969245
0.010059384081113355 -0.1185249104224118 -0.1379242272707004 0.0623947031811796 0.026109741071158966 0.02008146321551031 -0.09006104525596706 0.024538756446874158
0.1221691740969995 0.039583019124874906 0.02255215868419003 0.06046313559050495 0.01564066139286266 0.05260918144326634 0.08580997228790771 -0.0495546949215771
-0.02483745635837348 0.15530507550448366 0.018101146597743097 0.02186463998221288 0.10919560669083613 -0.020462970963919077 0.06543966188030631 0.07770026188735137
-0.11343577325297252 0.037658571921838496 0.09694538818757086 0.034667032587186876 0.12545320372355304 -0.13712832727548505 0.005779109525721794 -0.06180556980307376
-0.05953891337086039 -0.05758513245736989 0.049820777804859495 0.06728791233701616 -0.06090050145491835 -0.08738633207067559 -0.07175331761444846 -0.02127478792690385
0.1430272152075946 0.05977039635977789 -0.0756014431583663 0.06583762249730776 -0.07164811993368163 -0.10584298784285084 -0.09934415695206059 -0.020902968965265202
0.03669193483988535 0.1265641518446818 -0.04439322838780897 0.11590584828033744 -0.11060583073021049 -0.05203110282188658 -0.035978971083679714 0.11000633481325625
-0.06186799046279337 0.060543012719211003 -0.06639373543587918 0.03259658024645943 0.0003918579593204518 -0.0033039644165104793 -0.12139463224284344 0.02641473225716248
-0.03151723124536095 0.04341073518954663 0.12422000137882683 -0.027785809318009873 0.042154436632204 0.08671847916391691 -0.09410697730464646 -0.002610165874894216
-0.07606658023903362 -0.04974324910907796 0.11230404859322966 -0.05604404082665258 -0.12313112303379253 -0.04236065001460206 0.046833565987570366 -0.019155367997848345
-0.06421059781054736 -0.021023403223127617 -0.03219357085135447 0.08206408133475775 -0.04459742789966499 -0.006468877123112426 -0.11755271379783357 0.10724536760950908
0.019266104723450552 -0.009518898070862971 -0.03044535852007972 -0.03928886443801367 0.04650420249737336 0.008949149675481532 -0.06799887192370256 0.008494463173269039
-0.12764653750110008 -0.055165792863769963 0.043921978399405134 0.009900591070161226 0.026144676645053048 0.026328609632321687 -0.003112182943211673 0.10736091152691965
-0.05149744488766163 -0.08902010467480094 -0.038776531710007306 -0.09819382915536899 -0.0802886669871493 -0.05496785079195666 -0.09395632795560278 -0.05597111945725926
-0.05153353231158079 -0.029345502211867654 0.12850810511532124 0.09742469666809887 0.061739981659100475 0.10187627784121973 0.05175436616835489 -0.0877931648364838
0.0036218019662700497 0.04543210832408419 -0.08543061270328893 0.03412406935187752 0.09386968982016192 -0.04040655896596181 -0.07656897370273415 -0.010845360456206867
-0.0037563747456233645 0.14407054033190833 0.018601425684996065 0.09255892104490558 0.09000348523462239 -0.1060330948784178 -0.12424102022993908 0.04277013162063683
0.047037499013402 -0.0326652908401201 -0.11733535344378022 0.04860561662814117 -0.09110005596945658 0.0956162365156249 -0.05730878335386298 -0.08481939560238323

fc21.weight f8 [64, 256]
00000000: 4091 616d 0d38 b5bf d56e ea51 373c b0bf
00000010: 330e 03f0 f7ce b0bf 9e1f 3f37 3ad0 a43f
00000020: f42a 20d6 d098 a43f 8e42 eff9 8ebb a83f
00000030: 8a17 a730 9e1b a1bf 629e 8ae2 da24 b0bf
00000040: 7c89 950f b16f 903f 32f3 e9a3 2b04 67bf
00000050: 9a34 ee87 e2eb 533f 3fbf b6cf c434 9bbf
00000060: 8105 6fcc 8ea1 a0bf 21db b53c fd8a b73f
00000070: e5bc 6d70 2093 89bf b02c 786d ba78 9c3f
00000080: 3809 308e d7d7 903f cf6d a6fd 3ae4 7dbf
00000090: 19a4 a05b 3ec9 a1bf 3e02 5947 b03e 93bf
000000a0: bdac 9d99 10c8 ac3f e322 531d 8fa9 b63f
000000b0: 6255 7e35 d811 9d3f 0c0b c7c1 4a5c b13f
000000c0: c91b 551b f7aa 433f 315e 976d 4554 b3bf
000000d0: 2c1b c0a3 4497 9abf b09a 7c76 1a70 1f3f
000000e0: 0c17 5c96 f67b a33f 788d 40d2 5e2d 983f
000000f0: 4d79 4986 c92f b2bf 68bc 0c98 ac70 9dbf
00000100: 5355 04aa 979d afbf 4894 6e83 8589 a6bf
00000110: 93bb 0edc be41 b53f 5b1e b444 4274 9a3f
00000120: c88a 710b e585 adbf 95ec 0760 4c80 ab3f
00000130: bfbe d25b b346 b53f 6449 cd29 f7ab 9abf
00000140: a7ee 1b7f 814c b13f 0112 fc36 295e a1bf
00000150: b70c 899d 0d43 75bf 1c76 ce32 a9c0 803f
00000160: 0e50 085b 0f7f ae3f f724 0f61 90f6 a23f
00000170: eb38 3b68 d6c6 73bf 60e9 d514 7c30 903f
00000180: f804 c0b9 5ddf 343f 3e49 78c8 731e a23f
00000190: 1b76 ee67 c56a a1bf 5d25 00c0 5933 42bf
000001a0: be0b d713 dcf5 95bf 21f1 8eed e4cd a3bf
000001b0: de01 2b2a 3e67 66bf 7783 7578 241f ab3f
000001c0: dc76 df88 4566 a03f a99d e532 f6df ae3f
000001d0: f4a2 8711 5afa a63f fc32 96be 037d ab3f
000001e0: 16cf 6490 16b5 aebf 134a 201c 8437 a93f
000001f0: a34f d6a5 2f4a 9b3f ad1d 1f98 09f5 853f
00000200: 9d5e 2c11 9a46 a0bf 7add 68ec b49f 9e3f
00000210: 8b91 7530 1427 ac3f 1100 e0a0 a40b 8b3f
00000220: fc28 c581 57c5 a3bf 5e45 44c4 2986 a5bf
00000230: 6dc1 f2ea 2fb6 72bf 7025 965b f723 ae3f
00000240: fa1a 4b9e adaf a6bf ef78 077a 6732 7fbf
00000250: 6ff9 01da e372 78bf 80fa a648 a4bb 733f
00000260: 7f59 5177 3a07 b03f e1f7 0093 620a b33f
00000270: 98a9 b483 e10f ac3f 721e c15e 4e74 a93f
00000280: ed1c 996c 29c8 a7bf da08 142f 1d63 9e3f
00000290: 3361 4bf7 90a5 a1bf 7304 24ec 6c69 a03f
000002a0: cb1f 0045 0fb2 a5bf e4cb 16d4 6013 a93f
000002b0: 1377 0658 ff4d b3bf e21e 3e8a 85e9 9a3f
000002c0: c8b2 1501 7bfd acbf fb69 44bc 2891 a6bf
000002d0: 7ff5 03f9 8a9f 9e3f a405 6ed1 3e6a 9dbf
000002e0: c7d9 db4f cf5d a73f 7f2a 3d22 7b78 a13f
000002f0: d527 a1ee 3153 a5bf d3eb e937 bec8 a6bf
00000300: 6289 2711 0daf 933f dfc2 b2d8 2bf6 8dbf
00000310: 2039 065a 510c 99bf e023 e524 837e 773f
00000320: 25fa 510c 89fd a6bf 12c9 e047 405a 963f
00000330: bf4b 6d98 b2c2 863f 9164 00e2 adf3 9ebf
00000340: 429d 8267 1dcf aebf 2b8e b266 991e abbf
00000350: 0b4e 4375 0445 a63f 2104 98bf 1c86 a4bf
00000360: 35c0 a1de 30dd a1bf db5e 3893 b2a8 603f
00000370: fa14 b78f 5d86 aa3f 5aba 57a6 b0dc 8dbf
00000380: 2266 1498 81e4 633f aee0 8b6c 2f49 b73f
00000390: 8c5f 89c3 be8e 67bf 98e6 893d 884a 4c3f
000003a0: c335 e0ed f932 a1bf 71ca 82dc 03cf a1bf
000003b0: a5c2 4c55 2234 b7bf 70b9 842e 7e3d a73f
000003c0: 0c85 fcec 229c ad3f d125 07c0 9d14 963f
000003d0: 64b6 4e18 75f1 9e3f 2e88 2bcc 2b6d 893f
000003e0: 8517 de4e 914c 973f f2e4 3e57 51f3 aabf
000003f0: 48ee 4860 3fc9 ae3f 71fe a74f 9125 97bf
00000400: 886c f74c 036b 673f 5c6c b8c1 f50c a0bf
00000410: 4395 fee8 a5cd 903f 5d7d d37c b704 95bf
00000420: a3a9 cef1 fb9a 923f 9139 e927 9ec8 713f
00000430: 69e2 2235 332d b13f 19f6 aa82 b3e6 81bf
00000440: 21c8 8496 e27d 61bf ce47 3293 45a0 67bf
00000450: 6d77 b6dd a404 b03f 2a22 13f7 2acc 963f
00000460: 8857 eb7a c7b6 85bf ce05 5ced b05b a8bf
00000470: 1885 05f8 3f40 b1bf 0a28 d4ef c7bb 863f
00000480: 01d0 e0d9 aca7 79bf b498 c922 5abd a93f
00000490: 92b6 f02c a078 89bf de59 752e f77c a33f
000004a0: e62d 0775 5b68 883f e4ca bfe9 b4d4 993f
000004b0: 84c9 653b 0764 92bf d929 1baf f3a7 ac3f
000004c0: 7652 af60 1f6b 92bf 0d55 5855 1d9a b03f
000004d0: 60e8 ef3a b13d a03f d097 ca40 00bb a13f
000004e0: 1f6f f6ba 5bdb 913f a07e e755 fd60 9abf
000004f0: 32ab a09a 93f5 a0bf c0c4 4181 8a97 453f
00000500: 5506 eeb1 4d0f a23f d245 4ac6 4bf0 a4bf
00000510: 1a40 4bbe 1737 a9bf eec8 ad3c 9d3e a1bf
00000520: 40a9 ed03 79d3 aabf 4625 887f 85b2 a63f
00000530: 3d29 e5a1 b372 aabf f286 f13e 9be4 a53f
00000540: 5b6b 76bd 1868 983f cb99 e3c1 ba67 b33f
00000550: 1f51 21e5 71cc aabf cd79 4c92 662f a63f
00000560: 4145 a1db a89c 9c3f 1331 8d18 7d80 8a3f
00000570: e29a 19bf 7c6b 90bf 63bf a54b 6e98 75bf
00000580: d3bf d5d7 4879 8e3f 00ab b175 85ea a43f
00000590: e332 9923 7411 90bf 900e 72e0 45e2 973f
000005a0: 786e df6a c1f5 a63f 58d1 cb51 3cc7 9ebf
000005b0: 0050 0a99 3a3e a3bf 73ca 2698 2787 8dbf
000005c0: b8cc 2a67 b889 93bf 1fda 46af 25a6 553f
000005d0: dadb 4259 502c 66bf 93ac 3637 f52d b2bf
000005e0: 6eb9 9350 01da 7e3f 064b 3938 cb7d 953f
000005f0: 0481 19e2 f72c a7bf 4db6 955c ea14 a93f
00000600: 36b5 9a2e 0100 a2bf f403 748e ad0a 663f
00000610: ad6c 97dd 8db6 a23f ae57 98ab c161 b13f
00000620: b986 77aa 447e 863f 35d7 7d5f bdee 783f
00000630: d3f6 2482 c1f7 9d3f 2124 7c4f 4f5e a1bf
00000640: e093 fd7e f270 a7bf 01bb 9257 8058 a13f
00000650: 4b43 bcc9 8cc7 7bbf a9be 8492 9ed8 a1bf
00000660: 86c3 9a62 6f71 a1bf 7fb0 fb49 6d6a a2bf
00000670: 71ca 0007 4255 9c3f 6edb ed31 3cec adbf
00000680: fa87 59dc 30d8 72bf fc84 da9b 860f 7a3f
00000690: 00a2 234e 1d32 963f 0916 4a93 b05c afbf
000006a0: 5965 92cd e4ad 8c3f dd99 8843 a738 7bbf
000006b0: d3d6 9f1b 3f15 7c3f 74da fb92 e5c2 a0bf
000006c0: ef9c 112b d5c7 9dbf 22bb 361d e313 9a3f
000006d0: 04cc 1b21 6d41 a4bf 467a 4f86 f524 9dbf
000006e0: b5d6 b123 2263 ac3f d114 3f7e eb4a a83f
000006f0: b0a5 34e8 aea1 b2bf 92ab e995 e5f1 8bbf
00000700: 564f b10c be98 a9bf 3601 1ca5 37d4 b1bf
00000710: 95f6 7a67 803c 9d3f 2225 f347 896f a9bf
00000720: 7358 23a8 d958 ab3f 0487 ef78 59c9 95bf
00000730: 8bdc 9cca 24a3 a63f dcf6 71a2 ed2d b0bf
00000740: a9cd f43a 0dd4 6dbf a598 b4e1 e6be b0bf
00000750: f54b 7b6b b944 adbf f5b3 4b5d beb1 843f
00000760: a230 d1a3 74c8 b2bf d98e 1252 fffc a4bf
00000770: e154 2721 7c47 92bf 6c26 5a16 92dc a5bf
00000780: 2258 601e f7ae 94bf cd4b f2df 91d8 a1bf
00000790: 75a5 87a8 0bbd 9a3f c71c 0b3d a9ce 533f
000007a0: a976 e3b4 6781 b0bf eae6 991d 7434 a13f
000007b0: 33f7 e58e 8866 b13f edec 1992 417f a0bf
000007c0: df81 17f6 d136 a0bf 4683 b4d9 ac8e aabf
000007d0: 6e94 85d5 6b41 a6bf a7e1 9f4c dadd acbf
000007e0: 4a32 abfe 4759 ac3f bfa4 08e9 fcde 96bf
000007f0: aa56 932e c7db a63f 0928 f1f1 5753 b1bf
-0.08288654251515926 -0.0634188246717103 -0.06565808877626793 0.04065114902874643 0.04022839177931373 0.04830595780334078 -0.033413833083201075 -0.06306236296460946
0.016051069809131388 -0.002809605822504579 0.0012159073082529726 -0.026568484475944173 -0.03248258824852269 0.09196455700098884 -0.012487653189707302 0.027804291659816627
0.016448371938176026 -0.0072977356270728785 -0.034738491711614645 -0.01879382548782104 0.05621387362665462 0.08852476564346605 0.028388384118064443 0.0678145144548063
0.0006002146316540442 -0.075504626517948 -0.025967667097599165 0.0001199260856280342 0.03805513940282709 0.023610574324391703 -0.07104167488566766 -0.028750130443935623
-0.06174920988466206 -0.04401795606035158 0.08303444740771075 0.02583411735852646 -0.05766216053668455 0.053713213655975846 0.08311005584504992 -0.02604662125242764
0.06757363656282199 -0.03392151638221109 -0.005190900025414161 0.008179971564284343 0.059563140737879036 0.03703738388828442 -0.004828298118537892 0.015809954425529127
0.00031848943922348173 0.03538858244077624 -0.03401772397704069 -0.0005554378731186628 -0.021445692740382098 -0.03868022346384437 -0.002734776893106735 0.052971973137352295
0.032030270536535815 0.06030244227695942 0.04487878288256822 0.05368816091058723 -0.059975342870897716 0.049251678880086434 0.02665018510522511 0.010721278147584135
-0.031788649174072627 0.029906107835100816 0.05498564807456593 0.013205801162257587 -0.038614973631938526 -0.042039208610854514 -0.004568278483177185 0.0588681506442964
-0.04430906827251664 -0.0076164285714794685 -0.005968942685397812 0.004817620977006443 0.06261029637366809 0.07437721337279825 0.05480866177306892 0.04971547037763181
-0.04644898844395038 0.029674964903286895 -0.03446629542094328 0.03205433256699388 -0.042374112294112 0.04897596920945782 -0.07540889643720687 0.02628143936411121
-0.05662140262834253 -0.04407622621711834 0.02990548272008686 -0.028725606472567514 0.04563758706892745 0.034122322015339705 -0.04165035284002242 -0.0445002978567214
0.019222454235099724 -0.014629690695387719 -0.024461051101348663 0.005735885888790343 -0.04490307116883611 0.02182865561207687 0.01111354377431961 -0.030226437491454098
-0.06017391098549264 -0.05296782854682321 0.04349531108314516 -0.040085695636669756 -0.03489067762063806 0.002033566264582604 0.051806377213816604 -0.014581089092613176
0.002428296197319894 0.09096046829279444 -0.0028756833892593144 0.0008633771168000291 -0.033592043197227216 -0.03478252474578348 -0.09063925344959019 0.04539102857448796
0.057831851414684804 0.021563019605116033 0.03021796189175631 0.012415258568072653 0.022753019751256005 -0.05263761701594118 0.06012914705612765 -0.022604246603803838
0.0028586449113681724 -0.031348876855383095 0.016409485193112926 -0.020525805467398118 0.01816934264540183 0.0043417146649304 0.06709594771644735 -0.008740808892407735
-0.0021352220102466434 -0.0028840407263226236 0.06257086193951773 0.02226321347260033 -0.010602529944133257 -0.047574547743362325 -0.0673866253396408 0.011100351339809595
-0.006263423156315896 0.05027276682521756 -0.012437106486767466 0.03806278650397464 0.011917795666611174 0.02522547413532096 -0.017959702492086574 0.055968871236092795
-0.017986765171217965 0.06485160192126589 0.031720674938654936 0.034629829320052985 0.017438348089498065 -0.025760610931569006 -0.03312360060257048 0.0006589342397217632
0.03527300641054568 -0.04089581294568813 -0.04924844930576473 -0.03368083348949989 -0.0523946587844244 0.044330760782097786 -0.05165635443934711 0.04275975364067887
0.02383459717166701 0.07580153688068163 -0.05234104082106427 0.04333038841126644 0.027941358952664478 0.012940385162118184 -0.016035031474895052 -0.0052723225038418834
0.014879769407997323 0.040851755730576755 -0.015691580460315612 0.023324100326603203 0.04484371595000608 -0.03005689858669433 -0.03758414381186981 -0.014417943316265202
-0.019080048844170888 0.0013213508619692794 -0.002706677371033345 -0.07101376150119369 0.0075321246488172355 0.02098767786658142 -0.045264955854465355 0.048987697412354515
-0.03515628522778018 0.0026906385206761866 0.036549027728790186 0.06789789618809891 0.010983025028454706 0.006087054956756256 0.029265426224120383 -0.0339226517226694
-0.04578359413316213 0.03387833661087392 -0.006782102540243094 -0.03485580004268957 -0.034068566118896235 -0.03596822288622636 0.02766898315185035 -0.05844295606123394
-0.0046007069227886836 0.006362462821614342 0.021675546545255386 -0.06125404165235799 0.01400355102878119 -0.006645825742941783 0.00685619975592085 -0.032736944382055905
-0.02908261371012782 0.02546648851210443 -0.03956166295201771 -0.028461300203952676 0.05544382749296287 0.04744659343809022 -0.07277959031184511 -0.013644975316500472
-0.049993456887618734 -0.069644429979239 0.028551107707917984 -0.04967907908719328 0.05341224839655547 -0.021275899893118413 0.044213437779427066 -0.06320080963083846
-0.003641153183389274 -0.06541293154131951 -0.05716494977027501 0.01010464403358389 -0.07337121009294603 -0.04099271656857945 -0.017850818179643183 -0.042698445538076196
-0.02019868967916961 -0.03485542162629649 0.026111776505705692 0.001208939811634656 -0.06447456518386709 0.033603314031052836 0.06797078598716837 -0.032220887264850485
-0.031668244638925584 -0.05186977536710073 -0.043467874350235344 -0.056380102017956894 0.05536866172551365 -0.022335006449939906 0.04464552348660551 -0.06767797142779854

fc21.bias f8 [64]
00000000: 2e40 6f6a 21a7 96bf 72c4 dd7e af82 a6bf
00000010: efa3 cebc bef6 a1bf 1d47 4f96 6886 8cbf
00000020: 168e 4b32 b4e9 ae3f b1df 1d57 778f ac3f
00000030: cdc4 9ad9 ae66 8bbf 86a8 1463 91ca 92bf
00000040: eda4 fc8f 1e5c ab3f 400f 9edc 1c10 96bf
00000050: 0708 8596 689b a3bf 1261 a40f 9955 ab3f
00000060: d3a1 4b40 4109 a23f 0828 6d16 699e a0bf
00000070: 9cc5 0dda 62eb a83f fcd8 bd23 f681 943f
00000080: f19f 5ca9 bb95 a0bf cd6d 951d 1c45 97bf
00000090: e531 f539 c15e 8b3f b563 8b6d 09f8 97bf
000000a0: fff3 4bdf fe0e 603f 453a e1af 5a4a a3bf
000000b0: 0acb 9770 9465 af3f 6874 a908 6d19 91bf
000000c0: 43c7 b562 6321 b13f c027 508d cf8d 8a3f
000000d0: c592 3fe9 6627 b1bf 0af8 f359 7308 a83f
000000e0: a36f 12ad bd1c 9cbf 9d4c a5fb c9a4 913f
000000f0: 9fae b844 cdae a33f 9033 786c f049 9b3f
00000100: a5fc 0af0 60f1 85bf b05d 3264 7446 ad3f
00000110: 0000 0080 8bfe 9cbf c821 b2ea 90cf a8bf
00000120: 6867 6188 bd35 a9bf c440 c174 a089 a2bf
00000130: 96b5 9d05 a4f8 a5bf 6ef9 f71c c55e afbf
00000140: c575 29b8 6c75 b13f ebda 7081 79fb 913f
00000150: e269 4e7c 44ec b13f 68e9 4ccf b406 a53f
00000160: 9578 3be0 6724 a6bf dcac 88c3 c17f a13f
00000170: 0bb6 4d74 615a ad3f bcbd a105 2095 86bf
00000180: 6609 c35e 3f27 a63f 91f6 8169 133e af3f
00000190: 0000 00c0 586e a7bf 3336 ed5c 4688 a9bf
000001a0: 7e1b dde8 2801 abbf 8bee 02f1 7eb0 ac3f
000001b0: 5213 5dfb 28e8 93bf 8d05 bf61 37e7 883f
000001c0: 2f36 0e0b 572e 6bbf 608c be5c b9ad a1bf
000001d0: 2832 1e59 a7f4 7dbf c8c1 d423 ca3a 983f
000001e0: 31d1 ff51 3756 76bf a6e9 832a db88 923f
000001f0: 9ac1 e2c4 4ed0 a63f ddaa 9aa1 acdc 903f
-0.02212192737698631 -0.04396580146465902 -0.035085640475990824 -0.013928238951766364 0.06037676919893557 0.055782060036050914 -0.013379446044697119 -0.01835086028328494
0.05343719012882695 -0.021545840230387414 -0.038295048116666 0.05338743511146239 0.035226859186710556 -0.03245857619056386 0.04867085372724064 0.02002701371335379
-0.03239237253575301 -0.02272457056583992 0.01336432417033335 -0.023407122908654283 0.0019602754567800136 -0.037676652879430374 0.06132186769891319 -0.016698554662401582
0.0669157138816248 0.01296579504016282 -0.06700747675456416 0.04693947289523244 -0.027453387917020355 0.017230182632670055 0.038443007124752564 0.026649242992835165
-0.010714299512413492 0.057178151351020445 -0.028314761817455292 -0.04845860352458292 -0.04923813142586547 -0.0362062590144219 -0.04291260307841609 -0.06126991251584256
0.06819800850049436 0.01756086208862488 0.0700114062769113 0.041066789918164315 -0.04324650394640731 0.03417783271683003 0.05733017487260036 -0.011026621028775156
0.043268184964761855 0.061020475987772056 -0.04576375335454941 -0.049867819636898146 -0.05274322359632942 0.05603405658754664 -0.019440307943358555 0.012159760160900724
-0.00331799507734478 -0.034528534480408934 -0.007313398078519863 0.02366176456161087 -0.005453315825424008 0.018100189657141684 0.044558011564166125 0.016466805804763552

fc22.weight f8 [64, 256]
00000000: 030b bf37 2147 99bf 0000 0080 bf7a ab3f
00000010: 47fb 25c9 7a37 9ebf 0000 0040 ffae ab3f
00000020: 0000 0000 4b87 a8bf 1fc6 0754 6b81 613f
00000030: 8b9d b461 f697 b0bf 0000 0000 81cf ac3f
00000040: ab4d f606 55d4 a33f b89a 4238 b3ad abbf
00000050: 6230 1438 a63b a63f b206 00c6 5803 a83f
00000060: b2a6 f1ce 7875 94bf 6ec2 3a3c 905a b1bf
00000070: ef00 8f57 369e a13f 3896 c908 00c3 973f
00000080: e371 4149 b266 a03f 96cc d0dd d9ef ab3f
00000090: e91a ff6b 5840 7dbf 0000 00c0 7556 abbf
000000a0: 0000 0080 8fbb a03f f7f7 ead5 f3de aa3f
000000b0: b601 85b2 c705 a8bf 0000 0080 ebd8 94bf
000000c0: bc43 4bf2 fe78 ac3f 4e4e e431 8734 a33f
000000d0: 0000 0000 a834 703f 475f 3968 4cab 96bf
000000e0: 0000 0000 6401 843f c6f6 0d8e 7aa9 8abf
000000f0: 8363 1ef1 2022 abbf 0000 0000 48d8 a13f
00000100: 1f9c 99b8 cc87 acbf 2622 292b 4f8f a4bf
00000110: 81b1 b032 63e4 a93f 0805 057f c69a 93bf
00000120: 0000 0000 e952 ad3f 51e6 75fc b7ea afbf
00000130: 0000 0040 84f5 a3bf 0000 00c0 fcd9 a2bf
00000140: 0000 0000 dc01 7c3f 0000 0000 7284 913f
00000150: 8717 e918 363e a33f aec7 6da8 5bcc 92bf
00000160: 0000 0080 d336 abbf 53db cb50 87aa 933f
00000170: b012 1544 f666 a4bf 0000 0000 766e a9bf
00000180: 3ccc 42ea 27eb 6abf f0b2 191f 4f8f a53f
00000190: 0000 0040 b44a aa3f ac4c 2094 b43e afbf
000001a0: 0000 0080 43bf a1bf c8c0 f283 8f9f 683f
000001b0: fb50 3216 5e7c a8bf 0000 0080 f788 9c3f
000001c0: 39e9 51da 7c24 a73f 0000 0040 6e1b a8bf
000001d0: e5f3 c2c3 d3cf aebf 0d63 c1c1 242d 953f
000001e0: d9b0 a27a be4c 51bf 0000 0080 22ce a2bf
000001f0: 5aa6 4036 0a69 5cbf 0000 0000 cae9 74bf
00000200: 0918 e21b 47b3 9d3f 0000 00c0 e2b4 a0bf
00000210: 0000 0000 afea 8bbf 6133 2fc0 0ed8 973f
00000220: 806f 237f 2e99 a03f 0000 0000 98e5 6dbf
00000230: c912 e995 2ec0 9d3f 95e3 e798 1828 9abf
00000240: 7bd5 e388 7b3f 8bbf 8166 c563 e358 9f3f
00000250: 3831 fdd5 6f64 7cbf a6ea 9a00 b7d2 acbf
00000260: 0000 00c0 fbc7 ae3f 0000 0080 eafd 953f
00000270: 0000 0000 dde3 99bf 0000 0000 00b3 573f
00000280: 0000 0040 0f15 aa3f 0000 0000 698a ad3f
00000290: e234 b9c0 bf59 a8bf 0000 0080 989e 99bf
000002a0: 0000 0000 84c5 973f 3290 f126 fe0e a13f
000002b0: 0000 00c0 091e a33f 0000 0000 b47a 9cbf
000002c0: 8fa3 2240 fd3f 9f3f 3dd6 1f40 e19a 92bf
000002d0: 130e fd46 01b1 a4bf 4f9d 0ff8 7922 b1bf
000002e0: 5c05 87cc cca0 ac3f 0000 00c0 fbea ad3f
000002f0: 0000 0040 bf33 aebf ebd0 e452 439d a23f
00000300: e0fb 04e7 92e3 54bf 2361 b780 effa 543f
00000310: 9aa7 69d4 d850 9bbf 0000 0000 3863 73bf
00000320: 0000 0040 baa6 a6bf 78cb 6687 300b 91bf
00000330: 0000 0000 520d a8bf 0000 0080 a639 9ebf
00000340: 0000 0040 b3f0 af3f 0000 0040 a1df a7bf
00000350: f47c 1574 31d2 863f 0000 0040 06a3 adbf
00000360: 4210 6a0d 0647 abbf 2035 84a3 049d a63f
00000370: 8a51 02e3 b98d 7e3f 0000 00c0 1107 af3f
00000380: 346a 2a4e fe1b aabf 0000 0080 be04 aabf
00000390: 0000 0000 c29e 923f 7f91 2f4d 39ff 73bf
000003a0: a656 2074 c7ab 903f 0000 0000 8327 a4bf
000003b0: 0000 0080 11db a13f a7a1 c16f c67a 863f
000003c0: 0000 0080 74b5 923f 0000 0040 8c71 aabf
000003d0: 2ddb a070 47cd ac3f 0000 0080 53b7 a4bf
000003e0: 2fa7 a73a fab5 893f 6751 5c4f d944 a83f
000003f0: 0000 0080 7073 9cbf 1b63 3a3a ebf4 afbf
00000400: 0000 0000 07a1 86bf 4381 a304 16c6 a0bf
00000410: 92b9 c54f 54af a0bf 0000 0000 1ba6 ab3f
00000420: 38f2 380a 4115 993f 7d83 34b8 9ca1 a13f
00000430: 88df 6f3f b05b 9ebf 9002 29b2 b048 783f
00000440: 0000 00c0 c9b4 adbf 2fc0 88e5 3ed7 9cbf
00000450: 11cd bf7f 373a 9f3f 0000 0000 b488 683f
00000460: 23eb 2443 3331 a9bf 0000 0040 c563 a7bf
00000470: f974 18c9 d207 98bf 0000 0000 f610 9abf
00000480: 5d44 3e88 6e03 89bf b1d4 a97e fb3c 97bf
00000490: 5c3f f39d 4a5f ab3f 86e3 9390 d6dd 633f
000004a0: 0000 0080 0c7e 9a3f 4595 3aab 5823 9e3f
000004b0: 4498 67eb afa6 91bf f819 39e6 0419 80bf
000004c0: 0000 0040 5e3b a0bf 892c d843 14fb abbf
000004d0: 66e0 ca9b d13a a8bf 0000 0040 14de a53f
000004e0: b683 de8a b885 b0bf 05fd f974 f37e a53f
000004f0: 28b3 6182 9b9b 86bf aa07 f30d 19b4 953f
00000500: ce44 3d00 71b5 a43f 2d5b 5577 55ec 67bf
00000510: 6427 d64c a4aa 633f 13a3 5b8d 9db9 a43f
00000520: b76e cf91 5dc8 9dbf 4b98 b778 abae a03f
00000530: 042b 0b3b a729 afbf 0000 0080 239c 9a3f
00000540: 7562 8295 a607 9d3f 6239 a36b cd25 8e3f
00000550: 0000 0000 c82c 753f 81e3 0708 3b1b a43f
00000560: a7e8 13e1 7d9b a33f 0000 0080 576d 9bbf
00000570: 0c10 ab37 a982 aa3f 0000 0000 0713 99bf
00000580: 0000 00c0 013b adbf da2c b426 f702 83bf
00000590: 7413 341f ce19 8dbf 0000 0080 3d89 a9bf
000005a0: 0000 0080 63d9 adbf 0000 0080 2424 a73f
000005b0: 9baf e162 93f9 aebf 0000 0080 bc17 903f
000005c0: 0000 0040 7c9f a2bf 0000 0080 5ed1 a2bf
000005d0: 0000 0000 ce03 9ebf 0000 0040 894e a1bf
000005e0: 0000 0000 40f6 8dbf cf9a 7fd2 ec8b 94bf
000005f0: 0000 0000 a60c 9cbf 0000 0000 fa89 733f
00000600: 8fa9 fcc3 8fdc 93bf 0000 0000 1583 94bf
00000610: 0000 0000 9d9c a23f f6db 3787 2746 a5bf
00000620: 8a7e 5fdb 33a5 abbf 0000 0080 f2e5 96bf
00000630: 0000 0000 3e47 90bf 0000 0000 62b9 a13f
00000640: 0000 00c0 30b1 afbf 0000 0000 d48e 7ebf
00000650: 0000 0040 8626 a8bf 0ef5 021c a195 a73f
00000660: 0000 0080 8dd5 a1bf f093 5d8c 7bf4 793f
00000670: c3c4 239a c22f a2bf e18d ea31 3bb8 9a3f
00000680: 0000 0000 2af8 86bf 0000 0000 f6e8 8e3f
00000690: 52f4 1772 cdc4 91bf 0000 0000 980e a03f
000006a0: 5b5e 4368 b354 a43f 0000 0080 bb86 a6bf
000006b0: 0000 0000 0ca5 663f f4b5 a4d1 f235 ac3f
000006c0: 0000 0000 0097 1cbf 9be3 adcb 6726 99bf
000006d0: d83a 99df d16d a73f 835b 1ca8 3451 a13f
000006e0: fc17 b1d4 b649 a3bf 0000 0000 f822 82bf
000006f0: 0000 0000 0096 fbbe 1a7e 74f1 ce35 98bf
00000700: e32e 52da e219 72bf 0000 00c0 ca54 afbf
00000710: 5a84 247d 8078 ab3f 1243 e370 0808 b0bf
00000720: 346c 3d13 ab14 a9bf 0000 0080 5d6e a43f
00000730: 19c9 78c5 b1cf 90bf 0000 0040 5fe8 aebf
00000740: 14f6 204a e706 5ebf 7f00 9bbd 9037 a63f
00000750: 00a2 c844 994b a73f 4db8 9359 900d a7bf
00000760: 15bc fbc5 8b4a 6e3f 0000 00c0 7949 ac3f
00000770: 0000 0000 5eab 763f f820 d156 f90f 893f
00000780: 0000 00c0 a8f1 ad3f 2a9e 4f7a 87e2 9bbf
00000790: 520b 1bd8 7d17 a2bf 0000 0080 a110 9fbf
000007a0: c53b 3758 c121 a23f 01ff d769 d5f1 b0bf
000007b0: c4d2 8dc8 c6db adbf f9f5 0d69 8625 a5bf
000007c0: 0c0b 2832 79bf a7bf 0000 0080 d549 933f
000007d0: 0000 0000 6121 83bf 0000 0040 d9aa a03f
000007e0: 0000 0000 f993 8dbf 0000 0000 3abe ad3f
000007f0: 9265 342a c3e4 a23f 0000 0000 02a9 893f
-0.024685400989038275 0.053670868277549744 -0.029508512999650873 0.05406949669122696 -0.04790720343589783 0.0021369072203405583 -0.06481876263989343 0.05627062916755676
0.0387293406485257 -0.05405960141915983 0.04342383799129902 0.04690053383820948 -0.019979369765144646 -0.06778813810775272 0.034410188854509964 0.023204803978293692
0.032033511583651884 0.05456429321966387 -0.007141442678352241 -0.05339401215314865 0.032680973410606384 0.05248224245359261 -0.04691909841722312 -0.02035873383283615
0.05561062534037073 0.0375101326373196 0.003956466913223267 -0.022137826787314265 0.009768277406692505 -0.01301856752410958 -0.052994756158290655 0.034853219985961914
-0.05572356942575873 -0.04015586282600152 0.05057058328415832 -0.019145108702336905 0.05727317929267883 -0.06233763653558511 -0.03898251801729202 -0.03681936115026474
0.006837710738182068 0.0171068012714386 0.037584009686312085 -0.018357689051704255 -0.0531526654958725 0.019205202394881948 -0.03984803753931965 -0.04967087507247925
-0.0032859592048111435 0.042108986421998895 0.05135119706392288 -0.06102527912312303 -0.03466235101222992 0.003005771926460541 -0.04782384892419774 0.027866236865520477
0.045200254106890055 -0.04708427935838699 -0.06017934574763454 0.020680021596805754 -0.0010558948656962856 -0.036728933453559875 -0.0017340278364009949 -0.0051057711243629456
0.02900420291600628 -0.03263004869222641 -0.013631217181682587 0.023285131912234806 0.03241868307097118 -0.0036495178937911987 0.029053428554351144 -0.025543579418783564
-0.013304677119303268 0.03061251923040809 -0.006931721552814012 -0.05629512674700736 0.06011950224637985 0.021476425230503082 -0.025283291935920715 0.0014464855194091797
0.05094192177057266 0.05769661068916321 -0.04755973079282129 -0.025019057095050812 0.023214399814605713 0.03331751084695646 0.03733854740858078 -0.027811825275421143
0.03051753715468269 -0.01816894487270403 -0.040412940898502246 -0.06693231874634374 0.055914306608893155 0.0584334060549736 -0.0589885488152504 0.036356071347116124
-0.0012749609559958783 0.0012805308241379896 -0.02667559429611508 -0.004733294248580933 -0.04424078017473221 -0.016644247307066234 -0.04697662591934204 -0.0295167937874794
0.062383271753787994 -0.046628035604953766 0.011143099169827121 -0.05788440257310867 -0.05327624238728436 0.04416670318651428 0.007459379310735046 0.06060080975294113
-0.05099482254191337 -0.050817444920539856 0.018183737993240356 -0.004882072290432026 0.016280285322941034 -0.03936395049095154 0.034874483942985535 0.010976362500699844
0.018270321190357208 -0.051647551357746124 0.05625365495546073 -0.04046116769313812 0.012554125704770406 0.04740027517087491 -0.027784116566181183 -0.06241545759002617
-0.011049322783946991 -0.03276127630829475 -0.03258765672477461 0.05400165915489197 0.024495140313080394 0.03443612812612338 -0.029646638748061643 0.005928697794445839
-0.05801992863416672 -0.028164847144751256 0.030495516941255355 0.0029948726296424866 -0.049203493067088176 -0.04568306356668472 -0.023467343830010787 -0.025455325841903687
-0.012213576824963985 -0.02269356690017749 0.05346139124014712 0.002425116607465974 0.025871463119983673 0.0294317106733122 -0.017237423651657716 -0.007860220218515387
-0.03170294314622879 -0.054649956971922604 -0.04732375170482399 0.04270995408296585 -0.06454041853295575 0.041984184293136585 -0.011038985172683605 0.021194831348800548
0.04044678810044787 -0.002920309949938546 0.002400704287258403 0.04047863340912818 -0.029084646248391546 0.03258262489889371 -0.060864664037202615 0.02598624676465988
0.028349497676205055 0.014720539901102728 0.005169659852981567 0.03927025292427456 0.038295682645143096 -0.026784293353557587 0.05177811436217902 -0.024486646056175232
-0.05709081143140793 -0.009282999867102171 -0.014209375693562377 -0.04987518489360809 -0.058299168944358826 0.04519762098789215 -0.06049786169100387 0.015715546905994415
-0.03637302666902542 -0.03675360977649689 -0.029311388731002808 -0.03380230814218521 -0.014629840850830078 -0.02006502184658637 -0.02739199995994568 0.004770256578922272
-0.019396063172430863 -0.020031288266181946 0.03635111451148987 -0.0415508606492309 -0.05399477055447928 -0.022361554205417633 -0.015896767377853394 0.034617483615875244
-0.06189873069524765 -0.007460430264472961 -0.04716891795396805 0.04606345622003448 -0.03483240306377411 0.0063366724114972545 -0.0355206311377372 0.026093411370892276
-0.01121552288532257 0.015092775225639343 -0.017352304543227177 0.03136134147644043 0.03970871589416155 -0.04399667680263519 0.0027642473578453064 0.05509909447787811
-0.000109061598777771 -0.024560567671389682 0.04575973371958292 0.03382267524846496 -0.037671769584036924 -0.008855760097503662 -2.6308000087738037e-05 -0.023642762648817685
-0.0044192182005067 -0.061193786561489105 0.05365373160953686 -0.06262257343338387 -0.048985811327576206 0.03990451991558075 -0.016417291333888338 -0.06036660820245743
-0.0018327006041681847 0.043392680306625124 0.04549864735264819 -0.045025359091468965 0.0036976556729011547 0.05524807423353195 0.005534522235393524 0.012237499200765431
0.058484338223934174 -0.02723132785823005 -0.035335476522525014 -0.030336879193782806 0.03541378213741767 -0.06619008859706456 -0.05831738660973465 -0.041301918338813644
-0.04638270127545327 0.01883634179830551 -0.009341008961200714 0.03255347162485123 -0.014442391693592072 0.058091938495635986 0.036901568319261405 0.012529388070106506
