weights/model_base_single_input_obs_wc_nolim_linp_f_suite_1_bn.pth (torch, 380426 bytes, 10 tensors)

fc1.weight f8 [256, 53]
0.08903308901238048 0.07952508728917168 -0.015318005868925106 -0.15264914599835502 -0.043746807105616715 -0.13201013616510812 0.05902036118976162 -0.00627585333124314
-0.12413019743514453 0.08662040257763076 -0.08321855217218399 0.09311039745807648 0.0024210898135862244 0.006378818839896876 0.08614464849233627 -0.10620222985744476
-0.07264052388024721 0.12115496427344263 -0.017577700316905975 -0.05444769188761711 0.043838500410791396 -0.11188797933416639 -0.009396758861839771 -0.107293039560318
-0.024871349900487907 -0.08439678780647276 -0.07004602253437042 0.04604777321219444 -0.06635782924247181 -0.0022869516796455488 -0.029145656153559685 0.1150863915681839
0.00032483916031930676 0.03285281465522331 0.0060338471084833145 0.10105429589748383 -0.003136451689053437 -0.09016137256895738 0.07469626516103745 -0.05478157103061676
-0.066400506168131 0.12392955076954415 -0.029753845185041428 0.028064224869012833 -0.04972784650278473 -0.05221964821258402 -0.06666257977485657 0.1038210391998291
-0.0709172716434041 -0.14074426317943217 -0.10611498355865479 0.03426935151219368 -0.06400301805430764 0.005735301629449944 0.17126176137128651 0.01621856834661454
-0.10380532563247691 -0.11073474417836843 -0.07108811527993178 -0.10471164246391786 0.04253493066242514 0.08971188332214552 -0.029570295811403212 -0.05459720641374588
0.04935135692358017 0.07385198141708571 -0.15772920020302433 -0.058087728917598724 0.0038922554813325405 -0.012976099520180567 -0.16929349471577865 -0.05436604842543602
-0.07494734972715378 -0.11014870439395708 0.10816304181406128 0.08862658590078354 -0.06086328253149986 -0.06551041339263718 -0.02696634137960732 -0.09880869090557098
-0.05221936106681824 -0.027829859188948043 -0.039022211390208894 0.08091145753860474 0.10088752210140228 0.040851288691904214 0.11182545703092879 -0.016923025250434875
-0.06460105627775192 -0.055248382284496134 0.07739493452589025 -0.050969649106264114 -0.08866207301616669 0.03655271346941202 0.10106997916719536 0.11817650496959686
-0.08182738721370697 -0.12424065057859218 -0.13941809246152767 0.009551811031997204 0.11137943714857101 -0.01440035064444338 -0.13372981150082835 0.03156753256917
0.051789477467536926 -0.04204232322318506 0.052635988331423626 0.149887586475817 0.0714502470172165 -0.010183673297233409 -0.1089240855670819 0.11305765305498851
0.09197105393075758 -0.014598211398613331 0.060923135018931304 0.026423782462853346 -0.012740152888000011 0.0178095493465662 0.059368329233513734 -0.01934564869798787
-0.11885611712932587 -0.10544881224632263 -0.027651859336508926 0.07395489813734082 -0.028859395533800125 0.04774271324276924 0.07210397545157518 0.12701608230261602
0.04674854129552841 -0.047545723617076874 0.06270133901296701 -0.040908459024802724 0.10124820470809937 -0.002618995029479265 -0.07570907648743544 -0.058793724817388586
0.11533880978822708 0.08197206258773804 0.06786959070621576 -0.019938427814840603 -0.0984635129570961 0.09710248559713364 0.0960045215850934 0.13566650105781103
0.09045827388763428 -0.1183084174990654 0.009324747947068416 -0.07073391068911637 0.06327638030052185 -0.06303361058235168 0.08095891598521318 0.08780014928247007
-0.1069624051451683 0.09401649981737137 0.11417957220135774 -0.03693254836867304 0.03606449067592621 0.08707720041275024 0.07927873231738326 -0.13416276969715246
-0.16240077111342568 -0.1628816368312683 0.10568002066608498 -0.025564933019397214 -0.0789422243014783 -0.060439721078652114 -0.06939600718479816 -0.09152129017516265
0.1148719274522326 -0.08089756965637207 0.07893621921539307 -0.13229639180704245 0.12757422432989934 -0.13623343408107758 -0.018779484555125237 -0.1524277637223829
-0.15368342358396506 -0.014805242419242859 0.13184680044651031 0.07736600092843879 0.07241391697452533 0.05551610514521599 -0.03151528164744377 -0.013229497752629693
0.11155531130030724 0.13144885003566742 -0.006539087276905775 0.0991894891043078 0.09442751712762845 -0.053368110209703445 0.1252719759941101 -0.12644305922790655
0.005814189159835872 -0.06000233441591263 0.050040844827890396 0.01344576380447248 0.053089628906756434 0.01605905033648014 0.002284133341163397 0.03232791922286846
-0.023446367574194195 -0.03885410726070404 0.06969889998435974 0.06187298796371333 -0.03835323091024724 0.06947577744722366 0.0010551499435678124 0.06261343411401618
0.04555786700366489 0.03565780818462372 0.062483079731464386 0.032244366309261724 -0.012051172208375838 -0.13896076118053483 -0.05446482297790385 -0.0945083202888378
0.03605771092778287 -0.12434461748034663 -0.06644739574278515 -0.04205650322177411 0.092959311205559 -0.055597590013675834 0.07127431780099869 0.06888001412153244
-0.0733629349883268 0.11955627298423499 0.061122164130210876 0.06163596734404564 0.14251599122922917 -0.13321983198564324 -0.06522859632968903 0.09842371195554733
-0.059231493275947476 -0.09858844879500786 0.10798093676567078 -0.06605350971221924 0.10576425154846214 0.13155635223775025 0.0072875237092375755 -0.05154179409146309
0.06367231940072071 -0.046915931182523574 0.09899166226387024 -0.1042088121175766 -0.0975662801678846 -0.01102575180494296 0.06340916454792023 0.1141827255487442
0.0942979719225695 0.1326522761102889 -0.08875946700572968 0.005198756232857704 0.10088521649282478 -0.07473935298594485 -0.11416839808225632 -0.13196516036987305
00000000: 8fed 915d dfca b63f 7c58 1e91 c15b b43f
00000010: 17cb f9f1 0b5f 8fbf 41a2 e9d8 018a c3bf
00000020: 0d66 a543 fb65 a6bf 2bea c848 b5e5 c0bf
00000030: 515d 37b2 ea37 ae3f 7eb2 fe8c b5b4 79bf
00000040: 7012 6e22 ffc6 bfbf 44be 3c34 c12c b63f
00000050: 0000 00a0 cf4d b5bf 0000 0040 15d6 b73f
00000060: d9b2 3db2 64d5 633f 7817 df24 ad20 7a3f
00000070: 0000 0060 930d b63f 0000 00c0 1130 bbbf
00000080: 6f12 6ec2 9198 b2bf a06f 4d01 0304 bf3f
00000090: 0000 0080 e3ff 91bf 0000 0060 91e0 abbf
000000a0: 2fdb 23fb ff71 a63f d846 0ecc b0a4 bcbf
000000b0: 0000 00a0 9b3e 83bf 0000 0080 8e77 bbbf
000000c0: a449 b809 e077 99bf 1929 8423 079b b5bf
000000d0: 0000 0040 89ee b1bf 0000 00e0 9293 a73f
000000e0: 7112 6ea2 d3fc b0bf 0cd4 7dd5 15bc 62bf
000000f0: 0000 00e0 5bd8 9dbf 0000 0040 4d76 bd3f
00000100: ff95 ed91 e549 353f f52c 0d89 15d2 a03f
00000110: 0000 0080 f2b6 783f 0000 00c0 b1de b93f
00000120: 3e4d c2ad 9db1 69bf 0fd0 8bd2 d014 b7bf
00000130: 0000 0060 4b1f b33f 0000 0080 540c acbf
00000140: 7112 6ea2 9fff b0bf 802b 90d7 d8b9 bf3f
00000150: 0000 00c0 ca77 9ebf 0000 0040 debc 9c3f
00000160: d124 dca4 ed75 a9bf 7937 90a2 88bc aabf
00000170: 0000 0080 cc10 b1bf 0000 0000 0494 ba3f
00000180: 6f12 6e62 a227 b2bf 8e46 ba73 e803 c2bf
00000190: 0000 0000 5a2a bbbf 0000 00a0 c08b a13f
000001a0: f077 6375 8062 b0bf 2b20 e64e e67d 773f
000001b0: 6690 12c8 e7eb c53f 0aee 8bb2 999b 903f
000001c0: 80fb bd5e fc92 babf b4ea c6b8 1c59 bcbf
000001d0: 3af7 42aa d432 b2bf d199 e4d7 61ce babf
000001e0: f8f6 4370 23c7 a53f 0062 eea4 5bf7 b63f
000001f0: b6a7 c5f5 ac47 9ebf 0000 0040 2af4 abbf
00000200: 0000 00c0 9444 a93f 0062 eea4 f6e7 b23f
00000210: 5684 3f6e 7830 c4bf 0000 00c0 acbd adbf
00000220: 0000 00c0 a6e2 6f3f d6ef 8c98 3693 8abf
00000230: ae6a 9dc3 68ab c5bf 0000 00e0 ddd5 abbf
00000240: 0000 00e0 bf2f b3bf 009e 119b b432 bcbf
00000250: 9c2e 3ab7 92b0 bb3f 0000 0060 3bb0 b63f
00000260: 0000 00e0 7829 afbf ff9d 115b 4ac5 b0bf
00000270: 47d2 4589 109d 9bbf 0000 00c0 864b b9bf
00000280: 0000 0000 7fbc aabf f277 463c 6e7f 9cbf
00000290: b022 7a23 b8fa a3bf 0000 0000 9db6 b43f
000002a0: 0000 00c0 c3d3 b93f 0cc4 dcc9 75ea a43f
000002b0: 25df ced8 97a0 bc3f 0000 0000 4554 91bf
000002c0: 0000 00e0 b189 b0bf f03b 2316 8449 acbf
000002d0: b42d aa88 27d0 b33f 0000 00a0 b118 aabf
000002e0: 0000 00c0 8eb2 b6bf 0fc4 dc89 09b7 a23f
000002f0: cd68 21df b8df b93f 0000 00c0 d040 be3f
00000300: 0000 00c0 a3f2 b4bf fc9d 113b 3cce bfbf
00000310: 4be6 cbb9 73d8 c1bf 0000 0060 e68f 833f
00000320: 0000 00e0 5c83 bc3f d8ef 8c58 ee7d 8dbf
00000330: 0aba 72f7 0e1e c1bf 0000 00a0 9e29 a03f
00000340: 0000 0080 2684 aa3f c637 9546 9286 a5bf
00000350: a7c3 f3b0 1af3 aa3f 83b8 fe34 842f c33f
00000360: a2e5 3a3a 904a b23f a03d 1e7e 2ddb 84bf
00000370: e1df 41e9 72e2 bbbf 5106 6faa 58f1 bc3f
00000380: 7aae cf3c 6a8b b73f 5d0f 4cc4 aae5 8dbf
00000390: aec3 f330 5131 af3f 58ec 0e06 d60e 9b3f
000003a0: 0000 0060 8217 8abf 0000 00a0 aa3c 923f
000003b0: acc3 f390 8665 ae3f ac3a e981 58cf 93bf
000003c0: 0000 00c0 5a6d bebf 0000 0080 b1fe babf
000003d0: be78 18de c450 9cbf f2fe e04c b5ee b23f
000003e0: 0000 0040 518d 9dbf 0000 00a0 bb71 a83f
000003f0: d6e1 79f8 6775 b23f ce23 c71f 1042 c03f
00000400: 0000 00c0 6cef a73f 0000 00c0 e957 a8bf
00000410: d6e1 79e8 310d b03f 5856 481b f4f1 a4bf
00000420: 0000 0000 67eb b93f 0000 0040 6e74 65bf
00000430: 2a1e 8687 ab61 b3bf 57f6 990a 361a aebf
00000440: 0000 0020 d886 bd3f 0000 0000 1ffc b43f
00000450: d6e1 79c8 e65f b13f 6bf5 973d bd6a 94bf
00000460: 0000 00a0 e734 b9bf 0000 0060 b5db b83f
00000470: d6e1 7998 c093 b83f c65f 9a18 855d c13f
00000480: 0000 0000 4628 b73f 0000 00e0 7549 bebf
00000490: 8f0e cf7b da18 833f a7c0 2019 9e1b b2bf
000004a0: 0000 0080 e132 b03f 0000 0080 f822 b0bf
000004b0: d6e1 7938 b9b9 b43f 628b c011 127a b63f
000004c0: 0000 0060 e361 bbbf 0000 0020 7711 b83f
000004d0: d6e1 7958 df3a bd3f d782 cdae d2e8 a2bf
000004e0: 0000 0080 0b77 a23f 0000 0000 b14a b63f
000004f0: c94d 926a 9c4b b43f 8c53 18e2 3e2c c1bf
00000500: 0980 6368 8cc9 c4bf 6395 a733 4ed9 c4bf
00000510: eaf7 9988 d80d bb3f 3f91 f89c b12d 9abf
00000520: fdf9 a5bf 8e35 b4bf 4c08 d382 f4f1 aebf
00000530: 94e9 54cd efc3 b1bf 19a7 3074 f06d b7bf
00000540: 56c5 a223 3f68 bd3f 0000 0000 b4b5 b4bf
00000550: 0000 0000 2a35 b43f 8c53 1892 16ef c0bf
00000560: 369d a728 5a54 c03f 0000 00e0 1870 c1bf
00000570: 0000 00e0 ed3a 93bf 8d53 18c2 c082 c3bf
00000580: 397f 1dff e5ab c3bf 0000 0000 3652 8ebf
00000590: 0000 0020 5be0 c03f e658 cf1b 42ce b33f
000005a0: e54b 2eed b789 b23f 0000 0060 9b6c ac3f
000005b0: 0000 0060 c522 a0bf f338 8521 1118 8bbf
000005c0: f6db ba8d e38e bc3f 0000 00e0 50d3 c03f
000005d0: 0000 00e0 bac8 7abf e858 cf7b 7b64 b93f
000005e0: 4ad8 e7d9 662c b83f 0000 00a0 1053 abbf
000005f0: 0000 0080 e908 c03f 8c53 1842 492f c0bf
00000600: 6942 b584 9ed0 773f 0000 0040 a0b8 aebf
00000610: 0000 0020 f49e a93f fbc6 7ade 7389 8b3f
00000620: 4695 d257 902e ab3f 0000 00a0 c871 903f
00000630: 0000 00c0 2cb6 623f bdb1 9ef7 488d a03f
00000640: 2abf c317 5302 98bf 0000 0080 afe4 a3bf
00000650: 0000 0080 c9d7 b13f d1b1 9ef7 d0ad af3f
00000660: 8230 e9e0 08a3 a3bf 0000 0020 2ac9 b13f
00000670: 0000 00a0 9e49 513f e658 cf1b 6f07 b03f
00000680: 7a67 b659 5c53 a73f 0000 0080 bd41 a23f
00000690: 0000 0040 c8fd af3f 9c9a 8e65 5582 a03f
000006a0: 8d85 1bf4 48ae 88bf 094d 595a 77c9 c1bf
000006b0: faee f132 d0e2 abbf d627 d780 b231 b8bf
000006c0: 802a 6802 2876 a23f ffff 8281 0cd5 bfbf
000006d0: 31a0 9e4f b202 b1bf fee0 d713 6e88 a5bf
000006e0: 588f 7c71 2ecc b73f 03b8 b08d 4977 acbf
000006f0: 0000 00a0 083f b23f 0000 00e0 1ea2 b13f
00000700: a870 83ce e9c7 b2bf 60ba 7f6a 3d9b be3f
00000710: 0000 0080 674b af3f 0000 00e0 bf8e af3f
00000720: ab47 bec8 f63d c23f 384a c7f2 580d c1bf
00000730: 0000 0040 d2b2 b0bf 0000 00e0 4b32 b93f
00000740: 63e1 061d 9753 aebf 8a82 56b3 173d b9bf
00000750: 0000 0080 a3a4 bb3f 0000 0000 e2e8 b0bf
00000760: 588f 7cb1 5d13 bb3f ce99 38ab d6d6 c03f
00000770: 0000 00c0 85d9 7d3f 0000 00a0 af63 aabf
00000780: 508f 7c41 d44c b03f 203f 2e6c 5d05 a8bf
00000790: 0000 0080 8457 b93f 0000 00c0 6dad babf
000007a0: a870 838e 1afa b8bf 580e 545b ab94 86bf
000007b0: 0000 0040 953b b03f 0000 0040 143b bd3f
000007c0: 588f 7c71 e923 b83f 8a1b d1f1 bffa c03f
000007d0: 0000 00c0 f0b8 b6bf 0000 0080 4a4b 753f
000007e0: 588f 7c11 9dd3 b93f 5380 cc44 1e22 b3bf
000007f0: 0000 00e0 233a bdbf 0000 0000 3ce4 c0bf

fc1.bias f8 [256]
-0.08745284034164853 -0.0847262429963996 -0.007047137555517511 -0.06679942296833076 0.047498006352189814 0.018834670510551318 -0.018001290528370337 0.08508471054635063
-0.046175771787178396 -0.045399760511590524 0.01959916976521864 -0.007335950065231096 0.006645983299839607 0.019485828062497563 0.06243848610735762 0.11676629739114576
-0.03900057797724286 -0.07576887441508848 0.049719233202268315 0.03519950280401143 0.06953063812312969 0.05613917699077451 0.008958221011987792 0.06088127128249485
0.15616200332570795 -0.07902122248363552 0.10103074945589761 0.06517843620201985 0.0942120554655628 -0.08609452622216508 -0.04123251684269363 -0.06637133333520809
0.08574131382746832 -0.045642865862890555 0.01309505277622166 -0.01978500480829729 -0.07542572679191605 -0.10055338376792111 0.07169925189328691 0.14541672110517562
0.010144194878683978 -0.059317312354471324 0.16210687068419838 0.14318225096431542 0.11430295630030766 -0.09527905211974044 -0.018312097594205025 0.025426256425728714
-0.03438510855078053 0.06089891053780423 0.11570595753897825 -0.09084255910255161 -0.019394489283024695 -0.09501980681126009 0.0639713993769619 -0.08773205230715334
-0.10247154121329582 0.003725477577746605 0.06062265577091302 0.13145388329111998 0.15269404662309374 0.013814571714447813 -0.10299167290549437 0.0638325792710805
0.15898169482395091 -0.14921063350104805 0.11626070818465813 -0.026186791201279435 0.09738643017111272 0.0791049985784469 0.02875216433265837 0.03494426002935132
0.11594598701077946 -0.11405053661850788 0.0737954486037356 -0.11512094758681557 0.015909624125052743 -0.04343339902824465 0.10799744392598522 0.01653579094596808
0.06717160393361148 -0.06016193279914047 0.0296017666914161 0.11035552867415512 -0.10218930800125774 0.13083005939916928 0.014975789697899802 0.14994355503594511
0.13444951226983473 0.1462407810578482 -0.1167096689855829 0.06532546665772247 0.156586569652132 -0.07612866325376068 -0.062359468090678695 -0.08488788358202504
0.08557626767471367 -0.08962238912027512 0.06654562537104948 0.1701829055272247 0.02250917282258649 -0.10402265920573914 -0.03799016318229945 0.03724629421501211
0.013342023345037535 -0.10877553218381326 -0.1426011016641419 -0.05369496036855774 0.0770554521538457 -0.025455865556723276 0.029877509356203487 -0.07758815284222519
-0.03284909815585521 -0.0903964098757504 0.055726528377063794 -0.06169633161065223 -0.1409908932411026 0.10009055577392814 -0.015006296357713422 -0.05784132769433127
0.0791541600437827 0.08216806064377433 0.09455012426001663 0.039068488088041156 -0.12943127923590697 0.0318408965056057 0.08647571466688875 0.004990942000879805
0.04614200771427429 -0.11292924221604948 0.042273288741087565 0.1159157465502406 0.0709277876040739 0.1277365208703037 0.07212115473386652 -0.07710201479477921
0.10646953072530305 0.0869136912045412 0.08449056392979311 -0.03111273999908697 0.11300007832643828 -0.053016277970303304 -0.03676548438398049 0.15465186944383724
-0.06767083746680068 -0.04837518743356916 0.043008078839566595 -0.047717873855860564 0.09597583608971845 -0.015218272883591353 -0.014847236961261737 -0.13570331254550375
-0.014428073994430394 -0.03776913680331764 -0.012579215133778377 0.015146130718571979 0.04343758606017809 -0.08150018622465884 0.025959673644643137 -0.08212459899765423
0.09046384868887554 -0.09344103406080662 -0.06167270110614232 -0.09158250430022033 0.05881653847899847 -0.014308300458584729 0.10587539272362204 -0.032417535380684134
-0.12071962232234576 0.033502176163257284 0.004601302592146191 -0.08655075518140014 -0.08713590287392844 -0.10659338817569788 -0.008712009861292076 0.04699206877249779
0.05233477977086363 0.02148578685095591 0.059684034402771924 0.11702518526651477 0.08982031228515022 -0.014923395700696796 0.07406890579889636 -0.06284827570489965
0.08082315310041288 0.06910359147556552 -0.011805217303956785 0.1553993305573807 0.004963323552053159 0.061291557159711026 0.09703787893145258 0.07100510342973425
0.10482744180728962 0.039299233346819 -0.13596961473585314 -0.05212835131371401 0.07755443917359191 0.007046813969786637 0.10679921716115269 0.022117981271337565
0.024206866517330776 0.10283203716366367 0.10277709704648225 0.04978671023504608 -0.059143900638603766 0.06198367365310061 0.11604020139337586 -0.024649336109968622
-0.043463699569967325 0.030954601527038453 -0.05725445410969111 0.1486240013525849 -0.08660189337308476 0.03309688881133096 0.004908651125119784 -0.05233466600950992
0.09086197248028938 0.14345180988362308 -0.102040269836576 -0.024844654882353694 0.06937780675536558 -0.11040964604296771 0.061949351424902786 0.0541233406283611
0.01904340931281407 -0.09262509741123248 -0.021493149069408808 -0.05334059164944072 -0.04349808994087117 -0.05792873251247905 0.09000006034254925 -0.01297701929234177
0.00682305721602313 -0.009454938487602513 -0.03444762183032927 -0.040587259278952466 -0.047928800725241284 0.0026079492522142486 0.06287225972640421 0.029236423928737227
0.052483526905619915 0.06609648266671848 0.007263629026852322 0.021789094988995845 -0.005290465265887893 0.10212565835114959 -0.04555989292878122 -0.1415278947246214
0.04167913626388689 0.03818301758834566 -0.01152767243655125 0.15446216658564016 -0.046161648033017734 0.07341328762280921 -0.011285229933734497 0.08542052209170929
00000000: 3dae 3531 4f63 b6bf f550 c87a 9eb0 b5bf
00000010: 4a41 4d95 75dd 7cbf 2968 0a59 c419 b1bf
00000020: 70d2 d09f a851 a83f 3fb9 7e57 6549 933f
00000030: 2cab 6b28 ee6e 92bf f3aa 2f91 1cc8 b53f
00000040: 3611 63cb 59a4 a7bf 9b7a 492d a33e a7bf
00000050: 7174 ae04 ce11 943f 5417 d819 4d0c 7ebf
00000060: 32dc c28e d138 7b3f 653d 0ec9 17f4 933f
00000070: 358a afef eff7 af3f 49ea 9164 65e4 bd3f
00000080: 1ded df3d e2f7 a3bf a6e3 aac5 9665 b3bf
00000090: 4c00 2ca1 cc74 a93f 93e3 c152 ab05 a23f
000000a0: fb10 cf88 c2cc b13f 4d43 6632 46be ac3f
000000b0: 62f1 3612 b058 823f bcc6 317a d42b af3f
000000c0: 84b4 94d4 1dfd c33f e0d4 411e bc3a b4bf
000000d0: e7ae cdb4 26dd b93f 8460 e4b3 88af b03f
000000e0: 5210 1d01 481e b83f e122 7d76 4a0a b6bf
000000f0: d705 beae 6d1c a5bf e20e 1132 b6fd b0bf
00000100: b117 ce8a 24f3 b53f 6e89 5a70 805e a7bf
00000110: 6c5e 4e3b 94d1 8a3f c94e 6932 8542 94bf
00000120: df2a d9b5 194f b3bf 400d c9d6 ddbd b9bf
00000130: 6482 07d6 e15a b23f a219 b8de 039d c23f
00000140: 6e4f fcc9 7ac6 843f 0c53 4cb9 d65e aebf
00000150: 08d4 05fe eabf c43f fe33 a1c6 cb53 c23f
00000160: 3b5c 2563 f542 bd3f 5221 d93c 3564 b8bf
00000170: 7a30 2711 68c0 92bf a19c 3b2f 5709 9a3f
00000180: a8d8 63c9 ec9a a1bf 8a69 3e5a 242e af3f
00000190: 0e10 95d7 e79e bd3f 1b2f 6e3c 7541 b7bf
000001a0: c6d9 c524 26dc 93bf 7702 bad2 3753 b8bf
000001b0: 6d12 34fc 6d60 b03f 0a5e 7897 9b75 b6bf
000001c0: 7825 482e 933b babf 7f09 788b e484 6e3f
000001d0: b78f ddc7 ee09 af3f a572 d518 7bd3 c03f
000001e0: 9121 4580 7a8b c33f 153f c66d d04a 8c3f
000001f0: 87b1 e38a a95d babf 7d7c 63f8 5457 b03f
00000200: 1a3c f71d 8359 c43f dd1c 8d83 5519 c3bf
00000210: 0581 7603 43c3 bd3f c3cb 2fcf b5d0 9abf
00000220: e1bb a82c 51ee b83f d134 d8a5 3940 b43f
00000230: e0ef fd15 3571 9d3f 8a99 04cc 36e4 a13f
00000240: 2c51 50de a2ae bd3f 5324 de7c 6a32 bdbf
00000250: e4c0 582e 42e4 b23f 904b f800 9178 bdbf
00000260: 0c2a 3ccd 9c4a 903f 95c7 c208 e73c a6bf
00000270: 11b5 b671 b8a5 bb3f 9142 4e25 c2ee 903f
00000280: b35e 1d82 2832 b13f 3b44 ac7b 8bcd aebf
00000290: 7ab2 5fef ec4f 9e3f f199 968a 4240 bc3f
000002a0: 13c4 dd17 1429 babf 7501 3a15 0abf c03f
000002b0: 3bc0 df77 a0ab 8e3f cf0b 90b4 5931 c33f
000002c0: 65bf 1441 a435 c13f fc12 fe95 04b8 c23f
000002d0: 5189 6b53 afe0 bdbf 2b0f e476 2bb9 b03f
000002e0: af09 d359 070b c43f a98d f606 2b7d b3bf
000002f0: 5d41 1788 94ed afbf 60bb cf5b 36bb b5bf
00000300: e504 fa86 53e8 b53f cace 422e 7ef1 b6bf
00000310: 3118 a954 2209 b13f acf1 c9ae 8dc8 c53f
00000320: a736 8804 a50c 973f eee3 549f 3aa1 babf
00000330: 8417 e058 7273 a3bf 8df1 193f f211 a33f
00000340: c06b 6f0f 1053 8b3f 0da0 5599 b6d8 bbbf
00000350: 1db2 02be c040 c2bf c666 7ce5 e77d abbf
00000360: c9b0 faf6 e7b9 b33f 19e1 3a38 1a11 9abf
00000370: 2287 48b6 3598 9e3f 27b0 0333 d1dc b3bf
00000380: cca2 90d4 98d1 a0bf c297 1718 3824 b7bf
00000390: 7c57 cc01 3088 ac3f 7e12 1a5d a996 afbf
000003a0: f88e c055 fd0b c2bf 0aff afdf 889f b93f
000003b0: b344 b900 9fbb 8ebf a2d6 9be5 609d adbf
000003c0: 46fb ba70 7243 b43f 26a2 3d4d f708 b53f
000003d0: d08d 87db 6f34 b83f dadb 48ed c800 a43f
000003e0: aae6 b243 3491 c0bf 8b73 5532 734d a03f
000003f0: d87b 64be 4523 b63f 0c5e b8ca 6171 743f
00000400: 888c 35dc ec9f a73f 8f7a 144a eee8 bcbf
00000410: eb50 4631 d8a4 a53f 4753 8684 a7ac bd3f
00000420: 0e1b 23d0 5228 b23f 7b46 d299 ab59 c03f
00000430: b284 ee30 8876 b23f 22d1 ff27 f5bc b3bf
00000440: 2653 7c50 9641 bb3f 6253 4cc5 f93f b63f
00000450: b528 e670 2ca1 b53f cdde 23a3 04dc 9fbf
00000460: 8584 dbb8 92ed bc3f 9381 1318 f324 abbf
00000470: ca01 1af2 ecd2 a2bf c065 c3e8 a1cb c33f
00000480: 4f16 d041 e052 b1bf ff1a eeef a1c4 a8bf
00000490: 21d2 28a8 2705 a63f bf88 4a27 7a6e a8bf
000004a0: 3d2b 3655 df91 b83f 456a b102 c22a 8fbf
000004b0: e805 7a69 3a68 8ebf 45c0 abe4 b95e c1bf
000004c0: 554f 9a4f 778c 8dbf d49e bcee 7956 a3bf
000004d0: cd14 dfac 21c3 89bf cb14 c740 ef04 8f3f
000004e0: 7d5f 1787 733d a63f f9eb 733a 32dd b4bf
000004f0: a138 4635 2c95 9a3f b05c e422 1e06 b5bf
00000500: 8dc9 9687 a328 b73f 2845 6569 c0eb b7bf
00000510: 511d 9d74 9093 afbf 12f0 da74 f371 b7bf
00000520: fe62 768a 331d ae3f a469 3f94 ab4d 8dbf
00000530: 12f9 3255 a61a bb3f decd 8dfc 0799 a0bf
00000540: 7625 dc2d 7be7 bebf 479a ee7d 3227 a13f
00000550: 7cb0 6fc2 d0d8 723f 4bbe f2b6 3028 b6bf
00000560: fea4 26dd 894e b6bf 7a38 2f4c b449 bbbf
00000570: 8a51 7e2b 9ad7 81bf b938 192d 580f a83f
00000580: 4d52 1ecf 9fcb aa3f bc2b 6abf 5e00 963f
00000590: 70dc b4df e78e ae3f 732c 87cf 5cf5 bd3f
000005a0: 82fe c7c7 76fe b63f 478c d643 2890 8ebf
000005b0: 2088 0e08 2ef6 b23f 8435 c318 d316 b0bf
000005c0: 806c 537f d3b0 b43f 7e77 6ce1 c5b0 b13f
000005d0: c1fb f071 552d 88bf 2239 4811 20e4 c33f
000005e0: d059 5e05 6c54 743f 0133 0b63 9b61 af3f
000005f0: 12da 7b74 79d7 b83f 2b6e 14f5 632d b23f
00000600: 7e20 49a2 f8d5 ba3f 0705 f773 071f a43f
00000610: 9125 45cc 7367 c1bf 1771 2c38 91b0 aabf
00000620: c502 e993 9bda b33f 4ee0 a8b8 1edd 7c3f
00000630: bf0f f288 3157 bb3f de11 db98 18a6 963f
00000640: 8e4e 1f50 afc9 983f 8b57 994c 3353 ba3f
00000650: 6cab 978e 994f ba3f 8c4b 78c8 a47d a93f
00000660: b258 00fe 1b48 aebf cbb6 73f6 52bc af3f
00000670: 4d7c 0186 cfb4 bd3f 337a d7f1 ac3d 99bf
00000680: 01af 6ec0 df40 a6bf 249b e024 90b2 9f3f
00000690: 4125 e7af 7450 adbf ace1 9a7c 1c06 c33f
000006a0: bf1f cfab 8a2b b6bf 1b89 164e 13f2 a03f
000006b0: 3a3d cc00 181b 743f 8875 eafd 9bcb aabf
000006c0: b8bd 40f0 ba42 b73f 2147 0000 a15c c23f
000006d0: 49b7 d2a5 4f1f babf 2beb cc90 e070 99bf
000006e0: eb1e 1573 bec2 b13f 1ce0 ea7a ce43 bcbf
000006f0: 83b9 c14c d3b7 af3f afed e5f3 0db6 ab3f
00000700: 52bf cf90 1d80 933f e888 2b44 47b6 b7bf
00000710: 025a 5dd1 4c02 96bf e105 5e41 754f abbf
00000720: 7711 78b3 6145 a6bf b997 47b7 d5a8 adbf
00000730: af2c cf73 3e0a b73f 116d ae0b b293 8abf
00000740: 58f9 9f79 7ef2 7b3f d234 b85c 1c5d 83bf
00000750: d55a 5f62 1ea3 a1bf 0189 796e dac7 a4bf
00000760: ed85 4daf 1f8a a8bf 82b2 ee17 445d 653f
00000770: f1bb 597b 6518 b03f b5f0 8032 27f0 9d3f
00000780: e8d8 46ef 1edf aa3f dd26 6ff7 b2eb b03f
00000790: a301 ee91 77c0 7d3f 8277 8c69 e14f 963f
000007a0: 4405 c374 74ab 75bf 3e5e b33a e824 ba3f
000007b0: 5ad9 4654 a053 a7bf 7e30 a807 961d c2bf
000007c0: a49b 5bbe f756 a53f 53ec 9b77 b98c a33f
000007d0: ac72 e900 d29b 87bf 4431 fa90 6ac5 c33f
000007e0: 5536 43e1 7fa2 a7bf ea8a 6e95 36cb b23f
000007f0: 8622 f2eb b51c 87bf f387 ca8c 1ede b53f

fc21.weight f8 [64, 256]
-0.020658080128336784 -0.004949712779510366 0.04591484755625944 -0.13245682097422126 0.03137169105076408 0.06883109351300536 -0.09331773977009708 -0.07891915975867517
-0.03522121465255902 -0.05255131527178679 0.023312928061255435 -0.09099452391016495 0.05831018713898226 0.0010466748453005611 0.04624203683484345 -0.017625600924315806
0.09745654288815099 -0.11504545440755519 0.08890280733223348 0.037011453216581176 0.10886004772818045 -0.14723141774937445 -0.17294933405321966 0.024697701874260836
-0.0960068268524026 -0.01132648690143872 0.08348909328581999 -0.15354835771808087 0.01596915975311948 -0.08978035940765358 0.05998819014882755 0.12486369475663706
-0.03701571433490352 0.041526060798928774 -0.07442103696133835 0.03368867882972071 -0.08568936230962595 0.05959392329289388 0.03741547051877186 0.009647778090194714
-0.12768223967529582 -0.020997976044986526 -0.002747116220498967 -0.1423180095257479 -0.01920875928045032 0.02901441500532842 -0.058564121090531475 0.02366691649245819
0.014557180511541222 0.027641753250801156 0.07968548280674294 0.009625648865308227 -0.09961942188725137 0.05324387550443533 0.07745986622807757 -0.018916146259302203
0.04615906638441504 -0.009499839250962884 -0.08213378380170817 -0.07915817815059878 -0.12674972707009127 -0.006916893571749317 -0.16522887595616775 0.024144151988733584
-0.15638592125548076 0.03192524402625397 -0.13832046812230572 0.11943328100119749 0.04569629002950247 -0.0020934964744091476 -0.06632100818298714 0.05922371507826363
0.02974414615545684 0.07329683355225387 -0.025273278545535648 0.0561799698456238 0.014389154814476616 0.04342427164597189 -0.10327848103140025 0.1152703972220002
-0.011820690582276023 -0.0038873990867870412 -0.1263292005256076 0.0031717587126809314 0.08393114219967031 -0.15851758783617223 -0.1189440937135431 -0.05629617055378797
0.03497663336965486 -0.1701684499687444 0.07514933388475639 0.1054028178077236 0.026902112229263198 -0.16790809672914622 0.09708443707912058 -0.08776076108163161
-0.1171733513033045 0.028680180797189734 -0.012285356952195736 0.05016721297121978 -0.10311753535956272 0.0076934235030529765 -0.12520699399726382 -0.05396710133807019
0.0011212173436153656 -0.00815170224367012 0.039141334853516556 -0.01842305972297116 0.07907571402633007 -0.058704590893469764 -0.03108103436383271 -0.22052888419470876
0.039194084537810994 -0.06400113847421494 0.1253140403703275 -0.002416045025241447 0.13457848605519587 -0.037551793717845824 0.03759497489153341 -0.051419264305323356
-0.14768637266447926 -0.09878895422995414 0.02446384016634892 0.030888560990346235 -0.03745442482878782 -0.05086632956587047 -0.1270759000575104 -0.028595401524681784
0.02575250479686831 -0.02804320307186983 -0.036340367523908214 0.005886464221112789 -0.045041707447672996 -0.015042964671908044 -0.059865562113752796 -0.02429684956302268
0.041942747145038164 0.016146210314867054 -0.07537662803659767 -0.0007127409614566214 -0.03073260698354639 0.03999222750715429 0.03517599595360938 -0.15389667102296326
-0.11597168380202261 -0.07257430846789195 -0.0345789283768938 -0.022006050895822228 0.07432398708766702 -0.10545078839590688 0.06206646040024653 0.009498649247316865
-0.12585558518047454 -0.053653066510979404 -0.031419464168896745 -0.06964614638309057 -0.07047877227650395 0.054453629252718974 -0.11935974167659062 0.12415772350421149
0.001367971369001819 0.028867726948483975 0.024881147471351717 0.08297696877050063 -0.16153697437456938 0.01328679994233316 0.015018631239373281 -0.1073975637839201
-0.12006911176160893 0.021964186251033847 -0.00648999936933538 -0.1547285230591872 -0.0854769336825223 0.05488164021317793 0.009081662470118143 0.009078872014435996
-0.15359503536556077 0.03452019004179234 -0.016627261710103446 -0.14743712127973857 -0.033533772486338265 -0.11288862965702655 -0.10993098162045663 -0.014974931022652781
0.05777567869815162 -0.00023516814798090006 0.015438577546746433 -0.0321948005521673 0.034907526481650825 0.0336658570260237 0.027173280723387584 0.018585191584291633
-0.0333851024942067 -0.016610901723222927 0.0863131735588875 -0.10412719813828843 -0.08597815824021826 -0.014852674766116632 -0.011321779150139542 -0.00760623707510981
0.09532316034697433 0.031941223969133195 -0.021958103411165535 -0.12015921708371181 0.046674493860593434 0.07814390809765012 0.022484597543904764 0.004400114954699365
0.08158309737689894 0.013906279660777256 -0.078040111585667 -0.042586971324895945 -0.10188337264771287 -0.022713701524033753 -0.03173408070312598 -0.050935797035942434
-0.09485471346694807 -0.029044146667363654 -0.02710680520604515 -0.14142136964615204 0.05684375826391413 0.03725696297229134 -0.03339990827544725 -0.03464406257520849
0.0664613693888438 -0.01979453962943925 -0.08421774803856273 -0.016211071406304782 0.05712784706319252 0.005383804502238399 0.0025325850410278816 -0.07219734176252564
-0.13292506539867802 0.11193524556874083 -0.004882281829249938 0.052377569764014975 -0.08272683649931362 -0.018032830427256053 0.025553221351178722 0.0940236531572899
-0.07197431050091042 -0.019446064764227187 0.0149934524238876 0.007224259391171681 0.011429485759794657 0.013820632669562696 0.011421091108965642 -0.0036933444538861816
0.01844074959335499 0.03357114552645935 0.056154954934329995 0.008194426891620456 -0.052994502859185354 0.025731233645585147 -0.12084136285636579 0.07188806077036816
00000000: d989 324a 6427 95bf de91 3368 2646 74bf
00000010: e556 4fa1 2682 a73f 3bb3 1b59 58f4 c0bf
00000020: 6e9f 2a46 f30f a03f 2b16 961f ea9e b13f
00000030: 22ff 72e0 abe3 b7bf a2f9 30ca 0b34 b4bf
00000040: 22c4 1dda 8308 a2bf 0e81 e888 01e8 aabf
00000050: 4a6c 631e 58df 973f e92a 4fc8 6a4b b7bf
00000060: 0d36 9235 d5da ad3f b726 ba8e 1226 513f
00000070: b7e9 cf47 09ad a73f 6f4c 2b0e 720c 92bf
00000080: 595f 7c78 e9f2 b83f 6fe1 3b70 9e73 bdbf
00000090: 5bb8 039a 55c2 b63f 7109 494a 2af3 a23f
000000a0: 7e62 d588 40de bb3f 05b1 16a6 7ad8 c2bf
000000b0: bcd0 cf2a 3423 c6bf 2d61 58b7 5a4a 993f
000000c0: 0118 8645 e793 b8bf 1de0 8f56 5732 87bf
000000d0: f83b 3c8d 8a5f b53f 2578 60fb 78a7 c3bf
000000e0: 3478 892b 385a 903f 9e9f 7a7b d8fb b6bf
000000f0: 47bf aba5 c5b6 ae3f e0fe 6f2d 11f7 bf3f
00000100: 8752 0345 b9f3 a2bf 864f 2062 e742 a53f
00000110: 9523 e2cf 410d b3bf d060 a37b a43f a13f
00000120: ee24 bcf0 bcef b5bf daa7 2a3f 1883 ae3f
00000130: 1733 7cdc 1e28 a33f 13f9 02db 36c2 833f
00000140: 25bc d741 e457 c0bf fbe5 9451 7e80 95bf
00000150: 304d 69ca 1e81 66bf 68bf 45fe 7937 c2bf
00000160: 6805 a003 76ab 93bf 80e8 3d6e f4b5 9d3f
00000170: c50a 9bd1 1dfc adbf d63e 54e1 233c 983f
00000180: 0c97 c0b1 27d0 8d3f d27b dda8 1e4e 9c3f
00000190: 59f5 9e8e 4466 b43f af5c a2b8 9cb6 833f
000001a0: 185b 0d8f a880 b9bf 01f8 0100 c842 ab3f
000001b0: aabe 33e8 68d4 b33f cd41 3316 c15e 93bf
000001c0: b2e5 1141 29a2 a73f 077e 33d7 a674 83bf
000001d0: dd37 533b b806 b5bf c025 5eda b543 b4bf
000001e0: f97f 45c6 5539 c0bf 9aa3 e37a e354 7cbf
000001f0: 1815 4b45 3826 c5bf 4c9d b99c 3eb9 983f
00000200: 776e ac30 7404 c4bf b1e7 046e 8158 a03f
00000210: 85f2 792f 7cb4 c1bf 4c41 f4f3 2d93 be3f
00000220: 2e53 730e 8165 a73f f844 8a5c 6126 61bf
00000230: 8805 2fe1 69fa b0bf 9049 d11e 9252 ae3f
00000240: 40c6 f0db 3f75 9e3f 7ddd 01cf 94c3 b23f
00000250: 465a 4303 3de1 99bf a2bc 5afa 9ec3 ac3f
00000260: a216 c3aa 0f78 8d3f 46e6 24c5 b43b a63f
00000270: 5011 6962 7570 babf 93f2 435a 5c82 bd3f
00000280: 1d70 bc3b 7235 88bf 0d4d 377e 77d8 6fbf
00000290: 98c6 6424 8e2b c0bf eff5 22fe a8fb 693f
000002a0: f50e dde6 827c b53f f96f cce7 4d4a c4bf
000002b0: a151 8dc0 1e73 bebf 2d4d d606 dad2 acbf
000002c0: 83c9 e410 75e8 a13f 61a0 b66b 14c8 c5bf
000002d0: 1ee9 599b fc3c b33f 85f2 63d7 adfb ba3f
000002e0: 403d df30 3a8c 9b3f 81b7 1734 037e c5bf
000002f0: 9d94 3492 86da b83f b4b9 b73e 7d77 b6bf
00000300: 2677 cf9f 12ff bdbf 89e9 445a 565e 9d3f
00000310: 208b a2b2 1029 89bf 37f1 1556 84af a93f
00000320: 2a71 032a e965 babf cd30 70a5 2383 7f3f
00000330: 8a6f 3964 c806 c0bf d725 9d6e 93a1 abbf
00000340: fe6d a4f4 b95e 523f ffa9 58f4 d6b1 80bf
00000350: 1f3b 3c42 550a a43f 5479 029c 7edd 92bf
00000360: c0a3 a655 4e3e b43f fb67 0634 870e aebf
00000370: a55b 79e8 b4d3 9fbf 4d46 b85c 4a3a ccbf
00000380: aab7 923e 3f11 a43f 1f4d a7ec 6062 b0bf
00000390: 1262 8f5c 4a0a c03f 7177 cf4b d0ca 63bf
000003a0: cd16 2d2a de39 c13f 063c d91b fd39 a3bf
000003b0: 2160 4e07 a63f a33f eac7 2635 a053 aabf
000003c0: c853 5416 63e7 c2bf 67aa 9f9f 3b4a b9bf
000003d0: 18d1 cb85 0c0d 993f 899d 183d 40a1 9f3f
000003e0: 23d4 75f3 392d a3bf e3eb e7cb 260b aabf
000003f0: b2aa 6de9 0544 c0bf a63e 75e9 1c48 9dbf
00000400: 420e 9257 dd5e 9a3f 076b 4680 5bb7 9cbf
00000410: 7d61 1464 349b a2bf 509d 19b5 671c 783f
00000420: e033 e3e8 b40f a7bf 4de4 678a d8ce 8ebf
00000430: ccd5 deee b2a6 aebf 7c78 13f9 45e1 98bf
00000440: 1aad 950e 8579 a53f 3bda 06d5 a188 903f
00000450: 1cc9 4cf8 e14b b3bf d55d 5b8f e75a 47bf
00000460: db1d a957 5e78 9fbf 058f 797a dc79 a43f
00000470: a930 7390 9602 a23f 09e2 80d8 e2b2 c3bf
00000480: e015 31fd 51b0 bdbf da3f 66d9 3a94 b2bf
00000490: 40db 044d 54b4 a1bf 4a8c a513 c188 96bf
000004a0: 2c90 d995 e506 b33f 3472 7fa7 d2fe babf
000004b0: 7df0 31d3 2cc7 af3f a3b9 fc1e 0774 833f
000004c0: 073e 2f2b 091c c0bf 6952 fd2b 6a78 abbf
000004d0: 0163 2046 3616 a0bf 5bff 0171 54d4 b1bf
000004e0: 9464 fd95 e50a b2bf 8aef 9399 58e1 ab3f
000004f0: 43c0 f52a 5c8e bebf ff13 fff1 ccc8 bf3f
00000500: 66a8 ab12 b069 563f 6a48 9d5c 808f 9d3f
00000510: 7da4 b48a 717a 993f 7fc5 3087 fa3d b53f
00000520: e04b 045b 3ead c4bf f93a c419 1c36 8b3f
00000530: 33c4 0790 16c2 8e3f 1a3c 1f20 687e bbbf
00000540: 07a0 466c d9bc bebf 0d99 8696 c77d 963f
00000550: 927d adf0 4195 7abf 7517 26ed 24ce c3bf
00000560: 4092 bafa d0e1 b5bf b89d bb43 7219 ac3f
00000570: 5874 6b1a 6899 823f 30b3 1793 f197 823f
00000580: cd8c dc8a 00a9 c3bf d6f9 8f5e a1ac a13f
00000590: 6655 11a5 bc06 91bf 4a72 0e37 38df c2bf
000005a0: 00d9 47b0 562b a1bf 6b99 77ec 44e6 bcbf
000005b0: 9585 e0d2 6f24 bcbf f966 0438 2dab 8ebf
000005c0: 2489 0615 c694 ad3f 1e06 6002 efd2 2ebf
000005d0: dfc0 47cd 429e 8f3f 0313 f23e d67b a0bf
000005e0: 8cf2 3e39 66df a13f 9750 d6b5 a63c a13f
000005f0: 8dbe 2000 50d3 9b3f 457e 2d18 ff07 933f
00000600: 64bf c526 da17 a1bf ad1c a2be 7202 91bf
00000610: ab3e a6c1 9e18 b63f 99c8 a07e 14a8 babf
00000620: 88e2 cf21 aa02 b6bf 045d 0743 146b 8ebf
00000630: bf85 7579 df2f 87bf 3144 bbb7 b727 7fbf
00000640: bada 3d40 1967 b83f 3aeb aea0 995a a03f
00000650: fbef 2160 2f7c 96bf 7100 b023 c1c2 bebf
00000660: 6390 6021 b8e5 a73f b639 a939 3d01 b43f
00000670: 448c 75cc 3306 973f 68e3 43dd da05 723f
00000680: cfe1 233f a1e2 b43f 2e09 d142 e57a 8c3f
00000690: 9d60 09cf 6ffa b3bf ecf8 26a2 f5cd a5bf
000006a0: 1132 8759 0715 babf c508 deb4 4242 97bf
000006b0: edbc 930d 733f a0bf 321d eebc 4114 aabf
000006c0: 2845 3604 6648 b8bf 3f64 4eb0 bfbd 9dbf
000006d0: 649f 6fe7 e2c1 9bbf dcf9 ca6e 181a c2bf
000006e0: c752 7305 a01a ad3f f54e 073b 5813 a33f
000006f0: 1f03 77f3 ca19 a1bf a3ae 85d7 ddbc a1bf
00000700: 1df3 f8bf 9c03 b13f 482a 6411 0545 94bf
00000710: 5782 9159 4b8f b5bf aec1 1796 a299 90bf
00000720: 1194 a775 dc3f ad3f 7424 3e04 540d 763f
00000730: 8522 9e3d 37bf 643f 2d6a ba65 867b b2bf
00000740: a95d 5a44 b003 c1bf e3ca fcca c9a7 bc3f
00000750: c46f 958c 71ff 73bf c05d 5c9a 3bd1 aa3f
00000760: 8c1e 4401 962d b5bf 6dec c1c3 3277 92bf
00000770: 1305 0ba8 9f2a 9a3f f96a 5c23 ef11 b83f
00000780: 49e9 c08d e86c b2bf 0603 cb50 abe9 93bf
00000790: ba90 841e e3b4 8e3f 979c 2a5d 2f97 7d3f
000007a0: ce27 639c 5768 873f 883d 9bea fd4d 8c3f
000007b0: 1393 61e6 f063 873f 64c1 8d34 8141 6ebf
000007c0: 8a32 abc1 21e2 923f 6134 40b8 3c30 a13f
000007d0: f210 e79d 57c0 ac3f 5460 125c 3dc8 803f
000007e0: fbc3 4b71 1822 abbf 1c5e f9db 4959 9a3f
000007f0: 7edf 78a5 75ef bebf 9a49 fb85 4167 b23f

fc21.bias f8 [64]
0.04509089139754629 0.02690204740755626 0.002798190588094493 -0.0508524480788346 0.07492531119584764 -0.02017280286020675 0.028527817610853372 0.05119270494502364
0.019211379308065518 -0.02620455556365821 0.055972598866738804 0.05913265583907308 -0.043755427015186275 0.043441241679505575 0.018635966985359777 0.06389101421445992
0.03327071458451601 0.049423479261790776 -0.04377229421151258 0.02638478824095158 -0.051627225384091785 0.049403329044991895 0.010514985538666047 0.07433447976407065
0.03935247148077203 -0.0420437424396511 0.031108717076273933 -0.02360021280884863 0.005296711647218931 -0.035788992999090774 0.054968576404498974 -0.012811422059908976
-0.057010569132532274 -0.050573768785274344 -0.00020803854067926158 0.03307659483887393 -0.05117332683248448 0.06519069974294057 0.021147165162105398 0.008906020249028854
-0.00043352302060532577 -0.04313823217736437 0.014741061664495243 0.0395270225106711 0.04534718254733601 0.0036552433045400124 -0.010800357855887665 -0.04511436284782537
0.042707858655087624 0.0037489042979120114 0.05274469671864867 0.06490820171945193 0.031864050562454796 -0.02948372555034917 -0.0033459621177442714 0.027164748521776336
-0.04010898376653911 -0.03564458872822931 -0.027919994245087145 0.008609535559879353 -0.03346334714097619 -0.049739464858436 -0.0443737902950014 0.03023415043587216
00000000: 1fc6 cc3f 2716 a73f 735b 3ed7 358c 9b3f
00000010: fafb 0a22 3bec 663f a01b d702 5509 aabf
00000020: de91 3a21 4e2e b33f 6685 36e2 2da8 94bf
00000030: 2ed3 a86e 6536 9d3f 07b8 1023 ee35 aa3f
00000040: 4855 5bd7 25ac 933f 25c7 9bf4 5dd5 9abf
00000050: 64a4 35c3 70a8 ac3f aaac e8ad a246 ae3f
00000060: bb00 1b80 1c67 a6bf 9f49 9f30 ee3d a63f
00000070: ca02 ed92 4e15 933f 4c33 8f58 295b b03f
00000080: 0e2f 1cee db08 a13f 4cf8 2ac6 084e a93f
00000090: f9fa 3778 5269 a6bf bf55 6d2a 9d04 9b3f
000000a0: 0c3e 3739 e26e aabf f09f 1fa5 644b a93f
000000b0: 4847 0d78 e188 853f 8446 8d9f 9507 b33f
000000c0: 20aa 0dd4 0126 a43f 3a3b 8fe5 c186 a5bf
000000d0: 5e3a daa9 f6da 9f3f c644 c578 a72a 98bf
000000e0: 2580 d134 01b2 753f d0c9 f954 ef52 a2bf
000000f0: 8714 ee5b d724 ac3f 1cba 19f6 df3c 8abf
00000100: 88b1 e643 7d30 adbf 65ba ef15 cee4 a9bf
00000110: 603a 0175 9d44 2bbf b027 315a 6aef a03f
00000120: b798 58ea 6333 aabf 9137 6673 56b0 b03f
00000130: 0df0 183b 9aa7 953f 3820 a8cd 513d 823f
00000140: d56a 1032 4f69 3cbf 046d d1e0 3616 a6bf
00000150: 2401 0fce 8f30 8e3f 72b1 fbc9 e23c a43f
00000160: 8a5a 03f4 be37 a73f cd25 76ce 99f1 6d3f
00000170: d985 357e 7f1e 86bf 76c7 05d2 3a19 a7bf
00000180: 8e5d 69f0 cddd a53f 5f28 5fab 05b6 6e3f
00000190: 7f58 e356 5a01 ab3f 4b91 a0eb d29d b03f
000001a0: 42ec 2a1e 7c50 a03f a00f 0354 fb30 9ebf
000001b0: cbd9 d1bb fd68 6bbf 4937 056a 13d1 9b3f
000001c0: 5a2d 1b2b 2a89 a4bf 83f6 bbed 0140 a2bf
000001d0: 37a6 bf18 0f97 9cbf d8b4 4e4d e0a1 813f
000001e0: be9d 2b9b 1b22 a1bf 8869 c67d 7377 a9bf
000001f0: 1bb2 3b54 29b8 a6bf 58ae 607d b3f5 9e3f

fc22.weight f8 [64, 256]
0.024523702038518242 -0.04860734514727724 -0.0031673569699236324 0.024361914085469262 -0.015131139774127418 -0.04344949225161319 0.055257155035065654 -0.004502421936847351
-0.043897670680638316 0.05274673326725888 -0.04925567156989375 0.025365433710156496 0.04371506491663705 -0.004842631338905804 0.02690451796024735 0.024328084545419584
0.0181223848524405 -0.004359824535599992 -0.002397098359577132 -0.051483051979439094 0.04575675741952794 -0.042517665577849334 0.005754650437473236 -0.04162074628255079
0.017244208394503222 0.04637310408958567 -0.023734390084893045 0.027703137124059616 -0.036306122116295046 0.023218409041758353 0.06735476190146485 0.0495909683206964
0.01293455856015625 0.017850245322821673 0.03155145525122481 0.03847202723813189 -0.018785547700569373 0.03608962222616143 -0.02646177625692222 -0.05772667075227977
0.03216740689155309 0.006609378917072734 0.007155667797237878 0.011898443267343734 -0.04723123536755452 0.05425491047199945 0.03786194073306587 0.010649867124679264
0.035975609202418705 0.006203407293231955 -0.06597922131886284 -0.009580422051864323 -0.031534514104402216 0.010066706251321758 0.00401838031838692 -0.012841196420551723
-0.04244516869935184 0.0012727850903041906 0.054015370619847944 0.042031792688119726 0.018711331063344553 -0.03276451546640102 -0.031563433114483765 0.03588964757423589
-0.054338312278089274 0.055485385702516474 0.041287800123269304 0.05741974161059657 0.034156762537602754 -0.01481396514246234 -0.0345039023968793 -0.03953719687496868
0.01782341775420539 0.019287724043802874 0.026167756651162 0.016057423958160327 -0.04147560919854256 0.040346920195866866 0.018065284121457883 -0.04329304720587149
0.061231946919399836 0.00778299692532215 0.060916858831382106 0.006162208051272347 -0.019567165200709984 0.012874409696504911 0.016664097660902415 -0.011348547175531139
0.01861310038254924 -0.05276043378452986 -0.010397638704567365 -0.055236865124771835 -0.030604332514410408 -0.01012072203081758 -0.024782257937333855 0.04408254582700719
0.015019641186514457 0.013283596763602128 0.036855694636236606 -0.03015394259060632 -0.014464986653491758 -0.01546685659525002 0.003273596227932829 -0.06029945391074902
-0.02035226078413138 0.051131945697756115 -0.02873077124621923 0.017836387955253503 0.0020946212098732334 0.030979602440182222 -0.03335211894802002 0.05964451985096374
-0.030609379134682337 0.034853012946303906 -0.01922750774688726 -0.0001650323469851251 0.03652610142683505 -0.058246714984666347 -0.02530274136061478 0.059549609544255866
-0.04711625856250856 0.010848993388178517 -0.047532602516258224 0.005688233760276125 0.0021320347667288793 0.038579825667496126 0.054856168579280135 -0.037926213456521266
0.015996418424711785 0.013795889146960033 -0.0468067037616404 -0.018937983448816902 0.03155221965367519 -0.020507208255157738 -0.07205315577685048 0.04920681169986375
0.00802225994848019 -0.02235724694087247 -0.022748676636268554 -0.01326208919968319 -0.041778880394228536 0.000789812026683553 0.04109193296061088 -0.05139004901383811
0.011421765938510532 -0.05963775013086457 0.017497903945517555 0.021322169062917895 0.006498139806390548 0.06863344326103812 -0.012851959157623079 0.0345668497555271
-0.02710707778026422 0.06829873122256348 -0.017924869160839414 0.002244756598345324 0.02180457663724793 0.06341578455238564 0.05622656004742675 -0.062468768897886405
-0.03680974950111001 -0.006612763663395681 0.02296394789007599 -0.029950934308104023 0.024781277210712365 -0.041360805453575275 0.06675948402945363 0.028792277027120693
0.014252480490330701 0.042986866427095 -0.06528026761609335 -0.007394330965980721 0.03489165920636626 -0.04798856876114133 -0.006982277001718635 -0.01053488991410668
0.06001479152333357 0.016734517416685107 -0.04135312933963355 0.04174280840242938 0.033487257899657605 -0.038514917555540006 0.028333241849272685 0.025532595887797587
-0.02852032414064997 -0.014193865873856867 -0.03518110475319602 -0.04319761365176828 -0.03422728113789214 0.027375594587083676 0.005818675107537663 -0.06896244589233784
0.014387401594221314 -0.03027431796892407 -0.05412665215009439 -0.03273691490110458 0.05313411336891052 0.017789901606748062 0.0041787089649872 -0.03455374044808313
0.008489847481572024 -0.003999399029260902 0.032253912605474354 -0.0011778258355806949 0.015551976367479953 -0.02297056809420003 -0.05075994707132888 0.0030959192166933
0.06702681898663077 0.05569653293607831 -0.023461860634083433 -0.049653390527006964 -0.01925032132225585 -0.03080862017280339 0.013651662594009724 0.019368391807275787
0.03763587247400598 -0.038841274315824625 0.04824623081103218 -0.0029471913774743704 -0.01653854202021218 0.00429147243170439 -0.0036256494297515663 0.025449443474170882
-0.01312397919844658 -0.011747160213558835 0.040683423632045794 -0.01210982352301116 0.006403140415855518 -0.006709299060188409 -0.05880994238048638 0.011922562893291225
0.044259978822960164 -0.02693884504050261 0.0214819626785744 -0.005120100267456192 -0.049898156305694254 -0.0042674434272010195 0.02760116126046489 0.03842863092255518
-0.03707639086828934 0.039794872865210565 0.018318707763245016 -0.023003203139906888 -0.06916320764840128 -0.01399583239121407 0.03937358441540358 0.01979754546131442
0.057004820829650735 0.020553825128393134 -0.00440194353896874 0.02890485952054207 0.024329188961263532 0.034749389008491394 0.00337952780343801 0.023306992577177187
00000000: f5db edc8 bd1c 993f 5c81 81db 0fe3 a8bf
00000010: d4f2 37d3 6df2 69bf da69 0f61 54f2 983f
00000020: 9141 d933 13fd 8ebf 4d39 7f08 033f a6bf
00000030: 6dc0 7d73 aa4a ac3f 7a7a 8baf 2171 72bf
00000040: 6f49 e367 c179 a6bf c119 b5ac 9e01 ab3f
00000050: 2107 1215 0a38 a9bf f497 ef70 65f9 993f
00000060: 75a6 512c d261 a63f dd8c a2f3 ddd5 73bf
00000070: 3200 04a3 db8c 9b3f 64d3 fc1d 76e9 983f
00000080: f028 11a9 ac8e 923f df48 bf7c 9bdb 71bf
00000090: ffe3 e861 14a3 63bf 3994 1991 fc5b aabf
000000a0: 8731 6001 6e6d a73f 3479 511e e0c4 a5bf
000000b0: ed9b dc36 3092 773f 36c2 3c80 504f a5bf
000000c0: f931 663c 77a8 913f e821 f52a 37be a73f
000000d0: 940b d2f4 d34d 98bf 291b c70f 365e 9c3f
000000e0: c3a4 444e b796 a2bf ab7d ff0d 91c6 973f
000000f0: 99be 9863 293e b13f cc8d 3ac6 fc63 a93f
00000100: c654 0810 6f7d 8a3f e862 8caf 5547 923f
00000110: 9ef3 e328 8327 a03f cbe1 9805 9bb2 a33f
00000120: baaa 0bc4 843c 93bf 536a 5fc6 567a a23f
00000130: 165f 78be cb18 9bbf 4fdb f9a5 598e adbf
00000140: 3454 3111 3f78 a03f 2d2f bba4 6f12 7b3f
00000150: 910b b9f2 424f 7d3f 1d05 a705 365e 883f
00000160: d7b3 8146 b12e a8bf 8bd1 3fb4 4cc7 ab3f
00000170: e857 6cea a362 a33f 6ad5 0ef8 98cf 853f
00000180: efc4 f421 656b a23f dad2 2b77 be68 793f
00000190: 23b2 c7a5 03e4 b0bf 2036 287b e69e 83bf
000001a0: ef1c 8cb5 4a25 a0bf 75de 0571 da9d 843f
000001b0: 4548 cec0 9375 703f 0b9e 5735 7c4c 8abf
000001c0: d9b3 df86 5fbb a5bf b4c2 9c95 72da 543f
000001d0: 4e4e 9614 e7a7 ab3f 3eb7 f9ed 3085 a53f
000001e0: 2141 ed2b 1029 933f 5082 cbb4 82c6 a0bf
000001f0: 55cf f311 1529 a0bf 664f 31bd 2060 a23f
00000200: 10f7 4e34 3bd2 abbf 2e1b ff99 9468 ac3f
00000210: e5a6 81ae ac23 a53f 1c7d b9d0 1e66 ad3f
00000220: 498e 12c4 fe7c a13f 75d8 7cbe c856 8ebf
00000230: b308 c2d8 7eaa a1bf dc64 1b2f 383e a4bf
00000240: 05d5 6d51 4d40 923f e5fb ed3f 29c0 933f
00000250: c00f 1b6c b8cb 9a3f 3b81 087b 5b71 903f
00000260: 13c8 2d82 4a3c a5bf a59c 78fd 59a8 a43f
00000270: f77a fab1 b47f 923f 046c c99b 812a a6bf
00000280: 637c fa32 cb59 af3f 8d62 2554 10e1 7f3f
00000290: 3263 e998 7e30 af3f 9d61 d220 8b3d 793f
000002a0: 9b2d 733a 6a09 94bf 4f79 d004 e65d 8a3f
000002b0: 6b3a e2a9 6410 913f 44e3 ce37 e83d 87bf
000002c0: 994c ae05 500f 933f 4d31 4163 6a03 abbf
000002d0: 51af 8871 5b4b 85bf 9929 7da2 0148 acbf
000002e0: 5eab 0ffd bd56 9fbf 36fb 1251 2cba 84bf
000002f0: 1192 722d 8560 99bf 8d86 4dc9 fc91 a63f
00000300: 88c4 8c1d 9ec2 8e3f 3c25 622d 6e34 8b3f
00000310: 7f9b 44e6 bfde a23f 7da5 16d5 ace0 9ebf
00000320: 571c e9a4 d19f 8dbf 72f8 fc59 16ad 8fbf
00000330: 802f a897 3ad1 6a3f b6d2 06ed 91df aebf
00000340: 4fba de19 39d7 94bf dcfc 1a65 f72d aa3f
00000350: f9c2 906b 996b 9dbf d24c c9bb b343 923f
00000360: dd56 0133 bd28 613f b16e 4bed 1db9 9f3f
00000370: eda1 4468 8713 a1bf 8e80 4afc b989 ae3f
00000380: 6759 56a9 1058 9fbf 2bfa 8a0d 41d8 a13f
00000390: 336c d333 60b0 93bf 3649 f010 91a1 25bf
000003a0: e942 2896 8cb3 a23f 5bca ea6f 83d2 adbf
000003b0: 316b 923a f6e8 99bf 28dc f652 497d ae3f
000003c0: b08e 454b 9f1f a8bf dfbc 5f3e ff37 863f
000003d0: 4e29 9a7a 3156 a8bf d5e7 8e9f 8b4c 773f
000003e0: 3fea 1a73 3377 613f 48f7 0d23 bcc0 a33f
000003f0: 6451 1094 1b16 ac3f 62eb e98c 106b a3bf
00000400: a2f6 f277 5d61 903f f0ba a4e5 0441 8c3f
00000410: 9d94 c75b 0cf7 a7bf 1b6a 428e 7a64 93bf
00000420: 74b7 0ecf 9c27 a03f 6314 2773 d7ff 94bf
00000430: 429a a25b 1372 b2bf 9291 fb9d a231 a93f
00000440: 522a f380 f96d 803f db31 c271 d1e4 96bf
00000450: be5f b8d8 6d4b 97bf bf3b 1d7b 2729 8bbf
00000460: 85d5 e999 0a64 a5bf 4946 8c69 6ce1 493f
00000470: 92f7 6378 000a a53f 1b63 b5e7 cb4f aabf
00000480: 8706 5979 4b64 873f 0e92 d6d4 d688 aebf
00000490: 6637 c774 f8ea 913f f055 388b 7ad5 953f
000004a0: dca5 401f cb9d 7a3f d6d0 371a f691 b13f
000004b0: 1112 2cc2 2052 8abf 7993 7302 bfb2 a13f
000004c0: 40b7 3932 f5c1 9bbf 698e f590 067c b13f
000004d0: 52d3 529b e55a 92bf ed0a ad85 9863 623f
000004e0: 4d8c 3d5e f053 963f bae2 b350 043c b03f
000004f0: 7efb 2349 bac9 ac3f db27 e00e e8fb afbf
00000500: 0bfc 8f3c bad8 a2bf f235 ba3a fc15 7bbf
00000510: 6e1f b374 dc83 973f df0f 5a2d 75ab 9ebf
00000520: 4b46 b15c 4360 993f 26c6 8455 3e2d a5bf
00000530: dfb5 9a48 2617 b13f 36de d500 b97b 9d3f
00000540: 4e27 be8c 6730 8d3f 4a7d ece2 5f02 a63f
00000550: 4439 7c26 35b6 b0bf e584 cb9a 8449 7ebf
00000560: 2e98 63ce 51dd a13f f167 d22a f591 a8bf
00000570: a1e1 fbb5 7299 7cbf 0534 2ffd 5093 85bf
00000580: 62ea bc3d 42ba ae3f 0876 1374 da22 913f
00000590: 33b4 33c4 3c2c a5bf 5ffe dc39 505f a53f
000005a0: b603 06eb 3d25 a13f eb4c 9e2e 3ab8 a3bf
000005b0: a775 87ac 6303 9d3f abc1 4781 3725 9a3f
000005c0: 3e57 d28d 6e34 9dbf 4b30 db6d ac11 8dbf
000005d0: ff49 b4fc 4103 a2bf c996 cc63 ff1d a6bf
000005e0: 888a 3cfa 3c86 a1bf f41e d70d 5908 9c3f
000005f0: 9ad0 afb4 52d5 773f ab7f c2d9 85a7 b1bf
00000600: 65a2 925a 2477 8d3f 9747 5716 3b00 9fbf
00000610: 323b a711 7db6 abbf 478e be95 e4c2 a0bf
00000620: e35e 71fe 6434 ab3f 1771 6616 8437 923f
00000630: 1b86 81a5 b11d 713f 81a4 5b22 07b1 a1bf
00000640: 0e44 400a 2063 813f 529d 8c80 ac61 70bf
00000650: dbfa 9db7 9583 a03f 3ed2 6ddc 284c 53bf
00000660: bd88 17ef b6d9 8f3f f7c5 f0ba 9885 97bf
00000670: db70 3c31 35fd a9bf 351a 2df9 9c5c 693f
00000680: 40a3 806b ab28 b13f db0d ec86 4184 ac3f
00000690: 2abd 81d0 6206 98bf c9e4 e550 2b6c a9bf
000006a0: 71fa 1032 5bb6 93bf 20ed 4e80 4b8c 9fbf
000006b0: f7b4 0423 67f5 8b3f 40af 8dc5 4ed5 933f
000006c0: 1b54 dd52 0245 a33f e0c5 d7e5 00e3 a3bf
000006d0: 6f30 fade bab3 a83f 3a0e 9a52 b524 68bf
000006e0: b7bd 66c4 7aef 90bf a606 ef5b ef93 713f
000006f0: 690a 48b7 89b3 6dbf 9f1d b13d 6b0f 9a3f
00000700: 140f 9bab bee0 8abf 8b3e 8127 e50e 88bf
00000710: af57 fa2b 75d4 a43f c3ed eeff 08cd 88bf
00000720: e03f d8ea 2d3a 7a3f bd75 aec0 357b 7bbf
00000730: da5c 6836 561c aebf d583 b04d db6a 883f
00000740: aeed 2173 3ea9 a63f c68d c349 db95 9bbf
00000750: a42b a21c 5eff 953f 4827 3773 d0f8 74bf
00000760: ed63 ed4a 408c a9bf 2f57 511f bd7a 71bf
00000770: a901 c893 7a43 9c3f 3bb9 15e2 eaac a33f
00000780: d74d 773c adfb a2bf 5255 025b fe5f a43f
00000790: d112 feaa 23c2 923f 1faf c1d4 268e 97bf
000007a0: 04b4 ef12 aeb4 b1bf cd59 34d3 d8a9 8cbf
000007b0: 8be9 c742 c628 a43f 858e 30c9 ce45 943f
000007c0: 1efa 5a62 bc2f ad3f 6ac5 efda 0f0c 953f
000007d0: 948d 9eb8 c507 72bf 7345 5849 3c99 9d3f
000007e0: 3513 b53b c0e9 983f 48e5 b102 acca a13f
000007f0: 4eb7 882c 62af 6b3f 8661 8ccb c9dd 973f
