weights/model_30_smg_w_lims_opp_pen_dgoal_obs_l_all_1_bn.pth (torch, 555954 bytes, 18 tensors)

fc1.weight f8 [256, 8]
00000000: 4cab c0f0 a59d bbbf 7a35 4a6d 0857 d6bf
00000010: f0a7 83a6 0686 d23f 51b6 d100 403d c83f
00000020: ff1a d27f 5c96 9ebf 3f14 8210 1436 d6bf
00000030: 2c68 a371 6be4 d33f 95ef f709 b028 b1bf
00000040: bd7c 66c4 6c17 c83f dcd1 6b14 9d87 b33f
00000050: 1108 2cd6 4c05 a7bf 99c0 70a2 fe25 963f
00000060: 2df2 d65c 47cd c13f ff93 db41 a7ec b53f
00000070: 9e15 ebde b166 c13f f43d 8943 66c3 c93f
00000080: f561 fcc5 a54e c93f 8aa6 de68 751b cb3f
00000090: 6a50 7b20 ed27 d0bf d4a7 2679 c1d4 ce3f
000000a0: d8ba ce21 d8f7 d63f c3d5 c4ee f15f d93f
000000b0: 8351 5571 70ca d1bf 71b1 48ff ce57 cfbf
000000c0: 2bd0 eadd 9379 d13f bf58 f221 ddbe d1bf
000000d0: ea18 27dd dc2c d83f 2ce1 9c20 d402 b43f
000000e0: 5230 065a f4f9 d1bf 434d a473 8237 babf
000000f0: b1ff 5c54 126e bd3f dbb6 a7ad e671 bd3f
00000100: c638 87fa 3961 be3f e80e 893c 0e8c a8bf
00000110: c6c0 f56e 00cd c63f 701e 23e4 dc76 d43f
00000120: 26ea ff35 8c2d cfbf e5fa b75f 9909 c93f
00000130: 68a9 f334 b133 afbf 6703 63c9 883b c53f
00000140: 90ec a104 ec48 d1bf d369 3b73 7127 ce3f
00000150: a30f be8b 9e07 c3bf 6fe3 33df 59de d23f
00000160: 7491 ed1d 2b2c d53f 1c50 40f4 0e6e d0bf
00000170: 1d2a 9832 f8b7 c0bf fbcd ac19 98db d2bf
00000180: fe45 ed21 8ab9 d43f d9ec 8952 4390 db3f
00000190: 9c82 dc58 7428 c2bf 859c 45d6 a120 c93f
000001a0: 50b2 0f5e e815 b03f 0682 993c 0cd1 b33f
000001b0: c32c 9d75 4ba5 d23f afd9 22de 2928 b13f
000001c0: 0e16 879d 9be7 cdbf 6ea7 4fed 6532 d8bf
000001d0: 3e1f b479 651f cbbf 3de6 2a11 bb75 d1bf
000001e0: f186 f63e e3bf c9bf 3d83 1425 ca6b d13f
000001f0: 779f a648 19b5 ce3f 0771 5c9d e420 943f
00000200: 12ab a396 74e0 bebf 8cfa 3545 7906 d8bf
00000210: 90cc 20a3 760d d3bf 8af7 76f1 a1b9 cebf
00000220: 7835 5221 4bb4 c3bf 41b5 6b40 fea3 d33f
00000230: 7cc0 e9c6 310d b8bf 3179 1623 bc4b cb3f
00000240: b520 ef81 da44 c7bf 9b8b 0a5b b31a cb3f
00000250: 9042 4871 ebb2 c1bf f433 10eb a0c9 c13f
00000260: abb9 58b2 fc62 d93f b84c 3043 f846 7cbf
00000270: dce4 98dc df1c b9bf 7b70 e834 5e55 ab3f
00000280: 95f8 5f36 5d89 db3f 0adc 0f7f 6232 bf3f
00000290: 79a8 ff67 77df ac3f c46a c99e 9b96 bcbf
000002a0: 1d47 a463 a897 d13f fd55 0928 2a84 c9bf
000002b0: 4074 7365 a94b c6bf 039d bb06 882a d1bf
000002c0: 26d6 3ce8 df63 c93f 26c4 1214 2417 d2bf
000002d0: 5c83 dcee a9cc d93f 79c6 91f4 e8b9 b33f
000002e0: e107 5fad dac0 ae3f 43a4 cd8b c38b c8bf
000002f0: 6f0e 648e 0812 abbf 49db a9b0 3a94 bf3f
00000300: d7ed 8188 7a55 503f fa64 d67d 8fe6 c3bf
00000310: ab30 b127 601c d83f b54b 348e 4aa9 d4bf
00000320: cf61 ca7b ef53 cf3f d074 267b 29af cabf
00000330: ea2b 0e8f a0fb ca3f c62a 36fd b8d9 d23f
00000340: abae b437 c972 d4bf e147 73ab 84ee c0bf
00000350: 95ee 57ce 078c d73f 7357 ca62 2e43 d4bf
00000360: 6870 3ddc 0446 d3bf e5eb 8060 27a1 d4bf
00000370: 5add 29ee 91a9 c83f 2ff9 3b62 3695 d53f
00000380: bb6e ad5e cbe7 cf3f 6b18 bd06 462a b33f
00000390: 0f19 be75 4ab4 c2bf a02b 284c 84b5 ccbf
000003a0: 9752 98df 2d86 b4bf 13c7 5cf2 181d cdbf
000003b0: 5c72 23a5 0b88 dabf 273c b044 4242 cc3f
000003c0: 3dbc 0a3b cd4e cdbf e020 29ae f0d6 abbf
000003d0: c0c0 b55f fd6b c73f fdb2 26fb 511d cabf
000003e0: 4674 b3bd 470b 7b3f f82d 1c47 5535 cb3f
000003f0: 40a0 dbd0 c3a0 d4bf 6d6e 007d 22ed 9bbf
00000400: b4b9 7d2a a001 cebf c6ac 4706 44b1 adbf
00000410: 0059 11e8 9a24 d33f 7a32 2f82 c469 92bf
00000420: caf2 73d8 5260 a33f bb0c 0eff f631 b43f
00000430: 9922 c993 0c4e d23f 07b6 af89 40ba d0bf
00000440: 5b64 7c16 82b9 a43f 616d 1f66 ed1d c23f
00000450: a8ec 4b26 0a9b c2bf 2e55 7363 b3c8 bebf
00000460: 1281 096f a6d4 d63f a959 c480 b771 b0bf
00000470: 2996 3953 ce32 cbbf 0152 b310 4465 b53f
00000480: 8396 3652 1478 c73f 3d47 341c 1a53 d43f
00000490: 2e8d 8c87 10f9 b63f bd78 9d24 5f09 d2bf
000004a0: 7f5f 6d1d 8b11 d53f 3d82 3942 f168 d03f
000004b0: 1ca1 2d6c 5b2a d5bf f77a 3545 2dbb bb3f
000004c0: 8af7 3e80 53f0 c53f a0a5 8f9a a186 be3f
000004d0: fb99 17e4 c1bb c0bf db73 e6a5 606c 353f
000004e0: 402f de55 b076 db3f d0c3 04fb b0eb cdbf
000004f0: d6d9 aea3 4d8e b5bf 502f 1862 5ec9 a03f
00000500: ed05 dc54 9e45 973f 20a1 ee85 16bc d4bf
00000510: 93f4 4425 40e3 b3bf 8d7d 1614 8af2 853f
00000520: 19b7 39f0 acba b5bf 364d 8b37 c1ad be3f
00000530: 75db 1a47 15c6 b0bf d756 f3d2 d978 c23f
00000540: 2e35 a9cd 6512 babf 31df 42d0 757f d0bf
00000550: 378d 6019 cd19 d23f 3636 8240 0b2b d2bf
00000560: d99d 3de3 5833 ccbf 2f4f 2d9f b8b1 d7bf
00000570: cbb3 94a3 329d ce3f f0c9 c749 ae2d a43f
00000580: 03b6 e7e8 bec0 cb3f a4dd 7fd1 70e8 c53f
00000590: f747 aa63 4016 93bf 8857 f0d1 68af cbbf
000005a0: a9b8 7f32 888b cebf 326a 2262 749c d13f
000005b0: bf82 0adf 0402 d73f 619d aa75 fa1c b23f
000005c0: 8037 88a3 471b d3bf 2039 d930 014f d2bf
000005d0: d62c de91 eb2b d73f c2b6 aa4d a289 d73f
000005e0: 0af7 80a8 45ce a4bf 8158 02b4 80c9 d23f
000005f0: a762 1367 4c93 c6bf 78d5 ec2a b110 c0bf
00000600: e53e ce21 aba5 b5bf 7f8c 3480 2a1e d73f
00000610: 56ee 8604 ff1e c73f bd2e 5eb5 d2c4 903f
00000620: 7608 4d1c 5f52 673f ce73 a8c3 a054 8f3f
00000630: 9292 790f 1196 c53f 9563 8e78 398e 9d3f
00000640: 115e a98c 4583 86bf 02b0 2c95 3739 a0bf
00000650: 43db 9e49 76c4 da3f a103 1fb4 369b 7abf
00000660: bfc2 2eff de69 d23f 1e52 f01f 30fd d13f
00000670: e84c b53d 79db c9bf 7d0b 0cc9 a17f d1bf
00000680: 97c7 d1a5 d3da c4bf c5c0 d99c f6e1 a33f
00000690: 6d97 c70f c774 cc3f e735 b34e ea36 cd3f
000006a0: 31c4 c151 5a2e b8bf b4ed b830 09d3 b9bf
000006b0: 2bbe c693 d1bc d63f 7ebf dd9b f429 be3f
000006c0: 58a4 96dd b34d d8bf 98cf f586 65a0 c3bf
000006d0: 9437 1f43 9d87 ce3f 2cb2 7c18 1454 cc3f
000006e0: 47f2 9977 1f4f 583f aefe 6e55 0ad6 d13f
000006f0: 5b9d cef7 ec32 d3bf 2f91 0027 6c6d a63f
00000700: a8bd bba3 2e1e cebf 5f36 d8b7 8507 c63f
00000710: 80a8 1dfd 8ac3 c5bf 0464 b8d8 ddc4 d6bf
00000720: d31e b6e1 4c33 d83f 5669 827c 5981 cb3f
00000730: 1ce4 0c50 f4e0 c4bf eab7 8872 4cb1 d5bf
00000740: 4f56 40b8 9a5f d0bf 60a2 826e dfd4 a53f
00000750: 7b53 0a14 34f9 d0bf ef74 bbc7 ce8b b9bf
00000760: ef02 9b18 fd31 c73f c4ec f467 a2e1 933f
00000770: 9202 b294 9b6e d33f fd60 a416 27fe a1bf
00000780: abf1 6f25 bf60 d73f 7240 761f 75d0 cf3f
00000790: b0ba ce31 9156 c43f b101 b207 1f4a d3bf
000007a0: 29a3 eb3e 5c3e b0bf 45ce a5d5 32ce b13f
000007b0: 16e0 7399 c86d c5bf 3e44 b9d0 401b d1bf
000007c0: c904 2a47 6181 ccbf 0654 78a3 4024 b93f
000007d0: 2b37 01db fdc7 c2bf 3f21 278b d005 c43f
000007e0: bae3 8d55 e786 b53f db85 44bb db45 afbf
000007f0: 2a15 9859 6534 d1bf 0036 c7d9 233c ba3f
-0.10787427070378647 -0.3490620677265138 0.28943029652748375 0.18936920204162047 -0.02987045793681897 -0.3470506821834682 0.3108166322468857 -0.06702709430095262
0.18821487035618203 0.07628804920734161 -0.0449623118820598 0.021629313149049343 0.13907711060700603 0.08564229352812446 0.13594649681742238 0.20127561853085718
0.19771263282088083 0.2117754709300253 -0.2524369065479336 0.24086779037071315 0.35887721349255974 0.3964810210921678 -0.27798090999319686 -0.24486720528637876
0.2730455081139122 -0.27727440180877844 0.37773820492692656 0.07816816135607912 -0.28088101188109704 -0.10240950892721394 0.11496080932283693 0.11501924266459744
0.1186710583344591 -0.0479435395141346 0.17813115518538875 0.31975481299421116 -0.24357750546171636 0.19560544179690634 -0.06094125529655764 0.16587934335077678
-0.2700758023490346 0.23557870985571458 -0.14867002318726205 0.2948212318147431 0.330820826746524 -0.2567174325242847 -0.13061430426053358 -0.2946529627544973
0.3238244372670066 0.4306801134150198 -0.14185957278188688 0.19630835497375557 0.06283428474825681 0.07740856627925305 0.2913387917112226 0.06701909707303487
-0.23363061134129776 -0.3780760591022191 -0.21189564173277547 -0.27281071354409275 -0.20116844725003305 0.27220395680528836 0.23990169570356176 0.019656726936873727
-0.1206124179622459 -0.3753951240432023 -0.297696742348486 -0.24004005708951254 -0.15393962027557584 0.3068843487843261 -0.09395133119847004 0.2132487460448345
-0.181788743442899 0.21175233788843859 -0.1382726958404601 0.13896571614932862 0.3966666928926325 -0.0069036195518662954 -0.09809683929133278 0.05338568111275862
0.430259039974666 0.12186256029222889 0.056392413563870876 -0.11167309404974463 0.27488145571361305 -0.1993458457460945 -0.1741840119711089 -0.26822090775972657
0.19836043205002446 -0.2826624103573202 0.403116687071863 0.07705551119740929 0.06006511083934619 -0.19176525427181632 -0.052871959096617675 0.12335554898332392
0.0009969421971892567 -0.1554736484947979 0.376731909524788 -0.32283271681915987 0.2447490076490468 -0.20847052109903652 0.2108040522110451 0.29453873374647477
-0.3195059818269594 -0.13227899905774534 0.3679217829773987 -0.31660041472911543 -0.3011486197262969 -0.3223360483568157 0.1926748669536476 0.33723220437231566
0.24926130412028677 0.07486379303472439 -0.1461270403780834 -0.2242894527301731 -0.08017241200316004 -0.22745048364736728 -0.41455355765154933 0.22077205995489743
-0.22896733649165127 -0.054374238262029584 0.1829830853780603 -0.2040197826694551 0.006602554548604428 0.21256509754344655 -0.322312311137015 -0.027271784667489408
-0.23442461085092037 -0.05799305512103951 0.29910919821612936 -0.017981596418211933 0.03784426586387253 0.07888740279126953 0.2860137408465931 -0.2613679260819883
0.04047781490789567 0.1415383099218657 -0.14535643453550517 -0.12024995019904303 0.35672913402051265 -0.06423518079495828 -0.21248797477453366 0.08357644469953841
0.18335203184431145 0.317572143119026 0.08973792371084663 -0.2818220002717558 0.32919576524499655 0.256405176804069 -0.33071027340203485 0.10832484187765688
0.1713966728402137 0.11924181006874912 -0.13072990071596266 0.0003268943745753907 0.4291191900781435 -0.23375522858398634 -0.08420262571494361 0.03278632113878521
0.02272651093426774 -0.32397997931777134 -0.07768631849190148 0.010716513383896476 -0.08487969269637254 0.11983878713663362 -0.06552250848731751 0.1443130760223343
-0.1018432261564228 -0.25777955377587874 0.28282477834928293 -0.2838771944014725 -0.22031699271904762 -0.37022223991992836 0.2391722964033803 0.03941101694717364
0.21681963321991313 0.17115602712122524 -0.01863957031543603 -0.21629057169837673 -0.23863317933814202 0.2751742323249885 0.35949823170998835 0.07075467465130238
-0.2985400292389997 -0.2860720612560659 0.36205567593488064 0.36777551254895624 -0.04063623125010281 0.2935487516309721 -0.17637019188875522 -0.12550940128282284
-0.08455915046055969 0.3612161876682833 0.18063342782066866 0.01637582046491447 0.0028468949916780574 0.015298133822449513 0.16864217048273084 0.028862855895201617
-0.010992568354750739 -0.03168653198221706 0.4182410925817985 -0.0064956795558267786 0.2877118579881816 0.28107836836832856 -0.2020103026685327 -0.27341503747464185
-0.16292806240704458 0.03883333840065143 0.22231376905909475 0.2282383808400674 -0.09445728775041641 -0.10087640227805289 0.35527457648547295 0.11782769017531611
-0.37974259032723046 -0.15333241548398457 0.2385136201614243 0.22131587215098258 0.0014837081238560244 0.27868898718950674 -0.2999832553855037 0.04380357719517957
-0.23529608721535777 0.17210456349168887 -0.17002999648258665 -0.35576578296746697 0.3781311229908912 0.21488493518411173 -0.16311506184300206 -0.3389464491364139
-0.25583522790234253 0.04263971542360845 -0.2652101703363809 -0.09978954674030026 0.18121303273621645 0.01941541442395757 0.30362596055059854 -0.03514215613739855
0.3652799478147936 0.248549118387476 0.15889182025917625 -0.30139899970529443 -0.06345154319900516 0.06955259052284031 -0.16741282933048812 -0.2672884023969039
-0.22269836401759438 0.09820941916434842 -0.14672825997916425 0.1564274482209473 0.08408971632697063 -0.06107985173208493 -0.26882299184247194 0.1024801642117481

fc1.bias f8 [256]
00000000: bd55 a953 b3ea 963f bb56 86cb 312a d1bf
00000010: d28c 92e1 d121 b2bf 210a 81a8 1417 9c3f
00000020: e720 77f6 856a d4bf fda7 bc13 4436 9dbf
00000030: 1ae7 3312 683d d53f a5d2 ad3a 0f3d d53f
00000040: 249e 6280 9c50 c63f 62d2 bcad 8a15 a23f
00000050: a77c ef7d 0cb8 d4bf 42fb f66e 88b8 9d3f
00000060: 800a 8813 cd1e c13f 560b 9cfa f827 b9bf
00000070: 08b6 67a5 04c1 c13f b488 8baa 1123 c7bf
00000080: e5c9 1301 0fa4 b03f 586f 1047 7c1e c53f
00000090: 1344 eabc e23d d13f d068 6f6c 1de7 d33f
000000a0: 13bb 2002 074c b53f 358f 97fa fa5a d53f
000000b0: 6389 ed36 2df4 cfbf 657c 371d 0102 d23f
000000c0: 3f55 c088 aee8 963f f3cf 72d4 9096 cabf
000000d0: 3a3b 6879 20d9 c23f 5145 86b2 e008 b33f
000000e0: 9213 0737 3e8d d83f 6b51 aee4 d608 ba3f
000000f0: 4bc9 f339 9dfe a33f afa2 9931 ebcc cdbf
00000100: 3d66 4bc5 93a1 d23f a63c 7ef6 d40b a23f
00000110: 8f75 aa90 73bd c6bf 2b12 a73c 59e8 c0bf
00000120: a1b7 96ef ab81 b73f a9e6 b7fa 8e69 c3bf
00000130: ea93 62a4 ea42 d0bf 0f7a 38dd ccfe c93f
00000140: 8e29 6969 3d98 c8bf 53ef 1119 eac6 c2bf
00000150: 65fe 781f acc4 d23f cf26 e561 e21a cf3f
00000160: 86d9 3f49 7701 d43f 6432 f602 482c a7bf
00000170: 0608 6622 dc80 d3bf 3891 7dba a201 a2bf
00000180: e2d0 8d6f 62fb d1bf a6a6 521e 7d7b d23f
00000190: 97f3 82ae 72dd b03f 8e1e daa2 11f3 753f
000001a0: 7036 3a11 e303 d43f b98e 0500 3466 cf3f
000001b0: 968c 14a9 6c9e cbbf 5b69 8da4 d271 d4bf
000001c0: 9298 abcb a825 c03f 2010 ff6d 827a cfbf
000001d0: 7673 97bc 8165 c6bf ad92 96b6 9a0b cebf
000001e0: 9f7c a076 e51b a73f de4c 3f8d b2e2 a3bf
000001f0: d033 8eb1 92aa c03f f8f4 14ac 7f80 bcbf
00000200: e8d0 c397 3e1a cd3f 1cc8 1a85 c587 c23f
00000210: c6f5 9615 edec b03f 3a2d 7db3 a870 c73f
00000220: b6c5 cc9d 5227 cabf 4b46 3a11 7220 d03f
00000230: 8055 7a98 0946 be3f a848 4552 fee4 ccbf
00000240: d3ce af17 a227 d2bf c951 a098 088a cbbf
00000250: ac3a db49 77de d4bf dbcd d4a7 b850 ca3f
00000260: 91a2 148f c07c cb3f 588f e946 73a4 cc3f
00000270: 9607 c37f ecc1 d43f bcd5 326e 6442 d13f
00000280: 2386 bcb8 b1b6 c13f 5ea3 3de6 d63e d3bf
00000290: ef08 0df2 444b c6bf a18b 3e0a 356a d03f
000002a0: 4f6c 17e0 1c0d d0bf 5d54 54fd 7054 c83f
000002b0: db08 71d5 f998 98bf 84db 8469 c9b8 b3bf
000002c0: d482 e3c8 b827 d1bf 3c91 357a f401 c1bf
000002d0: fa4b 804c eaaa d13f c831 5e87 b0a3 d3bf
000002e0: c45a abb8 4b66 d0bf 77a3 5100 1658 a4bf
000002f0: a896 d0a0 3406 b0bf 0256 d2d5 4b7b d63f
00000300: 2de0 e0d3 1fe9 d0bf 6b24 f842 3b30 b3bf
00000310: 7f38 df97 1bd1 cfbf 2360 59df a6d5 cbbf
00000320: 91f5 1d85 7e6f 92bf 375f 4e7e 3c8d c03f
00000330: 2b1b ad5c aa56 cabf 1fcf 04be 081c c03f
00000340: 840b ac65 b1e1 d23f 35f3 febb 032c d13f
00000350: e164 6253 cf4b d43f 86dd 8cda 0ac2 ce3f
00000360: 6298 8c80 5ffd d43f d7d5 a9c1 a897 c13f
00000370: 8f5b fed9 3b21 c43f d3f4 85b0 5fdd d63f
00000380: 37f7 698f b196 b4bf 51c4 4efc 927b d3bf
00000390: d501 d3c3 0761 d1bf 4f80 856b 3906 a13f
000003a0: 9fec ee2d 8a78 cf3f afa5 ecda 8312 d3bf
000003b0: d8c9 0379 8b22 b9bf 46f1 1a0b c561 cb3f
000003c0: 8e9f 386d 3f72 a7bf 7a99 2999 33cd adbf
000003d0: 6ec4 2451 6cc4 d63f 892d 09d1 5786 c7bf
000003e0: aefc 5f75 2c9c c5bf 9428 2f60 6429 d63f
000003f0: 2236 667d 15d5 babf 32f6 23cd eaf7 b73f
00000400: 5bf3 ab33 41a2 d73f 835a 498e 8e2c b0bf
00000410: b340 2fe4 e40b ad3f e817 aef5 cdc5 9b3f
00000420: 4344 4520 49a3 d23f febc 84d1 3bda b53f
00000430: 6f2f cca3 7ad0 ca3f 788a 7999 c26f c03f
00000440: 7142 de99 de62 d33f 18b3 e837 040f d53f
00000450: 11b5 6abc 2af5 b1bf 0d8b e5c2 662d 953f
00000460: d046 67ce 0a4e d73f 65ee ba46 6d5e cb3f
00000470: 9314 217c 9dc6 9a3f c1ee 490b 7949 c3bf
00000480: e29c 46e8 3b34 bf3f 7c3f f59a e076 d2bf
00000490: 61bf c2fe 7164 a2bf e21c 24ca e212 cc3f
000004a0: 1b4b f914 abb4 c73f 99f5 806a 9121 9a3f
000004b0: 2754 92c0 bf6e b4bf 85fd 0f64 2d88 d13f
000004c0: d0f3 ceb0 4159 d23f 1b41 4403 abee c8bf
000004d0: ce44 c06b 1f89 cd3f d712 f64c c418 c8bf
000004e0: bf46 8cb9 f1da d23f 8db2 6da1 0b03 cfbf
000004f0: a22b c80d 5fc0 d2bf 93f1 226b dcdd ab3f
00000500: 0908 e0e5 3648 763f 6301 be75 55c3 d13f
00000510: 8f78 88ec a508 943f 1b10 9cab f754 b6bf
00000520: be5b c798 698b cabf a696 7263 c88b bebf
00000530: 0864 ffe7 231b a2bf 5be9 1517 1727 d03f
00000540: 1c16 15ff 6b45 c4bf 93a9 e29f 4937 c03f
00000550: 085e d059 74ac cb3f 80c6 0370 1b3e b3bf
00000560: cc81 706f 8bf4 b8bf 7385 1d66 793b ab3f
00000570: 32dc 5cbd 3377 cc3f 43db c9e3 73e6 98bf
00000580: fc54 7fb2 1310 cb3f 60e2 47de 86e9 c9bf
00000590: 38d6 5dfe 4aa9 c2bf f963 0336 49b9 b53f
000005a0: 34b3 e726 1816 d53f 4027 4053 5318 c8bf
000005b0: 4561 92fc bcb8 b2bf 8c8f 9f39 12b3 d63f
000005c0: 9279 efe8 e377 a23f cd4f 1439 82a7 bf3f
000005d0: 581b ce62 c9e5 bb3f 1a7a 4137 a0a2 d0bf
000005e0: a98c 2c14 8410 d7bf d3a7 954a 3ef4 da3f
000005f0: 75a5 f13d f7b7 bebf ca97 10d1 176b cb3f
00000600: 6460 8885 11ab d43f c389 cafa ec06 ad3f
00000610: 6420 0c6f 34ef d3bf 068f 78aa 71cd cc3f
00000620: 7caf 5207 60ab d0bf 2fb8 0c70 dc77 d53f
00000630: 4d50 397d 2614 7bbf 2759 c25f b44f b83f
00000640: 7946 4d5f 3607 d33f bf65 371d e867 bc3f
00000650: b878 5b3f 9eb5 b5bf d436 5f6b 9bea d13f
00000660: bb4d 8eb5 65dd d53f f72d 0e0f 2a48 c1bf
00000670: 9a2c e2a1 f92c b03f c0a8 c863 3c1a cf3f
00000680: 9dee 8bb1 429d c7bf f2ee 46a4 f53e c3bf
00000690: ae96 aaef 876d c2bf bc06 232a 6227 db3f
000006a0: 2107 59c4 20be 803f 4010 2ab4 aeaa cfbf
000006b0: dff2 b6f0 2849 cdbf 3612 137e 981b c8bf
000006c0: d836 b684 7a73 b23f 6837 6c6b 7697 d53f
000006d0: 7f20 ff47 e705 d63f 87a5 001d ae07 933f
000006e0: e746 bd73 9403 a53f 31c9 8822 d6df d83f
000006f0: ad82 10d8 aeb1 66bf fb4d e97a f7d7 97bf
00000700: 5e39 d86c a989 c43f bb92 24be e78d d2bf
00000710: acda 18f8 d555 d6bf 0ace f213 069c c03f
00000720: dcba 31dd 0d5a b4bf 3356 d4fc 3fde c03f
00000730: dabd 395f 4c6a cabf 0e59 8750 0084 b53f
00000740: cff7 5bd5 0a10 c6bf c84c 6124 d71f d53f
00000750: 3ae5 3401 7a11 bfbf ec61 45d7 ef99 b9bf
00000760: 5f4e 99ba 2a16 d53f bc16 63d3 7b3f c03f
00000770: 7407 fae2 8bc7 8b3f e808 780b 4fd4 d53f
00000780: 9650 3ee8 bd81 b7bf 26f6 ad1f 8b92 cd3f
00000790: 0e80 b809 ed20 c6bf c182 0c7a 37b4 cbbf
000007a0: 8a73 2035 e143 c8bf 89be e49a b497 c3bf
000007b0: 5464 75ee 9cd1 b83f c800 ef64 e6bb c13f
000007c0: 2f5b a99b 0159 ca3f 5794 0c31 0eb2 d33f
000007d0: a2a3 abb3 1242 d1bf 464e 8205 5b6a d6bf
000007e0: aec1 0a2b c388 b73f f53d d716 e35f d63f
000007f0: 5794 c4b8 5c79 ca3f 2de6 ba65 ac9a c8bf
0.022379686337748107 -0.2682003486200803 -0.0708285499300019 0.027431795868560486 -0.3190016657722609 -0.028527320580145944 0.331872957016104 0.3318517754590096
0.17433506268319932 0.035320600231362645 -0.3237334470595194 0.02902424981379715 0.13375247434312953 -0.09826618307492416 0.13870294643804493 -0.18075772120852707
0.06500333572674995 0.16499284238750067 0.2694022030710254 0.3109811362206871 0.08319133569669317 0.33367800208928894 -0.24963917905831598 0.28137233594129035
0.022371985527646073 -0.20771990178548058 0.14725118568500212 0.07435421331890281 0.38362079023163986 0.10169737895041002 0.03905192692208689 -0.23281612321740883
0.29111189143222643 0.03524652012776501 -0.17765659869921221 -0.13209071599534758 0.09182238196691951 -0.15165889017207704 -0.2540842633555359 0.20308838655269354
-0.19214599272738692 -0.1466953871166604 0.2932539279317779 0.24300794391665767 0.3125894751859949 -0.04525971447137492 -0.30473998412355774 -0.035168729081109296
-0.28096829313223115 0.2887871547814974 0.0658790279439486 0.005358761683630709 0.3127372425304662 0.2453064918619157 -0.21577223068115775 -0.31944719380921577
0.12614927239264212 -0.2459261929599288 -0.17497274120878686 -0.23472913661421071 0.045134707194159455 -0.038838939420793514 0.1302054755182369 -0.11133573485581738
0.22736341867824383 0.1447684192585833 0.06611520554630265 0.18312557949171 -0.20432503418991893 0.25198032076250304 0.11825618717769792 -0.22573832528229798
-0.2836690169635691 -0.2151499505277015 -0.32607824528251217 0.20558841891180077 0.21474463449819273 0.2237686249019315 0.3243361709283986 0.26967726480082965
0.13838788528760046 -0.3007104156918582 -0.17417203730480632 0.25648237228795706 -0.25080034145293423 0.19007694596862992 -0.024021056797445133 -0.07703837228915061
-0.2680494272045 -0.13287216155289083 0.2760568377572664 -0.3068658182098969 -0.2562436393176706 -0.03973454240696744 -0.06259468961851644 0.3512754047490888
-0.2642287797093584 -0.0749547041415483 -0.24856896319983332 -0.21745763688773065 -0.018003441691225645 0.12931018988887796 -0.20576982045369027 0.12585553434620864
0.295025204934227 0.26831143721556155 0.3171270670223532 0.24029670401953868 0.3279646640170367 0.13744077163907661 0.1572642149373817 0.3572615836963681
-0.08042440177265751 -0.3044173683111398 -0.2715472614618453 0.033250612616712354 0.2458660816463167 -0.2980050695356011 -0.09818336204970224 0.21392119447944874
-0.04579351623789228 -0.05820618862780953 0.3557387154024302 -0.18378732401684442 -0.16882854205321024 0.346276372842689 -0.10481390296464402 0.09362666614830387
0.36927824064314557 -0.06317988370697418 0.056731369833529575 0.02712175189983404 0.2912161650793374 0.08536123147199601 0.2094872760575259 0.1284106492413064
0.30290951753798995 0.32904153308736417 -0.07014720058460379 0.020681005139873188 0.3641383186014595 0.21381917909262707 0.026148281766172742 -0.15067971278391748
0.12189077778622306 -0.2885056985151022 -0.0359225867736075 0.21932635183495736 0.18520105861770095 0.025518676877472755 -0.07981489612059588 0.27393660327648944
0.28669779077955315 -0.19478356990340093 0.23074715386659367 -0.18825582273361505 0.2946132957450622 -0.24228043920756584 -0.29299141260042394 0.05442704017466151
0.005439962811580664 0.27754723070395054 0.019564240037759858 -0.08723400058448798 -0.20737953147792426 -0.1193204157630939 -0.03536331374170493 0.2523858762212023
-0.15836858706659107 0.1266872435274534 0.2162003935379604 -0.07516643032774972 -0.09748145552339976 0.053188127246140214 0.222387759649537 -0.024316607263666922
0.2114281293458261 -0.20243917325548733 -0.14579141063920686 0.08485848969156952 0.329473531716576 -0.18824235501261377 -0.07313138166717177 0.35467963816903914
0.03607094019365599 0.12364972966707839 0.10897501623376848 -0.25992589374610164 -0.36038305254096287 0.4211574295392186 -0.11999459516814233 0.21420572002642607
0.32294118919663206 0.05669346391120513 -0.3114749035307851 0.22501965354705805 -0.2604599067224098 0.33544074003555385 -0.006611013744606775 0.09496619546766692
0.2973152094537919 0.11096049035349774 -0.08480252310571046 0.27994428144016337 0.34163801889482287 -0.1350147794258729 0.06318626596673696 0.2429881560540874
-0.18448671025531818 -0.15035887261716813 -0.14396762087306086 0.42427877535747505 0.00817514037328554 -0.24739631459317657 -0.22879516366619776 -0.18834215312939911
0.07207456340821794 0.33736954203128855 0.34411031752507165 0.01858398487107629 0.041042937401142336 0.3886618935822695 -0.0027702727243340193 -0.023284785153306214
0.16045110525778744 -0.28991120880736404 -0.34898900249701614 0.1297614667324612 -0.07949911737680843 0.13178253026187434 -0.20636896753010953 0.08404542890579966
-0.17236457269603853 0.3300683837198446 -0.12136042146166384 -0.10000514035835523 0.3294779608015456 0.12693736859926286 0.013564198364523362 0.34108329887398137
-0.09182345314030935 0.23103465124943162 -0.17287981962817905 -0.21643727740685928 -0.18957152456360077 -0.1530671840969158 0.09694844075910797 0.13854675224684443
0.2058412561479712 0.30774264135317736 -0.2696577791780844 -0.3502414277838607 0.09193057823973191 0.3496024821333486 0.20682868024701648 -0.19222025840081028

fc21.weight f8 [64, 256]
00000000: a3e2 95ff 0492 40bf f6a7 0b7b 0a92 a63f
00000010: 8f90 feb7 127f 913f 2332 2da6 d9b2 a9bf
00000020: a31d f3ca 017c 613f 93ee 9d6b ddee a13f
00000030: 7fc7 80bf 299b ad3f 524c ff28 3f08 94bf
00000040: 9f9b 95ed c680 a0bf e0c0 9f67 0e7d a63f
00000050: 3f72 6512 4bbf b2bf 30cc 2b5b ae56 ae3f
00000060: bc2b 43ff 8347 a63f 5882 6eef 8807 a73f
00000070: eaf6 a8a7 5b44 93bf edaa 067d 8a55 913f
00000080: 79f2 3472 517d 933f 47e6 d97b 36d3 9fbf
00000090: 3b4d c3e6 4a0d a3bf 89c8 8110 fe36 9e3f
000000a0: 3a52 1652 36d7 7dbf 0ff7 7958 9187 b13f
000000b0: 31a0 7f58 dd0b a43f 4188 46ef 2530 a43f
000000c0: 6ddb d9e9 e407 8a3f 0783 3bf5 6181 94bf
000000d0: 610f 90da 314c a53f cc9e 50c1 dd30 983f
000000e0: 2d66 c978 e13e acbf e780 3d31 be67 a23f
000000f0: 2506 7829 a120 9c3f 1ba8 337b 6998 a6bf
00000100: 6d59 09c3 f62d 553f 28cf 4d7a fb13 87bf
00000110: 8720 1ed2 f399 923f b630 339a e276 913f
00000120: 817e 4545 497d b3bf 969a c812 1dcd 83bf
00000130: 62d0 978e 5d18 a7bf eb12 61f2 395e ae3f
00000140: b636 c1df 9208 a0bf abed 4c3a 9249 af3f
00000150: d0a2 cb64 c32e aa3f 4b85 bfd6 c40f b6bf
00000160: 9e38 b4c8 d0f5 a33f 8f5a 2cbd 2f88 c8bf
00000170: e04f 1c50 3772 abbf 2e65 44e4 70a5 803f
00000180: 989a 9cad 089c ab3f b001 e7d6 6fd2 703f
00000190: d90b 6b18 9c7f 803f 0ef9 d334 771d a3bf
000001a0: 7401 689d 7388 af3f fe40 c6b7 62a5 b73f
000001b0: fd2a bfd8 436d 6c3f f946 f4cb 37bc 8bbf
000001c0: 0f1c 6548 b426 773f b31d b2fe 1278 b1bf
000001d0: f303 0172 a155 a53f a1e1 08b3 7935 af3f
000001e0: 5c9a c1cb 2ec4 9f3f b88d b180 b012 483f
000001f0: 679c bdf0 5938 663f 9db9 2a52 db25 5f3f
00000200: 7dd7 44e3 561e 7a3f c4ac 2b34 52ba 9c3f
00000210: a0f3 97a4 0ced a13f ae4b bf65 61d1 8fbf
00000220: b330 f0bf 5925 9a3f bc2a 1867 e69a a2bf
00000230: 4161 4fb7 fd86 a3bf f0c7 b14f f70a 52bf
00000240: 6300 2dd9 5a7c ad3f bd57 1119 a946 86bf
00000250: 67a9 a836 15a0 8b3f 31e9 e5e5 87f9 ad3f
00000260: 8db1 18d4 4eca 8e3f d1db 4691 7f0a b03f
00000270: ddb2 29a3 6024 af3f 0528 e98d 22e3 933f
00000280: 7099 4e74 8067 9d3f 2658 c4fe dca6 b4bf
00000290: 370a 71f2 ed21 bdbf 5af0 c35c 6ca9 9e3f
000002a0: dd16 57f1 4619 c2bf cf41 8b3b 82b4 89bf
000002b0: 67e5 76ba b19f acbf 7a9d cad1 59c2 adbf
000002c0: 3c5a f390 8e30 963f 9377 4202 ea51 a03f
000002d0: ce2b da74 9961 803f ff98 ce73 ca91 c1bf
000002e0: c755 7b3a 7435 85bf df02 7470 4a66 b1bf
000002f0: 3fdc 7a31 ea9f 8dbf d3db 081a d722 9abf
00000300: 4f2a da1c f80d 803f cce6 ad03 87fd 73bf
00000310: 0016 dc0d 46e1 ab3f 10cd ce72 9592 b03f
00000320: 655d 8bd8 3fd4 9e3f 8459 8451 3439 97bf
00000330: 837c c31e 3924 acbf 6afb 6f8e 04c1 91bf
00000340: 4532 3685 33c5 b33f 5b2d 7c3b d216 82bf
00000350: da84 6b07 6a17 a3bf f4cc 1659 e255 8c3f
00000360: f17d 0b81 47c2 9e3f cd56 381e 4347 88bf
00000370: b432 2d7a 91f4 bbbf 4c0a 9fe7 3c03 acbf
00000380: 4386 3f69 5a38 7fbf 8ffd 0ad3 4ff1 803f
00000390: d23d 7d0c 8f13 733f 6222 87fb 4c62 b0bf
000003a0: 8c8c eef3 8cc8 b73f af08 2a52 96ed b2bf
000003b0: 583c 0fda 5be8 a03f 135f cb3b 20fe b33f
000003c0: 5f1c 5092 bff7 a5bf 3fe5 d082 80d4 913f
000003d0: 287d 2cf3 b735 b6bf 59ca 3411 0b63 8d3f
000003e0: b23b 1230 2492 a33f 379f 6b05 586b b7bf
000003f0: 41fc 3404 cdce 96bf 6e9a 55b4 2f41 81bf
00000400: 97c0 62f4 65fb b8bf 5db6 b813 b8c1 a03f
00000410: b511 acfe 9650 a43f 2f15 41f9 0b7a aa3f
00000420: 02b6 966c d741 773f f13e a4aa 0cc8 a03f
00000430: 3a79 b770 ef7a 493f 6159 f9a7 2513 8d3f
00000440: 11ba e6d3 2a4c a13f 63ae d5a8 1dba 9d3f
00000450: c686 cc0c 22fc 983f c51d fa74 7e05 73bf
00000460: b543 f42a af54 593f 949f 4f3b 1647 bbbf
00000470: 1a0c 51e2 fa6c b23f 1f3e 937b d8f8 afbf
00000480: f48b 0304 2092 9cbf bd71 9275 bf96 97bf
00000490: 41e5 3eaf b027 ae3f a549 f54c d6cb b0bf
000004a0: af57 3a48 99b6 b33f 7114 6a59 e8eb 7bbf
000004b0: acd6 f9b0 7f28 aebf e85d 5c75 9cd6 85bf
000004c0: 794c 11e2 99b7 94bf 4acf 1379 9444 633f
000004d0: fa78 3300 9f96 ab3f d2e8 e2c4 bfe1 913f
000004e0: 4351 bdf2 595b 78bf ccbc 4037 00f7 95bf
000004f0: 6c4a 321d f414 a1bf 19ff c40f ef9b 9dbf
00000500: 1a34 eeeb 482c a73f 997b 0caa 2811 863f
00000510: d8be fc28 5906 a0bf 2016 e21f f88f a0bf
00000520: dabc b866 45fc 7b3f 84a4 4a76 a003 783f
00000530: bb15 85d9 51f3 79bf 8577 be87 b8b5 9bbf
00000540: 8bdd 1fcd beda a03f 46e7 b1cd 5d78 b0bf
00000550: e3d4 6246 46ff 6a3f 53ff ed7d 38c6 a9bf
00000560: 99d9 0eb0 dc7a a4bf 973e 5e6a f9fe a53f
00000570: e48c 06a9 d438 a33f 7be2 0370 7788 943f
00000580: a6f0 36e9 c0d9 6a3f 8cb2 7d80 9f06 8f3f
00000590: 89ec d258 e915 9c3f accc d9c7 244a a5bf
000005a0: e34d 2a4d dc93 b33f 0690 acbb fc85 b5bf
000005b0: 88ae c0e7 aee2 9ebf 00f9 316e 157c a9bf
000005c0: 0cf6 4bc1 2eb5 a5bf 32b1 9e38 9f94 92bf
000005d0: cffc e465 6f07 693f 65c1 e80d 53b1 a6bf
000005e0: 6686 774c 210e 96bf 3cf1 9f80 e6fe 683f
000005f0: 4e54 4a90 f4d9 a93f 4be0 0b7e 3b53 863f
00000600: f10c e14c ff5f ae3f de6c d7cd c4f4 af3f
00000610: 221b 2cda 6355 a23f 4c3b f9ca 66e8 8e3f
00000620: 5476 f470 4170 9b3f f3e1 ed53 4967 8cbf
00000630: 37dd 071c cf8d a53f c213 3128 efa6 9fbf
00000640: 04b4 94c3 8312 a43f b7c6 794e d78c 8a3f
00000650: 6c97 d114 df08 71bf bb88 0918 1c3b 9b3f
00000660: 79ec 1da7 5b5a b23f 73fe 33db 260a b13f
00000670: deb7 7151 b151 b03f ba68 c10c 8a9b 76bf
00000680: 19cf 3eb1 d5b9 a13f 3974 0bdd eef6 b13f
00000690: 2e89 951f e6cd b93f c16c 6354 566d 88bf
000006a0: 031f d491 e08f a63f e4c5 345a f2ec 78bf
000006b0: 438a 5575 f426 95bf 04fc da7c cb0d b03f
000006c0: a772 b52d 8b5f 8d3f 59c3 ef57 202f acbf
000006d0: b2ec c0c6 d51b 22bf 34db a8ca 37dd 8dbf
000006e0: d30e e343 411a 9dbf 66fd 37d4 27c3 6e3f
000006f0: db92 b1de b272 a83f 0d2d ab39 ee45 a9bf
00000700: 9413 4f11 f20a 9bbf 40f6 dd6c bd99 a33f
00000710: fdca 46d2 557c a1bf 3e5a 2f2c 024a b7bf
00000720: 508e 6edc 53f5 863f 1dbe 5107 da12 9e3f
00000730: 82f1 d1b3 3744 9b3f 0526 f004 503a 713f
00000740: d58b 5372 4e72 b0bf 76c3 f02a c6b0 96bf
00000750: 7070 565a 78de b7bf 27ac 1563 9916 19bf
00000760: 4b88 60c3 75da 8abf 9ae3 6d45 c15a a33f
00000770: 8aa2 0024 db7c a8bf 151e d36d b6b6 9e3f
00000780: e9ad 816a 1549 b0bf 3688 128c b2f1 a7bf
00000790: d7a9 5037 d113 95bf 3575 2de8 cb3b 953f
000007a0: 87eb c5b2 06a0 97bf 52e6 0fe3 c499 a63f
000007b0: 6942 1cca 2727 a23f ef93 b1a5 bd06 a6bf
000007c0: fc7a 0c98 1777 a1bf 2d45 ec25 4a37 a0bf
000007d0: 87f8 432d 197f b03f 2532 ef33 3241 99bf
000007e0: 13de b2a0 7145 a23f 3339 4d6c 4b47 a23f
000007f0: 1ce1 70b1 d48d 6d3f 0788 0874 ba10 9cbf
-0.0005056881338268603 0.04408295394917154 0.01708630798351912 -0.050192643676016745 0.0021343264594155405 0.03502551973994374 0.05782442534145015 -0.019562708737634722
-0.03223249101829783 0.04392285361234527 -0.07323140334251209 0.05925507414749409 0.043514370832404364 0.04497936175107914 -0.018815452678828594 0.016927875405296545
0.01903273829997196 -0.03107915049483825 -0.03721078936509988 0.029506654508118877 -0.007285320463229323 0.06847484979695316 0.03915301995567722 0.03942984147876461
0.012710369478765771 -0.020024805634309775 0.04159694474222309 0.02362390987778333 -0.05516724204489907 0.03594774581029175 0.027468221813256605 -0.04413156155517602
0.001292696932201655 -0.011268582029266463 0.018165406894269622 0.01705507341539266 -0.07613046590040008 -0.009668566833238839 -0.04510776868474477 0.05931264003496558
-0.031315412343798796 0.0611081787269215 0.05113802533543821 -0.08617811434625826 0.03898479890823235 -0.19165608155227118 -0.05360577443039438 0.0081280536328899
0.05392481917651998 0.004106938240909505 0.008055896277601992 -0.03733418006776122 0.06158791824782642 0.09236733423881913 0.003470070374509303 -0.01354259101075027
0.005652145604762473 -0.06823843687208501 0.04166893498086912 0.060954859833546544 0.0310218154776528 0.000734649832690718 0.002712417282896551 0.0019011155897420203
0.0063765901616558126 0.028054508623353028 0.0350116682929873 -0.015536080281810385 0.025533106174450548 -0.036338043293729666 -0.03813927519485328 -0.0011012473248936915
0.05758937741347905 -0.010876961781985156 0.013488927584223999 0.05854439431546366 0.015034309241934074 0.06266019150540038 0.06082441322073404 0.019421138679071265
0.02871514043695228 -0.0806711313237832 -0.11379897278769922 0.029943173562955706 -0.14139639648617833 -0.012551324312341542 -0.05590587044884892 -0.058123404368695966
0.021669604870874645 0.031874954963526346 0.007998656157061659 -0.13726168303146122 -0.010355861696932046 -0.06796708341063205 -0.014465169558532163 -0.025523529972101344
0.007839144115924372 -0.004880454444781978 0.05445307654558107 0.06473669102597435 0.03010654219801036 -0.02267915484943607 -0.054963860516857664 -0.01733786696786003
0.07722780229796296 -0.008832590523090536 -0.03728801098419306 0.013835686057837006 0.03003799176337724 -0.011854671821349605 -0.10920056565118835 -0.05471220328719947
-0.007622101944407658 0.008272765758532667 0.004657324585266536 -0.06399994984452342 0.09290390925757402 -0.07393779283487122 0.03302275692805584 0.07809640369248098
-0.04290579472586197 0.017412193283438567 -0.08675718008861522 0.014349066221801697 0.0382243450813954 -0.09148168690046253 -0.02227325761964161 -0.008425114336842312
-0.09758603302430156 0.032727959067739155 0.0396773515585979 0.05171239297537011 0.005678025723154347 0.032776256399413735 0.000777594484528333 0.014196676434192925
0.0337842353504706 0.029030288152553384 0.024399311095413954 -0.004643911335399269 0.001546069204611406 -0.10655344913504755 0.07197540307338138 -0.06244541653142854
-0.02790117287157652 -0.02303599505522568 0.05889656199674188 -0.06561030749188619 0.07700498593689419 -0.0068167759078551085 -0.0589027312789033 -0.01066324456364405
-0.020231632636136674 0.002352037416693796 0.053883522772354156 0.017462726966848426 -0.005946494445954467 -0.021450045940750326 -0.0333629880562015 -0.02891515287160393
0.045259741592509964 0.010774915399051998 -0.03129843354542822 -0.03234839810560808 0.006832381342561445 0.005862833790765912 -0.0063355633977314986 -0.02706039742007917
0.032918894328697844 -0.06433664581154827 0.0032955524976282387 -0.05034042870738511 -0.03999986313958743 0.04296092437209358 0.037542958863264336 0.020051828586448366
0.0032776611130583442 0.01514935122369223 0.02742733578336901 -0.041581296344611246 0.07647492298047313 -0.08407573301207102 -0.03016160287385941 -0.049774808599055476
-0.042397938819686315 -0.018145072775653755 0.0030553031675989227 -0.044321628044033536 -0.021538276950997214 0.0030512334824363257 0.05049099217755125 0.010900940689211455
0.059326151022583214 0.06241431248391803 0.03580772436366987 0.015091708249341494 0.026795408744069896 -0.013868878244225313 0.0420975419728457 -0.030910240963084375
0.039203755974405424 0.012963945467365219 -0.0041588510622200085 0.02659267327033697 0.07169125394823252 0.06656115390432564 0.06374653089889601 -0.005519427544721173
0.03462093151702401 0.07017414948082114 0.10079801817986286 -0.01192729420693295 0.044066446114866785 -0.006085344971596272 -0.02065641370917094 0.0627104930708669
0.014342391331120764 -0.05504704545444978 -0.0001381586511131953 -0.01458209597795488 -0.028420467155924122 0.0037551668081047705 0.047750081714900104 -0.04936165288889969
-0.026408941561175306 0.038282317676003874 -0.03415172759868843 -0.09097302988752973 0.01121011272864006 0.029368788429961257 0.026627416944835065 0.004206001830433963
-0.0642441777340957 -0.022158714648131426 -0.09323837476262198 -9.57041854882523e-05 -0.013111991906104367 0.037801780438662294 -0.04782757582171822 0.029993868306318634
-0.06361516809709368 -0.04676588020198873 -0.02058340931049848 0.020735918088907474 -0.02307138887543261 0.044141915051977634 0.03545498220603777 -0.04302017829539994
-0.03411172610343802 -0.0316718264858856 0.06443936686625494 -0.02466276590330287 0.03568606459287706 0.03570018479386974 0.003607669273630999 -0.027407563526260528

fc21.bias f8 [64]
00000000: a654 4789 d453 a2bf c64e 6a92 9357 a93f
00000010: 10c8 2cd3 bb69 b93f 5cc0 83f8 b2c3 aabf
00000020: e8de b71a b902 ab3f 4393 f611 ece0 993f
00000030: 9e33 95ae 955c a23f d0f3 03c8 ce0e 903f
00000040: 3089 b9b0 504f a43f eb24 79ec 9e71 9bbf
00000050: b97d 94ea 94e1 a0bf b637 a43d 4118 8c3f
00000060: e623 02ba 2dbe b33f 531d 1a23 3836 b4bf
00000070: 3a0f afdc 2e93 853f 6434 dc48 596f a6bf
00000080: 455d e1f3 cd2d ae3f f45f d6a2 2867 b43f
00000090: fc84 d517 f700 a0bf 7d19 295f 46bd a93f
000000a0: 72a9 9d5c 14f4 b03f a327 3c0e 65a9 a23f
000000b0: 5c1f fcda 8386 96bf 32ce b66f 6c60 b33f
000000c0: 15b6 935b 6b08 3fbf 718e 0ecc 411b 9fbf
000000d0: 5e75 f5e8 09b3 a5bf 5abb f22a 7909 953f
000000e0: 974c bf77 f1a3 ac3f 0c4d dcb8 6e1c b53f
000000f0: a992 1a62 d7d8 8dbf 6774 67c9 4659 973f
00000100: ba49 1fec a52e 7cbf 955b 27dd d0fa b83f
00000110: 415b 4023 ba01 9bbf 98a7 cedf a481 96bf
00000120: 71d4 80b5 b244 953f e039 3735 7233 b03f
00000130: 0000 0000 0b04 ab3f 0c43 246c b9c9 743f
00000140: 48d1 a326 5878 ad3f d946 e03c bdaf a23f
00000150: 4bfe 4067 1902 b23f 507a 6836 b43c aebf
00000160: ceb9 02c8 4b05 943f da4f 43e3 5852 9cbf
00000170: 2bec ce53 f292 abbf b2c1 d2fa cd82 80bf
00000180: 36db 6975 b272 973f 310e 1361 3b92 953f
00000190: 0811 469f 9f46 b13f 1453 48cf e1c5 73bf
000001a0: 75f6 ca19 4204 a63f 710a 430e 968a a23f
000001b0: a5aa b789 da8b 9d3f 564f d746 95fa a33f
000001c0: 9628 b484 7d0a a53f 0abb 9c3d e2e5 733f
000001d0: 236a 9e6d 5892 a23f 90a5 5adc 8a6b 9e3f
000001e0: 7637 a664 8141 b23f 19c7 0182 4186 acbf
000001f0: f8df daa9 9790 b43f fe81 ce59 ca61 abbf
-0.03579582381977646 0.04949628031058988 0.09926961808812984 -0.052274315677892175 0.05275515032911732 0.025272072407136702 0.03586261516702581 0.015681487043355535
0.03966762692722836 -0.026800616439037233 -0.03297105182195587 0.01371813744892934 0.07712064543933614 -0.07895232064230599 0.010534635648475555 -0.04381827368170191
0.058943210621402765 0.07969907737276555 -0.031257363948279576 0.05027217780711888 0.06622435818795738 0.03644862936751216 -0.021997509232306242 0.07569005706209778
-0.00047352429426336776 -0.030377414779322046 -0.04238158196197149 0.02054395031580767 0.05593828760870528 0.08246509564587629 -0.014573748284712211 0.022801500361186913
-0.006880424627484444 0.09757714652310619 -0.026373775865148778 -0.02197892776499763 0.020769874885634147 0.06328500556194383 0.052765220403671265 0.005075191789970967
0.05755877944639792 0.03649703376880859 0.07034453173491177 -0.05905688442384316 0.01955145271556962 -0.027657879706410295 -0.05385548852014951 -0.008061989991205862
0.022898472229339016 0.0210656431197675 0.06748387945669176 -0.004827386922006811 0.043001237534082394 0.03621357845397178 0.028853811889272624 0.039021172425832404
0.04109565968436006 0.004857906105640417 0.036272776967241314 0.029707116793962707 0.07131203372247605 -0.055711791152942954 0.0803313054738054 -0.053480456793526074

fc22.weight f8 [64, 256]
00000000: 0024 abfc 431a bc3f 298a b314 9465 613f
00000010: 5cd0 227b 56ce aebf 51af c22d d643 a83f
00000020: fede 3b3c 0bb9 a4bf ef6f d704 ec1c acbf
00000030: 8f90 3f93 5fc9 a7bf 76fd cad2 40a4 a5bf
00000040: 568f 994b 071f a2bf 5c53 78a0 b9bf a9bf
00000050: 52f2 7108 1633 aabf afcf e503 48f8 b33f
00000060: d539 ac9a 8738 b93f da54 1f62 ab28 a33f
00000070: 6f74 ef00 6630 8c3f 52bd 704e 326e bd3f
00000080: 7095 0ba6 85bf b63f 4326 858a 7f4d b6bf
00000090: 7ecf a392 fc9f 88bf 1e2a 8b6e 30f3 b0bf
000000a0: d040 864d d4f0 6bbf 3839 4675 63a5 b63f
000000b0: 2aa7 6faf 3957 8cbf c748 280e 7554 8d3f
000000c0: b23c c12a 06b8 a83f fcf4 a837 72a6 b03f
000000d0: 971c f93c 4577 733f f3be ebd9 46e6 98bf
000000e0: 14f6 14f5 c61e 8f3f ed0a 4956 8862 72bf
000000f0: fc19 9730 5c70 b23f b244 740d de57 a03f
00000100: 5050 425c 1e4d bfbf a3bd 428c d419 89bf
00000110: 4314 6cca f6e3 48bf 0fbe 2205 d25a 9dbf
00000120: 7d76 c5e5 ba93 9e3f b9c2 ee21 6aa7 773f
00000130: cd77 e304 f37b c23f 0c37 e019 5d1b b03f
00000140: da4d fc63 9000 bcbf 260f bdb0 5b3c 713f
00000150: a956 b7c9 1c7a b23f 45b3 9d94 a596 c23f
00000160: b4ae e409 e9d2 afbf 6be8 7034 f37b a6bf
00000170: 39e2 137d ded9 9a3f 7fe3 0d6d bedd af3f
00000180: cf8b ad56 17c4 aabf 3f77 00d5 f71e a03f
00000190: 68c3 a701 9446 88bf b299 735c 906e 663f
000001a0: 8bd4 2b2b 7682 a2bf c6b6 e636 3a1b b3bf
000001b0: 6eb9 757e cc86 87bf 9658 79ad f3db 663f
000001c0: 68d6 3a16 8366 703f 9093 ab5d 94aa c1bf
000001d0: d405 c050 5fc5 973f a4fb aee4 77b8 a33f
000001e0: 61fe 4aa4 0377 88bf e7cf ae5a 8c0c a83f
000001f0: 5700 4712 799f aebf 6ca1 4e65 1c98 733f
00000200: 006b 772c 83e7 ad3f 08c3 89f9 6635 9e3f
00000210: a21f 5449 855b a23f 409f 43dd 27d4 553f
00000220: c564 99cd dff9 a5bf 27bb 0c94 4140 a33f
00000230: e4f9 e482 8d9b 95bf 2420 e9d3 e61c c43f
00000240: 981e 82ae 316a 8c3f b884 e50e 181b b4bf
00000250: 12f3 2cc2 ebe9 963f e122 b521 4636 b13f
00000260: d834 17fb be79 ad3f a4e3 9c1b 21b3 92bf
00000270: d1ce 037f 84c1 81bf 9104 7069 30f1 b1bf
00000280: 3893 5383 fec5 b43f 4509 8450 990e b43f
00000290: e053 0f21 8b69 a13f 5219 2c60 ed8f a0bf
000002a0: 2c10 89ab 8498 c03f fcaf 5e97 8526 803f
000002b0: 6d90 e0e5 2145 a43f 1cd9 e909 f6bf b6bf
000002c0: d9c6 dd26 4315 8fbf bbcd f90b a66a aabf
000002d0: 67ec 3a63 840d a1bf 80bc 45da 75f2 a23f
000002e0: d5b3 25bb 6608 b2bf d101 4b31 abde b43f
000002f0: 8ca2 76b9 1e38 823f 4fac 40fe d422 973f
00000300: 1f91 4b1d 3d17 b63f dbfa 5797 d321 883f
00000310: 5607 8b27 ba51 a03f 3544 d938 f980 b23f
00000320: ffbd 8a31 05cc 9bbf 0827 6911 8870 92bf
00000330: f858 7cfe 82a9 aa3f d589 759b a184 b6bf
00000340: 2a97 959b 16dd 6d3f 2bcc 19de a0b2 bd3f
00000350: 8c70 4c00 39f7 a53f a779 ddfd 2b68 b33f
00000360: b952 5105 2032 b73f 217a 1840 9c91 a73f
00000370: e0a7 5e7c ae0e a1bf 479e 3463 f1cf 9c3f
00000380: 8223 2487 86cd b53f 5f0a bf98 17ce a8bf
00000390: 1b37 5cf3 6738 a53f 661f 0d47 7a99 a0bf
000003a0: 6c0e 3e63 5c48 ad3f 569e 9c34 dedb 923f
000003b0: 143f 426a 2ee7 b83f 51cd eb89 49ab a93f
000003c0: e955 dde1 4e68 9fbf 72a3 4081 d2a9 9dbf
000003d0: 5481 1731 b693 b23f 2d83 79cc 3305 b13f
000003e0: 5fb2 1175 2c96 a63f 7f08 bec8 d084 bbbf
000003f0: cb36 b164 0ee0 94bf 7ddd 8685 4f90 b53f
00000400: 080e f93c 69e6 6f3f 2046 9769 3dae 903f
00000410: c79c 42bc c9d7 95bf 28df f531 8dff 713f
00000420: e29b b2a6 08f9 a93f 9b94 e091 e145 943f
00000430: 0e04 fd2f 586f af3f 2f34 6e54 cf49 bcbf
00000440: c28b 1d8e 69d4 793f b352 757d 674b a2bf
00000450: 3549 60f6 a3f3 b13f 25fc 6222 547b 873f
00000460: 79ed a11e 4294 793f 271e 5404 6af7 8d3f
00000470: 997f 3b11 4604 bb3f ce88 8395 8479 963f
00000480: 4bfb 7b31 fa48 b6bf 8352 8e1a b9ed 79bf
00000490: 7bef bd8e b116 bd3f 04f0 68a9 c875 a3bf
000004a0: 0cdb 4c3f d953 a0bf 4324 f4b1 191d b63f
000004b0: 7be1 7d8b 0f5f c03f 52be 27f8 a55a a73f
000004c0: 136c 0503 dc60 81bf f9ac bf13 fd4a 973f
000004d0: c063 1710 3277 bd3f 8830 28d7 494f 94bf
000004e0: 24ef d418 0c35 903f 609f 2bff 5ba2 c0bf
000004f0: 39a2 81fc bf0f 97bf fe03 76b5 1101 7cbf
00000500: 4936 f0e9 e37e a53f d827 7fb2 a412 a3bf
00000510: 403d c06b 6ba9 9d3f 4bc3 a1f3 4925 adbf
00000520: 2d8a 547e 8512 abbf f7cf 4841 0005 973f
00000530: 9a76 78a9 1a73 a53f 6d1e c6d3 d72b a4bf
00000540: 1fb5 66b5 8e76 a0bf 6ed2 c0cc 2415 923f
00000550: 16fa 3ca0 3d5a 77bf 5fb8 5d91 df6f adbf
00000560: 917a d92c ea5f bdbf f815 82f9 8196 a83f
00000570: 7bb3 8f02 eb78 b53f 115a 6ac7 7d17 71bf
00000580: a4bf ca21 3346 7dbf c8a2 3ea9 6600 783f
00000590: 9775 1a17 fa3f a33f 452f 078c 9482 a73f
000005a0: 974c 0e2c dcb3 703f e414 6c65 8870 803f
000005b0: a976 7ed9 09be 90bf abf4 e424 dcd6 a03f
000005c0: c68b 447b 14e7 b23f 05eb f4b7 576a b7bf
000005d0: 4f1f 8d10 ec32 a6bf e998 09dd 8dd8 a0bf
000005e0: 36c4 ad3a 5f61 a2bf f1e7 433b 65af b23f
000005f0: a857 d654 acb8 9f3f 991f 46b4 4ea0 6bbf
00000600: e297 a809 1637 a4bf 195c 574b 0d28 b3bf
00000610: 0f38 6707 0acd 91bf 200d d187 cf13 ba3f
00000620: 394e 19c7 a9c5 a83f 0469 2943 fb8d a8bf
00000630: 49d0 1ff7 c8fd 81bf 0a39 bc7c 30ed 833f
00000640: 3a03 17d0 a245 81bf 6f30 d53e 4426 7b3f
00000650: 71e7 4c06 0a8a c03f d62e 7748 5349 893f
00000660: 1788 8387 e80a 6fbf b50d 4e16 2158 9a3f
00000670: 56ac d116 39ee a63f 30a2 43c7 1ebb 943f
00000680: e46a 2f1a bfc0 803f dde6 5fd2 51fb b03f
00000690: 40bd 1f50 a8e6 a03f 68a6 aa87 1cf5 9c3f
000006a0: 5c71 ba9d c743 b43f e6a3 6603 e2be a7bf
000006b0: d362 f999 7a9a 89bf 106d a777 b9ba 8d3f
000006c0: 194c 1919 4994 bc3f 9cf2 3dd7 8491 9c3f
000006d0: 8b94 3a53 5028 a2bf c8bc a7a5 67b5 8a3f
000006e0: 8a26 cf51 ca20 a83f f985 8b0b 8d51 b9bf
000006f0: e24b ca9c 6ff7 8bbf 399c fc2f ab35 99bf
00000700: 95ff ee10 877f 823f 983a e519 0e26 b73f
00000710: f149 1f0d f0ab af3f 8be8 043c e52c b3bf
00000720: 5d7f 73b2 e91a 963f c71f c2d9 85c7 b13f
00000730: ad0b 790b 9295 833f cbb1 f2d3 d1b2 74bf
00000740: 7237 ca87 d467 94bf 8a35 4bd1 5e57 8e3f
00000750: e14b 6ad4 42ee ba3f 4b29 252a 1341 5d3f
00000760: 773e 101a 5ab3 a6bf eb30 a38b 0582 8abf
00000770: 2d87 12a1 ea25 8c3f 3378 6647 82a0 a1bf
00000780: fa04 809c 1251 99bf bd71 3b63 016c a8bf
00000790: 61de 25ab 339f a7bf 7583 dc33 26ff b5bf
000007a0: 4e58 7575 69e0 79bf 6f48 0a17 1b70 b2bf
000007b0: 4a2f e95f 3858 953f 030f 4bf4 9a8d b63f
000007c0: 838e 8b66 e933 96bf bb0d 9688 6f89 a0bf
000007d0: a057 ab0d 710d 623f 4652 dd09 6e0a a8bf
000007e0: b5f9 5642 beaf 82bf 03a6 ada6 74ce b43f
000007f0: c522 737f 6dd1 8abf 9f53 0079 77ce a43f
0.10977578085579864 0.002123631687582579 -0.06016798260807896 0.04739255245780661 -0.04047427282597303 -0.0549081569585893 -0.04645823166336626 -0.0422687775912846
-0.03539297864770556 -0.050290871466279724 -0.05117100575532575 0.07800722212942789 0.09851882482710235 0.03741965840132773 0.013764187720818747 0.11496271529243998
0.08885989478911482 -0.08712002879942653 -0.012023900246709959 -0.06621077250307691 -0.003410734800304828 0.08846112836019848 -0.013838244120012517 0.01432124566511951
0.0482789923850019 0.06503976687323026 0.004752417050958211 -0.024315936137042148 0.015195421556764045 -0.0044884992281051085 0.07202697931561625 0.03192037500606072
-0.12227048637788696 -0.012256298571030671 -0.0007595973046085131 -0.028666764796694773 0.029860420488481133 0.005774893360396654 0.14440763224314282 0.06291753656134008
-0.10938360634855063 0.004207952657285385 0.0721757881613835 0.14522237545625152 -0.06215599294440946 -0.043914413596625256 0.0262217296449043 0.06223864632824582
-0.052277306872177236 0.031486267806242633 -0.01185336713840153 0.0027382678559774937 -0.036151592988894775 -0.07463420715677235 -0.011487577065704992 0.0027904280976072766
0.004004013116789197 -0.13801817487469892 0.023213853171915336 0.038516756692380555 -0.011945751620600466 0.04697073561638359 -0.05981043193924112 0.0047837361534351745
0.0584069244175307 0.02950058839855088 0.035854497147794775 0.001332320146554225 -0.04292201409107003 0.03759961063621225 -0.02110119925895927 0.1571320090026812
0.013874424112386749 -0.07853842128453692 0.022376712538277728 0.06723440478266297 0.05756947341033375 -0.018261449156145595 -0.00866988670939098 -0.07008650373610893
0.08114615160191085 0.07834776130406336 0.03400835779726896 -0.03234807776429939 0.1296544873786173 0.00788597458070938 0.0395899384605237 -0.08886659376171163
-0.015177273391347711 -0.05159491439999494 -0.03330625258737357 0.03700607575853443 -0.07044069355988765 0.08152265504305169 0.008896102938551274 0.022593811052655174
0.08629209485258514 0.01178326898206932 0.031873528792415826 0.07228047979266779 -0.02714546313171517 -0.0180073986651115 0.052074521603730106 -0.08796129269970916
0.003645462184681221 0.11600690290815467 0.04290178421635557 0.07580828616980871 0.09060859803987399 0.04603279383103521 -0.03331513660607732 0.028136989288354532
0.08516732024521725 -0.0484473585088565 0.04144596906381378 -0.03242094151806789 0.05719269477324648 0.0184168548213662 0.09727754682739614 0.050134943090507485
-0.03067134145324771 -0.028968133105226675 0.072566401467616 0.06648563139016224 0.04411448411051277 -0.10749535466132619 -0.02038595666481661 0.08423325548107204
0.0038940482552634083 0.01628967244125168 -0.0213309785036955 0.004394103568635711 0.05072810206302571 0.019797825363771265 0.061396365983917275 -0.11050124942103488
0.0063060878036109175 -0.035731538834317254 0.0701239086631958 0.0114656994813896 0.0062449057387498 0.014632061249826368 0.10553396149361872 0.021947929025267147
-0.08705104549515601 -0.006330226003133379 0.11362752661619695 -0.038007994346543256 -0.03188971421916706 0.08638153643200135 0.127901023017113 0.045613466780079506
-0.008485525934409243 0.022746996240965853 0.11510002987723933 -0.019833711392536674 0.015827359214411932 -0.12995481452457636 -0.022521018778578237 -0.006836957144856546
0.04198372107212529 -0.03725161246218506 0.02896659703406823 -0.05692511652967499 -0.05287568251721484 0.0224800147863817 0.04189379996044558 -0.03939699611788403
-0.03215452160234577 0.017658782002586575 -0.005701294637957341 -0.05749415063370188 -0.11474479289015906 0.04802328272584683 0.08387631237537889 -0.004172793697441183
-0.007147025808691785 0.005859757442444553 0.03759748012565039 0.045918123334188134 0.004077777907599465 0.008027139277610514 -0.016349939250736387 0.03288925123568139
0.07383850106684439 -0.09146641007547991 -0.04335725500146614 -0.03290217707835714 -0.03589913932126658 0.07298882195382796 0.03097790973477968 -0.0033723389807995383
-0.03948277347471653 -0.07482989396463359 -0.01738372488198797 0.10186478677592392 0.04838305049329645 -0.04795823283048331 -0.00878483776248386 0.009729746634118647
-0.00843360135593373 0.00662829073310088 0.12921262080800092 0.012346888207410183 -0.0037893811787492837 0.025726811396010258 0.044786247287299005 0.0202450570222103
0.008180134760484355 0.06633483301257166 0.03300977686000772 0.0282787759594271 0.0791592369154776 -0.046378195681718457 -0.012501676391523919 0.014516304935503516
0.11163765776409242 0.027898860585525584 -0.03546381965615194 0.013041314833542109 0.04712517021796454 -0.09890061885700864 -0.013655540439946937 -0.024618792346839256
0.009032302097580028 0.0904244244786504 0.061858655549844495 -0.07490380015670632 0.021587039486689153 0.06945072714199717 0.00956262681495964 -0.0050533481982423896
-0.019927330768545422 0.014815083276881653 0.10519807516020264 0.001785534587343723 -0.04433709686429393 -0.012943309139153722 0.01374419502309684 -0.034427710738996
-0.024723330308920467 -0.04769901596384638 -0.04613648857315123 -0.08592451826235765 -0.006317531536600708 -0.07202309906486602 0.02084434590714971 0.0880982252520504
-0.02168240250001797 -0.032298551009286545 0.0022036750864157933 -0.046954573349158354 -0.009124266051796373 0.08127526349348817 -0.013094764186818772 0.04063771583620412
