weights/model_40_norm_intersuite2_lfnew_nso_0_1_bn.pth (torch, 644578 bytes, 14 tensors)

fc1.weight f8 [256, 52]
0.1051422654541776 -0.008497699629128445 -0.011002994444065033 -0.10914455403797961 -0.016219923426221514 0.11666967658510789 0.03435965063776116 0.08616558205857718
0.017669525531525634 -0.004041484710900829 0.03337104991078377 0.023085838183760643 0.06030130453016432 -0.09069657926187831 0.1262308806180954 -0.10104555636644363
0.013785647097440769 -0.09198600806799734 0.07304008305072784 -0.12572742998600006 0.12362126833711974 0.11703674753797759 0.10115072876214981 0.06761708855628967
0.13526526308957734 -0.0321357323654775 -0.0036625710781663656 0.09134872257709503 -0.127062463672049 0.11054288137177976 0.008200213313102722 -0.10868791490793228
0.08270174505186019 0.051967897845880615 -0.06526317447423935 0.0893595889210701 0.03439133628293751 0.007897106085190892 -0.11496005952358246 0.0040911464020609856
0.14371518627996957 -0.13207287054706227 -0.02391906827688217 -0.06605973839759827 0.07767019436339914 -0.10183200330445877 0.0723310187458992 0.08287925273180008
0.13266127951481405 -0.12484364904974722 -0.03528652340173721 -0.041819050908088684 -0.03118652021763601 0.14210819672328 -0.10497185105110787 -0.07981024831390178
0.09581270087687588 -0.09692555489424573 0.06370447558261383 -0.0021158493989361323 0.07954756562415187 -0.0586422828157593 0.10246607661247253 -0.08364146202802658
0.012381870714095895 0.05188369831117646 -0.08311761170625687 0.007395284716039896 0.01997813029117983 0.03580693614522495 0.01599438302218914 0.027889352291822433
-0.1053962867211158 -0.08359927593730625 0.13114236295223236 -0.1303357183933258 0.11217654021642799 -0.10637009407319171 -0.02043681964278221 0.08056869357824326
0.11617128531538531 0.039887138327065454 -0.031039882451295853 0.08962926268577576 0.14805666621167593 0.05324209902625632 0.059732574969530106 -0.09342390298843384
-0.13679952146825303 -0.01843797607494144 0.0017335108714178205 -0.009503462351858616 0.010006285139634252 -0.11828455446717724 -0.10004530847072601 0.095362588763237
0.02684497060490522 -0.035086625976132414 0.13384461402893066 -0.05599713325500488 -0.05685522772643064 0.12565202701261377 0.11372867226600647 0.01650688797235489
-0.1161312448187485 -0.1008807109404945 -0.027017902112755076 0.08462804915197426 -0.08572017507646723 0.10894810111767013 -0.10481549690590909 -0.13184677041183213
0.09186060331184585 0.07536356928034825 0.021853044629096985 0.0792984738945961 -0.09784924794545197 0.13468482672708343 -0.027978887781500816 0.12367825210094452
-0.0849577521914537 -0.02755279658504209 -0.03991755098104477 0.1363159418106079 0.09662948509252728 0.11454963908775398 -0.13037273287773132 0.010266450233757496
0.12040559010989041 0.08949690007040062 -0.0358135923743248 0.0428340770304203 -0.008597185701483106 -0.11283050949039404 0.10110680013895035 0.012394911609590054
0.059536362123648726 0.12351526608094847 0.0012457201955839992 -0.0974297821521759 -0.10326682340085602 0.03704630263006736 -0.09570763260126114 -0.00699881324544549
-0.07396715874525886 0.13714250740401027 -0.0047330092638731 0.08505427837371826 0.029422747900579443 0.1196628084727934 0.12089154124259949 0.13254398107528687
0.05209367565955871 -0.010123340232872884 0.027045659720897675 -0.06363901495933533 -0.13899727848307908 0.12464201323405036 0.10561505811850568 0.09143147663139217
0.08870382976130597 -0.021891929091410516 0.09161708249367784 0.004515833551437368 0.1079883648790899 0.07776899676493515 0.04403607174754143 0.12209110707044601
-0.040854288788980016 0.12706152452494548 0.0686190202832222 0.09545121341943741 0.10396126266507232 -0.020066980134098 -0.07026154547929764 -0.09353648126125336
0.05777602384624782 0.10604379222923947 -0.12937840819358826 -0.09128089994192123 -0.008591021285759216 0.12019298572084569 -0.01853720284998417 0.011195611208677292
-0.01765031263396149 -0.11809820765424986 0.01107699889689684 0.11724592000246048 0.0013327488658191194 -0.06553066087173423 -0.000993831898085773 -0.08338674902915955
-0.0037894661885076925 -0.06279852510657065 0.13405530154705048 -0.06444082409143448 -0.00440695611680901 0.118633559522699 0.03615570813417435 -0.13165363669395447
0.06383295328903504 0.07523295860346278 -0.10766199976205826 0.12098626792430878 -0.11529303343875241 0.10755901433413918 -0.0274483785033226 -0.11762073636054993
-0.1282583400108452 0.0543380072082935 -0.05177805432807266 0.0767712502725199 -0.08469433819858077 -0.12257993862489368 -0.08080466225823926 -0.03438856481541544
-0.044861200194594046 -0.10600878633165793 0.07399394363164902 0.13459517061710358 -0.019831017135730124 0.05332398625008529 -0.0048868996091187 -0.0945921242237091
-0.08802611508026881 -0.12317553490578899 0.10161403566598892 0.010328128933906555 0.0863566796196129 0.09023161306490593 -0.03311506286263466 0.02274343930184841
-0.11667504786258687 -0.01709435545757847 0.042389847338199615 0.0881277546286583 -0.0770878107676904 0.0968874159950662 0.0637509673833847 0.11760960519313812
-0.09531117686313102 -0.054756863280197826 0.06253702193498611 0.10016307979822159 0.11709954408782025 -0.07448598311605205 -0.05105920135974884 -0.026688268408179283
-0.12912990482087738 0.059245964045533145 0.10358331352472305 -0.01717650704085827 0.06135950091309802 0.03195198248327957 -0.03198380768299103 0.1235259473323822
00000000: 4094 8d7f 9aea ba3f a298 fcef 3d67 81bf
00000010: 76d5 5cea bc88 86bf 3f2f 21c2 e5f0 bbbf
00000020: 4c11 a3a2 f49b 90bf 0331 5e5d 10de bd3f
00000030: 3314 958f 9697 a13f 217e fb94 f20e b63f
00000040: 14ca 2cc9 f517 923f 88d4 91ca cd8d 70bf
00000050: 0000 00a0 0216 a13f 0000 0060 d0a3 973f
00000060: 5bf4 b905 d0df ae3f 5df1 c919 e437 b7bf
00000070: 0000 0060 5528 c03f 0000 0020 1fde b9bf
00000080: b46b 803b a63b 8c3f c475 5720 658c b7bf
00000090: 0000 0040 c1b2 b23f 0000 0020 d617 c0bf
000000a0: 8914 99b8 a4a5 bf3f 2b17 1bcb 1ef6 bd3f
000000b0: 0000 00a0 03e5 b93f 0000 0080 5a4f b13f
000000c0: c595 a044 5f50 c13f 4fe1 153f 1874 a0bf
000000d0: 0000 00e0 f700 6ebf 0000 0040 a162 b73f
000000e0: 48a4 0233 9543 c0bf 8422 4ccc 894c bc3f
000000f0: 0000 0000 46cb 803f 0000 00a0 f8d2 bbbf
00000100: f5e2 510a f12b b53f fe3d 614b 899b aa3f
00000110: 0000 0060 16b5 b0bf 0000 0020 45e0 b63f
00000120: 59b0 33c1 bd9b a13f 7d95 f3a2 5b2c 803f
00000130: 0000 00c0 056e bdbf 0000 00c0 e0c1 703f
00000140: 0369 815c 4265 c23f eb1f d889 c3e7 c0bf
00000150: 0000 0080 3d7e 98bf 0000 0080 4ae9 b0bf
00000160: e62d aaa0 31e2 b33f faf9 e083 a911 babf
00000170: 0000 0020 4984 b23f 0000 0020 9337 b53f
00000180: 0e17 7b78 0bfb c03f e92e c8dd c0f5 bfbf
00000190: 0000 0040 1311 a2bf 0000 0080 4e69 a5bf
000001a0: fea5 a4f1 5bef 9fbf 48c3 b5f4 9930 c23f
000001b0: 0add 436b 6fdf babf 2dd3 64c6 716e b4bf
000001c0: b0bf ce60 2e87 b83f 3add 6af8 1cd0 b8bf
000001d0: c874 3cbf ef4e b03f b519 18ff 4155 61bf
000001e0: 8707 d5b0 3a5d b43f 1a83 b67d 5c06 aebf
000001f0: 0000 0080 373b ba3f 0000 00e0 8669 b5bf
00000200: f723 3e8e aa5b 893f 3152 e206 8090 aa3f
00000210: 0000 0020 3247 b5bf 0000 00a0 844a 7e3f
00000220: 2d81 f1a0 2575 943f 476a 6d67 4955 a23f
00000230: 0000 00e0 d460 903f 0000 00c0 068f 9c3f
00000240: b147 9644 40fb babf fbb8 1e1c c366 b5bf
00000250: 0000 00e0 45c9 c03f 0000 0040 d7ae c0bf
00000260: 09a5 9b0b 9ab7 bc3f ed19 510b 123b bbbf
00000270: 0000 00c0 63ed 94bf 0000 0060 26a0 b43f
00000280: 0ef3 29bf 66bd bd3f eda2 4a45 166c a43f
00000290: 0000 0040 ebc8 9fbf 0000 0080 f1f1 b63f
000002a0: 6dbe aa55 85f3 c23f e023 2d64 8c42 ab3f
000002b0: 0000 00a0 4495 ae3f 0000 0000 a1ea b7bf
000002c0: b444 688f a582 c1bf 1937 fca0 67e1 92bf
000002d0: 0000 0020 df66 5c3f 0000 0020 8d76 83bf
000002e0: e0f5 6edb 2c7e 843f 09f7 0e85 e547 bebf
000002f0: 0000 00c0 919c b9bf 0000 00c0 ae69 b83f
00000300: c497 3d7b 3f7d 9b3f bd5e 30ce dff6 a1bf
00000310: 0000 0000 d221 c13f 0000 0000 a8ab acbf
00000320: 3720 62df 201c adbf 17ff 5899 5d15 c03f
00000330: 0000 0080 521d bd3f 0000 0080 2ee7 903f
00000340: b950 8afa c6ba bdbf 1c62 497a 51d3 b9bf
00000350: 135a ecb7 94aa 9bbf 3598 6e0f 2faa b53f
00000360: f891 8fe4 c1f1 b5bf 65fe 42d3 05e4 bb3f
00000370: 992a 533b 30d5 babf d442 80df 5ae0 c0bf
00000380: 9fe4 032f 2d84 b73f ef71 5ee1 064b b33f
00000390: 0000 0000 a560 963f 0000 00a0 e74c b43f
000003a0: 4c29 ddf7 a50c b9bf 46b6 0737 5a3d c13f
000003b0: 0000 0060 7fa6 9cbf 0000 00c0 60a9 bf3f
000003c0: 1d37 348f cabf b5bf a800 fce0 cc36 9cbf
000003d0: 0000 00c0 1270 a4bf 0000 0000 cd72 c13f
000003e0: cc3d 4dbe b5bc b83f 9a87 a609 2053 bd3f
000003f0: 0000 00c0 0db0 c0bf 0000 00a0 9306 853f
00000400: 320e c797 e6d2 be3f ec4f e5d2 44e9 b63f
00000410: 0000 00c0 2856 a2bf 0000 0020 59ee a53f
00000420: 2371 67bb 669b 81bf 1d94 40d4 75e2 bcbf
00000430: 0000 00a0 22e2 b93f 0000 00e0 8062 893f
00000440: 6ade 7cd0 8c7b ae3f 73d9 5f4c b29e bf3f
00000450: 0000 00e0 ed68 543f 0000 0080 28f1 b8bf
00000460: 60bb 44cd b16f babf 40bc 77a4 bbf7 a23f
00000470: 0000 00a0 4b80 b8bf 0000 00a0 c9aa 7cbf
00000480: 22f7 c9ff 82ef b2bf 6188 18bc e28d c13f
00000490: 0000 0080 eb62 73bf 0000 0000 1ec6 b53f
000004a0: 683c f72f ff20 9e3f 362b f0c8 38a2 be3f
000004b0: 0000 0080 bff2 be3f 0000 0080 33f7 c03f
000004c0: 838d 92b2 05ac aa3f 89cf cfb9 8bbb 84bf
000004d0: 0000 0080 dbb1 9b3f 0000 0080 a54a b0bf
000004e0: a0ae a8ae a9ca c1bf 9a3f 8cfa 89e8 bf3f
000004f0: f788 95a4 9609 bb3f 00f2 f4a1 0d68 b73f
00000500: 98d1 da4f 4bb5 b63f 6ed0 f97d d66a 96bf
00000510: 38b6 1095 3774 b73f 8480 aed6 317f 723f
00000520: a713 811f 20a5 bb3f 3485 bf41 abe8 b33f
00000530: 0000 0060 e58b a63f 0000 00e0 5c41 bf3f
00000540: 2101 8074 daea a4bf bd0f 3552 8d43 c03f
00000550: 0000 0020 0491 b13f 0000 00a0 7d6f b83f
00000560: 9f85 328f 349d ba3f ba29 9f3d 708c 94bf
00000570: 0000 0020 a9fc b1bf 0000 00c0 01f2 b7bf
00000580: d239 d3a9 d194 ad3f d382 919b af25 bb3f
00000590: 0000 00c0 788f c0bf 0000 0060 2f5e b7bf
000005a0: 9a4e b15b 2b98 81bf 402f e1ae f7c4 be3f
000005b0: 0000 00a0 6afb 92bf 0000 0080 b9ed 863f
000005c0: 6eb0 1b6e ec12 92bf 325a 9723 af3b bebf
000005d0: 0000 00a0 89af 863f 0000 0020 d403 be3f
000005e0: c0e5 b732 f4d5 553f 4a51 540d 9ec6 b0bf
000005f0: 0000 00e0 6e48 50bf 0000 0080 d558 b5bf
00000600: ad80 2a2b 160b 6fbf 85db 916b 9013 b0bf
00000610: 0000 0060 b928 c13f 0000 00a0 317f b0bf
00000620: 2f7b 5846 070d 72bf eca9 5bda c45e be3f
00000630: 0000 0040 0083 a23f 0000 00c0 06da c0bf
00000640: 8893 c83e 5b57 b03f 6f7f c898 7742 b33f
00000650: 0000 00a0 bc8f bbbf 0000 00c0 f4f8 be3f
00000660: b879 1320 d883 bdbf f182 f4d0 fc88 bb3f
00000670: 0000 0080 6d1b 9cbf 0000 0080 641c bebf
00000680: 0796 e4ef c46a c0bf be63 c7f7 30d2 ab3f
00000690: abaa fa33 a782 aabf 7b89 31d9 47a7 b33f
000006a0: f221 b834 87ae b5bf 9723 8a1b 6661 bfbf
000006b0: 5272 c345 9daf b4bf e427 7ac2 609b a1bf
000006c0: dfe2 6317 0cf8 a6bf 5314 624e 6423 bbbf
000006d0: 0000 0060 44f1 b23f 0000 0020 6a3a c13f
000006e0: 0771 2d08 954e 94bf 32ac 1212 484d ab3f
000006f0: 0000 0020 4904 74bf 0000 0080 3037 b8bf
00000700: 30b4 7625 e188 b6bf 8d71 168e 6e88 bfbf
00000710: 0000 00a0 6003 ba3f 0000 0000 ea26 853f
00000720: 1fe4 c1aa 781b b63f 52d9 2d43 6b19 b73f
00000730: 0000 0020 75f4 a0bf 0000 0060 0e4a 973f
00000740: 503c d47a 6ade bdbf 4dc6 8bc6 2e81 91bf
00000750: 0000 0040 1fb4 a53f 0000 0060 8a8f b63f
00000760: 1ddf 2ada 06bc b3bf e6be 171b 9dcd b83f
00000770: 0000 00c0 fb51 b03f 0000 00c0 a91b be3f
00000780: 0507 9233 5066 b8bf 843c 0a72 1709 acbf
00000790: 0000 0020 6d02 b03f 0000 00a0 49a4 b93f
000007a0: a4d3 3b58 3cfa bd3f 116d 7e6d 8311 b3bf
000007b0: 0000 0080 6e24 aabf 0000 0060 2b54 9bbf
000007c0: d814 1227 5487 c0bf 9cb9 fdab 7c55 ae3f
000007d0: 0000 00a0 6f84 ba3f 0000 00e0 b796 91bf
000007e0: 7bf7 7033 836a af3f d0b8 9d9f 025c a03f
000007f0: 0000 0080 2e60 a0bf 0000 0080 659f bf3f

fc1.bias f8 [256]
-0.10912667854827847 0.06628765190766614 -0.0009786846819145934 0.1025442916115167 0.07533053361495834 -0.08130479407262463 0.10310312470165774 -0.07435470563811354
0.12104580622272895 0.023545321715818926 0.010280733220067579 -0.13406088894590776 -0.11167767602171721 0.107013637043592 -0.015403151806288415 0.02906339190717412
0.06861919091284663 -0.011157224470633848 0.05672381313946418 -0.08614155297323127 0.00528198575224438 0.041568005736758534 -0.12200704502755487 0.10895383153762198
-0.03713388585369638 0.03133691201639261 -0.0161874470294603 0.10368387265672961 -0.04297848409696384 0.10942991673016043 0.0700642301312411 -0.1182098330401084
-0.12108408053425716 0.06300625276364137 0.010743271405484235 -0.022911873407803224 -0.018694042970062705 -0.05195956188011517 0.075970078840624 -0.07869330768068802
-0.12209134633383999 0.028773666708340365 0.12168740252976155 -0.018681137834785356 0.07851115098916774 0.031376656728604436 -0.018549776021211616 -0.0024389207563099836
0.10672069852935852 -0.027331812205459913 0.08822141781803883 0.02629264789004954 0.14108236075754643 0.12931213340415618 0.12576853453046125 0.10318225754581938
-0.09818647629881506 -0.07259401489868508 0.02075896085824747 0.116129947219635 0.00012029309581136315 -0.11562243048600067 -0.052736752855532885 -0.018836272246751197
-0.11094615188702245 0.10514068212612099 0.03566856978654268 -0.07674548529571038 -0.12024798460646693 0.042801110645814 0.05540828109714887 -0.07195763724756177
0.12095099692590726 -0.11989398452049957 -0.021891476525285586 -0.021410114438368932 -0.10786029901610929 -0.07352399511666467 -0.0322488638747912 0.015443661059961363
-0.12065335163846967 0.10249984340447237 0.040904317415029534 -0.021271151833841116 0.0572286523476919 -0.0787457894924969 0.09998784181707174 -0.1333148879153595
-0.08057154731379505 0.11394893834771339 -0.07538342562918737 0.12195900561346835 -0.010080903895827312 0.07003876013086997 -0.05493807784158618 0.06359808730776575
-0.1345080446459039 -0.017335764489460167 0.11633814318286088 0.052309180415294775 0.018581094443453433 -0.08866035218297014 0.13740381356087333 0.00449959360620483
-0.026448648677659455 -0.08698491254965844 0.140612223576944 0.025224142143599006 0.023126010951508128 -0.050622377699107 0.07659275471591621 -0.10116379728862897
0.12731980126892445 0.10993804159033368 -0.06024637436543011 -0.058528333382693684 0.11377622527524904 0.0975518715018386 -0.055717017952438205 0.08132122338472655
0.10716834863203391 -0.08886864183404035 0.13269304184426053 -0.13090001075572613 -0.03134764855921781 -0.10564192975834016 0.0988169955764511 -0.049997273066529284
-0.07348409083305651 0.06503254728088798 -0.01509548796243275 -0.08050693157647575 0.06067871684727894 0.011028295824512922 0.056553404920291366 0.07346829141286762
0.1298853849637395 0.03618689669970209 -0.14549475487816801 -0.1193087198418268 0.036786382536560705 0.0677181845650582 -0.006076798623168951 0.025520871698309647
0.06531105445462843 0.07538845733514563 0.08681965109228976 -0.023057516288000988 0.12753425774053972 0.004029633911191449 0.06858824024501796 0.01069443852287382
-0.03464890342832452 0.06196894163738785 -0.09296858937442147 0.11197655712959001 0.07206051398808028 0.08095366611071567 -0.06418652207626939 -0.0690589178423881
0.10384896044874006 0.12911451354460426 0.09606769177529537 0.016008937938717095 -0.049047795792375774 -0.07136841647359668 0.12424258183974046 -0.08997296675058992
0.1208875833223768 -0.06864007819983314 0.135130330593593 0.10475284638424538 -0.0024777148383379115 -0.06474611177998262 0.044635798244084396 0.07883917010054464
-0.07060008208975402 0.10996728213526277 0.11091148054771412 0.07228476960287308 0.10346594993509813 -0.038239865904382615 0.003779540045824925 -0.12349245532996912
0.014190250495613605 0.02251593037689093 0.02899429678922893 -0.10622530187281118 -0.07840845106073566 0.0002901626376989137 -0.06739015980085052 -0.1038619109777598
0.09562047996166678 -0.023519835783556146 -0.12181750254319056 0.04031912120851438 0.009428617182712882 -0.13791421349168204 0.11437365601254577 0.0374932057448774
-0.035745538386285594 0.14076038258598772 -0.05701947030124138 0.08169858121454054 -0.02010896344561083 0.0839864666038619 -0.04938453442607974 -0.05835234265215078
0.014051574356153338 0.03948797962588393 0.11440553487454817 0.12729694533636232 0.07042265753075878 0.04498272228954506 0.06753950481621002 0.06128294161176892
0.006455681051141161 0.12728036685921068 0.02352152030300776 -0.10532249476031616 0.0861113198340925 -0.11289472150146808 0.10329875934573042 -0.0017275507973297732
-0.00014814731259582174 0.09348756972183891 0.007252004213499294 0.05275485375626958 -0.03014238697166513 0.094910349178281 -0.09038418565448397 0.043293025507714654
0.07478861223157682 0.03982140000041892 0.004904637546500663 0.1297165502761364 -0.06642557153668462 0.10683991925426839 0.08162023810356277 -0.00435592959294152
0.08997646582484792 0.019185240071122024 0.05211088315867808 0.1064259417927619 -0.0110659883121158 0.015071094410627817 -0.036116482886345114 -0.03465523581090999
-0.08083416748157303 0.011161349522628507 -0.14381610352458934 -0.006912067697790425 0.04049520128313755 -0.004060845475949012 0.08748348357731565 0.00043407184618472045
00000000: ed67 7cdb b9ef bbbf 6672 1241 3af8 b03f
00000010: 1a3f ecac e608 50bf 61ea dcba 5740 ba3f
00000020: b037 44a2 dc48 b33f b3c8 8c17 64d0 b4bf
00000030: f982 b564 f764 ba3f b1f7 04f5 e808 b3bf
00000040: 3669 0ba3 dbfc be3f 2414 f9ca 431c 983f
00000050: ea37 aca7 100e 853f 9d01 d93e e828 c1bf
00000060: 0ae1 347e e896 bcbf a707 54e7 3e65 bb3f
00000070: d84d 1b0a b08b 8fbf 0432 0237 cbc2 9d3f
00000080: 9041 d9fc 0691 b13f ca59 b951 99d9 86bf
00000090: 9144 ad54 e70a ad3f 03c0 d870 5f0d b6bf
000000a0: 0f70 0541 90a2 753f 0c0d 66d2 6648 a53f
000000b0: f762 468c da3b bfbf e25c 3af7 65e4 bb3f
000000c0: b24a a172 3603 a3bf f93b 8948 640b a03f
000000d0: 4399 632e 7193 90bf 97eb 2eba 068b ba3f
000000e0: 6498 419f 4601 a6bf ef5e 8f59 9903 bc3f
000000f0: 2279 08b9 baef b13f 0c0f f9e6 ff42 bebf
00000100: 3bfb f5c5 5dff bebf a937 1083 2d21 b03f
00000110: 7477 b57a 9100 863f a50b e8cb 3576 97bf
00000120: 9ce9 befc 8724 93bf 9daa fa95 719a aabf
00000130: 5753 186c c672 b33f 2612 e79e 3e25 b4bf
00000140: 3fe2 a0e3 6041 bfbf 2149 fe15 d876 9d3f
00000150: db54 33d6 e726 bf3f 0dbb 35f0 2521 93bf
00000160: c9aa de89 4e19 b43f 5dac 03e5 9910 a03f
00000170: b3d9 6f65 b6fe 92bf 9f2f 599c c9fa 63bf
00000180: 2168 fd35 0c52 bb3f 695f 40de defc 9bbf
00000190: 88d1 55c8 ad95 b63f b184 40bb 75ec 9a3f
000001a0: 6081 bf9e fc0e c23f 0d32 f9cb 4c8d c03f
000001b0: 754b 56ef 2e19 c03f 6bce af05 276a ba3f
000001c0: 59e6 9cb8 bf22 b9bf 660c e077 8595 b2bf
000001d0: 81c2 f047 d641 953f 7900 6535 b1ba bd3f
000001e0: 1ad3 57a6 bb88 1f3f 7b14 9f7d 6e99 bdbf
000001f0: 7b9d 9fc9 4f00 abbf 7a07 1dd5 d049 93bf
00000200: 8cc8 f88d f766 bcbf 64f8 35ef 7fea ba3f
00000210: 05e3 7499 2643 a23f 12f2 7595 97a5 b3bf
00000220: 9a70 4b69 92c8 bebf 6a99 e9f4 06ea a53f
00000230: ebca 7a66 795e ac3f 48fb acd2 d06b b2bf
00000240: 5f22 3700 a5f6 be3f 5eaf 8046 5fb1 bebf
00000250: 88f2 f21e b86a 96bf 8001 4475 88ec 95bf
00000260: c19b cf88 bb9c bbbf 9351 7ff2 77d2 b2bf
00000270: f0cb 594f ec82 a0bf 1edf 7619 eda0 8f3f
00000280: d7a4 7057 23e3 bebf bf6f 4403 6e3d ba3f
00000290: 7021 2023 69f1 a43f 06fd e5d5 1ac8 95bf
000002a0: 9d79 74ec 124d ad3f c966 911e af28 b4bf
000002b0: 0619 9a9e cd98 b93f c44b d555 7610 c1bf
000002c0: fb6b b340 56a0 b4bf 9a0a 9ef3 c12b bd3f
000002d0: fce0 bc03 544c b3bf c501 9094 b438 bf3f
000002e0: d5a2 5f04 4ca5 84bf d9e7 3668 0fee b13f
000002f0: 5af9 44ff d720 acbf a233 13d9 f647 b03f
00000300: d7ca 6642 8f37 c1bf df30 2276 77c0 91bf
00000310: bb6c 3f28 56c8 bd3f 3319 54d6 44c8 aa3f
00000320: 3886 d523 ec06 933f 14e4 13e1 71b2 b6bf
00000330: 1279 cbba 7296 c13f bd9e 2476 2a6e 723f
00000340: 1232 60c4 5a15 9bbf 8f6d a5aa a444 b6bf
00000350: ef24 d7d2 94ff c13f 3a3f 4e86 5bd4 993f
00000360: 8108 e552 58ae 973f 59ac 5321 2deb a9bf
00000370: 818b 9d30 959b b33f 5dd2 e4e0 dee5 b9bf
00000380: eea7 4ae7 034c c03f 4e7e 3745 e624 bc3f
00000390: ce45 34df 9cd8 aebf 6e3e 89fb 6cf7 adbf
000003a0: 1399 9e4e 7020 bd3f ed94 c3d1 28f9 b83f
000003b0: 7e6b dfe3 f086 acbf f679 e8ba 77d1 b43f
000003c0: 3579 8a88 626f bb3f 2330 5166 18c0 b6bf
000003d0: ab5d 90e9 15fc c03f 51f6 9ee0 54c1 c0bf
000003e0: 5397 bc8a cc0c a0bf 8efd 6579 590b bbbf
000003f0: 9232 4a14 124c b93f 477b 6b19 3e99 a9bf
00000400: 507e e776 dacf b2bf 943a bf17 f9a5 b03f
00000410: f82d ed18 62ea 8ebf e3e6 382e 1a9c b4bf
00000420: a938 d8e0 4711 af3f ffd7 2ccf 0096 863f
00000430: 9f5e 3861 91f4 ac3f 9a48 e964 d1ce b23f
00000440: 95e5 5294 15a0 c03f 1fe7 bcc3 1687 a23f
00000450: 797b f876 929f c2bf 6128 d929 048b bebf
00000460: 6a87 dd2b aad5 a23f a929 0d9c fa55 b13f
00000470: 3b3d 9d35 fce3 78bf 6415 3db5 2422 9a3f
00000480: ec2c f3aa 39b8 b03f 6616 c06e a84c b33f
00000490: 8a6d 170a d039 b63f 992a 89b9 639c 97bf
000004a0: 9cc0 0ee5 0a53 c03f 5391 d09d 6081 703f
000004b0: 4f17 beb8 ff8e b13f 9b7b a33d f7e6 853f
000004c0: d442 2246 80bd a1bf 7e8f 66a3 64ba af3f
000004d0: d31b eb1a cacc b7bf ca4e cae2 7eaa bc3f
000004e0: cc68 e9ce 8e72 b23f ead3 6f24 61b9 b43f
000004f0: ef5b 2925 876e b0bf 4c55 a161 d8ad b1bf
00000500: f2d6 d970 d895 ba3f 9577 8e0a d386 c03f
00000510: be89 606a e497 b83f edda 8fa3 a564 903f
00000520: f7ff bced ca1c a9bf 06ae b856 3345 b2bf
00000530: b8b4 c5a1 5cce bf3f edc6 b7e5 7708 b7bf
00000540: 7fb1 dc18 7df2 be3f a42b 106b 6592 b1bf
00000550: 6b6f 4c5f f34b c13f 651c 6221 15d1 ba3f
00000560: ef19 6206 254c 64bf 2360 a380 3393 b0bf
00000570: 64de 60db 80da a63f 40c2 39c9 cd2e b43f
00000580: ea9f abd3 d812 b2bf 3aa5 66d8 d026 bc3f
00000590: 3510 b4dd b164 bc3f d677 7131 4181 b23f
000005a0: a587 3897 be7c ba3f 69ed ecfa 2c94 a3bf
000005b0: 00f2 801c 45f6 6e3f c9e8 f198 339d bfbf
000005c0: b7d9 672e c70f 8d3f 8258 6e82 6a0e 973f
000005d0: 3fc8 eb51 aeb0 9d3f ee2b 8dd5 9431 bbbf
000005e0: 2e2f 0985 9312 b4bf b09a 180a 1f04 333f
000005f0: c9b7 6a44 7b40 b1bf 2b15 f3b6 b196 babf
00000600: e85f 4372 957a b83f ae9b fd75 9515 98bf
00000610: d7de 808d 6e2f bfbf 67f1 fc35 b5a4 a43f
00000620: 65ee 9193 4f4f 833f d2d7 4c46 2ca7 c1bf
00000630: e70b 1988 9747 bd3f 662e fe38 4f32 a33f
00000640: 32ab b13c 3d4d a2bf f6be e3ab 6f04 c23f
00000650: b8af 5bf0 a731 adbf 7030 72be 32ea b43f
00000660: f7e2 6bb1 7197 94bf 51c4 5e17 2380 b53f
00000670: c58e 9300 ee48 a9bf b804 acb6 5be0 adbf
00000680: 7f32 8962 12c7 8c3f 1315 28ba c437 a43f
00000690: 977f c45e ae49 bd3f 1ed9 8c2c 444b c03f
000006a0: d5f4 fd22 3807 b23f 34bf 3cb2 f907 a73f
000006b0: f4a7 5fdc 444a b13f 4cea 0c4c 7a60 af3f
000006c0: 1b16 cfaf 4571 7a3f 0aa6 8a1a b94a c03f
000006d0: 5381 d081 0616 983f 2e58 873e 6af6 babf
000006e0: 09b9 8036 640b b63f b965 bd20 abe6 bcbf
000006f0: 2177 1b99 c971 ba3f e137 4f8b df4d 5cbf
00000700: 764f a5b9 ff6a 23bf 70ae 8926 cdee b73f
00000710: b0c4 d60e 47b4 7d3f 1648 2d27 af02 ab3f
00000720: 1814 1159 a5dd 9ebf e0cc c56d 0b4c b83f
00000730: 7c2b 7601 6b23 b7bf a3ab 66e1 802a a63f
00000740: 5ed9 a5b3 5825 b33f 448f 5d75 7863 a43f
00000750: bb77 c69d e216 743f 11cd 974a 8d9a c03f
00000760: 5140 5e29 4401 b1bf 90b7 1a67 dc59 bb3f
00000770: 87b6 585d 10e5 b43f 8c67 53f2 85d7 71bf
00000780: 349c 209a b208 b73f aa7d afaa 4ba5 933f
00000790: 4249 dd15 47ae aa3f 4927 7203 bb3e bb3f
000007a0: 7e09 30cf c3a9 86bf 805c de0c 98dd 8e3f
000007b0: 98d1 af11 dc7d a2bf 5dd4 e2c0 54be a1bf
000007c0: 0995 bb49 8cb1 b4bf ce6a 6ef9 c2db 863f
000007d0: 8a5c a3ea 9068 c2bf 9a20 5b0b d44f 7cbf
000007e0: f0e0 4f7a c9bb a43f 2385 36e8 1aa2 70bf
000007f0: fb9b e74c 5165 b63f 7c98 2b62 8472 3c3f

fc21.weight f8 [128, 256]
0.043701029717076546 0.029295835981403125 0.009119041493768298 0.034240781915832144 -0.002388131166505459 -0.04156141396302862 0.021132770928972616 -0.02389708784083249
0.0024347892535339028 0.015870920583784722 0.023480914625369703 0.010675925636864762 -0.03014730451446493 0.041911950012537634 -0.0664937503185676 0.05397321431335077
-0.005656751216034001 0.04957860870427707 0.08692410241005315 0.07053237622719213 0.04631630630608417 0.010233602281800678 -0.09421982127536827 -0.031858265037698154
0.0143600646702525 0.0631384429256791 0.04587062828028209 0.09823440346450366 -0.05195469093639145 -0.05038510828813512 -0.018674698392540146 0.05645871891311379
-0.0319820558380853 -0.17351378094874634 -0.047486981630299734 0.13941970825220387 -0.0033687164089772153 0.17696789560928183 0.010962354594639467 -0.042108391336592006
-0.15322539081823375 0.06084614957729505 -0.07025062531514552 -0.05887031713726395 0.026806434725553257 0.0784614762061343 0.018377308148065066 -0.035402823157286954
-0.0341045100916724 -0.008311419627062175 -0.006847000949105617 0.2272892316373467 0.06815924074755314 -0.08621240980592929 0.016943286744324246 -0.03860964754215261
-0.2832591804528231 0.01723968163133199 0.0294886936664786 0.0027308616899179646 0.10433770390879517 0.08219292893720806 -0.07953633204047075 -0.013774690890039265
-0.021003129944469123 -0.013012381077395 0.03428586144103422 -0.15078059570321004 0.03870821375673954 -0.0023641253947148883 0.07553493992483812 0.07975426304402461
0.032873166388953115 -0.06674637809034777 0.04194265346374518 0.04309738998827598 -0.03914238098134983 -0.13263536460379366 -0.07026061456581333 0.011499482079029939
0.15486694027223322 0.04255301403478371 0.11750440837027903 0.05401044925152799 -0.06816387093998404 0.045733775400503995 0.037853947571974085 0.057616851831866926
-0.05415859025916935 0.2159090610051364 -0.14221942356635767 0.003303459126700208 -0.04377209525180792 0.0680478177939367 0.12583819535193588 0.06379414012650848
-0.022393541613709385 0.00027798871886121123 -0.12127987046133375 0.02238358780468932 0.07561674254291131 -0.37333366266750445 0.09633531591963362 -0.05496598184608628
0.015386951102597421 -0.008901953856948424 -0.009595747944155786 -0.03159088436109503 0.08151677056967174 0.030215518515260175 0.07216514065092917 0.09854778215284504
0.06065767145111592 0.0017453598318229833 0.006841172400905896 0.2579294675652069 -0.009613091622935964 0.013349116971128016 -0.0886948196751281 0.0539069387321976
0.08736863328306477 -0.047516738946558223 -0.07355809939612998 0.2087104838079987 -0.0032141393780602523 -0.02494632200308659 -0.07452445375588133 0.25765667131236475
-0.019987144476471177 -0.0034469441468009637 0.018825692732858272 0.007229659601206623 0.025845543183441108 0.03246639949326167 -0.10634459307738393 -0.1071509602604708
0.04164787552765345 0.05200913509746954 -0.029463598705662696 0.06372408908469984 -0.10760176370666528 -0.07512846692774637 -0.04221059879477553 -0.020796046444159458
0.04274172668938086 -0.01085138657795099 -0.009212748206191152 -0.05140564824170227 -0.020195018102031014 -0.07394609192241221 -0.005861354507040654 -0.04635806598192506
0.15731449454634577 -0.059377071696925764 0.05965876659981737 -0.050093294109795176 -0.05487106716119063 0.03373322350352781 -0.24357232019309746 0.10825644769381519
0.027260051108379743 -0.009206976511555387 0.0018034088520034594 0.08070957819562272 -0.023491151026792945 0.024979332230347328 -0.002033512909095133 -0.03306802563182625
0.029141953426459814 0.053402226725084066 0.021309597252144145 0.04892980530095155 -0.010130007342107271 0.010704754407963847 -0.03949355290535068 -0.04236208022171307
0.04521134354422642 0.045642246025325274 0.11536436666479695 0.012604334230140861 0.03848866744796213 0.027607879377267348 -0.0031058572295826073 -0.05588609430976733
-0.06735118171131471 -0.043155154164256485 -0.013239821685735552 0.04422574250452598 0.024697450106518512 -0.04821862693702588 0.0500745678797128 0.05149918257742963
0.0255030280471374 0.052014345433626215 0.036806168848520934 -0.033905426160166334 -0.12644585275965975 -0.061270849249821076 -0.031422717132807865 0.00766278372912784
0.04156679052276578 -0.09041892234999635 -0.10478880285759787 -0.053623633140239754 -0.057429764718530965 0.031688953129883735 0.004265961604599047 -0.21113317074021606
0.033520691804860676 0.030381960912324344 0.055716622174797 0.05135707815718024 -0.015186629202306574 -0.004086704915206395 0.036894021068020484 -0.022652748398195557
-0.03890670154808467 0.0007774520694593694 0.026585713378045012 -0.0006026512601102983 0.1388638563083158 -0.01948025470030654 -0.05944744141572235 0.020103994424918968
0.010165011620973316 -0.05901373000704854 0.03973250360515774 0.029761098527548963 0.005218235524758372 -0.04976462067293947 -0.017260626952467436 -0.020224495317807747
-0.040300274310130786 -0.03575209528923486 0.015187065996760236 -0.02213877012164897 0.03516106775343614 0.027962022779560954 0.017286382489998784 0.047403195093073405
-0.0006069294246259272 -0.026504972371182888 -0.05262174607777647 0.12609845987124657 -0.04182734204545839 -0.015227448170820161 -0.15275543489139426 -0.00660077634863916
-0.03372868548490472 0.01018038260674873 -0.004824389138675038 0.12090502420644664 -0.02323947631015383 -0.017059949402984765 0.0032652200500910182 -0.015105748971535264
00000000: 9d6b df3a fb5f a63f 92e2 cb45 baff 9d3f
00000010: 808f e407 01ad 823f 0233 09fd 0188 a13f
00000020: b543 4728 4690 63bf d452 7ea3 8947 a5bf
00000030: c820 0e40 d4a3 953f 4eeb fb6a 7a78 98bf
00000040: f239 ee86 1ff2 633f e785 7573 7740 903f
00000050: 5ba3 9581 610b 983f a209 b87b 42dd 853f
00000060: 4808 cf5b efde 9ebf 6b1a 3bad 7b75 a53f
00000070: fdb2 0103 bc05 b1bf 4ef3 ab8c 60a2 ab3f
00000080: 5472 9797 882b 77bf 3b9e ee0d 5e62 a93f
00000090: 63d8 1571 a840 b63f 2278 34e9 680e b23f
000000a0: 4e59 b659 c5b6 a73f b2ff f6d8 5af5 843f
000000b0: 743e 034b ca1e b8bf fd6f e3fc b94f a0bf
000000c0: b176 0441 cf68 8d3f 9c74 7c4b d729 b03f
000000d0: 1f1f 9fe0 5a7c a73f 5adc 38ce e325 b93f
000000e0: 3a24 e424 ce99 aabf 6d1d 9bb0 13cc a9bf
000000f0: 0d3b 6fcb 751f 93bf 5b9c 9c3e 28e8 ac3f
00000100: eb4f c4b7 f35f a0bf 1f43 4a17 b335 c6bf
00000110: efff 2cb2 3650 a8bf c537 ae47 81d8 c13f
00000120: 5335 cbd9 b598 6bbf 34ba 0a4e e2a6 c63f
00000130: c6e0 c453 6e73 863f d90c 5b27 3b8f a5bf
00000140: c195 3dbd e39c c3bf 6e44 0bfd 3927 af3f
00000150: 9b89 40ea f1fb b1bf 9b90 9e0d 4024 aebf
00000160: 4bdb df61 2573 9b3f 581d 4d22 0d16 b43f
00000170: a714 f045 80d1 923f a311 4b9f 5120 a2bf
00000180: a5cb fa76 2576 a1bf 853e dadb 9305 81bf
00000190: 7df5 6ed2 990b 7cbf 88c4 4e44 d017 cd3f
000001a0: 8451 ee4d e272 b13f 7a35 a038 0412 b6bf
000001b0: 8982 d0b9 9459 913f 16dc 01cb a4c4 a3bf
000001c0: 798b 151d eb20 d2bf 2f39 3373 47a7 913f
000001d0: efde 98bb 4832 9e3f d135 bd34 085f 663f
000001e0: 712b 0732 e0b5 ba3f 3e6d bf85 980a b53f
000001f0: 8226 f538 7e5c b4bf 4df2 14b7 e735 8cbf
00000200: 5089 e630 d881 95bf 822f 5d39 3ca6 8abf
00000210: c577 359b ea8d a13f f155 b54f c74c c3bf
00000220: b6f2 5720 90d1 a33f 324e 2028 ee5d 63bf
00000230: 9cb8 ae00 4256 b33f 5c9c 7d7f c66a b43f
00000240: 32f0 1c6d c0d4 a03f 4745 0667 4a16 b1bf
00000250: 9455 dee9 8179 a53f 15d0 1571 dc10 a63f
00000260: 23aa 675c 780a a4bf 1817 a214 32fa c0bf
00000270: afcc c181 99fc b1bf 775c 9a5b 0a8d 873f
00000280: b3b4 d90d aed2 c33f ed51 4037 82c9 a53f
00000290: b40f 16d7 c414 be3f d1eb 5af2 41a7 ab3f
000002a0: 2bbc 74fc 2f73 b1bf 78e6 55db 6a6a a73f
000002b0: 9937 b1b5 9761 a33f 1ff8 a1bc f47f ad3f
000002c0: 4fd3 ebbb acba abbf 30ac f679 e8a2 cb3f
000002d0: b967 89fe 3e34 c2bf 7111 361d db0f 6b3f
000002e0: 80f6 2acb 4b69 a6bf 4c37 fdef 946b b13f
000002f0: 91e6 cf4a 771b c03f 4d11 8511 d054 b03f
00000300: d26f 7d23 55ee 96bf d748 c774 e037 323f
00000310: 4b67 4b95 320c bfbf 6667 5a26 b9eb 963f
00000320: a279 406c 9e5b b33f eec7 e9df b2e4 d7bf
00000330: 901c 5367 6ea9 b83f f4ca d74c 8024 acbf
00000340: e59c 2a9e 3183 8f3f 231f 7d05 303b 82bf
00000350: 9a74 ce7c efa6 83bf 8080 5d2e ae2c a0bf
00000360: 3e1a ac77 48de b43f 033d 6b1f d1f0 9e3f
00000370: 81c9 0127 6a79 b23f dc96 706d 6d3a b93f
00000380: f4a2 44b6 850e af3f ad85 6fd9 9198 5c3f
00000390: 1da9 a63b 7d05 7c3f 2181 f798 ea81 d03f
000003a0: 6c5a 1251 07b0 83bf a660 9226 c856 8b3f
000003b0: 844c d425 b4b4 b6bf 29b8 c3b5 b099 ab3f
000003c0: 80a0 a56e ca5d b63f 9879 932f 1d54 a8bf
000003d0: ce25 431f b4d4 b2bf 17d3 246f 06b7 ca3f
000003e0: fb09 6ff0 8954 6abf 4b8d a254 878b 99bf
000003f0: 0f3f a2db 0814 b3bf 4180 3868 727d d03f
00000400: f7ac 778f 8277 94bf 7777 360c c43c 6cbf
00000410: fedc 72da 0a47 933f ad39 c6f8 d89c 7d3f
00000420: 5c85 e10a 4177 9a3f 5db9 1598 6f9f a03f
00000430: d5b0 5f35 6639 bbbf 72c0 0dce 3e6e bbbf
00000440: 1ca5 adce de52 a53f 337b acfc f0a0 aa3f
00000450: 1602 74a3 b42b 9ebf a80f 96ce 3850 b03f
00000460: 1faf 1c08 ca8b bbbf b30a 7484 9e3b b3bf
00000470: 937c bcaa a09c a5bf 047e 740d 8f4b 95bf
00000480: 6765 9c5c 3ee2 a53f a498 bf73 4039 86bf
00000490: 57d6 0322 22de 82bf a43a 0e54 d751 aabf
000004a0: d351 29b9 00ae 94bf 0149 798e 21ee b2bf
000004b0: ab22 b05e 1302 78bf d2aa 9892 3ebc a7bf
000004c0: a6b4 a1a0 e122 c43f 431e 24ea ab66 aebf
000004d0: 1d8c ee06 988b ae3f 47a5 e607 d4a5 a9bf
000004e0: f369 e87d 0f18 acbf b0fd 7827 7b45 a13f
000004f0: 4758 b8b6 602d cfbf fb12 6dce b1b6 bb3f
00000500: ecb9 fd0f 0fea 9b3f e0ec 1878 1bdb 82bf
00000510: bc5d 9a82 0b8c 5d3f c6fb d206 62a9 b43f
00000520: 3034 9f75 100e 98bf 0363 059c 2e94 993f
00000530: de0b 19ee 95a8 60bf 5793 43d1 4aee a0bf
00000540: 31ff a163 63d7 9d3f 6bb8 a262 8957 ab3f
00000550: eed2 27dd 2ed2 953f 8a6c 22d3 530d a93f
00000560: 59d3 f091 0abf 84bf 5457 c0d0 5fec 853f
00000570: 493d 43bc 7f38 a4bf 411b 498a 7bb0 a5bf
00000580: 3381 dcf3 f025 a73f ed50 fda3 6b5e a73f
00000590: 4df5 f2e5 8488 bd3f c951 731a 4dd0 893f
000005a0: a646 e95f c9b4 a33f b52b 266c 3d45 9c3f
000005b0: 626c 4467 7471 69bf 9126 b926 1a9d acbf
000005c0: 780b cc52 ed3d b1bf ba21 94af 6e18 a6bf
000005d0: 392d 29c9 7a1d 8bbf d781 65ab c1a4 a63f
000005e0: 8c23 02d2 494a 993f 574e 81a3 1cb0 a8bf
000005f0: a634 cfae 5fa3 a93f a7af e1d1 195e aa3f
00000600: d34c a53d 771d 9a3f e9db 1ed1 9fa1 aa3f
00000610: ceab fd16 42d8 a23f 5f9b 0751 0d5c a1bf
00000620: 22a6 28b1 602f c0bf 01c7 738b e45e afbf
00000630: 40ad df6c a316 a0bf d7f0 34d8 0263 7f3f
00000640: 6e38 ca0b 3e48 a53f d6cb 6eca b125 b7bf
00000650: e2a7 4261 70d3 babf 7e93 428d 8e74 abbf
00000660: eaed 9022 6f67 adbf 30b6 acd2 8839 a03f
00000670: 1c71 3e59 2f79 713f a30a b767 6906 cbbf
00000680: 7914 15c6 9f29 a13f 39f2 06e2 721c 9f3f
00000690: cf2e 2b9c e386 ac3f 4cd7 3496 794b aa3f
000006a0: e444 15de 2a1a 8fbf b2f0 587f 38bd 70bf
000006b0: 0967 cfeb c5e3 a23f c799 2336 4832 97bf
000006c0: 270f 7d45 94eb a3bf 195d 349b bd79 493f
000006d0: 9585 ff05 4939 9b3f cb18 feb9 67bf 43bf
000006e0: 8967 b874 4ac6 c13f b919 6cc3 a1f2 93bf
000006f0: 123d 6c21 e56f aebf e6c4 4b3a 2496 943f
00000700: 18e8 cdc3 64d1 843f dc5d ca30 0c37 aebf
00000710: a90b 2597 d157 a43f 88b5 7983 b179 9e3f
00000720: 4a21 bf6e b75f 753f 8984 9394 bf7a a9bf
00000730: 5fc4 1311 c5ac 91bf d452 dfe7 bab5 94bf
00000740: 391a 5dd0 3ca2 a4bf 13bd 0f40 194e a2bf
00000750: 44ea 397e 651a 8f3f d8a6 95b6 8bab 96bf
00000760: 78d8 2fa8 a100 a23f 020f 7995 13a2 9c3f
00000770: 99bf d77d 85b3 913f 0a23 4d49 3b45 a83f
00000780: 1fcc ce03 4be3 43bf 23fd 0f96 1e24 9bbf
00000790: 5fc8 eccc 3cf1 aabf 5c8a 9c8c fe23 c03f
000007a0: 16e4 53b4 646a a5bf 9c62 297f 912f 8fbf
000007b0: aa88 9276 7d8d c3bf 4ed7 ba68 6a09 7bbf
000007c0: 3281 30e2 e244 a1bf 54a1 dad2 73d9 843f
000007d0: 2b3b 2e19 bdc2 73bf de86 e3b4 a1f3 be3f
000007e0: 91c1 e9da 16cc 97bf 6d68 07d3 2978 91bf
000007f0: 2a51 8aaa a9bf 6a3f 3cbf 834e c3ef 8ebf

fc21.bias f8 [128]
0.030071307338533505 0.05901219917331357 0.029653680926708465 0.024839065907943974 0.03964982080705638 0.03241009281344696 -0.012409623086671616 0.04524653701755371
0.0006131600035638523 -0.027043733513330448 -0.0362562230971696 0.04107717597668169 -0.06550940074233227 -0.04802205706081926 0.07213572242957345 -0.02312931062122949
-0.018611173609019042 -0.005628489274337618 -0.03856556886104011 0.07814854516096392 0.041025519196351036 -0.006236305193438298 0.02423232655181771 -0.006551859321522178
-0.05939559311818384 0.029052119949726483 0.04219766743682206 0.06924307671816596 0.010302064113852177 -0.03841820454971848 0.010981655488197349 -0.026582023579931106
-0.029001765258357307 -0.03569037174834193 0.025452984820353113 0.015146642935356279 0.0543274138274948 0.04397074685540317 -0.04565161710897357 -0.06823947801117428
-0.03467922480683269 0.01890054903102535 0.03382002261377111 0.013621226527242923 0.05321957156685896 -0.04876446934316214 0.09021033338763318 0.012910997048752655
-0.03758874500513764 0.0173790814477446 -0.0629609033893879 0.004026924426396963 0.04874789911800649 0.03188458554414826 0.028391381099735193 0.07052787674145264
0.05355673177246755 -0.022572668651411273 0.02400503585239111 0.028149635454021407 -0.002837533801743964 0.02311038843033309 -0.002618579061350531 -0.06525187456475069
0.025884888871078475 -0.04429136509845571 0.02758721973675851 -0.014049813701756793 -0.03432898198712253 0.005488029029652739 0.06518424730333493 0.015973643580199766
-0.03375098381556 -0.012829706722928654 0.012973958007847028 0.036930207941899384 0.053701930467595436 0.07370685051028096 0.06254442534850603 0.026146701090659048
-0.039916004920356844 0.06845843543473985 -0.008998834832516579 -0.0006718210495141744 -0.052005497776402204 -0.004284343708810542 -0.010406419171980425 -0.05034616730578436
-0.01331370329224357 0.014459888624333957 0.01780719417515514 -0.018069079513150427 0.020045365883921716 -0.05796479275793637 0.004109786864746198 -0.013310589131099155
0.04906013362668453 -0.0499154990911997 -0.029307369759389572 -0.012359102646276184 -0.03729118507933836 0.009615900767648403 -0.006669630091025036 -0.022857663570436358
0.05027254214843808 0.05233346439463031 -0.06741694804683795 -0.02142259006817699 0.010674880934085036 0.0017554116639672995 0.061237684894752044 0.06278334492470465
0.04031789511326941 -0.004376547355824623 0.041566290264222074 -0.017779071505680238 -0.05117887343574326 0.05759299414443906 -0.05221343203343802 -0.05170032297668117
-0.010064670758203003 -0.03581095240314423 -0.05223275508866563 -0.00993628473837668 0.013229885907380954 0.0140163700498815 -0.03882492143202938 -0.01250925928335678
00000000: ca92 4446 03cb 9e3f 1062 07d3 d836 ae3f
00000010: f519 25d7 885d 9e3f eb83 f37e 696f 993f
00000020: c22f 5137 fb4c a43f 5d5e 6341 0e98 a03f
00000030: 4ce7 806a 376a 89bf 88cb 7ed9 8d2a a73f
00000040: 4285 cd14 8f17 443f 8087 013c 5ab1 9bbf
00000050: 5328 f5f8 2c90 a2bf fe1f dd4e 1108 a53f
00000060: 02d5 c45d 39c5 b0bf ca2f 20d9 5896 a8bf
00000070: 8856 b598 7c77 b23f 66f0 c9c2 35af 97bf
00000080: 71b2 f6b7 ce0e 93bf bb25 bf15 e60d 77bf
00000090: ee04 05c2 ddbe a3bf f841 b205 8b01 b43f
000000a0: f5de 7ffe 4b01 a53f 68b9 a86d 3d8b 79bf
000000b0: 9b27 2fe8 5bd0 983f 310f 3958 1fd6 7abf
000000c0: cb30 f063 1969 aebf c911 41c4 d6bf 9d3f
000000d0: fe9e 37c3 ee9a a53f ee9b fa0d eab9 b13f
000000e0: d031 9aa3 3f19 853f 7462 3908 8dab a3bf
000000f0: 5f06 6cd9 8c7d 863f decc bf67 5138 9bbf
00000100: 2460 3e85 a3b2 9dbf 66e6 e126 0246 a2bf
00000110: 4b56 8ee5 5810 9a3f 3f90 6900 3405 8f3f
00000120: 8aa8 5483 cdd0 ab3f 8405 736f 5583 a63f
00000130: 3e30 fc14 a65f a7bf 9aa6 5a76 2478 b1bf
00000140: acbd cab0 79c1 a1bf e4d9 db5f aa5a 933f
00000150: 2afa 26a6 db50 a13f 2c32 ba13 72e5 8b3f
00000160: 6f09 c67e 983f ab3f 2044 1212 a8f7 a8bf
00000170: 9040 a93f 0618 b73f 0448 aab0 1471 8a3f
00000180: cf4f fdfc d43e a3bf 0572 cf69 d2cb 913f
00000190: d2e9 fbac 341e b0bf 83fa 6f4b 897e 703f
000001a0: 92cc eb10 7cf5 a83f 1a38 5128 2d53 a03f
000001b0: 4a1d 3f55 a112 9d3f 6694 0f6c 1d0e b23f
000001c0: 4f04 e3b6 c96b ab3f 5fa5 9026 4a1d 97bf
000001d0: 0089 b3af c694 983f 8768 ad0e 42d3 9c3f
000001e0: 9b32 275c bd3e 67bf e248 06ea 3faa 973f
000001f0: df94 c6ed 8e73 65bf d91f 42cb 58b4 b0bf
00000200: eec2 a57c 9181 9a3f f7a5 2f99 5bad a6bf
00000210: 684f 3afa d23f 9c3f 6458 e912 26c6 8cbf
00000220: b01b e17d 9193 a1bf 8ace 3a93 9d7a 763f
00000230: d7d7 6132 eaaf b03f 3284 1913 655b 903f
00000240: f52c 6417 cf47 a1bf 1e87 5616 7646 8abf
00000250: 2b3e bf2a 1792 8a3f a09b b026 84e8 a23f
00000260: 6347 2ec6 d17e ab3f 23cd 6ec0 73de b23f
00000270: 1940 6b55 e902 b03f f5a6 5468 33c6 9a3f
00000280: bf97 70df de6f a4bf 59d9 53f5 7d86 b13f
00000290: 274d 762a fb6d 82bf 88dd dcb7 a403 46bf
000002a0: c4dd 52f0 76a0 aabf 499e d3c1 758c 71bf
000002b0: 1dd4 18f0 f54f 85bf e354 1d0c f9c6 a9bf
000002c0: bea6 d401 3744 8bbf a468 f665 259d 8d3f
000002d0: b097 7692 0c3c 923f 08ac 4f66 b380 92bf
000002e0: c695 a1bb c586 943f 48f4 6db2 8fad adbf
000002f0: 2383 d782 6cd5 703f f789 1108 9542 8bbf
00000300: 6691 edea 681e a93f 6a08 5238 868e a9bf
00000310: 0eeb 974a c002 9ebf 91a9 63ad ba4f 89bf
00000320: 0e8f b088 d417 a3bf 828e 8c5a 80b1 833f
00000330: 66bf e031 9d51 7bbf 56f2 fdd5 ff67 97bf
00000340: 2922 d498 52bd a93f 0665 1fac 73cb aa3f
00000350: 38ab 0eb3 3c42 b1bf 3228 f4ae cdef 95bf
00000360: e434 0144 b6dc 853f cf33 04ec bac2 5c3f
00000370: a5b9 cfbb 8b5a af3f 5362 2fbd 9112 b03f
00000380: 5bfc e811 8ca4 a43f 1add 337c 24ed 71bf
00000390: 8d0c 9a42 2d48 a53f bb39 ae4a ad34 92bf
000003a0: e426 4e07 1e34 aabf dd7d a834 d47c ad3f
000003b0: c6b6 fd0d b8bb aabf 7445 c1f8 7678 aabf
000003c0: e30c 033e c99c 84bf defa d12a d055 a2bf
000003d0: 1d87 c56d 40be aabf 2ee8 f58f 7959 84bf
000003e0: 8585 6a3a 4518 8b3f a772 c857 9db4 8c3f
000003f0: 0a03 a42f dce0 a3bf 4253 275c 749e 89bf
