weights/model_30_norm_intersuite2_lfnew_so_0_1_bn.pth (torch, 599504 bytes, 14 tensors)

fc1.weight f8 [256, 30]
000000 5f eb 8a 20 9a 04 c2 bf dc 00 98 12 e0 d9 bc 3f
       -0.14076544369694496 0.11269951299619002
000010 78 e2 a1 b7 ff e0 bf bf c9 5a ab d8 bd e7 b3 bf
       -0.12452696068965874 -0.0777548459985652
000020 89 de c4 ba 5d ea 8b 3f c1 ee c7 4c 13 53 bb bf
       0.01363061166976755 -0.10673637985740482
000030 bf 61 d8 fc 80 7e a5 bf f4 85 80 66 fa 2d bd bf
       -0.041980772843263285 -0.11398282053462322
000040 6f a0 8a 3a 08 c0 96 bf cf 9b 81 d2 58 8a c5 bf
       -0.022216919491853945 -0.16828451422335752
000050 4c bf 8d 13 35 cf a3 bf c8 44 1b 87 56 3d 96 bf
       -0.0386902414674056 -0.0217183608973002
000060 cf 6f 15 d9 91 b4 80 bf ee f5 d6 06 63 f1 b5 bf
       -0.00815690940606109 -0.08571452061638471
000070 24 8e 86 ed 0d e7 c3 bf 98 ad 44 a0 78 16 99 3f
       -0.1554887208741188 0.02449978330802835
000080 88 30 e9 44 48 4b b6 bf 44 58 c1 c2 35 ad 9c 3f
       -0.08708621675867978 0.02800449372474413
000090 19 88 85 75 7e 28 b4 bf fc 24 70 f3 ae c7 c0 bf
       -0.07874288911037332 -0.13109385382293925
0000a0 e0 87 14 9b 2b df b3 3f 77 9b 67 f8 13 76 c1 bf
       0.07762405906808523 -0.13641595486771127
0000b0 a0 b1 4b dd c6 d7 67 3f a3 3b 20 51 d2 1f c1 bf
       0.002910507590391201 -0.13378361664987634
0000c0 d1 b6 e1 f4 8e e8 c3 bf 4f 17 63 46 78 c3 c1 bf
       -0.15553461987604192 -0.13877776562565677
0000d0 d5 e3 16 00 a9 41 c3 3f 2d 5c 39 38 0f 9a b8 bf
       0.1504412889896957 -0.09610076067598135
0000e0 90 eb 75 48 90 3d c4 bf c4 fb 28 be a0 13 a1 bf
       -0.15812877214542853 -0.03335287400522405
0000f0 85 37 11 8f d3 68 ba bf cc c7 b4 43 b6 47 b3 bf
       -0.1031620239529883 -0.07531298783285861
000100 61 62 3b a5 bf dd c2 3f b9 e0 5f 20 7b d8 c1 3f
       0.147392230682061 0.13941897469317668
000110 5e 69 86 0b 72 20 c5 3f ae a4 bd 0d 10 4a 96 3f
       0.1650526577257762 0.021766901816054833
000120 e6 fd 2f 50 cc 67 a9 3f d1 60 dd 68 e7 e9 c0 bf
       0.049620041645535726 -0.1321381818804697
000130 3e 1e eb 67 8e 78 b5 bf cf f0 5e cf 56 70 c3 3f
       -0.0838707927424531 0.1518658173134839
000140 e5 fb 27 83 88 d0 c2 bf 10 b4 12 d2 9e 22 b4 3f
       -0.14698892978773795 0.0786532652734453
000150 bf 5b 1b b1 f6 f7 c7 3f 6e 08 cd 71 8e 39 be bf
       0.18725474975391695 -0.1180657413324597
000160 8b 90 04 25 05 0d bd bf 72 aa 8e e9 72 fb b3 3f
       -0.11347992089992169 0.07805555536348566
000170 4f 61 5e a6 1f 44 9c 3f e8 f3 5f f8 b5 ca 96 bf
       0.027603621033990774 -0.022257655415149374
000180 57 82 b0 e4 99 2e 96 bf c0 56 1a 3f ac 1e c8 3f
       -0.02166214426336163 0.18843606072612396
000190 bd 0f fa a6 ac b6 b0 3f 9d ce 11 2d 15 33 b7 3f
       0.0652873904855928 0.0906232104333022
0001a0 b6 b1 23 f6 2f fa c2 bf f5 7b 9b b6 cd 02 c3 bf
       -0.1482601119854629 -0.14852305809378633
0001b0 b5 82 8e 17 e3 61 be 3f 33 90 13 20 28 ef c6 3f
       0.11868113827814393 0.17917348448020362
0001c0 f8 1c 93 05 89 a5 c2 3f 4f 12 44 3e 00 1a a9 bf
       0.14567673465919717 -0.049026496506517796
0001d0 e9 11 b7 40 46 de b6 bf 9e 88 55 bf 92 34 99 3f
       -0.08932913856467163 0.02461461346445814
0001e0 1c dd 43 63 ba 56 b5 3f b1 2c d2 04 61 69 be 3f
       0.08335461543525863 0.11879545562458095
0001f0 f0 8a 4c 50 7c ca c2 3f 93 d3 d7 38 3d 81 c6 bf
       0.1468043701252877 -0.17581906581440573
000200 5e 44 c3 8f 0e e1 c8 3f 23 0f b4 00 c6 9b b8 bf
       0.1943681909529315 -0.09612691418811585
000210 40 1f 0b 52 7d 1d c1 3f 88 5c d9 61 a6 17 87 3f
       0.13371244913127533 0.011275577412716467
000220 15 ef 81 fe 61 4c a8 bf be b0 c9 53 61 29 c6 3f
       -0.047457754438225454 0.17313782302097097
000230 a6 58 03 e8 04 42 a9 bf 2e 78 54 a1 da 8d c5 3f
       -0.04933181125822843 0.16839154126586336
000240 4c 4c 77 2d 32 be bc bf e9 0b ee 37 d6 4a 82 bf
       -0.11227716073999366 -0.008931802350849298
000250 8c 1f fa 7f 2d c5 98 bf 78 a3 15 2a 9f b8 c6 3f
       -0.024189673362826222 0.17750920824917293
000260 fc ba 77 76 bb 9f a8 3f ca 82 8d 33 6f 2f c3 bf
       0.04809366055621031 -0.1498850824091476
000270 a2 e4 02 ec 71 49 c5 3f 27 35 ea 74 1f 9d c4 3f
       0.16630386375417056 0.1610450096963316
000280 46 42 27 d9 73 29 a4 3f dc a7 df 35 05 b4 c0 bf
       0.03937875772283354 -0.13049378519582333
000290 cb a4 d5 4d 63 c5 b9 3f 77 14 07 72 c6 49 c5 bf
       0.10066815042741266 -0.16631393974072115
0002a0 94 0d e9 83 3c 8f c1 3f 77 d1 a4 ed 94 44 c7 3f
       0.1371837276547977 0.1817804489488812
0002b0 8a 99 e6 f7 71 5f b1 3f 71 d6 ae 5a 40 3c c7 bf
       0.06786262800469536 -0.18152622630957496
0002c0 62 31 06 71 3b 1d b3 3f ed 87 3b 89 27 15 82 3f
       0.07466479787234939 0.008829411387925002
0002d0 55 d9 5a 69 d0 ce 90 bf 45 25 a2 f4 bb 44 c7 3f
       -0.016413933210708127 0.1817851013659412
0002e0 e4 86 89 d8 7e a0 b5 3f 84 44 e7 65 32 35 c8 bf
       0.08448021685174073 -0.18912343955756594
0002f0 41 d3 47 8b 6a 79 c1 bf 1f b9 27 cd f8 70 c1 3f
       -0.13651782799538562 0.13626012818662844
000300 00 4d 54 fa 06 b5 9e 3f 08 86 a4 04 a8 fc 9e bf
       0.029987439183128295 -0.030260682376257036
000310 8f d6 ed 79 3f 72 c0 bf 90 78 14 04 ee 6a b0 3f
       -0.12848657086913248 0.06413161849602234
000320 0f f7 d4 85 4f 15 90 3f 4d 27 e5 54 23 6a a0 3f
       0.015706293624353992 0.03205976878469006
000330 ce 67 0f 67 13 ba c5 3f 77 de b8 49 72 61 ab bf
       0.16974108249888648 -0.05347783231667063
000340 6f 27 10 c1 28 ce bf 3f cf 93 d3 fd d9 e6 b2 bf
       0.12423948968367225 -0.07383501479087261
000350 80 7a fb 7c b2 ed c1 3f 68 f9 d6 fc b5 f3 bf 3f
       0.14006644346860142 0.12481248305173198
000360 64 94 97 80 53 b0 c0 bf 8b f8 a5 e3 e5 1c 9c 3f
       -0.13038104800139927 0.027453987140227325
000370 b7 e1 77 a5 12 dd bc 3f 6e 1d a3 25 2b 74 c4 bf
       0.11274830379250643 -0.1597951825881227
000380 0a e7 66 a5 b9 11 a2 3f d8 6a 9f 36 dd c5 c5 bf
       0.03529148239199571 -0.17010083357930372
000390 14 f0 e2 b5 b2 62 be bf 7b 79 4b 55 d4 4a c2 bf
       -0.11869351330364025 -0.14290861286913156
0003a0 a7 c4 59 33 18 e5 be bf 84 b7 56 58 42 c4 8b bf
       -0.12068320516279361 -0.013557928391346293
0003b0 00 d9 90 0e ad 7e c8 bf e8 16 d0 b2 46 5a 87 3f
       -0.19136584483357666 0.011402656871733766
0003c0 da 4b 75 ab 5b 92 c3 3f 96 bb 43 42 98 37 ba bf
       0.15290399429303997 -0.10241080873286842
0003d0 b9 eb 14 2e 76 4c b0 bf 32 45 88 9f 4c 29 b8 3f
       -0.06366671204607045 0.09438017744857488
0003e0 07 53 0a eb 64 71 b6 bf b8 81 00 ab 35 41 c0 3f
       -0.08766775835313122 0.12699004029947303
0003f0 30 c6 a1 c6 48 3d c0 3f 1b aa b9 2b bd 23 b3 3f
       0.12687024782967304 0.07476408307562858
000400 08 23 b4 c9 eb 30 80 bf d8 63 d3 45 5a c8 c5 bf
       -0.007905809491164387 -0.1701767769762046
000410 b2 96 cf a6 92 cb c4 bf 9f 5f 06 c9 5a f8 b8 3f
       -0.16246255059302467 0.09753959091028584
000420 53 97 63 e5 a5 a6 7f 3f 94 35 6d db 1e 10 c4 bf
       0.00772728732247237 -0.15674195970715898
000430 65 57 c0 9b f8 4d c1 bf fe 0d c4 25 ae 48 37 bf
       -0.13519198994680007 -0.0003552842297411539
000440 8f bf 1d a2 d1 90 b4 3f 06 33 10 bf ab da bd bf
       0.08033476074137823 -0.11661790289526772
000450 92 6d d9 83 b8 19 b4 3f 2a 36 14 69 17 ce c0 bf
       0.07851746767976511 -0.13128941183860948
000460 da bc 0e 0d b3 2d ac bf 09 36 47 e7 7a 30 b0 3f
       -0.05503615888971476 0.06323974749030738
000470 b6 22 5a 76 8c 8c b7 bf 5c 45 cb b9 be b2 b3 bf
       -0.09198835267501235 -0.07694618259417524
000480 4d 8e 6e 44 87 c5 bd 3f dc 2b 15 65 d4 86 a6 bf
       0.11629529400539092 -0.0439974187271088
000490 cc f4 37 ac 7b 6d a9 bf 58 2f cf 0a 77 5a c4 bf
       -0.04966341473844124 -0.15901077297018662
0004a0 02 14 7a dd 86 9d c4 3f 5f 44 0a a8 17 41 c4 bf
       0.16105733694362817 -0.15823646264155664
0004b0 83 91 c8 6a 3d da aa 3f c3 65 e6 cb ea f4 b9 bf
       0.052446288380710214 -0.10139338949229341
0004c0 91 06 b9 a6 56 1a b5 3f 0a 46 7f 5c 6a b3 b1 bf
       0.08243314333324238 -0.06914391287070756
0004d0 ad 88 b0 9b ee b9 a9 bf d5 e8 72 0d 5d a5 c5 bf
       -0.05024667406566272 -0.16910899311716912
0004e0 4b 04 39 59 6b 63 b9 bf 6b 55 f3 62 ad 0c c8 3f
       -0.0991732685879622 0.1878868802220198
0004f0 54 f0 80 8a ac 7c 92 3f 25 24 90 f8 7e 4b bc 3f
       0.018053718522637333 0.11052697723802447
000500 35 fa 71 6f ff 70 c5 3f e7 70 7f fc cb 84 81 bf
       0.16751091901456197 -0.008554071086046068
000510 37 de 78 d3 df 19 94 bf 37 cf ef 86 ab 4c c1 3f
       -0.019629952699885513 0.1351522835608365
000520 49 cd 63 17 7f b7 9a 3f 34 4b ac 02 ec 31 b7 3f
       0.02609060840854952 0.09060549798259104
000530 d2 f6 45 96 d8 49 63 3f f9 a5 e6 7e 69 9b b7 3f
       0.0023545484747832046 0.09221515033882345
000540 ec 06 99 e9 b8 6d a7 3f 33 70 70 a9 44 99 c0 bf
       0.04575898982558421 -0.12967737458609604
000550 78 26 3e 24 14 e4 a5 3f e9 97 9e c6 88 97 b4 3f
       0.04275572721878701 0.08043722962483425
000560 6b c6 84 16 3b 48 c8 bf 7e 53 9e cc 1b 82 c7 bf
       -0.18970430945914826 -0.18365809908996406
000570 ad f2 51 ac 8c 2b c4 3f 8d b8 c0 cf 7a 44 98 bf
       0.15757902540271598 -0.023698729448533618
000580 8c c6 ce 99 ca bf a3 3f 9f 44 7b 6c a1 19 b8 bf
       0.03857262733016595 -0.09414109133219249
000590 0d 7c c0 de 5f 26 66 3f f8 cb 7f d2 67 2e c3 bf
       0.0027038452590342267 -0.149853685171905
0005a0 d9 f9 1c 59 bc f5 85 bf 35 42 43 79 54 44 c0 3f
       -0.010722609967726381 0.12708526536018075
0005b0 57 aa 21 74 75 a3 99 3f 7f 0d b9 76 ba 10 a6 bf
       0.025037608349899845 -0.04309637736562432
0005c0 9e 6e ed 46 54 e7 c5 bf cc 54 83 56 b7 3b c5 bf
       -0.17112210715537385 -0.16588489269512363
0005d0 cd eb 13 9c 97 b0 a8 bf 5c 4f f8 ce af de bb bf
       -0.04822229175802981 -0.10886668017365991
0005e0 1e ad 39 90 2e 76 ba 3f 92 d5 15 f6 0b 75 9d 3f
       0.10336581250310359 0.028766810316900378
0005f0 7b 01 61 58 8a 6d a6 3f d4 8b fc 70 ad 70 c4 3f
       0.043804477013057196 0.15968864457053533
000600 6e cf 13 3c 85 10 b7 bf 75 0e 9d 60 64 a2 b7 3f
       -0.09009583203061108 0.09232165678718636
000610 ff 26 53 cb 1f 2f b9 3f 16 a7 2f 4b 38 7b a9 3f
       0.0983753081701728 0.04976821821021653
000620 d4 d7 76 95 b2 07 b4 3f de 0c a5 21 d9 3b a5 bf
       0.07824245595006057 -0.04147223029806367
000630 62 15 65 19 5c fb be bf 73 49 4b 53 eb 61 c5 bf
       -0.12102294559470786 -0.16705075804800237
000640 3d 3a 9f ae 21 7c bc bf f7 62 d8 1b e5 50 c0 bf
       -0.11126909745437615 -0.12746871814376678
000650 7f a9 03 56 c7 21 b5 3f 79 1e bb 81 55 30 5f bf
       0.08254667139013881 -0.0019036135699241048
000660 b9 75 2a 49 d7 20 bb bf b5 26 4b de a2 ec c2 bf
       -0.10596986328388071 -0.14784656385591224
000670 bc 0e f1 bc e5 94 c0 3f 7b 8b 3e a0 c1 bd bb bf
       0.12954398847261028 -0.10836420213904134
000680 a9 ad 5b dd ea bd 94 3f d1 12 87 7d 3a 61 93 bf
       0.020255727539660793 -0.01892558470878464
000690 9b 36 b7 05 bd b9 c0 bf 0e b0 67 9e 79 fc bc 3f
       -0.1306682851704196 0.11322746388731295
0006a0 4c 07 f5 f0 1c f7 ac 3f d5 1f 53 69 f5 92 c8 3f
       0.05657282296534891 0.1919848217278274
0006b0 30 36 fc c4 fb 9d a3 3f aa a4 2c 62 bc fb bf bf
       0.03831469325642123 -0.12493493458591112
0006c0 fa 42 bf d2 9e 86 a9 3f a1 38 00 2c dd b3 bf bf
       0.04985519716831806 -0.12383825611343237
0006d0 aa 9b d3 c1 54 83 a3 bf 05 d9 a4 db 9d b2 c0 3f
       -0.038111351643059635 0.13045094704438767
0006e0 f2 8a 55 2d 3f b7 9a bf 8f 88 a3 6b 1e b6 aa 3f
       -0.0260896560115595 0.05217070640516496
0006f0 48 76 7e fd 75 96 ab 3f aa 8b 4a 05 c6 f8 ba 3f
       0.05388230056199156 0.10535848263911754
000700 1d c0 77 de fd ab c6 bf c1 14 30 32 74 b1 9a bf
       -0.17712376940426192 -0.026067557872029527
000710 10 e2 de db a2 e0 be 3f ad 09 d3 67 c0 fa c4 3f
       0.12061517589507553 0.16390233106183186
000720 7e bd 31 ab 13 7b c5 bf d8 af 3f f2 ea 0e 98 3f
       -0.1678185068044335 0.023494406734172774
000730 6a 15 b9 e5 74 41 c5 3f cd 83 a4 9a a2 0d c1 3f
       0.16606007782881288 0.13322861243162124
000740 7a 4b f2 60 6f 1b ab bf 72 bd a4 f2 a4 90 af 3f
       -0.05294368799618261 0.06165042364079455
000750 8a 42 68 7d 84 c1 b1 bf 4b a4 c5 9a a7 04 b1 3f
       -0.06935909330082715 0.06647727516760076
000760 0c 48 b4 52 26 f1 bc 3f d8 30 f9 91 95 56 bd 3f
       0.11305465239664175 0.11460242093852757
000770 27 02 fe 58 64 1b ba 3f a1 1b cb d7 82 76 9a bf
       0.10198046848928098 -0.025842708989127442
000780 8c 99 b1 32 e1 34 9f 3f c9 b6 08 56 4a 64 b6 3f
       0.03047515746984568 0.08746780968132407
000790 15 80 be 36 c1 bc b7 bf 67 ff 14 2a cd ba c0 bf
       -0.09272391878630544 -0.1307007270315765
0007a0 fb 58 34 e8 f1 14 a0 3f e1 ae 30 2f e9 c7 c0 bf
       0.03140979728248002 -0.13110079578597492
0007b0 9b 16 4e df 2b 9a 58 bf 8d e4 9f 9c bb 16 c1 3f
       -0.0015016010704313246 0.13350625178990008
0007c0 d8 14 29 6d cd 7a bc 3f b8 bf e2 83 1a fe b9 3f
       0.11124881663370745 0.1015335628496804
0007d0 7e c0 8a e3 81 19 ad bf c3 e6 ea 7c 69 32 b6 3f
       -0.05683523085224439 0.08670672702546782
0007e0 76 cc 96 34 83 a0 b0 3f 98 13 a8 1d 05 88 c5 3f
       0.06494922670280964 0.16821350048135453
0007f0 64 e7 59 6d 82 13 c0 bf 11 fe 44 d6 d6 da b0 bf
       -0.1255953821126311 -0.06583922129811294

fc1.bias f8 [256]
000000 af 85 1e 98 69 73 b8 3f e1 54 f8 0e 1e 54 b9 3f
       0.09551105464790653 0.09893977990607851
000010 aa 45 f0 86 1f 26 c5 3f b0 a7 32 e7 da 97 bb bf
       0.16522592629239102 -0.1077858747909477
000020 fb a7 ca dd 69 21 c3 bf da 65 42 a0 94 55 c7 3f
       -0.14945720033330176 0.18229921174206148
000030 09 12 c8 ae b4 96 c3 3f 13 60 f1 42 b0 bb b2 3f
       0.15303667577985916 0.07317639955852
000040 1a f8 ea fe 26 c6 a4 bf 4c 8f 0f 8f 0f db b3 bf
       -0.040574282281781573 -0.07756135218329269
000050 9c f6 04 f0 34 03 b1 bf 3f 43 ab 50 a3 66 98 3f
       -0.06645518169258441 0.023829032705921845
000060 d6 90 a0 66 3d b7 c2 bf a2 b2 73 26 70 f5 b7 bf
       -0.14621703635305633 -0.09358883799331832
000070 f5 23 08 bf 2e 0a c0 3f 30 c4 dc f6 f6 b6 a5 3f
       0.12531074836468262 0.04241153491455696
000080 47 39 8e d8 1c 1c c0 bf b3 ac 9d b3 da ff c0 3f
       -0.12585793088914896 0.13280805368717594
000090 d1 4e 40 19 c0 c0 c3 bf 40 27 b3 14 a2 3b 97 3f
       -0.15431977494210128 0.022688419831673245
0000a0 89 83 38 b5 2e 12 b7 3f 15 f5 da 89 ca 3d bc 3f
       0.09012119221053018 0.11031785836799586
0000b0 5b 7f 89 a8 10 c7 83 bf 51 c0 8f 20 cf a0 c2 bf
       -0.009657030242294409 -0.14553250398558018
0000c0 31 e9 93 73 6c 01 bf 3f 67 b7 d0 99 d5 e6 b3 bf
       0.12111547300074645 -0.07774100308662711
0000d0 b4 da 3f 1e e1 27 c5 3f 7e e3 b1 ad e4 79 9d bf
       0.16527952172301286 -0.028785298444265355
0000e0 ef 40 98 54 26 79 bd bf 4b ba bf 6c a8 fb 76 3f
       -0.11512984814931192 0.005611093434693413
0000f0 42 25 43 ab f2 2e c4 bf 7e 90 e1 58 49 d5 ab bf
       -0.15768273699203844 -0.054361621951813696
000100 4f 8a 65 1c d1 7f b4 bf 61 8a 59 ab 14 42 b5 bf
       -0.08007533019330391 -0.08303956206649722
000110 a1 84 bf 49 ae cf a8 bf c4 e2 f0 ef 37 7b 88 bf
       -0.04845947885747504 -0.011953770646969793
000120 14 ab 25 0b 6a 13 96 3f ca 5e 1e 0e e9 6d 7d bf
       0.021558434419982467 -0.007184896823580986
000130 61 a5 10 23 60 34 bf 3f be 9f 58 37 cf 5f c3 3f
       0.12189293724136042 0.15136137201738892
000140 ba 58 3b bd a4 8f c5 3f c7 1b 80 2b 3b 1b 9d 3f
       0.16844615211329544 0.028424191026740233
000150 6b 9f 86 4a 3c c3 c5 3f 3f f5 d5 82 eb ee bc 3f
       0.17002061499556062 0.11302062935097455
000160 82 41 86 d1 74 da c2 bf 5d 9e 07 1e f9 af 94 bf
       -0.14729175787625698 -0.02020253415858374
000170 98 6b 6a fe 9a b0 c0 3f 3d ef 7f 8d a7 ac c1 bf
       0.13038957045213517 -0.13808149727980804
000180 47 44 5b 3c 12 61 b3 bf 46 4b 25 67 d8 7a 69 bf
       -0.07569993947551366 -0.0031103350276366097
000190 db d7 b7 e9 69 85 91 bf a2 44 fc 17 32 e5 b6 bf
       -0.017110495462439573 -0.08943474851209257
0001a0 88 e2 0a f4 6b 4f bc 3f c8 14 f7 a3 4f 74 d0 3f
       0.11058687885350527 0.25709906589720477
0001b0 b4 e2 5a 8e 91 e8 b1 3f 0e c2 e4 e9 48 f2 b2 3f
       0.06995496488060376 0.07400947294514301
0001c0 97 21 42 68 01 32 a2 bf 8c 3e 53 14 98 c7 bf bf
       -0.03553776166615135 -0.1241393136617665
0001d0 ce eb d8 39 39 c7 c4 bf e5 b2 08 46 07 f9 b5 bf
       -0.16232981991364998 -0.0858311220151325
0001e0 7d 08 d4 e4 60 78 94 3f 84 c0 5d 8f 1c 77 c1 bf
       0.019990457502907056 -0.13644749641708043
0001f0 5e 4a 28 31 ea d9 b6 3f 3a b8 34 d7 a5 7f a5 bf
       0.08926261615878547 -0.04198950054193103
000200 6c b6 a1 19 24 18 a0 bf 7e da 1d 24 28 60 a9 bf
       -0.03143418133627737 -0.04956174317242289
000210 60 fd 1e c3 99 e3 92 bf 3a ae 21 3d 4d fa c0 bf
       -0.018446352514499664 -0.13263860211314854
000220 95 42 4b c8 0c 00 c7 bf 11 bb 29 94 5d 40 b7 3f
       -0.17968902378062937 0.09082589022885325
000230 22 3f c8 b8 a8 01 b4 bf 7d e4 04 d0 df 42 b5 bf
       -0.07815031539234643 -0.08305167034713352
000240 c6 4b 7f 7b ed 09 b9 3f 89 94 be 4b cf a6 ae 3f
       0.09780773415631847 0.05986640739073674
000250 86 6e 60 e9 23 d7 c3 3f 11 99 af 47 b1 aa bf 3f
       0.15500306029649752 0.12369831085343132
000260 27 3c fe 46 26 26 8c bf 3b 8c cd 0c 8a 83 b1 3f
       -0.01374463943628086 0.06841337978907884
000270 4e 6e 63 d8 e8 11 c3 3f 28 c7 73 c7 1f b1 99 bf
       0.14898405614700255 -0.025089737461662015
000280 3f fb aa 5b 37 50 c4 bf d5 bb e0 2d a7 32 c7 3f
       -0.15869800544711585 0.18123330822115116
000290 4b a7 45 9c d9 64 a5 3f 3d 7f e7 92 3e e7 c4 3f
       0.041785049749548074 0.16330701993046573
0002a0 01 9c dd 8d bd 8e be 3f bd db 51 b2 bb 7a c5 3f
       0.11936554635541087 0.1678080197050046
0002b0 76 16 d6 f4 a8 63 d0 3f 2a a5 ff 9b 48 d3 c2 bf
       0.2560827628115939 -0.14707286469573805
0002c0 6b 49 f8 32 3d c9 c6 bf be ac 33 56 98 d2 b2 3f
       -0.178016328704483 0.07352592567956415
0002d0 63 fc 9c 31 e7 04 bc 3f 84 62 dc 2e bc c4 be bf
       0.10944981538067249 -0.12018943924011621
0002e0 1b 2f a0 3b e7 5c 80 3f 96 35 58 8f 92 c0 be 3f
       0.00798969889367345 0.12012592315314516
0002f0 9b 54 43 3d b4 4c c4 bf 38 62 7d be 25 9b af bf
       -0.15859082213743111 -0.06173055601420113
000300 80 a8 86 45 94 4d c1 bf 71 10 ea 3e 33 65 a1 3f
       -0.13518002886604918 0.03397522109028806
000310 88 22 3e 72 8f c7 bf bf b9 4f 41 20 da 16 bd 3f
       -0.12413879908684511 0.11362994468191702
000320 6d 29 20 9d 45 00 aa 3f a2 da 9e 43 c6 1f 81 3f
       0.05078332465207578 0.008361386240591632
000330 91 30 a5 93 90 af 5b 3f bb 01 f5 35 52 a1 c1 bf
       0.0016898071176738897 -0.1377356303655811
000340 6d 7b af 53 4f 20 c2 bf 5a ce 38 11 b7 9e c3 3f
       -0.1416110190029615 0.1532811006633093
000350 7e 1b 09 af 3c 06 a8 3f 52 14 37 64 6c a0 c7 3f
       0.046922584883353644 0.18458323376958902
000360 c1 12 1d 35 2f 6d c3 bf ca 2b ae 62 f7 c0 b4 bf
       -0.15176954358516606 -0.08106943282307025
000370 02 66 91 19 f0 29 bb 3f 3d 42 a2 d8 9a 32 b0 3f
       0.10610867141931382 0.0632721690074129
000380 23 91 9f 57 4d 1c ae 3f 35 e0 bc 82 d0 3e b8 bf
       0.058809678026394495 -0.0947084731277535
000390 7b f6 07 c1 fd 1d be bf 56 67 3b 36 37 af 95 bf
       -0.11764512980149704 -0.021176207242070554
0003a0 3f 73 b7 75 b1 70 c5 3f 79 7b 3c b5 95 8a c5 bf
       0.16750162361031504 -0.16829177236010276
0003b0 ac d2 05 32 3b f8 c2 bf 30 03 e0 85 58 fa aa bf
       -0.14820041601673972 -0.05269123682228949
0003c0 6b 77 bb 81 ac 74 b2 bf 18 a8 1a 25 5d fe 7c bf
       -0.07209280173580417 -0.007078517768301061
0003d0 20 8a 1d 98 43 5f c5 3f 08 09 52 87 f8 c6 c0 3f
       0.1669697277785227 0.13107210738605368
0003e0 c2 bf fe df 8f 3b c1 bf ed 49 9e 48 b9 96 b6 bf
       -0.13463018834363366 -0.08823736212642759
0003f0 18 4b 36 94 ee bf c1 3f 81 80 ae ab 25 fa c0 3f
       0.1386697982494176 0.13263388522046074
000400 7e 69 a9 8c 3c b3 b5 bf cb 2d fa 34 cd 3f a5 3f
       -0.08476618227124352 0.041502392498923145
000410 9e 80 69 78 b5 10 8c 3f 3b 02 76 ea 0b a0 ab bf
       0.013703744637666933 -0.05395543324539572
000420 1e 7e 6e 75 33 3d c7 bf 4c 30 42 a5 33 78 b5 3f
       -0.18155520662274766 0.08386538300163798
000430 1d 33 1c ba e6 ba c0 3f 11 cc c2 3e 64 62 b2 bf
       0.130703774332141 -0.07181383640526941
000440 a9 88 f5 0b 66 e4 af 3f de 8e ec 55 5b 90 c0 3f
       0.06228941818223294 0.12940541930685517
000450 5b a4 9f 4f 9b 4c b2 bf 89 55 d2 3d ff 85 c0 3f
       -0.0714814252275046 0.1290892650473945
000460 6f 78 04 50 82 2e af 3f 06 d4 4e a0 49 2c c1 bf
       0.06090171076560657 -0.13416405036483087
000470 3f ba 4f bb 5b 0b b4 bf 40 9b d1 43 40 cd aa 3f
       -0.07829831431420418 0.0523471911226836
000480 37 6c 55 4b 31 22 c4 bf 95 22 04 33 f5 43 c2 bf
       -0.15729347399141755 -0.14269890776656227
000490 81 be bd f7 94 43 a1 3f 3e a9 78 a5 02 f3 bb bf
       0.03371873401817727 -0.10917679347827389
0004a0 3a 5a b1 1b 5d dd 97 bf 83 18 88 54 d1 44 b2 bf
       -0.023305373015626275 -0.07136257470856049
0004b0 e1 61 31 b7 e9 01 c2 bf 4c 6f 0b 9d c9 29 c3 3f
       -0.14068337864843186 0.1497127548999465
0004c0 1d 7a aa a3 16 c5 c1 bf 38 7f 48 aa b3 98 90 bf
       -0.13882716170788081 -0.01620751120401495
0004d0 9c e5 a9 d8 0a 62 bc bf 1f 5e 2b db f1 34 af bf
       -0.11087100782051212 -0.06095081138999724
0004e0 a1 71 b1 27 43 27 c1 3f 22 5d d9 9b 1a 3c c1 3f
       0.1340106910528336 0.1346467267019103
0004f0 05 fe 31 01 36 77 bd bf eb 9c 4e ad 85 22 c4 3f
       -0.11510026482755371 0.1573035331941591
000500 ad 9c df 73 db 12 c1 bf 48 35 b6 bf 40 83 b2 3f
       -0.13338797719845755 0.07231526070082339
000510 df f9 2b 71 fa 75 82 bf 27 64 b3 80 04 07 af bf
       -0.009014088228920634 -0.06060041495374718
000520 b1 f1 78 7d 49 a1 bc 3f a0 be 6d 73 41 71 a0 3f
       0.11183604539195958 0.03211407217065454
000530 81 cd 6b 93 c7 ff b8 3f ca 46 c1 d2 f2 08 bb bf
       0.09765288685939845 -0.10560529370675478
000540 71 d2 11 62 df d1 c0 3f 2e e9 61 cb 09 ec c7 3f
       0.13140480316691908 0.1868908160284461
000550 a9 42 60 7c bb ed 9d 3f 34 e8 c1 3b fd b5 bc bf
       0.029227189508733407 -0.11215193470880608
000560 0e d9 e5 99 16 d9 c0 3f f6 13 32 d9 b4 00 c8 3f
       0.13162500872176291 0.1875215588117098
000570 e6 e3 ff 8d 1c d1 c4 3f 75 97 2d 13 b8 e2 43 bf
       0.16263157781193555 -0.0006068610003750879
000580 a5 0b 35 2b 35 46 b2 3f ae b8 7b 71 f0 30 c7 bf
       0.07138378434051036 -0.18118100682426558
000590 68 24 c8 5e 26 80 b7 3f 12 83 51 ae 04 f9 bf 3f
       0.09179916204461025 0.12489346748180832
0005a0 e7 21 79 a4 ca 63 a6 bf 8b 17 a4 55 97 92 c1 3f
       -0.043730099274913496 0.13728610688866313
0005b0 ca 21 d9 48 61 16 b2 bf e6 74 e8 c1 3f 42 c1 bf
       -0.07065399197120495 -0.1348342606369563
0005c0 5a 49 4e b5 03 a7 c0 3f 78 93 9a 24 9c 55 c2 bf
       0.13009687760183902 -0.14323760783477346
0005d0 a0 fa cb 04 2e 16 b2 bf 9b ac 2a 20 e2 45 90 bf
       -0.07065093628987507 -0.015891583646106083
0005e0 3a 07 90 db 50 03 cf 3f 73 44 e8 68 16 c0 bd bf
       0.2422886917193468 -0.11621227322781795
0005f0 69 f8 93 bc a1 fd bb 3f 62 07 45 80 32 26 c0 3f
       0.1093388638873606 0.12616568816343504
000600 64 c3 d7 7d dd 08 be bf 54 d7 2e be 6e d3 ae 3f
       -0.11732277223906135 0.06020685264176842
000610 0a f6 9d 4d a8 39 bc bf 90 2d bb 78 85 c6 ba bf
       -0.1102547826285091 -0.10459169576204475
000620 7c f4 dd bb 28 43 b8 3f 47 7f 20 dc a8 b8 ba 3f
       0.09477476679417579 0.10438018202011988
000630 67 03 1a 7b 19 9c b5 3f 28 66 4b d1 89 6c a2 3f
       0.0844131398716975 0.03598433189263189
000640 23 16 50 fd 22 3a c2 bf f1 cd 29 71 a9 5a a2 bf
       -0.14239919060507686 -0.035847945274237854
000650 2c e5 44 b9 a0 97 bc bf f2 1b 9b 0c e2 2f be bf
       -0.11168865702793046 -0.11791813667069542
000660 81 fa 2a 29 b4 ff ac 3f 3f d8 f8 06 f3 1b c2 bf
       0.0566383648160711 -0.14147794571334946
000670 fb 92 0f 46 b3 d1 c0 bf 74 56 dc a3 ec 0f bc bf
       -0.1313995449155739 -0.10961798668389539
000680 86 2d 77 d0 ef e7 b2 3f c4 6b e7 06 06 44 b6 bf
       0.0738515743207043 -0.08697545689157865
000690 26 d4 c6 a4 b2 0d af 3f 07 e5 aa 79 2b 49 90 3f
       0.060651381124820866 0.015904120732305873
0006a0 85 71 59 7f fc 64 c1 bf 46 52 9d 55 30 89 b6 3f
       -0.13589435785514695 0.08803083505819939
0006b0 41 9e fe 0b 9a 51 bc 3f e6 59 1f 4b e0 b2 bd 3f
       0.11062014382206888 0.11601068338436668
0006c0 8f d2 62 48 d2 7e b6 3f c3 d5 51 7f 39 57 c0 3f
       0.08787264125096271 0.1276618835142199
0006d0 20 66 20 60 93 df b2 3f ca 68 f2 cc f2 87 bf bf
       0.07372399422492792 -0.12316815856539445
0006e0 b8 d8 97 a1 b1 93 b5 bf fa c4 46 04 b8 ef bb 3f
       -0.08428487963815001 0.10912656883626318
0006f0 b8 a2 9a f4 e7 87 ba 3f 82 c3 54 fc 6c 59 be bf
       0.10363626214769794 -0.11855202827861258
000700 a8 d4 23 ad 5c 45 c9 3f 47 d1 dc 5f f1 48 c5 3f
       0.19742926076984202 0.1662885397032687
000710 57 c7 f8 bf 91 f6 c3 3f 7b d4 4a 25 2c 4b c1 bf
       0.1559621989595665 -0.13510658093369785
000720 9a 85 e9 66 59 3a b0 3f af 8b 5a ca fa 8a bf bf
       0.06339033854012258 -0.12321441116595964
000730 8f d3 4b 61 7b 23 ac bf 6c 32 35 d6 9d 99 c1 bf
       -0.05495820582101551 -0.13750050505986466
000740 68 f9 70 50 37 4b 82 3f 33 1c d7 a8 eb b4 b2 bf
       0.00893252577054389 -0.0730731284339619
000750 88 76 d0 82 7e b6 a8 3f a2 3a 6b cb b5 b8 ad bf
       0.04826732012609819 -0.05804985149517462
000760 fc 1a af 85 89 b8 c4 3f a2 58 ea ce 12 32 bb bf
       0.16188162829913455 -0.1062328105129802
000770 34 6e 8c 6e 31 7f 9a bf 93 92 7f ba f3 60 c8 3f
       -0.02587582814440577 0.1904587422024134
000780 5a 30 4e df 1e 9e bc bf 1f de a7 61 ef c4 ba bf
       -0.11178772880356416 -0.1045674909035985
000790 46 f4 37 ff b8 eb c6 3f b6 47 02 b4 fa 1c bc 3f
       0.1790686842140607 0.10981718916653346
0007a0 8c a8 32 a2 12 27 c0 bf 68 95 5f 2f 7c 66 bc bf
       -0.12619240684336253 -0.1109387984903002
0007b0 a9 3d ca 51 31 f8 b2 3f ba 65 7d 67 0c 13 bb bf
       0.07409961935831312 -0.10575940634352934
0007c0 32 92 3b 59 5f 95 c4 bf b0 f0 fc a8 8c 1a bc bf
       -0.16080848557534605 -0.10978011251148945
0007d0 41 d8 cb 80 3a 73 b9 3f 72 b9 bc 2d 8e 3e c2 bf
       0.09941449779930257 -0.14253403886091182
0007e0 9a 1e ba ac 57 f3 c5 3f 1b 4a 25 90 bc c1 b7 bf
       0.1714887231248568 -0.09279993552380754
0007f0 6f 0b 95 6c a8 54 b5 bf f3 37 a0 2b e7 f0 91 bf
       -0.08332302714283711 -0.01752053455134468

fc21.weight f8 [128, 256]
000000 2b e7 bd 49 5e ad a3 3f 04 2f f2 13 c9 98 99 3f
       0.03843207025688707 0.02499689277878671
000010 8a 23 4f 7e b0 0f 81 bf ad bb 26 61 cf be 96 bf
       -0.008330706457756926 -0.022212257675785874
000020 51 d6 07 54 f5 21 9b bf 61 10 cf 66 3a 6f 78 3f
       -0.0264967281854836 0.005965450412023982
000030 02 72 cd de 8f 3e 9b 3f c5 0d 5c d0 94 a7 65 bf
       0.026605842565333056 -0.002643385555417518
000040 f4 30 48 17 dd 3d b6 bf 50 5d 1b fd 48 86 aa bf
       -0.0868814641800702 -0.05180576409991977
000050 92 75 91 85 60 be a1 3f c5 83 cf a0 71 47 a7 3f
       0.034655586533271734 0.04546694839496682
000060 d0 8a 4b 13 72 62 97 bf 10 0b 6c 63 16 ba a5 3f
       -0.022836477687529222 0.042435359608154255
000070 28 36 c2 e4 96 2b 89 3f 5f 36 39 14 3b 5a b1 bf
       0.012290171486053117 -0.06778306239831398
000080 80 81 e5 c8 0f 44 b2 bf 64 ea 41 79 30 0c af 3f
       -0.07135103850078472 0.06063987236207849
000090 7f c0 94 9e 78 69 c0 3f 7e f8 b0 96 77 e4 a5 3f
       0.1282187246629327 0.042758690972264354
0000a0 ca 1f 32 f2 ea 20 9e bf fc 45 c0 7a 8e 80 a3 3f
       -0.02942244628187022 0.038090183719884124
0000b0 56 db 76 e4 30 09 a7 3f cc 3a e3 33 20 99 a4 bf
       0.04499199665899904 -0.04023075707811116
0000c0 0c 77 39 c4 69 74 92 bf 15 d5 f8 63 4e 7e 5f bf
       -0.018022205926505427 -0.0019222035915736392
0000d0 98 85 05 41 e8 9b a5 bf f8 9f 2c 9a 79 74 a4 bf
       -0.04220510286064466 -0.03995113379488652
0000e0 8d 58 0b 27 1e b6 ad 3f 79 0b 1d 86 8a b4 b2 3f
       0.0580300734197162 0.07306733869795136
0000f0 31 1e 2e 68 2b e9 ad 3f e7 23 aa b8 e9 25 94 bf
       0.0584195675538094 -0.019675876518281312
000100 9e 2a 3b 9e cf 4b ae 3f 81 07 b4 5e 3f 1c c2 bf
       0.05917214209110465 -0.14148704647237412
000110 30 fa 92 00 06 a0 8e 3f 62 70 b4 b6 c1 dd 9f bf
       0.014953658001442965 -0.0311193721546349
000120 7d 61 48 92 06 c2 85 bf f1 78 e0 50 e3 fa 8f 3f
       -0.010623980845637199 0.015615249543824624
000130 6c 40 de 6f 4c 71 a5 bf 1b cd c8 56 6d 60 97 bf
       -0.041880024581701786 -0.022828777715585873
000140 95 d9 f4 39 53 a9 b5 bf 2a 63 c8 be 4a 35 91 bf
       -0.08461494603111526 -0.016804855246024854
000150 fa bd 0c ea fa f6 9b bf 3f f8 e0 6b 66 1b b7 bf
       -0.027309341941132083 -0.09026184209594222
000160 43 ca dc 8e c2 26 b9 bf 24 0c 2c 72 a9 48 ab 3f
       -0.09824768054822024 0.05328874129011066
000170 23 a9 06 5d 74 16 a8 3f 94 66 e6 61 9b b2 ac bf
       0.047046314578738334 -0.056050162983592916
000180 68 71 33 c8 f2 31 9a bf 36 25 23 a7 3b ba bc 3f
       -0.0255811629002535 0.11221669035434875
000190 71 09 c7 e1 7f cc 96 3f 5c 95 b8 c3 4d 9e b1 3f
       0.02226447883163857 0.06882177379937587
0001a0 0d ba 5e 6d 10 75 a2 bf c0 f3 8b 6f 79 ce af bf
       -0.036049378729661276 -0.06212214934019
0001b0 5e 5a 9e af f1 54 ae 3f bb 9b b6 66 43 41 8e bf
       0.05924182194501236 -0.014772917339383676
0001c0 0b 23 77 42 95 94 96 3f de 5a c7 0f 40 27 9b 3f
       0.022051174337124595 0.026516915286118763
0001d0 ba 3f 2c 27 25 87 ab 3f ca eb 5a 55 f4 68 b2 bf
       0.05376545050796673 -0.07191397746912212
0001e0 83 12 bb 4a c5 48 9f bf f0 bf 27 34 3a f6 aa bf
       -0.030551035581782415 -0.05265981566105882
0001f0 17 34 b3 96 e1 4d ae 3f c7 62 4f 3a 36 22 b1 3f
       0.05918793644523406 0.06692828105532121
000200 88 76 05 e6 a4 61 78 3f 42 6c 6f 4a 0e 9b 87 bf
       0.005952495703551393 -0.011526214262565063
000210 6d e7 e1 10 96 a8 6e 3f 01 2b ba c0 d7 b6 9c 3f
       0.0037424975371864095 0.02804123987020102
000220 42 03 9f a6 d0 d1 9a bf c8 a7 ac 16 62 fa b0 3f
       -0.026191005868670965 0.06632054380011632
000230 e6 3e 13 3f c2 78 c0 bf 2c aa d1 c1 86 53 a3 3f
       -0.12868526534884167 0.037746630820795296
000240 ff 4c e8 27 09 f7 a8 bf 40 69 1e f9 37 87 95 3f
       -0.04875973331595595 0.021023630695347295
000250 2e b2 2a 6b 06 12 a8 3f e8 91 86 ee 50 9f a5 3f
       0.04701252039135216 0.04223111068430169
000260 99 41 7d 06 a1 fb 6c bf a0 a0 43 b0 a9 38 aa 3f
       -0.0035379548097937527 0.05121355320608356
000270 73 f3 d7 83 d1 1f a8 bf d5 e9 8e 60 0f 9d a8 bf
       -0.04711775526445807 -0.048073273217102454
000280 a4 9e b3 c4 08 d1 a8 bf 5d 06 ef bb 57 dd a9 3f
       -0.04846980477469501 0.05051683587181508
000290 85 77 53 12 11 ca 72 bf 50 a9 33 47 6f 37 a2 bf
       -0.004587237058528153 -0.03557918304598451
0002a0 92 13 a1 fd 67 23 a6 bf 43 54 56 99 e4 fa 9b bf
       -0.04323887797412519 -0.027324268206559543
0002b0 59 6b 56 d5 dc 08 a1 bf 5a 18 bf d1 6a 2d c0 bf
       -0.0332707415029378 -0.12638602487112643
0002c0 b8 f5 1f 2e f6 36 b3 bf 1a c1 d5 2f 17 09 9f 3f
       -0.07505739809126666 0.030308115286460248
0002d0 c5 52 1a 3a 07 fb ab 3f 24 37 9b d4 8d ae b6 bf
       0.05464956840765959 -0.08860098305305236
0002e0 42 57 2e 16 f4 5d 88 3f 32 52 af a6 b0 bd a3 3f
       0.011897952010069827 0.0385565951798167
0002f0 bc e5 8e 50 66 20 9b 3f 83 a5 b2 ea 1d b4 8d bf
       0.026490782420045753 -0.014503701901349647
000300 1c 3f 41 8d fc 6d c1 3f bd 37 3e 0c f8 8f ab 3f
       0.13616902253351604 0.05383277081919811
000310 83 da ce b2 79 bc c0 3f 56 64 da 08 dd ba a6 3f
       0.13075181227550922 0.04439440472669591
000320 bf 92 c4 d0 ca a2 ad 3f 53 b6 af 5b d2 ed b1 bf
       0.05788263128696291 -0.07003512133061322
000330 34 41 69 bd 24 12 a2 bf 4f 48 ff 91 19 b0 ae bf
       -0.03529467403552858 -0.05993728549187038
000340 82 d8 5d 6c 48 2e c1 bf 5b 04 f3 c6 1c 44 b1 3f
       -0.13422494212472108 0.06744556290779384
000350 e4 08 53 40 cb b4 b5 3f 2e c1 21 cb 3c 09 ae 3f
       0.08478994675082024 0.05866422633778466
000360 f6 14 87 55 a1 50 9a 3f a4 2b 43 77 c0 21 c4 bf
       0.02569820484656745 -0.15728002379759431
000370 a6 98 01 47 53 ee a7 3f ef 29 94 42 81 3f a9 3f
       0.046740152757409434 0.0493126291058451
000380 be 51 af 3c c9 35 ad bf 41 be b6 f5 75 e1 92 3f
       -0.057050980241601476 0.018438189623053217
000390 16 fd 4b 00 d9 54 a8 bf 2d 7b 5f 42 62 46 80 3f
       -0.04752233627913875 0.007946746492903134
0003a0 c4 4c a7 f0 e5 6f b1 3f ec 6c 19 7a c0 f5 8c 3f
       0.06811368108110388 0.01414060948007153
0003b0 11 20 47 d8 31 9e b3 bf 56 97 df 76 16 e9 b2 bf
       -0.07663260965557607 -0.07386913683111848
0003c0 3e 47 4f 5f 0d 6f 96 3f 45 e8 8d f3 df 99 93 bf
       0.021908005659333478 -0.01914167331731444
0003d0 f8 7a 9e 02 9c 0b a5 bf ff 81 93 3f 7c 1f a6 bf
       -0.04110419780703539 -0.04320896411968888
0003e0 b8 8e 2d a0 e9 56 86 bf 97 17 fa a8 2e 21 56 3f
       -0.010907960129493119 0.0013506847061832466
0003f0 b3 24 c9 20 38 6f 99 3f 7b 61 04 d4 eb 81 80 bf
       0.024838330269891084 -0.008060305030583184
000400 02 e1 b0 e6 ac a1 bb 3f 4b 6b 0f 40 97 bb 8b 3f
       0.10793572074988236 0.013541394846404172
000410 cd 15 1b f8 d4 f9 a1 3f c7 7f 4d a4 28 03 c0 bf
       0.03510919121394416 -0.12509639761537825
000420 87 b6 d0 87 a1 23 71 3f aa 02 76 ed 92 77 a6 3f
       0.004184370974184787 0.043881026732383546
000430 d5 d2 00 60 05 03 96 bf 21 ea 35 62 8e da b7 bf
       -0.02149589918572555 -0.0931786527416212
000440 23 9a 64 72 c8 ec bc 3f 81 2a ed 65 d7 40 b4 bf
       0.11298802178189553 -0.07911440123022297
000450 60 6b 7e b2 50 b5 a2 3f ea 79 3a b6 33 33 b6 bf
       0.03653957537536345 -0.08671878050743201
000460 e4 db 71 ad 24 2f 73 bf b5 aa c1 ac 8b 8f bb 3f
       -0.004683631202275305 0.10765908210457094
000470 65 d6 7b 57 d5 3e a4 3f da d2 38 3d 0f 09 81 3f
       0.03954188054005384 0.008318060928198024
000480 62 be 1a ad 3d 38 ac 3f 43 0f cb cc 8f a2 aa 3f
       0.055116584187427944 0.052021497487230416
000490 5b 1e 11 39 b6 f4 9b 3f cf 9f d3 0a cf c4 aa bf
       0.027300688965878766 -0.05228278166924804
0004a0 9b 97 ae 84 a1 2d a4 bf 8a 2c 50 42 55 b5 a4 3f
       -0.039410636374028495 0.04044596132742935
0004b0 f9 83 92 9c bb 19 a6 bf 8c 16 64 a7 f0 5d af 3f
       -0.0431650761249855 0.06126358073565283
0004c0 e2 50 04 a9 cd ec ab bf d8 d0 5a 35 62 c0 a7 bf
       -0.05454104126161653 -0.046389645588904294
0004d0 24 79 ec b3 c0 63 b1 3f ea 87 7d 0e f2 ae 52 bf
       0.06792835610074072 -0.0011403430780423337
0004e0 af 14 38 27 90 5d 96 bf 0f bf 5d cb 6c 4b a2 3f
       -0.02184128989576511 0.035731696915602844
0004f0 17 98 07 ac d7 2d 98 3f 0f 50 b6 21 49 a3 70 3f
       0.023612375140054178 0.004061971350342488
000500 9e b8 e7 3f 2a f3 a8 bf 66 97 b7 54 b5 80 8d 3f
       -0.04873020200817389 0.014405647895681727
000510 3f 57 3f df fc 01 92 3f 91 55 0a fd 5d fc 86 3f
       0.01758570778459689 0.011223539623908237
000520 c1 6b c3 cc 3d c1 78 3f 02 cb 4b ae 9f 39 8f bf
       0.006043664365473712 -0.01524662733706839
000530 00 a7 a9 1c 88 13 a6 3f f3 fa 69 78 0a 81 72 3f
       0.04311776494871644 0.004517594241973499
000540 e1 21 8b c4 82 58 9b bf 54 bf 15 a6 35 fd a6 bf
       -0.02670482945066677 -0.04490058567432578
000550 69 c2 b2 67 81 14 7b 3f a3 6e 60 93 9f da 7e 3f
       0.006611352432785191 0.007532714216747091
000560 b0 6b 38 58 02 b3 bb 3f fe 3c 14 b3 a6 3f 81 bf
       0.10820021299188798 -0.008422186222132751
000570 c1 f9 31 71 e9 43 b1 3f 39 1c 58 e7 bd bc a0 3f
       0.06744250310473544 0.03268998574281352
000580 ce 3a 94 80 be c3 99 bf 9c 5a 97 c9 67 d9 a8 3f
       -0.025160767171707836 0.048533671720794674
000590 60 1c 7b 92 a6 db a2 bf 88 ff fd 23 8f f0 80 bf
       -0.03683205164048142 -0.008271330152410675
0005a0 2d 94 a6 63 ba a4 a7 bf 8b ba d1 d6 73 99 bf 3f
       -0.046178650535957246 0.12343524927721654
0005b0 6c 47 b3 8f 27 04 a4 3f f2 8b fc 87 b7 5e c3 bf
       0.03909419659761579 -0.15132803096739128
0005c0 ac a5 22 f0 a4 a5 92 3f 46 93 83 ca 9e 02 a7 3f
       0.018210007816980386 0.04494186613172828
0005d0 91 84 85 ad 4d 23 9a bf c4 25 e0 2a ce cf 85 3f
       -0.02552529689399258 0.010650263484438656
0005e0 20 1b 27 29 64 c0 7f 3f 7c 2f 41 6a 1d fd ad 3f
       0.007751837971631287 0.058571738453422534
0005f0 4f 75 35 e3 74 40 ab bf a7 63 24 7b 32 46 6e 3f
       -0.05322613976998502 0.003695582004308712
000600 70 40 e3 04 6d 03 90 bf 35 00 bc 6e 2b 37 a4 bf
       -0.015638068602868704 -0.03948341109025969
000610 34 63 fa a3 11 4b a9 3f 35 e9 0a c6 83 20 a0 bf
       0.049400855318884856 -0.03149806778442824
000620 b2 1d 9f b6 30 d3 79 3f 92 14 c9 ee fa da 91 3f
       0.006304922377189314 0.017436905693348388
000630 86 89 62 f9 d1 af b7 3f 2a be 71 f0 44 0c 94 3f
       0.09252655352114489 0.019578053641849426
000640 c9 75 27 71 94 5c a7 3f 20 d7 30 7f 3a b3 80 bf
       0.04562820321346412 -0.00815435124068703
000650 18 7d 06 4b b3 f2 af 3f 93 14 c9 1d 3e f9 79 bf
       0.06239853182636973 -0.006341211931219298
000660 44 ff b5 9b b7 56 93 3f 4f 39 74 24 9d 62 61 3f
       0.018885487440911022 0.0021222180545300904
000670 d5 ab c1 b3 60 51 87 bf c9 2d 1f d8 cf 50 a6 3f
       -0.011385684476598637 0.043585295803122266
000680 dc a0 a3 54 4c 7b b6 3f e8 b8 cc 08 34 9b b9 bf
       0.08781888071428362 -0.10002446379505481
000690 0a 85 91 bc 8c fc a0 3f a1 e9 fe 9f 6a 04 98 bf
       0.03317680169926447 -0.02345434762512755
0006a0 91 65 83 4a 23 21 99 3f dd fe 31 d9 3a ad 58 bf
       0.024540473387650478 -0.0015061449710457788
0006b0 5b 4f 9c 5f 22 b5 aa 3f 7b b2 28 b7 42 d1 a7 bf
       0.052163194819654556 -0.04651840673281967
0006c0 e1 28 0a 08 1d 45 91 bf ef 6a cd 48 bf a9 c3 bf
       -0.01686520921297408 -0.15361777357869452
0006d0 13 6d e3 34 91 be a8 bf 81 95 22 19 df 39 9a 3f
       -0.048328912454701854 0.025611387166141867
0006e0 44 33 b0 e5 09 5e 9d 3f ea d2 29 18 05 19 7c bf
       0.028679041523037144 -0.0068597983359850265
0006f0 25 2c 69 50 94 ee ac 3f 3c a8 0a 26 b7 29 83 3f
       0.05650771600320351 0.009356909607351686
000700 fe 60 a6 14 3f d0 a4 3f 9f 4c 54 1e 8a 8a 72 3f
       0.040651294012777214 0.004526652837074568
000710 fc e3 25 d5 84 89 45 3f 35 0c cd 00 31 e2 aa 3f
       0.0006572626682973533 0.05250695357110439
000720 38 9a ab be 6e 72 6a bf a2 cd 3b 14 0c 7a b0 3f
       -0.0032283938393107524 0.06436229223236592
000730 7a 85 b6 53 af aa 9d bf 1e 38 10 29 fd 07 a4 bf
       -0.02897142361110159 -0.039123450529686674
000740 c3 d4 8c ed 4d b6 a8 bf 3c a4 ea 07 80 6a c1 bf
       -0.048265872237985195 -0.136062625756752
000750 ac 2f e0 26 2c 79 a5 bf 24 85 0d ee 7e 02 a1 bf
       -0.04194009756619663 -0.033222166594678165
000760 61 0f 61 45 76 59 b1 3f 67 ce c7 74 a2 af c0 3f
       0.06777133172823603 0.13035994245693702
000770 b7 31 fe 98 3b 5b a9 bf 57 4b 79 73 b1 4f a5 bf
       -0.04952417605008768 -0.04162363562195164
000780 a8 68 4e a0 71 55 b1 3f 50 62 b0 7c 88 61 97 bf
       0.0677100197193875 -0.022832996950543027
000790 ec 48 48 6e eb 60 a8 bf e3 23 d4 c3 62 50 9e 3f
       -0.047614438259317854 0.029603522493775968
0007a0 75 30 7a c2 f3 69 ab 3f e5 71 a8 a0 92 1f 9c 3f
       0.05354272603025915 0.02746419053629436
0007b0 e2 90 4c 5a 9a 18 a5 3f ef 56 d5 ef b6 7e 7f bf
       0.04120333053859483 -0.0076892038317361985
0007c0 c3 2a 45 6b 30 38 a0 3f f1 6e a8 dd 9a 11 89 bf
       0.03167868909311757 -0.012240610017264926
0007d0 5d 78 80 5e b6 d1 aa 3f f9 13 0d 06 0a 43 b1 3f
       0.05238122848116753 0.0674291863225135
0007e0 83 f7 26 59 89 ac 97 bf 63 84 e9 94 55 39 b2 bf
       -0.023119112078112913 -0.07118735204268627
0007f0 7e b0 b0 7e b7 f6 b1 3f 8a f7 c7 5e 90 f6 a8 bf
       0.07017084925672809 -0.04875613362308602

fc21.bias f8 [128]
000000 ef b0 74 04 94 b6 a0 3f b2 74 af b7 ae ee ac 3f
       0.032642961067127156 0.05650850288632493
000010 83 76 1b 13 16 17 3f bf cd 11 0f c0 42 b6 a6 3f
       -0.00047439850741946165 0.04435928911655971
000020 28 30 de 5a 8e 0e b0 bf 07 53 00 5e eb 45 a4 bf
       -0.06272210806326994 -0.039595942711605096
000030 fc cb 7d a8 39 c6 ab 3f 24 22 78 ed 2d 8d a0 3f
       0.05424671346454343 0.0323271133784753
000040 8e 08 06 9c 1c ef 96 bf 8d c4 4e b3 54 87 a4 3f
       -0.022396513960764745 0.04009499253096136
000050 da df 13 32 19 b9 a1 bf 40 32 74 27 99 7c b0 3f
       -0.034615313876144874 0.06440121854047565
000060 65 ce 6b 15 69 82 a7 3f 04 c4 b1 f8 c7 51 84 3f
       0.04591682802665956 0.009921610142756172
000070 80 21 07 8a 3a 8a 8b 3f 3c c2 bc fa e4 22 70 3f
       0.013447244012142034 0.00393952794165436
000080 2b 8a 14 d9 5b 2e a4 bf 70 a8 ed 99 cd 9d 64 bf
       -0.03941618943124 -0.0025166526460696434
000090 fb f1 2a e4 f7 1b b1 bf 07 0a 94 53 9c ab 8b bf
       -0.06683301277639224 -0.01351091508923209
0000a0 05 a3 8d 4a dd 9f a1 bf d2 0d b1 ff 39 b5 98 bf
       -0.0344227937228592 -0.024128824454477123
0000b0 91 af 74 0c fb dd 90 3f 07 59 6d ce 8f 17 ab 3f
       0.016471789012185992 0.05291413683760209
0000c0 cc 63 cc d2 42 42 b1 3f 7e 50 1c 64 c6 6f 9b 3f
       0.06741731306500681 0.026793575153604803
0000d0 cd de 9d 9a 94 6c 88 bf 2e c0 48 15 ce 4f a1 3f
       -0.011925850838209762 0.03381198892418556
0000e0 0e 7c 5f 7f c0 e6 a6 bf 17 f7 6f ec 30 5b a3 bf
       -0.04472924761625317 -0.037805107938750186
0000f0 04 01 73 ab 25 b2 b1 3f c8 4e 1f 10 61 07 aa bf
       0.06912455974361725 -0.05083754846387262
000100 64 9c 76 fd 2e 1d 8f 3f 4e 14 70 8b f9 4e a9 bf
       0.015192381963812625 -0.04943065478440954
000110 ef 55 81 1f 91 61 9d 3f 98 5e 98 50 32 d2 89 3f
       0.02869250063698375 0.012607949337549315
000120 67 eb f7 41 d0 62 89 3f 87 bd c2 50 8e 1e 9e 3f
       0.012395503056713953 0.029413436583749977
000130 11 7e 7e 6e ee 5b 91 3f 1a 78 44 89 b2 d0 b1 bf
       0.016952252859139764 -0.06959071971184053
000140 24 1f 9e a7 76 88 8c bf c3 bb bd 44 03 55 8c bf
       -0.013932158460888973 -0.01383402398616152
000150 ba 95 c2 f7 96 9f 9d 3f 6a a4 3e 1f fb 48 a3 3f
       0.028929098960949175 0.03766617542653068
000160 77 b6 a2 c4 6c df 81 bf 09 03 79 e7 58 9f 9b bf
       -0.008726930380670723 -0.026975049140904015
000170 da 25 8d 16 5b aa b4 3f e7 a4 31 f9 8d 49 80 3f
       0.08072442341394695 0.007952794234557149
000180 d5 c9 1a 73 37 1d ae 3f 1c 7e d3 bf d4 74 ab 3f
       0.05881665496908154 0.05362572518947337
000190 eb 21 50 75 15 df a9 bf f7 cc 7b 3b 7e 79 a3 bf
       -0.050530119486271584 -0.0380362937557041
0001a0 e3 c2 a5 f8 08 5f 97 3f 66 9e 2b 13 86 d1 7d 3f
       0.022823467422713583 0.007279895524994728
0001b0 41 54 a2 ab 1f 08 a7 3f 2c 24 cb 70 74 0d 98 3f
       0.04498385400908279 0.023488826164598617
0001c0 a3 54 60 cb 36 c6 7d bf f3 27 15 0a b4 f4 8c bf
       -0.007269109764839107 -0.014138609464357165
0001d0 a1 e9 6e 7a 25 a0 a0 bf 3a 1a 87 56 94 e9 96 bf
       -0.032471820064034825 -0.022375409871324893
0001e0 a6 85 1a 6c 82 72 a5 bf 70 06 d9 27 1b 9e a9 bf
       -0.041889262863388496 -0.05003437863753113
0001f0 d6 a2 79 1f 4c bf a6 bf 00 4e 60 9b 10 8e a7 bf
       -0.044428232996158876 -0.04600574394876489
000200 3f ed 6f 68 68 b6 a2 bf f5 56 fa af 2e df 85 bf
       -0.03654791140430768 -0.010679592843455302
000210 5c 58 13 19 47 a6 a2 bf 0e 55 45 43 f9 bb a6 bf
       -0.03642484837625723 -0.0444028753869735
000220 b9 5c ae 12 d1 28 88 3f 1c 2d 6d 49 45 a2 90 3f
       0.011796601660348892 0.016244013411136668
000230 1c 15 02 17 52 96 a7 bf 36 75 9e bd ee f3 a0 3f
       -0.046068730648622686 0.03311105789837614
000240 9b ed f7 03 f7 2d a3 bf 42 00 ad ee 17 89 86 3f
       -0.037460059389526644 0.011003672572428628
000250 0e 87 44 ec ce c2 a2 bf 0e 50 94 0d 93 f6 95 3f
       -0.03664251932265304 0.021448419288461244
000260 45 48 d4 97 d3 9a 8c 3f 63 3f 43 cf e7 2e a2 3f
       0.013967183180771179 0.035514110613461346
000270 98 8b c2 d1 57 69 9b 3f 0b 9d ca 53 04 1f 8b bf
       0.026769039323550098 -0.013242753798591985
000280 3e d6 a9 f3 e9 e8 87 3f f1 3e d7 60 f2 75 a1 3f
       0.011674716709630602 0.034102987595927454
000290 ac d7 b1 86 57 97 68 bf 33 bb 26 26 4f eb 83 3f
       -0.0030018529410495622 0.009726160384926885
0002a0 6e b4 bb 51 12 25 ae bf d0 fb d1 24 b7 80 9b 3f
       -0.05887658355445856 0.02685819780571902
0002b0 47 a7 bc 31 39 98 49 3f b2 80 35 6a 58 e2 ac bf
       0.0007810858983010393 -0.05641437813278695
0002c0 47 e8 3e 58 cd 08 a9 3f a1 83 a8 d7 40 92 bc 3f
       0.04889527990549474 0.11160664811224176
0002d0 b1 01 47 0f 1a 1f a9 bf e9 b8 8a 78 be f0 8b bf
       -0.049065412869370724 -0.01364277654041897
0002e0 5e 13 74 a5 f5 c7 86 bf 87 b8 7f 20 c6 ac 9f 3f
       -0.011123580085504233 0.03093251775128938
0002f0 d4 ef af 5b 39 a6 a1 bf 05 13 97 9b c7 18 ac bf
       -0.03447131389836469 -0.05487655424398067
000300 ae eb ac c6 ce 5e a4 3f 6c de 14 9a 07 90 b1 3f
       0.03978582549321828 0.06860396873241265
000310 dd 61 03 6c 85 51 b0 3f 7f d1 fd 41 92 47 a4 bf
       0.0637439144806033 -0.03960854583320649
000320 81 cc 6e 8f c9 df a4 bf c4 7a b4 62 f8 d7 b0 3f
       -0.04076986194504518 0.06579544458189007
000330 d2 c6 dc e4 83 9e 95 bf f5 f3 ca 93 70 c3 97 bf
       -0.02111250004163063 -0.0232064809995229
000340 af cb 81 71 f6 99 a4 bf 8d 84 88 6e e0 8a a7 3f
       -0.04023714194854421 0.04598142003329384
000350 e9 e8 21 0c 77 cf b1 3f 23 e0 0f 28 f1 54 93 3f
       0.06957191511347428 0.018878715582076332
000360 d5 78 d1 75 43 13 96 bf a4 1d 9c 97 7b 5f 83 3f
       -0.021557859483771608 0.009459462703957318
000370 5d 3f 38 4b c2 fe 96 bf b5 11 f4 d0 7d 88 8e bf
       -0.02245620330910413 -0.014908774317981302
000380 69 6e ea a1 8e 82 ad 3f f9 24 fc 62 b9 5c 80 bf
       0.057636697068315375 -0.007989357312470068
000390 08 0a 95 91 00 82 6a 3f a3 5b 50 e0 5e 80 9d bf
       0.0032358180148162087 -0.02881000751593955
0003a0 8a cb 57 f7 32 82 97 bf 59 e4 14 9b 9a b9 5f bf
       -0.022957607599845477 -0.0019363412687438879
0003b0 26 d4 d0 d1 50 70 a7 3f a8 af c6 ef 65 24 a7 3f
       0.04577877579905758 0.04519957115130008
0003c0 5e 83 93 2b 79 62 6b 3f 41 f4 c0 1d b2 f8 a2 3f
       0.0033428541761257166 0.037053648120924716
0003d0 9c f2 47 5c 5d f6 77 3f 41 b6 39 a2 a5 57 90 3f
       0.005850186051699648 0.0159593467964696
0003e0 b5 10 fb b2 0c f6 88 3f 15 06 9a b0 08 a8 a7 bf
       0.012188052379663675 -0.04620387225896764
0003f0 3d 43 95 1b a8 90 70 bf 31 bf f7 2a 4f 58 a2 bf
       -0.004044205351718952 -0.035829996104324364
