weights/model_base_w_lims_opp_pen_obs_l_saf_1_bn.pth (torch, 422458 bytes, 14 tensors)

fc1.weight f8 [256, 8]
0	0x3faabbfc2b414b49	0.0522154619981366
1	0xbfd490cec7f8950e	-0.3213383629648242
2	0x3fd2ff6befb235b6	0.2968396988661327
3	0xbfd283e3e4eef7e8	-0.289299939697115
4	0x3fa825e681d1a376	0.0471641572447145
5	0x3fab2b84beef2915	0.053066395099067666
6	0xbfc09604220c5c1a	-0.12957812941087427
7	0xbfccfc73c9c2ab16	-0.22645423270781667
8	0x3fd5dc1c8af27372	0.3415595394997616
9	0x3fcb613846e55348	0.21390441381177028
10	0xbfbc8ae9856e1ee6	-0.11149463183948746
11	0xbfc8dc5d8628ac62	-0.19422501612402515
12	0x3fd29cf40d128df0	0.2908296706829949
13	0xbfbdc7a27d646d2a	-0.11632743417105887
14	0xbfd43bfd0c19c790	-0.316161405388919
15	0x3fa6cb2363422514	0.04451857172632337
16	0x3fcf341884beb685	0.243777336899644
17	0xbfd6b905c04ad99d	-0.35504287508538274
18	0xbfcaf88c6c41a665	-0.21071009908637275
19	0xbfcc3b217a43cd20	-0.22055452794993702
20	0x3fbd9e13300d46d6	0.11569328234807172
21	0x3fb0aedd47ff7b70	0.06516821868670575
22	0x3f9ca0ca1fde0308	0.027957113451978294
23	0xbfbe5a950f76b192	-0.11856967570810742
24	0x3fd8a4dd33495c50	0.38506250389531704
25	0xbfca8f9c4b1b3bb2	-0.20750764529517834
26	0xbfd016fcff5cce02	-0.2514030927443117
27	0x3fd2225bfee8f519	0.2833471288066263
28	0x3fd73b2dc080e70c	0.36298698233768856
29	0x3fd147abb0314d2b	0.2699994297629071
30	0x3fc202ebacbe9e35	0.14071412977976797
31	0xbfc302cd5cda28b0	-0.14852301629827513
32	0xbfcbcc33c5ec2130	-0.217169257776058
33	0x3fbc5feafd1e480a	0.11083859138150856
34	0x3fd4ae46b067a4cd	0.323136970777864
35	0xbfc171ff3292a134	-0.13629140824674268
36	0xbfc91bc8d6335a89	-0.1961604162122124
37	0x3fc3f83fb0b536f0	0.1560134518462557
38	0xbfcb91ce3fc35bc1	-0.21538713563378845
39	0xbfd3eee946b269e3	-0.31145698455807586
40	0xbfc6c0cea4c123a4	-0.17775900883341678
41	0xbfbcb1c1bce3726e	-0.11208735333952699
42	0x3fdabc5ecc084072	0.4177472107412604
43	0x3fcc4e15b5152710	0.2211329588119999
44	0x3f9870c236073301	0.023867640063872212
45	0x3fbcb13dfcbf19a2	0.11207950039452055
46	0xbfa824635a547b7b	-0.04715261914883847
47	0x3fc810ec70e14246	0.18801646720614168
48	0x3fb1945803f69453	0.06866979691274482
49	0xbfc376d5063bf232	-0.15206396870043332
50	0xbfb6fb94877f76e9	-0.08977630909017943
51	0x3fc0b6870f606154	0.1305702996330732
52	0x3fd21a6f7ba98898	0.2828634936942165
53	0x3f6a9c1aa674e35e	0.0032482643615846926
54	0xbf975638ab0fce83	-0.022789845886974646
55	0x3f683ecd8e0c67e9	0.002959634279602764
56	0xbfac5b7a836ad10f	-0.05538542608465679
57	0x3fd1e8011a226211	0.27978541900805093
58	0x3fa9ee8b57156c34	0.05064807355912429
59	0xbfd6b6170cf2f976	-0.35486389412462616
60	0xbfd6e1a026462a68	-0.35752109277442523
61	0xbfc2c24b262a7560	-0.14655436862532678
62	0xbfc4b9e9233c9f07	-0.1619235441260047
63	0xbfd473dccf6dad75	-0.31957168823892995
64	0x3fd4baae7403498c	0.3238941319406414
65	0xbfc66260df36238d	-0.17487727068899198
66	0xbfc9db80c479f599	-0.2020111998898926
67	0x3f874cc04eabb6d5	0.011376860047188778
68	0xbfbdd8d3ea68c3d2	-0.11658977959520136
69	0x3fac8cd9d5e182ba	0.05576210723734705
70	0x3fcdd24af0fa068f	0.23298012510717966
71	0x3fd028b0d83c7f89	0.2524835693056891
72	0xbfd36f3e39c44ab2	-0.3036647380951464
73	0xbfd6014b5bbcedcb	-0.34382900198735616
74	0xbfce3970abb64fd0	-0.236127933353258
75	0xbfd4132c40e3c24c	-0.31367021881945756
76	0x3fc3cd19aac6a3c9	0.15469666327160628
77	0xbfd301c93ae8e659	-0.29698401215464326
78	0xbfd51117a475489d	-0.329168234447147
79	0xbfc4a4e3c12fb5a7	-0.1612820332806397
80	0xbfd449d8e2eddfe1	-0.3170072761636203
81	0xbfcba895abae511a	-0.2160822952543036
82	0x3fdb323b38c59724	0.42494087738156083
83	0xbfbe64302cf2321e	-0.11871625039402331
84	0x3fd50ec80998faf6	0.32902718484176263
85	0xbfb558bf3fa4fabb	-0.08338542274303055
86	0x3fd2a2d1c4e9c8a3	0.29118770818525713
87	0x3fbfb4080fd1a55a	0.1238408125515397
88	0xbfb1c7c966469223	-0.06945475336994682
89	0xbfd48b48bb55a9ed	-0.32100122732540975
90	0x3fb94745b96c395d	0.0987437799160253
91	0xbfa267046126a068	-0.035942208155859856
92	0x3fd427924576b5d4	0.3149152448994219
93	0x3fd259575306147f	0.28670294864452467
94	0xbfc1b4b8fcd842de	-0.13832771631179858
95	0xbfa257efad287899	-0.035827150237524204
96	0xbfd329285795c8ef	-0.29938705971939233
97	0xbfca7b4276792c87	-0.20688658509093136
98	0xbfce86843eb5b388	-0.23848012029648324
99	0x3fc379a412392e8a	0.15214968576252758
100	0x3fb923e90c224ab2	0.09820419832457608
101	0x3fc7140a1febbbf7	0.1802990585196935
102	0xbfb6e3919d33ed58	-0.08940992439231843
103	0xbfa9e8f39778ef71	-0.05060540412929882
104	0x3fd0ebf58bb30164	0.2644018043756857
105	0xbfd45edda9dfc1eb	-0.31829015340102157
106	0xbfc5f93325891eff	-0.1716674741057815
107	0x3fd4a190c384d1f9	0.32236117452273977
108	0x3fd5b46c5cd6937e	0.3391371637938433
109	0xbfc3ebca42d73f14	-0.15563324226104014
110	0xbfc7763ff95a657b	-0.18329620051808235
111	0x3fd61f3fb9aa085b	0.34565728312748484
112	0xbfc7c613f7a2304e	-0.18573236075860894
113	0xbfbd4fe386997952	-0.11450025592919147
114	0xbf90b9dd1da5128d	-0.016334013876319765
115	0xbfbcbb243a7a88b1	-0.11223055293752073
116	0x3fc402ad316eace8	0.15633168138206277
117	0x3fd56f0570ad9e1c	0.33490119937639107
118	0xbf94a6e5b7555aec	-0.020167912783416606
119	0xbfd496ac7e698e0e	-0.32169639916375636
120	0xbfd4f36e773a94d1	-0.32735788005295513
121	0xbfcc180e561fe252	-0.2194841309099212
122	0x3fd3d00a2ba90d10	0.30957273734766577
123	0xbfc8fcc17d259080	-0.19521349535637356
124	0xbfc7465d74c172a7	-0.18183487130126716
125	0xbfcdb0e81ae95b7c	-0.23196126283684382
126	0x3fc29b136263f967	0.14535753540253468
127	0x3fd4754c04c702e5	0.31965923754255093
128	0x3fbd6968028f8fa0	0.11488962233084843
129	0xbfd5af13c3154575	-0.3388108639820396
130	0xbfd83feb11de8220	-0.3789012598518031
131	0x3fcf018f640221be	0.24223511107653722
132	0x3fc6da28a50517d6	0.17853267724620875
133	0xbf89ea3b977635f6	-0.012653794822450753
134	0xbfd383cce2c32fe6	-0.3049194540478751
135	0x3fd1b120d8328d11	0.276436053400361
136	0xbfc0f825e46d2a2e	-0.13257287648805643
137	0x3f9774627f0cfba4	0.02290491009193442
138	0xbfc1738c84c13e4f	-0.13633877260370972
139	0xbfbd6535f28ca074	-0.11482560321440066
140	0xbfcd924c3fdfb0ee	-0.23102715605580876
141	0x3fb8a9f98aebda5c	0.09634360925324742
142	0xbfa59ddec2e7ee2a	-0.042220078747018455
143	0xbfba18809923c768	-0.10193637598766048
144	0x3f9a0cad75df292c	0.02543898612911126
145	0xbfd2a496dd318754	-0.2912957344143383
146	0x3fa333b323369ec6	0.03750381283617581
147	0xbfc0e8dda1e7a7ae	-0.13210649877083597
148	0xbfa691611c749299	-0.04407790634494297
149	0x3fc13afaf97ed295	0.13461243803398718
150	0x3fd1457d1b5a52cc	0.2698662535779419
151	0x3fd65f95684c085e	0.3495839613461892
152	0x3fa2a88e19d085ad	0.036442223216237
153	0xbfb787daf36a27d5	-0.0919167370103929
154	0x3fc823d7fdf24895	0.18859386348464527
155	0xbf91c68250128656	-0.017358814370373864
156	0x3fcb97bea9a1afe1	0.2155683830527542
157	0x3fd530f9e0d5a482	0.3311142631196803
158	0xbf9bad4b92cb8ce0	-0.027028256258643135
159	0xbfc8aa18faa76296	-0.19269096602399277
160	0xbfc8081457cac1b2	-0.18774656569213516
161	0x3fc12db6c49fb356	0.13420757866642913
162	0x3fd4f8172864dcbb	0.32764223999715697
163	0x3fc1cc834481c45d	0.13905373425544357
164	0xbfce2c811c9c5585	-0.2357331647587381
165	0x3fc7e90385c8624e	0.18679851562844124
166	0xbfc74f743382ac73	-0.1821122409358825
167	0x3fc7c6ff781f22c1	0.18576043477357554
168	0xbfc60993b9535c32	-0.17216726826765832
169	0x3fd6ea1c1dd145c3	0.35803893005239845
170	0x3fcc0422f39f152d	0.21887623687340732
171	0xbf7a398d203debb0	-0.006402541421148308
172	0xbfd5c6628b6310b0	-0.34023345577248687
173	0xbfa857d414a61957	-0.04754507782040445
174	0x3fc2281d7eb97ced	0.14184921920511986
175	0x3fb0795cdc27a9ba	0.06435184836269672
176	0xbfc60da24f78326d	-0.17229107742641095
177	0x3f9720bbcc718956	0.02258580622982128
178	0xbfcac184b0b69997	-0.20903071049287966
179	0xbfc7f8994b435d0d	-0.18727413344343127
180	0x3fcc6767c0582de8	0.22190567867106314
181	0x3fd2a221f53903db	0.2911457915070607
182	0x3fbcfdee4c449a3c	0.11324967729579155
183	0xbfd4ac8568c49723	-0.3230298541187599
184	0xbfbb8c6431bdf3d2	-0.1076109525146898
185	0xbfc727802a045404	-0.1808929639015845
186	0xbfd1491959e1bcbd	-0.27008661057966404
187	0x3f9d3a0c33d8b76f	0.02854174677320692
188	0xbfd0150809edb263	-0.251283654876522
189	0x3fcb63834f8edfcc	0.21397439369843452
190	0xbfd2b2f34698d587	-0.2921722592758091
191	0x3fcb4b0b24da0f2a	0.21322764682201384
192	0xbfd5a2969f35cc85	-0.3380486063753739
193	0x3fcd0644279198ae	0.22675373012606798
194	0xbfd63417db7db136	-0.34692951616922885
195	0xbfb52f100ed00705	-0.08274937020908275
196	0xbfd83ae45167256a	-0.3785944743109072
197	0xbf7559e2990ced13	-0.005212674281945401
198	0xbfa9b5133ece14b4	-0.0502096189657463
199	0xbfba6404eb79b74d	-0.10308867215073043
200	0xbfd597939fdf8160	-0.3373765050182751
201	0xbfd0b30482370657	-0.26092636791518004
202	0xbfad15ab689957fc	-0.05680595065921065
203	0x3fcd6c037eff8456	0.22985881520347345
204	0xbfd470476bae8b21	-0.31935296550561715
205	0x3fc7c61706ac9554	0.1857327253903046
206	0xbf9e76fdf5114f66	-0.02975079353593859
207	0x3fb655fdd699b0e5	0.08724962701097956
208	0x3fcabdd60965b99f	0.2089183374295773
209	0x3fbc29e6acb88f64	0.110014359634588
210	0xbf099114f91a1c2b	-4.8764660403093366e-05
211	0xbfa499aadbe4a6a3	-0.04023488935702104
212	0x3fc8ecde1032b8b2	0.19472862044262268
213	0xbfd3be3da132a8dc	-0.3084863733480583
214	0x3fc806a4d2b77e4b	0.1877027539148791
215	0x3fd145c32d33bbd4	0.2698829595018968
216	0xbfd642851168c6df	-0.3478100461971802
217	0xbfbc86a273c067b6	-0.11142936063734407
218	0xbfcc0271e5f612a0	-0.21882461289000776
219	0x3fb46ed59bc6e05b	0.07981619885583895
220	0xbfae483ee7d5abb2	-0.05914494113934356
221	0x3f918da0e326a27e	0.01714183222216769
222	0xbfb277227b4750a2	-0.07213035115938962
223	0xbfcd3c51afedbd60	-0.22840329256312497
224	0x3fcb7f12d523947e	0.21481547743966084
225	0x3fd61673f0b8dd7a	0.34512041576405006
226	0xbfcc01ae230c7e22	-0.218801276315376
227	0x3fa289c61942481d	0.03620738085113848
228	0xbfc00d09d017c308	-0.12539789830000125
229	0xbfb0367eba71b0bc	-0.0633315282045172
230	0x3fc24e7f216a4121	0.14302052623362108
231	0xbfc765fb67ba6921	-0.18279974522449385
232	0x3fcace79b8cb6a06	0.2094261314694707
233	0xbfb403af22562415	-0.07818121517460981
234	0x3fd4891ba44ac7aa	0.3208684067168358
235	0xbfbc1cb8dc0315ef	-0.10981326457393668
236	0x3fd1e1439a4cafd6	0.27937402790371146
237	0x3fb4412c3069eff6	0.07911945516565297
238	0x3fb3ba6e70e4bd0c	0.0770634675616188
239	0x3fce7d44eba5a75d	0.2381979132290394
240	0xbfd2a034e13d4db9	-0.2910282325367138
241	0x3fc13d32ead8eb39	0.13468014208941684
242	0xbfc178959c24f86c	-0.13649244426955265
243	0xbfd8bc6222ea1d54	-0.3864980069124233
244	0xbfc2183cd8e8d431	-0.14136467543872436
245	0x3fc354cd558d4102	0.15102545430500675
246	0xbfb0399a55c8eb5c	-0.06337895006519773
247	0xbfd40ae69da858b6	-0.31316533466577867
248	0x3fd8b8daa1f8ca90	0.386282594848276
249	0x3fb5342e94986f6d	0.08282748344248399
250	0x3fa66686ecbd0f59	0.043750969313377915
251	0xbfb3f6a08c6e17a3	-0.07798198154895757
252	0xbfb18d2638d8477f	-0.06856001746953487
253	0x3fcec01e56fac491	0.24023799178170127
254	0xbfc0d5155a1d98f0	-0.1315027894990588
255	0x3fb3341f6dabe342	0.07501408031010917

fc1.bias f8 [256]
0	0x3fc5840d8b9aeb06	0.1680924350419774
1	0x3fcae86f3a637772	0.21021833754542346
2	0x3fc7c50bec3e2eef	0.1857008842019847
3	0xbfc640b073a950c7	-0.17384915969399214
4	0x3fc87176c8fb3f94	0.19096264661356754
5	0x3fc74358e13422d7	0.18174277302048011
6	0x3fd280b4a04f0dce	0.2891055646434467
7	0x3fc6a34fc9f1dea5	0.1768588768061267
8	0x3fb7aea1ca7c7811	0.09250842278967776
9	0xbfc991a5bad03e73	-0.19975730535269384
10	0x3fc475fe013bfd9d	0.1598508363749546
11	0x3fd22f42cf0e2013	0.28413458080513115
12	0xbfa5473f197339a9	-0.04155919252081059
13	0xbfcb173794123700	-0.21164602975880342
14	0xbfb4ec78c9890cd0	-0.08173327369972871
15	0x3f207e897324f1d5	0.00012584140638151214
16	0x3faf59ba38722c55	0.06123144091642333
17	0xbfccbc669a227927	-0.2244995358095789
18	0xbfbfb0edec811aaf	-0.12379347824126329
19	0x3f910b4cede62e82	0.016644670505725497
20	0xbfd2b6921450bb54	-0.2923932264702007
21	0xbfc3badc5dfde9d3	-0.15414003934331663
22	0x3fc817759e847564	0.18821592559917655
23	0x3fa48f65b9c955e0	0.04015653508092121
24	0xbfc437435ff25303	-0.15793649849788247
25	0xbfd0bf75d9cc0d85	-0.2616858126568434
26	0xbfa70f9e807c122f	-0.04504103964248817
27	0x3fc61a7d27da87ec	0.17268337675073953
28	0x3f9fbf3ed6e5f063	0.031002981058449907
29	0xbfd28fccd9f77d95	-0.2900268677312508
30	0x3fd23be9be80cae5	0.28490680316751443
31	0x3fc39f8ea9a71700	0.15330680164168342
32	0x3f8d06ed155662c7	0.01417336675039972
33	0xbfd679a713498898	-0.35117508777160245
34	0x3fd0747bcc8dc7cf	0.2571095941158292
35	0xbfccf00286237661	-0.22607451963169736
36	0x3fd2ceab99439406	0.2938641545027284
37	0x3fbf53314da0ef9a	0.12236316819411144
38	0x3fd7acd20538c893	0.36992311963980135
39	0x3fa1928dee5685b3	0.03432124647521153
40	0x3fc0f442f599ff05	0.13245427124274314
41	0xbfb582b1d8df080b	-0.08402549309451517
42	0x3f8439bfd88064d4	0.009875773233988396
43	0xbfd20b89c26309bd	-0.2819542311009647
44	0xbfae073afbabca85	-0.05864891359478456
45	0xbfd45a25442d08fd	-0.3180020490436986
46	0x3fcf253f14628fca	0.2433241700683751
47	0xbfc14e3f17cb6eed	-0.13520039235924433
48	0x3fbc0c4f96a609bc	0.10956284931129451
49	0xbfc29ec8868c5848	-0.14547068185555845
50	0xbfad24ba5ebedc95	-0.05692083746492319
51	0xbfb37c25afe5842f	-0.07611308616971323
52	0x3fd57a0563b03ce2	0.33557257399747986
53	0xbfd0b91e1da1a8ad	-0.2612986840600893
54	0x3facafad6c84e426	0.0560278124780285
55	0x3fc6c9085db58abc	0.17801003051416397
56	0x3fb0c3657727c9b8	0.06548151167934335
57	0xbfa93464d56e5231	-0.04922785859449553
58	0x3fc809f390e478dd	0.18780369353129958
59	0xbfc754397023b5df	-0.18225782371102547
60	0x3f9d0400c8b0beab	0.028335582970781797
61	0x3fc2d8c7c33bb526	0.14724061043617914
62	0x3fa67f82428bbc6a	0.04394156515433496
63	0x3fd3ef7157c461cc	0.3114894253826861
64	0x3fb0b37a5dc0dec0	0.06523861683751431
65	0xbfca2b9551dc842b	-0.20445505616319912
66	0x3fb59676d7dea770	0.08432715196854956
67	0x3fd6c0d49c5e1bd3	0.3555194403674566
68	0xbfa31a524b96a77e	-0.03731019184790706
69	0xbfd2ab94647d1a90	-0.2917223912558393
70	0x3fd00fe4f1f70060	0.25097011212711173
71	0x3fd25db21fe987a8	0.28696873775890674
72	0x3fd58ac91895c232	0.33659579659345973
73	0xbfc5f5cee363826d	-0.17156396964039136
74	0xbfac6499ab56db4d	-0.05545501915496818
75	0x3fc98a3716083b65	0.19953049255169755
76	0xbfb7ceb5ce6290b6	-0.09299789704033654
77	0x3fc77520f78032aa	0.18326198658941922
78	0x3fcd313de68fc545	0.22806524045840085
79	0x3fd059d4cf192da4	0.25548286652039054
80	0xbfb8594cd67fec54	-0.0951126121216686
81	0x3fd3630cbf56fb82	0.3029205196907513
82	0x3fcbcd27ec46d657	0.21719836270283352
83	0x3fc1b7840fd835ac	0.13841295980129809
84	0xbfd0c67af597a55e	-0.262114276729866
85	0xbfb76ca22ed9aca8	-0.09150136607938697
86	0xbfd3ab45627ce12f	-0.30732855432462974
87	0xbfa2768f331a52a4	-0.036060786235940584
88	0xbf9efe1829c11520	-0.030266168163753382
89	0xbfb14d72ec559c25	-0.06758802671321058
90	0x3fd5b2d11bef91f1	0.33903911331279263
91	0x3fd4018e5e36d365	0.3125949783382594
92	0x3fc48bc13f8c9654	0.16051498034464606
93	0x3fd62af7afaf42c7	0.3463725295705839
94	0xbfd0aae32c8ba3f2	-0.2604301390661582
95	0x3fd3b6ecf1732261	0.30803989008976457
96	0x3fcc36645fccfeb1	0.2204099147584109
97	0x3fd36c4092e00d34	0.3034821924522533
98	0x3f83a99ecb070bf9	0.009600868769558334
99	0xbfcfbdf11da23dd0	-0.24798406550369956
100	0xbfbcc185270e6dc3	-0.11232788280033561
101	0x3fb334d79482f354	0.07502505660791076
102	0x3fd0c13c27c0fd3c	0.2617941272946671
103	0x3fb9284c7e465083	0.0982711609161147
104	0x3fd944752a34462f	0.3948033249044753
105	0x3fd24e99bf851a46	0.28604739859693884
106	0x3fc33bef2d795598	0.15026654930504146
107	0xbfcfdc1ad36510a4	-0.2489045650673961
108	0x3fc0f7eb4e783ace	0.1325658925201964
109	0xbfabd147f912b553	-0.05433106341784346
110	0x3fcbdd2e4b25f62b	0.21768740338659262
111	0x3fd0a4deaa3fe041	0.26006285310677774
112	0x3f95adb563fa34f1	0.021170458056578082
113	0xbfd0a48a4ba66303	-0.26004273784342063
114	0x3fb55a0438a1d08e	0.08340479261988973
115	0xbfb9178963c30d1c	-0.09801539121240349
116	0xbfd200590c1cbba1	-0.2812712305339407
117	0xbfc23f0465dcc577	-0.14254813169240396
118	0xbfc8c5e4121a6f36	-0.19353915103862968
119	0x3fc35cc1385855a7	0.15126815081809505
120	0xbfc751f4d5a6d241	-0.18218861038407577
121	0xbfd1fb1609bff47c	-0.2809500785077217
122	0x3fced48c7f3f1131	0.24086147511673908
123	0x3fcebc23450e2c0e	0.24011650916904198
124	0x3fb5374b2602a24e	0.08287496259675572
125	0xbfc5396e612ccadc	-0.1658151602255974
126	0xbfc83eb4b97c7f66	-0.1894136338896672
127	0x3fb25b9fb470685c	0.07171056895495681
128	0xbfb1f7f44de8ab7a	-0.07018973257133423
129	0x3fd1854353ea983a	0.2737587279792738
130	0x3fd481a92ab3ca0f	0.32041386766573593
131	0x3fb577b848626c4a	0.08385803000639772
132	0xbfc5937d8411d825	-0.1685635466453174
133	0xbf9340466aa1d086	-0.018799877413087994
134	0xbf820668225af301	-0.008801282452048921
135	0x3fa35b2cb8c2e687	0.03780498271357851
136	0x3f976fc83c34bb1b	0.022887352633172414
137	0x3fd3d2d6fb78cd4b	0.3097436385898688
138	0xbfd37ca0d0cccd7d	-0.3044817008078196
139	0x3fd09e5eb58ec4ff	0.259666135122714
140	0x3fd626e453ce5f81	0.3461237734240897
141	0x3fc2f53fc25c788c	0.14810940733236
142	0xbfc6ccd705cf4075	-0.17812621864004866
143	0x3fbca9b899b0f8ed	0.11196473839024508
144	0xbfc6ca304bd6d499	-0.17804530814251932
145	0x3fd82ea9d3aec4e2	0.3778481070722376
146	0x3f7f7d087b3d9127	0.007687600260258421
147	0x3fd3589f24617f6e	0.30228403618638466
148	0x3fbafc683fa4e433	0.10541392854510505
149	0x3f9354f3c739d818	0.018878754648959356
150	0xbfa496db3d1a9351	-0.040213443001710154
151	0x3fd4482d0c2951da	0.3169052714122508
152	0x3fd5d671ee1d6fb2	0.3412136864987999
153	0xbfd1278a67e98d1d	-0.2680383696335456
154	0xbfd3c88c35a3f6a1	-0.309115459807666
155	0xbfd374cf31ab7b05	-0.30400447702952277
156	0xbfd177812358790c	-0.2729189725086065
157	0xbfbf1a13f2320ab9	-0.12149166739440433
158	0xbfb3c3a52108cc0f	-0.0772040563249876
159	0xbfc0d9a49a150f2c	-0.13164193652675615
160	0x3fd876b0b77ccb5d	0.38224428099345237
161	0x3fb178bc6cfd49b8	0.06824853573679135
162	0x3f8481a4468972b6	0.010012896921744879
163	0x3fb49bc1a792b902	0.08050165501729015
164	0x3f833130138fe9b0	0.00937116203021024
165	0xbfcafcb448a89e95	-0.21083692119394884
166	0xbfa73e002e0278ac	-0.045394902817166155
167	0xbfce1964d13cd85d	-0.23514995781596584
168	0xbfccd2979243a3e4	-0.22517676011855692
169	0x3fcc2cd953a99a9f	0.22011868081172722
170	0xbfd0e4e79372d0fd	-0.2639712276388904
171	0x3fd2d5337bb2a9d1	0.2942627628314343
172	0x3fb3c775d2af7e11	0.07726227182092084
173	0xbfd167b506e2f309	-0.2719547812701398
174	0xbf911c5b74c82927	-0.016709736826706092
175	0xbfd58edf8ad666a2	-0.3368452888331409
176	0x3fb4f18ab8e88205	0.08181063665734463
177	0xbfd29f3e21f5d1a5	-0.2909694034235833
178	0x3fc6586d007d68b6	0.17457354091567873
179	0x3fba70fe4177bc33	0.10328663919766327
180	0xbfd1f3ac4932b695	-0.280497619135397
181	0x3fb8ef09fce0dac0	0.09739744590556665
182	0xbfa803d61b45c426	-0.0469042690555244
183	0x3fd0ca0ce68efd62	0.26233217730983516
184	0xbfb8817c73c0a5a7	-0.09572580171575017
185	0x3fc55835ce408e0a	0.16675446101099595
186	0x3fc9968771868aeb	0.19990628283729647
187	0x3fbb195b93c43262	0.10585567815378163
188	0x3fc29a2f5514ae03	0.14533034948668452
189	0xbfd2d2366fa4dc86	-0.2940803613923396
190	0x3fa175d7e934b3b1	0.03410219880820565
191	0xbfb0b877b5b1a962	-0.0653147524441571
192	0x3fa29c6e8a9f08e0	0.03634972993997265
193	0xbfc2eebf8db41e8d	-0.14791101855393088
194	0xbfc66ce63d0bb410	-0.1751983450007235
195	0x3fd49a675357d2d8	0.3219240487954216
196	0x3fbbea8f60c6026d	0.10904785263665824
197	0x3fd06d6c095092a6	0.25667858991281844
198	0xbfa698f42ed6c881	-0.0441356951881895
199	0xbf9e6983f5081229	-0.02969938452771906
200	0x3fc4b3ed24e8ea10	0.16174091627347353
201	0x3fc4ccc6020ca9ba	0.16249919033118748
202	0xbfc5f4540c2057b1	-0.17151880828958846
203	0x3fcb47c50d13f1b9	0.21312773836679158
204	0x3fcf6bcd1ae176a6	0.24547733128104204
205	0xbfb6d0d9a96cb3f3	-0.08912430178015977
206	0xbfba403f2322b09b	-0.10254282577324363
207	0x3fc4678ebeebbf5a	0.15941032717045794
208	0x3fd4f616d0da8e03	0.32752008815643324
209	0x3fbf9ccd4fb86221	0.12348635860724545
210	0xbfc4d510688fc27d	-0.1627522001795291
211	0xbfc4b9cb615cf4f1	-0.16191999677713612
212	0xbf8c2f557bfede2a	-0.01376215729383919
213	0x3fc3273b63d1bc33	0.14963476537693196
214	0x3fd3f4c1fd778b67	0.3118138289702785
215	0xbfcda2635d73f6c5	-0.23151819289335243
216	0x3fa8263f7d329518	0.047166809113415364
217	0x3fac7850b56f0e12	0.055605432651216216
218	0x3fb5f517d895c663	0.08577107465478088
219	0x3fd28ca2d8626de3	0.2898337472085741
220	0xbfc727b6f2b1dbcd	-0.18089949465112767
221	0x3fd330d5d5826062	0.29985566950336395
222	0xbf12c2b09180cc15	-7.156565368475504e-05
223	0x3fbce106b3c4f57b	0.11280862702274945
224	0x3fc637050dad6e7b	0.17355406921238967
225	0x3fc0e5a22a452725	0.1320078569790947
226	0x3fd62df5f3eefc3e	0.34655522176393905
227	0x3fd042e9ebe6c3e8	0.2540840915417548
228	0xbfcd3d568313c72a	-0.22843438530213095
229	0x3fd1d919893fb8b7	0.2788757171937379
230	0xbfd1900a9e59223c	-0.2744165941590244
231	0x3fd0ff9e471631e3	0.2656017011838953
232	0xbfa2a1fc3c3d83d1	-0.036392099717666
233	0x3fd603e2ad022b0a	0.34398714919431994
234	0x3fd277c761722388	0.28856071964451546
235	0xbfb251c7ec31b263	-0.0715603782316037
236	0xbfc45ca360dacd80	-0.15907709340318021
237	0xbfa7ecceeaafdb48	-0.04672857870894248
238	0x3fa40db334e69102	0.03916702290305986
239	0x3fd5ee6c9a61b80f	0.34267726017321903
240	0xbfb5d0037fa589bb	-0.08520528665898201
241	0xbfc12d389e0a1a05	-0.134192540328698
242	0x3f5813ab94acc5e5	0.0014695335000393047
243	0xbfd4f87848e9f54d	-0.32766539688585256
244	0x3fbbfecf590e0ab4	0.10935684131804174
245	0xbfd2fe44e4188986	-0.29676935458169174
246	0xbfcedc4ff5f9bfc5	-0.24109839926268087
247	0xbfc21afc0d4673cb	-0.14144850395396555
248	0x3fd2a0692998ee55	0.2910406976913909
249	0xbfb517cefd34af55	-0.0823945396593307
250	0xbfd2fb37f0d788d8	-0.2965831615421286
251	0x3fc991facdb9c12a	0.19976744694896215
252	0x3fba63fa9c452c65	0.10308805766287461
253	0x3fa71ac8cb164923	0.04512622336473473
254	0x3fc82e44c1289c46	0.18891200477193787
255	0xbfd2d199ea3b3350	-0.29404304384370494

fc21.weight f8 [64, 256]
0	0x3fb031c44b118658	0.06325938065267545
1	0x3f907be6797c1bf9	0.01609764210209261
2	0x3f94d7fa541f09ca	0.020355140098908632
3	0x3f8a3ea280262e83	0.01281477883892213
4	0x3f8e031e9663dccd	0.014654387440243966
5	0x3fb2376a51ff5075	0.07115807058227282
6	0x3f997d08bf75fe9c	0.02489103001198477
7	0xbf90e3ed7c61560a	-0.016494475094381435
8	0x3fa8bdf968866a8e	0.04832438851299968
9	0xbfa4d7d56f9ee07e	-0.04070918071323691
10	0x3fb03a12d648ebdc	0.06338613254131026
11	0xbf9e64d6789584fc	-0.029681540593974085
12	0xbfaf545d9fa2d3af	-0.06119053434068832
13	0x3f94f50bab63f031	0.0204660247190846
14	0xbf89c50cfded7876	-0.012582875727897607
15	0x3fb0452eb38f2b0c	0.06355564006586806
16	0xbfb41ff9d2c99b7f	-0.07861291309528261
17	0x3f7eef0e3340d3d1	0.00755219981151796
18	0xbf70f85323dbf42e	-0.004143070951383483
19	0x3fa9a3864ed88875	0.05007571899865663
20	0x3f6d64e16d0f8884	0.0035881426669997513
21	0xbf8a8ad6c2e5dfdb	-0.012960126707852673
22	0xbf729f3f4f8e60a3	-0.004546401317291923
23	0x3fa96e66963224c8	0.04967041572042202
24	0x3fb6b571650822cf	0.08870609966846675
25	0x3f5052131c96c091	0.0009961306226209702
26	0x3fa42356826a69c5	0.03933210699070203
27	0xbf86c2cff3d3a506	-0.011113762501241197
28	0x3f8dcad1d913ed44	0.014547004162969508
29	0x3fa8de84319d4ef4	0.04857266526837903
30	0xbf971775fbdfec48	-0.022550433634006134
31	0xbfa6d5c4efc58018	-0.04459968020341892
32	0xbfae626c71568d9f	-0.05934466250917158
33	0x3fb0b6e6f4d129ca	0.06529086567858325
34	0x3fa2e7c86b0e1a38	0.03692461306404876
35	0xbf8e4debb91abfee	-0.014797059618416566
36	0x3f927aa197c5b04f	0.018045925987664465
37	0x3f8c021bf13db342	0.013675897883979386
38	0x3f902cb145c417f5	0.015795488246133933
39	0x3fa44e0ac941d9de	0.03965791422608665
40	0x3f939619c7584cb8	0.01912727622227514
41	0xbfa89dd32160ff1d	-0.04807910711724459
42	0x3f9addf31a19bd13	0.026237295597124687
43	0xbf988b58e7b1ea75	-0.023969067708529985
44	0xbfad934a2b76b64a	-0.057764356427793276
45	0xbfb613a963b01c0a	-0.08623751338755895
46	0xbf837a816dd5d445	-0.009511004604727211
47	0x3fa3a38d9e9974c7	0.03835718689945505
48	0x3fb1b540d67523a5	0.06917195544987338
49	0x3f900debefb1c4ca	0.015678106789384562
50	0x3fa76a53cfa08076	0.045733088584030065
51	0x3f975d463e1ddc3b	0.02281675104265111
52	0x3fb6bf917a74505b	0.08886059989555532
53	0xbf943f378a45f67e	-0.019772403540164955
54	0xbfb04227d7bf55de	-0.06350945489187818
55	0x3fa96b44927487de	0.04964651382239514
56	0x3fb89a235627d63d	0.09610195973785891
57	0x3f841bd5283d9297	0.009818711557906297
58	0x3fb55324037b8968	0.08329987607024736
59	0x3f82a382c1a0307c	0.009100934537876741
60	0x3f951b30e0084783	0.02061153762230773
61	0xbfa30237386bb835	-0.03712627948503703
62	0xbfab33c733f3c8a5	-0.05312941083129034
63	0x3f8376ae06075422	0.009503707465151893
64	0x3fa9ce3e3457bd28	0.0504016341109213
65	0xbfb33af60e28e60b	-0.07511842580506582
66	0x3f81939a426b4125	0.008582310821481596
67	0x3fb20a581bdeec80	0.07047033958854065
68	0xbf8cbce30f9e02e2	-0.01403214827928551
69	0x3fb0efd85a5d8278	0.06615974622901344
70	0x3fb3021a9e957e66	0.07425085422209463
71	0xbf905d61d685dc3e	-0.015981224745214677
72	0xbfa55778a0b07375	-0.04168297730959739
73	0x3f9696be70a764ab	0.02205941736778942
74	0x3f990e82903ece0b	0.024469413808857293
75	0xbf96b5355486df04	-0.022175629886731066
76	0xbf9184d7b06aee69	-0.01710831655758086
77	0xbfa6344f31ededef	-0.043367838711642175
78	0xbfa06a95a5023412	-0.03206317557587836
79	0xbf5db12d0c629b78	-0.001812261574323874
80	0xbf65e97c77e58f57	-0.0026748114607232742
81	0x3f7b6421690bdea9	0.006687288769846291
82	0x3f8e6e31718061e5	0.014858614231386855
83	0xbfa6c475aec9e556	-0.04446761854792196
84	0x3fac318f7576573d	0.0550656157385405
85	0xbf7ce38978a4bc82	-0.007052933690189113
86	0xbf95e26d5fdff5e9	-0.021371563889251908
87	0xbf9d946da9052db4	-0.028886521760154785
88	0xbf97e6877b93ca28	-0.023340336721000693
89	0x3fa8acf3304e671a	0.048194503447304096
90	0x3faac1fda2bc3af3	0.05226128207697469
91	0x3f9af180fcede6e9	0.026311889112071638
92	0x3f82c8fcfe1cf293	0.009172417168536817
93	0xbf97249f1f6d1c9b	-0.022600637715438947
94	0x3fae3fe9605a3521	0.059081357013477616
95	0xbf939d063aa923af	-0.019153687792172466
96	0xbf7249fd000b18ba	-0.004465091974173935
97	0x3f86ad38ce6dce7f	0.011072582053862632
98	0xbfa5f6fb0e6ac719	-0.042899938115978205
99	0xbfa5043961d36e7c	-0.04104785269893527
100	0x3f9a1936f57c5921	0.025486811383495515
101	0xbf8e88f6bd8d0870	-0.01490967527354689
102	0xbfa2d94a835b977d	-0.036814049277196205
103	0x3f9e65fd17485cb4	0.02968593077283961
104	0xbf3693e305bef610	-0.00034450809993899576
105	0xbf904c7fb1019bf5	-0.01591681974278099
106	0x3facbf1ef8a2aa66	0.05614563737011195
107	0x3fa5a5f3a272b13d	0.04228173597343463
108	0x3f895329e5b5d795	0.012365653345778141
109	0x3fa41acaa0d4bb71	0.03926690305012571
110	0xbf8e3910819e296c	-0.014757279353734908
111	0xbfa117271424753e	-0.033379765709677475
112	0xbf74b8529afdb08a	-0.0050585963034387536
113	0x3f7e06ae526e1a83	0.0073305901959260815
114	0x3fa4225ff83cf0a4	0.03932475953340145
115	0xbfa0e49e0f3c73c4	-0.032994212493782565
116	0x3f91f5eb2ded4d1e	0.017539667776259475
117	0xbf918bfc7252e6cc	-0.0171355671670657
118	0x3fb696a0a7bba423	0.08823589415591519
119	0x3fa3208c6c5f2f30	0.037357700566273855
120	0x3fb1d4ef1949b7cf	0.06965536467916354
121	0x3fb1ec13c3c55c04	0.0700085022884736
122	0x3fa1ba2ca33b4543	0.034623522687648144
123	0x3fb9d34a1c8381cb	0.10088027187476382
124	0x3f7054c7ac44a7e5	0.003987102482179571
125	0x3f8dbdc52bbd3787	0.014522114178955338
126	0x3f925e472f9110c7	0.01793776729415766
127	0x3fb3b982ba0a01e8	0.07704941789598474
128	0x3fa3aa5d53ddc93a	0.03840915344962288
129	0x3f9f1733dd8ceb01	0.030361948392264363
130	0x3f52174f85a35504	0.0011041905004750005
131	0x3fa79a8b3e0507e9	0.04610095150066213
132	0x3fb2349b4d05aa5c	0.07111521368430246
133	0xbf5b026c81b5b0b7	-0.001648527110627502
134	0x3fb7fb64b4c5c8bf	0.09367970860856455
135	0x3fb3ee670c85949f	0.07785648399074539
136	0xbf9319f527b3e31d	-0.0186537080271335
137	0x3fb076a81a5ef81f	0.064310556829668
138	0xbf631f5ad20af34b	-0.0023342870557300547
139	0xbfa9c417e775d2a9	-0.05032419872705891
140	0x3fade0507675c5fc	0.05835200735135612
141	0x3f8d08b90e208c8a	0.014176793807626948
142	0x3faaf7c43f6b52b7	0.05267155908737691
143	0x3f6eed8206f4793a	0.0037753619759676423
144	0x3f824c922b496a73	0.008935110040672023
145	0xbf91a2ee2df052f4	-0.017223092607383486
146	0x3f90e824a6430218	0.016510555885135586
147	0x3fa00eb8f136406c	0.03136232323152019
148	0x3fa7fb2cd9462e45	0.04683818962356815
149	0xbfaa793ff16ff4b3	-0.051706312391595864
150	0x3f961db5910d931e	0.021597706774076568
151	0xbfae4f79f681c43a	-0.05920010694615781
152	0x3f9bdde674269d03	0.02721366962364603
153	0x3f904dbaac528cda	0.0159215133359226
154	0x3f56cb7c5c68c128	0.001391288229239571
155	0x3fb465c1f8f4244f	0.07967769935579948
156	0xbfba26714e2fa517	-0.10214908751335759
157	0xbfa1de85c8f535c0	-0.03490083768938801
158	0x3fb0ea1109ebbe56	0.06607157222946944
159	0x3f97fe3c419611a4	0.02343076849276006
160	0xbf9d9875d51d0071	-0.028901902325060683
161	0xbf8ce7f60f2e6e02	-0.014114305818842435
162	0x3fa195e581954944	0.03434674460244705
163	0xbfa21f26d0fb2d50	-0.0353939180473285
164	0xbfb4b045c7eceda8	-0.08081470614427266
165	0x3fb0c723d791fa0e	0.06553863537735813
166	0xbfa5c0b310f96edd	-0.04248580534178157
167	0xbfa649295e3aedc7	-0.04352692866583712
168	0x3f9f8cd6407bda29	0.03081068771913401
169	0xbfa1724d44eae0b2	-0.034075178778438256
170	0xbf8634c38cdd14d8	-0.010842826591792962
171	0x3f65dd1ac406c801	0.002668907429517198
172	0xbf7ba97107db95f5	-0.006753388906621795
173	0x3fb0a733e5f26cdf	0.06505131114902295
174	0x3fa437c304d73fba	0.03948792871562952
175	0x3fa265a12a59aec5	0.03593162195178715
176	0x3fb366984b24d381	0.07578422388617236
177	0x3faf092b6e4a27ca	0.060616833890051305
178	0x3fb263e6ebfba41b	0.07183688412955329
179	0x3faf4b893cbd1398	0.06112316957891223
180	0xbf9e6d92aa79bcdc	-0.029714862494469738
181	0x3fa26285d4542180	0.035907919091246576
182	0xbf9b40c647b09ef3	-0.02661428272781925
183	0x3f9f31faa96498b2	0.03046409281628177
184	0x3fae82df7dca11b0	0.05959223185076057
185	0x3fa6dc6fd208d794	0.04465054930589854
186	0xbfa238530e20a898	-0.03558597133117408
187	0x3fb18b651c8c3e7a	0.06853324839561906
188	0xbfa12fc040558314	-0.03356743607833415
189	0xbfb166662e3904b1	-0.06796873692020956
190	0xbf7032166e0bb314	-0.003954017273582595
191	0x3fb15a83df72d435	0.06778740124976042
192	0x3fa07ebe9dbd348c	0.03221698451543728
193	0x3fa56459b7752ce7	0.0417812382171066
194	0x3f90a004e4f84ea9	0.01623542449495
195	0x3fa22ce3709b8304	0.03549872159579162
196	0xbf87ed30471bf060	-0.01168287007339347
197	0x3f7ed47c140d7807	0.007526859932879055
198	0x3fa6bd9a0a189d55	0.04441529629940059
199	0xbfa0fa671b232456	-0.033160421431212825
200	0x3f7fd79e0b59981d	0.0077739881140584085
201	0xbf6e158eddaeeeaf	-0.003672389063891966
202	0x3f4a2333b2f77c45	0.0007976534306485336
203	0x3fa06fc7e0d9c073	0.032102819631178024
204	0x3f989ab5890b8f17	0.02402766846616008
205	0xbf9b28507d09e1b9	-0.026520974761724967
206	0xbfab508eee379eee	-0.05334898622441907
207	0x3fb866bfb2edc0e1	0.09531782263161716
208	0x3f91dad72447e8f0	0.01743637236538914
209	0xbfa84fc9b0b954f3	-0.04748373300814448
210	0xbfa5ff94f5ed2560	-0.04296555997877749
211	0x3f901a8cf59ea978	0.01572628258842587
212	0x3f7480cfc89331e1	0.005005656866341885
213	0x3f9f9694efc06df7	0.030847861417084812
214	0x3f997ec17c7dcc1c	0.02489759752593211
215	0xbf7ec699954735e9	-0.007513618406347324
216	0x3f581b4b0ad08ed3	0.0014713509401724125
217	0x3f84d1b3cab50002	0.010165600417735735
218	0x3f409175b47353b4	0.0005056214075930183
219	0xbf99d836437384cb	-0.025238845698258666
220	0x3fb2d2bccd06f9eb	0.07352809911296958
221	0x3f8c0314ce5c4d9a	0.013677752063393101
222	0x3f9b2a7329f6c85f	0.02652912086131953
223	0xbf95e29e8ed1097d	-0.021372296778517253
224	0x3fb505b330888794	0.08211822447677114
225	0x3fa90e1a352759a4	0.04893571757172602
226	0x3f976f7a1b67a897	0.022886188433326096
227	0xbf950d02f43fc39d	-0.020557447583943057
228	0x3fa4e2a9d7a2856c	0.04079180485974629
229	0xbf88b1db78e0a500	-0.01205798590315732
230	0x3fa0660b523543d1	0.03202853563801223
231	0x3f9c10859546511c	0.027406775699618455
232	0x3f9fcba6f5d45d8d	0.031050308946843286
233	0x3f9b68dd59455ab3	0.026767214368500002
234	0x3f89bfca228b6389	0.012572840861524675
235	0xbf91f64beb7367fe	-0.01754110931947394
236	0x3fa21f87b6d63727	0.035396805828993565
237	0x3fbcd8b21ff3973f	0.11268151550356452
238	0x3f886307b6923966	0.011907634982233527
239	0xbfaf94673b118b11	-0.06167910190631266
240	0xbfa0300103e1df3a	-0.03161624119178304
241	0x3f9418d3a0bb5106	0.01962595623520349
242	0xbf9330f5156c3503	-0.018741445000206813
243	0x3f6afcd3b229e572	0.003294385403304894
244	0x3f94243b6f64583f	0.019669464753939044
245	0xbfb29d681695efc5	-0.07271433402450984
246	0x3fa53218a146a98c	0.04139782875730011
247	0xbfb2bfbd58533c03	-0.07323821455359796
248	0x3fa01e2d9f8b65ba	0.0314802415138717
249	0x3fb7f9fc2b2234ee	0.09365821888987444
250	0xbfb2c07af08e0413	-0.0732495152751798
251	0xbf793920f2a7982b	-0.006157997801414831
252	0xbfad8a47c61e024f	-0.05769562047408227
253	0x3fb7ee5c66a5b8d8	0.09348084932364331
254	0x3f8e8c0e18502468	0.014915571324325153
255	0xbf909f941f29f4eb	-0.016233744051068404

fc21.bias f8 [64]
0	0x3fb1255a2e311683	0.06697620036819711
1	0x3fb0f67903bf1102	0.06626087514365867
2	0xbf371226eab60034	-0.0003520340930762728
3	0x3f8f347f253845d2	0.015236848185881256
4	0x3fa926198f6c88ad	0.04911880374699371
5	0x3fa19c4c00477323	0.03439557555586805
6	0xbf9f8f05652d27ad	-0.03081901960403115
7	0x3f9fe4d00412c17f	0.03114628815518605
8	0xbf859a5746f53ace	-0.010548288205112579
9	0xbf91bd33f26bcf0e	-0.017323314353190837
10	0xbfa607c4a18bf7c4	-0.043028015823423554
11	0x3f8d05e39b98ee92	0.01417138880343963
12	0xbf7e339a296fb098	-0.007373430437820037
13	0x3f963b73585a6319	0.021711160915034975
14	0x3f9efaf8b1606410	0.030254255129055052
15	0xbfa5fdcc1d54ade8	-0.04295194490472537
16	0xbfad8d4ebee8073f	-0.057718716434477894
17	0xbf97c4fa908ba97a	-0.0232123518680196
18	0xbf7e79784bcf2174	-0.00744006148028863
19	0x3fac48ec262854f1	0.055243854196456506
20	0xbf6e4150d1a7b79f	-0.0036932543273370945
21	0x3fa8058e57a81754	0.046917389107007296
22	0x3fa60cd45fb3bc16	0.04306663196791065
23	0x3fb112c467df508f	0.06669261489816079
24	0xbf71d92fb26a2779	-0.004357515636579262
25	0xbf8f9fd641676437	-0.015441583510368158
26	0x3fa58d7aaae99ca3	0.042095025409076635
27	0xbf7e8806e8bb0299	-0.00745394419544767
28	0x3fb65709bf23f016	0.08726559559357869
29	0x3fb23be56786bc42	0.07122644212243848
30	0x3f9795fe30c9da33	0.023033115127384995
31	0x3fb1a018fb677b87	0.06884914529608298
32	0xbf8605c000000000	-0.010753154754638672
33	0x3faa969bf27fde0d	0.05193030677031283
34	0xbfa8eba7c6204368	-0.04867290776758787
35	0xbf85093a20dfa166	-0.010271505478116349
36	0xbfafe24d4d29e79e	-0.06227342192592221
37	0x3face5e9b96d5e28	0.05644159687534184
38	0x3fa8be0e73766432	0.04832501563505111
39	0x3fa3d3235b06fbff	0.038720230924347725
40	0x3fa1b38975b339a1	0.03457288324135566
41	0xbfb1d56d23be8471	-0.06966287729894007
42	0x3f94e012f753045e	0.02038602480456963
43	0xbfa7061e8caebdd3	-0.04496856181446742
44	0x3fa153a61f015b10	0.03384131554110159
45	0xbfa4b21f42f891f3	-0.04042146389500436
46	0x3f90e9a993a550dd	0.016516351353247017
47	0x3fa12ee2348f51e1	0.03356081859206817
48	0x3fb5f8d55bece6ec	0.08582814687988688
49	0xbf9586d059c706ab	-0.021022086600857175
50	0x3f92df47e0b6026b	0.01842987355257934
51	0x3f7defccbdf41c04	0.007308769010029973
52	0xbfa23acedbfc40b4	-0.035604919770891114
53	0xbf81f2750a3756fa	-0.008763231634400171
54	0x3fa3252974ea342e	0.03739289810355505
55	0x3f906ddbaa07324f	0.01604407525319323
56	0xbf93dba8c4b6d817	-0.019392621046527916
57	0xbfb17ad433563934	-0.06828047040309998
58	0xbfa6a3a59737cc16	-0.04421727629587495
59	0xbfa555af24862b48	-0.04166934319353871
60	0x3fa294057eb93b44	0.036285564154801025
61	0xbfa7ebf4b5ba1c80	-0.04672207563731323
62	0xbf8fbd16fb5e5e0a	-0.015497378870164464
63	0x3fb2eb0743a8bcb6	0.0738987484153196

fc22.weight f8 [64, 256]
0	0x3fb13d53fa72fc7a	0.06734204163056914
1	0x3f523fa2ba93d432	0.0011138047360053191
2	0xbf8ea43533729228	-0.014961639053873446
3	0x3f83a12ac0671036	0.009584745403920274
4	0xbf70fac1d172e3b1	-0.004145390608010156
5	0x3faafaadfb0e8668	0.052693783661436566
6	0xbf97acd3a6e50ecf	-0.023120219289252838
7	0x3fb3073b0af3c6ca	0.07432908074749914
8	0x3fa8fb829f6dd108	0.048793870889229096
9	0xbf90db71e8681707	-0.016462116060231426
10	0x3faaf2bdf52ea5bc	0.052633224658460404
11	0x3fa904175e892ade	0.0488593390369567
12	0xbfa4dad16fc0942d	-0.040731949702866956
13	0x3f94d3d3aa325663	0.020339305174806543
14	0xbf9c2bfff2e00489	-0.02751159591571598
15	0x3fb1c4218d5d0ee3	0.06939897252328424
16	0x3f8a7689ac07382e	0.012921405374893249
17	0xbf8e306195a02212	-0.014740717295368664
18	0x3fb9db27955d9791	0.10100028416272112
19	0x3fa3fae35afc0219	0.03902349935197353
20	0xbf6ed738e19ec616	-0.003764735313745114
21	0x3f9f878787a0ccce	0.03079044118221646
22	0x3f503be2a4f8a518	0.0009908402752308362
23	0xbfaa007c08433fd1	-0.05078494644988008
24	0x3fb0b29ce8280791	0.06522541683082596
25	0x3f76d824b135d5aa	0.005577224091543634
26	0xbf82dc9200d39d62	-0.009209767008043716
27	0xbf9fadc3770060b1	-0.030936292780183453
28	0x3f53bb4d04da90c3	0.001204323972538155
29	0xbf6892ca664c599f	-0.0029996827237354774
30	0x3faaae17e96da16b	0.0521094772764766
31	0x3fb6336a6a0e4810	0.08672204102757086
32	0x3fa18afedb0c50af	0.034263576735754746
33	0xbfa586378a58f6d2	-0.04203961910068944
34	0x3fa4c329cf5628b6	0.04055147796596385
35	0x3fa9cfa634dc1859	0.05041236300716951
36	0x3fb384826edd0c7d	0.0762406845724843
37	0x3fb8ab941f366f41	0.09636808168437218
38	0xbfaac2b81464bc14	-0.0522668385404971
39	0xbfaec6d7c80db1dd	-0.060110800905792884
40	0x3f77c52913079ace	0.005803261229152935
41	0xbf9533ea1c076a9d	-0.02070585056376705
42	0xbf7d9a51f0d8195b	-0.007227249222984201
43	0x3f9cbbb355e0c363	0.028059770695281993
44	0xbf9d12004bbce7f2	-0.02838898145930808
45	0x3f9fef1654deb70a	0.031185482912113684
46	0x3f78174fbbb7a81b	0.0058816065388587425
47	0x3f930ca9acd30a53	0.018602992223131953
48	0x3fb384bbb6e01989	0.07624409880381768
49	0xbf8637d877117561	-0.01084870446555425
50	0x3fb1377158d90524	0.06725223940977237
51	0x3faaa69c6278e2cb	0.05205239011815407
52	0x3f9748360947e218	0.02273640090604276
53	0x3fb15c9ebfe97189	0.06781952081059307
54	0xbf3baafad28c8a15	-0.00042217849345341343
55	0xbf4950272edccbd7	-0.0007724944423216318
56	0x3fa182f68933e390	0.03420229363286531
57	0xbf9621143d76075e	-0.021610561610493455
58	0x3fa2ebc5f22119bb	0.03695505695991438
59	0x3fb14be8abbf8d8e	0.06756452744553185
60	0x3f80b182b02f4389	0.008151074411132846
61	0x3fb2170824321c40	0.07066393741307397
62	0x3fa39cc7c9437709	0.03830551463918936
63	0x3fac2721cf03f729	0.05498605396313245
64	0xbf95c7d8b0486f15	-0.021270166167695132
65	0x3f763e9cf8205e4b	0.005430806313618651
66	0xbf85bca516c6c3ac	-0.010613717801648402
67	0x3fa57aa40dd794f9	0.041951300325118575
68	0x3f91d5b29c4cf823	0.01741675452216652
69	0x3fa10b78924bda8f	0.03329064164966155
70	0x3fb39904a1ba0ce1	0.076553620800087
71	0x3f954d17ea9d3a1c	0.020801900572502516
72	0xbf96163b4300a476	-0.02156918140841354
73	0x3fa28dc4fbb7fb3c	0.036237865188005064
74	0x3fb1ffedb23ab4f4	0.0703114090089974
75	0xbf70632e7adbd7d7	-0.004000836908508241
76	0x3fb14e367dd1a686	0.06759968349219933
77	0x3f9ded541aa3766f	0.02922564900005969
78	0x3fabf1917bb35624	0.05457739481941484
79	0xbf96e2ca2a97d506	-0.022349509095836793
80	0x3f7fca42ee3cda19	0.007761250922888618
81	0x3faf73984ec1cf83	0.061428794492626636
82	0x3f990fa7f850c92a	0.024473785906772218
83	0x3fa15bcf63719150	0.03390358055983944
84	0xbf9f1407aad0140f	-0.030349845696054752
85	0xbfa9f7e6a0d8ef30	-0.05071945870846972
86	0xbf63f3abe8ae9562	-0.0024355275722480066
87	0xbf8134d1da86e468	-0.008401526910221516
88	0x3fa73c8dbcea4f81	0.045383862791964276
89	0xbf9e2084ad96488c	-0.029420922369873412
90	0x3fb47ffc4f8077ba	0.08007790509188242
91	0x3f7ae9a15edeb2e0	0.006570463517999697
92	0xbfa00835226daaf9	-0.03131261868732866
93	0x3f8b555935e5fab8	0.01334638305411083
94	0x3fa608f65407bf2f	0.04303712630996725
95	0xbfbb2f9c154e0277	-0.10619521637091532
96	0x3f9979549e9a291d	0.024876901798543394
97	0xbf84675c76331199	-0.009962770802652442
98	0xbfac35f094a24e48	-0.055099027770805054
99	0x3faa9d91fa76ff73	0.05198341543609688
100	0x3f52a0dbc841cea4	0.0011369844733310286
101	0x3fb9a3281dbd902e	0.10014582372747391
102	0xbf9e4ec4259ad1c5	-0.029597344203198057
103	0xbfbae9148cc3c857	-0.10511902271881134
104	0x3f93b20aec4580f3	0.019233866377704478
105	0xbfa2c41d6d78d5c9	-0.03665248833969376
106	0xbfa26bf9170d6caa	-0.03598001867677543
107	0x3f8ec8bfd735c977	0.015031336550894931
108	0x3fab6fa11d9e948a	0.05358603941503144
109	0x3f87b0db59314e46	0.011567796382372052
110	0xbf6897a96296b93f	-0.003002005415246561
111	0xbf994ac78b10d900	-0.024699323523429406
112	0x3fa7d9c5379f1dbb	0.04658333114599197
113	0x3f8aec0d9511f87b	0.013145547973405272
114	0xbfa64e16ed329a47	-0.04356452603797272
115	0x3f9be2d83a9f0493	0.02723253114504993
116	0xbfa82dd0d55ec00f	-0.047224546476513855
117	0x3fa29c0643d8ad97	0.036346622259169674
118	0xbf4d66b6cbe89f8f	-0.0008972542344212064
119	0x3f9697fb30e6bd00	0.022064137325000566
120	0x3fb343c571aad720	0.07525285744744936
121	0x3faca091f0b8300e	0.05591255248518233
122	0x3fa1673bf79681f6	0.033990739796767075
123	0x3fb418d39f7a96c3	0.07850382464911392
124	0x3f988bad2ad9bf65	0.02397032331504025
125	0xbf89b69c63ef5d39	-0.012555333900236764
126	0x3fac20663ad8ed2c	0.05493468731261894
127	0x3fa56d8d223d4bba	0.04185143511735796
128	0x3f9200eb9b6c254a	0.017581635819657472
129	0x3f904fba5b677b6b	0.01592913802039268
130	0xbfab3fd3d0e09d75	-0.0532213394620226
131	0x3fb5cd9e3336a415	0.08516873121574549
132	0xbfa0aafdc16e2e47	-0.03255455957613811
133	0xbfad5ec3dba0aea8	-0.05736362510682841
134	0xbf8a41fbaabe5843	-0.012821165226153513
135	0xbf6df32cc07e7c0c	-0.003655993848908695
136	0xbfa9f9c54641b26e	-0.050733723474739686
137	0x3fa5a30ca12075e8	0.042259592694090575
138	0xbf9487d27240975a	-0.02004937002506977
139	0x3f8c70cfef80e50e	0.013887047287527678
140	0x3fac3fb426935297	0.055173520764275334
141	0xbf919a0c9ddaa438	-0.017189213881156656
142	0x3fac1df4922cc3a1	0.054916041225062225
143	0xbf9124f48f0c38d6	-0.016742535811368274
144	0x3fb9c54f52179cb0	0.10066695932583758
145	0xbf98a4d928746b5a	-0.024066346258318695
146	0x3f96ff6dd4220c9c	0.022458759377070522
147	0x3f7baad48c415278	0.006754713311313602
148	0xbf9e71c543115839	-0.029730875223627804
149	0xbf9174f50836ea9e	-0.01704771864545284
150	0x3fb40e69d7b670ce	0.0783449317590936
151	0xbfb093d88f4a250b	-0.06475594995767524
152	0x3fb94f71802c86c8	0.09886845950361611
153	0xbfacd2ec9fa0ca5f	-0.056296724782801226
154	0x3fb70fd364844df3	0.0900852318193797
155	0xbf9a56612c584d1e	-0.02572013695869401
156	0x3f9e9b16e3cea4d0	0.029888494161842527
157	0x3fadf5574f899698	0.0585124287215823
158	0xbf9df9b8edbe2186	-0.029272927771246703
159	0x3fb39c2f3381f08d	0.0766019345045967
160	0x3f9c335afd89de4f	0.027539655422940176
161	0x3fb3d9480296afb9	0.07753419936369611
162	0x3fa05a40dbcc7d20	0.03193857844439152
163	0xbf84d4ece25b6de7	-0.010171747835037116
164	0x3fb436c331e3ffab	0.07896060913117135
165	0x3fa4d36cf41f2e15	0.04067554931642917
166	0x3fb0571864a241f0	0.06382896859054887
167	0x3fa05cef16399c53	0.031959029639261026
168	0x3fb40816251d8bdf	0.07824839025629114
169	0xbf96c15e935243d9	-0.022222020856648903
170	0x3fac0dd788678716	0.05479310550778231
171	0x3f90e1add67207bc	0.016485897268019065
172	0xbfb38110dbc716dc	-0.07618813863436052
173	0x3f9f6f82cb763857	0.030698817890474874
174	0xbfb7e1643c238635	-0.09328295200568777
175	0x3f3a392d5bd06aac	0.00040013654126062437
176	0xbf9362706c10a232	-0.018930203052294377
177	0xbf67f65a62614def	-0.002925087482290804
178	0x3fae00f7ea113222	0.05860113842263483
179	0xbf54d89df25b755c	-0.001272348637420726
180	0x3fa9e24cf8920fd5	0.050554662077985014
181	0xbf86541235d5d534	-0.010902540462419986
182	0xbfa8e797d4951f7a	-0.04864191503526079
183	0x3fabc0855a3de6f3	0.054203192964406365
184	0x3fa3b167c44c88c7	0.038462870323444025
185	0x3f7337a893f4da08	0.004691751964222231
186	0x3fa0032cb7704fc9	0.03127422084085613
187	0x3fad331abd975740	0.05703052105279349
188	0x3f93cb885330c4ba	0.01933110244516876
189	0xbf970ab5eef9834f	-0.022501795492988304
190	0xbfa291f1bb7bd8be	-0.0362697163927108
191	0xbf759b733a966927	-0.0052752019049882365
192	0x3fa4b3651f3a33e8	0.040431175290997434
193	0x3fa4e6d15e4d82eb	0.04082350040585488
194	0x3fa4b2372ade9fcf	0.04042217634497513
195	0xbf8d5c730db3cfde	-0.014336489539779448
196	0xbfa447191c34baac	-0.03960493535338591
197	0x3f94bf160daf3268	0.020260185799815394
198	0xbf926fe684048b74	-0.018004991348003554
199	0x3fa8254679ea6a9d	0.04715938795307759
200	0x3f6d7aee0f6a0cdd	0.0035986566174997917
201	0x3fb35a737e5af607	0.07559892496916386
202	0xbfa0ea9416a5150c	-0.03303969170023366
203	0xbf9ad26e4f4be8bd	-0.026193355169177524
204	0xbfb550a15b3d824d	-0.08326157071633951
205	0xbf731cf938dea840	-0.004666303180707543
206	0xbfa8ba0d95ba6a82	-0.048294472243658695
207	0xbf8307e2dbf5bd02	-0.009292385423320674
208	0xbf836c230788a2b4	-0.00948359839192512
209	0x3f9a969d0c6d2d8f	0.02596516979546731
210	0x3fa122940ac38cb5	0.033466936410854776
211	0xbf64f59c37df8dbc	-0.0025585223329344913
212	0x3f8cd6ba94846563	0.014081437737831498
213	0x3f977e93f2260e0e	0.02294379392107087
214	0xbf900345a177ad9b	-0.015637481670564318
215	0x3fa8c991ec1c98fd	0.048412857124548105
216	0x3faebae74b1a156d	0.060019710462294686
217	0xbf9e36f1e46cd312	-0.02950647312828198
218	0x3fa6fb8dd7784989	0.044887955238794915
219	0xbfaee0c835a6db58	-0.06030870108536729
220	0x3f9e3cb7e8a543cd	0.02952849729019018
221	0x3faafd2e8f22348b	0.05271287438618185
222	0xbfa4b353dedc03c1	-0.04043066115810446
223	0x3fae03fb3423d2f3	0.058624124636400675
224	0xbf901c622fe4ddcb	-0.01573327462503275
225	0x3fa9c0251df17cf6	0.050294074921788764
226	0xbfa733c6ee8306f9	-0.0453169027473574
227	0x3f93e9e258876d7c	0.019446884778387283
228	0xbf9a5c9bd99ec206	-0.025743899495582333
229	0xbfa814de72c2bf0d	-0.04703421736610212
230	0xbfaef588cc16334c	-0.06046702853482219
231	0x3fb6ac302bad5782	0.08856488291107037
232	0x3facbb4481cc66d3	0.05611623844579374
233	0xbf661fffa004086a	-0.00270080496568519
234	0xbf9e2c5fec7623dc	-0.029466151053870834
235	0x3fa1000594700d20	0.03320329129203459
236	0x3f7421b89ef64770	0.004914971519058273
237	0xbfaae6ad53b3abee	-0.05254117628813747
238	0x3fab60021613344f	0.053466859049514974
239	0x3fa25c6ebb1b5996	0.03586145433444014
240	0x3faf838f7708dcdf	0.06155060127314881
241	0x3fa47a13e340169f	0.039993878832359935
242	0x3fab7058c601c9b8	0.05359151284291691
243	0xbf900b44b21f11f0	-0.015667985316911215
244	0x3fb5f0d2ab7045c7	0.0857059162665542
245	0xbf8a15e9ccdd0303	-0.012737108768875688
246	0xbfb532dadc41edaa	-0.08280723454838915
247	0x3f79961eef92225b	0.0062466820173843985
248	0xbf99a90e3168d358	-0.025058957830157297
249	0xbf92e5b1d7426b78	-0.018454340709108646
250	0x3f90ff04064c010c	0.016597807773906445
251	0x3fb063ea0801fd3e	0.06402456946851928
252	0xbf800debdb75808e	-0.00783905280576416
253	0xbf9edbe70509be28	-0.030135736162661214
254	0x3fbb5900ce1ab0f5	0.10682683021395063
255	0x3fa266619019783a	0.0359373558428477

fc22.bias f8 [64]
0	0xbf72b5062ef667d7	-0.004567169336405961
1	0xbf9a45aa80000000	-0.025656379759311676
2	0xbfa7d87280000000	-0.04657323658466339
3	0x3f68d57777388970	0.0030314763369158546
4	0x3f8b207f67c9f6b7	0.013245578150640964
5	0x3f9cfe5c00000000	0.028314054012298584
6	0x3fa04b605a7283d3	0.0318250761422473
7	0xbfa9c0085225cc88	-0.050293216731824464
8	0x3fb657da4c54d27d	0.08727802623327281
9	0xbfaf5c58a6d18003	-0.06125142132145813
10	0x3fa11ae8e3551b62	0.033408429861586666
11	0xbfb0ad4b52bf9deb	-0.06514426012255796
12	0xbfb0bb7ea829ac34	-0.0653609428933784
13	0xbfa205bbbcf53759	-0.03519999200453467
14	0x3f879e834745dfee	0.011532807934358371
15	0xbf82825ba653517c	-0.009037700665807995
16	0x3f9ae443e0ee8f0b	0.026261387447120515
17	0xbf9ef12f1bdab412	-0.030216919016925976
18	0x3faae613d2f8cfaa	0.05253660154667668
19	0xbf6185182f810060	-0.002138659703661047
20	0x3fa1340582e56d03	0.03360001776555956
21	0x3fb12e4eb493c43b	0.06711284550307621
22	0xbf7e0dd553c8339a	-0.007337411222135959
23	0xbfb0d3a2b865a486	-0.06572930337792302
24	0x3f94c7e5476e44a0	0.020293791279588747
25	0x3f826cdca07ca129	0.008996699950856684
26	0x3fb0cf5d651d28d7	0.06566413611031706
27	0xbfa9993ce8dcba81	-0.04999723761135489
28	0x3f9d4c2345d1449a	0.028610755096739916
29	0x3f7decb81684f565	0.007305831044786747
30	0x3f8b1462cbc3827e	0.013222476809859215
31	0x3f9e8dd72509cbc6	0.029837953220020606
32	0x3f4ec496b97146df	0.0009389625510129693
33	0xbfb01fa6131d5cc8	-0.06298292128245742
34	0xbfa2874eb20df275	-0.03618856357113468
35	0x3fa4b2be60262eb9	0.04042620586105045
36	0x3f96aef780000000	0.022151820361614227
37	0xbf63e8d6b7fc7668	-0.0024303621029407203
38	0xbf59bd669ec32537	-0.0015710355901766401
39	0xbf88e8258af15ddb	-0.012161534598063397
40	0xbfa48ecd14a62213	-0.040151985903382
41	0xbf8153aabb8f58cc	-0.008460363243937861
42	0x3fb537de6c4a9ac9	0.08288374084313967
43	0xbf7e94d9dc3acf5e	-0.0074661741415872045
44	0x3f93568389e194c0	0.018884711542700883
45	0x3fb02ddce2792da5	0.06319981125959957
46	0xbfa84246c3b0eda6	-0.04738064898307508
47	0x3f86980000000000	0.0110321044921875
48	0x3fab9e0ce73fa771	0.05394020388469201
49	0xbf9c24f6e2bcdb42	-0.027484757985088544
50	0xbfacc5d8dad9401c	-0.05619695350162621
51	0xbf9372c0570fa3a7	-0.018992429078852926
52	0x3f8e7ac3f95e016e	0.014882594153960507
53	0x3f94203ed38eb3a2	0.01965425649875708
54	0x3faa738e529fc15b	0.05166287191957749
55	0xbfa556b3d1af0a84	-0.041677111955796625
56	0xbf979c5275fe4217	-0.023057259036763336
57	0xbfb158751373676f	-0.06775600170968031
58	0xbf9e256ce35bcbaa	-0.029439641358247982
59	0x3f98f48227fb12ec	0.024370225610954074
60	0xbfa482f09797bf18	-0.04006149149415544
61	0xbf975cc09c1fc7a1	-0.02281475975900771
62	0x3f7a73f95f3810f8	0.006458257779289982
63	0x3fb1521e705c3a2f	0.06765928500338057
