weights/model_35_norm_doorsuite4_lfnew_nso_nego_wl_small_0_1_bn.pth (torch, 647052 bytes, 14 tensors)

fc1.weight f8 [256, 53]
0.10178951148971485 0.08208593714946087 -0.07755156492947177 -0.15107326538503524 -0.03010751155145395 -0.0023878344097125 0.03738455397400598 -0.05078732220862941
0.08878130440696665 0.0835135723634157 0.10703323781490326 0.10391131788492203 -0.08405083442941734 -0.20004418997517817 -0.1333649903535843 -0.06489444524049759
-0.08470653767601079 0.1205884076752932 0.05760903283953667 0.10869099199771881 0.13676018242820587 -0.07100954406730767 0.12021680176258087 -0.13563470542430878
0.044312786060418344 -0.1520452853341535 0.10271479934453964 -0.10211989283561707 -0.04277098576441842 0.025078798672308167 -0.10210438817739487 -0.060221608728170395
0.11065607492908432 0.06022568790862082 0.00406345259398222 0.10311868041753769 -0.08222971136585298 -0.10730292435617277 -0.07500685751438141 0.057550981640815735
-0.03820283363476832 -0.00919524604807027 -0.04091225564479828 0.13683702051639557 0.11713977878078413 -0.06759484609705452 -0.008359932340681553 -0.07916980236768723
0.02525504467173974 0.061761330942476045 0.12094360589981079 -0.06534603983163834 0.18972061193239978 -0.06358218949146777 -0.002561385768948301 -0.09406322540202035
-0.07729791795179339 -0.059842430417776114 0.09209329958914825 0.11719742218474588 0.006229689387014538 0.03572778020195566 -0.18887636278642242 0.06581854820251465
0.01729685813188553 0.0017289220183330423 0.0030857016638010234 0.051391150802373886 -0.004977010656148195 0.033082995453401445 0.09184541709853145 0.049030888825654984
-0.09467844665050507 0.18224848050765585 -0.049518645398730576 -0.037076935172080994 -0.11010586470365524 -0.004260107985214521 0.025818953139103172 -0.0973411351442337
0.06551613658666611 0.10135678935937449 -0.11371251051846165 0.06793343275785446 -0.038054224103689194 -0.05704284470386911 0.06026089850404844 -0.00891801342368126
-0.0028352385852485895 0.03480899881712997 -0.024391004500472248 -0.03888189420104027 0.02046329155564308 0.10024197016052766 -0.13091604456877834 -0.0846102312207222
-0.05712922289967537 0.1546712069600063 0.06475859256706235 0.055894359946250916 -0.0062618316151201725 0.1437371819107969 -0.06286619862760126 0.11146201193332672
-0.13484884798526764 0.251790070860005 0.0653670384754608 0.01835805601196661 -0.04850767434239987 -0.11083108395366742 0.140918370600781 0.11423202550385557
-0.11087664506836824 -0.008218230091722303 0.08658100955385668 0.20591384259418494 -0.12239009886980057 0.11422829329967499 0.06831770681042194 0.10694104159788997
0.0943792313337326 -0.06694924831390381 0.016390512811131835 -0.11147388263993845 0.11035116761922836 -0.04223249480128288 -0.08758711896639364 0.012137716878030343
0.032005392014980316 -0.06374476104974747 0.03262500010628284 -0.0030804347634188207 0.08940797299146652 -0.11897186934947968 -0.15158656693797554 -0.0009230292169398464
0.11613186448812485 0.07585868239402771 0.07695550017256246 -0.07470870212482068 -0.07358584553003311 -0.0903652161359787 -0.12888239033322726 0.021442984207486415
-0.054743826389312744 -0.13361580669879913 0.09476154588360294 -0.096445483781842 0.11787854880094528 0.016009483486413956 0.08712233893770678 0.028058650656222664
0.13362792134284973 0.00931683462113142 -0.11702936596971027 0.07824150793720838 0.053809817880392075 -0.010801524855196476 0.058380002407303504 0.013122727430565972
0.050882951904771476 -0.24312473958786981 -0.09306123096545332 -0.023027714755765056 0.07293218232649551 0.19989360091663977 -0.21305074263056933 -0.05379349245955155
0.06842286080062425 -0.04376909136772156 0.09873289614915848 0.13664580628941822 -0.14467137510484007 -0.10469713062047958 -0.07952986657619476 -0.05100853993822744
0.11029308347798653 -0.1310267448425293 0.02139350213110447 0.020863370305998975 -0.004786433459789701 -0.06359124928712845 0.0930139496922493 0.13083294526408504
0.11178340214636964 -0.06339318305253983 -0.1169000193476677 0.19391981259654364 -0.07206912875261906 -0.13498112559318542 0.025975065305829048 0.07409082472990373
0.08958674157880396 -0.0730869248509407 0.032504934817552567 0.09685291842292164 -0.11132663518545628 0.00860190112143755 0.05178867653012276 0.13164593026707944
-0.009078852525789643 0.13308562338352203 -0.014634044840931892 0.09579958886574123 -0.09088513388600693 0.10647892206907272 -0.08399811387062073 0.07448548570941306
0.12226803147941408 -0.07508579641580582 0.09008699655532837 0.2830282473116961 0.048940977435048334 0.06600304311165107 0.09350899726403658 0.40062293314702824
0.1471838771409935 -0.24810688543708756 -0.05603785953988596 -0.2627618793060302 0.01539075037413402 0.2626535772982773 0.0737067386507988 -0.12911313772201538
-0.06240760685927126 -0.07075665223933167 0.08177170157432556 0.11195192486047745 0.05923048255914018 0.07945152260259813 -0.07467608898878098 -0.006703373976051807
-0.07902357133156511 0.005009310053332877 -0.09088758379220963 -0.04985160380601883 -0.0485394537640257 0.12661900775702015 0.03302481397986412 -0.0162068959325552
-0.0692107506287737 0.026665266874941886 0.09595578908920288 0.031728070229291916 0.05760796962254804 -0.04066086134014595 -0.09707789123058319 0.09878234565258026
-0.13414798082834833 0.03457272185303629 0.006768758408725262 0.049714695662260056 -0.07800009252554631 -0.07855057446060634 -0.1143805980682373 0.05197298899292946
00000000: 8a94 ec9e e00e ba3f dfb8 847f 9503 b53f
00000010: fe2d 205b 6bda b3bf c677 1067 5e56 c3bf
00000020: 3ae5 e8e5 80d4 9ebf 54d7 55d6 a68f 63bf
00000030: 3147 6379 1124 a33f 17fd dfbf cb00 aabf
00000040: 9994 ec1e 5fba b63f 1eb0 123e 2561 b53f
00000050: 0000 00c0 8766 bb3f 0000 00a0 ee99 ba3f
00000060: 736b 1301 5b84 b5bf a95e d94a 0c9b c9bf
00000070: 0000 00a0 1a12 c1bf 0000 0020 ec9c b0bf
00000080: 716b 13e1 53af b5bf 3ffa 3dc3 e1de be3f
00000090: 0000 0060 ee7e ad3f 0000 0040 2cd3 bb3f
000000a0: 284a 768f 5b81 c13f ba13 7975 ae2d b2bf
000000b0: 0000 0040 87c6 be3f 0000 0060 7a5c c1bf
000000c0: 1229 d95d 2ab0 a63f f4b5 024c 3876 c3bf
000000d0: 0000 0060 844b ba3f 0000 0080 8724 babf
000000e0: f3d6 2622 14e6 a5bf b06c 7bb0 41ae 993f
000000f0: 0000 0060 8323 babf 0000 00e0 5dd5 aebf
00000100: 9d94 ecde f453 bc3f 90ac e4bf e6d5 ae3f
00000110: 0000 00c0 d6a4 703f 0000 0060 fc65 ba3f
00000120: 6f6b 13a1 010d b5bf 03fb df56 3478 bbbf
00000130: 0000 0040 a633 b3bf 0000 0080 5277 ad3f
00000140: f5d6 2662 528f a3bf a6ea 7008 f5d4 82bf
00000150: 0000 0080 73f2 a4bf 0000 0020 e083 c13f
00000160: 9c94 ec5e dffc bd3f cc70 5d55 e54d b1bf
00000170: 0000 0020 031f 81bf 0000 00e0 7844 b4bf
00000180: 1552 b25b 75dc 993f 2059 1c61 2e9f af3f
00000190: 0000 0000 29f6 be3f 0000 00a0 84ba b0bf
000001a0: d139 d0d7 c348 c83f 6853 7920 ec46 b0bf
000001b0: 52b7 8583 9dfb 64bf dda2 db0c 8714 b8bf
000001c0: 3edf a6dd cbc9 b3bf 2b71 1dc3 aaa3 aebf
000001d0: f886 ea2d 6d93 b73f 4480 7577 a600 be3f
000001e0: 9b48 e782 4d84 793f d059 0d5f e94a a23f
000001f0: d5da 93c4 192d c8bf 0000 0000 7cd9 b03f
00000200: 0000 0080 44b6 913f 5735 abe1 9f53 5c3f
00000210: 9e4d 6677 2f47 693f 0000 00e0 f04f aa3f
00000220: 0000 0020 c662 74bf d259 0d1f 41f0 a03f
00000230: a0c5 b966 2e83 b73f 0000 00a0 931a a93f
00000240: 0000 00c0 d83c b8bf 7056 c30f eb53 c73f
00000250: d83d 0f05 825a a9bf 0000 0080 bffb a2bf
00000260: 0000 00e0 e52f bcbf 3132 9507 0c73 71bf
00000270: 56ca 659d 4870 9a3f 0000 0040 59eb b8bf
00000280: 0000 0060 aac5 b03f cdac 86bf 84f2 b93f
00000290: 38a6 d259 431c bdbf 0000 00e0 1564 b13f
000002a0: 0000 00e0 d77b a3bf 40a6 f240 b834 adbf
000002b0: 7bdc 9a38 84da ae3f 0000 0080 9b43 82bf
000002c0: 0000 0020 ed39 67bf d259 0d2f 7cd2 a13f
000002d0: ba9f 959a f4f9 98bf 0000 00e0 53e8 a3bf
000002e0: 0000 0040 54f4 943f ccac 862f 75a9 b93f
000002f0: 0be8 f860 dbc1 c0bf 0000 0020 04a9 b5bf
00000300: 0000 00a0 0a40 adbf 6a56 c31f 44cc c33f
00000310: bce4 35e5 0494 b03f 0000 0080 2f9e ac3f
00000320: 0000 00a0 01a6 79bf 7156 c3df fa65 c23f
00000330: 8a1f 21cb ff17 b0bf 0000 0040 c688 bc3f
00000340: 0000 0020 ba42 c1bf 9547 f319 541d d03f
00000350: e20c 7dec e4bb b03f e114 c248 74cc 923f
00000360: 2eae cf75 ffd5 a8bf 4c13 f608 6d5f bcbf
00000370: 3667 91f8 9c09 c23f cfe4 b15d 4f3e bd3f
00000380: 9f76 756c 6962 bcbf c8b2 cc2b b8d4 80bf
00000390: e50c 7d4c 2c2a b63f f22b de81 625b ca3f
000003a0: 0000 0020 f554 bfbf 0000 00c0 103e bd3f
000003b0: f10c 7dec 447d b13f 605b 43f4 7c60 bb3f
000003c0: 0000 00c0 3c29 b83f 0000 0000 9623 b1bf
000003d0: 2b34 f4b1 acc8 903f 13f3 4b68 8d89 bcbf
000003e0: 0000 0060 f93f bc3f 0000 0060 7f9f a5bf
000003f0: 1bf3 8203 1c6c b6bf 0461 50c8 a8db 883f
00000400: 0000 00c0 0263 a03f 0000 00a0 9351 b0bf
00000410: 391a fa58 39b4 a03f 3f80 1fd2 233c 69bf
00000420: 0000 00e0 70e3 b63f 0000 00c0 f074 bebf
00000430: 7b79 c149 3067 c3bf fcb2 6626 ee3e 4ebf
00000440: 0000 0060 d1ba bd3f 0000 0080 796b b33f
00000450: e70c 7d0c 5bb3 b33f 3d4b 5a08 1c20 b3bf
00000460: 0000 00a0 85d6 b2bf 0000 00c0 2c22 b7bf
00000470: 6979 c1d9 377f c0bf d064 994f 26f5 953f
00000480: 0000 0000 6207 acbf 0000 00a0 521a c1bf
00000490: e60c 7dec 4a42 b83f ee9d b0b6 a6b0 b8bf
000004a0: 0000 00e0 492d be3f 0000 0040 ca64 903f
000004b0: e50c 7d4c a64d b63f d4e2 c02b 68bb 9c3f
000004c0: 0000 0040 b81a c13f 0000 0060 b414 833f
000004d0: 09f3 82f3 a2f5 bdbf 56b0 c7ad a207 b43f
000004e0: 0000 00e0 f58c ab3f 0000 0020 1c1f 86bf
000004f0: 97d7 28d2 fbe3 ad3f c056 30a9 16e0 8a3f
00000500: f6b9 b58c 540d aa3f fb6f b022 b61e cfbf
00000510: f4a9 855f dcd2 b7bf 654a 1cc7 9394 97bf
00000520: a40f ebf9 aeab b23f 2cee 4e0f 1d96 c93f
00000530: bc4f fe29 3f45 cbbf 3eea b315 d28a abbf
00000540: 2bfc 6f1d 2984 b13f 0000 0000 e768 a6bf
00000550: 0000 0020 8f46 b93f 6705 931a 9c7d c13f
00000560: b80e 5f74 9784 c2bf 0000 0060 6ecd babf
00000570: 0000 00c0 115c b4bf 45ea b395 ca1d aabf
00000580: b250 83e2 2a3c bc3f 0000 0000 7cc5 c0bf
00000590: 0000 00a0 2de8 953f 6a2b 9814 355d 953f
000005a0: 92d6 c972 f09a 73bf 0000 0020 8447 b0bf
000005b0: 0000 0020 c3cf b73f 6f05 934a 22bf c03f
000005c0: 4a4b 7448 d69d bc3f 0000 0020 893a b0bf
000005d0: 0000 00e0 28ed bdbf 7305 934a 5dd2 c83f
000005e0: b830 0b57 1f73 b2bf 0000 00c0 0f47 c1bf
000005f0: 0000 0020 3599 9a3f f30a 26c5 9df7 b23f
00000600: 6775 3c1d 28ef b63f 0000 0020 d3b5 b2bf
00000610: 0000 00a0 7ca4 a03f ef0a 2655 5acb b83f
00000620: 0196 4b01 e77f bcbf 0000 00a0 df9d 813f
00000630: 0000 00a0 0b84 aa3f 6a05 931a c6d9 c03f
00000640: f6c0 77f5 ee97 82bf 0000 0020 f308 c13f
00000650: 0000 0040 74f8 8dbf ef0a 2665 5286 b83f
00000660: a7a4 bb85 3f44 b7bf 0000 00e0 3342 bb3f
00000670: 0000 0080 e680 b5bf f10a 2615 7b11 b33f
00000680: d5e5 8c2c f54c bf3f 0000 00a0 d238 b3bf
00000690: 0000 0000 f10f b73f 5d11 8382 221d d23f
000006a0: f11d 09b3 ca0e a93f 69dc 994f 93e5 b03f
000006b0: 7e7b 21a5 34f0 b73f 9e38 f95e cea3 d93f
000006c0: 9ad6 68d9 ebd6 c23f cfae 6e67 f7c1 cfbf
000006d0: d390 1f8c feb0 acbf 4350 9033 17d1 d0bf
000006e0: 2677 248c 2f85 8f3f c61a 2bf3 50cf d03f
000006f0: 0000 00e0 71de b23f 0000 0080 c786 c0bf
00000700: 4fe2 f6cc e3f3 afbf dea5 57a3 1b1d b2bf
00000710: 0000 0080 fdee b43f 0000 00a0 e1a8 bc3f
00000720: cc1d 0933 7553 ae3f 7810 325b ef56 b43f
00000730: 0000 00e0 f81d b3bf 0000 0040 ff74 7bbf
00000740: 2771 7b86 e33a b4bf 3965 ac6d a484 743f
00000750: 0000 00a0 6844 b7bf 0000 0040 2686 a9bf
00000760: 32e2 f6cc 29da a8bf cf26 af38 0d35 c03f
00000770: 0000 00e0 a0e8 a03f 0000 0060 8a98 90bf
00000780: 1971 7bb6 cbb7 b1bf c7fe aac4 234e 9b3f
00000790: 0000 0000 8f90 b83f 0000 0060 a93e a03f
000007a0: c71d 09b3 ca7e ad3f 97c1 5d1b 80d1 a4bf
000007b0: 0000 00c0 18da b8bf 0000 00c0 cc49 b93f
000007c0: 70b8 3dd3 c22b c1bf c18e 620b 84b3 a13f
000007d0: 0000 00c0 8eb9 7b3f 0000 0060 3474 a93f
000007e0: 2971 7b66 d0f7 b3bf d2eb 63f4 e31b b4bf
000007f0: 0000 0000 0c48 bdbf 0000 0020 349c aa3f

fc1.bias f8 [256]
-0.1513893146141047 0.10140938012235316 0.03326792326073554 -0.021419005576207715 0.03879755279792307 -0.02273587961731529 0.031205775731498932 0.27679446476552017
-0.04921372328405348 -0.09230956537419423 -0.14180158251340946 0.08640044280416742 0.020140279158008267 0.11773511716091543 -0.18190125045733097 -0.0612274859940273
0.03931998318919367 -0.08557258348403049 0.041801866420929215 0.11071293066846484 -0.07877284395736081 -0.04698686122621844 0.19199144608431312 0.04000972896852167
0.13134842416805453 -0.14396145285321704 -0.06540980989551137 -0.11189214156222661 0.05639029709504121 0.05759425019256412 0.20468241593165465 0.021527529014338714
0.015428228119899405 -0.15871306455642267 -0.058686807207527746 -0.022497624136140124 0.05719413451550261 0.04025522334056539 0.14811110516608694 -0.09276610284149933
-0.1276855553482623 -0.04609620415434241 -0.04049979987821302 0.058850215020754465 0.14217302134901152 -0.03856652473156431 -0.05079358622378886 -0.09685845236721599
0.17217190242937733 0.05806547897491916 0.10167377851928995 -0.05660148837308445 0.0746432486753878 -0.15458999201288573 -0.029209712882514446 -0.17611662265110553
0.20910260030635677 -0.005558370803243512 -0.06904781141763121 0.004974960642427632 -0.07700643995048839 0.08375766014123226 0.07304054483020478 0.08288017429836828
0.11831063108209552 0.07812774176006568 0.031519155704092895 0.08688649511634382 0.030770422615983964 -0.24488463625750984 -0.03344713386917356 -0.049558232929093705
-0.0351708025681239 -0.014908294644674157 -0.024075426732101602 -0.09282781688276616 0.030910080186534017 -0.038981685072977 -0.041959839604243016 0.13833501294055706
0.10406490874392907 0.09004623305857666 0.07364067655365589 0.058314599579915694 -0.2729869948438527 -0.1490473364980535 -0.10844184444094396 0.12462652144710144
-0.06625955435099416 0.17880807885901062 0.06209714564640998 -0.07289490415228869 -0.203035393568652 0.11546168091127307 -0.027755487650912035 -0.21051978232418286
0.12148240315738103 -0.04881816036787867 0.19758309103848065 0.012920579419249458 0.22197199554744446 -0.10326832303213637 0.16818736702868792 -0.0018226210878188563
0.017497088373812565 0.04702484250502931 0.05015360566955106 -0.17853832477807752 0.1457319688438263 -0.06034618348643501 -0.1402199074953822 -0.24251061308655
-0.035500279591512425 0.02640429960628318 0.001583677663596078 -0.08638437066791478 -0.021218281908740356 0.20349919110807757 -0.07288444981318115 0.005732600998255459
-0.07174996707351806 -0.17614390478048317 0.18222126796903684 -0.18786186604641925 -0.04827900406615341 -0.18874683943955695 0.05373456343211374 0.03032688552792999
-0.11640765436328965 -0.08195868362820878 0.11130560190944808 -0.08056252098314587 0.1611149770709941 -0.019645757959238324 -0.028634058427897256 -0.10097334606775087
-0.02027225958449881 -0.06949795413935571 -0.043576982555314524 0.04172800612968429 -0.0497859703758005 -0.09119827897321764 -0.15797511623873972 -0.1998842569355618
-0.05567215046407833 0.10972421076858631 0.10075293396879066 -0.0008196618166103549 -0.14836244982776 -0.04773298193972301 -0.02910874283954482 -0.027837232069965363
-0.09296020615954771 0.2014774714451457 -0.14747681452481196 0.07046986325603508 0.11011910566058379 0.03880683140552332 -0.0046594249723656035 -0.17794115535107183
0.08253966095433216 -0.014252730205104517 0.23609736148621258 0.08789235033812648 -0.05666505312771252 0.07240630141500135 0.043894668296933975 0.10812202359472786
-0.021740767641641883 0.0430698122620499 -0.03665800419223163 -0.04677681858731472 -0.007030556444010897 -0.0022851413573166577 -0.12101784248402987 -0.013069438554049602
0.1084037211173215 -0.008451092682982204 0.12364315803033225 -0.12092879118838405 -0.017194302490886538 0.049234472632881124 -0.031152574501166975 0.13204806009663977
0.0032861605593794132 0.0383827425585735 0.11873145971335922 -0.17097256521747406 0.027620254418332508 -0.10796090788804988 -0.006800948310800293 -0.07729625569839063
0.06777884378341412 -0.03998273851278212 0.008987664857448271 -0.1074404802357568 -0.13045872414176843 -0.06417769289230242 -0.03634438275402885 0.09540527467025746
0.006461746919235885 0.06561213886845936 0.02325839145325694 -0.05506494229333243 0.06826119507572768 -0.015236242156730185 -0.059491306759889916 0.06073467742130864
-0.11405114202577224 0.05337380340727017 -0.07570608689633392 0.09168029644168912 0.24225142611344852 -0.19085376513976926 -0.08355028520658993 0.1117256148849951
-0.076276461818856 0.11009886654777233 0.1267173840900558 0.12111819515693607 -0.07007317086666257 -0.022569908219101497 0.027607358542908026 -0.15610906436635866
-0.01537965225521881 -0.14881712770167835 -0.09315288277217443 0.035511708593472975 -0.08226224085104004 -0.04467355086197278 -0.009956637926901797 -0.19735051132428338
0.09191721040701965 0.12003111236357607 0.16446817131160402 0.06946861331698329 0.0010286233609512047 -0.06310094160298331 -0.08511401770240186 -0.08270255071726758
-0.06310571360799958 -0.030413748571007225 -0.15298843799637432 -0.16136314601822116 0.05768435763910157 -0.18232380428229697 0.05636828061596493 0.20746017683350196
-0.18356199194079478 0.01694222300710414 -0.04165076479759628 -0.0053014927499685045 0.1278115159831963 -0.09841250237519761 0.15654942059154237 0.06206213361257679
00000000: a69f 9d9d b960 c3bf 6b15 2213 f7f5 b93f
00000010: db46 d244 7e08 a13f e9c1 d921 ddee 95bf
00000020: af23 ddd8 45dd a33f 66d0 9b0d 1348 97bf
00000030: 7736 da28 68f4 9f3f 526e 7821 00b7 d13f
00000040: 3fef 0988 8a32 a9bf 19e0 6384 99a1 b7bf
00000050: 0c44 b5e3 8d26 c2bf 642d 34e4 561e b63f
00000060: f389 4341 a79f 943f 07ff cb7d e323 be3f
00000070: 386a e848 8a48 c7bf b4d9 eb83 3559 afbf
00000080: 59f3 c0b3 bf21 a43f 2686 7fb7 15e8 b5bf
00000090: 021a 61e2 0d67 a53f 9d22 77c0 ae57 bc3f
000000a0: 461a 9c04 752a b4bf 52d9 9d70 a90e a8bf
000000b0: 9a9d 05fb 2c93 c83f 971c e2ba 277c a43f
000000c0: 426a 1771 06d0 c03f bcd1 f131 546d c2bf
000000d0: 80bb 5682 b2be b0bf 296d b0a0 f6a4 bcbf
000000e0: 657b ab63 30df ac3f 5c87 075a fe7c ad3f
000000f0: a611 3f8d 0833 ca3f d833 5204 500b 963f
00000100: fc7a aeb9 d598 8f3f f5df dbae b550 c4bf
00000110: 4373 537b 320c aebf 8914 9cff 9d09 97bf
00000120: 73c2 88b2 8c48 ad3f cc57 7b27 559c a43f
00000130: ec6e 6e00 4ef5 c23f 58b1 e1f1 84bf b7bf
00000140: a739 3212 0058 c0bf 5912 a0f2 eb99 a7bf
00000150: 7a64 f1c7 63bc a4bf ecdf c089 9d21 ae3f
00000160: 4fa4 88be b932 c23f 0188 e2d4 fdbe a3bf
00000170: 55ff 5aef 9d01 aabf 4e24 422d b7cb b8bf
00000180: 29b5 1c99 ba09 c63f ea9c 722a c2ba ad3f
00000190: 89e1 99f1 4a07 ba3f d344 efca defa acbf
000001a0: 7c90 ede7 d11b b33f c1fb fdd7 9ac9 c3bf
000001b0: cf4a 39a6 26e9 9dbf a9c3 484f fd8a c6bf
000001c0: b184 e9be dfc3 ca3f 8682 1acd 5fc4 76bf
000001d0: 832b e60b 1ead b1bf f83b 21d4 9f60 743f
000001e0: 4032 2bad b1b6 b3bf 6498 185b 2471 b53f
000001f0: 84e7 53ff c8b2 b23f 5228 1996 a237 b53f
00000200: da47 4403 9b49 be3f a212 c5ff 2d00 b43f
00000210: 2daa e45d 4723 a03f 671f fd7e 313e b63f
00000220: 846c 471b 4882 9f3f 066a 0238 6158 cfbf
00000230: a5df 3994 fb1f a1bf d523 5b5b b25f a9bf
00000240: 83bb 9b4d e801 a2bf 0c0a 816f 3d88 8ebf
00000250: 9d75 ce89 3aa7 98bf a5a9 ab55 90c3 b7bf
00000260: b054 125e e4a6 9f3f a814 104d 68f5 a3bf
00000270: 54f6 b095 c27b a5bf cc57 3c32 f6b4 c13f
00000280: fa65 b773 ffa3 ba3f 2b55 1d1a 450d b73f
00000290: 3e09 7489 1dda b23f 0070 2644 69db ad3f
000002a0: 5a9c c571 9e78 d1bf 7553 e8ad fb13 c3bf
000002b0: 484b 643f d8c2 bbbf f35c d411 86e7 bf3f
000002c0: 872c fcda 62f6 b0bf 94e2 7ae1 2ee3 c63f
000002d0: edda 7373 32cb af3f f60e 618d 3da9 b2bf
000002e0: 9967 a753 10fd c9bf c881 748f e58e bd3f
000002f0: 7615 fb3e ef6b 9cbf df27 1fee 4ff2 cabf
00000300: 59b6 9984 7819 bf3f 703b 76a4 b1fe a8bf
00000310: e25d 2019 674a c93f 618b 68d0 1a76 8a3f
00000320: 6287 c00e 9469 cc3f 16c3 22f6 ca6f babf
00000330: 3e89 7ee4 2987 c53f 708a c57d a0dc 5dbf
00000340: baec 5cb9 c1ea 913f c83a 51e1 a313 a83f
00000350: 9e20 41c0 bbad a93f 7492 0005 58da c6bf
00000360: 073d 155c 58a7 c23f 897a 06e9 b1e5 aebf
00000370: 866c 78d6 b9f2 c1bf c9df 1178 960a cfbf
00000380: 7955 b0b7 172d a2bf f78e 218d ba09 9b3f
00000390: 1979 71f1 6cf2 593f fd7b e73e 491d b6bf
000003a0: 4d5b 80cb 3eba 95bf bc2b 49f1 420c ca3f
000003b0: 24a6 5528 8ea8 b2bf 05b7 ef5c 117b 773f
000003c0: d5e0 11b2 345e b2bf 4101 362b e28b c6bf
000003d0: 6d05 48c9 0653 c73f 1ede 6a8d db0b c8bf
000003e0: 655c 188f 06b8 a8bf 9ce1 4e3f db28 c8bf
000003f0: f726 36c1 1883 ab3f 4cc3 20d6 020e 9f3f
00000400: 0c91 7e5c e4cc bdbf 176e ce89 3efb b4bf
00000410: 720b 1020 867e bc3f b8ea e7d0 be9f b4bf
00000420: f835 b562 6a9f c43f 2b9f c27f 041e 94bf
00000430: c68f ff21 3f52 9dbf 2ff1 20a3 63d9 b9bf
00000440: b4cc b94f 40c2 94bf 63dd 2a30 9eca b1bf
00000450: a3eb dde5 b84f a6bf fefd 4e8b 5f5d a53f
00000460: b69b 20f5 8b7d a9bf 5836 a439 c558 b7bf
00000470: 38e1 e952 8738 c4bf 0502 43ad ce95 c9bf
00000480: 2b19 1563 0f81 acbf f19a d4c8 e216 bc3f
00000490: 9d3b 5fbc f1ca b93f bf81 1a59 d2db 4abf
000004a0: 4f7a fb6e 8afd c2bf 654b be18 7570 a8bf
000004b0: 6915 18aa aece 9dbf 821a 6805 5d81 9cbf
000004c0: 79e0 4875 3dcc b7bf 1f6c 5e87 03ca c93f
000004d0: 97b2 a62f 85e0 c2bf 96cb 091e 500a b23f
000004e0: 171b 7a05 c430 bc3f 1008 7f2f 7dde a33f
000004f0: 84da fddd c215 73bf 1533 6c99 c6c6 c6bf
00000500: 16fa 6bb8 5121 b53f 7588 e010 8930 8dbf
00000510: 82a9 2037 7038 ce3f f854 45f2 1c80 b63f
00000520: efed 04ac 3303 adbf 3e0c 9a28 3889 b23f
00000530: ecb2 9ba9 5c79 a63f 0613 518b e2ad bb3f
00000540: bb0b 0b38 3643 96bf a581 3816 3f0d a63f
00000550: 0ed7 4882 d6c4 a2bf fc3d 1694 21f3 a7bf
00000560: b7ce fe9f 12cc 7cbf 6b68 afec 49b8 62bf
00000570: 258e b37b 06fb bebf b173 5559 26c4 8abf
00000580: 84ae f6a4 58c0 bb3f 17d0 8275 ce4e 81bf
00000590: bb4b 1df8 13a7 bf3f 2f86 4c73 30f5 bebf
000005a0: 0de9 801b 629b 91bf 4a8b 96c3 4235 a93f
000005b0: cdc3 ace2 75e6 9fbf 7ec2 ce69 f3e6 c03f
000005c0: 7ed9 3804 94eb 6a3f 292b 0a20 e7a6 a33f
000005d0: faa7 7958 2f65 be3f d0a6 0fd4 6de2 c5bf
000005e0: 255a bce5 7b48 9c3f 1e2a a078 53a3 bbbf
000005f0: 340e 3aa9 4fdb 7bbf 6aed 53fa afc9 b3bf
00000600: ae13 694d f459 b13f 3143 a214 9e78 a4bf
00000610: 788b 0af5 1f68 823f 570d e124 3881 bbbf
00000620: 1559 d518 dfb2 c0bf 75ec 1a04 f36d b0bf
00000630: e0ca a41e bb9b a2bf 751c 93e6 7a6c b83f
00000640: 2f21 17fb a177 7a3f ed1f a906 f5cb b03f
00000650: 45e3 983a 0cd1 973f baaa 9cdc 7831 acbf
00000660: ffa5 6fd0 9079 b13f 5a7c 37ce 2d34 8fbf
00000670: 032d dc01 a575 aebf 1ce8 839a 9d18 af3f
00000680: f677 12a5 7432 bdbf 02d9 31a8 cf53 ab3f
00000690: 7df0 535f 7961 b3bf 7c96 e722 5c78 b73f
000006a0: 1087 4840 1802 cf3f c800 cc6b e56d c8bf
000006b0: 91a5 882e 8d63 b5bf b879 0ec6 0c9a bc3f
000006c0: bc71 f7ac da86 b3bf d73b 2677 702f bc3f
000006d0: db2f 4076 4638 c03f 454b 261f 9a01 bf3f
000006e0: aa07 33b9 50f0 b1bf f3f4 b2e6 901c 97bf
000006f0: 116f 4878 1a45 9c3f 8d05 08bf 61fb c3bf
00000700: 9f1d aefb 5d7f 8fbf 511c 488c 700c c3bf
00000710: 44dc 0809 ded8 b7bf d16e 1136 972e a23f
00000720: dfa0 2662 230f b5bf 3090 e59f 73df a6bf
00000730: f178 3152 2564 84bf 5c4b fe13 c842 c9bf
00000740: 5340 a3e4 e287 b73f b5a3 1ae6 5bba be3f
00000750: f614 8204 4b0d c53f 707f 4bee b1c8 b13f
00000760: bbf1 7dec 5bda 503f 3118 8820 6227 b0bf
00000770: ed85 7642 08ca b5bf bd5e a08e fe2b b5bf
00000780: 0219 2330 b227 b0bf 0650 d81d c824 9fbf
00000790: 8d26 ee08 2095 c3bf 7ec6 762d 8ca7 c4bf
000007a0: 88f6 19db cd88 ad3f df5e 56ec 6256 c7bf
000007b0: e7fc 8da3 4ddc ac3f 4573 5c19 0e8e ca3f
000007c0: 6b50 1698 f57e c7bf 83bd f256 4d59 913f
000007d0: d970 51c1 3f53 a5bf 8b91 b29f 04b7 75bf
000007e0: e899 99b4 205c c03f 2010 38cf 8f31 b9bf
000007f0: 8aff d2b8 cf09 c43f 593b 5fa4 9bc6 af3f

fc21.weight f8 [128, 256]
0.05944026394626975 -0.031544848654512084 0.025163399942442505 0.012484053463309552 -0.19965202866672155 0.030457764424302772 0.11979443811275613 0.047086974432835244
-0.019420511987946632 0.12794357009845855 -0.06084407836457131 0.06269777891652126 -0.014259186923756582 0.11712279193029017 0.038739109154861166 -0.007826702085485929
0.08802524965942421 0.09634288371697508 -0.13832441902610185 0.11491281559511486 -0.08051334641682852 -0.04379466773481497 0.01684358953892914 -0.07906233432835123
0.22255957886646388 -0.025388758139597383 0.07051048928191055 0.058280806638221175 0.09441186086149057 0.05127164310913094 -0.05697564169932803 0.013060917589055757
0.009581059676136372 -0.014218377080881058 -0.01733952137282639 -0.06223046946753206 0.030366940539214394 0.05581702430769264 0.027431982911428204 0.14203568225251534
0.06653895501862525 -0.05114110630431759 0.019327167347030903 0.03399594026726343 0.02043642687590031 -0.019783967110151474 0.01959388956652248 0.0005858851827776877
0.02650563953823725 0.04611866069067484 0.026609007393552323 -0.017401119143350526 0.002337242962498079 0.17230104723463013 0.02531778530950536 0.023633367384635458
0.0036881223694061292 0.1107974603158831 0.060871360377948075 -0.07248488841768592 -0.04949716467970806 0.11459172544465387 -0.01967790239487298 0.07511279810950222
-0.02266252610797002 0.06848673258166671 0.09148574568637581 -0.06765416895715429 -0.009572776347272174 -0.025033144718579856 -0.0029949320595424665 -0.08606608689468473
0.03031045779260285 -0.013244280853544987 0.018896173466961486 0.0037190461584711825 -0.08760806048767783 0.07861545262189744 0.14413357430935028 0.10697509185371377
0.18349608221558839 0.05359073515039936 0.019845448634958858 -0.007339073472703185 -0.09788980915616129 6.556625796974439e-05 0.0682422036186758 0.09295021458486312
-0.025502733874592648 0.1246939761314486 -0.06798542205652494 0.035134338419163434 0.06356041753229286 0.07760450060016966 -0.0017639695532966515 -0.13936831340519268
-0.000420440456091687 0.009794043559378244 -0.002559696693224003 0.01751917286134645 0.20118769905124562 -0.05191100948395942 -0.03425210894543039 -0.11656272975565997
-0.10793022406315424 -0.0555157017583495 -0.028452609186471755 0.01642133627268731 0.1663530366873141 0.04726133639721213 -0.03569925226993825 0.0353181370835748
-0.11092039640205967 0.08981957263235427 -0.07359993903588918 0.01814262434453488 -0.09346861225701507 -0.003797049637167324 0.028852067791294473 0.028621287957219806
-0.06559256260470626 -0.04382060556865874 0.09561947772045722 0.07175524462883662 0.08230284707832901 -0.07599916202138725 0.06370024572017123 -0.017129278752155083
0.10073179742868196 0.03268214331071826 0.007441940539242093 0.0557743805840594 0.12178001311064694 0.029837653969169514 0.12359991437006754 0.06100509960625622
-0.06017536097052483 0.018523881045223192 0.10813168129507747 0.04535165581171928 0.07170239628642777 -0.07696415550380566 -0.1044561560673144 0.050906064505738556
-0.05761506509149107 0.0452415731458528 0.028266982684393902 0.04369387264512388 -0.03727478119157844 0.02914685051098777 -0.002488693320692928 -0.0034111139660940037
-0.047106851796971376 0.004734190758100668 -0.06083904409074573 0.03266716820041005 0.12578755042718492 0.011885403236358364 0.1304092412409032 0.03660480107697408
-0.1235769451094411 -0.01804811099688695 0.10748607295349728 0.009667541693735392 -0.13867866782478694 0.08568798990435296 0.01969268036687292 0.20378159702370705
0.058867012173369114 0.02663326415058441 -0.0020356961177567063 -0.01010770333130881 0.07032506283109909 0.09276635545597041 -0.13711425313855885 -0.008014043549687473
0.05945299708566087 -0.00032030871760694294 0.04105441870220866 -0.04460434280199942 -0.004145169068393888 0.03973145630151796 0.029273843818826206 -0.021225507985309915
-0.015981727754920527 0.043277843589443206 -0.14903312533999694 0.058554958520743654 0.030263813049511666 -0.04633920491523151 0.03203300829515353 -0.026663564860627265
0.19559450576226164 0.18449721004025618 0.0780286543923986 0.01323316026411241 -0.03583760570744556 -0.04183889879065188 0.10773853702113716 0.019850345197578893
0.03864327699434062 0.016542779182602302 0.011351919360865818 -0.07749596837592967 0.026663283681382096 0.12769154119270587 -0.045173257567798705 0.016566037591732318
-0.07896543682559416 0.09140658616091939 0.058805256192259674 -0.023525302579798436 -0.02932190886339375 0.025519004189506686 -0.03412393723511884 -0.010017573585749007
0.03828941771123869 -0.033225594574025165 -0.03310453259851418 0.08738148852969935 -0.13358965209070967 0.031247286775828182 0.03853596764700154 -0.005153407620739495
0.05169067894519517 0.04379252816356183 -0.0933057778984349 -0.008462826070986453 0.10550654540052122 0.05530089022655537 -0.06252720464800497 -0.057366505940064295
0.03264091713590882 -0.0068602177695260246 -0.13544748852039593 0.06628641620184623 -0.06841136556726105 -0.1933150196649149 0.1087302070473079 0.06993247034572571
-0.031621159154112406 -0.08762821265179717 -0.12651875728926232 0.035756957102237905 -0.0346307111054089 -0.016927213178722277 0.035245322969469674 0.039674803070171516
0.004547927517710866 -0.03012786539761519 -0.05312790050285919 0.04911777353641168 0.04604292148216438 0.07236649039516518 0.036292908622140685 0.016030988876099633
00000000: 0cff 6d4b f46e ae3f ea23 a87a a526 a0bf
00000010: b55f 3c2f 6fc4 993f 207d c54a 3d91 893f
00000020: 5610 da9a 328e c9bf 1455 72f8 5130 9f3f
00000030: 27de ef29 d9aa be3f 1c63 83ae c81b a83f
00000040: 2d71 707f f8e2 93bf e736 a774 7460 c03f
00000050: 1452 767d f426 afbf ae71 fa2d f60c b03f
00000060: 326a 0aac eb33 8dbf 6ff1 f460 c2fb bd3f
00000070: 37e8 cacd 9cd5 a33f 280b f12b 7207 80bf
00000080: 1c6c 82a0 d288 b63f 0049 c45e eda9 b83f
00000090: 8547 fa53 9db4 c1bf dd4e df20 ed6a bd3f
000000a0: c975 c0cd 859c b4bf ec07 5233 416c a6bf
000000b0: b727 de28 723f 913f c322 49dc 6d3d b4bf
000000c0: aa4d 5210 d57c cc3f 9b1e 95b7 82ff 99bf
000000d0: bba2 7db5 f90c b23f 1ac7 fd5c fbd6 ad3f
000000e0: c12d c12e 602b b83f 6557 bbdc 4640 aa3f
000000f0: 14d2 884b e92b adbf 22ba 34af aebf 8a3f
00000100: 209f c20f 3c9f 833f 9142 8444 861e 8dbf
00000110: ecf8 e594 73c1 91bf 8d05 5b0e acdc afbf
00000120: fd64 fbe1 8218 9f3f d053 ec8b 0c94 ac3f
00000130: 7845 e035 2117 9c3f 72de 11a9 392e c23f
00000140: ee0a b76b b208 b13f f4d9 1dc6 2a2f aabf
00000150: e621 b83e 80ca 933f a711 4a77 ea67 a13f
00000160: 42fc 5064 49ed 943f 1599 e48e 3f42 94bf
00000170: 5300 8fab 6b10 943f eabb 80d9 c232 433f
00000180: 7eb9 e75b 4b24 9b3f b2b4 cd76 dd9c a73f
00000190: 4127 2342 643f 9b3f c2b7 8956 99d1 91bf
000001a0: 5389 c6c2 8d25 633f 943a 78f1 f50d c63f
000001b0: a459 a5cf e7ec 993f 92a2 0b70 5833 983f
000001c0: 7854 ba9e 8d36 6e3f 075d 89ec 385d bc3f
000001d0: c431 2cec 872a af3f a54a 35a1 5e8e b2bf
000001e0: a990 163f b157 a9bf d64f 2d21 e255 bd3f
000001f0: bc9d f5ac 7126 94bf 5830 64a3 973a b33f
00000200: fbf5 e961 d834 97bf 90ed a5b4 5888 b13f
00000210: a1ed c51d 9c6b b73f cae9 1b9b c851 b1bf
00000220: 0866 bf4a e49a 83bf fc82 87e7 49a2 99bf
00000230: cfb6 fbe7 d388 68bf aee2 8154 6d08 b6bf
00000240: d6b8 c863 b409 9f3f b307 0049 d11f 8bbf
00000250: 0096 3dbc 8459 933f fc30 efb3 6777 6e3f
00000260: dc1a a95a 7b6d b6bf 43a6 f86d 2420 b43f
00000270: fd05 f50d f872 c23f 5f90 ff38 b862 bb3f
00000280: aeb0 07b4 cc7c c73f 30db adad 3e70 ab3f
00000290: 4246 7283 5d52 943f c26e c588 930f 7ebf
000002a0: 0ff9 ef78 4e0f b9bf 9827 1cbc 1330 113f
000002b0: 9eca bf30 5278 b13f d354 ccd3 95cb b73f
000002c0: 18c4 cc7f 631d 9abf 9726 7ec5 f1eb bf3f
000002d0: 7a68 561c 7e67 b1bf ab2c f4c4 20fd a13f
000002e0: b40d 9fda 7e45 b03f d8a2 1978 e3dd b33f
000002f0: cd1e b9e2 9fe6 5cbf 0245 1626 d2d6 c1bf
00000300: 0ca0 4202 d28d 3bbf 22d9 4346 e60e 843f
00000310: 39f2 b8b2 12f8 64bf cb45 f8c9 8bf0 913f
00000320: ea2b e4bd 84c0 c93f 3e68 1270 1494 aabf
00000330: beb3 7a0f 7e89 a1bf e1a8 3b18 0ed7 bdbf
00000340: 39e8 99ae 50a1 bbbf 4de6 eed6 8d6c acbf
00000350: 235e c447 ae22 9dbf 0bc2 fd38 c1d0 903f
00000360: 52c6 146a 0e4b c53f 87ef 614c a332 a83f
00000370: 6869 fb21 2c47 a2bf f28d 7507 3815 a23f
00000380: 7a96 0173 4765 bcbf fe24 ff5e 6afe b63f
00000390: 9c90 2513 72d7 b2bf 8bc0 e4e8 fa93 923f
000003a0: a7ac d818 8fed b7bf 13dc 6980 fd1a 6fbf
000003b0: 85a3 577e 658b 9d3f b28d fb1e e64e 9d3f
000003c0: f17f 3f97 acca b0bf 1fda 9d87 a76f a6bf
000003d0: c982 aba1 847a b83f 3651 ff3c 8d5e b23f
000003e0: 57b1 91a4 cc11 b53f 59bf 675b ae74 b3bf
000003f0: 4384 1dc8 a84e b03f bfa4 2d70 568a 91bf
00000400: c69c 9f1f 8fc9 b93f 7d8d 5dc1 b6bb a03f
00000410: 14d4 c1b3 707b 7e3f c55a 20a9 758e ac3f
00000420: bbde 9d95 f92c bf3f 68a2 f20f c38d 9e3f
00000430: d601 0276 3ea4 bf3f 706c 6577 0f3c af3f
00000440: 976b c90e 4ecf aebf a40c 239d ecf7 923f
00000450: 02e8 d292 84ae bb3f bec2 0f0d 5538 a73f
00000460: 7c54 1897 165b b23f 0165 da42 ecb3 b3bf
00000470: f8cb 2c7e a3bd babf d3bf 7014 5c10 aa3f
00000480: c254 a6c8 b87f adbf b77c 294a e729 a73f
00000490: 2989 be18 05f2 9c3f 3ac1 1714 0b5f a63f
000004a0: aee4 5d1c ae15 a3bf 0585 e706 acd8 9d3f
000004b0: 3a40 820d 2b63 64bf 8076 acdd 9ff1 6bbf
000004c0: af61 c5a7 631e a8bf 0443 aaa7 2864 733f
000004d0: 751a 6191 4b26 afbf 01bb 2546 c0b9 a03f
000004e0: 2c13 aa73 ce19 c03f cf75 99d1 5f57 883f
000004f0: c6e8 1c01 40b1 c03f f31e 014f ddbd a23f
00000500: f3dd c819 bda2 bfbf 5be0 f139 347b 92bf
00000510: 8559 1c10 3584 bb3f b92b 427b 93cc 833f
00000520: 5aeb 7afb 38c0 c1bf ad96 4cea a5ef b53f
00000530: cbcf 9568 512a 943f 1d2a 5fef 8315 ca3f
00000540: f319 3228 d123 ae3f fcc9 0c1a c045 9b3f
00000550: 56f1 0208 2aad 60bf f012 f7f9 58b3 84bf
00000560: 09df f2c4 d200 b23f b53d da2e 89bf b73f
00000570: 6cd5 85b8 f58c c1bf b713 a3b7 aa69 80bf
00000580: 2fa2 438c 9f70 ae3f 65a2 7c77 e3fd 34bf
00000590: 6853 5db3 1505 a53f cf35 3063 61d6 a6bf
000005a0: 6cbe 5c59 86fa 70bf 6efc df72 ae57 a43f
000005b0: f3fd 5167 f6f9 9d3f ce33 8dba 23bc 95bf
000005c0: 33f1 2998 835d 90bf e153 b775 8328 a63f
000005d0: f58f ad77 8413 c3bf 7fff ba5f eafa ad3f
000005e0: c61b 331d 7afd 9e3f 3662 44b3 c5b9 a7bf
000005f0: 2e55 0a66 a166 a03f 80e0 488c b14d 9bbf
00000600: 6f5a c3a2 3d09 c93f 0fbf a9c5 9a9d c73f
00000610: 3928 c496 aff9 b33f 5aeb 74b4 fc19 8b3f
00000620: d3f9 f580 4e59 a2bf 7654 037c e86b a5bf
00000630: bb50 06b5 c094 bb3f 016c c01d a653 943f
00000640: e94a cd35 0dc9 a33f 0802 4c1e 97f0 903f
00000650: 9cc7 36d3 ac3f 873f 8a18 bf99 c6d6 b3bf
00000660: 8f7a a9ad 9e4d 9b3f 5402 b348 3258 c03f
00000670: 36a1 d0ff f220 a7bf d322 b9f6 aff6 903f
00000680: e526 ae30 1437 b4bf 5b3d 330a 6c66 b73f
00000690: e778 5bf8 b81b ae3f 9abf d554 0417 98bf
000006a0: ef8e 7ffe 8f06 9ebf 1c82 ae61 a721 9a3f
000006b0: ed05 df54 b178 a1bf e00f 7df7 1784 84bf
000006c0: fb8e b4a9 ab9a a33f ddd2 2bf4 f102 a1bf
000006d0: dd4f b8c9 13f3 a0bf 94c7 821b a25e b63f
000006e0: 9224 6839 7719 c1bf b5e5 29eb 49ff 9f3f
000006f0: b4f4 8681 fcba a33f aac2 1a53 bd1b 75bf
00000700: 9dc1 275f 3377 aa3f a016 8b68 f96b a63f
00000710: 9b03 9a30 e3e2 b7bf f429 a749 f554 81bf
00000720: 7b59 021a 7a02 bb3f 6fec ecf5 6550 ac3f
00000730: 9fcf 126b c801 b0bf 9df6 cb85 245f adbf
00000740: c668 386f 4fb6 a03f dcb5 6aaf 7519 7cbf
00000750: a59d c2e2 5756 c1bf 8587 c185 25f8 b03f
00000760: fa3c c941 6883 b1bf f7a8 a4eb 8bbe c8bf
00000770: cc01 5b2b bed5 bb3f c939 1029 18e7 b13f
00000780: 7967 db08 a630 a0bf 05e1 8b73 cd6e b6bf
00000790: 20a8 7142 c431 c0bf ae98 b762 bc4e a23f
000007a0: da18 45d7 1dbb a1bf a664 0f0c 5e55 91bf
000007b0: 0d4e fbca ac0b a23f c8c0 527b 4150 a43f
000007c0: ae16 40ff d8a0 723f 0ffe 52d2 d6d9 9ebf
000007d0: ae70 5486 9433 abbf 8281 fbfd f625 a93f
000007e0: 90d5 f413 f092 a73f 08d3 923d 9c86 b23f
000007f0: 08b6 37ef fb94 a23f b813 c873 6d6a 903f

fc21.bias f8 [128]
0.10084355910940007 -0.03865726790033811 0.06384417066799619 -0.15261287022946673 -0.048940766652121756 -0.05452871124342472 0.06684429922011387 -0.11941281812963021
0.0656116557811306 -0.0355289310911338 0.019173501423002837 0.04795159996564865 -0.0021548897100970993 -0.006386794835831598 0.02087437577929087 0.006694355291625682
-0.04328298482841569 0.024341611619247108 -0.04316519607206331 -0.010429776966367021 0.035023881478228165 -0.03533519229960655 0.011005083204956979 -0.004297133102201661
0.07148911281156618 0.134724953813411 -0.06671634989359826 -0.06899822716146256 -0.026162547478386394 -0.027375231538642318 -0.03808099580709839 -0.04858609012135436
-0.017185429991433243 0.012830686682768834 -2.2965575281050866e-05 -0.07442967286630278 -0.04254735350961139 0.0822874479567139 0.005949618581701272 0.023946629133628033
0.04459375987855138 0.004061238014744069 -0.03475819745135332 -0.04790366113518793 0.16569048943216141 0.004720015441943205 -0.03332696691977657 -0.021165517201055674
0.04035233447924805 0.09824561200713094 0.0061976312240435575 0.017232881294558883 -0.07993581932688272 0.037977807402657264 -0.06298172435612809 0.02375020749670938
-0.04594544356772184 0.02948665748892226 0.029033519261510758 0.02615563076692162 -0.03175202913101521 -0.00785313034535711 -0.022135621172131675 0.038274629456860686
-0.04558313294911572 0.021818414007758902 -0.072813057591727 0.03676121775254416 0.07660691267485617 0.08790267619382554 0.07618078718104883 -0.012663626648337927
0.03967126489829418 0.034367875962068084 0.06131378382853347 -0.01926258211053592 0.06438560881403566 -0.04002370511292898 0.01959464064697575 0.03127836765325171
0.046663837478311064 -0.12307414579104563 -0.023069465988933644 -0.03956848714191408 -0.05788777914744651 0.05622598780350769 0.09367516362350688 -0.06031304961629819
-0.001712313499473444 0.06694128928343772 -0.03390084056580288 0.007102914470857748 0.016543418250260178 0.016647488856254358 -0.00282378248709476 0.07128487083030932
-0.03708730389779476 0.008620943569106535 0.06601848439818103 -0.052406468714506806 0.04584473187000526 -0.03547521470770562 -0.04370937276743689 -0.0328001599883909
0.014465746832772828 0.016867268168108306 0.05304963468266658 0.027656559503564476 0.06543950081567741 -0.12190960076394879 0.04097607058747482 0.08644793586234735
-0.09355542500325341 -0.0704440049381871 -0.04433949696436725 -0.015171727253208735 0.10324049397037252 -0.004079695621631104 -0.01721158017522367 0.08124878107180729
0.021663258979110152 0.03702115588147873 0.01446000866385252 -0.0044908515727218245 -0.020198535162572633 0.07513441065752965 0.02395921915264417 0.015901650526298723
00000000: 0c1a 632c e2d0 b93f 85f2 c4aa e2ca a3bf
00000010: 602d 0f71 1758 b03f c2c8 4a8b d188 c3bf
00000020: 3e8f 6ca0 c30e a9bf 1e92 f7ee 2feb abbf
00000030: ac0d 133f b51c b13f 7707 97a4 d691 bebf
00000040: 50fd d0eb eccb b03f c74e 321a d930 a2bf
00000050: d015 3fe6 37a2 933f 4b63 49b3 1c8d a83f
00000060: a073 9a9a 21a7 61bf fe76 232f 0a29 7abf
00000070: 8495 2fa5 1760 953f 21b3 b950 8a6b 7b3f
00000080: f763 9ff8 2f29 a6bf a7ad 58e7 01ed 983f
00000090: d7ed e8a2 bf19 a6bf f30b cdf7 345c 85bf
000000a0: 1952 0e73 a6ee a13f 9c3c a64e 7417 a2bf
000000b0: c7f0 a343 d589 863f d38c 3fe2 de99 71bf
000000c0: 0db5 8b49 1c4d b23f 09b7 4ad3 aa3e c13f
000000d0: 8cc8 e69c 5214 b1bf 3af5 2329 dea9 b1bf
000000e0: f8e8 32d7 5aca 9abf a630 b7b0 4008 9cbf
000000f0: 3763 2e2f 5a7f a3bf 1b34 39a8 46e0 a8bf
00000100: 20a5 1faf 0e99 91bf a770 809d f946 8a3f
00000110: fa16 f650 c614 f8be 5210 d0b2 d20d b3bf
00000120: d4d3 b547 c4c8 a5bf 5d6b d849 ca10 b53f
00000130: 6d9a b693 a05e 783f abda e913 7785 983f
00000140: ac6f 9148 fed4 a63f 4808 4647 84a2 703f
00000150: 1e98 a492 d3cb a1bf 5c5c de23 d486 a8bf
00000160: 6a47 af90 5835 c53f 682e 5b7f 4b55 733f
00000170: d399 fd71 3b10 a1bf 8ad0 b9d0 69ac 95bf
00000180: e4ad cfa9 0fa9 a43f 54cf 8bda 9f26 b93f
00000190: 510e b8f6 af62 793f d8cd 4d16 7fa5 913f
000001a0: 85b5 c981 ac76 b4bf 7751 89c1 d371 a33f
000001b0: 1cf2 5afe 911f b0bf 15e6 e271 f951 983f
000001c0: 8712 0c43 2986 a7bf ef45 5516 c031 9e3f
000001d0: 7e28 dd7e f6ba 9d3f 1f2f 00ab 8ac8 9a3f
000001e0: 2711 664d cd41 a0bf 1c49 0950 4d15 80bf
000001f0: ab36 0b64 b8aa 96bf b345 9173 bb98 a33f
00000200: 2b06 8822 ac56 a7bf 8da5 74fa 9057 963f
00000210: 0307 1465 e0a3 b2bf 7141 04c8 5dd2 a23f
00000220: 6606 96b8 829c b33f 61bd 7b2f ca80 b63f
00000230: 29b1 8685 9580 b33f e34a 6d32 63ef 89bf
00000240: 3d83 a8c2 ca4f a43f a883 948e aa98 a13f
00000250: 4fd5 ac30 8564 af3f ca18 ce00 92b9 93bf
00000260: 1878 3044 937b b03f b2af 0cb1 fc7d a4bf
00000270: b1c4 0513 9e10 943f b934 49dc b703 a03f
00000280: e31a c08f 52e4 a73f 73da 2787 c981 bfbf
00000290: 79a9 d5a7 859f 97bf 5014 741c 5242 a4bf
000002a0: 357e 8d8c 77a3 adbf e94b 9a15 a7c9 ac3f
000002b0: 7ddd 3574 18fb b73f 5880 3f1f 5ae1 aebf
000002c0: 4a68 c49e f60d 5cbf eb74 3978 1023 b13f
000002d0: 0ef6 1273 735b a1bf 75e7 bc15 f217 7d3f
000002e0: 804a 6501 c2f0 903f 67e4 ca10 0a0c 913f
000002f0: 96de dbad e621 67bf 706f eaac b93f b23f
00000300: 9af9 ac6a 1bfd a2bf 2211 8575 dba7 813f
00000310: d0f2 6b5f 96e6 b03f 0d8f 744a 05d5 aabf
00000320: 00b0 26f0 f578 a73f ecf1 f9ad ce29 a2bf
00000330: 5c2f 212d 1361 a6bf 3d4c e8bc 2ecb a0bf
00000340: d2c7 78ac 37a0 8d3f b39a 9e34 a745 913f
00000350: c5b8 0d5c 5229 ab3f bbca 594a 0052 9c3f
00000360: c1b1 dea3 a4c0 b03f db7d 59b4 7735 bfbf
00000370: 58ff 2ec6 d0fa a43f 81e2 55b1 7321 b63f
00000380: 479a c092 3ff3 b7bf 8da5 6849 9e08 b2bf
00000390: f31e c4a2 aab3 a6bf d4ca 02c3 5a12 8fbf
000003a0: 3ac3 3911 f86d ba3f e252 5cf4 deb5 70bf
000003b0: af3a dc97 e99f 91bf 2514 8b59 b8cc b43f
000003c0: c237 5cb3 e42e 963f 95c9 8adb 6ff4 a23f
000003d0: 2d2e 7d82 359d 8d3f 372e 2dca ff64 72bf
000003e0: fe29 cdbf ecae 94bf 060d 943c 023c b33f
000003f0: 1510 cbfa c388 983f b2fb d9b3 8548 903f
