weights/model_35_norm_doorsuite4_lfnew_nso_nego_wnewl_small_0_1_bn.pth (torch, 647170 bytes, 14 tensors)

fc1.weight f8 [256, 53]
00000000: 3d3b 5561 4e02 b7bf 8a87 8493 65d7 d53f
00000010: 90ce facb 5d93 a3bf 6b4c f068 b4bd c9bf
00000020: aae3 07ee 9d1b 5a3f 9f90 b34d 0494 c73f
00000030: 0d74 2c60 573c c8bf fd55 0852 930e 943f
00000040: f012 ab7a b6bc 983f bb27 24b6 c35e cf3f
00000050: 0000 0000 b4b2 a7bf 0000 0060 bc0d b3bf
00000060: 4b3b 5511 2a8b b9bf d62f d204 fb44 9bbf
00000070: 0000 00c0 00b1 babf 0000 0060 5342 8f3f
00000080: 4c3b 5575 4993 b1bf 03ae c4db 72ed a3bf
00000090: 0000 0040 d521 a0bf 0000 0080 5c40 b2bf
000000a0: d212 abfa 940a 963f 00e1 b502 c24f c33f
000000b0: 0000 0080 0587 a5bf 0000 00c0 11ab c0bf
000000c0: ac76 aa7a e836 a5bf 665c c2d6 4fb1 9bbf
000000d0: 0000 00a0 7c63 8dbf 0000 00e0 affe 81bf
000000e0: f2a6 9daa c8c0 4dbf e96f 4c91 9228 b0bf
000000f0: 0000 00a0 8ddb b63f 0000 0020 9e61 703f
00000100: 433b 55d1 add6 bbbf 3705 d5aa 2ffd b33f
00000110: 0000 0080 920e 6abf 0000 0040 d699 a9bf
00000120: f8b4 5315 1434 7ebf 80ab 56c3 29c1 9c3f
00000130: 0000 0000 a375 b2bf 0000 0060 3932 a9bf
00000140: 4b3b 55c1 fe1f b9bf f457 3484 3622 bf3f
00000150: 0000 00a0 c334 453f 0000 0000 acb4 a9bf
00000160: 443b 55a1 2d54 bfbf aef6 da20 8050 c83f
00000170: 0000 0020 2a82 c13f 0000 0060 7dc7 be3f
00000180: 463b 55b1 6f83 bbbf 6f34 8c95 05ed c83f
00000190: 0000 0000 941f c13f 0000 0040 2bdf a7bf
000001a0: 819a 3599 9e61 c53f a38d d7d8 231f 883f
000001b0: 2229 2dc0 5ee9 c43f 2f89 5fbb aeca 9f3f
000001c0: 7004 35c0 321a a33f c940 b7bd d96c b23f
000001d0: 4f0e d8b0 9103 d0bf 88f7 ced3 923c a53f
000001e0: 0ded 1bbf 78da a4bf 36f2 9aeb 682a bb3f
000001f0: d049 f34f 7bef 9cbf 0000 0080 1b1e b9bf
00000200: 0000 00c0 e035 a53f c80d 6594 9382 b2bf
00000210: 16e0 3c98 de3d b6bf 0000 00e0 917c a13f
00000220: 0000 0000 f1e4 afbf c51b caa8 3a9e a7bf
00000230: 3975 466e 22a4 c7bf 0000 0060 10a5 b93f
00000240: 0000 00e0 180f 9b3f cf0d 65d4 1904 b6bf
00000250: 1c5b b136 b10f 7f3f 0000 0000 7973 a33f
00000260: 0000 0060 05eb c0bf 4df2 9a2b c985 bf3f
00000270: 1131 9769 5d0c a9bf 0000 0020 c205 b9bf
00000280: 0000 0000 4f71 97bf 2379 cd05 882b c23f
00000290: 1497 73b6 9dc1 c9bf 0000 00e0 9139 b0bf
000002a0: 0000 00a0 8b08 b73f 2cf2 9aab 3a27 b93f
000002b0: 4d37 ec70 851d b0bf 0000 00a0 aac6 abbf
000002c0: 0000 0000 0578 bfbf 3be4 3577 92ff a03f
000002d0: e4ac bcdc 86ae cbbf 0000 00a0 68e4 c03f
000002e0: 0000 00a0 d768 b03f cc0d 65b4 43be babf
000002f0: cdaf b252 6d18 953f 0000 00c0 b17a bdbf
00000300: 0000 0080 44f5 b63f 3df2 9aab 3950 bd3f
00000310: dde4 fae9 d239 b5bf 0000 0000 c0a3 b73f
00000320: 0000 0040 8d05 a33f e322 aff9 c53f 7b3f
00000330: eec8 bd53 1ecd babf 0000 0020 220f b13f
00000340: 0000 00e0 ace3 b4bf d475 cd73 b715 d2bf
00000350: 37f0 21f5 03dd ca3f 4d02 978c 2a2f c7bf
00000360: c595 0430 adfd 9d3f 3426 0b9a e7fa b63f
00000370: 12fc 520e b58e 693f 608d 078b 244d 9a3f
00000380: 2c5c d587 c997 90bf 2dce 6275 7a18 b83f
00000390: 81f0 219d 3241 c03f 74b4 9df2 d945 82bf
000003a0: 0000 00c0 1b77 a9bf 0000 00a0 c26e 92bf
000003b0: 1cfa e0ad 914a 82bf 7a26 ca2e 8086 823f
000003c0: 0000 0040 a9f5 8bbf 0000 00c0 7770 c03f
000003d0: c8e0 436a 2180 b33f dc7d 10be 7473 a9bf
000003e0: 0000 00c0 a774 90bf 0000 0080 41b6 b9bf
000003f0: e1e0 43b6 113e bd3f f1e8 e143 3c9e b7bf
00000400: 0000 0000 d80c c13f 0000 00e0 ce6a ac3f
00000410: 5dfa e0ad d25b 88bf bd9b a6e7 f3b5 a2bf
00000420: 0000 00c0 49dc b8bf 0000 0060 7c41 aabf
00000430: 7fc1 87d4 411a a73f c856 4ca7 b022 b43f
00000440: 0000 0080 9e57 bb3f 0000 0020 4473 adbf
00000450: d3e0 4372 ccbf b73f 338e ff80 1778 ab3f
00000460: 0000 0020 b999 b5bf 0000 0040 9e96 a23f
00000470: 7bf0 2121 8e6b c03f 3e61 6f9b 34a0 a0bf
00000480: 0000 0000 f8ba b33f 0000 0000 e833 babf
00000490: 76f0 214d 4a37 c23f 0dd3 7c68 a510 b4bf
000004a0: 0000 0060 579d 843f 0000 0060 2472 b4bf
000004b0: e0e0 4357 2cae b93f 0eef 9be3 7cb4 8bbf
000004c0: 0000 0000 69bf bbbf 0000 0080 2d62 bb3f
000004d0: 76f0 2175 da9f cb3f e1a7 4eb7 4343 b83f
000004e0: 0000 0020 4d79 91bf 0000 0020 4061 bdbf
000004f0: a91f a420 9929 d1bf c00f 8fad 01af 73bf
00000500: 460b 5ae6 b795 b1bf fb6a 0ea5 b07b b8bf
00000510: 0e11 ab0b ac78 bbbf 1742 f5ce 964f 903f
00000520: 363f 0fba 096a c73f 00c7 f5bb 1662 b2bf
00000530: dc56 22ab 8013 bdbf 281e 4e4a 198a af3f
00000540: 2391 4117 5be0 b13f 0000 00a0 fc03 9d3f
00000550: 0000 00e0 a981 a93f 0e0f 2705 c640 b33f
00000560: eb9f 3415 e00d 993f 0000 0000 851a 8b3f
00000570: 0000 0080 87a7 babf af3c 9c14 e507 993f
00000580: fe2c 1c64 06eb bf3f 0000 0060 a3c3 bbbf
00000590: 0000 00a0 8e1d 97bf 5e78 6cfd e35c c4bf
000005a0: d14c 5a79 9a88 c63f 0000 0080 4984 c03f
000005b0: 0000 00e0 dd7f babf 5d78 6c4d 3ef9 c4bf
000005c0: 60d8 4eeb 12f5 95bf 0000 00a0 2f46 aa3f
000005d0: 0000 0000 9120 b5bf 823c 9c14 3d96 9e3f
000005e0: 75ec 5b59 a44b b33f 0000 0040 ff72 95bf
000005f0: 0000 00c0 3354 953f 1b0f 2705 dec0 b63f
00000600: 127e 68c2 17e2 c33f 0000 0040 ca24 aa3f
00000610: 0000 00e0 fe07 c0bf a03c 9c14 5aea 9f3f
00000620: 80bf 80de 4f99 acbf 0000 0020 91a8 b4bf
00000630: 0000 00a0 626f b9bf b0e1 b19d f67b a0bf
00000640: 48ca 14e0 3d75 b8bf 0000 0020 e10b 9fbf
00000650: 0000 0060 b06a abbf d2f0 d85a d200 b0bf
00000660: 8666 36ea d7ee b53f 0000 0080 5908 c1bf
00000670: 0000 0020 4da0 b03f 2e1e 4e4a 132b ab3f
00000680: 0c1a 8dd1 0121 86bf 0000 0060 7f85 be3f
00000690: 0000 0080 1b77 b0bf 8797 08ec 2183 d2bf
000006a0: adc9 94a6 f476 bc3f 49eb 85f0 6b07 b9bf
000006b0: d6df 37a5 7f0a b73f 9f9e 4b62 cfc5 aa3f
000006c0: 0d1a e0b6 5d27 cbbf 7339 8d5f 3121 b0bf
000006d0: cb17 ce9e 4ba7 cebf ace1 568d 5f26 d5bf
000006e0: 9a93 29f8 80a3 ab3f b675 bccc 6500 6dbf
000006f0: 0000 00c0 0e43 bfbf 0000 0060 f577 b43f
00000700: c46c d652 5c5b abbf c636 e27b 8fa7 b0bf
00000710: 0000 00e0 bdce b23f 0000 0080 3362 a73f
00000720: f4c9 94e6 a61d b63f 1d99 8de8 90cd c23f
00000730: 0000 0060 d22d 97bf 0000 00c0 1503 61bf
00000740: f6c9 943e 526c b43f a62b 8b7d 3042 bebf
00000750: 0000 0080 bcc0 b13f 0000 0040 9893 b1bf
00000760: fac9 94d6 2d7a bb3f 3261 91bd bed5 c0bf
00000770: 0000 00e0 d4d1 953f 0000 00a0 474b 9cbf
00000780: 8926 531a 558a 9a3f 1351 b084 65d6 a43f
00000790: 0000 00c0 4b3a aa3f 0000 0000 da47 973f
000007a0: 1c36 6bc9 19cd b2bf 7a01 d700 ba66 c3bf
000007b0: 0000 0000 a5c3 923f 0000 0080 b6a5 95bf
000007c0: 996c d692 defe a2bf 5d30 e690 828c b1bf
000007d0: 0000 0080 ce12 b13f 0000 00e0 9003 973f
000007e0: 2b36 99d2 9acc 653f c278 ea12 b094 c1bf
000007f0: 0000 00c0 b6e9 ba3f 0000 0060 5378 b1bf
-0.08987893940250742 0.34127177625679705 -0.0382336913584399 -0.20110182880361846 0.0015934984477310268 0.18420461458220402 -0.18934147068003462 0.019586851007337803
0.02415738223750713 0.2450794829713326 -0.046285271644592285 -0.07442834228277206 -0.09977972911040671 -0.026630327386143758 -0.10426335036754608 0.015263224951922894
-0.06865367044995913 -0.038920964553053515 -0.031508125364780426 -0.07129457592964172 0.021524741935325782 0.15087151653620623 -0.04204575717449188 -0.13022062182426453
-0.04143454072366856 -0.027043578608381934 -0.014349912293255329 -0.008786558173596859 -0.0009079913918245959 -0.06311908767059972 0.08928761631250381 0.0039993454702198505
-0.10874449120204326 0.07808206482606726 -0.003180776722729206 -0.050001807510852814 -0.007373884630607501 0.02808060889007491 -0.07210749387741089 -0.049211304634809494
-0.09814445705454238 0.12161579826019403 0.0006471591186709702 -0.050206542015075684 -0.12237820805351612 0.18995668033851615 0.13678480684757233 0.12023147195577621
-0.10747430877129913 0.19473333170063564 0.13377618789672852 -0.04662451893091202 0.16704161148955524 0.011778144888871028 0.16337189086545673 0.031046610056258913
0.03730925174978317 0.0719734275983256 -0.2502178408614996 0.04147776446869417 -0.04072930653452476 0.10611587287980559 -0.028257300143033792 -0.09811565279960632
0.041426680982112885 -0.07230493901175017 -0.08688155380957627 0.034153517335653305 -0.062293559312820435 -0.04612906752031835 -0.1846964872792485 0.1001749262213707
0.026424778625369072 -0.08600007472437386 0.007583324662013859 0.03799036145210266 -0.13217227160930634 0.12313515963155304 -0.04892246164271986 -0.09774411469697952
-0.02289317548274994 0.1419534710248139 -0.20122119339719602 -0.06337844580411911 0.08997414261102676 0.09825483979779709 -0.06295045859243693 -0.0542500801384449
-0.12292510271072388 0.03319986062246768 -0.21626363542723148 0.13197048008441925 0.0640997663140297 -0.10446570543449879 0.02060099427460198 -0.11515341699123383
0.08967998623847961 0.11450539054471505 -0.08291357242969206 0.09234237670898438 0.03715173155069351 0.006652615872504627 -0.10469235939470753 0.06663716584444046
-0.08159904927015305 -0.28257547673078176 0.20986985654224252 -0.1811268984293001 0.0292880116040999 0.0897660018046274 0.0031198059319588268 0.025684901223838152
-0.01620402232705602 0.09412351003521087 0.12698967621316018 -0.008922293392709536 -0.04973684996366501 -0.018000641837716103 -0.00893129169355427 0.00904560225287131
-0.013652155175805092 0.1284322440624237 0.07617386669506054 -0.0497089845669014 -0.016070004552602768 -0.10043725371360779 0.1142283506377484 -0.09225823075567853
0.13320446014404297 0.055502381175756454 -0.011893888408050996 -0.03654443934220051 -0.09711132943630219 -0.05128086730837822 0.04512220115055054 0.07865432819775287
0.1068057119846344 -0.05752003565430641 0.09277036466289994 0.05365060281453928 -0.08437687903642654 0.03630537539720535 0.12828232400704906 -0.032472270940788736
0.0770716667175293 -0.10235452651977539 0.1423123242019561 -0.07837899971930203 0.010065729729831219 -0.0798666700720787 0.10031392221924618 -0.013527847000197404
-0.10838943719863892 0.10696682333946228 0.2158158370911029 0.09477637505793225 -0.0170642901211977 -0.11476517468690872 -0.26816394984825337 -0.004805571131274833
-0.06869077085324901 -0.09563735990233717 -0.10731005940312263 0.01592860830470685 0.18292352280558938 -0.07180921639317361 -0.11357883623199022 0.06160048515362987
0.06982964818741215 0.02833552099764347 0.04981737956404686 0.07520711541934252 0.024466992658886893 0.013234175741672516 -0.10411879420280457 0.024444178946450176
0.12467994636624621 -0.10845395177602768 -0.022573688998818398 -0.15908479570583983 0.17604380536486144 0.12903708219528198 -0.10351359099149704 -0.16385630398230236
-0.021442695247707255 0.051316726952791214 -0.08252817392349243 0.029869989760353828 0.07537295514696203 -0.02094649150967598 0.02082901820540428 0.08888042093081731
0.1553373049982701 0.05106193572282791 -0.12524400651454926 0.031167418964341054 -0.05585717764949916 -0.08069712668657303 -0.09935585409402847 -0.03219576525674783
-0.09553896637661652 -0.03031875379383564 -0.05354834720492363 -0.06251253812746718 0.08567571132734927 -0.1330673098564148 0.0649460032582283 0.053063013859226835
-0.010805143554205386 0.11922451108694077 -0.06431743502616882 -0.2892536931052451 0.11119011942790875 -0.09776949522158164 0.09000394614838511 0.05229042124647986
-0.21213885716879624 -0.0630064829140105 -0.23948045019295558 -0.33046711733507084 0.05398180989576602 -0.0035402286793117755 -0.12211696803569794 0.07995542138814926
-0.05343140135956895 -0.06505677008154995 0.07346712797880173 0.045671090483665466 0.08638995294021595 0.1468983779443044 -0.02263573370873928 -0.002076666336506605
0.07977785137044421 -0.11819747033147951 0.06934717297554016 -0.06865836679935455 0.10733305443572042 -0.13152298218006703 0.021308256313204765 -0.027630919590592384
0.025918321353663152 0.04069821591125069 0.05122601240873337 0.022735029458999634 -0.07344208877039943 -0.15157246628769966 0.01832444965839386 -0.021139957010746002
-0.037100749420653396 -0.06855026280953909 0.06669321656227112 0.022474540397524834 0.0026610397224320534 -0.13735009120586567 0.1051286906003952 -0.06824227422475815

fc1.bias f8 [256]
00000000: ccd9 c0b9 e985 b93f 77b8 a11d c4c5 9cbf
00000010: 2f3b ea4f 11a6 c6bf 69be 7129 f3f3 8d3f
00000020: c7bc 579f 5715 a9bf fc3d ff2b 55d9 8abf
00000030: 0db7 a02d 2ff6 aa3f b16d 30cd e080 ad3f
00000040: 7d13 6898 4521 c6bf 58a4 43a1 0f97 b0bf
00000050: b25d 8643 f2f7 bcbf 1bd3 6fcb d57b c8bf
00000060: 34f6 3dad 35a8 c0bf 686d afdd 7b97 c5bf
00000070: 3ffd e427 5a06 c0bf fa69 9909 8fd1 8f3f
00000080: 8b5b 4151 3756 593f a4cc f407 9f17 853f
00000090: e646 8716 49bf a8bf d33a f42c 9d07 8dbf
000000a0: 279c ebc4 d710 c2bf 0099 8487 960a bdbf
000000b0: 0600 53c6 928d c2bf 8df7 7b32 a1a5 abbf
000000c0: c11e 116b b641 b3bf 8c6f 0d02 150c ac3f
000000d0: 4e59 4b39 ad80 c9bf 76fb 05ea 4098 8d3f
000000e0: ca19 26cd b96c ae3f ffc0 3079 b20e 95bf
000000f0: 80f4 5ead 4259 ccbf 5096 2fc3 61c3 a6bf
00000100: b3b0 88bd 6b43 b33f 7070 2f09 ad03 95bf
00000110: 8a07 ab7e d394 9dbf 067b 1366 1cd6 c1bf
00000120: ebcf f58b 21d4 8abf 47ac f8ea cb48 a03f
00000130: 10c5 6a16 9c75 a43f 94b1 8c3e 2c6f bb3f
00000140: 6df9 172c bda4 a6bf c9a3 d168 697b bdbf
00000150: 5e2c 82af 5c09 97bf eeb3 2c7c 303e c2bf
00000160: 0811 7ea8 dce5 babf 3a1f cea2 b565 a6bf
00000170: 2207 af34 48cf b3bf f8fe ee37 7b34 b53f
00000180: 35bf 8563 3cf1 93bf 5da6 c40a 986d b9bf
00000190: 1ade 879d ff36 b83f 8602 4071 64b4 b03f
000001a0: ac09 69eb 97e7 ad3f 7f77 6715 29f4 b6bf
000001b0: 08fa 72d7 240d b23f 655b e929 f5f9 5f3f
000001c0: 1f8b 4975 2dbe c4bf 4d58 2865 d5db 93bf
000001d0: 75e0 ef93 21b0 b0bf d902 ee9b 1f33 c5bf
000001e0: c7de c30d 653a c2bf 4932 5882 8609 593f
000001f0: 5efa eee9 118c c9bf 5d0c 036b c0d1 bebf
00000200: 56f7 f674 c1c9 b7bf ffce fbb5 1b76 babf
00000210: 8b8e 3b6c 05ed 9e3f 983c bf7e 5c50 96bf
00000220: f0b9 6126 d71f bebf f93c 8eda 852b ad3f
00000230: 87a1 f017 e416 bfbf 4d65 a6f6 d311 b8bf
00000240: 8935 bb91 f202 8e3f 1e51 236f 16ec a3bf
00000250: 54d5 fae5 b055 ccbf 8536 b135 fd3e 7bbf
00000260: 5015 eb37 b707 c8bf 602c 6327 41d7 9e3f
00000270: 9ae3 2e13 12af c6bf 1741 6212 3ddb b43f
00000280: e541 b813 5192 abbf 95c0 2e29 f9c0 c2bf
00000290: 1685 7a06 5bcf ab3f cf2d e289 0152 b4bf
000002a0: a674 7221 f29b bbbf 4ad3 6033 6c84 973f
000002b0: 7751 178a bfce b8bf 2e58 b617 c92a c6bf
000002c0: 4e5d 5bc9 3464 c5bf b77a 1124 fb3d c2bf
000002d0: 9b80 0628 2bd9 a63f 91ab 82d7 2bab b2bf
000002e0: 2d4b a78c 826c b23f 89db 9015 befa abbf
000002f0: ab33 6fe8 7866 bdbf 962f 18cf c32a 8ebf
00000300: 4683 b99b 4055 b23f dceb d754 6c99 a1bf
00000310: 2609 3731 a0e5 9dbf b185 ff47 4543 a6bf
00000320: 2c61 b8c8 7f16 bebf 8f99 eef9 bc3a c0bf
00000330: f53a 0b54 4499 a8bf 62d5 9ebe 4493 bc3f
00000340: 1a4b 4364 762d 773f 92ae b5d1 1163 b63f
00000350: d14c 81d8 37f4 b33f 02e2 5928 a241 88bf
00000360: ee71 908e af4e bc3f fe08 906a 1af2 b0bf
00000370: debb af16 3ba8 9ebf 8322 40e0 20dc bcbf
00000380: 19d5 c51f 07ec 88bf ed99 14fb 1fcf cfbf
00000390: 8c98 3fce f0fb a83f 9844 f1cd aa45 b0bf
000003a0: bbc3 64cd 26b7 aa3f 92bc 8e73 8ec7 b33f
000003b0: 538c 3aa9 c160 b63f 65d6 4d8e 13a1 b03f
000003c0: b6b7 1db4 f59d c1bf f3c9 dfd1 2078 b1bf
000003d0: f1cf 8d9d 40d3 bfbf 9bcc e0f7 a519 a8bf
000003e0: d7d5 3fc6 db00 ba3f 3a93 3e5d 4fec c1bf
000003f0: e4e3 a800 4b95 903f 19b1 6d49 f5c7 bcbf
00000400: 9fed a415 7c0d 8abf 5b83 be42 a5f6 c4bf
00000410: 4753 a2fe 05f0 bcbf f7ad b126 60e5 a53f
00000420: e8de 84dd e608 b73f 99ef a931 ddf1 b2bf
00000430: d696 a0e5 89a9 aebf 6fd3 54e7 db3b 993f
00000440: 5016 16d5 7255 c1bf a33d bb81 a8d7 a1bf
00000450: ea75 992d 0c3d b83f 0908 ef3a fb72 bebf
00000460: 4f67 28f6 23b3 b8bf 3450 1ea0 b716 923f
00000470: b46c 2f76 f2c5 b33f 17f0 7fdf c994 bc3f
00000480: 0709 f35f ecd6 bebf b909 9f67 29e1 b93f
00000490: 51af 054d d8e4 bc3f 0319 f466 514e b9bf
000004a0: 7262 732f 2297 c1bf d183 7848 3c02 bebf
000004b0: 3bec 1a8c 2660 8dbf 35f8 dbd4 9523 b03f
000004c0: 722c 2c5d ca6f c33f 7ba7 6cca 6da2 b6bf
000004d0: b266 5454 106f 93bf 5b73 6d04 10e4 c2bf
000004e0: 46b1 3baf fbeb 91bf 8e1d d81c 5699 b33f
000004f0: 45b6 a1da 8326 a53f 83e4 d945 5be5 b03f
00000500: fe44 a3b2 b3c2 b23f a0eb d431 db23 aabf
00000510: b8ab 588d 1856 c0bf 02f8 9a12 dea2 a0bf
00000520: ecb8 de17 cb90 62bf 99c2 16ac 5ec5 babf
00000530: 0412 eb73 e925 c7bf fd88 5e62 9078 af3f
00000540: ead8 1224 fd5f b53f 5bb5 4a90 5048 b4bf
00000550: 7f37 12b8 e6c0 be3f d28b 7c9b fd11 b03f
00000560: ac27 e2e0 04a8 b2bf 74d7 df34 2577 bc3f
00000570: ab53 f572 09fa bdbf cb1f d96d f023 b4bf
00000580: a7ba 4e3c 3015 b0bf 360c 3b21 af71 c33f
00000590: f463 651a 2a18 c73f dad8 bee1 1f90 a7bf
000005a0: a366 c8d4 2ed3 62bf 8915 845e d6c2 bbbf
000005b0: a7b9 3e1d c293 bebf 009d b80a 0800 a0bf
000005c0: 9785 a920 cb3b b43f ab94 cc57 f7d5 9bbf
000005d0: 99ae 1b8e 8503 a63f 7f97 b768 28ea 7abf
000005e0: 4413 cc3b aac8 be3f 2ac3 2edb eba4 c13f
000005f0: a043 fcda 3887 afbf cc9c 9acb 2a1a 8d3f
00000600: ef68 ca8e 61db a93f 7886 bc96 0572 c2bf
00000610: ebf9 76b7 fa24 c4bf a261 3e03 54e8 6b3f
00000620: 3189 838f c5bd be3f 3f9d 056c 1fb3 c1bf
00000630: 7542 f5ad c05f 93bf 4fa7 5792 0316 a53f
00000640: 8edf 7314 c1b8 ca3f b868 d694 0378 be3f
00000650: 5d37 4b0e 6a46 c1bf ec33 ce94 a4f6 a83f
00000660: e510 d56f 637e c8bf 82d0 b9da 64d8 c7bf
00000670: 30e5 817a 62c7 cabf 9a62 6e99 330b c5bf
00000680: c8bd 50b5 c162 83bf 0028 a370 f403 b7bf
00000690: d88b 25b3 ebd7 bb3f 1d1c 44db b54f c23f
000006a0: f0a9 d38f e594 a5bf 5ee0 8d21 2989 d1bf
000006b0: 350d f3c5 a028 b33f c7ed c695 e6b7 a93f
000006c0: 1e61 8430 2f18 8b3f 309c b930 f17b c3bf
000006d0: 1ec4 2947 bbb2 b93f ad58 4885 5507 bbbf
000006e0: a1cb 9230 2a9f a7bf 1e7a 764a 5188 c3bf
000006f0: a796 1495 73b5 723f e037 2598 99f5 c2bf
00000700: 3a05 c363 39b6 c2bf 5324 b77a 8845 ccbf
00000710: b874 22d5 f87e aa3f 83c7 c2f7 ade8 cfbf
00000720: a6a4 5c99 5065 b9bf 08ca 886f 9c76 88bf
00000730: 5a6f 89f0 1c7e bebf 7da1 5356 f7e6 b03f
00000740: 848d 7814 c60c b3bf ae00 f409 cb91 6a3f
00000750: 7aaf 825c b5ba a0bf 03cc 7a6c d487 c5bf
00000760: 830d 7c6b a315 88bf d2e1 6764 ed53 babf
00000770: 2289 8e66 efb9 cfbf c011 5700 6c02 77bf
00000780: 78e2 7853 50fd 8e3f e1c2 2547 3f74 b73f
00000790: c74b 8c00 7b97 b03f 9581 db46 f55f 8dbf
000007a0: 5f08 2ece 42fc b63f b46b 2172 5ddf b8bf
000007b0: 718f 7d62 78ed c0bf 654c 7316 2518 c8bf
000007c0: 2c87 b43d 5416 b3bf 4e27 0a43 1c53 c1bf
000007d0: 5981 da72 0ee3 99bf e4b9 7779 a227 ba3f
000007e0: 5cb4 e394 7fe2 a0bf 1225 cdd6 418c c43f
000007f0: 032f 48a4 6571 60bf dad6 d2fb 32ff c9bf
0.099699600076611 -0.028098167713715285 -0.1769429817399781 0.01462545366504671 -0.048990953637138505 -0.013109841733153431 0.052659487075613944 0.05762388710737854
-0.17289037648893305 -0.06480500876536277 -0.11315836094433143 -0.19127914842069846 -0.13013335188945663 -0.16868542026973476 -0.12519385288212878 0.015536420326658796
0.0015464344223994088 0.010298960142426879 -0.048334392547656965 -0.014174678739917656 -0.14113900294543777 -0.11344281014007507 -0.1449454754238106 -0.05399802914870042
-0.07522144426286116 0.05477967882208565 -0.19923939988684441 0.014450556890322135 0.05942326192148391 -0.020563877722623577 -0.22147401299836034 -0.04445939548149325
0.07524751069348916 -0.020521835027338786 -0.02888803921337727 -0.13934664711174366 -0.013099920352693991 0.03180539363196338 0.03995979093213908 0.10716511275376767
-0.04422560847523269 -0.11516436394744213 -0.022496650898159103 -0.14252286971296207 -0.10506991494736806 -0.04374473202102398 -0.07738162313674171 0.08283205142560834
-0.01947492940365621 -0.0993285204209768 0.09458921047177463 0.0652525688638069 0.058407542692765574 -0.0896630933052318 0.07051306018818349 0.0019516843964504035
-0.16205375887792514 -0.01939328603665329 -0.06518754827254887 -0.16562266458279032 -0.14240706607937723 0.001528149944877504 -0.19958709642920075 -0.12038805592151065
-0.09292229753097322 -0.103364688806149 0.030201039057728123 -0.0217909290657273 -0.11767334639601024 0.056972678116943905 -0.12144303879234118 -0.09402203342178446
0.01465405947910871 -0.0389105806986285 -0.22136508206828387 -0.006651867962387596 -0.18773546438584754 0.030118005780235158 -0.1772177308719421 0.08147031496833211
-0.05385068288535758 -0.14651407729025281 0.054316372433513546 -0.0793763124112765 -0.1078482944162312 0.022966089855077677 -0.09690472718586372 -0.17318071039034194
-0.1671205504596664 -0.14251651059290335 0.04462561477271373 -0.07292436610684506 0.0719682305710136 -0.05464738858466151 -0.11484485315959485 -0.014730005033037046
0.07161334802505079 -0.034373650891175805 -0.029196265224308203 -0.04348198417552441 -0.11753080988308245 -0.12679254726135666 -0.048044333705197596 0.11162213949031277
0.0056585907625102076 0.08744918222299194 0.0779452231957294 -0.011843935829561229 0.11057564955303409 -0.06619420148493657 -0.02993862462966123 -0.11273389315477726
-0.012168937356117614 -0.24850845107830768 0.048797154595193154 -0.06356303718463818 0.05217858559843288 0.07726373978833781 0.08741388684806965 0.0649578306600574
-0.1376330499146527 -0.06823926090127212 -0.12431720587284169 -0.04707068110328657 0.10157559957573113 -0.14002410939169768 0.01619450751806885 -0.11242611925780856
-0.012721032534151187 -0.16377702483171216 -0.11303746668484137 0.042765621875187 0.08997958095721581 -0.07400305235381523 -0.05988722732608458 0.024642406458230178
-0.1354201832256643 -0.03484846671710364 0.09468151200550037 -0.11894197644053874 -0.09648346671783979 0.017664784572460415 0.07723918328649654 0.11164533335244219
-0.12046696989549242 0.10109194545569879 0.11286689644265137 -0.09885128749383303 -0.1374247295086835 -0.11722161073022554 -0.014343548918409712 0.06304298826941664
0.15184907483521531 -0.08841596786501597 -0.018978362223697594 -0.14758491722286746 -0.017501766748794688 0.07655847744182706 0.041309471548498546 0.06599970298147366
0.07328341590188711 -0.05105481131837242 -0.12762743856123193 -0.032492580195580004 -0.002266308466423719 -0.10457412434949233 -0.1808444801337289 0.06146670532986496
0.08349592333511038 -0.07922843477964163 0.12013093942570484 0.06277451559121452 -0.07287626734083003 0.11119301358107042 -0.1170965104732448 -0.07867338830794705
-0.06282330963470405 0.151906863428026 0.18042494095678274 -0.04602145796472863 -0.002297965495256475 -0.10844173247831725 -0.11944211210241083 -0.03125023966668472
0.07903737590233671 -0.02718340371497578 0.04299561843603534 -0.006570966575486169 0.12024940452472516 0.1378454990604266 -0.06157853768502908 0.014210066164493183
0.05050186985063642 -0.14410467014481632 -0.1573785205673198 0.0034066811439965186 0.1200831866622465 -0.13827889227398235 -0.018919954888874508 0.04118357812315187
0.20876325129188128 0.11901876815537349 -0.134961373309518 0.0487567359587969 -0.1913570686393832 -0.1862913196561103 -0.20920973760420614 -0.1644043444801085
-0.00946570715504337 -0.08990409612593453 0.10876343845079306 0.14305756765699665 -0.042151616866096364 -0.2739966228177816 0.074838684394355 0.050231176169713225
0.013229721706509209 -0.15221991423752135 0.10038347709065973 -0.10558065895051767 -0.04613620608269931 -0.15259758125189732 0.004567576879059543 -0.14812011651014156
-0.1461860406034619 -0.22087198249781412 0.05174996949902194 -0.2492883167047318 -0.09920219177424147 -0.011944982675321306 -0.11911183235627956 0.06602426393113166
-0.07441366195467053 0.003243347702323338 -0.032674472372803146 -0.1682076959310451 -0.011760021894139388 -0.10284312917054386 -0.24786179073004982 -0.005617544059934365
0.015131595179910237 0.0916175411891902 0.06481140864734335 -0.01434318182458653 0.08978669675528426 -0.09715827976599095 -0.13224701699357014 -0.1882368430729883
-0.07455946451639467 -0.13534882806225784 -0.025280214080909278 0.10216727700728928 -0.0329780453920214 0.1605303095659925 -0.0020071969213456566 -0.20310056015085004

fc21.weight f8 [128, 256]
00000000: dfa8 a2f2 2550 9b3f 43a8 ad85 77e1 273f
00000010: 1d68 9650 f008 adbf a96d 1516 3978 abbf
00000020: 1b27 a4ce f716 b2bf ef9f 7665 8251 9b3f
00000030: 6a82 6ae6 3bd2 97bf 13c0 442d cbbe aebf
00000040: 0218 9320 d51f 783f 37b8 b517 8c87 b0bf
00000050: 63ab 5220 10ab a6bf ec84 5d5e 16e2 71bf
00000060: 228b 5ded 94e9 a83f 7e28 9f33 c308 adbf
00000070: 1b94 c4ca f08f 2e3f 26db a7c6 e876 abbf
00000080: f92c af96 8197 a63f 06f5 1b7a 6806 70bf
00000090: 4990 bafb 7b02 b0bf 7248 0d64 b263 a9bf
000000a0: dec5 da25 45bb 94bf 0cd2 4123 8243 aebf
000000b0: 0c4d 6bac bed5 a8bf c20d b6c0 aa0e 903f
000000c0: d323 e20a 1ee6 a63f bbec 492c 076c a8bf
000000d0: fb21 8e43 37bf a7bf 213e b352 9bdb a8bf
000000e0: d41d 4a88 491a 773f c864 7119 0471 98bf
000000f0: a006 68a5 6b77 993f 5831 eba5 8f48 a93f
00000100: 988c ec34 d5bf a2bf 9398 15f8 9c07 a2bf
00000110: 7166 8304 ec27 8dbf a189 be51 42b5 683f
00000120: 85b9 2c15 2464 73bf 5733 9c40 b9c0 953f
00000130: 2a81 22dd 022f a2bf 8c65 e3c2 74e6 9fbf
00000140: 5f72 7c35 e795 a53f 10ea 66ec b474 7abf
00000150: 6c1f ced5 443c 883f 5bd4 2b30 b7ef a13f
00000160: 81b6 366f 159a a23f ab79 f124 b588 83bf
00000170: 8fa9 ffe2 63bb 9fbf 1e62 0743 2889 9a3f
00000180: b041 42ca af81 b0bf 4dee e5cc d45d aebf
00000190: 4216 4755 cece a93f 5a39 8cfa ea11 953f
000001a0: 6475 38f7 7400 a0bf 37b9 0eae 3b18 b0bf
000001b0: b042 2471 db22 91bf eb05 8b40 3f6e a23f
000001c0: 5cd1 b181 4edb a73f d1dc cc36 fa9a 923f
000001d0: 96ad 934f c187 40bf a095 8be2 eacd abbf
000001e0: 9d6f 4d34 4e52 6dbf 564f 27e8 2dcc b2bf
000001f0: 25fb 23c0 81b4 a5bf caf1 6fa1 4640 90bf
00000200: 5d1c c956 f5fe b0bf c476 ceca f02c 8c3f
00000210: d6c8 e202 232d 9e3f 69b4 5f1d 6d5b a2bf
00000220: 1cb4 de95 c64f a43f 5071 21ef d716 533f
00000230: 60a0 1960 9345 73bf ce5e db89 33dc 6ebf
00000240: 1d6f 7bef 00d6 843f 0edd d396 6185 a9bf
00000250: 0bb9 2816 22fc 8bbf 7810 0b0a 1e49 a13f
00000260: f761 c8eb 3b5d b1bf f28c a06a 3e20 a2bf
00000270: 6bd0 98b7 531a a03f c81f 5a4b 3fc3 68bf
00000280: 660f 1d82 8ac5 933f ed6c a364 ac51 8d3f
00000290: f98a 6938 8da0 933f 3368 a6ed 883a acbf
000002a0: c441 e43f 4472 7fbf d3ce e158 2a70 a3bf
000002b0: 0c9d 0b63 92f6 623f 34b1 7c29 249d 92bf
000002c0: 67bb 34e7 0b1a 99bf 6c84 f8ea 5cef afbf
000002d0: a5f8 43da bf39 913f 64d5 79e3 f26b a83f
000002e0: 9f8b e5d9 4d39 aa3f e068 08f3 88a7 b0bf
000002f0: 97ce 7058 2999 a23f 92a5 7b88 b487 62bf
00000300: 75a5 c068 671c 8a3f dd8f 787f 9184 b0bf
00000310: 0e5a abcf 3f7b 76bf 1f88 36bb 3819 9d3f
00000320: 0823 5c03 29fe 9abf 3606 c557 6101 6cbf
00000330: eace c23c fe35 a2bf 38f2 a632 d959 79bf
00000340: 0c24 977d 1277 afbf 599b dbb4 a547 64bf
00000350: 5674 0552 6032 943f 43a2 bd9a 209a a63f
00000360: ae50 3974 e881 aa3f ea6b 61df d8ba 963f
00000370: 12f0 b75a 5636 97bf eb72 d229 f12a 64bf
00000380: 94aa f2f9 3c41 99bf 9234 f8a6 f95c a43f
00000390: 8aa3 d935 4030 afbf 776d b74d 6e9d 913f
000003a0: cf4e bb8e dc64 a13f 389b b356 5a07 4b3f
000003b0: 7ff9 a3fd 27bd 903f a642 9aa2 c974 a1bf
000003c0: acfb 9f86 e045 b1bf f7ef 8374 6156 a33f
000003d0: beb5 9ca0 a331 96bf 6ad1 d265 10f5 913f
000003e0: c2f2 74a3 806c a9bf 3669 bfd2 4105 8cbf
000003f0: ebd3 1f11 24f8 a1bf f2e6 3331 2a46 7fbf
00000400: 2a2f 0a93 a2bd 82bf bfa1 00b8 0d59 953f
00000410: e364 7f41 99e3 a53f 1bd9 aaa6 9ef6 b1bf
00000420: 9ac6 149b 78bc 9e3f ba40 7934 d0a2 b1bf
00000430: 6eb8 08a0 d2e2 93bf c927 157d e521 b0bf
00000440: 9efc a347 aded adbf bbf6 f04b 5024 adbf
00000450: 7807 426d 16cb 9b3f 8e5c f575 6a7a a9bf
00000460: 6c08 69cd e3fd 8f3f f9ca 4bc5 f80a a2bf
00000470: e2a9 893c 73f1 abbf 3b55 83b4 2936 8dbf
00000480: f1b8 0d3d e20d 843f d0f9 310b 2c3d ac3f
00000490: f3d2 2fe3 6e98 a93f 13ac 1b07 6786 9dbf
000004a0: 2d05 20b3 7e07 b0bf 6985 0668 3f7e a53f
000004b0: c4d6 7e69 d923 31bf b9d5 68ec 8415 94bf
000004c0: ca8a 2a1e 11da 80bf 2805 6ebe 86b4 a43f
000004d0: bcf4 27c4 916f a4bf 5509 abce 85c5 aa3f
000004e0: bd27 2f80 354c b1bf 76fc ca67 e15c 883f
000004f0: df3f b09e ac3a b1bf 8d10 5c25 8a2b 853f
00000500: 7655 26db 9f5f abbf ba6d 4d65 7b1e adbf
00000510: b3b0 84cf d908 a7bf e6a1 432d 39df 97bf
00000520: 9e25 d8b4 cca7 6cbf 36a2 e31e 66f4 95bf
00000530: 439c 54d4 d8c1 743f e28d 7d08 9176 b0bf
00000540: 2cd9 48c0 b447 a9bf 498e d7e1 58ca aebf
00000550: 7bc3 e7e9 296a 943f cba3 eb57 adfb abbf
00000560: 213c 5810 98e4 a9bf b1db afdd 8604 92bf
00000570: 0a9a 243b 1aeb 81bf 4ab9 d53a 31c1 9fbf
00000580: b45b 3510 b006 a8bf 8326 b668 366e a2bf
00000590: e97f 1091 579c 973f 098d f446 ae49 853f
000005a0: 6789 62c6 9fd9 ad3f cb33 28dc 5f76 b1bf
000005b0: 53c8 53fc f1a2 763f a163 280b b56f b0bf
000005c0: 0252 0c83 199b 8c3f f309 44ee 713d a3bf
000005d0: 1660 f35c 4fe5 a4bf 71bf 5d2d 052f 9ebf
000005e0: 3c72 c544 55d4 83bf eb73 94a0 d4e1 97bf
000005f0: a26b d9a0 5d8d 943f 8d6b 7408 baf0 9abf
00000600: 5358 a10c 3b55 8c3f 8bd5 2c08 d1b1 9f3f
00000610: f4be b4c7 f394 6cbf d2a7 0e55 1d82 963f
00000620: e1c7 1986 ed7f 83bf d8e0 5944 281c 95bf
00000630: 43e6 899c bc2f a1bf 6ead 36c9 6c6b 9e3f
00000640: 79a9 cbd0 3a1d a53f 1521 b873 dc70 a9bf
00000650: d53d 7789 b922 863f 2428 8e32 0fe3 a83f
00000660: 8231 e7be 8771 a4bf 815e 8abc 715b 6ebf
00000670: 22c8 92f5 688a a6bf ec41 57bf 189c 633f
00000680: 00e4 8e9a aff2 a9bf 50da 5b81 effa a3bf
00000690: 90aa 4abb 0e06 a33f 3520 e2b9 0f0a b0bf
000006a0: 306d d643 cf3a a93f e8d5 98f2 2863 8b3f
000006b0: aa18 bdf4 6ace 743f 9c49 a52b 92b3 6f3f
000006c0: 265f 9d8d 1ed2 a43f 1455 3b6b e4df 97bf
000006d0: 6187 c39c ccf8 623f efdd c26d b489 a2bf
000006e0: 6b22 4dec b7c6 a8bf 1562 ebfe 5a98 a73f
000006f0: 1358 5e1f 9e24 ac3f 1e0c 5b9d 0d96 963f
00000700: 9855 2a9e 07b3 9a3f 5ef6 818f abf5 adbf
00000710: 9076 3e3c 6062 a53f 093e 5685 7564 9bbf
00000720: e7ae e8d4 262d aa3f 75ab 3ddb af2a 963f
00000730: e207 32e3 669b acbf fffd bf3b bbe7 813f
00000740: 99c7 1aca 012a 97bf 15ec 4a77 c901 953f
00000750: 0ce3 f829 b184 833f 3b98 2bc1 74c0 a5bf
00000760: 90e8 2dad 167a acbf 8923 28d3 cc5f 9dbf
00000770: a344 8214 7a35 69bf 9bfb ac92 8c1c 84bf
00000780: b514 9459 058d a5bf 4811 dff3 6756 863f
00000790: 0cc0 f031 62bc a3bf 4336 a12d 32aa 9ebf
000007a0: c997 7517 1a0c ac3f 16e1 bd1d fc09 71bf
000007b0: ce15 7128 ac20 91bf 667b e6cf c722 b2bf
000007c0: c4b2 a8ef 56a5 98bf a584 ba96 f91f abbf
000007d0: ca6e c55a ccf4 a53f 33e2 e907 00df 88bf
000007e0: f6b3 d117 4dec 9d3f 3151 4d64 8d29 a6bf
000007f0: 212f b473 f608 b1bf ba23 7a15 795b abbf
0.026672928747452637 0.0001821955109691538 -0.05670882209524584 -0.05365160364700767 -0.07066296381904318 0.02667812103541672 -0.023262916506271138 -0.0600493901023357
0.005889732864664767 -0.06456828669408386 -0.04427385706488598 -0.004366004350090363 0.048657087302464555 -0.05670747761867377 0.0002331715999243374 -0.05364158082004726
0.04412465061576571 -0.003912361253012314 -0.06253790755960255 -0.04958875151955135 -0.020245628772220907 -0.05910879783997211 -0.048505743548640096 0.015680950176386828
0.04472440607884889 -0.04769918838152295 -0.04638073634766112 -0.04855046638988037 0.0056403038366918574 -0.02386862187663466 0.024869615526773914 0.04938172245383282
-0.036619818411304184 -0.035214333804831764 -0.014236301315054352 0.0030161185549825863 -0.0047341737252238935 0.021242994850627053 -0.0355149168910905 -0.03115255774978247
0.0421592953482317 -0.006458956463058843 0.01183370377999867 0.0350320097258325 0.03633181555356391 -0.009538092794340999 -0.030988274316692318 0.02591383847343042
-0.06447886169394823 -0.059309625637038545 0.05040592947947832 0.020576163809033467 -0.03125348584965584 -0.06286976813746468 -0.01673453214704307 0.035997368458548916
0.046595052081928684 0.018169316858998755 -0.0005044645214672845 -0.05430540099568337 -0.0035792853763449554 -0.07342802923022637 -0.04239278288331708 -0.015870193103170206
-0.06639035576618953 0.013757592381632995 0.02946905808557506 -0.03585377677504981 0.039671140474958316 0.00116511428179596 -0.004705024418946463 -0.0037671095477483712
0.01017380457727018 -0.049845742856570494 -0.013664499570122965 0.033760966039637574 -0.06782888895430249 -0.035402250782022096 0.031450859224066395 -0.0030227886407523143
0.019308246795176308 0.014315935918082856 0.019167143409855012 -0.055134085664761655 -0.00767733249655617 -0.03796512923227415 0.002314840232759635 -0.018177571327371925
-0.02451342199963893 -0.0623730694608263 0.016821859070653606 0.047698583858543114 0.0512184456336151 -0.06505638059062191 0.03632477955434615 -0.0022619749105287712
0.012749488720219951 -0.06452283250888464 -0.005488633406193445 0.02841652529389915 -0.026360169248650173 -0.0034186269023457573 -0.035568184773550574 -0.006189201764240475
-0.06145532401166784 -0.002475570340596017 0.01972342014902425 0.04414464844632395 0.05177236956356644 0.022197140344683598 -0.02266821793271851 -0.0024618826124210755
-0.024662926440820757 0.039771844512963686 -0.06091499955511555 0.017202113622130945 0.03397263758020374 0.0008248511416269816 0.016346573692311402 -0.034094143961856546
-0.06747248923055221 0.037768407319134605 -0.02167373340414768 0.017536407675565448 -0.04965593333552 -0.013681902164468168 -0.03509628972089004 -0.007635273755335114
-0.009150762665079155 0.020847524982089412 0.04275206493884711 -0.07016936844852177 0.03001583525219207 -0.06889058381171057 -0.0194199476410905 -0.06301721862578726
-0.05845395564573973 -0.0569176762296428 0.027141905230116475 -0.04976208391115576 0.015620975214123166 -0.03523995788954965 -0.054576493396627304 -0.014263463803596657
0.009792106140335185 0.055154205671886225 0.04999109767223855 -0.028833017166942265 -0.06261436341448663 0.04197881836740686 -0.00026153619682687764 -0.019613339356700375
-0.008228429539774668 0.040439806695767466 -0.039913706965287926 0.052288228490868484 -0.06756910686013291 0.011895905475624451 -0.06730154871206605 0.010336951508641579
-0.05346393156211608 -0.05687318431474915 -0.04498940141852028 -0.023312466991144996 -0.003497981850846001 -0.021440120349241996 0.005067679395586447 -0.06430918175970349
-0.04937519881461791 -0.06013753659115346 0.01993623247284713 -0.0546545190644064 -0.050572158808897656 -0.017595393448541056 -0.008749203615093588 -0.03101040765380362
-0.04692602346283739 -0.035997104913872334 0.023057335118323783 0.01039444116628953 0.05830096527758393 -0.06821250080993406 0.005526490456064864 -0.06420451662451267
0.013967704116603311 -0.03757816346662315 -0.040811996552008775 -0.02947624291795087 -0.009682336961014497 -0.023322412777918727 0.020070517485105584 -0.026308924451864214
0.013834439585633051 0.030951753734560532 -0.0034889947252379986 0.021980722729189335 -0.009521346716812875 -0.020615224048442155 -0.033567327603077256 0.02970666864500287
0.04123863028310643 -0.04968918716991958 0.010808419711707021 0.048607325478841085 -0.03992866711959932 -0.003705713407111067 -0.04402473447534329 0.002393768629851181
-0.05067967187591904 -0.039023861447209485 0.03715559040332039 -0.06265352523962593 0.049276806860883204 0.013372726348374678 0.005079667851367523 0.003869805802574079
0.04066558340735886 -0.0233150186966969 0.0023159023604514693 -0.036206854246696334 -0.048391101451277084 0.04608425485429649 0.054966870621839935 0.0220567824642438
0.026073569325111373 -0.05851493956377561 0.04176617370033597 -0.026750408423650316 0.051125730028017284 0.021647212749864992 -0.05587312243825672 0.008742773781704292
-0.022621181450353942 0.020514629274412572 0.009530433743849119 -0.04248394830737864 -0.05561896194463245 -0.02868576086806088 -0.0030772575738145665 -0.009820078111827437
-0.04209152906882122 0.010906993989813998 -0.03854662761330027 -0.02994612124921604 0.05477983032578455 -0.0041599128998017956 -0.01672619816624437 -0.07084320855800072
-0.024068220498679307 -0.05297832455586019 0.04288328750655308 -0.012144088975433487 0.029221729830556563 -0.04328576897992987 -0.06654300999451525 -0.05343225848361706

fc21.bias f8 [128]
00000000: d4e7 f367 f29b 94bf e12d 2e49 2ae7 b23f
00000010: 3090 102a 6179 b33f b8e3 6d45 6b73 c23f
00000020: 1d2a e935 49d8 c43f b674 076c 0895 9bbf
00000030: 2f0f b5c5 3cd2 9fbf 6f9e 9089 dc6d 9cbf
00000040: 3d22 6486 1c93 b43f 21a7 a4de 3722 b23f
00000050: a09d 3365 4f69 adbf 6419 6e4a b156 b13f
00000060: 290b 47fc 337f 95bf 3e3f e499 6a7b 8ebf
00000070: c877 5340 f971 ae3f 3984 7a34 773c 84bf
00000080: db47 3092 d697 a23f 885e d7fd 64be 97bf
00000090: e5c8 6d4f dfb6 92bf 04cf 500a 63be a53f
000000a0: 71d3 220d 31c5 a3bf 8d0e 71ae 75f6 7e3f
000000b0: 3143 529d d985 b23f 9262 709a d67c 923f
000000c0: 1bee 3ac7 fb7f 6dbf b692 bb25 e302 bbbf
000000d0: 487f d841 7b62 8c3f 5f0a 8a29 ba65 b7bf
000000e0: 6573 e632 70cc 94bf 6be7 e757 62d4 933f
000000f0: 5925 3fde 07ed 9d3f 8f5c f903 62ef b1bf
00000100: 40a6 8443 f174 bd3f 769b 6a7e 9c59 b2bf
00000110: a997 fa15 0b31 a93f db53 e681 512d b4bf
00000120: ec33 466b bddd 7e3f 921f 1ca9 0db0 94bf
00000130: a1a0 4953 116f 6abf f39e 3f11 0c44 b23f
00000140: e46d 9483 0f84 883f a7dd 73d4 ed4e a13f
00000150: abb6 1196 6921 a33f 1704 5621 f8cf 9d3f
00000160: 1c50 e7eb 8ec8 b63f e1f7 9c7d 53f9 c1bf
00000170: 6e79 0a79 f4b2 8bbf cd61 3e16 7e00 8bbf
00000180: 3013 6cc1 13b3 b33f ada6 ab1b 0e50 b33f
00000190: 00e3 be3a ef29 733f 58bc 632c 20c6 afbf
000001a0: abc7 8d82 35e5 853f ab7b 5f73 9dc2 ac3f
000001b0: d576 c00d f21e bbbf 0c4d b8a7 bca1 a6bf
000001c0: 4441 9729 5d6d 833f f0ca e8c6 2345 92bf
000001d0: 5b8a ffe5 6319 b03f 1915 cbfa a222 acbf
000001e0: 175f 0248 b482 3c3f d896 6d68 4f62 be3f
000001f0: d4f2 b31a 9d72 a0bf bf42 6b2e 6063 b13f
00000200: c644 3d7c 181e 9fbf a08d 36ea 46b9 95bf
00000210: c6ff 843e 1c54 a6bf 1014 955c 5467 863f
00000220: 512b ab9b 624b bb3f 21f2 4198 bfb5 b23f
00000230: e23d 479e 1682 a0bf a7bf cdb5 9be7 62bf
00000240: 967b 32f3 79cb 7cbf 1419 581d 0865 a43f
00000250: f5d6 35b7 9bb3 93bf 3df6 9893 8eb6 70bf
00000260: b0db 1e57 b8a0 92bf de46 7057 eac6 a43f
00000270: e677 14b5 a2ad 91bf 200e 1778 24fe b3bf
00000280: 9792 8cf5 46c1 a6bf 400b 26e3 c73b 9d3f
00000290: 86ca 1284 2755 863f def2 c7d1 ed46 8d3f
000002a0: a05f 96a7 3a7d 8b3f bed7 5169 e2f0 a83f
000002b0: dca9 b4e4 9fc8 abbf c0d4 8ceb 4a9f 733f
000002c0: 2fdc 9641 bb33 b3bf 9b4d 5210 e205 ad3f
000002d0: cdc2 9546 dc75 b73f fc8b d5a3 b021 913f
000002e0: f084 52c9 7f3e c03f cde0 43a1 47e0 b1bf
000002f0: fb7c 8f87 4ea4 613f 5802 d18e 61f2 b33f
00000300: f127 0a29 391d 71bf 530e 6ffe db36 98bf
00000310: a1b1 a77b deff aabf 0958 d000 29a5 593f
00000320: ce49 d304 0276 613f d316 c084 2a6c 9c3f
00000330: af14 cecb c512 71bf 81f4 82af 138a 98bf
00000340: b0fb 40d9 f15c c33f 1115 1aec 62cc af3f
00000350: 6310 3459 bcbb b03f ef55 af57 d7b4 a53f
00000360: 2c07 7360 e213 903f bf98 d03b ad8b 733f
00000370: e226 9755 7373 c03f dd69 0dcc 6c3d a13f
00000380: 5c32 b59a d7f6 9a3f 36cf 0955 66e3 a43f
00000390: 2070 cbc9 6020 893f 218a e27a 9caf a2bf
000003a0: 4dc1 599a c34b babf cfd1 f878 3d6f 81bf
000003b0: 800e 3afa 427c b33f c74a e2ea fd10 b83f
000003c0: 996a c138 c64b c13f f300 03a5 ccf3 ae3f
000003d0: cdc3 bf45 0d38 adbf a93b 1e36 9dce b53f
000003e0: 0ebd e59b 798d 91bf 23f2 3af7 5493 a6bf
000003f0: 0396 61df 0f8a c63f 4ca0 3a7a 54c2 953f
-0.020126140208027568 0.0738398007071548 0.07607085492105692 0.14414730920887364 0.1628505242573092 -0.02693570288999033 -0.031075429503530202 -0.027762838264747843
0.08036974221261857 0.07083462892174143 -0.057444077590669496 0.0677290732111025 -0.020993053696439255 -0.014883835622213955 0.05946329984884319 -0.00988095406438748
0.03631468328980222 -0.023187234872095647 -0.01827572748465735 0.04246816159175462 -0.038613827565689436 0.0075592610292606445 0.07235488978245709 0.018054345298966164
-0.0036010663551147132 -0.10551280661781956 0.013859713503790907 -0.09139598383084423 -0.020311120135022693 0.019364868750904856 0.029224512996539918 -0.07005894276641043
0.11506564997093793 -0.07167985998476731 0.04920229571625551 -0.07881650372867403 0.007535686414837688 -0.020202840277334717 -0.003226789320525184 0.07135081692797111
0.011970635607716447 0.03380530565658129 0.03736429173373542 0.029113652262371028 0.08899777659763725 -0.14042132981734226 -0.013524923271060554 -0.013184533170531499
0.07695125076504605 0.07544029403256998 0.004678663721215726 -0.06205845395913262 0.010691087767302173 0.056172294934860055 -0.10594094119775417 -0.04420270488130926
0.009485938865424821 -0.017841872230017708 0.06288742413702535 -0.05495175658647095 0.00043503667257870207 0.11868759440912002 -0.03212443304980686 0.06792260297084861
-0.030388243277518233 -0.021214588208420815 -0.043610460883882804 0.01093927295245048 0.10661903667930274 0.0730857607576998 -0.032242495366172866 -0.002307705041339109
-0.007029987685341596 0.039833310682342 -0.019239838654775594 -0.004080349864634733 -0.0181912234472425 0.04058010403981681 -0.01726392965530712 -0.07809665614973271
-0.04444333789277726 0.02854835819153867 0.010904606550274264 0.014295442547330447 0.013422449340211362 0.04871280227318618 -0.054265019100359274 0.004790585190496077
-0.07500810958195879 0.056685509197588156 0.09164215777651492 0.016730079650539395 0.1269073231715434 -0.06982848822724748 0.0021535428790994105 0.07791719185571233
-0.004178260118928621 -0.023646771816642275 -0.05273337611638174 0.0015652561589880618 0.0021314658575672723 0.0277563708805449 -0.004168293610637238 -0.023964221560835334
0.15127394779298475 0.0621062195978458 0.0653646199971845 0.04239533372280479 0.015700852524566475 0.004771877950622449 0.12852327040882644 0.03367176047204954
0.02633225328217957 0.04079742229524046 0.012268787534985448 -0.03649605751094876 -0.1027185680229696 -0.008512954954405764 0.0761148320107683 0.09400927528831025
0.13512494822756052 0.06045379175475487 -0.0570682666438028 0.08518393107645629 -0.017141246929381508 -0.044092803172564275 0.1760883179405682 0.02124912258173621
