weights/model_base_single_input_obs_nolim_1_bn.pth (torch, 378026 bytes, 10 tensors)

fc1.weight f8 [256, 52]
00000000: d55f 3701 7f1d b7bf 3098 6c73 d350 b3bf
00000010: b53a 1ee3 133d ab3f d765 3172 86d7 b23f
00000020: cfa6 53f6 dccf bb3f c021 bda1 ccff 83bf
00000030: df3e 45d8 f9be a4bf affa b9cd 0ff7 be3f
00000040: e8af 9b00 647a c33f 833a 4d00 0bf9 9f3f
00000050: 0000 0020 8783 bb3f 0000 0060 ec96 c1bf
00000060: d55f 3721 9691 bc3f 57c6 ea8e e5b8 b2bf
00000070: 0000 0040 ae3d bc3f 0000 0020 fd53 8a3f
00000080: a4bf 6e02 1865 ae3f 9c7d b83f eb2d b43f
00000090: 0000 0080 2eab a1bf 0000 0040 8984 a0bf
000000a0: d55f 37c1 704a b83f fcd0 a5fe 478c c33f
000000b0: 0000 00a0 7c7a 9bbf 0000 0040 bfe9 b7bf
000000c0: d15f 37a1 394e b03f 9347 544b 475c c13f
000000d0: 0000 0000 1d23 b8bf 0000 0020 cc39 b13f
000000e0: 2ba0 c89e 19e2 b6bf b6ee 0d2c c903 bb3f
000000f0: 0000 0080 6877 bdbf 0000 0080 5c91 b0bf
00000100: e9af 9ba0 8027 c23f 0946 1e98 0ae6 b0bf
00000110: 0000 00a0 9cc8 a93f 0000 00a0 7423 bd3f
00000120: e8af 9b50 37c5 c13f 2e04 d79b 63c4 513f
00000130: 0000 00a0 a28f 953f 0000 00a0 25e9 b0bf
00000140: e8af 9bb0 6833 c13f 5433 01ef bd49 afbf
00000150: 0000 0020 d086 aabf 0000 00c0 5259 c1bf
00000160: e8af 9bb0 6ae6 c13f a9d5 9b0c cfa3 bf3f
00000170: 0000 0040 adba b2bf 0000 0000 9804 bfbf
00000180: 2ba0 c8be 2b1a babf 7959 d145 1e56 b7bf
00000190: 0000 0000 399c bebf 0000 0000 36f3 b9bf
000001a0: af24 66e9 4f71 b03f 4913 0cf5 1ba8 82bf
000001b0: 9db5 1fe3 f599 c3bf dd1c d5d9 ef8e a83f
000001c0: 3808 49a3 da7d bcbf 3800 22be 0bb7 9abf
000001d0: 653b 2333 2450 b9bf 36a0 39dd ba0c bdbf
000001e0: af92 98a5 7b82 95bf ec42 168d 0cbc b4bf
000001f0: 0000 0060 da46 bebf 0000 0000 d1ac b63f
00000200: a9b6 33ad c52c a03f 866f 012c e4d4 c23f
00000210: 0000 0020 3cae 85bf 0000 00e0 5413 b5bf
00000220: a9ed 4c5b 060b c13f 3b29 14df 0e0a 983f
00000230: 0000 0000 bf7f a53f 0000 0040 ca36 bdbf
00000240: b024 66a9 a412 b1bf f1a6 b61f b72d b93f
00000250: 0000 00a0 758f b13f 0000 0080 636f 783f
00000260: aab6 33ad 7c54 a33f 9749 bb8d f5be b0bf
00000270: 0000 00c0 4f46 6dbf 0000 0060 30c2 ba3f
00000280: 516d 671a 31f8 983f 6b3f d34a c90c 93bf
00000290: 0000 00e0 b73c b0bf 0000 0080 a435 ad3f
000002a0: bb4a 6216 771d 72bf 562c a0f9 904c 86bf
000002b0: 0000 0020 a96e b1bf 0000 00a0 29e2 a23f
000002c0: b024 66c9 2ef1 b4bf 2c50 5624 0fca b93f
000002d0: 0000 0040 0c9d a23f 0000 00e0 5015 b1bf
000002e0: 50db 9976 aac4 bc3f 95c3 a7e9 91cf a33f
000002f0: 0000 0060 3f91 a93f 0000 0000 0624 b03f
00000300: 5649 ccd2 fde1 aabf bf46 936c b4de b83f
00000310: 0000 0080 60c6 ab3f 0000 00a0 0e58 b2bf
00000320: a1da cec8 6a9e 8b3f bd7e 9d68 99af 81bf
00000330: 0000 0020 f7f3 b83f 0000 0060 afd6 b23f
00000340: 523e f5ec 9c4d be3f 0e53 d6ed fc53 a7bf
00000350: abc2 5d8c 4959 8cbf bd81 9245 5634 c13f
00000360: 4bf6 d410 0132 a0bf cf31 3c53 d8f0 b53f
00000370: 463e fe9e 320a bdbf 0057 ca82 d94b b7bf
00000380: a67c ea59 762b a6bf 1f15 f3e8 02c3 953f
00000390: 0000 00e0 5863 bebf 0000 00c0 c558 bebf
000003a0: a77c eab9 faab adbf 1e10 3ab3 8b4e b33f
000003b0: 0000 0040 745d b83f 0000 0000 02f1 9abf
000003c0: b0c1 0a73 93aa bd3f 8a82 9ee6 c09d a9bf
000003d0: 0000 00c0 9167 bc3f 0000 0000 62f7 ba3f
000003e0: aec1 0a73 ac81 b13f 4381 1d58 032f a8bf
000003f0: 0000 0060 8729 b1bf 0000 0000 7b61 9f3f
00000400: 533e f5ac cba8 b3bf 861c b16b e839 b1bf
00000410: 0000 0040 74c8 adbf 0000 0000 c5f0 a33f
00000420: 5a83 1566 e65e ac3f e46a 94ed 8170 b4bf
00000430: 0000 00c0 fa43 c13f 0000 0020 1208 a03f
00000440: 533e f59c 00b0 b3bf f15a ae5c 0746 9ebf
00000450: 0000 0040 447f 7e3f 0000 00a0 53f0 c03f
00000460: 5983 1506 e732 a73f f987 cc9a e813 8e3f
00000470: 0000 0020 6ec1 b1bf 0000 0040 5bcf af3f
00000480: aec1 0ad3 837d b93f 88a9 fd2f 0fd5 c0bf
00000490: 0000 00e0 7489 b33f 0000 0040 c12b a93f
000004a0: aec1 0af3 3187 b43f bfc9 7c85 9022 c33f
000004b0: 0000 00e0 7cf3 6c3f 0000 0060 f285 c13f
000004c0: b506 2b4c e95c 9b3f 6b20 c639 94b6 73bf
000004d0: 0000 0000 d334 9bbf 0000 00e0 8e07 ba3f
000004e0: fe6a 661c 270c b33f 4ee1 1436 3ff7 bf3f
000004f0: c512 fe45 6d44 b33f 9bc3 211c 75dc a7bf
00000500: 0150 ad3e 9d2b c2bf 5fda 0c42 0cfc b5bf
00000510: 0fbd a7cd 9d31 86bf a517 6346 988e a13f
00000520: 0195 99c3 4144 bc3f 40f1 b509 1459 b23f
00000530: 0000 0020 af68 a7bf 0000 0000 81e2 c0bf
00000540: 8635 337e 4106 c1bf 35fb 33d9 f5b3 9a3f
00000550: 0000 0080 f99f 84bf 0000 0060 bcf7 933f
00000560: ff6a 661c 51f5 b4bf dd9f e3a6 29ca bd3f
00000570: 0000 0000 8064 b03f 0000 00c0 e982 aebf
00000580: fd94 9963 2c4e b03f 2083 f155 af6f ab3f
00000590: 0000 00a0 5c96 b13f 0000 00a0 4895 abbf
000005a0: 0bac 99d1 0566 96bf f3b6 3614 6524 bcbf
000005b0: 0000 0080 bc6c 8bbf 0000 0040 bb61 ab3f
000005c0: 34b0 6686 683d 70bf 372e 7b5e 16c4 a3bf
000005d0: 0000 00c0 f8c4 b13f 0000 00c0 2c3d b4bf
000005e0: ff6a 665c 185a bcbf 3cef 524e 89ff 773f
000005f0: 0000 0020 425c bcbf 0000 00c0 ab7b c13f
00000600: 0bac 9911 39a8 93bf 378d f8a6 3f26 abbf
00000610: 0000 0060 15f4 a83f 0000 0080 4c06 be3f
00000620: f929 3387 8630 a13f 9e1d e699 10b8 b53f
00000630: 0000 0040 cf1b a63f 0000 00a0 e121 763f
00000640: ff6a 669c cead b2bf b045 64b9 9646 b53f
00000650: 0000 00c0 469a 8cbf 0000 00e0 1de1 bcbf
00000660: d04f 99b9 99df 773f aad0 c2b1 0b66 a7bf
00000670: 0000 0000 fba4 a53f 0000 0040 b978 92bf
00000680: b4ac 9999 7133 b2bf 85c5 622e c065 bbbf
00000690: 644e 30b4 28de bb3f e9bf 1481 0333 733f
000006a0: f202 2416 e18d aebf a3d4 918d b165 703f
000006b0: 952b de0d 8807 c33f eb92 4f45 31c7 afbf
000006c0: 4c53 66e6 2a44 bfbf 9b5f 6fcd a05f 9ebf
000006d0: 0000 00c0 6dc9 8dbf 0000 00a0 0e9b 893f
000006e0: a929 3353 8d17 c2bf 6a0c c415 e969 acbf
000006f0: 0000 0000 2ab5 b13f 0000 00e0 627a a6bf
00000700: b4ac 99d9 2cc6 b73f 53fd 0431 dcc6 b53f
00000710: 0000 0000 3525 b93f 0000 00c0 56f1 c0bf
00000720: f834 6566 a14b 71bf 7287 a38a 7ad5 bcbf
00000730: 0000 00c0 c9c1 af3f 0000 00a0 cbb0 ab3f
00000740: b4ac 9999 ee69 b03f 367c 6422 c424 913f
00000750: 0000 0040 b2d8 bfbf 0000 0020 fe8b b3bf
00000760: b4ac 99f9 fe4d b73f c230 fc8a c1c4 bbbf
00000770: 0000 0080 f6e6 b23f 0000 00c0 6e44 a93f
00000780: b4ac 9959 5422 b03f fdff 6930 c05f afbf
00000790: 0000 00a0 84bf a33f 0000 00a0 766a a1bf
000007a0: 4c53 66e6 122a babf 4030 20fd cc0c 9dbf
000007b0: 0000 0000 05fc 9a3f 0000 0060 d0a1 7e3f
000007c0: b4ac 99d9 37dc b73f e44f b28b 253f aa3f
000007d0: 0000 00c0 a985 b23f 0000 0080 1ab0 bfbf
000007e0: 4c53 6686 2fcf bdbf f0e5 5111 b8fd b1bf
000007f0: 0000 0040 22c3 bebf 0000 0040 8dca b53f
-0.09029382495589229 -0.07545205657933773 0.053200360750556376 0.07360115325845783 0.10864048971020711 -0.009765242277027464 -0.0405195309164108 0.1209573628675382
0.15217256574339832 0.0312234610494735 0.10747570544481277 -0.13741831481456757 0.11159647284455272 -0.07313379992663137 0.11031617224216461 0.012855508364737034
0.05936503438658683 0.07882566743545855 -0.03450913727283478 -0.03226117044687271 0.09488587109751674 0.15271854337664326 -0.026834437623620033 -0.0934104472398758
0.06369362054772344 0.13562861612495833 -0.09428578615188599 0.06728816777467728 -0.08938751341395405 0.10552651715800718 -0.11510327458381653 -0.06471803784370422
0.14183051912493674 -0.06601015294861425 0.05035867169499397 0.11382225900888443 0.13883105693764652 0.001084420465631074 0.021055737510323524 -0.06605754047632217
0.1343813764900681 -0.061109481263520365 -0.05180979147553444 -0.13553842902183533 0.1398442613930222 0.12359327371435448 -0.07316096127033234 -0.12116384506225586
-0.10196183593564061 -0.09115781025443494 -0.1195712685585022 -0.10136735439300537 0.06422900627343851 -0.009109705367799885 -0.15313600149185627 0.04796552213752545
-0.11129538046319076 -0.02608888957956898 -0.09887911079861807 -0.11347549344066085 -0.021005565626313224 -0.0809944004488547 -0.11826863139867783 0.08857446908950806
0.03159158458025264 0.14712192677222563 -0.010586232878267765 -0.08232622593641281 0.13314895113022132 0.02347586857380544 0.0419902503490448 -0.11411727964878082
-0.06669072280614574 0.09835381054167748 0.0685952678322792 0.005965603515505791 0.03775395979196834 -0.06541380605930268 -0.00357356620952487 0.10452558845281601
0.024384276615689263 -0.018603463355986543 -0.06342648714780807 0.057049885392189026 -0.004422631440450682 -0.010888226144763074 -0.06809479743242264 0.03688173368573189
-0.08180515686958034 0.10073942792070117 0.0363544300198555 -0.06673150509595871 0.11237588305980961 0.03869300820577518 0.04993627592921257 0.06304967403411865
-0.05250542829721165 0.09714820528759115 0.05424787104129791 -0.07165614515542984 0.01348575043981032 -0.008635710244277001 0.09747261554002762 0.07358833402395248
0.11837178025347697 -0.04556265261923019 -0.013842177005899478 0.1344096984585245 -0.03163150148837398 0.08570625335796155 -0.11343685514133836 -0.09100112383961445
-0.04330034110648144 0.021251721828567157 -0.11870341747999191 -0.11854206025600433 -0.05795272368890752 0.07541726232199195 0.09517599642276764 -0.026309996843338013
0.11588403280871407 -0.05003168883491067 0.11095534265041351 0.10533726215362549 0.06838491257327092 -0.04723368120790152 -0.06703992933034897 0.030645295977592468
-0.07679436657530773 -0.06728985432811116 -0.05816996842622757 0.038946300745010376 0.05541152950423252 -0.07984172869002354 0.13488706946372986 0.03131157532334328
-0.07690433341962803 -0.029564013511470703 0.007445589639246464 0.13233418762683868 0.045310229771309 0.014686410163964313 -0.06935776025056839 0.06212887912988663
0.09957145597832692 -0.13150205462745768 0.07631617039442062 0.04916194826364517 0.08018791373866094 0.1494923259538847 0.0035340727772563696 0.13690023124217987
0.02672161605256092 -0.004812792784271473 -0.026568695902824402 0.10167782753705978 0.07440418666230283 0.12486643858290344 0.07526286085892327 -0.0466038319435775
-0.14195600090408791 -0.08587719547799953 -0.010836823309516434 0.034291037170574946 0.11041651749981797 0.07167172658040943 -0.045720551162958145 -0.13191235065460205
-0.13300341283904177 0.02607711923792096 -0.01007075235247612 0.019499724730849266 -0.08186823790894592 0.11636600803797088 0.06403350830078125 -0.059592537581920624
0.06369283134116084 0.05358646320451599 0.06870058923959732 -0.053873319178819656 -0.021873560827241827 -0.10993034118174787 -0.01339099183678627 0.053480006754398346
-0.003964813519285616 -0.0386054029782738 0.06941179931163788 -0.0790584534406662 -0.11074974304066741 0.005858932830218152 -0.11078274995088577 0.13658663630485535
-0.019196407031284262 -0.05302618897646954 0.04873720929026604 0.11728361248970032 0.03357334518803507 0.08483985669419389 0.0431809201836586 0.005403405521064997
-0.07296458547936523 0.08310834909595743 -0.013966133818030357 -0.11281000822782516 0.005828476417793341 -0.045700421761837376 0.04227432608604431 -0.01803864911198616
-0.07109746932990185 -0.1070213425871512 0.10885862731111612 0.00468732231938416 -0.0596762027289567 0.004003232542449417 0.14866734196797596 -0.06206659289435897
-0.122133904695443 -0.02966166738391927 -0.014544351026415825 0.012502779252827168 -0.14134375154965298 -0.055495532900771874 0.06917059421539307 -0.04390248283743858
0.09286766350276104 0.08506561466946509 0.0982239842414856 -0.13236507773399353 -0.004222517460516821 -0.11263242611633276 0.06202536076307297 0.054083216935396194
0.06411639451987378 0.016741814231064654 -0.12440027296543121 -0.07635486871004105 0.09103387445218197 -0.10847100871268636 0.07383671402931213 0.04935022443532944
0.06302382647997967 -0.061277395162505834 0.03857054188847542 -0.03401537612080574 -0.10220449566834339 -0.028369143437928068 0.02635200321674347 0.007478536572307348
0.09320401251322857 0.05126302080421377 0.07235203683376312 -0.12378087639808655 -0.11644265204661258 -0.07027769492005809 -0.12016500532627106 0.08512194454669952

fc1.bias f8 [256]
00000000: ea05 3d65 9269 aabf 3b2c f811 ee06 b43f
00000010: 3522 4b5c 25e9 b93f 3f4f dc5e 41e0 b0bf
00000020: 0e31 25fb a02d a9bf 8eb6 74e0 4578 b63f
00000030: 0544 eace 5d1f 6fbf 7f26 fa71 2c7e b43f
00000040: 3a73 0221 c2aa 863f b7fd 64d1 cc73 b73f
00000050: cf5c 7e9b 7117 bc3f 2201 87c2 612b b13f
00000060: 0129 6de0 2b9e bebf 1f1c 9039 8dbd 95bf
00000070: 4cef 16b0 84f1 b43f 3fd9 e2e1 e6fd b1bf
00000080: ceab b567 ddf6 ae3f c2f9 0650 7edb adbf
00000090: 03ad baa3 c722 be3f d169 7cd2 f72a 993f
000000a0: d6c0 8733 8cad a0bf 1fa7 2a4b 95fb b93f
000000b0: 3408 6161 2186 c13f 6726 7ed0 8556 953f
000000c0: 7df6 eb38 4496 83bf d386 a703 2834 913f
000000d0: d2b3 5aed d171 983f ebf1 baf1 82ce b73f
000000e0: f6b2 e544 7bf9 bf3f ed64 56ed d572 74bf
000000f0: 7014 fcdc f793 bdbf 26bf 271c aee9 5ebf
00000100: c358 adb7 5ec3 bbbf dce5 aee3 e59f b3bf
00000110: 220f 64bc 864c ba3f 71ed d57b 95e1 a93f
00000120: 09a4 441c 287a bebf 090f 6913 5d91 733f
00000130: ed5e df5c 9bd7 b3bf 4a8b 146b 2afc b5bf
00000140: 08dc 5f75 7072 a23f d042 692f 1215 bcbf
00000150: 068a 1442 40bd 983f 247e 202a dceb ad3f
00000160: 6b7a e2e4 07ba c03f 6ff9 f23e 5667 bd3f
00000170: 809d 5a38 fd15 b6bf 1275 5d9b 2aee b23f
00000180: 7125 a24f c4be a9bf 6a40 1b89 da77 873f
00000190: 6716 39c7 e05c c03f 5446 f568 59c6 bcbf
000001a0: 4d9b 410a d8bd a03f 0323 dfe5 a9e6 aabf
000001b0: e2c0 a957 625f bdbf c298 bd38 fc25 aa3f
000001c0: 7d7d 67fe 8213 87bf 8446 fa4c d650 b53f
000001d0: 0d2a 3ba0 e782 95bf a3b4 560a 765d ad3f
000001e0: 7221 d1ea 0fbd a03f 1f36 cd19 3739 bf3f
000001f0: 13d0 3e82 4edb 813f fb9c b815 ff1d b03f
00000200: aa91 4dbe f50d b9bf 0013 e784 95f7 b43f
00000210: 252a 62c1 7e51 af3f cc6d 0ce6 be1f 7f3f
00000220: 84e2 b6bc 2c8c b03f 3802 66fc 2c70 a9bf
00000230: 1c9b a9d2 fcaf a0bf 564e 8f86 953c c4bf
00000240: b8c2 2e39 22f1 c13f 5175 e59f 9569 bcbf
00000250: 40bf a16e 5700 b7bf 7303 c034 a661 b13f
00000260: 7c56 3a27 aef5 c13f 2eda c79f 0186 b9bf
00000270: afb3 b72c 316c 933f caa6 527c a5b5 ba3f
00000280: e82a b43d a583 b3bf 9a56 f5b8 77d2 a33f
00000290: b9ba dff5 708b 57bf 0158 4b32 1c14 c43f
000002a0: d6f0 8903 8e2d b7bf 3fef 83c7 7822 bd3f
000002b0: e7ef e88b e264 98bf 0849 ca46 5c5c 803f
000002c0: 8533 9b38 39a2 a3bf 5f7d 6edb aa7d b53f
000002d0: 144c b2da 0590 afbf baee 2dec 1e32 b7bf
000002e0: 4333 f6f7 08c5 b33f 7623 a4f8 b17f b03f
000002f0: 3262 c10a 330d 993f fce1 7364 7f56 bf3f
00000300: bc22 96c8 467b b23f fe0d faed 41c3 b0bf
00000310: 55b8 e3da 9d66 b83f 7819 6859 d16f a43f
00000320: af2d 5e50 051e bbbf ff9a f90e d0d0 903f
00000330: 119d b242 f0d9 b2bf b764 67e4 f369 a03f
00000340: 26a0 920f 76be a13f 2edf 3992 ac5f c03f
00000350: 6761 2009 135d ba3f 4bef d3c7 93e2 bc3f
00000360: 8a6c c72c 7ff5 b83f 2692 b7d9 744b bd3f
00000370: bad6 a03e f18c a23f fbda eb5f 87a5 873f
00000380: d079 9192 dcb9 b7bf 462b a890 e574 b3bf
00000390: 6089 0ef5 9bac 893f f743 ebef 024c ad3f
000003a0: 8485 f97e 1dd1 9c3f 4063 bb4c 97ab b33f
000003b0: 06d2 02b3 2873 5f3f 1d5d c078 e0b7 b23f
000003c0: b6a6 b27f edf6 aebf 421e debe 1b43 b13f
000003d0: d07a f131 9ed9 963f 7032 7af8 3c99 abbf
000003e0: 45e1 0038 6888 90bf c554 0126 4bb0 ad3f
000003f0: dcaa 5114 abec b5bf 3c82 9820 c5c2 be3f
00000400: 7010 ddd0 c223 a3bf 3322 3b72 342a 91bf
00000410: 47f4 828f 5f44 c13f a73c 4da2 2367 813f
00000420: 570f ebfb a0d7 b4bf 7c4f a7e0 81a7 b3bf
00000430: 59ae 2d43 a1f1 b5bf fba2 09ed eab6 c43f
00000440: 86e0 4a3a 0e7a c33f c260 c086 d013 ba3f
00000450: 5a4c 44d0 3d1b a6bf e333 7675 f0b3 ad3f
00000460: 3505 388a 0a0d 923f a165 523b aac8 ba3f
00000470: c411 2f8c 339e a4bf 94dd e3f3 97b2 ab3f
00000480: bbf8 089f 56ed bcbf d7ef b5a6 f052 b73f
00000490: 841f a9ac 146e b8bf 286a 03f1 8220 bcbf
000004a0: 3611 98a1 9919 9a3f dac8 a09b 7cb0 af3f
000004b0: 2f2a dc3d 0abb 94bf 032a 3385 2e6b c43f
000004c0: ba9b d2c3 68bb bb3f 1029 e466 42c8 aebf
000004d0: 189f ed30 fa66 b6bf 446c f48b b5d5 ab3f
000004e0: dc62 acb5 c285 c03f 57a5 b87c ef6f 89bf
000004f0: ea99 ef71 7a32 b8bf 0adb bfa1 92f0 9ebf
00000500: aa31 6ab4 752a a4bf fd07 6e68 0d2e c03f
00000510: 0b9a e64a e892 7ebf 2b4f d719 fd44 c23f
00000520: dd75 8eb9 467f 5e3f 5a19 7fae d737 ab3f
00000530: 9383 cbcd c773 603f 7d6b 19b2 30ef c33f
00000540: 941a 676d 7341 b23f 429f e3ef 99ff 863f
00000550: c725 e41a 965f b3bf 09f0 da9c 40b5 92bf
00000560: 5f48 9bcd 19d8 b7bf 6c92 dbcd 791e c43f
00000570: 8940 dd1a 2ee1 99bf eac8 0b7e 61a0 bcbf
00000580: 9a10 53e8 3124 c1bf 51bc 4f27 a6c3 b9bf
00000590: 92a0 d67a 0577 bd3f 6dab 3cf9 3823 a0bf
000005a0: bf8b 9a79 e1c9 bdbf 31a2 883e a0a5 b9bf
000005b0: 1608 147a d5f5 a7bf 276e a00c b6cf a83f
000005c0: 93d2 7856 044a 79bf 78e5 4f08 4e70 b0bf
000005d0: 2007 683f a441 bc3f d714 1207 a7e3 bd3f
000005e0: ce1b 56b5 d3aa 77bf 7d46 f788 6c04 b2bf
000005f0: 046d d0a5 8f72 c03f 6e41 e8e6 dbfa acbf
00000600: b6fa 00d7 7733 903f 7aa5 8ae5 57a5 babf
00000610: 43a3 b9f7 c6dc abbf e11f dd9d 9d7f 86bf
00000620: 8dca 4dd4 d5f0 bebf 7b3a 9e58 8dc5 c13f
00000630: fd56 5696 3009 943f 664e e84b ae64 ac3f
00000640: 0c22 7e52 5d8e 9cbf bb0c 5540 9046 9abf
00000650: 56d1 90f9 3ad3 c13f 1289 1774 9ff0 a0bf
00000660: c389 1d7e a702 84bf 1ba4 b871 4be1 c23f
00000670: b3c8 19b2 3d77 913f 69e7 3a37 20d4 a53f
00000680: 6c67 dc27 6764 bbbf bba3 a234 3d6e c0bf
00000690: 2906 8e14 eae2 ac3f 23fa f560 dc5a b93f
000006a0: 2f0f 59a8 63f0 b63f 6f37 8a80 e38d b13f
000006b0: 7c09 49f9 699e b33f 5013 b9eb 8645 aebf
000006c0: 5a10 7359 2f0d af3f 81a3 2dda 8c5f c33f
000006d0: 2f6b 18c7 1c45 b6bf fcd1 6fd5 079d b9bf
000006e0: bf11 011f 1d49 a53f 32eb 8364 3178 9a3f
000006f0: 1382 0f9d 83a4 b7bf d849 9a6e c54c bc3f
00000700: b7c6 dc99 9ab5 c03f 107d d903 45a6 b1bf
00000710: 1bfc 7e15 9dbc ae3f 8fc2 18b2 84a4 89bf
00000720: bbba bbe4 6f17 b63f ee4c 9b48 59cf b53f
00000730: 815a 69dd 3f2a b03f eafa ff32 3d8a c0bf
00000740: 3048 27c5 4d1d b13f ea2b bffb cafd aebf
00000750: ab91 9119 6d94 a9bf 2e1e 9885 a319 b7bf
00000760: 8345 b256 59f0 90bf 1b7e 3012 e7fb b23f
00000770: 0076 dba5 2e4a bbbf 6a68 3fda 4c14 babf
00000780: d82e d03a 0f34 a83f 10e7 04ea f64d 923f
00000790: 1144 d2ad 08f4 bfbf 55d9 f39e 6140 c23f
000007a0: 80b5 1430 23f6 793f 3c56 0391 cf1e a3bf
000007b0: 79ef 6de3 c930 c13f ba94 6807 938b c33f
000007c0: 371a 20d7 35c2 b33f b1ca 4a9e a5b5 913f
000007d0: 0b29 4c19 ce30 aebf c7e6 deb9 2d7c 983f
000007e0: dde8 f152 35bf b0bf 14e9 abd3 486d c03f
000007f0: 13a5 df25 061d aebf 5294 7738 0031 b13f
-0.05158669935054745 0.07823074282366431 0.10121377471217204 -0.06592186513836128 -0.04917624536264685 0.08777271966820363 -0.0037991363709086756 0.08005025656361829
0.011067883140918878 0.09161071884317705 0.10973272367697294 0.06706820487216139 -0.11960100392494512 -0.021230894697534915 0.08181027697622517 -0.07028048529432328
0.060477179441327786 -0.05831522681136249 0.1177181982736109 0.024577972623868242 -0.03257406357795538 0.10149510464784982 0.1369058347209503 0.020837870455159193
-0.009563954341042841 0.01680052301697439 0.02387168894954412 0.0929948654329064 0.12490053588926373 -0.004992328312618738 -0.1155390657914539 -0.001886768368986888
-0.1084498594694621 -0.07665859993621588 0.10273019885431414 0.05054919373193457 -0.11905146303310245 0.00477730138533495 -0.07750864999195146 -0.08587899317039419
0.03602935250085443 -0.10969651849269302 0.024159435303895214 0.058440094129988546 0.1306772105790118 0.11485804592937197 -0.0862730276663708 0.07394663136570426
-0.05028356048667149 0.01145907145419774 0.12783441283879712 -0.11240156948522301 0.03269839406202966 -0.05254107409525057 -0.11473669662678135 0.05107105438837457
-0.011267684353639446 0.08326472644173505 -0.02100717463944517 0.057353676569030364 0.03269242993752898 0.12196678523942993 0.008719075536511444 0.06295770912457847
-0.09786926170415336 0.08190283293431477 0.061168633562449316 0.007598634431612305 0.0646388970116139 -0.04968395787273433 -0.032592678752555865 -0.15809887953092766
0.14017131607172018 -0.11098609117239745 -0.08984896136257436 0.06789625919192392 0.14031006732391293 -0.09970102454085669 0.018967407564492052 0.10433420453287137
-0.07622750050010618 0.03871511585991279 -0.0014370539788576676 0.1568637128427213 -0.09053886019131893 0.11380724783878991 -0.023822345532820945 0.007988663587898973
-0.03834704223627398 0.0839487825128251 -0.06164568228373227 -0.09060853258227555 0.0772252660155575 0.06444847412434548 0.024464414149720955 0.12241359903772059
0.07219355008249811 -0.06547939357738383 0.09531580537779523 0.03991560188665039 -0.10592683040720517 0.016421557344439282 -0.07363797787057914 0.03205835497983272
0.03465622844788667 0.12791974201149386 0.1029827019959889 0.11283229473695859 0.09749598353612235 0.11443262400968787 0.036231554884961395 0.011546189894472194
-0.09267977312399656 -0.0760024526754651 0.012536257186927358 0.05722054651926805 0.028141461253090153 0.07683702109660562 0.0019195458844879511 0.07311823795349821
-0.06047765907108042 0.06743024263243405 0.022314521597190773 -0.0539034894291931 -0.01614535180871825 0.057985638036066635 -0.08564252134389555 0.12015945478243223
-0.037382209774052266 -0.016762561294657096 0.13489908702277573 0.008497503653101935 -0.08141523504587887 -0.0767747090788457 -0.08571823015307113 0.16183220457175893
0.15216234060585893 0.10186484613257377 -0.04317658583945479 0.05801345285281181 0.01762787312145982 0.10462440441405942 -0.04026948057392901 0.054096935769787496
-0.11299649603549515 0.09110931463322856 -0.09542969909045779 -0.10987108596911155 0.025488281715312776 0.06189336204296732 -0.020244751001010804 0.15952092651271252
0.10832838803126679 -0.06012160783764575 -0.0875088090375552 0.05436484654838883 0.12908204909105947 -0.012420531266871633 -0.09452023774756638 -0.030214587328340627
-0.03938644244508123 0.12640540694343363 -0.007464320557494473 0.14273036729593377 0.001861399714676685 0.05316041951259605 0.002008333436933582 0.15573700615172106
0.07131120129552421 0.011229708321891633 -0.07567728191874955 -0.01826954800957029 -0.09314118642513013 0.1571800475277486 -0.025273056401886627 -0.11182221724792255
-0.13391708225220073 -0.10064161739113443 0.11509737252220223 -0.03151872675365195 -0.11636170595970351 -0.10018350149824397 -0.0467974387666034 0.04845971016058242
-0.006174103683907933 -0.06421363547260295 0.11037661121374898 0.11675495073912444 -0.005778147683833402 -0.0703800043477489 0.12849612804789257 -0.05660140222255704
0.015821335313598715 -0.10408543924372352 -0.054418771495710526 -0.010985595111961234 -0.12086235459518431 0.1388413126664608 0.019566306281908464 0.055455633894010245
-0.027886827621417296 -0.025659803320434032 0.13925873933625138 -0.03308580677163965 -0.009770687614666046 0.14750044873042686 0.01705643081226844 0.04263401674457052
-0.10700077746551323 -0.1283642298706392 0.056418719300392724 0.09904267661293224 0.08960554943137987 0.06857129944020611 0.0766359552008335 -0.059124199175619396
0.060647468251347106 0.15135346081958903 -0.08699207173087296 -0.10005234680995295 0.04157343867749174 0.025849124679534437 -0.09235403618323117 0.11054643583546608
0.1305421115189824 -0.0689433226011611 0.06003275763895762 -0.01252082508571675 0.08629512152013323 0.08519514105437384 0.06314467578463658 -0.1292187212966021
0.06685339034382376 -0.060530036192709094 -0.04996052682034543 -0.09023496638848691 -0.016541858593489344 0.07415622896268596 -0.10660068082093943 -0.10187225654900237
0.04727218239722014 0.017875535996814185 -0.12481741183934526 0.14258976231912848 0.006338250591665484 -0.03734444279841084 0.13430141072228333 0.15269697057479964
0.07718216421208345 0.017294490610491212 -0.05896610316092862 0.02391120383229042 -0.0654176070692389 0.12833509765170759 -0.058815185664409374 0.06715394381133535

fc21.weight f8 [64, 256]
00000000: 73fa c4a5 bcdf afbf a3a0 dca4 1d34 a4bf
00000010: 8417 90d4 64f1 88bf 97f2 41c1 2ab6 a73f
00000020: eaa2 4b80 9534 83bf 66c5 20f6 4e38 a93f
00000030: 3a1f f790 e699 ad3f 0cec 5e97 2982 a03f
00000040: c3ea e8da 259c b33f bc69 6827 6d4c 9bbf
00000050: 0a05 61e4 2bcb 92bf a1be c88a 334c ab3f
00000060: ba32 91db fbf5 a1bf 0cf9 a160 5a18 a6bf
00000070: c84f c55d 8284 aa3f efe2 4e2a aa58 aebf
00000080: 63f4 2f6a d74d aa3f 375d 29a6 671e 52bf
00000090: c3bf 081d b061 a8bf 0abb 61ce 66d8 903f
000000a0: 051e 684f 7f1d 923f 84f7 90b9 ea2b b4bf
000000b0: 5a5a e2a1 1ef5 aebf 0a0b 9540 43f1 a83f
000000c0: 4c17 eb15 07b4 67bf a2d6 ab80 ac02 8f3f
000000d0: bb76 5db7 8bb5 a9bf 63cb fe0f 275e 90bf
000000e0: 2d44 1b23 7435 a0bf c2ab 3905 f564 a8bf
000000f0: 4825 c932 281a 9ebf 986c dd71 0a0b b03f
00000100: 7fff 3ed5 99f1 70bf 188c f8a5 ace6 803f
00000110: 9b61 938a 10d0 b2bf 5f5c a8a5 f6b6 99bf
00000120: 5d3a e76f cc9d a43f ad3b 3445 4a1f a4bf
00000130: 01bf 0601 dce2 5ebf 130c 43af c95b a0bf
00000140: f340 db36 e006 a1bf 1d8e 9ed5 88f3 aa3f
00000150: f9d9 eca0 aabf a23f 6a4b f812 d9ad 8abf
00000160: b6bb 3984 b55d a5bf 7c5c 01a5 6eec a0bf
00000170: 0924 45bf c79d 963f 13cb ea8f be9e 7f3f
00000180: c328 0c8a 391e abbf a780 563e 8092 9dbf
00000190: ea7e 1973 18cc 7f3f 1657 e48f 5a96 8dbf
000001a0: c35e 8267 9fd3 9abf d75b 107e 0d59 96bf
000001b0: 065d 6338 b79c 82bf 60ad 8d9a 1603 b13f
000001c0: fc14 6b04 a250 a0bf aa3a ba53 3a88 a3bf
000001d0: 19bf 2af0 2509 b3bf 77da ac38 2514 a5bf
000001e0: bb66 f463 b685 a4bf d9dc 11ee 574f b9bf
000001f0: 7e34 d672 161b 923f ec4b c473 ad31 a73f
00000200: 3731 bcb2 2968 8a3f e0ab aa48 f891 b33f
00000210: f6be efe0 8f2f aa3f 088c 1aaf b502 aebf
00000220: 8762 6f70 cd12 b33f 141b be5a 67ae b0bf
00000230: c106 f87c 8eed 60bf b472 b2f9 551f b13f
00000240: 102f dab2 dccf a33f 6aa9 6cb6 2f94 9c3f
00000250: 096e 87f9 92e1 a3bf f0d5 c079 38dd 813f
00000260: 765c f169 4a30 a43f 9016 4f9c ee55 923f
00000270: 68b3 8298 615d a5bf b6f7 0128 033d 9abf
00000280: 0000 0000 8e7e 89bf f23d 9d8e c9dd bb3f
00000290: 7038 0a86 c7f4 ae3f 9726 1327 60e4 813f
000002a0: 686d d3fa 6f9f a3bf e92f 6ba9 3723 9fbf
000002b0: 1c37 3354 2044 aa3f 8fb9 155b 135e 9a3f
000002c0: e5b7 a2eb a665 71bf 092f 08ff 9d1c ae3f
000002d0: d8dc 0e88 dffb 853f 0000 0000 f8af 75bf
000002e0: ee71 6e70 df63 94bf 6306 187a a472 a93f
000002f0: a1aa e9bc 9fe4 99bf 26d3 cad7 1af1 9bbf
00000300: cbe4 fd32 bc05 a8bf 42a1 80bb 05ec 993f
00000310: 3b13 48fe 06e7 b23f e088 6308 6f38 8bbf
00000320: 8b7b 91fd d618 afbf b5c7 99ef 8e7b 90bf
00000330: e909 18d5 38a8 b03f a93c 296f 4500 87bf
00000340: 623e 30f5 a89c 9bbf 7ed0 1bc0 6d34 a1bf
00000350: e03e 2259 1200 ad3f a327 148d 3297 933f
00000360: 5973 0cdd 6de4 673f c037 3864 babf a53f
00000370: 89cb 7871 07aa a23f 0962 68dc 7f8d 9b3f
00000380: f78e a856 4a38 943f 7374 16e6 c4bc 6fbf
00000390: 47c1 1fe3 ee14 79bf c93b 6b95 1efc a23f
000003a0: e9e5 8cea e16e a7bf 1b18 cb69 7f60 94bf
000003b0: bcc4 24ac a67b 38bf b1a7 78ac 22c7 8ebf
000003c0: 2824 9d3a 2828 a83f 670f 2079 1a39 a43f
000003d0: c2bd c7ef 31cb 9dbf 85f3 c9e1 14e8 8b3f
000003e0: 6d60 a201 8a76 7abf 7f4f d367 7713 a73f
000003f0: 3691 6b22 f0df a13f 013b 1dd7 7024 93bf
00000400: ce8e 1d86 5e51 93bf 8e36 1c3d 2183 843f
00000410: 4e5e 920b 4b5c 993f 5189 8ea5 2b33 ae3f
00000420: e40a 42be 8b3a a03f 335b d91a 6434 a33f
00000430: b70f 858e 3504 a73f 2821 13ef e6ae 973f
00000440: e1c8 00f4 755f b0bf 4323 2a8e dd75 afbf
00000450: 023b 3a2c 72d0 903f 1a1a 8044 37dd 69bf
00000460: 9492 25bf e47b 933f 3ce3 ef8e edf5 95bf
00000470: 7c84 8803 bcb8 7dbf ea59 8da2 9a16 78bf
00000480: a1cf 5c59 4f34 403f 129b abcd db79 aebf
00000490: 4a1e 2cda c347 8a3f 9cbe dc0f be83 92bf
000004a0: 3e43 6445 1ed0 b63f a549 3b3a b589 b7bf
000004b0: 9944 c43b 6e95 ab3f f183 e042 1f40 9f3f
000004c0: cfae 6473 e105 94bf 73d7 f565 d1f4 b23f
000004d0: a087 2a0f 5429 a7bf c3e8 d521 cba7 b23f
000004e0: 4bf9 2fee e7a1 87bf 546c 4866 943f 9cbf
000004f0: 87e5 60d2 fa6a ab3f 6846 6ad3 ea54 a8bf
00000500: 7728 7e5c 94e3 a73f 27f6 4141 2761 a33f
00000510: 61fd 7dc0 037a a8bf d444 bfca 7bc5 9a3f
00000520: 7e14 6156 2010 9abf 891c 7673 4e0f a8bf
00000530: 0d5c 3bd1 10df a83f 5229 2bff 500b 75bf
00000540: d9fe c1c4 6765 ac3f 40ce 44af 746f b4bf
00000550: 2daf 927c 4d19 a9bf 63e1 f24d ee21 85bf
00000560: 7766 a69d 6b34 7a3f 9b68 09b3 b988 6bbf
00000570: 2802 537f 4f36 92bf 40dd 97c5 1eb4 91bf
00000580: 936b 0c9e 2440 883f dc75 dec2 bfce 70bf
00000590: db35 6f43 95ba 9d3f 2266 1631 8636 a33f
000005a0: d23f b477 3406 a33f 1173 b645 4437 623f
000005b0: 5e3a f907 15e7 a13f 00ce 618a 9562 b0bf
000005c0: 061c 1b8e 96c3 93bf 608d 2afd 77ac 9e3f
000005d0: efc2 09b3 8617 b03f a7d0 8cd5 5c7a b33f
000005e0: b02f 34c8 f201 a93f dead 2f36 1356 ac3f
000005f0: ee43 51ea 96cd b33f 5a6b 0172 e804 a8bf
00000600: 67b3 aaf1 1e03 ad3f d076 d9ce f6fe 97bf
00000610: 6f04 22d2 40bc 98bf c585 50b4 e1a0 983f
00000620: 29fb cf04 41ba a43f a42e e45f dffd 9e3f
00000630: d273 b3e6 7a1e a8bf 49e3 51ce 1ff3 a3bf
00000640: 7920 9d50 22dc a13f d703 c8f6 53f9 b13f
00000650: 318f cb90 3843 b9bf 6119 9dc3 ef95 8a3f
00000660: 2717 ea9a 342b a7bf 3873 5362 9b9f a7bf
00000670: 89fa d698 b994 a8bf 8986 32a6 fd19 7fbf
00000680: f8da fcab 51cf b7bf 243d 23cf 964c 4f3f
00000690: d581 b86f 9570 a53f 488b ae12 97eb 9abf
000006a0: 1ec9 38ba 99f2 babf 0d84 21ae f603 6cbf
000006b0: 374d d67b 5cff a6bf cfe9 6c94 0bbe ad3f
000006c0: 7e97 6143 f86c b23f d337 9957 9dcf 94bf
000006d0: 1a2f 4066 4517 a83f 6790 3194 e2aa a5bf
000006e0: 2082 61a5 45f1 823f 0916 ed6f f2a9 84bf
000006f0: b1e2 06eb 5732 a93f f290 4767 000d 8b3f
00000700: 16d1 8a90 0806 9f3f 9750 f1dc 7708 a7bf
00000710: 4c07 04ea ab3b a93f 7b69 4254 5c69 843f
00000720: 15bb 2c69 7f1d b33f b160 8d94 8a74 43bf
00000730: ffc7 4f68 489c 8f3f 426d a4b6 5a1b a8bf
00000740: a188 4c84 9529 9bbf 2ccd c7a9 5e40 a7bf
00000750: 6f1c 392e b288 683f ec6c fa32 d93d 7e3f
00000760: f749 3ab1 7114 8cbf e520 44fc 5610 94bf
00000770: 1b9a bf09 8c4c a13f a9ea e839 7162 653f
00000780: 1df4 7360 ad9f 953f 0085 e5de c4a6 a9bf
00000790: b32c 5975 ae60 a9bf 225c 5133 6237 94bf
000007a0: 41ff 8ea6 f811 b33f 6078 7d57 22fe 82bf
000007b0: b021 2ab6 d5c6 833f d105 6604 b4a2 b3bf
000007c0: 2646 2e26 572e 9a3f 1427 0acb 2d7e 7fbf
000007d0: 03ba 46f7 5b8d a03f fed2 9914 46f3 93bf
000007e0: 4371 3e3f 487a a13f 670e 4ebe 808f 92bf
000007f0: 3f49 a57e 5168 8fbf d80c 537f 6a1a a73f
-0.062253852115181106 -0.03946011197541679 -0.01217917226496091 0.0463116990003744 -0.009377639749304351 0.049257724327967975 0.05781479377361483 0.032243060806159546
0.07660137743452382 -0.026658731012597178 -0.01835316258825962 0.05331574505941928 -0.035079832604059516 -0.04315454892729251 0.05179221529638728 -0.05927020803887283
0.05137513324005096 -0.0011058819005905338 -0.04762029985829443 0.01645050654081629 0.01769064829025348 -0.0787951186220806 -0.06046386457562809 0.04871568835598879
-0.002893461073969405 0.01514181869195436 -0.050213209279474445 -0.01598416361930378 -0.03165781906648877 -0.0476452416304123 -0.02939665613147227 0.06266846923738212
-0.004136658582808538 0.008252476515798121 -0.07348731406398772 -0.025112012730542307 0.040266407642424375 -0.03930122465873551 -0.0018851421810772153 -0.03195028557231452
-0.033255583473534765 0.05263927085550455 0.03661854948443372 -0.01302690114156287 -0.041730568304834945 -0.03305383457398478 0.022086258935164724 0.0077197498164192245
-0.052964971639157386 -0.02887916927795744 0.007763000017433555 -0.014446933284982626 -0.026197901432708514 -0.02182408410962097 -0.0090879739840788 0.06645337365414639
-0.031865180053083336 -0.038148710938107414 -0.07435834039165136 -0.04116932217441598 -0.04008264513158851 -0.09886693536997217 0.017681456336096073 0.045300884610831677
0.012893987433493776 0.07644607328499786 0.05114411946112611 -0.05861442339416817 0.07450565333364 -0.06516118970294499 -0.0020664008113734094 0.06688439699287124
0.03869523700003985 0.027909036168389724 -0.03883036895760134 0.008722726073851356 0.039430928642723836 0.017905929842319923 -0.04172806727124262 -0.02562336856544053
-0.012448415160179138 0.1088529561213745 0.060461268532081 0.00873637313124513 -0.038325785988230276 -0.030407781329628767 0.05130101230461845 0.025749494966868233
-0.004247333558096121 0.058812081701118464 0.010734316196119684 -0.005294770002365112 -0.01991223453261342 0.049702777771028626 -0.02528619375736219 -0.02728692953197078
-0.046918755745488726 0.025314416474573116 0.07383769710584158 -0.013291232532030184 -0.06073638768497521 -0.016096337675157908 0.0650668640373976 -0.011230986075274467
-0.026964797940364334 -0.033603124333155585 0.05664117181833972 0.019131460057031934 0.002916540696232078 0.04247839425452993 0.036453468896431813 0.02690696509134408
0.01974598077698794 -0.003874191825799894 -0.006123479035508978 0.03707976888619375 -0.04576784122623307 -0.01989935954295428 -0.0003735811152579362 -0.015028258217245712
0.047181374697693734 0.039498164449496546 -0.029095440158867232 0.01362625421574549 -0.006460703933179085 0.04507039205932894 0.03491163654487865 -0.01869369805290955
-0.01886508649421508 0.010015735318599252 0.024766132909091625 0.05898414989430257 0.03169666955456821 0.037509086873504315 0.04495398869269656 0.023128136007273842
-0.06395661551576694 -0.061446117023541656 0.01642015833800326 -0.0031572417683520928 0.01902730385463032 -0.02144595322531305 -0.007256254605210729 -0.005880931895112055
0.000494517082847857 -0.05952345739006239 0.012832193465796799 -0.018080682485730123 0.08911313242084604 -0.091945006100366 0.05387443999837522 0.03051804395375152
-0.019553682964370375 0.0740481256414947 -0.04523718533643195 0.07287282539428745 -0.01153927989616634 -0.027586287253239597 0.053550565892190476 -0.04752286749602491
0.04665816906988678 0.03785059615709612 -0.047805897948814964 0.026143965005591976 -0.02545214202134049 -0.046991778940587876 0.048576856175422824 -0.005137745278896171
0.0554611613924842 -0.07982568053267247 -0.0490211691443093 -0.010318624261672132 0.006397648214624511 -0.0033610941830320546 -0.01778530325532493 -0.01728866654408745
0.011841093133218716 -0.004103421275343657 0.029032070389623726 0.03752536153042409 0.03715671502334285 0.002223618835797921 0.034966141913731916 -0.0640042746397782
-0.01930079691262778 0.02995479090408304 0.06285898085640061 0.07608585561394197 0.04884298986334501 0.05534420048192222 0.07735579701080983 -0.046912444988911076
0.05666443538698367 -0.0234335483313462 -0.02415562899159734 0.024051214819456285 0.04048350509400784 0.030265321948759763 -0.04710754457639833 -0.03896426576188234
0.034882614460514945 0.07021069312032978 -0.09868196044004375 0.01298129382815877 -0.04525150672001948 -0.04613957953708908 -0.048009681613156614 -0.007593146149845639
-0.09300718735617497 0.000955175053855149 0.04187457073954063 -0.02628933002018677 -0.10526428982192157 -0.003419858739150522 -0.0449170018356661 0.058090555065479436
0.07197524685906662 -0.020323236915196063 0.04705254433801383 -0.04231937464717888 0.009249252423786436 -0.010089773216928515 0.04921221488934203 0.013208392288057234
0.030296453306349745 -0.044986482353722206 0.049283382717489305 0.009966584512132162 0.07466884916059897 -0.0005937267934355198 0.015434804614390172 -0.04708369712371986
-0.0265258180617215 -0.04541297743335301 0.0029948692406694326 0.007383202013126349 -0.013710869046268377 -0.019593581339933847 0.033787132444377664 0.0026104175042552425
0.021116932880421147 -0.05010047169595033 -0.04956574614024003 -0.019742521650496177 0.07449297014590874 -0.009273784918772232 0.00965659105465097 -0.07670140368829627
0.025567399697655223 -0.007688692931546521 0.03232848542699076 -0.019482703215959234 0.03413606426258522 -0.0181255451348207 -0.015335690190714344 0.04512341312649831

fc21.bias f8 [64]
00000000: bc40 317a a302 67bf 3987 80f8 c21a a63f
00000010: e65a 234e c276 913f 8e9b 7b63 2716 89bf
00000020: 06c1 ad9f 19ec b03f 00b9 31c7 b441 993f
00000030: 608d 35ce 0d7b a33f a7eb e2a7 4756 a53f
00000040: c7ee ba4d 3c72 93bf c9e0 022f d7eb 85bf
00000050: 0139 d19f 4a7c aabf f86b 2e72 2fc7 b03f
00000060: 069a 65b6 924c a03f 89fc f2f4 b22a a8bf
00000070: 3dbd 4fcc dd57 9cbf 2677 7c3d e3a9 a13f
00000080: 44b4 1d68 bc3a 88bf f3a6 9aeb e4d8 a83f
00000090: 79cb d997 e63d 9abf 525e e4b4 c446 933f
000000a0: 8095 9165 115e 943f ef5f b100 512b a9bf
000000b0: f91d dce6 788e 91bf 74ef 14d4 28b0 5d3f
000000c0: 5998 17fc aa25 a1bf c397 b124 405a 84bf
000000d0: f681 3d32 7915 913f ff95 c323 59b8 a0bf
000000e0: 326f 956c 4302 a93f 2c2c ce1f a6cb b03f
000000f0: 8de5 8277 5dba b13f 1cd6 4443 1a51 a0bf
00000100: 4595 50a5 1bb9 9a3f 9dd7 ab38 1a7d 923f
00000110: 51ba 310e 74ba 733f c916 8647 ef62 9c3f
00000120: 2dc9 9c71 2d65 ad3f 47b3 d0ad aa10 773f
00000130: 5576 8547 5baf ac3f b252 e11a 7688 7b3f
00000140: 9db3 df8b 4bdc a2bf e43a ef84 62e5 acbf
00000150: ced9 34d2 0749 b23f bdb8 792a fb20 8d3f
00000160: 087a ff5c 4e43 93bf 09ef 3ace 2fc4 b23f
00000170: a2fc 5e8a 837e 82bf aaba 803b 4bdb aa3f
00000180: 745c 86a2 73ee a13f 9b9c ae2a 8e7d 9d3f
00000190: 0c3e 94ab 24cd a0bf 0000 0080 2a12 a83f
000001a0: 6a3a c5c5 3b0e aabf d537 0b54 5bc8 a13f
000001b0: c282 de22 3cde b33f 515d 9108 8a2d aabf
000001c0: 00c9 4600 1fd7 9b3f fbea 4ebd 6ec9 b0bf
000001d0: f388 fda1 10a2 2c3f 825b 3658 f91e 783f
000001e0: 2957 184c cc92 9abf 9465 8343 bc17 a33f
000001f0: 0384 8075 9c20 a5bf 4849 d535 ebda ac3f
-0.0028088753620424105 0.04317292483780339 0.01705459215085172 -0.012249286387896931 0.06610260151297007 0.024664711625910662 0.03804820196344383 0.041673888439127275
-0.01899046158244635 -0.010703736421746506 -0.051729518898911316 0.06553932702665566 0.03183420635723526 -0.04720076789953349 -0.02767893371122664 0.03449926496089821
-0.011830779960030686 0.04852977157618268 -0.025626757639155315 0.01882464746549168 0.019890090774784763 -0.04915860303361785 -0.01714505108887285 0.0018120192256238761
-0.03349050833985307 -0.00993776428203919 0.01668347710745085 -0.03265646516392095 0.04884539318547211 0.065607435955983 0.06924995582348555 -0.03186876364854305
0.02609675594807938 0.018055352887095578 0.004816487638079695 0.027721155872788814 0.05741254817839301 0.005631128992757812 0.05602536438048548 0.006721936557444396
-0.03683696825451153 -0.05643756745086195 0.07142685777657862 0.014223062738178855 -0.018811439920563472 0.07330607209126695 -0.00903036848091993 0.05245432950356606
0.035022367085894596 0.028799268107516523 -0.032815118736945065 0.04701359570026398 -0.050889842883965766 0.03473172570157571 0.07760978556917578 -0.051128686471822456
0.027187809364201065 -0.06557361718925485 0.00021845295941164792 0.005888914110434908 -0.025950615066981406 0.03729046177040654 -0.041264428466327295 0.056357717820577025

fc22.weight f8 [64, 256]
00000000: 07e9 a5ec 7035 853f 6b43 e537 8a1c a63f
00000010: e275 f54e da50 9e3f f046 e82b 7ceb 93bf
00000020: ecf9 d1ba fc13 a03f d376 374a ae7b b23f
00000030: b69b fe0c 2a29 ac3f 6e2b 3cb2 e52a b23f
00000040: 260a cf70 df87 8a3f 9b1a 8097 052d 953f
00000050: b435 8dca 9072 b03f 52ba 3bb0 ed88 a0bf
00000060: 55ae 37e7 9d26 aabf 63fa 6d2f 5cc3 8f3f
00000070: 0f83 01db fb48 a5bf d9fb 2ae0 dbe2 503f
00000080: 272b 833a f26c 493f 40a4 4a22 b8b8 7bbf
00000090: 040d faf7 05c4 9a3f f8aa d1b4 9a5b a5bf
000000a0: e3ef 605d b2e7 a73f ec64 fcb7 a5a9 a23f
000000b0: 06b6 cee0 deb5 ad3f 978c 2541 e4d3 85bf
000000c0: 1188 a379 0fd5 a53f e349 cf48 8376 b23f
000000d0: 3670 6dbb d008 a83f bb86 8be9 cb1d 6c3f
000000e0: 3527 d36c 6830 7f3f 04bf 6ee8 e06b b5bf
000000f0: 150b 7093 dd60 abbf 1605 b1f3 d179 9dbf
00000100: b128 b8f6 0b7d ae3f 2782 9a0d df12 343f
00000110: 2617 31ab accd 933f ec9e 0b28 3ed1 9bbf
00000120: 892a f011 c9e4 9abf 232a c92c d8e2 b13f
00000130: b768 648f 996f b13f 0f67 47cb 9be5 ad3f
00000140: c7b6 21fe 87a9 7dbf c303 6160 cb52 9cbf
00000150: bfbc f4ef 625e 903f 0e46 4e0c 3042 923f
00000160: 769f 6def 4d13 b0bf c005 f9cd ccd5 723f
00000170: ff84 3ad2 7b0f 893f 7823 8201 16c2 90bf
00000180: 1720 41d8 dfce 9dbf 0979 cc92 57f6 ab3f
00000190: 4e60 f9f6 3a2f 653f eeb8 d8f3 a727 973f
000001a0: 02e8 e205 3a5e a33f 9414 b9de 9177 203f
000001b0: 80e0 bdc4 8233 a83f 3217 aab8 968d a3bf
000001c0: 463a dd39 93c8 a3bf abb1 4e38 902f a43f
000001d0: 9d86 0e54 7763 96bf cc10 78f5 2246 b53f
000001e0: ec7f dd4f bc94 78bf 7c50 e39e 3420 a0bf
000001f0: 3ee7 e439 8102 753f 216c 3096 7a82 7e3f
00000200: cdc1 3b0d 7d6c 97bf f44a 9daa 0461 863f
00000210: 1e5f 8bcb e239 7abf 0f9b 4c93 21ce 9ebf
00000220: 0134 6491 8f30 8d3f 4c7c 15a0 20d7 b03f
00000230: 4b4c cdec 4769 2bbf 8db5 51d6 7467 86bf
00000240: d64a 8d67 463f abbf 129a cc7f aa52 953f
00000250: 5d4f 0aaa 20b1 ad3f 6bba 451a 8e49 983f
00000260: ba4f 23a9 24bb 80bf 061a 5f9e d6ad ac3f
00000270: 6826 302a 37bf a3bf 549c e6ab 7afc 92bf
00000280: 8555 df0f df47 8abf a8dc bba8 06f2 a93f
00000290: 8f33 9bb4 9da8 abbf 4866 34b3 d4c0 a13f
000002a0: 30b8 cb6f fdc6 873f fb5e 7821 778d a8bf
000002b0: 2b4e e526 ed9c a6bf e850 fc32 c16d 843f
000002c0: 1b82 0871 9bb2 a03f 295f ba87 a5d5 933f
000002d0: 06e1 b4e5 b79a 92bf 5d3c 39a5 02d9 ad3f
000002e0: c16b e223 dc5a 53bf 70ab 135f da42 a2bf
000002f0: 722d f2df 2ac2 91bf 2ce9 337e 8196 92bf
00000300: 3f8f 7990 9baa 9c3f 5160 1bc8 70d4 a7bf
00000310: df32 0566 1f40 8fbf fa2d aab7 87f5 95bf
00000320: fcf4 24f7 f66a b53f 00e8 523a ded6 a33f
00000330: 6a25 ff3d 38c2 ac3f 36e0 4cc9 1551 a73f
00000340: 111c 9f4c 6d51 acbf 4e4e a12b d0e4 ac3f
00000350: 9040 9c4b de9e b5bf 0d90 b254 e771 83bf
00000360: 0887 bc48 42af 793f 818a a0fc 1509 813f
00000370: dc4e ae1f 3aff 423f cdfc fb1f 1766 aa3f
00000380: 3117 4ad1 1522 a73f 6579 5e50 43ae 8abf
00000390: d106 3e97 ce28 ac3f 1a9c c06c e466 86bf
000003a0: 637f 6e2d c4d2 b03f ef26 89a4 79fd 83bf
000003b0: cf98 2f4c 50b2 9ebf f0f3 2f85 9985 96bf
000003c0: cc3b fdc3 1f1c 963f aaba b03b 68a3 b03f
000003d0: 8544 640d 76a2 b13f 60fe a914 a6ea aa3f
000003e0: 08e9 141d b5c3 923f bc91 a56d da63 b33f
000003f0: aff2 8eb6 fbb6 533f 781c 353a 2dfb a13f
00000400: c319 9be5 d4bc 963f 2cb7 a4c8 0371 a6bf
00000410: 362b 7c24 5c55 923f 1b5e 6d86 617a a2bf
00000420: 1836 9ff6 b727 ae3f 8649 e2f0 a58f b4bf
00000430: f7d1 4b76 2ec6 e63e f65e 3260 692c b53f
00000440: 019f f096 ab9a a1bf 16c4 72f3 ed4e 943f
00000450: da6c e645 49e8 a63f 227f 5a83 41d1 a73f
00000460: 4988 cef4 a699 89bf ecc1 3104 ea3e 9cbf
00000470: 81f6 747a 5124 b33f 23fe eef4 6ec4 b33f
00000480: eb39 e68b b642 b1bf 6668 80d0 4af5 7a3f
00000490: 07fd 6d90 e026 b2bf 78a3 47ef b1ce 773f
000004a0: 4381 0eed b176 963f b047 4feb 9f2f a4bf
000004b0: 3b22 0695 d454 933f ed09 3936 c6f9 ad3f
000004c0: 420c c5ba 7b15 433f e83e 874a df62 903f
000004d0: c98e aecb d226 b23f 9147 76e1 7ebf 84bf
000004e0: 69a8 c076 7b41 b43f 1652 fce3 4f1f 8f3f
000004f0: 04c4 5fce 1c06 a83f 3c59 33e1 2567 a23f
00000500: 24c7 e303 ae41 a0bf 120c 6bb7 460d 923f
00000510: 488a 7d5c 1ff8 7dbf d68c 8810 11ac b03f
00000520: da8d 1690 90bc 8cbf 7702 31ff 8ef2 93bf
00000530: 85c7 75ce a19f 20bf c917 f41c 74be 723f
00000540: c6db d67c 0cd4 92bf 5d3f 6e9f f099 9e3f
00000550: 66d3 2ff8 fca0 a73f 9564 56db ff95 95bf
00000560: 9a55 8748 aec3 863f e338 d1b2 b129 983f
00000570: 1b88 079b 7437 9e3f effc 7068 46ed a53f
00000580: 7e7d c3d8 f59f b5bf 9e2e 010b 1f36 abbf
00000590: 3c4a 7b59 4390 683f 7bf7 4764 2597 973f
000005a0: c105 a9c7 f3cd 9cbf 7c07 ebf1 53ab 9cbf
000005b0: c0d9 b777 d8a5 af3f 5a04 e9eb 391c a73f
000005c0: 7db5 0ad3 7cc1 b03f 5e91 417c a575 7fbf
000005d0: 3535 0c22 4798 a23f 993d 92d6 8112 b13f
000005e0: 783b ef29 4435 a73f 4f27 0981 48d1 a63f
000005f0: b9cd 376a 35bf a5bf 71c6 ec03 1634 74bf
00000600: f7cc c566 2fb6 b13f 60cf 367a 6d0c 98bf
00000610: 80f4 dc76 4648 ab3f b53e b4c5 bbb6 99bf
00000620: a00b 40dd 561d b2bf eab7 1305 f08b 82bf
00000630: 017e 890c 197a a43f 00be dfbb 1221 b23f
00000640: 0143 69a8 61fe 9fbf 3649 abf3 630c 9a3f
00000650: ee32 8b1a 5062 8f3f 2a45 53d2 a1db 963f
00000660: bb39 db58 49c0 b13f 8396 eb0a 1878 b33f
00000670: 9e54 5e2c f864 9d3f af86 1263 2bbd 9dbf
00000680: 8ac0 9d1b 819c b33f 2022 a932 b1d7 92bf
00000690: d052 8f8a 655e af3f 100e c396 d156 a53f
000006a0: 8138 9620 15c9 ac3f d17e 5fd5 9faa 58bf
000006b0: dcba 0956 8385 68bf 35e1 ab2c 4b22 a83f
000006c0: 9592 d131 1c85 a93f 2608 2e43 f14c 6e3f
000006d0: 8fe6 a187 6d2f b33f 5f3e df7f 323a aa3f
000006e0: a1a5 e835 383c b13f a4c7 e055 7852 b23f
000006f0: b35a f92d df48 a0bf d8bf 77a6 0621 b33f
00000700: 8233 9fa3 088d 843f fb8d 06fc 46e2 ae3f
00000710: a0f4 dcc7 bce4 b3bf d23f ca7c 7a60 ad3f
00000720: 4058 8f61 240d a63f 8c3e 9a65 8516 a6bf
00000730: 0f7f 8024 838f 813f cf59 4e6d 4f23 99bf
00000740: 5935 7274 509b a2bf 4caf f138 6201 573f
00000750: d82b d2b7 e78d 81bf 32bc b609 9182 853f
00000760: 57e9 365d 8fcd a4bf 5868 66eb a90f a53f
00000770: 13ed 9bce 5ee0 a23f a2ce e006 ab25 94bf
00000780: 59ca 0c90 1297 a0bf f09d 27d3 e3e2 883f
00000790: e1a0 d2a3 9072 5b3f 608d 5d8e 5631 92bf
000007a0: 1a25 5568 57d8 74bf e311 5949 4da0 a7bf
000007b0: 6e54 0da7 1bba a33f 2db2 cec5 964d ac3f
000007c0: 4968 7fb8 a582 06bf 3acf 00bb 0f1b b03f
000007d0: 0cba 85a1 f1ce 80bf 97da ba81 8d12 97bf
000007e0: c133 b874 6529 a13f 986c 1aa0 8edd ae3f
000007f0: 1f7f f49d d80f b33f 59fe 534d 5e36 8a3f
0.010355837079931719 0.043186492274464104 0.02960530383039906 -0.01945299165715303 0.031402490430071456 0.0721997195427904 0.05500155838608782 0.07096706010285711
0.012954469328069495 0.020679557201243353 0.06424813218219222 -0.03229468132291359 -0.05107587287406249 0.015509338567196445 -0.041572447284812346 0.001030649874038883
0.000775926852861407 -0.006767958901641669 0.026138394604015694 -0.04171451051009528 0.04668958082081056 0.03645055647775472 0.0580281876967597 -0.010658057439917363
0.04264114723061153 0.07212086227017482 0.04694225585873861 0.0034321768438168843 0.007614524755988052 -0.08367734598754956 -0.05347340035225138 -0.0287850193965414
0.05954778086386748 0.0003063005984618471 0.019339273403850353 -0.02716538543145834 -0.02626337215410016 0.06986762135890294 0.06810912848269167 0.058392399372406804
-0.007241755696765834 -0.027659585721497636 0.015985055824043522 0.017830610991557853 -0.06279456229606048 0.004598426835913327 0.012236564019362904 -0.016365379182875256
-0.029109475683327526 0.05461381594635568 0.002585997739327473 0.022612213381017314 0.037828267305897625 0.00012563377036848135 0.04726799632675327 -0.03818961147503187
-0.038639641583917014 0.039425379632436496 -0.02186380816022525 0.0831014489450041 -0.006001220315596339 -0.031495708842755626 0.005129341878552128 0.007448653082089003
-0.0228747882201235 0.010927235085238497 -0.0064028605636037555 -0.03008320294898242 0.014252778648847554 0.06578258426951428 -0.00020913126936736507 -0.010939514914037907
-0.05321712507306635 0.020823158312078212 0.05799200130164082 0.02371809039453369 -0.008169447337799219 0.05601378138776529 -0.038568233394539686 -0.018541256658547958
-0.012832396194350401 0.05067463693370061 -0.05402081327120022 0.03467430770451735 0.011610012029873301 -0.04795429500171441 -0.04416600322533911 0.009974965446908304
0.03261266474533305 0.019369684609585356 -0.018168328662086196 0.05829628245248195 -0.001181330662382449 -0.035666298013743325 -0.01734225265367457 -0.018152259185606187
0.02799456662468391 -0.04654266779624606 -0.015259022999680237 -0.021444435677535602 0.0836634019260209 0.03874868833504763 0.05616927868647788 0.045540505240240156
-0.05530873833009065 0.0564332059153939 -0.08445538850742396 -0.009494597694647689 0.006270655557985234 0.008318111202304525 0.0005797418410673177 0.05156013741906804
0.045181924627327404 -0.013027692690056278 0.054998832666581905 -0.010938438958033859 0.06571603879137693 -0.009760809262974372 -0.02997708764078127 -0.021994017366512908
0.021591659867507038 0.06499339539798635 0.06888521029419976 0.05257147791143946 0.018324689769749575 0.07574238945887307 0.0012032945762562688 0.03511945090809204
0.022204710496930746 -0.04383098434696672 0.017903747298116467 -0.03608994260747186 0.058896778922285786 -0.08031689768748693 1.0859559276246175e-05 0.08270891760400531
-0.03438316552666088 0.019832342132478052 0.04474095323822676 0.046518370899546704 -0.012500099512014045 -0.0275837483463323 0.07477292289419248 0.07721608619521496
-0.06742421069632314 0.006581585163099124 -0.07090571905245123 0.005812354142542435 0.021937160581388736 -0.039425847505881406 0.018878289790821717 0.05854625141047962
0.0005823949955260437 0.016002167629095704 0.07090489838315785 -0.010130873923831081 0.07912418030960712 0.015196441788739395 0.046921634857319844 0.03594320653944513
-0.03175109670145407 0.017628769822078345 -0.007316706185380335 0.06512552884719311 -0.014031533620090398 -0.01947997505726781 -0.00012682771851363017 0.004576161925120511
-0.018387026900849944 0.029884109240412616 0.04615011720299016 -0.021080014955803767 0.011115418995283833 0.023596550501957202 0.029508420908207805 0.04282588982504786
-0.0844720510681238 -0.053147287457787615 0.002998477499070588 0.023037513967202976 -0.028129395543379013 -0.027997314110286706 0.061812176336320857 0.04513722424281559
0.06545238640202018 -0.007680555751083366 0.03631803789731195 0.06668864716106383 0.04532826434989706 0.04456545424598223 -0.04247443124395595 -0.0049324855779545465
0.06918617495630373 -0.023484907707554625 0.05328579140630385 -0.025111135427379156 -0.07076018239608439 -0.009055972247065076 0.03999403265038027 0.07081715666549115
-0.031243825820925334 0.025437890765553216 0.015324235734988059 0.02232220503066632 0.06934030932754968 0.07605123774154703 0.028705480297123935 -0.02904193679990524
0.07660681652282811 -0.018400925366480192 0.061267064250989045 0.041677999166065516 0.056221637943154164 -0.0015055237649831863 -0.0029933514745644606 0.04713663978867758
0.04984367473733645 0.0036987983853018656 0.07494244157160267 0.05122525988519721 0.06732512775547274 0.07157089325553884 -0.03180596767622514 0.07472268642572943
0.010034625523894784 0.06032010866627143 -0.07770900611372378 0.05737669728580354 0.04306901636998406 -0.043140572216654766 0.008574509192896622 -0.02454876045848114
-0.03634120389424806 0.001404138489102774 -0.008571443841239132 0.010502942189161233 -0.04063079846260347 0.04113512991462248 0.03686805984576771 -0.01967494229775347
-0.03240259178564448 0.012151508218223278 0.0016752636432020784 -0.017766334952637464 -0.005089131770838829 -0.04614488144264663 0.038529266492937406 0.05527945675507726
-4.2935068506458835e-05 0.06291292491442571 -0.008207214109202908 -0.02253171066578349 0.033518953798285185 0.06028409675965313 0.07446054321598837 0.012799011931291892
