weights/model_25_smgbin_l_suite_w_lims_opp_pen_dgoal_fixo_obs_l_s_1_bn.pth (torch, 557186 bytes, 18 tensors)

fc1.weight f8 [256, 8]
000000 60 d1 85 d6 2c 71 ce bf 25 67 f0 47 80 ec c6 3f
       -0.237828831431794 0.17909244072580424
000010 96 6c 20 a4 75 0d a0 bf bf a9 b6 d3 a6 28 81 3f
       -0.03135268810748319 0.008378318153366203
000020 a5 ac c8 a9 54 ec c0 3f 54 75 50 43 58 17 db bf
       0.13221224107960441 -0.4232998521200291
000030 b7 4c dd 3b c2 cd cb 3f 34 bb 67 cd 17 f5 c0 3f
       0.21721675799435555 0.13247964410353463
000040 2a 8c 7c d0 3f 3e d4 3f 25 41 59 25 94 15 cc bf
       0.31629939422618014 -0.21940852950729908
000050 28 60 8e 5f 8d 16 ac bf cf 2c 4c 86 cc 74 c5 bf
       -0.05485955993134467 -0.16762692029474244
000060 ce d3 fc 3d 01 6c d5 3f c7 9b 94 58 7e e3 d0 bf
       0.33471709302403674 -0.26388510370673796
000070 48 26 1c 06 ba 3b e0 3f 75 af ff 90 be ba b0 bf
       0.5072908515296115 -0.06534949340828951
000080 61 59 fb 2d 31 e4 c8 3f 9d 9b 6a 82 11 61 c7 3f
       0.19446387047964733 0.1826497923659333
000090 c8 bd ad 99 6c e5 be bf 33 f2 6f 63 bc 2d d5 bf
       -0.12068823577805354 -0.3309164973323135
0000a0 68 ff 47 a5 c1 94 d6 3f 9b b2 77 29 14 24 d7 3f
       0.35282937184091745 0.3615770726162652
0000b0 29 ee 5f 48 09 ac c1 3f 65 5c 42 34 e2 d6 b2 bf
       0.13806263002321487 -0.07359136367664261
0000c0 cf e3 28 de a0 97 8a bf ff 27 3a 1e 7f 76 b9 bf
       -0.012984520702149198 -0.09946436393707357
0000d0 9a d2 c3 42 81 c2 8c 3f ed af 6e 76 77 5d cc 3f
       0.014042863702777898 0.2216023758204523
0000e0 f7 48 c7 6c 29 40 a9 bf 8f 74 f3 fe b0 52 a3 bf
       -0.04931764080869699 -0.037740260240505134
0000f0 06 db bc 3d 69 af d6 bf b5 c8 34 2a 9a 7d bb bf
       -0.35445624379228524 -0.10738528757500172
000100 19 d7 a0 c2 e9 48 bb 3f 3b 93 4a 73 56 1c d5 bf
       0.10658131601016087 -0.3298545957462015
000110 8d 83 bb 86 cc c4 d3 bf 9f 2d 5f d9 f0 04 b1 bf
       -0.3088866534945332 -0.06648164088180984
000120 0c 12 1d 8e b4 b2 b4 bf 22 c5 04 ca 67 58 d2 bf
       -0.08085182637757543 -0.2866458390081609
000130 4d c5 d5 1e 51 81 c3 3f cb 24 55 f1 ec 4a d6 3f
       0.15238393788926388 0.3483230931056595
000140 2f 60 20 96 73 9d d2 3f ae 42 d6 09 d2 1f d4 bf
       0.29086007748401504 -0.31444216690673954
000150 79 c0 10 00 09 4a c2 3f 83 bc 18 1b 07 a5 d5 3f
       0.1428843736953274 0.33819749494700363
000160 bb 77 d2 a9 3d e7 7a bf 7f a4 01 0b 70 7c 9d 3f
       -0.006568184731035427 0.028795004531648957
000170 de 33 18 52 4f 21 c5 bf 35 b6 0b 38 19 c0 d4 bf
       -0.16507903584024936 -0.3242247626611488
000180 46 d2 fd 21 77 62 d1 3f 10 e3 79 ef 01 9f 9d bf
       0.27163484878045485 -0.028926878205740414
000190 5e 2e 5a 2b b9 b4 8b 3f 78 9e c7 1d 98 e2 d1 3f
       0.013528296123033797 0.27945521267108786
0001a0 aa 85 f8 24 65 5b b5 bf e0 90 3b d5 bd a1 ce bf
       -0.08342582848174254 -0.23931095992805407
0001b0 08 7d e4 92 6d 75 c9 3f 1b e2 a7 a0 6e d4 ba 3f
       0.19889611885535197 0.10480395719776718
0001c0 90 56 33 25 a4 f6 d1 3f 9a bf ac c6 07 a7 c4 bf
       0.28067878373017496 -0.16134736252706433
0001d0 ea 2b 1c 2e 08 4c a7 3f 37 c7 79 64 6a 6e a9 3f
       0.04550195277086984 0.049670529141521085
0001e0 cc 3f 65 8d de 6d d9 3f a2 14 49 7e dc 7b d6 bf
       0.39733089264063604 -0.3513098939186624
0001f0 a8 b3 2f 7a 1f 50 ca bf e1 ea f8 13 80 82 cd bf
       -0.20557015863542216 -0.23054505324565525
000200 77 99 ab 6a 64 c9 d6 3f 3e ab c6 a4 8d 31 ce bf
       0.3560420076086283 -0.23588724656777943
000210 4c bf f9 52 dc b2 b1 bf fc ac a7 17 07 33 d3 3f
       -0.06913544679423217 0.29998948392922364
000220 7b 17 28 8d 8a de d2 bf e3 b6 34 16 c5 5f c2 bf
       -0.29483283791375187 -0.14354766449235176
000230 11 02 67 99 62 d5 d9 bf c3 c2 c5 93 70 5e a0 3f
       -0.40364899616909705 0.031970518149028425
000240 df 5b d5 8f 8a 41 cf 3f 75 f4 56 0b b6 a1 b9 bf
       0.24418766043774462 -0.10012376572463373
000250 1d 33 d8 9d 67 ca d3 bf 3b dd 6d 93 c9 70 ac 3f
       -0.30922880568032146 0.05554799961731268
000260 7d 0f 31 22 6f ad a8 bf e5 5c fd 2c 2e 59 c2 bf
       -0.04819819729212236 -0.14334656903040535
000270 62 3f 24 3a b7 ec bf bf f3 5a 5c e7 b6 20 d7 3f
       -0.12470574540588822 0.36137173265289774
000280 35 57 52 d0 62 e2 b4 bf 17 c4 79 84 60 b7 c5 3f
       -0.08157937608697526 0.16965872257745282
000290 74 af da 39 f6 0c d3 3f 13 b4 5d 09 6d 08 c8 bf
       0.29766612672641846 -0.18775713879895814
0002a0 3d c4 a8 20 3b d3 bb 3f 4a 03 5b 68 b4 e9 c9 3f
       0.10869187877030213 0.20244460196956943
0002b0 9c bd 59 48 75 1b 81 bf 36 fc 82 33 10 70 92 bf
       -0.008353153486693903 -0.018005612510702394
0002c0 32 ce 46 ac 11 17 db bf 78 b8 48 a2 62 72 d1 bf
       -0.4232830221546663 -0.272606523972065
0002d0 99 8a 2f 26 85 ee b2 3f 53 66 b0 07 28 99 c8 bf
       0.07395202810543323 -0.19217396140520523
0002e0 28 60 23 40 a0 92 b0 bf e4 09 db cd 0d 0d c5 3f
       -0.06473733487962419 0.16446087409538201
0002f0 df ce 17 5a f5 ea da 3f 29 54 36 75 29 24 d6 3f
       0.4205907230200249 0.34595714994913124
000300 8c 9a 0f c2 1e 5d d1 bf 26 22 51 28 a8 a1 a1 3f
       -0.27130860282196845 0.03443646900320045
000310 ee c9 d3 9b 99 03 b9 bf eb 51 a3 fe 76 38 d1 3f
       -0.09771118215920868 0.2690713392924226
000320 dc 00 4d d5 12 aa cd bf 27 ec f6 7a e0 80 c7 3f
       -0.2317527333743844 0.18362051014068578
000330 88 25 cd 49 5e 5b d4 3f 29 fb 67 ba c7 65 b5 bf
       0.3180766792980525 -0.08358429242069278
000340 70 67 ea 98 58 8b 99 3f 16 61 4f d2 3b be c5 3f
       0.024945625622968703 0.16986797112509383
000350 01 23 62 38 a6 18 c1 bf 1e 0f c0 22 45 51 b7 3f
       -0.1335647368726072 0.09108383272547058
000360 e9 91 8e 07 63 c1 c6 3f 39 06 cb ba 4b ce 8b 3f
       0.1777766978167528 0.0135770717982978
000370 71 b4 20 51 5c e4 a1 bf 9e c6 3f 08 7f 14 d7 3f
       -0.03494537821129818 0.3606259899671417
000380 78 c5 b4 b5 18 90 c3 bf 9c 6a 7f 6e 41 1a d3 3f
       -0.15283497688646341 0.29847751417916313
000390 33 1d 20 a7 c0 7a d4 3f fa e9 6c 20 17 30 d3 bf
       0.31999222107738773 -0.29981020132586844
0003a0 50 e4 2e 77 ff 39 c7 bf 44 54 4d df 48 3a d3 3f
       -0.1814574558209494 0.3004324131664513
0003b0 4e d6 09 cd 5d 19 d5 3f ee 94 4f a8 f5 fc d6 bf
       0.3296732427910215 -0.35918942867858916
0003c0 04 73 7b 0b 12 5e c8 3f c0 88 2c d0 19 8d c8 3f
       0.190370803457789 0.19180605568641873
0003d0 46 b0 8c d4 6a d5 b1 3f 42 3c 8b 24 bf c2 b5 3f
       0.06966273965071065 0.08500284807381411
0003e0 82 f8 ab a7 99 5a ca bf 21 8c a3 69 2a 57 a5 3f
       -0.2058898991307992 0.04168064631974056
0003f0 56 ec 6d cd fc 2f d3 bf f8 9c ad f5 3c 40 b0 bf
       -0.2998039251467096 -0.06348019598009447
000400 c5 8a 77 2d 56 89 c1 3f 9b 48 09 cc d9 66 d3 3f
       0.13700368137423005 0.30315251279274386
000410 86 4f de 50 0f f9 c8 bf 63 2e 03 32 ea 77 d5 3f
       -0.19510070274975194 0.3354440201189616
000420 7c 02 51 03 5c bd a6 bf 0d 9a 2b ea f1 9e ba 3f
       -0.04441344776615083 0.10398780791329205
000430 60 59 1e e0 41 2c ce bf 72 5e 40 90 61 c8 b0 3f
       -0.2357256264046539 0.0655575730491991
000440 d0 71 d2 09 90 d0 d1 3f dc 4a ae e4 29 16 cf bf
       0.2783546539228867 -0.24286388078743115
000450 c5 2e 05 d5 90 c6 a6 bf 24 f6 e2 d9 d4 b4 72 bf
       -0.04448368645043169 -0.00456698555916327
000460 c5 12 08 c1 9c be c5 bf d0 d7 21 6c c9 2f a8 3f
       -0.16987952638023365 0.04723958439801346
000470 e4 4f 46 b4 b7 88 b2 bf b1 7e e1 d4 d3 d6 be bf
       -0.07239864493595821 -0.12046550700460547
000480 5f 82 6b 11 6e 00 c0 3f d4 23 ea f9 df 62 d0 3f
       0.12501312113365068 0.2560348454067569
000490 7d 35 bc a6 87 3c b2 bf 24 58 f8 6f d8 44 ad bf
       -0.07123611279185656 -0.05716587416479538
0004a0 25 ec 70 41 30 28 c4 bf 8e c8 34 65 7b e4 c7 3f
       -0.15747645564428683 0.18666021768291724
0004b0 91 4e 04 25 23 07 c5 3f 28 8c a4 48 ce 41 d0 bf
       0.1642803126093111 -0.25401646703739056
0004c0 fd 49 a2 89 6a 09 b7 bf 68 5b 6c d5 54 d4 bb 3f
       -0.08998742923930787 0.1087086697628884
0004d0 af ef e9 7a ad 68 b3 3f 39 2a 91 f0 be ba c4 3f
       0.07581600428414846 0.16194903131902708
0004e0 2d 22 ee 76 81 02 cd 3f f5 39 5a a1 89 20 d1 3f
       0.22663896853579626 0.26761093861651314
0004f0 70 35 0a b5 60 2b d3 bf 06 08 4a 0b bf 2b 91 3f
       -0.29952256850886894 0.016768441261326948
000500 89 31 fe d0 94 e6 ca bf 5c 4b dc dd 48 03 c2 bf
       -0.21016178326352655 -0.14072523911508028
000510 97 13 02 72 45 b6 d4 3f 5d f8 a9 ad 4b 1b c5 3f
       0.32362495549778586 0.16489549617466795
000520 38 e3 62 bc 87 ac ab bf cd f9 ec ca 19 d8 a1 bf
       -0.054050676103946704 -0.03485184290046881
000530 9b 25 26 f9 00 b1 c6 bf dc 31 d1 a8 77 15 d2 3f
       -0.17727672734717434 0.28256026731540174
000540 ae 3f b9 38 8d af b0 3f ec 4f 2e ca 91 38 d3 3f
       0.06517870554784963 0.3003277277396126
000550 a4 4c 8c 8d 1f 25 d2 3f 8d d7 8d 28 6d 06 c7 3f
       0.28351582358409133 0.1798836181657716
000560 31 a9 e1 ac a8 f6 ba 3f 81 80 bb 7f 6d 16 d2 3f
       0.10532621594180537 0.28261888002271723
000570 2c 66 09 9d 6d f5 c1 bf 07 26 a4 bc 86 3d 87 bf
       -0.14030237357910502 -0.011347820884583205
000580 90 70 25 2f 56 5a d6 3f 38 48 dc cf 6e ff b5 bf
       0.34926371196866857 -0.08592884611815144
000590 09 d6 22 e8 f0 b1 cb 3f bc a1 ad dd 25 64 d5 3f
       0.2163678296544023 0.33423754356638447
0005a0 f4 43 31 b9 cc 5a ad bf 51 c1 ea b5 4c b7 d6 3f
       -0.05733337174081746 0.35493772282918196
0005b0 8d f0 10 ce e7 4b ab 3f 79 32 b4 b6 45 9b b0 3f
       0.053313487915574866 0.06486926756424251
0005c0 8a a7 00 9d 73 93 d7 bf 42 2e d9 bb 08 4e 8c bf
       -0.36837473232537177 -0.013820713265111032
0005d0 be ea 50 22 c6 f5 a1 bf 4d 4b 37 ad 47 99 81 bf
       -0.03507823151490673 -0.00859313962329158
0005e0 ef a5 0a e8 bb f4 d8 3f f8 1f 66 88 7c a3 c3 bf
       0.38993737850486715 -0.15342671070197844
0005f0 cc 18 44 41 40 69 e0 3f b1 79 48 f8 d4 f7 92 bf
       0.5128480219580296 -0.018523528722761366
000600 40 b8 9f cb 1c 40 c9 bf 57 38 aa 21 51 f8 db bf
       -0.19726905767987724 -0.4370310620078092
000610 3c 29 2a 2f a2 fd a3 bf de 05 39 d1 da ce c6 bf
       -0.03904444528332582 -0.1781877061458052
000620 24 43 a6 2d c1 39 b0 3f f0 a8 6e fe ef 66 d6 bf
       0.06338126530159777 -0.35003280493641764
000630 ed 43 5c 97 dd d5 c3 3f 5c 85 5e fe b8 6f cd 3f
       0.15496415987629977 0.2299720041310519
000640 88 11 67 fb 79 3c d2 bf 5d c4 aa 69 2a 4f b2 bf
       -0.28494119215999847 -0.07152047233354737
000650 8e 12 11 e3 df 05 d5 bf 66 aa 56 05 23 a0 c4 bf
       -0.3284835545967234 -0.16113698731108456
000660 d1 1f 06 b1 93 a2 c3 3f 34 39 16 0c 58 cf d1 3f
       0.15339895385500182 0.27828026943543027
000670 7a 0e 38 cc 57 4d c7 bf 05 7e 02 bc 94 8f b0 bf
       -0.1820478198206848 -0.06469087209779197
000680 1e 9a bb 40 cf e9 c2 bf 2d d2 49 fe 45 a1 74 bf
       -0.1477603021696305 -0.005036614810354706
000690 dc 8f d4 61 d0 3f d0 3f 01 bf 7b b1 48 5d cf 3f
       0.25389489701978873 0.24503430048161337
0006a0 28 d2 4e c7 f7 7a d3 bf 4b 6c 50 41 2d 5d d0 3f
       -0.3043803640714793 0.25568705919585416
0006b0 62 47 25 2b 26 60 a3 bf 95 8b d8 eb 29 2c b5 bf
       -0.037842934386062024 -0.0827051354213338
0006c0 92 eb 0d f2 93 5a 9b 3f 35 f1 be f8 de 95 d2 3f
       0.026712714814020773 0.2903973988684528
0006d0 e3 b5 eb 09 a5 16 ce 3f aa c9 37 3d ab 1f a3 3f
       0.23506606087123236 0.03735098955430101
0006e0 ba bf 68 8a 1c f8 d1 3f ea a9 d0 93 c3 ed c7 bf
       0.28076852337380453 -0.18694348065885374
0006f0 d6 b3 7c eb cc 97 cc 3f 31 14 e6 d9 ac b4 cc 3f
       0.22338258264917837 0.2242637695273131
000700 06 0f e6 fa d2 a1 a5 bf fd 3d cc ae 7b b3 d1 bf
       -0.0422502452156817 -0.27657978124713606
000710 13 98 8f f4 45 98 c0 3f 12 c1 09 81 c2 53 d7 3f
       0.12964701119852914 0.36448729134919333
000720 2f f6 f4 f8 0f de a5 bf db 35 45 eb ca 20 aa bf
       -0.04270982660316879 -0.05103143808319618
000730 9f e3 b2 b1 96 3f d3 bf 37 b0 7e 8c 29 6d d2 bf
       -0.30075614312550586 -0.2879127380390431
000740 f6 89 c3 94 1f 15 d1 3f a9 72 68 f3 46 ee cf 3f
       0.2669142678043096 0.24945914158970098
000750 37 bf 68 73 89 91 d3 bf bb 87 98 52 6c b3 d4 3f
       -0.3057578684847501 0.3234511190986457
000760 1c 8f 2e 4d f1 31 b1 bf 86 36 20 7d 45 bd c9 bf
       -0.06716831335375811 -0.20108860597286
000770 89 4d 6a b0 e2 63 d4 bf 0b f9 93 3d cd b8 d5 3f
       -0.3185965273671277 0.33940440190771487
000780 34 95 93 31 dd 6d d8 3f d6 e1 f7 f1 bb 89 a1 3f
       0.3817055687089408 0.03425395325388407
000790 9d 16 0e 4d 36 4a cd bf 52 46 a8 2c 77 f8 bf 3f
       -0.2288272739644314 0.12488503303782153
0007a0 32 7d e8 84 78 7f bf 3f a7 d9 7b 09 dc 7b c4 3f
       0.12303879971340306 0.16002989256930997
0007b0 66 cd 2b a4 e2 36 a2 bf d3 eb bc e9 e6 3f c7 3f
       -0.035574991741578896 0.18163763440119726
0007c0 b7 de 94 d0 ef 3f d8 bf d6 c4 6b b6 4a 50 a7 bf
       -0.3789023911408366 -0.04553445317095288
0007d0 fd 57 86 49 5c 9a b8 3f 07 ce e8 27 40 c3 c2 bf
       0.09610535426176621 -0.1465835757131659
0007e0 f6 92 4d 04 c8 c4 dd 3f f0 53 0c b8 22 99 9e bf
       0.4651355783483234 -0.02988104103413386
0007f0 9d db 61 e9 5c a4 da 3f 4f 82 32 c0 ef c7 d4 3f
       0.41628191748844207 0.32470315713184034

fc1.bias f8 [256]
000000 16 7e ae 91 4d 49 9a bf 06 0c 87 fc 4a 8e d0 3f
       -0.02567025376958839 0.2586848703469403
000010 40 00 38 b3 a5 7b c9 3f 1b e4 60 11 de c3 d8 3f
       0.1990859150973865 0.38695480057828185
000020 d4 54 5a 1d dd 50 b0 3f 2a d0 78 fa 88 f1 d3 3f
       0.06373388258573992 0.3116171308531671
000030 ac ab 04 dd f1 b5 d8 3f f9 6e 48 6d a4 c0 c2 3f
       0.386105027998094 0.1465039762123224
000040 07 b4 dd 8e e1 af d3 3f 4d 3b 7c 36 ab 4d cc bf
       0.3076099295784051 -0.22112026367582374
000050 c8 46 0c 3a f8 9b d2 3f 9a 6c ff 16 a6 66 ab 3f
       0.2907696310877381 0.05351752310499443
000060 05 d2 41 f1 e9 b2 98 3f cf f5 20 33 08 94 b7 3f
       0.02412000212685152 0.09210253952274815
000070 05 14 fa f9 26 99 c2 3f e2 7b 42 ff 76 b2 b3 bf
       0.14529883581067807 -0.0769419072334894
000080 4d d5 83 89 ce b9 c2 3f d4 e6 1f 2e b6 70 ab bf
       0.14629537310217203 -0.053594296579786566
000090 91 45 60 da 01 fc d2 bf bc 83 b9 4e 06 1a b1 bf
       -0.29663130117213493 -0.06680335447300839
0000a0 eb 81 09 4a 47 1a 83 bf 18 23 fb ad bf 03 ae 3f
       -0.009327465960439837 0.0586223506812244
0000b0 33 16 9d f3 eb f5 d3 3f 04 99 99 da 0f 87 ad 3f
       0.31188486853020264 0.05767106574494288
0000c0 c7 ab c0 b5 1d 91 ae 3f 55 1e 32 27 12 73 72 bf
       0.05970089763317037 -0.004504271421985691
0000d0 17 fa c5 aa cb df d6 3f 10 d4 11 4e a1 8e cc 3f
       0.3574093978603811 0.2231027251433777
0000e0 63 72 48 1c a3 8c a3 bf d8 26 18 01 25 dc d6 3f
       -0.038182351305498206 0.3571865568816128
0000f0 0e 7d 89 3a bb 05 ab bf 73 e0 d0 f1 c3 96 ce bf
       -0.052778101821553944 -0.23897599513452725
000100 4f 37 f2 d5 4c c3 d1 3f 7d 31 6e 79 1f f8 ae bf
       0.27754517453364697 -0.06048677785210808
000110 0e 5f 00 13 a7 f2 8e 3f 87 fd 90 fd 37 54 83 bf
       0.015111260669115303 -0.00943797819684168
000120 6f 52 b2 64 96 0d ca bf ea fe da 8b 37 ff c5 bf
       -0.2035396567995522 -0.1718511040580702
000130 f5 b7 08 97 f7 7f bf bf e5 54 d8 8f b4 bc a0 3f
       -0.12304637372355372 0.03268970733567204
000140 43 44 90 e1 31 80 c6 bf 61 91 2d d6 12 ad 87 3f
       -0.17578719629139714 0.011560580407327494
000150 16 48 d1 7a 61 57 aa bf 89 33 58 1c 01 4d 9e 3f
       -0.051447912447329866 0.02959062324048348
000160 62 0d dc c4 4d 38 bb bf d0 8e 48 ef a4 9f c9 3f
       -0.10632787758009024 0.20018445667039098
000170 ab 6f 0c 1b c0 24 b8 3f 62 40 e8 aa 9e bf 9f 3f
       0.09431076679578491 0.031004409009313234
000180 95 52 26 7d 02 d1 c3 3f 47 ef 48 0f 41 c3 82 3f
       0.1548159705240734 0.009161480215986407
000190 07 94 8f 53 09 5a cb bf e5 7b 1f e3 95 0f 8b 3f
       -0.21368519382591009 0.013213320726149955
0001a0 a5 ed 2b f4 62 f8 bb bf eb fe 2b 57 e6 58 d8 3f
       -0.1092588277933176 0.38042601120831304
0001b0 bd ff 6e 50 4b ec d8 3f 5c c5 9e 7c 05 85 87 3f
       0.3894222531780505 0.01148418699799219
0001c0 e1 e9 26 1f 9e 4c b5 bf 02 e6 39 8c 02 0b b7 3f
       -0.08320034275576617 0.09001174853792551
0001d0 72 12 bd 05 2f ff 6f 3f 9f b2 d4 a5 44 d8 c5 bf
       0.0039058607489173497 -0.1706624803276968
0001e0 a4 39 1c c2 5b b2 d3 3f 04 4a 7c b0 c7 3d aa 3f
       0.30776113468246025 0.05125259427417819
0001f0 83 2a 55 2a bb 82 c5 3f 37 94 80 dc 3d 10 d3 bf
       0.16805209700608623 -0.29786631139205916
000200 ee 82 af a7 4b 2d cf bf 73 86 eb fb 49 5f c5 3f
       -0.24356980979702975 0.16697048950941315
000210 32 44 9f 8f 0a 81 cf bf 61 30 f8 6b d8 81 b3 3f
       -0.24612552655028846 0.07620003353093942
000220 76 99 80 b3 12 de d8 3f 6f d5 40 7b f3 e7 cf bf
       0.3885542633965068 -0.24926608579850604
000230 29 87 29 19 04 41 d8 bf d6 95 5b c2 d0 f6 cd 3f
       -0.37896826226470864 0.23409471025585898
000240 d4 9b 2c 04 15 15 d0 bf 66 ca 5e d1 60 5b d3 bf
       -0.25128674895898695 -0.3024522823936081
000250 3a 56 da 1a d9 6c a9 3f 92 33 5b 51 75 63 d6 3f
       0.04965856983941959 0.34982045121142236
000260 b1 d3 02 c8 a1 7c ad bf b8 5f e6 9f 1e 5f d6 3f
       -0.05759149138012932 0.3495556413195078
000270 98 42 be 8a 57 87 c9 bf 2d 22 38 3e bb 92 c1 bf
       -0.19944280886240473 -0.13729038751650205
000280 64 53 d4 83 2b 2d b7 bf f3 73 14 78 98 b0 8c bf
       -0.0905329892014613 -0.014008704342410616
000290 97 90 ae 21 1a 1d c5 bf 42 8e 94 29 e9 71 d0 3f
       -0.16495062489150733 0.2569525629098487
0002a0 de 4b bc 04 61 fa d2 bf f9 70 7d b6 14 fd c3 3f
       -0.2965319200749813 0.1561609164299467
0002b0 ee 2a 5c 06 07 13 d2 3f 37 c0 68 1e 63 01 d1 3f
       0.2824113428220433 0.2657096669163396
0002c0 b4 f0 1b ef 10 ea d5 3f 8e 68 ce f1 8f b3 c2 bf
       0.342411263947507 -0.14610480601260573
0002d0 58 f5 ad 90 be da c3 bf ae ce bf 6d 99 29 c3 bf
       -0.15511304916791846 -0.1497070108304021
0002e0 7f 36 53 d6 ce 58 75 3f 2e 26 b4 9c 38 73 d5 3f
       0.005211646993485196 0.3351575403508801
0002f0 5c 89 e1 46 ea 22 b7 3f cf be 1b d4 38 11 a7 bf
       0.0903765128182718 -0.04505326832975031
000300 2b 9d 2b ed fd e6 d6 bf ac 68 d8 2f c7 d9 d0 3f
       -0.35784862672012946 0.2632921187629431
000310 4b 8a 3e ee a0 67 aa bf 64 f4 ee 9b 7d a1 c6 bf
       -0.05157187374358737 -0.17680330385147436
000320 dd 4a ec 62 1a b8 b1 bf 95 8f 7a 08 5c 49 d6 3f
       -0.06921543994057396 0.3482275088119818
000330 17 fa 8d 0e 44 11 d5 3f 70 48 9f 30 66 a1 d1 3f
       0.32917882367465395 0.27547602413426997
000340 74 e7 6e 6e 18 b0 c0 bf 4d 52 19 a6 fa fd c4 bf
       -0.13037400619742423 -0.1640008269338459
000350 3d 8e c7 08 21 50 cd 3f 9f a9 3c d8 d9 b1 c3 bf
       0.22900784424483503 -0.15386508043714017
000360 fe d4 c2 77 42 a0 ca bf 5d 5b be 5f 86 e4 d9 3f
       -0.20801573608120089 0.4045730528827585
000370 46 47 2a 24 e9 35 c4 bf 02 78 05 ca 86 d1 c6 bf
       -0.15789522424580066 -0.1782692419464525
000380 20 a8 c3 78 6d 2d b3 3f ba be 32 21 36 ff c9 3f
       0.07491192053171902 0.2031009351826379
000390 41 be dd c8 5d f5 a6 3f 7e 90 91 c8 55 26 da 3f
       0.044840746660039794 0.40858978831079884
0003a0 fd c1 f2 80 16 93 d3 bf e7 6d 60 49 57 26 be 3f
       -0.3058525332699274 0.11777253667280939
0003b0 e7 5e 66 3c 8c 31 c8 3f 8b ae 4a 98 ec 66 ad 3f
       0.1890120787545506 0.05742587431936127
0003c0 ed 42 a6 66 d1 71 c4 3f 89 b2 d0 b7 d1 81 ca bf
       0.1597234488695202 -0.20708676791527506
0003d0 00 3b ac e0 6a fb d2 bf 4f 31 4d 78 01 ff d5 3f
       -0.2965953058309623 0.34368931530186314
0003e0 bd 3a 4c 3e 1e a8 b5 3f 92 30 76 75 26 68 aa bf
       0.08459652920667345 -0.05157585319383985
0003f0 6a 44 6e 52 e8 8a c2 bf a7 a2 6f bf 84 8f b5 bf
       -0.14486412072122629 -0.08422116922123256
000400 0c f6 5c 43 f4 8f c2 3f 20 db c0 3a d2 f2 d0 bf
       0.14501813210692693 -0.26482063043242654
000410 84 9b a0 c2 62 f0 95 3f fd fb be fe cc 11 c3 3f
       0.021424811486351128 0.1489807361485588
000420 88 18 67 13 00 a3 b9 3f 8b 2e cb f7 79 29 d2 3f
       0.10014343713473484 0.28378152083016833
000430 56 e7 0d a7 e9 fb a2 3f a0 4d df de 35 d8 cd bf
       0.03707819141614148 -0.23316071875033817
000440 96 8b d1 d9 86 9b 9e 3f de 2d 32 4e 3e ed cf bf
       0.029890162510479344 -0.24942759340443293
000450 5c 05 a1 2e 99 7a d3 3f ac 49 ac ec ad 2d d3 bf
       0.3043578105317317 -0.2996630488643415
000460 77 1e 5a be f2 37 b7 3f f0 3b 0e 2f 34 bd b4 3f
       0.0906974520422582 0.08101202153032694
000470 07 60 4f f6 6d d2 84 bf 17 03 7a 62 7a b0 bf 3f
       -0.010166987494741887 0.123786591570035
000480 d6 11 b9 5c 17 94 cc 3f e2 34 86 28 3d a6 91 3f
       0.22326938655363787 0.017235713575748053
000490 33 f6 6f 5f 52 8f cd 3f 5b 33 b5 c8 19 8e a2 bf
       0.23093633327509763 -0.036240392446962054
0004a0 b5 e8 b1 be 59 89 d0 bf 78 a8 2a 92 d0 10 c8 bf
       -0.25838321325830843 -0.1880131448463691
0004b0 71 74 da fb e4 53 cf 3f ff 33 a3 fc 8d 14 a9 bf
       0.24474775598074275 -0.04898494442895895
0004c0 dd 26 c5 0b d5 0e d0 3f 1f d4 01 61 d5 ef b8 3f
       0.25090528630663106 0.09740956896151019
0004d0 ce 39 ef 7a da 71 d2 bf de 9f 80 96 a0 21 d2 3f
       -0.28819906239814663 0.2833024472952256
0004e0 69 01 ec 46 8d cd cd 3f 21 e9 5b 3b d6 58 9d 3f
       0.2328354450510333 0.028659198163020542
0004f0 11 7a 91 87 35 98 d1 bf 67 df 35 b8 59 8d d0 bf
       -0.27491510619248155 -0.2586273478441314
000500 b8 07 97 d2 03 ac a2 3f 64 31 67 99 42 56 8b bf
       0.03646861978224031 -0.01334812193535901
000510 c2 49 65 5c 64 43 a7 3f fa c2 0f 9f fd e8 d2 3f
       0.04543603542210263 0.2954706242881425
000520 6c 14 e9 f5 bf ed d1 3f e1 94 c7 96 bf 1c 9e bf
       0.28013609900182845 -0.029406541421754254
000530 82 20 b7 70 b3 a4 cd bf 44 ea 54 48 cd 91 c2 3f
       -0.2315887737624998 0.14507452041455526
000540 d0 18 ec fd 41 11 c8 3f 81 e4 26 4d b0 8f b6 3f
       0.1880266656737093 0.08813001521675014
000550 ee bc 4c 17 05 30 c0 bf da ef cb a8 a5 4a c1 bf
       -0.12646545064624298 -0.13509054891608124
000560 7e cb 78 b8 65 c4 c9 3f 43 0b cc 35 e3 c5 c8 bf
       0.20130607135214612 -0.1935390484505551
000570 8d f0 f7 22 52 f9 d4 3f ce e8 64 e8 b9 5c d6 3f
       0.32771733679670306 0.34940955824607733
000580 b3 db e4 36 9e 9f d6 bf e7 1e 9d c3 1c 82 b2 3f
       -0.35349231110324836 0.07229785705305468
000590 0b 56 16 16 02 1a d0 3f 44 77 08 6f 0c 20 d0 3f
       0.2515874114700131 0.2519560894305537
0005a0 ca 32 91 5d 73 8b c8 bf a7 e2 8c bf 0e 38 d2 3f
       -0.1917556959982874 0.28467148500525713
0005b0 dc 86 85 8a c4 24 79 bf 04 c8 f5 b2 03 40 c8 3f
       -0.0061385800730435446 0.1894535659626514
0005c0 58 ee 33 39 2c 1b c4 3f 0f a6 8c fd b0 48 d9 3f
       0.1570792464552706 0.3950617290562101
0005d0 08 8e 00 9d 5b 2b d5 bf 01 12 81 d6 1b 60 c3 bf
       -0.33077135402911084 -0.1513705060371109
0005e0 bd bc 4f 09 26 8b c8 bf 9f b0 ba b2 cb b1 d2 bf
       -0.19174647764837074 -0.2921017880823999
0005f0 3f 3a f3 f1 ce 6d cc bf c4 cb 2d 87 e3 10 cc bf
       -0.222101085796071 -0.21926540470630418
000600 b1 2d 48 23 44 1a d8 3f e9 5a d4 1a 29 cb c7 3f
       0.3766031593847528 0.18588746843371176
000610 3a 0f ce d0 67 6f 62 bf 44 2f 60 b5 67 d9 d8 3f
       -0.002250387921266664 0.3882693549392011
000620 29 af 90 76 11 e1 cf bf cd 5a 94 ed c2 7c c3 bf
       -0.24905603684725833 -0.15224491692125355
000630 88 d3 ea 5b 1c 2f d4 bf 45 93 33 79 9c 8b d3 3f
       -0.3153754136686122 0.3053961928947511
000640 1f c4 04 f5 56 5e bd 3f c1 30 0a e7 a7 76 d3 bf
       0.11472075921916812 -0.3041171795127973
000650 6e f7 df 01 6c bd d6 3f 94 a8 5f 95 26 ca cb bf
       0.355311395483901 -0.21710665029178655
000660 c1 e7 8e e6 0d c3 b2 3f 98 91 e1 22 2f 74 80 3f
       0.07328879240858922 0.008034103633868736
000670 a3 d6 f5 64 f7 bc 99 bf 37 f9 e9 22 54 32 c2 3f
       -0.025134912049415658 0.14216090874465134
000680 03 cf 39 f9 30 4b b8 3f 72 19 04 60 44 3a 8f 3f
       0.09489732823004364 0.015247854404617487
000690 01 2b f1 27 6e f8 aa bf 79 10 aa 4c 75 4f d0 bf
       -0.0526766227490807 -0.25484974371671104
0006a0 b6 99 e0 ad c1 41 c7 3f 12 bd e2 e9 c0 1a cd 3f
       0.1816942309389568 0.22737895412635872
0006b0 eb 44 21 c9 8a 78 9f bf cc bf 1c ca cf fb a9 bf
       -0.030733269239424137 -0.05074929563704664
0006c0 4c a2 24 f2 a9 88 bf bf 5a 1e b7 42 0b 04 d4 3f
       -0.12317907487580121 0.3127468253628415
0006d0 be 78 24 fc 94 a0 d7 3f 30 21 c7 55 ec 6c c8 bf
       0.3691761457756789 -0.1908240717732581
0006e0 63 2c 46 47 37 33 a6 3f 38 fc c7 00 fb 1f b3 3f
       0.043359496546224084 0.07470673340866163
0006f0 2b d9 e2 ac 2b 86 d3 bf 86 06 b9 25 13 62 c8 3f
       -0.30506412394915355 0.1904930051987785
000700 fd c8 f3 60 9f 17 a2 3f 65 18 49 9f 80 24 b8 bf
       0.03533647593020992 -0.09430698288733337
000710 13 5f bb 7e bc bf d3 3f b7 fc 91 f1 43 81 b7 bf
       0.3085776555649186 -0.09181618354522213
000720 59 44 c9 e0 92 db cd 3f 6a bd 93 53 41 13 b4 bf
       0.23326335883988028 -0.07841881075340998
000730 b2 d8 3f 75 2f 71 d9 3f 1b 17 08 4a 0c 07 d3 3f
       0.3975332875264811 0.2973051760640019
000740 4a e1 9c f6 3c 59 af 3f 4e 9f 95 10 4c d8 9c bf
       0.06122770796213446 -0.028168858062968476
000750 59 06 7d 0b 9d f2 b0 3f c0 f1 dc b1 c2 83 ce 3f
       0.0662019875572012 0.2383960121604911
000760 2a 20 32 6e 8f 8c c3 3f 2e 64 71 6f 23 44 c1 bf
       0.15272705917982538 -0.1348919195322948
000770 b4 0c b1 5c 54 26 cf bf c5 ba a7 59 fe cb c6 3f
       -0.24335722471196208 0.17810038926787378
000780 aa 6b be c4 f4 42 bc bf bb 7d e1 53 7e 79 a4 3f
       -0.11039666941944284 0.03998942159591531
000790 16 d9 56 0e 80 af c2 bf 36 fd 43 54 e5 7a ad 3f
       -0.1459808416381711 0.05757824567444418
0007a0 0f 16 65 61 c5 34 b5 3f 59 6c 4b 6a 5e 31 a2 3f
       0.08283647182278052 0.03553290412465832
0007b0 77 d4 90 d3 39 a7 d0 3f f3 e6 f6 ea fd 85 b1 3f
       0.2602066579887103 0.06845080362736748
0007c0 69 7b bb b8 40 a4 6c bf 03 39 da 1e 45 5f d0 3f
       -0.0034962905973396252 0.2558148194592748
0007d0 7c e9 76 38 17 d5 a4 bf 14 ad fe 4d dd ac c3 3f
       -0.04068825306190413 0.15371290500966295
0007e0 4d e1 96 1a 8a e5 cb 3f de 46 84 22 d1 c9 d2 bf
       0.21794248865422575 -0.29356792803547005
0007f0 c8 9c c1 be 5d da a5 3f 4a 5f d9 6a ea 19 c5 bf
       0.04268162683075044 -0.1648533841823741

fc21.weight f8 [64, 256]
000000 a9 a2 a2 28 34 7c a2 bf e7 69 e4 4b d3 48 95 3f
       -0.03610384937321005 0.02078561926564673
000010 b8 0a 2f 9c b6 cb be bf d0 ff 9d f2 7f c6 a6 3f
       -0.12029591858940136 0.04448318325648837
000020 a6 98 9d 7e f2 b6 9a bf 18 d3 a4 05 ca fa a8 3f
       -0.026088513353351182 0.04878836935896497
000030 f5 39 64 de e0 ce 9b 3f d5 b1 ef b2 41 51 b3 3f
       0.02715636594171574 0.07545862787782849
000040 8b a2 9d 89 50 b9 75 bf f0 a1 43 66 78 94 b0 3f
       -0.005303682899331928 0.06476547714886016
000050 fd 28 5a e7 54 de 96 3f 7e 3d 06 67 54 aa 5a 3f
       0.02233250295697874 0.001627523826844029
000060 f2 69 39 04 68 7e b8 3f bd 4f 35 8d cc a7 a3 bf
       0.0956788072884718 -0.03838957999928947
000070 f9 df a8 44 7d 8a bb bf 00 cd 98 10 4a e0 b3 3f
       -0.10758192945729651 0.07764113335797518
000080 9b 84 d9 ab dc c0 77 3f 31 e1 80 78 da 59 a7 bf
       0.005799161908357632 -0.04560740204800807
000090 2f 7c 4f 97 58 7c 2e 3f 1a 1a 4b be e5 90 a1 bf
       0.00023258763726993886 -0.034308604697390346
0000a0 41 a8 0b c7 9c 9d a3 3f 07 21 93 2e b0 00 56 3f
       0.038311862275648874 0.0013429375197109865
0000b0 70 63 73 a6 35 01 a0 3f d2 29 69 de 6f 7a bc 3f
       0.0312592282950338 0.11124324016524348
0000c0 14 fc 8a 21 5b d4 b6 3f e8 73 13 ef 85 c8 96 3f
       0.08917779511374163 0.022249310223617785
0000d0 9c 71 de f4 b9 f0 a9 bf d2 59 aa d8 ac e3 5b bf
       -0.05066472162363597 -0.0017022312119131422
0000e0 f8 94 82 86 bb 3f c0 3f ff 0c d8 8a b5 b5 64 bf
       0.1269449621951606 -0.0025280519246294593
0000f0 c5 af 92 67 fc 90 8b 3f 9b 06 d4 28 65 ce b0 3f
       0.013460132513806298 0.0656493401220594
000100 d4 34 45 f4 da fe 92 3f d3 85 d5 f2 52 2f 77 3f
       0.018550320777013976 0.005660366075376416
000110 91 fd 48 29 44 9e 6a 3f 32 1e 5f 64 f8 27 a4 3f
       0.0032492953562550182 0.03936744904745772
000120 f0 c9 71 dc 6f 76 a5 3f 1e 69 c7 f5 76 7a a8 bf
       0.0419192272755885 -0.047809331419289544
000130 54 b4 9e 93 7f aa 92 3f 93 4a 6f 22 bd ac ab bf
       0.018228524575239227 -0.05405226750703664
000140 8a 32 b1 65 b2 5d 8e bf 67 91 5e 23 48 0c b3 bf
       -0.014827150085829705 -0.07440615523825543
000150 b6 d7 aa d8 88 d7 91 bf bc 78 3b 9e 08 a0 c0 bf
       -0.01742376158173161 -0.12988383985697805
000160 30 33 00 57 2d 78 5d bf 5f 33 20 8a c0 e5 b1 3f
       -0.0017986719867650429 0.06991198894702454
000170 f1 c8 65 2b 27 38 a9 3f 27 72 40 c4 ba cd b1 bf
       0.049256538436468385 -0.06954543391516009
000180 b9 bb 51 97 5c c7 bf bf a5 32 78 35 c7 30 93 3f
       -0.12413576788252002 0.018740761412163427
000190 6a 7d a3 f2 d8 1c b5 3f 18 14 ce f0 0b 16 9b bf
       0.08247142719073045 -0.026451288769312326
0001a0 06 1e b8 fc a1 1f 90 bf 07 5b 8e 25 0d b0 a9 bf
       -0.015745669412380557 -0.05017129023979377
0001b0 3e 73 3a c6 c5 81 ae bf 7f cb bc 01 29 f5 a0 bf
       -0.059583836028855405 -0.03312042375764345
0001c0 33 97 8e 93 1a 2c 83 bf 9a 8f 09 88 33 99 12 bf
       -0.009361465099413024 -7.094742796592696e-05
0001d0 f3 f5 8e 0f 8f 16 a7 bf 30 14 9d d3 c8 d9 b2 bf
       -0.045093985223029785 -0.07363562742564578
0001e0 83 b2 f7 65 3a 1e 9a 3f 95 e4 2c ff c3 64 a6 3f
       0.025505936120611594 0.04373753061231259
0001f0 b4 1d 69 9e 6d 61 b1 bf 4a de 8e fe f0 6b 83 3f
       -0.06789288632818719 0.009483225601669382
000200 13 7b 5a 0e ac 29 b8 3f 70 6d da e2 76 7f 87 bf
       0.09438586569238465 -0.011473587797175638
000210 09 82 a0 d2 2d 59 b6 bf 0f 92 3f e4 3d b2 86 bf
       -0.08729826347599369 -0.011082156684957515
000220 04 ba ff d6 7e 7a ae bf d0 0d 46 80 9f a9 50 bf
       -0.059528316254603225 -0.0010170037868143418
000230 d0 5d 5a ed 7c 6e ba 3f 9b 5d ef 6c 9c f0 a2 3f
       0.1032484130358775 0.03699196653149813
000240 4d 88 bd 19 bf 21 a8 bf a9 b5 73 b1 fe 7c a6 bf
       -0.047132465259679714 -0.04392238536989208
000250 59 f1 1b f1 e5 cd af 3f b8 0d 6f 0b 3e 4c b9 bf
       0.06211775367953249 -0.0988196161188658
000260 34 3c 4d fc 1f 5a b2 bf 2a fa 2e df 02 3f 9b 3f
       -0.07168769750318021 0.026607556221046526
000270 b9 3a ed c4 0d ee 96 bf 79 52 03 c1 fb 28 ac bf
       -0.022392478126955526 -0.05500017863383717
000280 d4 bf 5e 36 b5 fd b4 3f 77 29 cf 84 3e 65 a0 3f
       0.08199627473254562 0.032022432052673126
000290 9a 2e b1 e8 32 5e 91 3f 9a a1 88 6d f6 64 5f 3f
       0.016960902645492305 0.0019161612054948486
0002a0 10 ba 5f 0c 0c 74 b3 bf 71 6b be 7f 22 b3 95 3f
       -0.07598948766801805 0.021191157385696827
0002b0 f1 dd eb e1 72 6c b9 3f d6 6b bf 46 31 7d 81 3f
       0.09931104674966897 0.008539566966581019
0002c0 27 7a 1f ac 25 07 b2 3f 1d fa 95 50 b8 e6 b0 3f
       0.0704215569707932 0.06602050750186846
0002d0 18 84 5f 37 21 5c a5 bf fc bc 81 97 c6 f4 a0 3f
       -0.04171851921979214 0.03311749076316947
0002e0 b0 5e b9 a5 fd 62 9b 3f c4 41 f1 ed 87 4c a3 bf
       0.026744807472225574 -0.03769325999803955
0002f0 1d e4 28 77 15 0d aa bf 01 b3 66 3c 20 e2 b3 3f
       -0.050881071849694794 0.07766915774000084
000300 d7 f6 6c 86 ab 31 ae bf 5c aa ad f4 2a 41 b6 bf
       -0.05897270217836386 -0.08693188165276794
000310 68 37 32 33 60 bb 72 bf 55 fb 4d 63 83 4f c0 3f
       -0.004573226720038771 0.1274265513311216
000320 6f df 3e 2d 98 38 b2 bf 92 05 dc 0b d8 ed 99 bf
       -0.07117606262806729 -0.025321365093082422
000330 ff 5e 94 ac a5 4c 95 bf f4 2a 7e ab 35 b5 89 bf
       -0.02080019822923784 -0.012552661224409324
000340 d0 80 0d 8f 0e 70 90 bf fa ec 93 e9 d9 dd 8f 3f
       -0.01605246303677249 0.015559866371850795
000350 ce 37 34 96 50 4a b9 bf 2d 92 1e 44 48 ed 8e bf
       -0.09879020373429556 -0.015101017550315532
000360 a5 35 3d 14 d7 59 a1 3f 7b be 74 d1 e2 a2 a6 bf
       0.03388855096873592 -0.044211471622813435
000370 8b 3c 46 ef f4 73 3c bf 3d 93 b3 24 4e f9 87 3f
       -0.00043415765619498535 0.0117059807730101
000380 0f 83 c8 af 7e db ac 3f 05 59 cd 02 4c 96 81 3f
       0.056362112958828196 0.008587449870600236
000390 52 3d be 7c a3 7c 9f bf 8c 7a 10 5c 7d 1a 40 bf
       -0.030748896111217512 -0.0004914390666533471
0003a0 34 ad 5c 78 fa 96 bf 3f 8d a8 65 6d e4 74 93 3f
       0.12339749754453494 0.01900059621531418
0003b0 7d 07 75 08 fa 17 8d 3f 6c e2 a3 ad d3 b3 9c 3f
       0.014205888159839248 0.028029735062747127
0003c0 2a ca b7 4a 74 cd b5 3f af b5 f6 30 fc d1 be 3f
       0.08516623329322984 0.12039161868479796
0003d0 d9 b6 bf 79 d5 04 84 3f fe de 57 c0 61 f0 8a 3f
       0.009774844911557267 0.013153804476118133
0003e0 ff c4 4a 94 7b 40 b5 bf 6c 1c b2 a1 8d 17 96 bf
       -0.08301517839824511 -0.021574223512768873
0003f0 03 9d 39 65 b7 f8 b3 3f 18 1a c6 ab 48 6a b1 3f
       0.07801386090578792 0.06802801316926155
000400 40 60 d6 49 2c 87 91 3f be 6c 82 fd f2 41 a3 3f
       0.017117206579854605 0.037612527318935815
000410 a6 d6 d0 4a 5f af b7 3f 8c 41 ec 82 6d db ab 3f
       0.09251971794659627 0.054408476096912656
000420 7c 92 7a 70 46 8f aa bf 08 e0 3a 4e 12 1b aa bf
       -0.05187435267479132 -0.05098778920131514
000430 9a 51 cd fd f2 8a b3 bf c0 d0 4b 75 dc dc a2 3f
       -0.07633894630754981 0.03684128696286981
000440 64 69 99 22 5f d9 af bf ff ae 6b 99 d1 5f a9 bf
       -0.06220528886179258 -0.04955916402636084
000450 6f 3f 73 ff ea cc b2 3f 76 9c 90 bd d1 ad 87 3f
       0.07343929993225883 0.011562002751885663
000460 b0 18 64 c9 cf db 8a 3f b8 6d bf 9c 41 db 9f 3f
       0.01311456998201907 0.0311098339005704
000470 70 69 eb d1 cf c9 81 3f ee 85 dd fc 18 08 ad 3f
       0.008685706704842672 0.05670240484938548
000480 dd 9a e6 5e f3 b9 a8 bf ec d3 16 8b e5 44 82 3f
       -0.048293691000528695 0.008920472438015602
000490 e2 55 18 c4 c2 f0 99 bf a3 ee b8 b2 01 1b 94 3f
       -0.025332492083256393 0.01963427213034542
0004a0 f9 56 a5 b6 9e e8 b4 3f 8b 55 0a 52 21 b2 a6 bf
       0.08167449912192727 -0.04432777525395711
0004b0 73 57 7e bf 5f a9 7d 3f 23 ac 8d de 1d 97 bf bf
       0.007241605773648507 -0.12339960750038918
0004c0 46 f4 b1 38 cf be bd bf 3a 9b 62 10 fd f3 a7 bf
       -0.11619277128370795 -0.046783359766143964
0004d0 10 83 0f 5a 8f 5a b3 3f 2b 34 86 ea 38 57 84 bf
       0.07560058544869386 -0.009931988389121646
0004e0 63 7d c5 bb 09 e2 af 3f 74 c6 6c 27 43 5b 82 3f
       0.06227140824443713 0.008963131561901629
0004f0 e2 a1 5e 53 ee 4e a0 3f 42 7e 6d 9b fd 12 a0 3f
       0.031852195431671296 0.03139488718329321
000500 bb ab 87 de 27 9d be bf 49 1a 09 e3 ac 58 b4 bf
       -0.11958550627575353 -0.07947807829723631
000510 ec 27 94 32 19 fe a0 bf 14 20 78 27 d5 1c b1 bf
       -0.03318861715713681 -0.06684620107273559
000520 ec 96 4e cb 8b 09 b1 3f 1f e1 7f 52 b2 05 bb bf
       0.06655191148328371 -0.10555567278050092
000530 00 76 d0 23 48 00 b0 3f 24 29 59 bf c9 37 b4 3f
       0.06250429987309047 0.07897625848378148
000540 07 05 46 69 0f 3d a9 bf 22 c7 02 54 80 98 ad 3f
       -0.0492939773566921 0.057804117446165884
000550 51 26 f0 01 a9 dc a4 bf 72 bd 86 47 e8 53 ae 3f
       -0.04074600361498127 0.05923391221164821
000560 a9 2b bd d0 6f 03 a9 bf a3 49 bf 4a 45 1f 87 bf
       -0.04885434554179053 -0.011290112823108716
000570 48 5d f8 cf 55 1d 7f bf 18 96 36 b6 e9 3b ac bf
       -0.007596335606215483 -0.05514459943087163
000580 76 92 29 71 96 f4 a3 3f ee f6 cf c9 6a ce 89 3f
       0.03897543078781933 0.012600740703415405
000590 9f 8a fb 20 28 eb a3 3f f8 78 15 d1 13 6d 95 bf
       0.03890347864741738 -0.020923909794299228
0005a0 30 20 18 56 e1 97 ba bf 46 c6 b4 2e af cc a4 3f
       -0.10388000823888954 0.04062411732810438
0005b0 b1 cc 00 9e 3b 18 ad 3f 57 91 d4 4a ed a2 b9 bf
       0.05682550719975533 -0.10014231755173363
0005c0 89 7e 78 c7 61 85 97 bf 15 f0 8d 3a 54 d7 91 3f
       -0.022969749259685677 0.017422977517966915
0005d0 35 96 4e 8b 61 74 b0 3f 1a 49 ca d8 35 e2 87 bf
       0.06427583361672691 -0.011661930731211845
0005e0 f8 ed 12 a9 42 1c 8c bf 2d 90 64 cb e5 bf b9 bf
       -0.013725777420737537 -0.10058437553067341
0005f0 e7 38 ca 73 55 17 b8 bf ed 03 f8 69 a6 a8 a6 3f
       -0.09410604550268752 0.044255447803159466
000600 34 bc 7a e4 d0 ed 91 3f a4 21 50 60 b8 84 b2 3f
       0.01750875849273488 0.07233764983550955
000610 ae d7 7e 7f d9 0e b0 3f 8d eb 0c e9 5f 80 ad 3f
       0.06272658693964558 0.05762004585127221
000620 b2 4a 46 ee ce b2 b2 3f d7 56 00 c0 aa 43 b7 3f
       0.07304089848757192 0.09087626636059142
000630 21 84 fe c8 05 37 94 bf 6e d0 75 15 ef a3 a8 bf
       -0.019741144554817795 -0.04812571656194185
000640 c0 30 fe e4 ef 28 94 bf 34 a7 09 32 2a a9 c2 bf
       -0.01968741259729323 -0.14578750079390945
000650 f7 68 8a 8d 43 a6 b1 bf 84 b2 a9 a4 b6 f1 82 bf
       -0.06894323545057889 -0.009250094318497
000660 0a 1b af c5 67 d8 aa bf fe 81 cb d2 47 ae 9d 3f
       -0.05243229187140315 0.028985140076544617
000670 eb 96 4e b7 54 80 95 bf 5b 7a 81 0f 3e e3 aa 3f
       -0.02099735611741142 0.05251497210769137
000680 5e 1c 6a ab 26 20 a3 3f 65 9c f8 c1 31 8a 98 bf
       0.037354668068524374 -0.023964669670160883
000690 64 52 e7 c2 87 5d a1 bf 44 49 37 2a 9e 37 69 3f
       -0.033916704694694016 0.0030782784612962983
0006a0 f7 72 90 19 07 b6 b4 bf 0d 79 6e 74 ce 31 c2 bf
       -0.0809025227940302 -0.14214497265943074
0006b0 93 03 ff a1 33 0e 92 bf 53 0c 54 af 31 a3 b2 3f
       -0.017632300150356505 0.07280264406658547
0006c0 7d 99 ed eb a1 f2 8b 3f 87 56 2a 4e 0e 76 a8 3f
       0.01364637852902883 0.04777569488684912
0006d0 d6 48 f9 ff 37 78 9e 3f 93 2c ad 4a 7e 06 95 bf
       0.02975547313537493 -0.020532582576646318
0006e0 7d d0 99 c0 9a 6f bf bf 2b f5 7d fc 8e 6c ba bf
       -0.12279669954460988 -0.10321897186618816
0006f0 66 e4 3f d1 89 6f b3 3f e9 08 47 e2 49 fa 9c 3f
       0.07592069014198585 0.028298525272256212
000700 e5 aa 3c 11 45 ea ad 3f 42 b9 55 7f 95 31 a8 3f
       0.05842796168720613 0.0472532957017955
000710 b0 b1 02 d7 22 ef 91 3f ba 35 c2 30 d8 b0 b2 bf
       0.017513794301224628 -0.07301093283077523
000720 51 be 82 54 a4 bb a0 3f c2 5a b4 24 7a 6b b1 3f
       0.03268159419655759 0.06804622074228475
000730 48 79 9b 3d 77 05 a4 bf 80 e3 0b 9e 92 c5 a2 3f
       -0.039104200621056295 0.036663610260752044
000740 8d 14 5b 46 d5 72 a4 3f d2 00 0a ee cb e6 86 3f
       0.03993860706172212 0.011182397081256932
000750 3c 2d e9 64 d9 fd 7d bf 45 a6 44 10 1b e8 ae 3f
       -0.007322167583491631 0.06036457608781779
000760 c1 50 36 04 a9 c6 b1 bf 60 60 51 79 17 98 90 bf
       -0.06943756440006423 -0.016205183772712295
000770 b0 a8 64 91 29 ec 84 3f 8a 94 a9 18 5f 67 96 bf
       0.010216068982647236 -0.021878705864214733
000780 2c f9 35 39 ba a8 b3 bf 29 2c 48 f7 4d 24 98 3f
       -0.07679332634686337 0.0235759908846768
000790 8b 91 8f 38 8f 12 ad bf 58 60 7a 99 9f 73 a0 3f
       -0.05678222241820937 0.03213213680754795
0007a0 17 cb 4b 5e 52 72 ac bf 1f cc 9a 0a 86 4f 95 3f
       -0.055559705744505354 0.0208111709568578
0007b0 76 1a 98 28 38 5a b1 bf d2 83 9f f8 36 f0 b6 3f
       -0.06778288832729537 0.08960288591289547
0007c0 d3 0b 18 21 45 70 9c bf 21 93 25 43 56 16 a5 bf
       -0.027772026200192656 -0.04118604249632641
0007d0 fd 52 bf 63 ca a3 ba 3f 19 b5 7f c8 d3 4f 94 bf
       0.10406174597967417 -0.019835766899565763
0007e0 7d 2e c9 08 8b 6b 97 3f f8 e1 ed 35 f7 9b ad bf
       0.022871181880232506 -0.05783054860416209
0007f0 2d e4 da 80 6b a9 b0 bf 72 5f 48 d2 4f f8 9f 3f
       -0.06508514304995634 0.031220671853673783

fc21.bias f8 [64]
000000 37 05 f2 4d 0e cd a2 3f 1e bd eb 4f 12 a7 a0 3f
       0.03672070218545758 0.03252465463253372
000010 02 5e c8 02 38 47 a8 bf 6d 26 53 6e f9 c2 b3 3f
       -0.047418356265719566 0.07719382232166945
000020 f4 01 f2 f8 5a c7 81 3f 21 90 60 2e 22 a4 a8 bf
       0.008681021425446446 -0.048127239381102756
000030 e0 01 d0 e8 e8 ce ab 3f a7 4a d9 60 39 f0 9b 3f
       0.05431297151517689 0.02728356984727989
000040 e7 4c f7 11 c5 ef 8d bf c4 dd aa d7 c4 1e 92 bf
       -0.0146174808604997 -0.017695499099060333
000050 c9 7b 9b e7 f1 87 ab 3f f1 43 d2 5e 30 f9 b2 3f
       0.05377155258405925 0.07411482157682749
000060 b2 65 21 d2 11 48 b6 3f 6d c9 d9 58 7e 71 97 3f
       0.08703719501627097 0.0228938810091192
000070 7f 8c b9 93 3f 73 b2 3f f4 8a a5 9a 0a 55 b1 3f
       0.07207105022966863 0.06770387912323966
000080 03 e2 e2 30 51 bf a2 3f 35 46 8c cc 62 39 9e bf
       0.03661588403469198 -0.02951578496419512
000090 ca c3 b2 35 ac 3b a3 3f 40 4a a6 74 9a 19 8d 3f
       0.03756464152809931 0.01420899075018156
0000a0 94 33 bb 3c 9e 99 99 bf 6a 68 5d c7 b6 2f 9a 3f
       -0.025000069100133596 0.025572639387384667
0000b0 0e b3 d7 c7 6f b7 35 3f e7 ff 4f 34 99 0e 96 3f
       0.00033136824626360604 0.021540063684369583
0000c0 1d 24 18 d9 4b 40 a7 bf 12 85 db 91 19 65 98 3f
       -0.045412416697282 0.02382316544288183
0000d0 69 99 ca ce 59 13 a1 3f 70 32 19 35 68 62 a1 bf
       0.03335075997647403 -0.033953911287061156
0000e0 24 0c a0 96 ca 79 a9 3f 92 92 5d c6 30 f6 a2 bf
       0.04975731934248298 -0.037034534658947696
0000f0 14 98 69 75 99 0d aa bf 87 b0 1e 78 6c f4 73 3f
       -0.05088500555284284 0.004871772487529686
000100 b1 2d c8 35 73 02 84 3f 86 db 14 d1 f6 15 a1 bf
       0.009770298079294944 -0.033370697996750784
000110 17 d4 10 41 a7 c3 65 3f 68 4c c9 e4 ea b0 a5 3f
       0.00265677134350507 0.04236539881517204
000120 6e 67 79 ae f0 50 79 3f 0a 09 50 f5 b4 78 af 3f
       0.0061807061789184 0.06146779531992948
000130 43 dd b8 e9 78 f9 a4 3f 15 fa 2a 64 10 ff 9f bf
       0.04096582272580431 -0.03124642955185138
000140 6c ca 29 05 1a 69 b0 3f 1c fd 87 64 97 73 82 bf
       0.06410372377448831 -0.009009535556286745
000150 8b a1 5d 56 47 db 37 bf 8d 8a a2 1c b6 9a 87 3f
       -0.00036402217516819856 0.011525557278507815
000160 e1 d6 9b 86 03 07 aa 3f bd 80 28 e3 db 01 b3 3f
       0.05083476083920658 0.07424711509566158
000170 88 8e ea 53 9b 6d 94 3f bc 55 7f a2 8c 87 9d bf
       0.01994936656650606 -0.028837392252020186
000180 00 00 00 00 a8 df 90 bf d1 f2 45 28 9b b6 a1 bf
       -0.01647818088531494 -0.03459629885307936
000190 00 00 00 00 f1 f6 a8 bf ec 41 c9 33 30 e7 9b bf
       -0.048759013414382935 -0.027249100838448045
0001a0 b5 3e 4d b4 dc 1a 48 bf 07 d5 2d 38 52 d4 a7 3f
       -0.000735624089978479 0.04654175697116086
0001b0 62 ec 75 0c 49 85 b0 3f 56 77 f4 f2 44 6b b5 3f
       0.06453377298559951 0.08366805011288866
0001c0 bc 9d d4 ab 30 33 7e 3f 12 cb ac 6d 9c ad a0 3f
       0.007373037454534378 0.03257454718404608
0001d0 c3 24 bd bf 9f 92 b1 3f 7b 8a b8 a6 49 f4 a8 3f
       0.06864355498432233 0.04873876724402223
0001e0 80 ed fa 9b 92 2a 60 bf 05 9f e5 89 c4 4c b0 bf
       -0.0019734252417415443 -0.0636713825857634
0001f0 c5 16 29 67 01 e9 91 bf 46 26 4d a7 b0 5e b4 3f
       -0.017490407868783437 0.07956985554224003
