weights/model2_smg_w_lims_opp_pen_dgoal_obs_l_saf_1_bn.pth (torch, 555906 bytes, 18 tensors)

fc1.weight f8 [256, 8]
000000 07 72 f6 d1 62 58 cb 3f 31 56 3a 43 c7 ef d2 bf
       0.21363482715686663 -0.29588491025183133
000010 d5 e3 a6 e6 1f 7a c4 bf 43 69 d2 60 01 04 c7 bf
       -0.15997694742489324 -0.17980973460800884
000020 a7 a0 e2 3c 05 64 84 bf 34 3d 6e 09 0d 02 d0 3f
       -0.009956398888178631 0.2501251785369789
000030 d2 92 6c a0 f0 07 cd bf 31 ad 7d a4 b4 4a c2 bf
       -0.22680480797966723 -0.14290483505042453
000040 e6 87 0e 9b 17 f4 bb bf 23 71 36 54 aa d8 c1 bf
       -0.10919330154004533 -0.13942460166880108
000050 92 16 02 d1 e6 80 d0 bf 33 74 b5 bd 45 7c b3 bf
       -0.25786753092720816 -0.07611499673426252
000060 8a f8 9d b7 2b 10 aa bf 8a 82 52 9a 8a 43 cf 3f
       -0.05090462318820339 0.24424870047825592
000070 1b 8c 15 ec 6e 49 8a 3f 13 70 26 f8 36 69 d3 3f
       0.012835375385014605 0.30329679711735585
000080 7a 20 d3 09 ae 3f b7 bf 35 2a 1c af ec 09 d6 bf
       -0.09081542720662297 -0.34435574627483173
000090 6b 26 ef e2 a8 10 bd 3f 9d 69 6d 79 61 e4 c5 3f
       0.11353545704255345 0.17103212765762246
0000a0 7b eb 90 27 1f 3e d6 3f 68 05 a5 bc a5 21 b3 bf
       0.3475416075122479 -0.07473216872769728
0000b0 e3 12 40 cf 34 18 d0 bf d3 60 65 95 f5 75 d6 bf
       -0.25147743453298527 -0.3509496649690053
0000c0 74 bd e6 2e 40 60 d3 3f 58 56 8f 3b 1d 2e c3 bf
       0.30274967746932835 -0.14984479339789192
0000d0 34 85 40 e6 25 36 be 3f 1a 1c 49 19 44 e9 c4 3f
       0.11801373359096062 0.16336871370933254
0000e0 71 17 3f e8 9e 2b d4 3f cf 5b 21 07 bc 47 97 bf
       0.31516239815061114 -0.02273458283920232
0000f0 0b 9a 53 fe f9 a8 ca 3f f2 35 de c8 83 c0 c1 3f
       0.20828175466813578 0.13868758495338757
000100 41 2c be 04 2c 67 b0 3f 53 b8 8d df fc 5c c4 bf
       0.0640742789820914 -0.15908776202872107
000110 ed 35 8a 81 41 3f cd bf 9b 85 63 92 e8 ee d0 3f
       -0.22849291634740557 0.264581816633006
000120 f8 2d 3f 2f ed 70 d3 bf 46 56 0c 56 ac 2a c5 3f
       -0.303767486705254 0.16536478234836433
000130 31 2b f1 e1 a1 ee 81 3f 0e 8b 7f 21 96 b3 cd bf
       0.008755936343865041 -0.2320430434766298
000140 46 53 22 9e 26 00 a4 3f f2 6d b3 75 af f7 cb 3f
       0.039063650897480914 0.2184962582312973
000150 68 d8 9b 09 1d 69 be 3f a3 70 a8 f7 34 b5 d4 3f
       0.11879140362347729 0.3235599916968203
000160 c0 2f 3b ba bf 55 d4 bf ae 68 2c 71 6d 9a cd 3f
       -0.3177336996711766 0.23127525354431583
000170 30 d1 b2 31 d1 c0 d4 3f d8 05 da 80 9e a0 8f bf
       0.32426862576837134 -0.015443075473060938
000180 4a 61 35 28 5a 66 d4 bf ae b6 df 38 ba 39 cf bf
       -0.31874708105671756 -0.2439492013649462
000190 3a 4d 3d 8e da c1 c3 3f fe c6 ae 47 14 c3 c4 bf
       0.15435344643865695 -0.1622033453000355
0001a0 0f 78 92 47 40 09 c1 bf b1 27 81 12 bd 62 89 bf
       -0.13309482092603317 -0.01239536011430062
0001b0 e4 45 92 28 a5 c5 c9 3f 31 d2 15 8c e6 c7 d3 bf
       0.20134415131592143 -0.30907596283148836
0001c0 91 70 78 d4 bf 8f ae bf d7 7f d2 1f 7a dc d5 bf
       -0.05969047039636267 -0.34158185107844247
0001d0 89 b0 54 15 49 da c4 3f 33 92 51 46 e5 86 9b 3f
       0.1629115442423237 0.026881773392590524
0001e0 10 a0 68 33 0a 6c c0 3f 15 40 1f d3 fa 02 ca 3f
       0.12829711446943337 0.20321593579001332
0001f0 e0 a6 fb 2d db 73 d3 bf de 0b 29 f7 dc 84 93 3f
       -0.3039462994625932 0.019061520181150253
000200 ed 7e c3 2d 75 d0 d3 bf 93 42 bc 48 11 28 70 3f
       -0.30959825009448033 0.0039444613610305655
000210 dc d8 91 24 aa 34 d4 3f ed 9f 75 18 cc 22 cb 3f
       0.31571439334164864 0.21199942774114736
000220 a7 2a 27 3c 20 1b 9a bf dc 8f 81 eb af ac d1 3f
       -0.02549410216469519 0.27616498945849144
000230 6f aa fa 16 64 93 c5 3f 0a 23 a9 a8 e0 26 6c 3f
       0.16856051561383675 0.0034365070216931847
000240 eb ad 8a c8 69 c3 d7 3f d4 7d d1 b2 e5 24 bc bf
       0.3713020761885832 -0.10993800750428956
000250 7f 50 2d 27 a8 55 cb 3f c2 fe 2b 7d 36 e9 d2 bf
       0.21355153954448622 -0.2954841825848967
000260 f1 99 44 79 cf 28 99 bf c7 97 d2 46 ee 49 ad bf
       -0.024569741989717234 -0.057204671998348604
000270 0a 08 65 81 25 a1 d6 bf df 70 d6 a6 45 bd b5 bf
       -0.353585602151839 -0.08491931269822171
000280 a3 7b ea e4 a8 d1 d4 bf 88 2e fb 43 6e cd c5 3f
       -0.3252966151721301 0.1703317481936788
000290 a8 7c 63 c9 8d 97 cd 3f a1 c1 5d 26 ba 5d c0 bf
       0.2311875565855861 -0.1278603255591522
0002a0 86 a4 77 cb 82 ef c7 3f 34 6f 9d ed 5a 8c c4 3f
       0.18699679312638667 0.16053330042165614
0002b0 74 57 7c b9 e4 43 ca 3f 1d 8a 8b c7 b9 ea d6 3f
       0.2051969438259068 0.3580765198404679
0002c0 e7 66 40 40 6f 68 cf 3f c0 9b b4 8a 84 1b 97 bf
       0.245374590275609 -0.022565909353172264
0002d0 22 55 6f ec 40 6f c8 3f f9 d5 fe 09 18 d3 be bf
       0.19089519066498278 -0.12040853733090974
0002e0 3e 7a 30 f6 e5 13 b3 bf dc 46 9f ea 80 f5 c7 bf
       -0.07452237377626944 -0.18717967468415153
0002f0 0c b4 4a 22 58 98 ce 3f 2c dc 54 7f 42 2a c6 3f
       0.23902417826084876 0.17316466538770336
000300 95 7b f8 72 ba bc b6 3f 72 31 02 34 aa 3b b4 3f
       0.08881726557636534 0.07903541345348744
000310 76 b5 0f 7c 57 17 d9 3f 7d fe ef c0 74 b1 ba bf
       0.3920496665512795 -0.10427026472461338
000320 01 0d 20 7b b1 eb c7 3f 44 5f f6 d4 f0 ff a1 bf
       0.1868802882382639 -0.0351557979549271
000330 88 8e b2 3d 28 b4 69 3f 08 74 c7 45 a3 2f bd 3f
       0.0031376634556908346 0.11400814488975197
000340 7b 48 08 dc 43 3f b3 bf 26 51 21 b8 9b ae cd 3f
       -0.07518409845241251 0.23189112177591048
000350 f5 a8 4b 6f e8 a7 c0 3f 0b e1 58 e2 7e 55 cc bf
       0.1301241439280784 -0.22135911991222942
000360 09 11 70 31 b0 73 c6 bf 23 0b fc b8 be 3b b3 bf
       -0.17540552534058687 -0.07513038650726549
000370 7a 26 9e 7e d7 7b a7 3f fb d2 40 4e 95 4a ab 3f
       0.045866712766906084 0.053303399851221976
000380 66 8b d4 85 38 7c d0 3f 0f c2 a6 b3 3d be d8 bf
       0.2575818354545646 -0.38661139053422827
000390 e0 ac ea d9 9f c5 b0 3f 18 a5 96 12 27 76 b9 3f
       0.0655155093215174 0.09945911601848356
0003a0 5b de 17 09 db 9f c4 3f 1e ef e2 11 60 7d ce 3f
       0.1611284059906549 0.2382011496864544
0003b0 a8 5a c6 fa 5b e8 d0 3f c4 92 45 51 d7 e8 d3 bf
       0.26418208589295 -0.3110864919347416
0003c0 10 99 f4 99 b7 32 c9 3f e0 54 01 25 17 be a7 bf
       0.19686026589733574 -0.04637214972232484
0003d0 1a 7f 6a ef 35 d3 d9 3f 4d 75 2f 63 31 a9 a4 bf
       0.4035162771269697 -0.0403533395362766
0003e0 ed 26 be 23 41 35 cc bf 95 d8 2e 62 07 d3 90 bf
       -0.22037519688847543 -0.016430011146177554
0003f0 22 7a 8a 1e 13 bc a2 3f 1e 0e 8a 0d f0 d7 d8 3f
       0.03659114597143211 0.38817979166216954
000400 db 63 28 3c d5 c9 73 3f a6 6a 19 f4 80 21 cd 3f
       0.0048311547748420515 0.22758495253477412
000410 01 9c c7 1b aa 88 c1 3f ae b0 fc 7d 57 48 c9 bf
       0.13698316914016576 -0.19752019550049255
000420 d4 52 22 ae 56 c4 a9 bf 3a f6 0e df 2b ca b3 3f
       -0.05032606959972488 0.07730364032519157
000430 64 22 4b 97 56 12 d1 bf 11 30 e5 38 43 d8 ca bf
       -0.26674427771334863 -0.2097248103913221
000440 27 2d 94 40 89 b1 d2 3f c3 dd da 23 c7 77 bc 3f
       0.2920859461452942 0.11120266557087803
000450 09 5a 36 32 e4 c6 a2 3f 29 7b 8b ac ed 42 d0 bf
       0.03667367089217428 -0.25408498621065917
000460 c6 39 c2 6b f6 0c ac 3f e7 b0 b1 97 f9 d2 b4 3f
       0.05478639665044542 0.08134422257871031
000470 8e 2a 33 81 a8 27 d4 bf ca 49 2d 37 66 f6 87 bf
       -0.31492054574179285 -0.011700438078752113
000480 7f b9 7c fd 55 c1 c1 3f 37 b2 9f aa 55 29 ca 3f
       0.13871264340691522 0.20438643294564127
000490 08 73 c1 bd f7 fd cf bf a7 67 09 cf f3 4b a2 3f
       -0.24993798032200965 0.03573572065643243
0004a0 ce f4 14 98 3e 30 ba 3f f5 63 83 5a e9 c8 b8 3f
       0.10229865277229352 0.09681566676898952
0004b0 1f d4 7f 9f fd 15 a6 bf 56 44 3d a8 8e 1f d5 bf
       -0.043136525840886224 -0.3300511019670628
0004c0 00 da df 3c e9 6c 8d bf 61 60 c7 3b 39 dc 7e bf
       -0.014367887659301637 -0.007534240311052627
0004d0 24 c5 d2 58 8c 9e ca bf e5 60 99 95 72 a2 aa 3f
       -0.20796350800586894 0.05202062679444611
0004e0 62 1f 62 4c 35 7d b2 3f a9 33 3c 6c 22 d1 c7 bf
       0.07222302546335649 -0.1860697773448952
0004f0 57 e4 5e b3 fa 85 d5 bf 09 79 86 86 b2 18 b8 bf
       -0.33630244747798116 -0.09412685188587856
000500 ee a2 b8 fb e9 3b 90 3f 55 2c 6a 49 08 32 b4 bf
       0.015853553761334398 -0.07888843338348413
000510 c1 69 c0 d5 73 47 bc bf 02 be 70 86 92 91 d1 bf
       -0.11046527832551246 -0.2745100319761776
000520 d0 81 3b 94 8e f4 d2 3f 69 87 bc ea af d7 b2 3f
       0.29617657161545896 0.07360362511510989
000530 07 16 55 ea ec 32 91 bf 54 bd 41 51 86 2b d5 3f
       -0.01679582767726198 0.3307815354846373
000540 15 b5 1b 5f 2e 8e bd bf f8 7b c8 3a 8b 3d d1 3f
       -0.1154507620046455 0.2693813394598119
000550 65 e9 e9 0a fa 35 c7 3f 27 ae d0 e7 be fb b6 3f
       0.18133473904510847 0.08977883491086712
000560 f7 c4 9c 42 03 47 d3 3f d4 d8 1b ca 61 e0 d2 3f
       0.30120927338710096 0.29494518983063966
000570 ba d7 1b dd 58 6f c2 3f 31 04 98 6a 43 20 cb bf
       0.1440230445511455 -0.21192209915901253
000580 fe a8 58 32 60 25 d7 bf 98 e5 55 57 3a 6b a8 3f
       -0.36165623585351614 0.0476930839167366
000590 1a c9 c3 cf e8 9b c0 3f 8f aa 4f c9 ec a4 c2 bf
       0.1297579779125691 -0.1456581099476648
0005a0 fc bd b5 30 c5 a1 d6 3f 73 ff da 71 30 4f b6 3f
       0.3536236739809906 0.08714583186792683
0005b0 71 ee 34 c2 6a e7 d0 3f 30 be 00 78 85 6b d0 bf
       0.2641245743322776 -0.2565625831511822
0005c0 a5 b4 e6 92 b0 6b c1 3f e6 75 81 54 1d b5 c1 bf
       0.136098930100535 -0.13833967806105746
0005d0 8f 76 2f 07 9f 24 7d 3f 36 c6 05 8d 0b 35 d0 bf
       0.007115002826109453 -0.2532376172231098
0005e0 89 6a b5 30 ba f3 b0 bf 04 fd e5 4e 0b 48 d2 bf
       -0.06621898354698365 -0.28564722733422365
0005f0 00 ec 2a 27 67 0c d8 bf dd 42 b5 b3 2e fe b9 3f
       -0.37575701546637674 0.10153476607707597
000600 e7 2b fa 7e 5d 41 b9 bf 52 bc df 0d 81 e1 d2 bf
       -0.09865364408521736 -0.29501367907409304
000610 62 6e f5 13 5d c0 d7 3f b1 04 73 dd a0 1a ba bf
       0.3711159415158588 -0.10196881681896987
000620 0e 1a 60 52 aa a5 ab 3f 0e 3a 29 74 37 70 d1 bf
       0.053998301082220576 -0.2724741587052514
000630 1e 5e c5 c8 ce b1 b6 3f 48 09 5e 54 7e 67 b4 3f
       0.08865063096651979 0.07970418510197874
000640 07 a1 bf 89 59 81 ce 3f 83 f1 a1 3c fb 28 8b 3f
       0.23832244134906252 0.013261759555682989
000650 31 c7 59 84 0c ae a9 3f 2a 99 07 4e c0 e4 d0 bf
       0.05015601268395498 -0.26396186466299076
000660 85 a9 4e 73 89 33 b2 bf 9d 7a 36 ef ad 96 ba 3f
       -0.07109889092558859 0.1038616856589933
000670 0c 92 62 f3 7b 50 ca bf cf 83 4a 3b 38 57 d8 bf
       -0.20558118232760625 -0.38032346525329513
000680 0a 45 a2 56 9e 82 d2 3f 09 c8 fa 77 aa 11 d1 bf
       0.28922232113207313 -0.266703240554421
000690 2a 8f 6c 4b 24 2f cf bf 8f 9d 92 3f 8a 09 d6 3f
       -0.24362615282836347 0.34433227737687216
0006a0 44 b5 f4 84 0f 60 d0 3f 00 e8 16 a0 8a a7 9c bf
       0.25586307510350914 -0.02798287012203815
0006b0 a0 18 43 45 d9 bb b1 bf 72 10 05 57 18 00 d6 bf
       -0.0692725938889418 -0.343755803089386
0006c0 98 3d bf 0a 15 c6 d5 bf d6 8b 85 d6 c2 77 c7 bf
       -0.34021497773661613 -0.18334231829348252
0006d0 ea a6 6c a9 a4 61 c9 bf 2a 4e ad 49 a8 5f 96 3f
       -0.19829233429600573 0.021849278923879258
0006e0 59 e0 b7 0e 2e 24 c1 bf a1 22 8b f1 00 4e d2 3f
       -0.1339166232935465 0.28601096714241164
0006f0 59 07 a4 41 62 0e c0 3f 02 ef 52 6e ae 4e ab bf
       0.12543895917047612 -0.053334666220932206
000700 36 ff 77 27 66 1b d3 bf 1f 33 79 9e 3b 1a d0 bf
       -0.298547304671945 -0.2516011283485557
000710 cc a2 e8 d6 4b 7e d5 bf 00 dd 36 63 73 40 d7 3f
       -0.33583351123028815 0.363308760537123
000720 79 7e 4c 0c 9a 89 b7 3f d1 78 e5 ed 41 e7 ca 3f
       0.09194338608039655 0.21018241992982792
000730 7d 95 02 5b 8b 70 d6 3f 9d 93 ba 7f 31 4a be 3f
       0.3506191624422497 0.11831960075740118
000740 e5 15 0e 71 1b 72 97 bf ca bf be 87 12 55 bc 3f
       -0.022896221900301845 0.11067310155954072
000750 4f 02 55 fa fd 26 d7 3f aa aa 90 0f 1b c8 d6 3f
       0.36175488897791735 0.3559634830477686
000760 17 83 17 d1 27 fe 9f 3f 22 8e e4 b4 c6 3c b1 3f
       0.031242963921502467 0.06733362118080113
000770 83 4e e7 70 a4 80 b6 bf e0 de 58 af 50 81 c3 bf
       -0.08790042644914746 -0.15238388597366903
000780 11 6f 41 01 d2 30 d0 bf 06 ef 0c 83 9e 8c cb 3f
       -0.2529797565709809 0.2152288570304039
000790 7a d7 a4 19 57 74 cf 3f 57 e0 02 cc bb c8 c3 3f
       0.24573792221206842 0.15456340276228062
0007a0 a8 4e d8 22 91 de c7 bf 18 dd 69 95 d9 53 d1 3f
       -0.18647970391667923 0.27074279395260836
0007b0 77 b4 e4 79 6e a3 b9 3f ba 32 63 4d b3 ea ce 3f
       0.10015001750862661 0.2415374877804391
0007c0 e7 06 a4 6f b8 9e c0 bf ae 94 f8 df b0 d0 cc 3f
       -0.12984376383979354 0.2251187413795938
0007d0 af 4f 1a 56 c0 db d4 bf 01 c8 b1 65 55 dd b6 bf
       -0.32591255577539874 -0.08931478245520454
0007e0 12 0a 41 f1 14 31 d4 bf c3 2a 23 14 30 35 c5 3f
       -0.31549571571318424 0.16568566306371765
0007f0 bf d5 ae b6 9d 7e be 3f 00 41 32 c9 fb 7b 7c 3f
       0.11911950788529334 0.0069541774165744474

fc1.bias f8 [256]
000000 34 5a bf ab 47 ff d2 3f 80 39 a3 d2 43 6a c6 3f
       0.2968310525151623 0.17511794838942407
000010 a4 f3 99 32 31 00 c5 3f 95 5d 57 3d d3 5a a2 3f
       0.1640683648182889 0.03584919093890019
000020 0f 2a 27 ba b1 2a d7 3f 8c 32 d0 8e 2d a5 d4 bf
       0.3619808500194787 -0.32258166262253307
000030 0d 50 30 55 51 d8 b6 bf c8 5f cb f6 81 8d d4 bf
       -0.08923824624827166 -0.3211369428731783
000040 da 39 97 1d e7 d9 c5 bf 3d 9a 41 fc 4b 94 6e 3f
       -0.17071236557826702 0.0037328228082061086
000050 17 10 b3 1d b2 37 a4 bf 99 69 09 ed bf 0b a5 bf
       -0.03948742497007645 -0.04110526817813138
000060 e9 ea 1a 98 9b f5 bd 3f 65 06 ff 55 46 16 ae 3f
       0.11702892745499195 0.05876369285352893
000070 a6 15 69 dd 5f 40 c0 bf 30 43 cd fe 21 b6 ad 3f
       -0.12696455298479953 0.058030187944160594
000080 fb a6 a8 e0 2c e0 91 3f 20 e3 73 c8 46 70 d3 bf
       0.01745672341545566 -0.30372781348664724
000090 7d 90 93 93 00 fb c5 3f 8a 60 5a 99 17 2e b6 3f
       0.17172248083000233 0.08664081090899081
0000a0 5b 79 cb f7 1b a4 c5 3f fe c0 80 0e 24 a5 cb bf
       0.16907071685177297 -0.21597719867850879
0000b0 5b 8b 3e 13 60 e4 c5 3f 04 8b 82 eb 19 77 ba bf
       0.17103196086562886 -0.10337984084848634
0000c0 e5 fe fe 37 ab 7b d9 3f 8b 93 3f 9d a1 f2 d2 bf
       0.39817314594618686 -0.29605903965266894
0000d0 ed 79 b2 a4 a6 87 9b bf 80 fe 1c d8 77 87 d4 bf
       -0.02688465481025475 -0.32076831917581927
0000e0 77 d4 ad ca 14 e3 d2 3f 29 b9 4e 3f 69 e4 d1 bf
       0.29510993759988174 -0.2795661085355215
0000f0 a2 ea 5e 30 7d 4d c9 3f 52 08 dd 1d 97 87 d2 bf
       0.1976772772012128 -0.28952577511166055
000100 ee a3 fa 7a ac 5f c3 3f 3f c4 05 c0 b4 ef c6 3f
       0.15135723118626693 0.17919024826145066
000110 20 d9 a4 62 29 92 d2 3f 48 c1 5f c2 6c 3b c8 bf
       0.29017099984356953 -0.18931350222511356
000120 69 65 94 aa 2a 83 ac 3f 9b 84 64 86 e1 1c d2 3f
       0.05568822223922149 0.28301275371820517
000130 af 6f 50 8e ad 27 be bf ce 43 19 87 b4 c1 c9 bf
       -0.1177929375120914 -0.20122391316047444
000140 54 1a 95 c5 fd 0e c4 3f ed 90 3f 12 dc 7a c7 bf
       0.15670749805049644 -0.18343687907248044
000150 2d 0f ad 46 06 70 6a 3f 70 a3 09 c5 c1 b9 b1 bf
       0.003227245576825319 -0.06924067554940705
000160 d5 19 8b 68 8b cb ce bf 2b 90 97 4e 80 cb cd 3f
       -0.2405866871324195 0.23277286374570968
000170 03 2f 79 0c 92 a4 be bf 32 42 bf 64 d9 d6 d2 bf
       -0.11969864658857081 -0.29436335409721714
000180 68 de 03 47 4c f9 b3 3f d9 db 55 a3 a9 c6 c6 bf
       0.07802273496405976 -0.17793770289765012
000190 d4 0c 74 44 8c 1f d0 3f 6b 07 85 e4 4a 24 bc bf
       0.25192553219694713 -0.10992878035633928
0001a0 4c 1d 69 d5 39 d5 ab 3f e8 d8 d4 63 d8 f6 a8 3f
       0.05436115961179641 0.048758279978231844
0001b0 58 78 6c 38 db de d2 bf 38 0f 93 ec c5 22 d1 3f
       -0.2948520709049993 0.2677473840997098
0001c0 9e 80 21 8f 22 25 89 bf 2b 21 33 9a e8 91 d0 3f
       -0.012277860634810896 0.2589055543762863
0001d0 2c b7 6f d6 01 02 d3 3f 9c 62 4e b6 ff 8a c8 bf
       0.29699750844052875 -0.19174190904302157
0001e0 f0 16 fd d9 c3 5e d2 3f d1 87 77 ff f7 da 77 3f
       0.2870339993281581 0.00582405924021319
0001f0 d3 a8 af a5 18 20 d4 3f a1 8f ad df 45 d9 cd bf
       0.3144590013531687 -0.23319314405227679
000200 1c 3b c1 79 1f ad bf 3f 2b 87 47 92 fa 10 b5 3f
       0.1237353966000509 0.08229032584452216
000210 a8 9b 2b 17 94 b3 d1 bf 47 4b 4c c7 01 b5 d3 3f
       -0.27658560049752134 0.3079227873105776
000220 35 e8 39 ae f8 9a ce 3f c9 e8 ea 9c d9 af c4 3f
       0.2391043520654549 0.1616165176581659
000230 67 94 a8 56 ea 2a d3 bf 4c 32 ae 6a cd 87 cf bf
       -0.29949434721704055 -0.2463318606281909
000240 a2 44 df d7 53 20 bc 3f c9 ec 59 43 b7 e8 d3 3f
       0.1098682786971659 0.3110788495757331
000250 74 62 50 c5 a7 71 ca bf 5b 60 0d 79 34 28 b4 bf
       -0.20659348616097228 -0.07873847918870196
000260 0a 37 d2 9a 4c 63 d5 bf ab c7 db f2 9c b6 cf 3f
       -0.3341857444691959 0.24776040895772886
000270 e8 1a 14 cf 4b 88 b2 bf 72 f2 b8 ee b1 ac b5 3f
       -0.07239221387508687 0.0846663673227768
000280 43 c3 bf e5 a3 c8 d1 bf 86 50 fd 26 14 02 aa bf
       -0.27787110744889193 -0.0507971093744866
000290 88 1c ce 4f ed 63 d3 3f 44 38 81 91 4d 94 d3 3f
       0.30297405999630955 0.305926696867463
0002a0 41 bd 49 ab 88 36 d1 3f 11 9d 97 01 5b d6 be bf
       0.26895348288868 -0.12045830525277192
0002b0 c5 7c 6c ee e9 d3 bb bf 25 8b 4e 4a 7c 2c c2 3f
       -0.10870229788678205 0.1419825899912094
0002c0 66 92 61 5d bc 38 d0 bf a9 ba d8 47 b0 67 c3 3f
       -0.2534628784108349 0.15160182483801535
0002d0 53 4d 7c d8 72 38 c5 bf e0 93 f6 eb 94 17 d3 3f
       -0.16578517504295096 0.2983143143013063
0002e0 14 5b 20 0f aa 02 d0 3f 3d d8 36 40 87 72 d1 3f
       0.2501626155584955 0.2726152541248473
0002f0 29 85 af 07 50 4e d1 3f 17 c4 fe bb 53 c3 c7 bf
       0.27040482283162476 -0.18564840964748505
000300 21 28 c3 c7 2b c6 b4 3f 90 93 22 bc 9c 0a d2 bf
       0.08114884974489246 -0.28189772007527214
000310 02 c7 59 fc 3e c3 ad bf 0d 0c a1 bc f0 40 d5 3f
       -0.05813023405506891 0.33208864613351424
000320 1d 6e 4c 5a ce e2 bf bf f4 75 cc 6d d1 9a a0 3f
       -0.12455453590921946 0.032431168225439594
000330 34 97 2e e9 e8 9a b7 3f 1f 8e b7 ae a9 68 d3 bf
       0.0922074860851268 -0.30326311170776593
000340 c9 20 a4 63 2a b3 82 bf 22 7f b5 b6 fe 9c cb bf
       -0.009130793729596924 -0.2157286064275406
000350 40 c6 72 e0 df 8c cb 3f 17 b0 22 0d 94 1c b4 3f
       0.21523664912597162 0.07856107063952354
000360 3e 3f ce d0 ce d2 bb 3f 8a 68 25 c9 59 d5 c4 bf
       0.1086854228763032 -0.16276094743335917
000370 1e 8f 0d 21 68 3c b5 bf 84 63 9d 33 3c 0d 91 bf
       -0.08295298392254977 -0.016652050638501517
000380 c9 9f 9b 93 50 cc ca 3f b4 6b dd d8 40 d2 ce 3f
       0.209360191415952 0.24079142178638124
000390 7f 79 35 cc ff a3 b0 bf 27 dc e3 76 25 5a bb 3f
       -0.06500242934769139 0.10684427406873508
0003a0 6d a4 c6 e5 10 91 c9 3f 8b 08 41 81 bd 56 d3 3f
       0.19973956317452082 0.30216920492615235
0003b0 4d 9e 69 3f 3e 6e d2 3f 95 81 e4 2f e7 a9 c8 3f
       0.28797870819696386 0.19268503035074205
0003c0 4d d5 7e 09 83 93 c5 bf 51 78 80 99 bf 9b d5 3f
       -0.168564204822966 0.3376311301270834
0003d0 b0 e9 9d 0e c7 e7 b4 3f e8 38 fa 02 0d 63 b9 3f
       0.0816616450009977 0.09916764567080671
0003e0 61 7d 67 eb 57 f4 cc bf 76 fd b4 cb 93 7c 7d bf
       -0.22620676988934021 -0.007198884322235135
0003f0 0a 43 6f 58 df 08 d8 3f 57 26 be e7 88 39 b1 bf
       0.37554153095429454 -0.06728416116507084
000400 98 64 46 38 b5 d6 c6 3f 6e eb 25 de 07 93 d5 bf
       0.1784273648052348 -0.33709904379036615
000410 f5 86 39 ac b1 4e b7 3f 65 47 6f 17 90 2e bd bf
       0.09104452566819161 -0.11399174282203502
000420 fe 3f 9a e5 38 a5 cd bf b8 5e 23 d2 14 1e d3 3f
       -0.2316046830278537 0.298711018765498
000430 b9 23 54 16 b4 18 c1 3f 56 bc fd 5b 95 e1 c5 bf
       0.1335663899447164 -0.17094676009898774
000440 09 dd 35 91 6f d1 ab bf 1d 24 ee b8 49 3e cc bf
       -0.054332243419532196 -0.22065087823674015
000450 11 01 f6 f2 4b 6a c5 bf 96 bc e6 79 4c 8f c5 3f
       -0.1673064171154768 0.16843563034260417
000460 b1 c6 48 87 78 59 ca 3f bc 28 ff 51 7a 1c d5 3f
       0.2058554325645239 0.3298631478070424
000470 f6 d3 e6 4e f7 bf d3 bf 83 8f 29 3d 72 c6 d2 bf
       -0.3085916777156962 -0.2933621976173912
000480 78 12 4b 24 90 14 c4 bf 66 37 2e 5d d2 58 c4 bf
       -0.1568775346005571 -0.15896062421637253
000490 63 f5 e1 ab 9d f4 af bf 40 24 25 5c 59 be ac 3f
       -0.06241314624001395 0.05613974809472966
0004a0 50 5a 01 2c 8e 44 d4 3f 12 a1 f3 01 32 e1 b9 bf
       0.3166842870463471 -0.10109245822571136
0004b0 35 c2 e7 9a 81 b5 d4 bf 37 17 0d 48 f9 cf 9d 3f
       -0.32357826354476354 0.029113669417049706
0004c0 65 f0 fe d3 ae ab c9 3f 00 7c b4 4f d5 02 d3 3f
       0.20055184699401987 0.29704792770093036
0004d0 dc 59 67 c0 61 ea c3 bf 62 a4 da 52 14 6b d3 3f
       -0.155590266177298 0.30341060725419855
0004e0 f8 94 da 55 a0 07 d4 bf a5 cb 26 74 16 e3 bd bf
       -0.31296547302402145 -0.11674633346301151
0004f0 96 ca 19 3c f8 25 ce bf 21 e9 cb d3 8a 65 b7 bf
       -0.23553374228102503 -0.09139316244901298
000500 f2 25 59 55 4b 13 c3 bf db 3f 1f 40 72 80 c5 3f
       -0.1490263144244604 0.16798236971817357
000510 7e 05 bd 10 29 2d d4 3f 67 93 ad 17 1e 43 d7 3f
       0.3152563727818104 0.3634715300780073
000520 8c 7d 7b c7 b4 b7 d0 3f 41 80 36 69 f7 50 d4 bf
       0.26121253472043615 -0.3174417998761819
000530 05 e8 58 4c 8c 09 c8 bf 96 2a 91 18 da 10 ac bf
       -0.1877913830556396 -0.054816070078762255
000540 1d d4 7a 58 32 69 c6 bf 27 13 f8 ff 6b 6f a0 bf
       -0.17508534736921968 -0.032100081440182664
000550 b7 9e d5 a8 9f e1 c2 bf 56 99 92 32 36 3b c4 3f
       -0.14751048797483232 0.15805699796073708
000560 93 69 96 2a 6c 4d d1 3f da bc 5e 40 36 01 c8 bf
       0.2703504959005382 -0.18753698485441
000570 8f 7f 9c c1 11 35 d6 3f cb dd 52 c3 9c 3d a0 bf
       0.34698909671168904 -0.03172006496736975
000580 63 d4 15 e0 73 37 9e bf ee 1c 78 e8 06 05 c6 3f
       -0.029508410026626197 0.17202841139826525
000590 b0 30 a2 68 71 84 c7 bf f8 41 38 28 23 03 b9 bf
       -0.18372933968601535 -0.09770412189414646
0005a0 06 7b 60 a6 f9 b8 c8 bf 53 a8 f6 31 d7 fb bb bf
       -0.19314499496336895 -0.10931153268634945
0005b0 b7 eb 5c a3 fa 47 cc bf 6b e4 90 6e 56 2e d5 bf
       -0.2209466264410744 -0.3309532241579009
0005c0 2d 73 ea 8a 50 78 d4 3f b1 d5 25 f1 29 d2 d0 bf
       0.3198434216117672 -0.2628273825606256
0005d0 6e 93 ee 4c 25 04 ba bf 87 65 2e 0d 2d a5 c8 3f
       -0.10162575844021912 0.19254077094664643
0005e0 9f f7 70 ca 36 10 d3 bf d1 bb 10 0a ad 9b c7 bf
       -0.2978646256414041 -0.1844383525035185
0005f0 d8 63 8d 73 28 07 c2 bf 41 12 cb d5 00 dc b4 3f
       -0.140843445226692 0.08148198337136937
000600 8d 3e a4 f4 ca 11 d4 3f 24 24 4d 37 0b 4d c7 bf
       0.31358598604945415 -0.18203869056949984
000610 72 4e 76 94 7a b9 a4 3f d7 b6 a8 8f 07 6b b7 bf
       0.040477591154879713 -0.09147689111042766
000620 8d 8c 13 95 dc 93 d3 3f 17 17 ef a6 5b a1 73 3f
       0.3058997588943349 0.004792554870567198
000630 20 e8 87 26 fa 8e d4 bf 3f 75 f6 54 38 88 5a bf
       -0.32122663271695906 -0.0016193914524145895
000640 0c 15 26 9a 3a 28 d2 bf d0 a5 46 7b 65 35 b4 bf
       -0.28370537808980667 -0.0789397645918577
000650 06 45 6b ac 4f 6f d7 3f 4d c9 a1 6e 2a 82 ae 3f
       0.36616889798922647 0.05958683586586009
000660 a1 dd 17 3a 3a 64 d3 bf 17 38 ac 59 04 bc c1 bf
       -0.30299239800612027 -0.1385503232817775
000670 6f a0 11 06 e0 1f d3 3f a8 4b 21 a3 b0 d5 c4 bf
       0.29882050125752974 -0.16277130093894
000680 b3 5f 90 87 4f 74 ca bf ef c2 ec 00 23 41 cc bf
       -0.20667451972326276 -0.22073781533392586
000690 e5 ee 6d 03 a7 c3 cd bf 94 00 6f bd 93 5d cb bf
       -0.23253333728268114 -0.2137932467430842
0006a0 09 a6 a6 d4 d3 9d 5e bf 9d 97 30 fd e6 9f d1 3f
       -0.001868683687101915 0.2753846619183323
0006b0 4b 95 fd 77 5e e7 d3 bf 49 ff bb 89 4c 52 d3 bf
       -0.31099664419010215 -0.3018981308996343
0006c0 a2 2f f8 0f d0 ca c6 3f 44 17 7c 39 6f e1 ce bf
       0.1780643537498437 -0.2412547140776785
0006d0 5c f2 97 fd 16 07 cb bf f6 88 c1 c2 b8 8c c1 bf
       -0.21115386373994027 -0.1371069861371052
0006e0 31 1e d1 66 bf d3 d1 bf 60 b3 95 05 87 f5 ce bf
       -0.2785490516730276 -0.24186790249532475
0006f0 55 45 43 d9 69 47 be 3f 49 70 3d 06 75 87 95 bf
       0.11827718309657105 -0.021024540429934544
000700 57 cb ae a1 0a c4 c7 3f 30 31 9c 35 e7 ec cc 3f
       0.18567021269481174 0.2259797107475463
000710 37 3b bb ee 8e e0 b3 bf a6 a9 9c 78 9f a1 c0 3f
       -0.07764523819353718 0.12993234051948582
000720 45 b8 aa c6 58 c0 d2 3f 44 0f 53 18 db 41 ae bf
       0.29298991585790574 -0.059096190184873026
000730 eb 7a 95 3c 58 90 cd 3f 2c 0d c6 b0 70 70 c6 3f
       0.2309675498790605 0.17530640250706975
000740 3d 91 e3 d7 a5 58 c5 3f 6a 08 f5 e3 64 7c c2 bf
       0.16676781693889522 -0.1444212067672795
000750 21 e4 e4 81 27 34 b2 bf 7a 40 d2 99 bb 3c c9 bf
       -0.07110831185572454 -0.19716591845326886
000760 7c 3d b3 07 cb 56 d2 bf 2b 5d ae 57 f8 c2 d8 3f
       -0.2865474295803876 0.3869000297795135
000770 fb ee 44 92 d1 ca c5 bf 12 c3 40 8f cf 4e cf 3f
       -0.1702520336347034 0.24459261412405248
000780 ab 4c 3c 4f 7e 2a be bf 5b 92 39 e2 c8 04 7d bf
       -0.11783589777432961 -0.007084641172330731
000790 d8 4f 81 00 9e 43 bf bf 3b 5a 69 a1 94 15 c5 3f
       -0.12212550651867049 0.16472108727858079
0007a0 71 99 a9 b2 af b7 c0 bf 17 63 58 ab 41 f9 bb 3f
       -0.130605661618755 0.10927210267290054
0007b0 62 dd 7d 2a 8d a0 d6 3f 73 27 c9 cf 99 05 a6 3f
       0.35354928159309484 0.04301148091742748
0007c0 0b 29 49 b1 f6 08 d1 3f 5c 89 81 68 3c 0b bf 3f
       0.2661720973307104 0.12126519729057378
0007d0 6f c0 11 73 8b ae b4 bf 2e c3 77 7d 9f 19 a4 3f
       -0.08078834113416787 0.039257988038917765
0007e0 8a e4 26 de f9 4a 9b bf bf 3a c3 41 5f d4 d5 bf
       -0.026653198417737424 -0.3410871641362227
0007f0 9b 47 c7 46 3c 13 d5 3f 2d ab be 09 34 57 c1 bf
       0.3292990390010517 -0.1354737327177075

fc21.weight f8 [64, 256]
000000 6f 85 d5 aa 90 47 ac 3f e1 3c 4a 4b 09 b3 88 bf
       0.0552334984338455 -0.012060234651725956
000010 27 8d c3 d7 e0 68 67 bf 50 12 3c ea 41 46 84 3f
       -0.002857627054355344 0.009899630509161345
000020 79 d1 1f 03 05 14 b4 bf 22 b7 1f d7 52 44 91 3f
       -0.07843047453190434 0.01686219633113873
000030 49 cf df b4 a2 20 52 3f 2e 8e 22 6b 1c de a3 3f
       0.0011064137393050502 0.03880394752311776
000040 05 f6 7c 06 48 5d 5f 3f f5 c8 40 06 c7 3d 91 3f
       0.0019143298504354933 0.016837224728257067
000050 ff 2d 55 50 f7 cd a0 3f f0 97 04 c5 e7 f0 71 3f
       0.03282139640449699 0.004380135869984855
000060 40 11 3a 66 db 71 72 3f 3f 4b ee d2 53 58 9e 3f
       0.004503113773925371 0.029633817433544648
000070 b5 60 e9 60 e0 e1 a6 bf 8d 8a 37 e4 45 7a ac 3f
       -0.04469205077174491 0.05562036906100785
000080 28 f6 9c d6 be ed a7 bf 82 b5 36 a8 49 6f a8 bf
       -0.04673572892941663 -0.0477240579451559
000090 09 be 63 99 93 cc ac bf 33 80 de 75 12 37 8b bf
       -0.05624829528266779 -0.013288635465699005
0000a0 87 09 a1 3b c6 bd a0 3f dd 46 39 92 41 4a 92 3f
       0.03269786336797425 0.017861389684475582
0000b0 a3 fe 5d ec be 28 81 bf 65 84 4f 5c 4f 11 a4 bf
       -0.00837849768481586 -0.03919456483686971
0000c0 1e 68 f0 f8 12 a1 b4 3f c9 fe c5 b4 95 45 ab 3f
       0.08058279588331671 0.05326526481348776
0000d0 90 f9 5b 27 ac d5 83 bf bf 95 d7 14 f2 23 a6 bf
       -0.009684891654157451 -0.04324299339695469
0000e0 b7 76 5b 71 bd 69 ab bf 62 23 36 6a bb 12 ae 3f
       -0.05354110726123678 0.05873666450049232
0000f0 52 6b 23 a5 e0 ee a5 3f 54 a4 ba ef eb a7 9b bf
       0.04283811584328724 -0.027007757670308344
000100 4b 3d 63 bb cc fa 91 bf 3c 7f 01 93 77 ff 3b 3f
       -0.01755828756068682 0.000427214329652859
000110 7b 85 f5 99 94 77 a8 bf ca fc 11 e3 6a d9 b2 bf
       -0.04778732661612658 -0.0736300281878243
000120 46 ea 24 86 86 6b a9 3f c6 e2 8c e4 85 ac a6 bf
       0.049648479342483884 -0.0442849961750134
000130 b5 b5 da bb 78 e8 ad 3f ba d3 01 6d b3 85 98 3f
       0.058414242679059404 0.023947528389232288
000140 4f cc bf 32 29 31 a3 3f 52 eb 03 ae 82 d0 94 bf
       0.037484443135234906 -0.020326654311229327
000150 3b 8d a8 63 d8 01 96 3f f6 18 08 57 5e 77 a5 3f
       0.021491414148966142 0.04192633449933851
000160 ca 24 6f a9 22 ac ae 3f 25 72 87 1d 30 28 95 3f
       0.05990703886306788 0.020661117365181298
000170 54 3f 6a 34 c7 9c 88 3f 7a 3d 89 9b 11 a5 97 3f
       0.01201778057773565 0.023090624921960658
000180 fd bd 86 a0 94 c3 83 bf 72 07 af 5e 23 7c b9 bf
       -0.009650384091258063 -0.09955044805158567
000190 21 90 5c b6 b8 fc b5 3f 72 57 dc 9c a0 8e 63 3f
       0.08588747455775138 0.002387345978500593
0001a0 b9 9f 09 1d ed f4 72 3f 78 1f 70 12 f7 93 7f bf
       0.004628111099556458 -0.007709469914523363
0001b0 f3 07 86 8a b1 cd 98 bf 9e 11 b7 30 5d 79 ae 3f
       -0.024222158508116775 0.05951968402544881
0001c0 58 c2 77 e8 f0 57 a1 bf e4 de 0a 67 a9 1d b2 bf
       -0.03387406194440662 -0.07076510205922265
0001d0 d3 81 9a d9 87 b1 80 bf da b0 3c d3 9e a2 9c bf
       -0.008151112869485033 -0.027964097636115827
0001e0 9d d6 ad 9a 0a a1 a3 bf 77 44 2f 3c 19 cb ac bf
       -0.03833802354976721 -0.056237019154317495
0001f0 11 c6 03 a6 db af 84 bf 22 2c f9 c6 61 2b 7a bf
       -0.01010104751955779 -0.0063890284942074455
000200 e3 80 dc a9 80 d8 86 bf 30 18 7a ae ca e6 a5 bf
       -0.011155133422619595 -0.042776426123097955
000210 be 47 5e 5f 96 48 a6 bf 7a d1 01 f3 c3 9a 85 3f
       -0.04352254785693742 0.01054909787510704
000220 c6 39 a6 df 19 8e a8 3f 20 9d 05 b3 26 92 9e bf
       0.047959145117704646 -0.029854397465354343
000230 8f 1c 9f 11 ff 1b 7f bf 51 70 34 96 bb 39 93 bf
       -0.00759505878699608 -0.0187749205043562
000240 c3 5e 7d 2c 9c 22 70 3f 3c 27 86 fb c6 52 9c bf
       0.003939256719455111 -0.02765952024632344
000250 19 29 3e a7 07 f8 79 3f 57 51 89 7d 98 16 90 bf
       0.0063400553662041 -0.015711195623525267
000260 05 99 13 b7 44 14 a3 3f 2b e3 5b 40 a6 f2 ac 3f
       0.037264010761463275 0.056538768154444995
000270 66 f6 47 85 dc 2b 78 3f ae c8 99 7c 8f b5 a9 3f
       0.00590120449896645 0.05021332164769042
000280 e1 90 bb 63 3f ac 8f bf 8b ff b9 03 79 e1 7c bf
       -0.01546525500402435 -0.00705096503554604
000290 f0 e4 8e 94 a1 c1 7a 3f 48 33 3a 1d dd db b3 3f
       0.006532317326610512 0.07757360423620441
0002a0 23 2c 8f 61 80 b2 ac bf 24 65 ef 0a 3f 0e 75 bf
       -0.056049358281221616 -0.005140539417845678
0002b0 1e b9 2a 3b 2e 2d 99 bf 7b 60 2a 5e 1c e4 90 bf
       -0.024586412774334147 -0.01649517369023144
0002c0 d2 b2 77 fe b9 e4 b3 bf 76 96 03 4d 05 93 71 bf
       -0.0777088400133821 -0.004290600496664623
0002d0 f8 eb f5 4e fc 2d aa bf 34 42 0c 98 bb 6d 45 bf
       -0.05113209213137532 -0.0006539503084202537
0002e0 b0 c4 17 c6 21 2f a6 3f 34 14 07 9e cf df b5 3f
       0.04332833808064984 0.08544633491608594
0002f0 ce 43 c1 98 6b d1 81 bf 9c 05 83 4c 91 0e b5 3f
       -0.008700218772135584 0.08225353353466008
000300 bb 36 be fd 01 1e a4 3f c2 f4 90 e3 d3 05 8f 3f
       0.03929144117783553 0.015147834188719126
000310 ac a5 09 86 26 f7 7a bf 23 0d 03 b4 3d 23 8d bf
       -0.006583357317688703 -0.014227373176601226
000320 97 96 43 6b 24 e2 72 bf 87 e1 55 36 c2 fb ab 3f
       -0.004610197316855433 0.05465514100336848
000330 f5 1c 72 c1 ef f7 a8 bf 9b bb 7b 62 a9 7f 97 bf
       -0.04876660572431916 -0.022947928081460494
000340 52 01 11 e9 ad 71 92 bf 17 75 6b 3e 2e 1d 8e bf
       -0.01801177725815368 -0.014704095153713
000350 a2 e9 ec a7 41 4b 60 3f 07 67 44 2a 4d 69 b2 3f
       0.001989010080618318 0.0719192722503089
000360 54 a7 03 fe 44 f4 a0 bf 02 a5 4d 43 b3 6a aa 3f
       -0.033113628394700584 0.05159530827115512
000370 c2 e0 0d aa 47 20 75 3f d3 7d df 0f 31 44 a2 3f
       0.00515773767335065 0.03567651098978399
000380 07 f7 89 c2 ab 6e a5 3f 1e b3 ac 4a 08 6c 97 bf
       0.041859977242877426 -0.02287304836061132
000390 ba 90 05 54 f7 2d ac 3f 1d b4 9d 05 b8 ba 9b 3f
       0.05503819370895387 0.027079463331961862
0003a0 fc 69 21 06 a5 ae a9 3f 6f 41 c8 28 ec ce a5 3f
       0.05016055774531833 0.04259431836919957
0003b0 37 dc 85 4a 92 0e 74 3f 13 c2 05 0d 0f bb ac 3f
       0.004896708917264062 0.05611464532819723
0003c0 f9 5e b1 4d 53 1b a9 bf 84 e9 f3 4f 35 f4 a6 bf
       -0.049036601289740696 -0.044831911096440386
0003d0 5c 76 8c be 54 91 a1 3f c8 eb d8 8d fc fb 83 bf
       0.03431191278489784 -0.009757969931447522
0003e0 e3 59 d4 50 da 26 65 3f 6f e2 31 f2 6e dc b7 bf
       0.002582003019266242 -0.09320729649506075
0003f0 ed fb bb 26 ff 80 a3 bf c1 11 4b c9 ec 16 73 3f
       -0.038093541601476356 0.004660534807673534
000400 66 d9 b2 3e 70 c5 94 3f 0c 8c 44 1c 1e c3 6f bf
       0.020284417940922415 -0.003877219018379124
000410 8d 7f 7c 23 22 b9 b0 3f 5a 84 60 8a f1 33 9f bf
       0.06532491079678789 -0.030471586294997223
000420 54 35 ab f7 1f 6a 8e bf d3 7a 26 0c f9 74 a2 3f
       -0.014850854631186884 0.03604868195838198
000430 de 23 32 51 ad ab b1 bf dd 61 87 0d b6 a6 b0 3f
       -0.06902583343811794 0.06504381017965195
000440 9f f9 cd 15 5c 08 92 bf a9 46 66 ac bb 80 92 3f
       -0.017610014754149025 0.0180692028021158
000450 c8 a5 d8 4d 9b eb a6 3f 3e 6b 5d 5b 5a 65 b0 3f
       0.04476628613731354 0.06404652338589487
000460 69 05 65 f0 07 95 ad 3f 88 78 7a 19 67 08 82 3f
       0.057777641387029295 0.008805089440383065
000470 4d 8b 5a ca 9c ae b4 3f 35 b7 d0 2e 2c ad ad bf
       0.0807893747355994 -0.057961827006109
000480 8e 7c ed 95 0c 74 b1 3f 82 70 ec 04 ce d4 a2 bf
       0.06817701969474596 -0.03677982149221838
000490 cc 81 b1 08 06 92 91 bf ad e9 dc c3 44 98 a9 bf
       -0.017158598213770124 -0.04998984232811963
0004a0 f2 b7 f5 47 13 c8 72 bf 3f b1 d1 43 ef 64 8b 3f
       -0.004585337940950384 0.013376111275839818
0004b0 01 8b 8a ae 25 24 9a bf 84 74 28 8e 8a 5a a1 bf
       -0.0255285156041607 -0.03389389977767457
0004c0 89 65 aa 53 d0 02 ad bf f3 b0 92 f2 dc 56 96 bf
       -0.056662092412078265 -0.021815731339914057
0004d0 e9 e7 6f 41 f0 75 b8 bf 51 75 82 06 b7 2b 7b bf
       -0.09554959867082825 -0.006633486693457273
0004e0 01 f2 a1 42 e9 eb a2 bf d0 e2 7f f0 3a f0 a1 bf
       -0.03695610941301553 -0.03503593622003154
0004f0 11 b3 52 e0 43 1e 33 bf 7e 32 95 d0 a7 0d 9d bf
       -0.0002917209352045073 -0.02837240419948949
000500 60 73 88 c9 e2 c8 af 3f 66 00 62 e9 bc ab ab 3f
       0.06207951269263989 0.05404463147078857
000510 72 32 af 78 a6 9e aa 3f d0 75 d0 71 13 03 93 3f
       0.05199165557096287 0.018566421338723604
000520 d0 f0 b0 f9 ab d7 a6 3f 98 3a 14 73 4b d9 af 3f
       0.044614195089225483 0.06220470218442137
000530 04 56 e0 ef 4e 3b a2 3f d2 4f ca 27 4f 17 a3 bf
       0.03560873678376811 -0.03728721008988568
000540 84 07 1b ce b0 f6 71 3f ab cd 1d 4e a0 e5 87 bf
       0.004385653157159445 -0.0116684459532966
000550 c1 83 23 f3 2e ec a1 3f 7e bc 24 6d fb 7f 85 bf
       0.03500506132127824 -0.010498012798590969
000560 97 43 d0 61 b2 c5 a8 3f 42 5d b7 38 7a 0d b2 3f
       0.04838330692303499 0.07051814922975999
000570 4f 08 28 72 1b ae b0 3f cd 21 09 b2 3b 40 66 3f
       0.06515666520138662 0.002716175644568808
000580 70 1a 47 f7 48 f2 a0 bf 77 45 5d 0e 8f 1d 95 bf
       -0.03309848803069293 -0.020620570422868547
000590 0b de c6 26 25 98 a2 bf 4f 52 d9 e2 37 01 53 3f
       -0.03631702516889498 0.0011599584353422403
0005a0 86 ea dd ba 7e 2c 95 3f 1d ac 3b 03 b9 24 ad 3f
       0.020677547603080736 0.05692079700914852
0005b0 7d 07 f8 f9 15 72 88 bf 5c e6 21 c6 82 d5 96 3f
       -0.011936351481384605 0.022298854201358118
0005c0 f1 b6 76 89 35 57 6a bf a1 03 5b 39 da 4f b5 3f
       -0.0032154126781368465 0.08324970150262213
0005d0 0f 6d 05 a8 c6 9c 5b 3f cb cc 8c a9 80 df af bf
       0.0016853275302171654 -0.06225206441595218
0005e0 8f 1b 33 db a7 1c 6d bf 0a a0 c6 a8 f4 e3 b6 bf
       -0.0035537031595568934 -0.08941582794670935
0005f0 8e db 79 e9 7d 2b a2 3f ea e0 3f be cb 56 92 bf
       0.035488066435326635 -0.01790922497454598
000600 e3 c8 06 75 57 61 9e bf 00 03 8b b4 d4 bc 90 bf
       -0.029668203847628482 -0.016345332641097166
000610 b8 c1 68 5a 66 78 95 bf 37 a5 bf 5b 44 19 91 3f
       -0.020967101352825174 0.016697948551074062
000620 23 34 e6 96 c8 69 9a 3f f0 47 e0 98 33 23 90 bf
       0.025794157228620784 -0.015759283262077817
000630 97 40 f1 23 6f 69 a9 3f e8 f7 27 46 6d 14 85 bf
       0.049632523667811394 -0.010292867377753326
000640 58 4f 0c 50 bd bd 79 3f 01 96 69 74 a6 12 86 3f
       0.006284465315520148 0.01077775995981778
000650 c4 c1 7a 7c bc ea b1 3f 7e d2 a6 6c 2f 86 b0 bf
       0.06998804129648933 -0.0645475044501129
000660 25 b5 d4 03 d1 cc 97 bf 64 6c 40 9e 89 9b 96 3f
       -0.023242250307864105 0.022077703746714042
000670 10 15 62 48 1f 73 96 3f 2d ec bc fa 5d 60 af bf
       0.021923531334796797 -0.06128209768072455
000680 09 01 cb 58 96 b5 a9 bf 5b 78 c9 95 94 40 7a 3f
       -0.050213526095378276 0.006409244928901793
000690 3c a3 70 41 f3 82 9a bf b7 b6 77 89 d8 ae b5 3f
       -0.025890160435810147 0.08469918590682367
0006a0 24 ea 55 79 68 eb b4 3f 1e 15 48 30 58 c7 91 3f
       0.08171704256339091 0.017362001368401818
0006b0 23 91 36 fb ce f3 b1 3f 8d 53 2b d1 3e fa ab 3f
       0.07012647278913113 0.05464359572730535
0006c0 64 69 5e 1a d1 43 8f bf fa 35 c2 f3 02 8b a4 bf
       -0.015266069047176152 -0.0401230738217286
0006d0 4b 7b 7e ed e8 54 75 3f ad e3 69 b9 97 27 ac bf
       0.005207929490920925 -0.054989568122386735
0006e0 10 65 2a 53 ec ec 61 bf ca 0c 5e 20 9f e9 9d bf
       -0.00218816907120057 -0.02921150813155008
0006f0 38 3e 3f 15 3e 2b 78 bf d2 cc d2 bf 76 35 71 bf
       -0.005900614272789144 -0.004201377739423156
000700 f4 01 b1 01 df f7 ad bf 91 c1 41 b3 1c 7f 22 bf
       -0.05853173156402028 -0.0001411173376513306
000710 92 29 d9 f0 7b 34 9a 3f 01 3d e5 a5 1c 03 7a bf
       0.025590836119854972 -0.006350623995174277
000720 a3 b1 10 88 80 a0 95 3f bc d4 26 9f 8a fd 76 bf
       0.02112007933117045 -0.005612889758073777
000730 cb 23 34 f9 08 29 a2 3f ba 99 8b 48 16 7c 94 bf
       0.03546932260548593 -0.020004604509176828
000740 a5 27 fa 1c e9 41 99 bf 3e 8e a1 ae 22 63 b5 3f
       -0.024665491479516927 0.08354393733457585
000750 e6 df cd 31 d4 d1 b3 3f 82 ac 8c 3f cf 7e 8e bf
       0.07742048469469828 -0.014890307547452023
000760 30 44 ef 7e 57 94 a0 3f 17 c9 df 71 b4 c3 a2 3f
       0.03238175796980902 0.03664935960832077
000770 53 a1 3a b7 36 ef 97 bf 95 c6 be 6c 19 3b 98 3f
       -0.023373465474521748 0.023662945997506474
000780 ac c3 fb 54 3f 08 9b bf 04 63 6b f1 e3 80 a1 bf
       -0.026398648797968313 -0.03418648073210842
000790 bd c2 ca a5 1b f1 9d bf 3f 3c 24 9d 43 d5 a8 3f
       -0.029240066522734354 0.048502076084439676
0007a0 44 ea 86 aa 58 47 ae 3f 4d 9e c5 69 dc 73 8a bf
       0.05913807946804586 -0.012916299798873565
0007b0 5a 89 2c 1b c6 62 98 3f 76 34 53 6c ac 8f 81 bf
       0.02381429234368091 -0.008574816757027853
0007c0 f0 a3 2d 85 fb cd 9d bf e7 bf b7 e1 d5 07 9f bf
       -0.029106073382909103 -0.030303327466697196
0007d0 4d e0 b8 93 d0 94 73 3f f2 cc 32 71 6a e0 a8 3f
       0.0047805926838507375 0.048587156599205886
0007e0 c2 c0 d9 a5 1c 34 a8 3f 64 c6 0a e7 f3 f2 a6 bf
       0.04727258228820254 -0.04482233233774194
0007f0 5e 54 55 66 30 f6 7d bf 05 23 b0 b6 a4 65 a1 bf
       -0.007314862309916041 -0.033978602696214145

fc21.bias f8 [64]
000000 be 2b 97 8a 2f 8f af 3f 58 59 f9 0d c1 cc 62 3f
       0.061639295261179936 0.002294899997461613
000010 3f c7 92 c5 7b 70 68 3f 73 1b fa 42 12 2d a5 3f
       0.0029833238046074457 0.041359491992856066
000020 d2 f4 82 b1 76 c6 a0 bf 2a 81 09 91 6f e2 a3 bf
       -0.032764157456293255 -0.03883694310639137
000030 b5 c6 b1 45 a4 0b ab 3f 51 6a 41 54 ef 16 86 3f
       0.052823194034215794 0.010785932310843157
000040 f3 7a 99 e5 64 ca a5 bf cc 90 0e fc ed 4b 9f 3f
       -0.042559769656454714 0.030563086041767204
000050 83 74 55 c2 f6 59 82 bf a9 94 6c 4e d9 f1 ab 3f
       -0.008960655027005387 0.05457953531576127
000060 74 6a 42 19 53 d8 a6 3f ff 0a a0 d6 a4 a5 ac 3f
       0.04461917575209365 0.05595126266418581
000070 a6 3c 41 79 96 bf 86 3f 35 1b 5e 16 7b 32 85 3f
       0.011107612204936789 0.010350190754036962
000080 76 7a 9f b2 30 61 7d 3f 66 29 c2 ca 83 57 b3 3f
       0.0071727659469319385 0.07555412006528214
000090 64 3d 91 d2 ca 31 a5 3f d6 58 47 77 d4 f8 a7 bf
       0.041395509914418566 -0.046820296821964355
0000a0 19 28 cc 19 0e 98 6a bf cb 7c 16 74 ad 46 a9 3f
       -0.003246333637780385 0.04936735193336402
0000b0 82 16 83 93 76 46 91 bf d9 a5 67 b0 70 ba a8 bf
       -0.01687035823194672 -0.048297425779150145
0000c0 09 f5 f4 61 4e 94 8d bf 4b 7c 6d c4 c6 a8 81 3f
       -0.01444302784386277 0.008622696752068523
0000d0 cd d6 7c b6 88 d2 a6 3f 00 00 00 00 d0 c7 8f bf
       0.04457499721176603 -0.015517830848693848
0000e0 61 2c 79 09 08 71 a8 3f 3a aa cb 7f 6c 82 a0 bf
       0.04773736110345151 -0.03224505481724234
0000f0 71 6d 72 6e 0a 76 ae 3f ff 0c 6a 45 e1 5d a6 bf
       0.05949432943563238 -0.04368499729482699
000100 be a9 40 4b 0b 86 a4 3f 08 64 ec 2a a0 c6 a9 bf
       0.040085175453288255 -0.050343518485711114
000110 b4 bf 91 1d 73 60 9e 3f 3f d8 aa d7 df 40 84 3f
       0.02966480129219891 0.009889363068719457
000120 2e f9 4c 13 de aa a8 3f 91 b7 f9 f4 60 96 82 bf
       0.048178615432777114 -0.009075887180383354
000130 cf 18 64 db 87 bc 95 3f c9 e4 55 5a 1e 1f 98 3f
       0.02122700001293581 0.023556207908289637
000140 19 08 8c 69 ef 64 a0 bf 00 00 00 80 9c a8 9e bf
       -0.032020074495463464 -0.029940076172351837
000150 99 81 5f 5e 16 e7 83 3f 1c a9 b2 a9 ab 73 88 bf
       0.009718107943570685 -0.011939374080914215
000160 70 b3 d2 9d 4f 5f 86 bf 44 4b a7 9a 20 2b 93 3f
       -0.010923978809239648 0.018719205321598112
000170 41 42 26 3d 15 6f ad 3f bb 43 0a 74 df d5 97 3f
       0.05748812076047161 0.023276797730946912
000180 90 b3 24 fb 5f c5 83 3f 67 62 09 e0 2d bf 83 bf
       0.009653806545054683 -0.009641989135318952
000190 4a 04 26 f5 cc ce a6 bf c7 2e b3 e6 48 cf a2 3f
       -0.044546513486246456 0.03673770729218755
0001a0 0f 27 7d 33 86 0c 97 bf 23 10 ec a9 e2 95 a8 3f
       -0.022508713619834583 0.0480185348915543
0001b0 b9 40 e9 73 c0 39 a0 3f 44 cd 22 e4 62 4c a3 bf
       0.0316906110280128 -0.037692156170488406
0001c0 62 4e ac d4 24 09 a0 3f cf 14 05 b2 f7 4c ac 3f
       0.031319762192791215 0.055274715882242746
0001d0 76 63 4f 98 fa ae b3 3f 2f 55 cc 50 50 c2 a4 bf
       0.07688871592053012 -0.04054499613099904
0001e0 bd 39 cc 11 e0 3c 97 bf 00 00 00 00 f0 0c 65 bf
       -0.02269315823201067 -0.002569645643234253
0001f0 99 63 39 e0 8e a0 93 3f 52 44 b0 88 fa be 93 bf
       0.01916716807895433 -0.019283213227087544
