weights/model_base_single_input_obs_wc_nolim_linp_f_fullsuite_live_0_1_bn.pth (torch, 514688 bytes, 14 tensors)

fc1.weight f8 [256, 53]
-0.30315774133664297 0.5077329385843605 0.1021887309635932 0.10790961629699518 -0.058309612035939616 -0.2226366751637805 -0.030124367557902293 -0.6611154222750029
-0.12107351621848288 0.029089728712508856 -0.038501840084791183 0.004380825906991959 -0.1675539222941989 -0.21202996990023484 -0.017046833410859108 0.008251188322901726
-0.3100792785571215 0.052958747453087686 0.05509393289685249 -0.00023052238975651562 -0.08908418765526956 0.18395698456815004 0.10078347474336624 -0.08324016630649567
-0.20877394000303687 -0.06972313345217324 0.04517776891589165 0.001500131213106215 -0.35684272101384346 0.044666334971253656 0.03406340628862381 -0.05508774518966675
-0.19941772347551523 -0.18482209103826 0.05463004112243652 0.12161000818014145 -0.2126769368932838 0.020195538876600434 -5.2317020163172856e-05 0.1098555251955986
-0.1587854420230979 -0.09881401892529813 0.03653326258063316 0.02180042862892151 -0.2593822014914154 0.046174257784245186 -0.03554524853825569 0.07535576820373535
-0.33191255679589443 -0.16510967357393966 -0.07710842788219452 0.08400648087263107 0.40005483169925715 0.10854512478973778 0.11808601018213259 0.04947876786224518
-0.2975905310219749 0.145375309455058 -0.14878615540443907 -0.013701003507993078 0.1180043387217001 0.03529505830075654 0.06254342136263843 -0.09226316958665848
0.0832381621003151 0.18101034339334843 0.04675173711283804 0.08579839020967484 0.05141206085681915 0.048134144654535506 0.11470570769863032 -0.026338648051023483
0.11914119869470596 0.12380592550899899 0.1251244804223632 0.12718339264392853 0.022229362279176712 0.1911038907971608 -0.017570900129904764 0.13099713623523712
0.09113102406263351 0.18660102065470094 0.05623874161273274 0.045192621648311615 -0.11975456029176712 -0.03732317660186356 -0.07327552324171718 -0.028456414118409157
0.0819467306137085 0.07572463541574823 -0.01917928264531787 0.021795762702822685 -0.10287170112133026 0.10746452983286292 -0.005672152465631867 0.09353199601173401
0.1298113614320755 0.09072907481160065 0.10074374763539219 -0.00023003114620223641 0.10631661862134933 0.1753094571438062 -0.07453866473433651 0.1051454246044159
-0.0396568737924099 0.5835972870218192 -0.08369295517659442 0.02707062521398556 -0.08396618094473153 0.020951077297156336 -0.19509153376377858 -0.11629970950143133
-0.11776312751521828 -0.06922978333440895 0.1013906799747919 -0.007919017902825008 -0.025593683123588562 -0.10974056273698807 0.14925399204039355 -0.11985821964663303
-0.028370054438710213 0.1255568265914917 0.06519838576459643 0.014346245503097363 -0.03849499672651291 0.06662126630544662 0.14782637884163638 0.08560693850887548
0.09065517783164978 -0.06487336754798889 0.13208599915051233 -0.01639317938940833 0.1260719746351242 0.09241771697998047 -0.045517513851883254 0.08306860540470494
0.10288825631141663 0.03552240505814552 0.0318468004956223 0.037310941467241385 0.06281930208206177 -0.11471869796514511 0.009242621858355957 -0.08967673650505677
0.06654029339551926 0.10326490551233292 -0.05649511734700426 -0.06609457807084977 0.01654518023133278 0.04265680909156799 0.013506514628169484 0.03381193889877394
0.031148636713624 0.004983183927834034 0.07179291700267544 -0.10476875771664498 0.06929314881563187 0.0069879330694675446 -0.44434174467879484 0.08653784035100018
-0.13954066869109205 0.08875614220873365 -0.06325770902118802 -0.04186764899541703 0.06856104276661659 -0.08843951740630097 -0.2687282715662252 0.15785756757809238
0.04681502503600036 0.02198140136897564 0.016812792047858238 0.09846484525455508 -0.04117368858278867 -0.03937842324376106 -0.11021804809570312 0.23742283000005804
0.06081725768281425 0.09355895966291428 0.06343641132116318 0.266947953536645 0.07546085168959675 0.05284903198480606 0.1099511906504631 0.08093507452262909
0.04125427087550398 -0.05058877542614937 0.06663835793733597 0.18747980757011518 -0.010365015749435843 -0.03443051129579544 -0.05119781196117401 0.049725605681076875
-0.09881828126151937 0.09869803488254547 0.014376373961567879 0.1681410805727397 0.10954563676778944 -0.0822075605392456 0.036362361162900925 0.2589919851566705
-0.11954382006585457 0.039671529084444046 0.07796341180801392 0.01101505620731415 0.019917604162443807 -0.07370379567146301 -0.10765121877193451 0.23400079323305217
-0.12311182083507413 -0.0560043640434742 0.12568435072898865 0.2777322575945024 -0.07332461103446973 0.033278523049384376 -0.046832968341245534 -0.42013841834339566
-0.1863643244372185 0.03079675613716081 0.08588892215798079 -0.03733034919977155 0.016583521295113566 -0.033882605052155505 -0.06756128370761871 -0.11036147177219391
-0.05628960355766304 -0.052985590541385026 -0.04663460701704025 0.07304230332374573 0.10108289346448882 -0.021822683583918596 0.009750910103321075 0.08682131767272949
0.10486958399764996 0.058407768611912936 -0.04216339439153671 0.013390340842306614 0.115264768156929 0.05319566681118117 -0.11171521246433258 -0.06622490286827087
0.12522380277864467 -0.03231790415546444 -0.11124368757009506 -0.10025077313184738 0.042198343578500865 -0.022865346055461477 -0.11358020454645157 -0.12959405779838562
-0.05220771357067092 0.018251520507979114 0.0029234490357339382 -0.04303321614861488 -0.11578004583366418 -0.02613051558992818 -0.06045474857091904 -0.12265679240226746
00000000: aa7c 24ba ef66 d3bf 3a4c ca25 593f e03f
00000010: e324 8269 0a29 ba3f 8b64 ebf0 f69f bb3f
00000020: fb3e 79e9 c1da adbf 80fb 5bcb 5b7f ccbf
00000030: 283f e515 ecd8 9ebf feac b187 db27 e5bf
00000040: b3f2 9188 acfe bebf ed02 e1a5 b2c9 9d3f
00000050: 0000 0060 83b6 a3bf 0000 0000 a1f1 713f
00000060: 5af9 482c 6872 c5bf d926 3f4d cc23 cbbf
00000070: 0000 00a0 b974 91bf 0000 00c0 ffe5 803f
00000080: b27c 24c2 56d8 d3bf bd3e b2b0 681d ab3f
00000090: 0000 00a0 4535 ac3f 0000 0040 0c37 2ebf
000000a0: b5f2 91a8 38ce b6bf 45a5 4b08 e78b c73f
000000b0: 0000 0020 f2cc b93f 0000 0040 3a4f b5bf
000000c0: 59f9 48be 1ab9 cabf 6ca4 f311 60d9 b1bf
000000d0: 0000 0060 8a21 a73f 0000 00a0 0194 583f
000000e0: ad7c 24da 82d6 d6bf f70f de7f 81de a63f
000000f0: 0000 0040 c270 a13f 0000 0000 7634 acbf
00000100: 58f9 481c 8586 c9bf 7d38 4b12 40a8 c7bf
00000110: 0000 0000 78f8 ab3f 0000 0060 d521 bf3f
00000120: 5bf9 4874 ff38 cbbf 0519 00ac 23ae 943f
00000130: 0000 0020 df6d 0bbf 0000 00e0 7d1f bc3f
00000140: 5af9 48d4 1453 c4bf 9da4 ab23 e04b b9bf
00000150: 0000 00e0 7cb4 a23f 0000 0000 da52 963f
00000160: b57c 24ce b799 d0bf 7b68 33fe 26a4 a73f
00000170: 0000 00a0 fc32 a2bf 0000 0000 844a b33f
00000180: ab7c 242a 0e3e d5bf 576c 2054 5022 c5bf
00000190: 0000 00c0 60bd b3bf 0000 00e0 7281 b53f
000001a0: 7453 b094 7f9a d93f b1b6 1c01 9dc9 bb3f
000001b0: 0fee d87f e23a be3f d522 a1f3 4755 a93f
000001c0: 89ac 9527 b90b d3bf 6eaf e07b a89b c23f
000001d0: 44a2 c7bb 6c0b c3bf bee7 e98f 450f 8cbf
000001e0: e686 9847 8835 be3f 636d 39a2 3112 a23f
000001f0: 661d 557d d802 b03f 0000 0020 8f9e b7bf
00000200: 0000 00a0 184f b53f 4c5b 8ed0 582b c73f
00000210: 9995 dcfb d7ef a73f 0000 0020 e2f6 b53f
00000220: 0000 0080 ae52 aa3f 756d 39e2 09a5 a83f
00000230: 49eb 3a6f 5a5d bd3f 0000 00c0 84f8 9abf
00000240: 0000 00a0 0980 be3f b4b6 1cc1 beb1 bf3f
00000250: cfe8 ab37 1404 c03f 0000 00a0 8b47 c03f
00000260: 0000 0040 4bc3 963f 4b5b 8ea0 1776 c83f
00000270: d348 ad25 1bfe 91bf 0000 00a0 83c4 c03f
00000280: 0000 00e0 5c54 b73f 4b5b 8ed0 8ae2 c73f
00000290: 1961 fd07 53cb ac3f 0000 00c0 7c23 a73f
000002a0: 0000 0020 3ca8 bebf 7e92 c6fd 051c a3bf
000002b0: 7aa3 eb47 2fc2 b2bf 0000 00a0 ad23 9dbf
000002c0: 0000 0000 76fa b43f a6b6 9c90 b062 b33f
000002d0: bfb7 e3de bba3 93bf 0000 00e0 a051 963f
000002e0: 0000 00c0 cc55 babf b0b6 1ca1 cb82 bb3f
000002f0: 51b0 67d5 ae3b 77bf 0000 0080 b6f1 b73f
00000300: 0000 00a0 a89d c03f a9b6 1c49 053a b73f
00000310: 39d8 5e9d 57ca b93f 0000 0080 9026 2ebf
00000320: 0000 00e0 9037 bb3f 4c5b 8e50 8a70 c63f
00000330: c44c 5247 f714 b3bf 0000 0080 cfea ba3f
00000340: 0000 00e0 e74d a4bf 9360 b937 d4ac e23f
00000350: e499 63c9 e66c b5bf eec5 e7e7 66b8 9b3f
00000360: 09ad 20c1 ce7e b5bf efa0 3aff 3274 953f
00000370: def6 9e66 c2f8 c8bf 71cb d758 d1c5 bdbf
00000380: 1440 5a6d b925 bebf 8598 5407 0bb9 b1bf
00000390: 2066 9c56 bdf4 b93f 7fc7 4597 d837 80bf
000003a0: 0000 0000 3b35 9abf 0000 0020 f517 bcbf
000003b0: 1b33 4e3b c11a c33f b900 8a3d 07af bebf
000003c0: 0000 0020 0a0d 9dbf 0000 0000 3f12 c03f
000003d0: 2566 9c66 d7b0 b03f 78ad 0c7a 9061 8d3f
000003e0: 0000 00c0 9db5 a3bf 0000 0060 170e b13f
000003f0: 1b33 4e8b f9eb c23f 49d0 3419 56ea b53f
00000400: 0000 0080 2d35 b73f 0000 0080 8a9b b0bf
00000410: 1833 4eab 31e8 c03f 437d 6ba5 5fc9 90bf
00000420: 0000 0060 2023 c03f 0000 0000 b0a8 b73f
00000430: 9a33 c752 124e a7bf ff9b 89ef fb43 b53f
00000440: 0000 0080 e256 ba3f 0000 0020 fe2f a23f
00000450: 64cc 384d 394e a03f d600 c572 6b1a a33f
00000460: 0000 0000 ed14 b03f 0000 0060 345e bdbf
00000470: 2531 e3b4 cbed 823f 7d50 80fa 0df5 b6bf
00000480: 0000 00e0 c808 b13f 0000 00a0 916f ba3f
00000490: 9b33 c792 edec acbf 13d9 4103 93eb b0bf
000004a0: 0000 0040 38f1 903f 0000 0000 1dd7 a53f
000004b0: 1f31 e3b4 4da9 8b3f 09b5 9167 cc4f a13f
000004c0: 0000 00a0 6de5 9f3f 0000 0040 3f69 743f
000004d0: 2166 9c46 0561 b23f 0219 0914 20d2 babf
000004e0: 0000 0020 32bd b13f 0000 0000 619f 7c3f
000004f0: 0227 695b 1870 dcbf 3e8c 2c0a 5827 b63f
00000500: 40bf 3ef8 77dc c1bf fa0a 1bf8 b8b8 b63f
00000510: 5a44 773f a831 b0bf db35 642e ad6f a5bf
00000520: b257 766c 378d b13f 3920 efe2 f8a3 b6bf
00000530: 85cd 7810 d832 d1bf 2e46 1641 ad34 c43f
00000540: f569 fb92 23f8 a73f 0000 00e0 4a82 963f
00000550: 0000 0060 5f37 913f 3d8c 2cfa fd34 b93f
00000560: 7d68 d6bb b714 a5bf 0000 00a0 6829 a4bf
00000570: 0000 0000 4037 bcbf 3046 160d df63 ce3f
00000580: 3668 8f89 7023 af3f 0000 00e0 7af3 b73f
00000590: 0000 0060 5e3d b03f 1c23 8bde ac15 d13f
000005a0: 8397 2202 6751 b33f 0000 0040 070f ab3f
000005b0: 0000 00e0 c225 bc3f 3b8c 2c3a 29b8 b43f
000005c0: 2713 76a0 471f a53f 0000 00a0 c5e6 a9bf
000005d0: 0000 0020 360f b13f 3846 169d 56ff c73f
000005e0: 4bb0 54dd 403a 85bf 0000 0040 e0a0 a1bf
000005f0: 0000 0080 9936 aabf c118 5974 a275 a93f
00000600: 38e1 43a6 274c b9bf 0000 0040 4644 b93f
00000610: 0000 0040 5c71 8d3f 3846 169d a585 c53f
00000620: 844f 56cf 2e0b bc3f 0000 0000 8e0b b5bf
00000630: 0000 0060 169e a23f 1923 8b1e 5393 d03f
00000640: 442b 9f7d 6c9a bebf 0000 00a0 d34f a43f
00000650: 0000 0000 69f5 b33f 8a62 64d1 0f8f 863f
00000660: be2f f8c9 4765 943f 0000 0080 40de b2bf
00000670: 0000 00c0 078f bbbf 3246 16ed bcf3 cd3f
00000680: f2d6 3c9c 4184 bfbf 0000 00a0 9aac acbf
00000690: 0000 00c0 6c16 c03f 9e68 da84 5dc6 d13f
000006a0: 478d 62d6 66c5 b2bf fe04 50f0 e109 a13f
000006b0: f4ed cca6 7dfa a7bf c9fe a43f 8ce3 dabf
000006c0: 9cab 4c43 c9da c7bf 5d5c ba51 2f89 9f3f
000006d0: fdd8 c1ff d0fc b53f b52c eca9 f61c a3bf
000006e0: 09cb 7546 45fb 903f a75f 3491 0f59 a1bf
000006f0: 0000 0040 b24b b1bf 0000 0040 a640 bcbf
00000700: 871a c5ac fdd1 acbf 69a9 1165 ed20 abbf
00000710: 0000 00c0 7de0 a7bf 0000 0080 e6b2 b23f
00000720: b672 9d89 91e0 b93f 022e 3781 af58 96bf
00000730: 0000 0000 49f8 833f 0000 0000 ec39 b63f
00000740: b572 9da9 bbd8 ba3f 287f 0a80 9fe7 ad3f
00000750: 0000 00c0 7096 a5bf 0000 0020 656c 8b3f
00000760: c172 9de9 fd81 bd3f 1362 7c62 763c ab3f
00000770: 0000 0040 5e99 bcbf 0000 0080 1df4 b0bf
00000780: 65b9 ce64 5507 c03f 2291 d8ea f88b a0bf
00000790: 0000 0060 777a bcbf 0000 00e0 08aa b9bf
000007a0: 95e5 3a73 059b a53f 7068 1466 036a 97bf
000007b0: 0000 00a0 9713 bdbf 0000 00c0 8996 c0bf
000007c0: 651a c52c f8ba aabf ed75 bcce 86b0 923f
000007d0: 0000 00c0 eaf2 673f 0000 0020 7308 a6bf
000007e0: 4f8d 62d6 c2a3 bdbf dfa1 8b37 f5c1 9abf
000007f0: 0000 00c0 ecf3 aebf 0000 0080 6f66 bfbf

fc1.bias f8 [256]
0.1258797664452765 0.039145123532851475 0.03991273389333572 0.13672381111120424 -0.0012027052688235265 0.15459264955374807 -0.09466404553717164 0.10576425402766006
0.08702623176248477 -0.10764070666105353 0.18029043092007432 -0.06705570799580349 0.038444299921179925 0.19366074229047894 0.1426806476474918 -0.1477838042286387
0.20169241736490995 0.15112603635385144 0.06512662426905914 0.13130426775626464 -0.13419253578537488 0.118124189082718 0.025933902377378967 0.12378101686900118
0.0742258747508288 0.10809253685100727 -0.046293913480969694 0.0906910660904426 0.08200805513839893 -0.15220958955984568 0.037599939042888636 0.081202000457363
-0.009683665232810001 0.06522070433149299 0.3014537100979182 0.03187513522694135 0.06106145832895913 -0.042290554263379916 -0.07309534988748032 0.025366628920861164
0.06158979155039657 -0.06113648303399796 0.02499170488306227 0.10706622298629054 0.2067063861710867 0.037806072247939276 -0.002237176838412129 -0.13388509217982109
0.06844400986150735 0.30142191792125844 -0.13506232344625668 0.04313532667058573 0.12008715341357126 0.15365916146642186 0.16871685873031375 0.018216781002656255
-0.049564292622823046 0.04597362378598736 0.12133916645077497 0.010938827826078214 -0.18320260796666837 -0.04805479148397056 -0.02549120672753916 0.11389670722749654
0.03443161257021786 -0.09027832281819292 0.15503271931211746 -0.032034295881509765 0.3866285971206763 -0.09122677625772638 0.09861594420368286 -0.05225156109279039
0.05233008884675436 0.15709028270799558 -0.03579903143910848 0.02414132869045543 0.011332288319159351 0.2583587253190812 0.05650968698328893 0.0987754742668687
0.00959480012216054 0.16971284261985584 -0.0341555807231951 0.16263451593269476 0.1562469983789262 -0.014585899776383967 -0.09371392210451983 0.14504251977387103
0.0890516771059967 0.03521990790378716 -0.09062270502681849 0.03589655232019045 0.12687845095365866 0.10831423930334537 -0.1508916102256645 -0.15023130198825035
0.0065990785623043224 -0.13241872303187682 0.09068229963617887 0.08000781530249251 0.0072160775510052184 0.06468310728478663 0.11437660644129877 0.09597147136420099
0.1269856788412391 -0.026633320550830925 0.0585887954599891 0.1719065295545713 0.06543282556304914 0.03878198786323747 -0.1296374557094546 0.15135860066661558
0.07631091896710156 -0.07636631857518199 0.05762116803277335 0.14999794513814482 0.02048276014217697 0.20399976059063174 0.1426522010223912 0.027984028470803914
-0.02063215499193566 -0.07858358608010327 -0.01928944472905408 -0.049450313233465236 0.17871130317119113 -0.014395038748639528 0.41442683103668343 0.17148442373759415
0.03500139257268538 0.09818599618941876 -0.08247170425799813 0.0039184257503932516 0.02300758606100472 0.1590885608189154 -0.00965765044418044 -0.15660408552445892
0.11214528147294496 0.1826188381387772 -0.13748219557604227 0.4424176213173486 0.20114863001231023 -0.020392418403988623 0.26006671788149666 0.10399365258928696
0.1004338620010114 0.08023817399442981 -0.013230033529411952 -0.071217720862414 -0.14529623536390399 0.17050954679608413 0.016145113390202328 0.3377056030717723
-0.04140219276520207 -0.11528018573639298 -0.1425807353710934 0.05946587992975454 0.25837170986625 0.18949377971484616 0.02723501883572542 0.14940208795856108
0.014592410388321653 0.17928448360378302 0.06696819672695802 -0.034369334117813344 0.2412642992787602 0.129440071240067 -0.04661298340385527 0.5282476656856697
0.09395676158740113 0.15654925670563183 -0.07513418159343697 0.22389234078736536 0.007798205401514055 0.13518174581717401 -0.048471111780815264 0.012299191559866925
0.11928307984304712 0.014885521687280003 -0.042330128730946125 -0.154245435030339 0.224002573589649 0.2300755557379166 0.03785410270032716 0.03948806082268169
0.02669140286134791 -0.09993042379260425 0.0979742749570717 -0.08944991007743848 0.11513947035680992 0.033391831158382394 -0.039450159612820605 -0.05065617834343758
-0.20290758924871577 0.3145532496913475 0.36537042578948764 0.015705948798581063 0.13685958181487104 -0.07523416856054105 0.2506249085028782 0.0044133974324045986
0.08534839110515849 0.1774751962619311 -0.040227958146167225 0.44747105808982024 0.07441492721484877 0.0676640834275071 0.021986055137524822 -0.08425460560744047
0.050499748143168405 -0.07893133978200448 -0.03346504228258121 -0.00018280496716464097 0.27239166861078323 0.12447724632997799 0.16231346360517782 0.16153372473733585
0.0042636034991408505 0.11288609527913837 0.13751374064310856 -0.07106886689498675 -0.09498298110402083 0.07633941473442171 -0.12644751162429252 -0.014623543317016622
0.34053363349176485 -0.03268754822010315 -0.007178112208857511 0.2668845397151127 0.05961427968931922 -0.0286976506608905 0.08223707591643231 -0.08548767482938283
-0.04830266613873751 -0.03957746949435808 -0.03470258883266302 0.1626991697438058 0.035188837897430415 -0.07944235104479923 -0.01868727889719139 -0.08068601990595932
0.47832684738726056 -0.16028397819802692 0.04503837045078659 0.000994848428012176 0.022753194244453004 -0.18279632437922563 -0.007971238227134397 -0.03388367766872571
0.11533309092636032 0.09467627319180427 0.09419301060030551 0.07096126113979927 0.04707141554597169 0.002472246122427455 -0.13570287011996693 0.022292525448713817
00000000: 8227 0e04 d41c c03f 3e32 be62 d40a a43f
00000010: 901a 881d 716f a43f 2c4f a774 2a80 c13f
00000020: aaf8 f6f2 82b4 53bf ec85 0423 b1c9 c33f
00000030: de6f b023 e73b b8bf 8577 22bc 5d13 bb3f
00000040: 8d61 50e3 5947 b63f 99da d362 578e bbbf
00000050: 07af 4ac0 c113 c73f 5623 da18 902a b1bf
00000060: 3017 c2a5 f8ae a33f 750e 540d e0c9 c83f
00000070: 8983 b505 5c43 c23f 1d2e 0567 94ea c2bf
00000080: f87b 37a0 0ed1 c93f 0b61 db13 1958 c33f
00000090: 11a1 5571 23ac b03f 2a50 eb07 94ce c03f
000000a0: 2262 4894 382d c1bf 2d0f fa08 633d be3f
000000b0: af24 46ba 6a8e 9a3f 6d67 51db 1cb0 bf3f
000000c0: 9b61 9288 7700 b33f ff7c b7d6 f3ab bb3f
000000d0: 232a cff8 d5b3 a7bf e5d7 e59a 8737 b73f
000000e0: 08f7 d3da 7afe b43f 0908 a694 9a7b c3bf
000000f0: 54a6 0a99 4c40 a33f ee8a 5580 a7c9 b43f
00000100: e0b7 d78b 07d5 83bf 9237 20d8 4db2 b03f
00000110: 1838 8880 044b d33f a7e8 b50e f051 a03f
00000120: ed4c 238d 7243 af3f 315b fb86 1ba7 a5bf
00000130: c6a3 4179 60b6 b2bf ffdc 7fa6 b5f9 993f
00000140: 11ec f378 b288 af3f fc6b 72f6 474d afbf
00000150: 297e 93ec 6c97 993f 087c 3b26 b168 bb3f
00000160: 3f55 3dd8 5a75 ca3f 2c4c ca47 515b a33f
00000170: 8935 672b b353 62bf 96c9 2a8e 2523 c1bf
00000180: b157 f6ef 8b85 b13f df3d f127 7f4a d33f
00000190: 18cd 0fe3 b849 c1bf 5073 b462 d515 a63f
000001a0: f2bd 941c 08be be3f 0352 9d78 1aab c33f
000001b0: 0de9 4397 8398 c53f 2947 947a 6ba7 923f
000001c0: 8392 baaf 7d60 a9bf 8162 47d5 da89 a73f
000001d0: 4c46 a167 1510 bf3f ee19 289e 1867 863f
000001e0: b61e e1dc 2e73 c7bf 16f4 ad3b a39a a8bf
000001f0: 69e2 ebec 5d1a 9abf fe07 aaa8 5528 bd3f
00000200: ce10 e033 05a1 a13f f0b7 0aec 7a1c b7bf
00000210: f7b3 a0b5 1cd8 c33f 73ac 529a cc66 a0bf
00000220: fe39 15df 85be d83f c2e3 8b54 a35a b7bf
00000230: fc0e 38ff e43e b93f 30f1 1d74 b7c0 aabf
00000240: 7c1d 6368 02cb aa3f b607 60cd 881b c43f
00000250: 34d6 842a 4054 a2bf ef78 d424 81b8 983f
00000260: 8ace c1fd 6135 873f ca6d f808 f388 d03f
00000270: 6d37 0073 d6ee ac3f de82 9f77 5949 b93f
00000280: 4c04 e445 70a6 833f 93b9 6182 26b9 c53f
00000290: 8b30 5d1c d77c a1bf 09dc 9033 35d1 c43f
000002a0: 145d 11d2 e6ff c33f 1ead 2d54 36df 8dbf
000002b0: f369 9eb6 a2fd b7bf 9ba6 7ad7 c090 c23f
000002c0: 47ff d238 17cc b63f e1d3 3a01 5808 a23f
000002d0: 6280 5db2 0c33 b7bf e73c 826c 0861 a23f
000002e0: 97e0 b496 8d3d c03f 8fbd 7f63 7bba bb3f
000002f0: 267b 9491 6a50 c3bf 2601 7080 c73a c3bf
00000300: 60c6 bda9 a207 7b3f 2b66 66c2 18f3 c0bf
00000310: 2d72 4387 f436 b73f 8c0b 2666 647b b43f
00000320: b437 6411 9b8e 7d3f 2e4e 6476 128f b03f
00000330: 70c4 1708 c947 bd3f ddb5 db1a 9691 b83f
00000340: 4f7c d714 1141 c03f 48b2 ffe2 c345 9bbf
00000350: a44b d3c0 59ff ad3f 54ef 337d 0801 c63f
00000360: accf e0a5 34c0 b03f 6ccb 1793 3bdb a33f
00000370: b7eb 4dcc f597 c0bf 8d6c eaf7 b75f c33f
00000380: ab99 4ac5 1c89 b33f e3db cb38 be8c b3bf
00000390: 5923 8490 8580 ad3f c9f2 6af6 2133 c33f
000003a0: dd14 c5c3 6ef9 943f bc75 1006 aa1c ca3f
000003b0: b1fa 0b65 6d42 c23f 77a7 5e5c d8a7 9c3f
000003c0: f0d6 be7b 9820 95bf e668 37cc 0d1e b4bf
000003d0: efbf 13b9 9cc0 93bf 8bb8 3a2c 8d51 a9bf
000003e0: 01dd 4511 03e0 c63f 6a52 3365 257b 8dbf
000003f0: 5ccc 781d f885 da3f caf9 dc9b 33f3 c53f
00000400: 4a0a d4d8 b3eb a13f 3409 8faa b722 b93f
00000410: 222c a298 dd1c b5bf 0126 3267 c40c 703f
00000420: de86 c4f6 4c8f 973f ff45 f192 035d c43f
00000430: c4fa 82e6 63c7 83bf 54af df48 9a0b c4bf
00000440: 25b7 539c 8db5 bc3f af43 b8d8 0d60 c73f
00000450: 2d04 e43e 0499 c1bf 21db aeff 9150 dc3f
00000460: b1df c401 3dbf c93f 9aa2 8608 c0e1 94bf
00000470: c10f 05e0 eea4 d03f 99d1 dcf8 539f ba3f
00000480: ec8f b498 08b6 b93f b263 322d 7d8a b43f
00000490: 6ba3 ab0a 5918 8bbf fbed ff15 533b b2bf
000004a0: 6f58 8f29 1199 c2bf 258e 92bf 41d3 c53f
000004b0: 6728 0138 5888 903f 49a1 37f6 f79c d53f
000004c0: b086 d10f ab32 a5bf 5057 9d93 0083 bdbf
000004d0: 5caf bae5 1540 c2bf a764 0dd3 4f72 ae3f
000004e0: c693 057f 2989 d03f 40d9 5509 5541 c83f
000004f0: 5c50 d22c 7fe3 9b3f ae39 de8c 9b1f c33f
00000500: 60e9 192b a0e2 8d3f 6816 e140 cbf2 c63f
00000510: 237b d0e6 d324 b13f 88e8 0a7c db98 a1bf
00000520: e21c 8ca1 bfe1 ce3f c24d 6204 7e91 c03f
00000530: b7bc 932e a8dd a7bf 89dd 09a6 67e7 e03f
00000540: 6486 41e2 8c0d b83f 1dc4 e158 ce09 c43f
00000550: df6a c164 fe3b b3bf f6d8 c014 81a8 cc3f
00000560: 4a01 acd2 02f1 7f3f 7085 a6ac a24d c13f
00000570: 2979 cc9f 34d1 a8bf 848b 228c 5130 893f
00000580: 025d e4fe 5589 be3f d468 a5e6 4c7c 8e3f
00000590: 43dc 116d 4bac a5bf d69c 817d 50be c3bf
000005a0: bbc8 e4c7 1dac cc3f a86e c0a5 1d73 cd3f
000005b0: bc12 3cea 9c61 a33f 98ba a173 c737 a43f
000005c0: 8fd2 7eb9 fd54 9b3f 448d 104e 0a95 b9bf
000005d0: 2a39 ca92 d714 b93f 45a9 6976 30e6 b6bf
000005e0: 5748 a9c3 c779 bd3f afbf 8eed bb18 a13f
000005f0: afd4 b7b2 cf32 a4bf dc9b a64a 9bef a9bf
00000600: d07a f739 e0f8 c9bf 4d97 11f4 a321 d43f
00000610: a040 6ca3 3a62 d73f 712d c561 3815 903f
00000620: 7901 0562 9d84 c13f dc5f 82e5 8b42 b3bf
00000630: 7c4d 650e 3d0a d03f 41cf 2e5a c813 723f
00000640: 7218 9064 64d9 b53f 14e9 e5d9 81b7 c63f
00000650: 54cb 3e49 c298 a4bf 30bf 19a6 5da3 dc3f
00000660: b8d4 b84e db0c b33f 7259 6ff1 6e52 b13f
00000670: fe87 222f 8383 963f d00f 9fb7 b591 b5bf
00000680: a458 765d 1adb a93f 9640 fe22 d834 b4bf
00000690: 546d 537c 5422 a1bf e484 06b6 eaf5 27bf
000006a0: 3cb7 1877 dd6e d13f 2559 15a6 bddd bf3f
000006b0: ab3e f104 b0c6 c43f 9055 7918 23ad c43f
000006c0: 4782 7859 b676 713f 5ea4 6567 1ae6 bc3f
000006d0: 1609 68dd 0c9a c13f 1be7 13bb 9131 b2bf
000006e0: f1b2 84fd cd50 b8bf 761c aed9 fa8a b33f
000006f0: 1220 8b9b 6e2f c0bf 2fc4 62c2 f2f2 8dbf
00000700: 6540 c294 4dcb d53f f5fb 2e1d 6cbc a0bf
00000710: 4bea f1d2 cb66 7dbf 609a 78e4 a214 d13f
00000720: 52cb 474b c385 ae3f c802 3ebc ea62 9dbf
00000730: 3c6a 942f 7d0d b53f aa70 9a2f 85e2 b5bf
00000740: 773f c086 20bb a8bf 47fe 4582 7f43 a4bf
00000750: 97e2 3ea8 89c4 a1bf 6768 918e 53d3 c43f
00000760: 8d4c e877 4504 a23f 9f9e a77b 5556 b4bf
00000770: ebd1 db0e c222 93bf 6d91 bdc8 d6a7 b4bf
00000780: abee 9435 e89c de3f 7676 3776 2f84 c4bf
00000790: 1b72 4df0 440f a73f 0a57 9e5d b24c 503f
000007a0: c449 a304 9d4c 973f 07d6 84b5 de65 c7bf
000007b0: f60d f47b 3953 80bf e327 e98e 3359 a1bf
000007c0: 3ee1 ac2d 7886 bd3f d0e2 1049 b43c b83f
000007d0: 9143 0a7c 081d b83f c7db e067 842a b23f
000007e0: fc57 b19c be19 a83f e1a8 ca07 ad40 643f
000007f0: 6fbd 912e b65e c1bf b669 fd0e dad3 963f

fc21.weight f8 [64, 256]
-0.05132190203863333 0.09406553766836855 -0.002280163814644071 -0.0022294063825278694 0.5152044426402655 0.05365179116840138 0.19696122619124307 0.3219431882902494
0.013875507187004725 0.08245649666999179 -0.07845267281747298 0.051988504605334974 -0.08138255202314422 0.09787687042413992 0.33558289551490006 0.13981736013539553
-0.1850162843498766 0.04864752266833299 -0.02730801756537405 -0.1361336415979791 0.12777968202133722 0.17573400902462563 -0.178115720028364 0.17321599577781038
-0.1667075490642674 -0.0688040585657391 -0.014135232329349016 0.029846368429336332 -0.12086591557649214 -0.01986404281153202 0.14546010412039573 0.39006778183308133
-0.012564077575940425 0.10019444211543967 -0.16875498682402715 0.02832301559047811 0.23221208847057076 0.19825166726449353 0.031242859062317035 -0.011940217019788323
0.10101859425773274 -0.06969184144437299 -0.1404419091465389 0.07623433941106808 0.10069569223156452 -0.05101821349196806 0.43974658516256254 -0.10901709470332187
0.04535961360929301 0.2131581262453845 -0.054690818818378124 0.18905231688306667 0.14223125474476545 0.20226872262268664 0.15322241824200267 -0.05558026280286346
0.3742092272738537 -0.19835709962478884 -0.03434440554296058 -0.04835057106455923 0.493337458305097 -0.03460429534928784 0.26765697515547976 0.036289982940158734
0.08403164534587636 -0.19449116613891984 0.05488824795000411 0.07711583842482315 -0.10239304277209696 0.12809293291136495 0.254125691210199 -0.0371034144463868
0.17380602725084413 0.08570370432029095 0.000970279936264027 -0.14655100233683946 0.003369270499607052 0.12493656835853882 0.13556242447146755 0.19575275301191475
-0.0707832990534766 -0.04427399359835221 0.45467502573288293 0.18688625341825954 -0.13825364223258188 -0.04315476869140098 0.3617172606484683 -0.11185043304582823
0.04327066914619024 -0.08112473298967511 0.17500286282508226 0.08152202847667474 0.08829264749677113 -0.21346395098985127 -0.07183978825739448 0.05122711328319717
0.08156251487551326 -0.034416200231625574 -0.1146299461924627 0.12089257417311815 0.21911375204162148 0.025529879956056434 0.08670549986787104 -0.027271440926279526
-0.18258324325989672 0.04782153705270206 0.11791268542888445 0.059734170567599006 0.17546205963510456 0.34818570191474835 0.26477579478611013 0.08416364689370125
0.1112722736322719 0.06767320117788563 -0.07368792824257622 -0.14421138393073513 0.054941262302701264 0.04440043607074948 0.06124351291113515 -0.20670979104717313
0.5262378282327417 0.1410271507527063 0.025823909839118826 0.21872507414974965 0.13401858725281707 0.09825591313287647 -0.13005494459437658 0.2055726331636533
-0.048920689599151225 -0.07977670617215403 0.1763796162253594 -0.09438841235886919 0.16450035661304066 0.12926635057785146 0.11343378390934714 0.4116029665708639
0.1657944655280076 0.2684365057378128 0.25286721219862474 -0.07605746793693063 0.39448210235771136 -0.04162235011041045 0.12802869578783738 0.14508340646806311
0.13117547776142616 0.20729466398937943 0.12893288299453365 0.084873372622849 0.15459214208397193 0.17214626293328086 0.3185905752864433 0.027557422195245394
0.23920800262803732 0.23633277301801622 0.45568646365004184 -0.09746170574970427 0.21129029566866184 0.19366104294003647 0.05254059275875021 0.06881104095189398
0.11695777239938486 0.14521230362028442 -0.1262756705639587 0.44995211016357073 -0.16453775523474848 0.04907358166838144 0.4792490640889004 -0.1083263563451889
0.33414045405096743 0.13393003522858343 0.3460358934459993 -0.09017550515438537 0.1802074693231674 0.0757253249358921 0.07004500366847206 -0.057802901209105195
0.08845231475344666 0.13332389866887714 0.07022637869618735 -0.1778245996585998 0.45576426007902865 -0.06340689505658288 0.016028839405491713 -0.06389467960873518
-0.14577841467111205 0.08737089160457985 0.07995550222566011 0.45076013973540063 0.011960106973068143 0.17384764440396472 -0.0023635061540533803 -0.26175290964056924
0.5621275285199613 -0.04641950084040852 0.03763618923384871 0.026787412659487995 0.16107404757894822 -0.0964750253575424 -0.060883887080236176 -0.06644655240152124
0.48758155307340967 0.123613842901923 0.14925085894321968 -0.04662646042659709 0.10135246580961561 0.0655002706692308 0.046063341506838724 -0.07118941469407988
0.13351758916879053 -0.13145631932899265 0.3547158177385276 0.20138937343417979 0.05364242576295474 -0.20109598915693125 -0.007144038398021056 0.22931787383260527
0.228963671772761 0.1397806083586415 0.08861190642246318 -0.08866969327611211 0.07704484342678788 -0.07531236145171864 0.21497127035260097 0.14349968931186388
-0.06173440337510697 -0.03990017983024452 0.149546131167091 -0.07948193699528036 0.19088208369940038 0.2302041318654651 -0.05207003449452956 0.2631039667185686
-0.0398140636445894 0.07929342352046453 -0.20478962568071682 0.17346247632364145 0.17240490528584065 0.09858952897336014 -0.1554297862204442 0.11706928565966775
-0.25883618781259476 0.5266341276767095 0.05614482736196744 0.4045991992438483 0.1754054943483643 0.5013618127479992 0.22341557929557723 0.17308278189404663
0.0946184395298819 0.07149640630674255 -0.09877021770237801 0.2804534146335361 -0.18396744793018055 0.0638396325523515 -0.12050791531270694 0.02678289657606332
00000000: c51d a645 dd46 aabf 5f5f f7d7 ad14 b83f
00000010: 74ed 6da0 d9ad 62bf d613 1470 6743 62bf
00000020: 689a fc06 8e7c e03f 8455 e160 3f78 ab3f
00000030: 3225 8984 0636 c93f 131a 389a b79a d43f
00000040: 8f35 ab0c c36a 8c3f 3954 8a74 de1b b53f
00000050: ecea 0870 7915 b4bf fd80 18be 3c9e aa3f
00000060: 4588 67a7 7cd5 b4bf aeaa 8165 750e b93f
00000070: c057 55ae 307a d53f eee7 9806 89e5 c13f
00000080: d04c 4115 9dae c7bf 47a8 c8fd 53e8 a83f
00000090: 628f 7209 a2f6 9bbf fb3b 46c1 d36c c1bf
000000a0: 76fd afa9 155b c03f 5b22 c7b6 737e c63f
000000b0: be70 36f4 7ecc c6bf 2240 8116 f12b c63f
000000c0: 9b19 9d47 ac56 c5bf 0636 5f8d 249d b1bf
000000d0: cf79 9bc4 eef2 8cbf 69c4 3be1 0b90 9e3f
000000e0: 3d25 9a92 11f1 bebf ccad f758 3d57 94bf
000000f0: fef0 08cb 6f9e c23f f490 8cdb def6 d83f
00000100: a735 58f2 31bb 89bf 8d74 20cc 57a6 b93f
00000110: 0d1a b96e c399 c5bf 7ea5 bd66 b500 9d3f
00000120: 59c5 db2e 20b9 cd3f 05a5 a385 4f60 c93f
00000130: fbef 9fc7 20fe 9f3f c668 dbcc 1c74 88bf
00000140: 88f6 9fc6 5adc b93f 9e35 cd13 53d7 b1bf
00000150: 0dd7 621f 00fa c1bf a24a 9afa 1784 b33f
00000160: 028f fb60 31c7 b93f f98d e52c 0f1f aabf
00000170: b341 73dc ce24 dc3f e7a8 7458 8be8 bbbf
00000180: 36b0 0512 6039 a73f 56df 8cf6 c348 cb3f
00000190: 61cb 6e5c 6f00 acbf 6076 1fc7 dd32 c83f
000001a0: 1e85 cc3d a234 c23f 6e85 5506 f1e3 c93f
000001b0: 0c85 aecd ca9c c33f 4430 1526 0475 acbf
000001c0: 232b 4042 0bf3 d73f 5bb0 e8f3 c363 c9bf
000001d0: 4f14 3705 9795 a1bf 742f eef2 67c1 a8bf
000001e0: 5afa 5346 d792 df3f ea12 a779 a7b7 a1bf
000001f0: 53b3 b5b8 4a21 d13f 91fe ccc3 9994 a23f
00000200: a7f0 9610 1983 b53f 65ba f626 16e5 c8bf
00000210: 3d90 c2fb 4f1a ac3f cfc9 0914 ddbd b33f
00000220: 3249 0b32 6e36 babf 09fd d966 5965 c03f
00000230: 888e 3467 9843 d03f 15fd 3bff 37ff a2bf
00000240: 7fed 71a1 463f c63f d8a2 338f adf0 b53f
00000250: ed5d 0f4c 4ccb 4f3f 97ca 1de9 2ec2 c2bf
00000260: 7319 6e53 df99 6b3f ffa4 2ccb d7fb bf3f
00000270: 32f1 d509 1c5a c13f c0e1 241c 6d0e c93f
00000280: baa4 89b2 da1e b2bf d8ef 22b5 14ab a6bf
00000290: 092a 7547 6519 dd3f 2e6f 4085 e3eb c73f
000002a0: ad8d f89b 4bb2 c1bf ad5b 64c0 6118 a6bf
000002b0: 7a91 3827 6026 d73f 4aab f9df 3aa2 bcbf
000002c0: ccc4 b7b9 9227 a63f fd5e 162b 97c4 b4bf
000002d0: 1422 456a 7e66 c63f 75fd 35ae a0de b43f
000002e0: d0d3 79d1 589a b63f 802c 3068 c952 cbbf
000002f0: 92f8 1da5 1764 b2bf 1f8c 70b0 703a aa3f
00000300: a147 f8ed 47e1 b43f 2a14 e50c 009f a1bf
00000310: 30f3 095e 6358 bdbf af1d 67d4 d0f2 be3f
00000320: eeb1 8f5f eb0b cc3f 50a3 ed3d 8124 9a3f
00000330: cada 50e6 5432 b63f 3e9a 926b 0bed 9bbf
00000340: bca7 4c41 e35e c7bf 2c22 5f83 107c a83f
00000350: 285a b397 862f be3f 9142 152a 7a95 ae3f
00000360: 6529 e96f 8a75 c63f 4d27 aaae ac48 d63f
00000370: 723d d82c 16f2 d03f 6fa8 ebae bf8b b53f
00000380: 7ac1 33f8 567c bc3f e5e8 dfe9 0753 b13f
00000390: a26f e949 36dd b2bf 92c1 d8c4 8475 c2bf
000003a0: c305 95d9 4221 ac3f 5c3a b469 a7bb a63f
000003b0: 0e49 174a 4f5b af3f d0c1 2768 7775 cabf
000003c0: a5af c5b6 f0d6 e03f 175c 2a7c 2d0d c23f
000003d0: 3500 db40 9571 9a3f a5e8 24e8 2eff cb3f
000003e0: da4a a764 8527 c13f a558 8bad 4c27 b93f
000003f0: e7a3 dbf2 a3a5 c0bf c5fb 313c 3450 ca3f
00000400: a52c daf3 210c a9bf e7f3 fd07 3f6c b4bf
00000410: bd39 af75 9b93 c63f 80e4 33c8 d629 b8bf
00000420: 1dab ea01 590e c53f 1e42 1abe cc8b c03f
00000430: 12f5 2618 ff09 bd3f b6f0 16f8 b357 da3f
00000440: cd79 a6c7 c038 c53f 2f92 4c4f 102e d13f
00000450: 1aec a7f5 f92e d03f 04db 6791 8078 b3bf
00000460: dbf4 1edc 313f d93f 1a85 0351 864f a5bf
00000470: 98dc ad8a 3e63 c03f 5a7e fcd2 1792 c23f
00000480: 4de1 82a9 5bca c03f eb1e 3cad a188 ca3f
00000490: 0c96 eb69 df80 c03f 4063 b7e7 42ba b53f
000004a0: 3610 3ce1 acc9 c33f d9a9 b684 e308 c63f
000004b0: 88d2 6ab9 c963 d43f a6d1 5c4c 0338 9c3f
000004c0: ac4c 1d2a 5e9e ce3f 6fed 8afd 2640 ce3f
000004d0: 2ed6 a68e f729 dd3f d1ae ce16 40f3 b8bf
000004e0: 1bf6 ed76 8f0b cb3f 0fe6 f792 e2c9 c83f
000004f0: 8efa 38bf 99e6 aa3f 5bfa 7db2 999d b13f
00000500: 0fe7 77cf f1f0 bd3f 2252 8317 5196 c23f
00000510: 5f24 ad19 cd29 c0bf 66cc 7aef 03cc dc3f
00000520: 3962 d8ba 920f c5bf 4800 ba28 2c20 a93f
00000530: bba0 3944 04ac de3f 4524 ccad 46bb bbbf
00000540: 05d9 9aa4 8e62 d53f 6e23 a190 9e24 c13f
00000550: ecee 65bb 7325 d63f 43d2 89ed bd15 b7bf
00000560: 6674 9ed1 0911 c73f 1621 1422 bc62 b33f
00000570: fd18 0128 78ee b13f 7832 9d84 5798 adbf
00000580: 031e 1f97 cfa4 b63f 076e 47ec c110 c13f
00000590: 0b0f d11f 5bfa b13f 0e9f fadb f4c2 c6bf
000005a0: 7d67 eedb 3d2b dd3f ade2 9b2c 6f3b b0bf
000005b0: 805e 2834 dd69 903f 90d3 4ed7 665b b0bf
000005c0: cfd1 bcf9 dda8 c2bf 5d64 1052 f05d b63f
000005d0: 7cc8 31bb f677 b43f 7c40 a00e 41d9 dc3f
000005e0: 7baa 7262 8a7e 883f 30d0 99bd a340 c63f
000005f0: 5b75 56b4 a15c 63bf 6b80 a246 8fc0 d0bf
00000600: d795 e5de f2fc e13f 882c 03fc 4bc4 a7bf
00000610: d196 cff3 0c45 a33f 7690 44d5 286e 9b3f
00000620: c6ff 4a0b 139e c43f 329a ca56 96b2 b8bf
00000630: 60d7 b93f 2c2c afbf 9319 7f29 a402 b1bf
00000640: de52 2542 8934 df3f 77bd 9824 28a5 bf3f
00000650: 15d0 07f3 a61a c33f 7b29 5265 6cdf a7bf
00000660: 1d71 0536 3cf2 b93f 674b 6730 a0c4 b03f
00000670: d9f8 a142 9d95 a73f 5eb5 ee2f 7839 b2bf
00000680: 20da 75b7 1a17 c13f 626e 2f88 8fd3 c0bf
00000690: 57e5 23f9 a9b3 d63f aeb3 5482 20c7 c93f
000006a0: 8ff5 a820 0577 ab3f c794 646c 83bd c9bf
000006b0: 2570 7e34 1143 7dbf dce8 3fc0 495a cd3f
000006c0: 1838 1e7d ae4e cd3f f9f6 c1ba 54e4 c13f
000006d0: a7e5 1e18 45af b63f ab6a c498 0eb3 b6bf
000006e0: 42ef d7fa 35b9 b33f 036f 6bc1 ab47 b3bf
000006f0: 3f3b dfb7 2d84 cb3f a151 4aa4 325e c23f
00000700: f57c 11d7 a69b afbf 206a f3de cb6d a4bf
00000710: d390 4ddf 5324 c33f 5e78 04a0 ed58 b4bf
00000720: 1bcd 70f9 d26e c83f 4914 e238 5477 cd3f
00000730: 86dd 826e eca8 aabf 9443 2005 b2d6 d03f
00000740: c17a 8c4a 8262 a4bf f0ea cee4 924c b43f
00000750: ddeb 6de4 8b36 cabf d954 72b7 0434 c63f
00000760: 6db3 ef2a 5d11 c63f 172b abd2 293d b93f
00000770: e30e 528c 1fe5 c3bf 1d3c 46b1 40f8 bd3f
00000780: 464a 6ba8 c590 d0bf ce86 6ad0 2fda e03f
00000790: 2deb b7ca 03bf ac3f 115e 2f0a f4e4 d93f
000007a0: 79e9 e1ee af73 c63f ebe8 a6ed 270b e03f
000007b0: 29e6 3eb7 e198 cc3f 2a29 de9b 9327 c63f
000007c0: 1f20 61ff e938 b83f f575 dea6 964d b23f
000007d0: 46bb d946 0149 b9bf a2c3 f9e0 f2f2 d13f
000007e0: 32c1 31ce 3e8c c7bf fa41 004e cb57 b03f
000007f0: e45d 2d53 9bd9 bebf 539d 8bc3 f96c 9b3f

fc21.bias f8 [64]
0.17783054474444393 0.1241034598098015 0.060621904136715775 0.00945259879901039 0.1417198665289373 -0.043702631300781725 -0.039992444874963035 0.07403045120179239
0.12617421016981514 0.006917670911570696 -0.0016157703264981296 0.1589616779056443 0.15783457464516593 0.01676145013107721 -0.036688427736282864 -0.009515043887261586
0.1224829390159938 -0.06665782343591624 0.17825234357415268 0.05845243149029183 0.07266326798790661 0.06814297959126195 0.03695593299502163 0.026534100010583095
0.22680043198990343 0.027411999392560105 0.14642271274278693 -0.004106258333622584 -0.046443150848235165 0.13378932413724617 0.14606286573495336 -0.05569207855469338
0.014496418496896892 -0.04582282753340857 0.08418785868863617 0.153270455869733 0.10065432354485904 -0.03074915560891759 0.008160198655255465 -0.0811274002326451
-0.06268762682475272 -0.029226777687014434 0.16018192437002962 0.08035961051179631 0.1155737033107217 0.07262589560595892 0.042762210361198684 0.1822454889518293
0.1094721744747396 -0.0011591355063227222 -0.03877339480311476 0.036290512209581294 -0.06259126756579067 -0.07101886947292077 0.1866207630435061 0.0382041680655684
-0.037891298174684236 0.0036675045571655926 -0.10554556085176035 0.14225089559339013 -0.04040878071711137 -0.04502392595999633 0.07029657555779859 -0.08728944925135515
00000000: d020 f4ba 26c3 c63f b61b 348d 3ec5 bf3f
00000010: 637b 608f d509 af3f ffb4 a155 e25b 833f
00000020: f4b6 f767 e023 c23f d83b 5ff8 3060 a6bf
00000030: d46c a6c5 e379 a4bf dedf d1de a8f3 b23f
00000040: 1195 23fd 7926 c03f 8265 4625 b455 7c3f
00000050: 2035 732d 0879 5abf 0405 f633 db58 c43f
00000060: 30b8 2360 ec33 c43f 1e07 96e0 e929 913f
00000070: 9cb9 895a d3c8 a2bf 99be 8692 9f7c 83bf
00000080: 8e43 64b9 0a5b bf3f 8b07 aeb3 7c10 b1bf
00000090: 3d0d 0b09 f9d0 c63f 37b6 3e23 7aed ad3f
000000a0: 2be8 a057 0f9a b23f 2ae5 cb7c d171 b13f
000000b0: 8eac 3657 e3eb a23f 60d4 184f c12b 9b3f
000000c0: 65c2 0eeb cb07 cd3f 7dd5 a223 e411 9c3f
000000d0: 8399 4fbd fabd c23f aa85 0754 b9d1 70bf
000000e0: f460 088c 65c7 a7bf e398 dc31 0220 c13f
000000f0: d6ee be1f 30b2 c23f b0cc 1310 ac83 acbf
00000100: ce8f d35a 4cb0 8d3f 2b1d 55f3 1676 a7bf
00000110: ddb7 c9e3 558d b53f 5da6 b3c5 5d9e c33f
00000120: 0880 d353 7bc4 b93f aa31 e1e6 b47c 9fbf
00000130: de52 d352 4bb6 803f d907 cfea c3c4 b4bf
00000140: 917f 13db 4b0c b0bf a22f 55d9 9fed 9dbf
00000150: 1331 4a5f d780 c43f 4145 118b 7292 b43f
00000160: a845 fffb 3c96 bd3f d265 7856 9c97 b23f
00000170: 2515 03ae ede4 a53f 2221 72f7 d153 c73f
00000180: 33e6 3051 5e06 bc3f b1ab d745 c4fd 52bf
00000190: 98bf 443d 1bda a3bf 58c3 3086 ab94 a23f
000001a0: 5ed3 3537 fb05 b0bf 7efb c8e9 4a2e b2bf
000001b0: de61 036d 30e3 c73f b533 d328 7f8f a33f
000001c0: 892f edfc 7c66 a3bf 1ecd 3084 500b 6e3f
000001d0: 5fa6 18ac 0805 bbbf b93d 3300 4735 c23f
000001e0: db6d 4daf 75b0 a4bf 8948 1243 600d a7bf
000001f0: 3aa2 0ad5 f4fe b13f 2e07 d2f1 9958 b6bf

fc22.weight f8 [64, 256]
-0.003431618202728865 -0.038828579619287755 -0.036481025967989404 -0.06719601997627021 -0.04875517761646541 -0.048741306479882736 -0.010331940105854105 -0.018950524245213297
0.047156136090005435 -0.04962146971705312 0.015861115928366133 0.014199363773852825 -0.007937008670141939 -0.07352126113942375 0.03545183100131492 0.012098656678794362
-0.03698208551102944 0.04264092264295472 -0.0450090008475351 -0.0417602703431678 0.006586478506584958 0.03391766046708603 0.017042264066989086 -0.0028110704483820955
0.03944051691476781 -0.01036029500275581 -0.001089085645048708 0.03971714548376346 -0.039839076864653156 -0.010601436578559305 0.030067111360136796 0.015160704349466045
-0.07106449129705 0.00844382516792252 -0.028657387719091338 -0.04628732447958274 -0.06307798729084932 -0.053254163722483525 -0.05931993093218691 0.004675715855758476
-0.041067725177854196 0.0021477022549643006 -0.011336569219126121 -0.038397309268712286 0.002368772508641506 0.017143314777775198 0.004673609081127131 -0.001118091218074925
-0.006914814687733766 -0.03891324014082542 0.01606284152342289 -0.009596091723448693 0.039923699824700315 -0.0507848508835764 0.020435291701519403 -0.06579696905675361
-0.06528743389182767 -0.045216990502231116 0.03887031773595344 -0.052277522241154235 -0.0441984441562823 -0.06366641742160559 -0.06246592407358868 0.005937112744358082
0.02841503985186271 -0.05284567171080397 0.048445167280883474 -0.02312423901334639 -0.043785233833487064 -0.006561177572661837 -0.05634787528632121 0.0368291019212069
0.03223558280152556 -0.03086638173369282 0.029520488825432567 0.003828883091903692 -0.063653104397631 0.03654052823066174 -0.019321744391979614 0.04472566978457256
-0.05725783933252642 -0.00223743668470795 -0.02599336865889802 0.0202364712653037 -0.028245279322091296 -0.06072069823695661 0.009832647310427024 -0.03552708357704718
0.05373004787979129 -0.017401493653803227 0.03274046061753581 -0.06422861012601035 0.036550020683817255 0.0027924307409057086 -0.04688922717775584 -0.044572472866147135
-0.03562917107345037 -0.03027201647352732 0.02597939828862758 0.03652609124834809 0.014236067104772272 -0.03399735238027234 0.03660583925366706 0.014923964367742805
0.04469109252193778 -0.07405547340817589 0.0049203893245709385 -0.05207214240900766 -0.007225799830102711 0.012602573324379038 0.0034700067883283213 0.015954948606941827
-0.06143873279554688 -0.058374435397293936 0.0047039649072412116 0.030046512556838788 -0.05711185496808852 -0.03690632011190843 -0.0007682293274314624 0.04816978301876605
0.0502867530878299 0.018350559882912783 -0.029033201790554988 0.04583035704281335 0.04891917201712985 -0.06314702969363656 -0.07287411865555744 -0.015652963183778953
0.04991240085395292 0.043221959358072645 -0.033856512302833985 -0.04556235716497511 0.03788701184121099 -0.05538545490221266 0.00979466855283509 -0.06435722798024093
0.012253616360257102 0.014823323777437773 0.05507217206421523 -0.03818516685884327 -0.04504713326513809 -0.023217149215860704 0.0203286971404839 -0.046847740160361806
-0.04638147867898867 0.005987428084631371 -0.014903340050484205 0.011033580977727494 0.02526732174988582 -0.034452108333861836 0.06182665131991933 -0.027313986203504798
0.047802032239442634 0.023845996768432316 -0.01896473083073256 -0.05569181054450979 -0.02081602513477149 -0.028709515754349768 -0.010874762154085803 -0.038286443896464836
-0.047118172259585166 0.0022685304086632317 -0.017958064594838223 -0.04227378598027085 0.012163706338155222 -0.0194541996798923 -0.04870621244014389 0.04444575420634811
-0.050216101481872465 0.03695955956706216 0.015746576075173425 0.0009795726123432488 0.03560079625196993 -0.025619082850603585 -0.0325097953773192 0.047880816867914726
0.007623008247389696 -0.009205969612439392 -0.03789487229083559 -0.022865820557118194 -0.013209343498724109 0.003278502833001078 0.01580155699564168 0.000848003045269492
0.029444868716408182 0.008417642388462463 -0.02853699627674101 0.01579487601044689 -0.027735416285137225 0.05545644067345762 -0.03359611094638457 -0.06686866189658199
0.008616369313636733 0.02089460879225729 -0.06803891746863341 -0.05346374916077825 0.04178395018706388 0.05202535224706679 0.023434962455096145 -0.03521430929170322
0.021652575772825155 0.039375141574205165 -0.03835037431952801 -0.05040392604630729 -0.07436171018543694 -0.06396251032841703 0.016943054222849287 0.006770075014412942
-0.015406046175445227 -0.02107309337465924 -0.007812500123600324 0.008364538182994841 -0.014590828612737498 0.034851278465403646 0.03577341405002516 0.021227950990224325
-0.055124641381004064 -0.044107603586642743 -0.015297109724291734 -0.05603900469917324 -0.014051384677970055 -0.012640558536090451 -0.04550992552783289 -0.011641257015671095
0.02543222144042969 0.019418779715345977 0.03015050299123734 -0.042808789615350416 0.029697425629133654 -0.04793901579964905 -0.03572675715004419 -0.0673159651496158
0.0475745374978769 0.022935433923074434 0.013113340969442118 0.0009546358480332993 -0.044347461600528715 -0.012395028928474232 0.005565028152386843 0.028334251336421895
0.00190465068336403 0.017261769520869413 -0.023738195558978128 -0.02393513286416176 0.0036805268869274568 -0.049252297441971564 0.005303707575503269 0.010119602368521627
-0.05291848755514248 -0.011677831909960062 -0.006785607331262939 -0.06031319653351932 -0.024698996860781045 0.040420210341140704 -0.018208567443555784 -0.016626022892740868
00000000: 0e9f 7ffe 9f1c 6cbf bfdd 3aef 56e1 a3bf
00000010: 4f01 ea1a a4ad a2bf 6f2d 3824 c233 b1bf
00000020: ff2c bf4a 70f6 a8bf e13f 97da 9ef4 a8bf
00000030: 6af9 de86 e928 85bf 8a40 8027 c467 93bf
00000040: 9ce5 9f5c d924 a83f 1978 3a3b fc67 a9bf
00000050: 7df7 c278 e53d 903f dafa 4258 8e14 8d3f
00000060: d1a3 5445 4741 80bf 5c8d 2714 4ad2 b2bf
00000070: 75ca 770d be26 a23f ed6e 1636 2ec7 883f
00000080: 0091 9ddf 50ef a2bf 210d 72f0 07d5 a53f
00000090: ade3 5475 6b0b a7bf b6c3 ca26 9a61 a5bf
000000a0: cc63 815c 6cfa 7a3f f509 edd4 a75d a13f
000000b0: 6922 45fb 8673 913f a3cb 8ff4 3d07 67bf
000000c0: 0291 9224 8c31 a43f bdc1 b541 c737 85bf
000000d0: acff 97ce f4d7 51bf 1df0 e241 ce55 a43f
000000e0: 9018 7998 c965 a4bf d10b 2abb 34b6 85bf
000000f0: d26c e8af e9c9 9e3f c518 ec4a 930c 8f3f
00000100: c417 0752 4831 b2bf bd4e 9807 ff4a 813f
00000110: e54d 2bbc 5c58 9dbf 42e2 b7e1 f8b2 a7bf
00000120: defe 8204 e125 b0bf 06b7 2037 2144 abbf
00000130: 119e b596 2e5f aebf 3154 f9ea d726 733f
00000140: 43b8 1e31 d406 a5bf ffaf 4ade 0e98 613f
00000150: 1e22 5c90 a037 87bf 4b85 20e7 cfa8 a3bf
00000160: b9d6 990e ad67 633f e026 4361 048e 913f
00000170: 830f 8662 a224 733f d301 cc4d 9d51 52bf
00000180: d245 116f b552 7cbf 008e 92ab 6fec a3bf
00000190: aa81 180c c772 903f 5118 f9a0 1da7 83bf
000001a0: 7c31 2a12 e170 a43f 9cb9 5ad3 7800 aabf
000001b0: 8b42 2b36 fdec 943f 7a51 46f6 11d8 b0bf
000001c0: b0b8 6761 adb6 b0bf ea7a dc6e ae26 a7bf
000001d0: 960e ec6e cfe6 a33f 61ef ae90 1ec4 aabf
000001e0: 95e1 5eb0 2da1 a6bf 56e5 ad3c 714c b0bf
000001f0: f65d 059a 88fb afbf ae6b 1d91 8351 783f
00000200: ac5d 830b d518 9d3f 0a53 777f 960e abbf
00000210: 05c5 3d12 cecd a83f 4695 3a69 e1ad 97bf
00000220: cc9e b9a6 046b a6bf 81b7 90b1 e4df 7abf
00000230: 6c90 1bf3 a0d9 acbf 2dd4 9598 43db a23f
00000240: a9d3 ccab 2e81 a03f 9e45 5ed0 6f9b 9fbf
00000250: 40c7 4478 9e3a 9e3f 522d 1ef5 bf5d 6f3f
00000260: 243c ade1 914b b0bf 2a61 75ab 70b5 a23f
00000270: d796 0f51 14c9 93bf 1b6a 0872 48e6 a63f
00000280: b7e2 be46 e650 adbf 9af7 67ac 3e54 62bf
00000290: 431b 3671 019e 9abf e06c 1599 deb8 943f
000002a0: 7cae d19b 54ec 9cbf 446c 3c8a c816 afbf
000002b0: 5414 0d95 2323 843f c5dd 2b1c 9b30 a2bf
000002c0: 5f95 e93c 8182 ab3f 911b 9478 b2d1 91bf
000002d0: 1672 378f 5bc3 a03f 9170 f543 4971 b0bf
000002e0: ea9e 022f afb6 a23f bc51 acd6 26e0 663f
000002f0: f8be 8662 dd01 a8bf 391e 8602 34d2 a6bf
00000300: d88e 1699 fc3d a2bf ca7a f3a2 a0ff 9ebf
00000310: 38e1 13e8 579a 9a3f 2688 b93e 8cb3 a23f
00000320: e4f8 1b95 cc27 8d3f 3f6a 3fd9 1968 a1bf
00000330: e8cf df24 00be a23f 87c8 1697 7490 8e3f
00000340: 6bc4 9b39 c0e1 a63f eabe 60ac 4cf5 b2bf
00000350: 72cf b8f3 6627 743f cad2 5b29 33a9 aabf
00000360: 5de0 52df cc98 7dbf 656f 30c2 60cf 893f
00000370: 0a51 87b5 216d 6c3f a89a e779 7e56 903f
00000380: 8d0d 21c8 e574 afbf 025e e805 41e3 adbf
00000390: 6997 02f7 7644 733f 8672 2953 83c4 9e3f
000003a0: 298a 9ada c33d adbf e2ee ca9b 62e5 a2bf
000003b0: 5e9b 27eb 5f2c 49bf 0e29 71b5 b5a9 a83f
000003c0: dc56 de6f 2fbf a93f 7fd9 3d3a 7dca 923f
000003d0: f720 c130 e1ba 9dbf e065 5399 1377 a73f
000003e0: 6604 ec07 ef0b a93f 74ab 5f5b 672a b0bf
000003f0: 9db6 59d4 e0a7 b2bf bfdb d693 5407 90bf
00000400: a646 aa42 1e8e a93f d6ec d24b 3021 a63f
00000410: 78d0 310a a455 a1bf eb8b e703 f353 a7bf
00000420: 6c32 9a29 ed65 a33f cb4a f57a 7b5b acbf
00000430: d06e e028 3a0f 843f b2b4 6f1d b779 b0bf
00000440: 7345 338c 6c18 893f 7ca6 bcd6 b05b 8e3f
00000450: 72f8 de73 6b32 ac3f d8ba b395 018d a3bf
00000460: 1ffd 4df8 6a10 a7bf de98 5a82 3cc6 97bf
00000470: bdfe 8dc5 0bd1 943f 68b1 c24f 6dfc a7bf
00000480: 3ffc 212c 50bf a7bf 7c65 f8fc 4586 783f
00000490: 3aa8 f170 a485 8ebf de27 a82b c698 863f
000004a0: 0d07 4b42 addf 993f 84f5 24ed b4a3 a1bf
000004b0: 4968 e12a bea7 af3f c5aa de95 32f8 9bbf
000004c0: 492e 4d0a 8279 a83f 7533 0bc1 156b 983f
000004d0: 3b21 c88a 7d6b 93bf 522c e311 a383 acbf
000004e0: f108 bfcc cb50 95bf 40e7 fefc 0666 9dbf
000004f0: ccb9 6dde 8145 86bf 8eb6 d4e0 479a a3bf
00000500: d3ee cd81 df1f a8bf bd3c 49fd 7395 623f
00000510: 2e82 8950 9963 92bf fdd7 86e0 e8a4 a5bf
00000520: 003c 5d07 49e9 883f 8c78 943d cdeb 93bf
00000530: 88bb 154b 05f0 a8bf c04e 8609 98c1 a63f
00000540: fbcb 31c3 ecb5 a9bf d9ed 3a07 5dec a23f
00000550: 0d40 11d5 de1f 903f 986d 6115 a00c 503f
00000560: 1740 3a7f 443a a23f 0bc8 fc8b e33b 9abf
00000570: 3af6 e3b7 1fa5 a0bf f75e 1b9d d583 a83f
00000580: 7432 eab1 4d39 7f3f 14a3 4e53 94da 82bf
00000590: 76b8 59ea f466 a3bf 88c3 f43d 236a 97bf
000005a0: 6413 a112 800d 8bbf 8a99 52ce 84db 6a3f
000005b0: 62b1 168a 482e 903f d7e5 54ac 90c9 4b3f
000005c0: 441d b0b0 cb26 9e3f d298 24d6 443d 813f
000005d0: 034f f066 cd38 9dbf f310 a32f 882c 903f
000005e0: 66dd 8a47 ac66 9cbf b812 175e c964 ac3f
000005f0: 6d34 936b 8233 a1bf 251d f9fb 4d1e b1bf
00000600: 7c72 4c83 75a5 813f 8eab b375 6565 953f
00000610: d60d 629d ff6a b1bf d38c 55bc 995f abbf
00000620: 082e 1ab7 b464 a53f 9995 ed24 11a3 aa3f
00000630: 247d 4fb5 55ff 973f 01a8 8425 9c07 a2bf
00000640: b316 46c3 172c 963f 5d54 ac82 fa28 a43f
00000650: 2cc4 fb06 a9a2 a3bf f2f3 ea1b 8bce a9bf
00000660: 6a32 5279 5e09 b3bf 47d6 07da d85f b0bf
00000670: 8a3f 201f 8559 913f 6e34 742c f0ba 7b3f
00000680: e4a5 df83 348d 8fbf c196 7a5b 2f94 95bf
00000690: 3033 3f04 0000 80bf ed6e 894f 6d21 813f
000006a0: afbb b4dd cbe1 8dbf 2824 77da 06d8 a13f
000006b0: f97e d296 e450 a23f 5b71 0ead c7bc 953f
000006c0: c4ca de07 4c39 acbf 3ab2 d195 4595 a6bf
000006d0: ecca e94f 1754 8fbf 4278 f7f8 24b1 acbf
000006e0: b840 3eed f8c6 8cbf f31d 200c 4be3 89bf
000006f0: e724 92b3 134d a7bf 4246 5511 5fd7 87bf
00000700: c6b4 677d e70a 9a3f 79f9 383f 84e2 933f
00000710: 61a4 3801 c6df 9e3f 4330 c29e 08eb a5bf
00000720: 56fb 687f 0069 9e3f f9b3 1f72 768b a8bf
00000730: e767 1a0b c74a a2bf 70f7 d07c 9e3b b1bf
00000740: 43f6 5995 b05b a83f aa08 7aea 627c 973f
00000750: e424 d7d4 2adb 8a3f 462a 9adf 1048 4f3f
00000760: 1043 78e2 b5b4 a6bf 89d1 0b9f 9062 89bf
00000770: b533 a7de 5acb 763f e8e4 626b a703 9d3f
00000780: d374 4d19 af34 5f3f b8bd 40be 11ad 913f
00000790: 7711 5e56 d34e 98bf 8e09 8293 7382 98bf
000007a0: 2c9b 90d3 9f26 6e3f 7f42 88dd 9837 a9bf
000007b0: 996e 5929 57b9 753f cb45 c509 96b9 843f
000007c0: bd65 ceca 2118 abbf b6b7 2111 8cea 87bf
000007d0: 47ee 2399 39cb 7bbf 23e3 410d 5fe1 aebf
000007e0: a453 0b9f b14a 99bf cb78 0633 f5b1 a43f
000007f0: 1855 b546 44a5 92bf 47f4 5882 6906 91bf
