weights/model_base_single_input_obs_wc_nolim_linp_f_suite_0_bn.pth (torch, 380426 bytes, 10 tensors)

fc1.weight f8 [256, 53]
0.011574542554352002 0.11103494868996878 0.08221769812920797 0.11580602617132321 -0.03540401275571083 0.014682364772558751 0.02882380856913771 0.06346448729292005
0.10430891340065335 0.12243375421799241 -0.017036648467183113 -0.11493875831365585 -0.009992367649194232 -0.20771795281381894 -0.05423364043235779 -0.09075374156236649
0.09941611712265347 -0.07726930550684709 0.05120434612035751 -0.11914791166782379 -0.0456605898828473 -0.09963417440463934 0.13207754492759705 0.018656281754374504
-0.07164448226403858 0.025310197827589857 0.10673961043357849 -0.10964493453502655 -0.12110995228004122 -0.1332024629425067 0.11930488049983978 -0.01443979237228632
0.1295401257782014 0.02645185020075413 0.12304475158452988 0.10808950662612915 -0.0032897135854926215 -0.09320357537119474 0.0680820643901825 0.13417284190654755
-0.026812722036358365 -0.011300812719865534 0.049814336001873016 0.0546838641166687 -0.029669609913345822 0.11405380709857571 0.05338101461529732 -0.03244397044181824
0.032658907523635414 -0.08592514236374385 -0.1060553640127182 -0.11056273430585861 0.07602305822871266 -0.14764911948960094 0.10859600738105407 0.07665396435042632
-0.0013854651643667095 0.058175887322211274 0.16963141734938475 -0.20164661465872236 -0.03797118285479053 -0.13751333474438468 0.11389355151885894 0.02731490507721901
-0.10499893873929977 -0.1604107719592359 0.09981249597726191 0.01657065935432911 -0.058138538151979446 0.005355001545736651 -0.12304859692880774 -0.00867742020636797
0.09181661903858185 0.02346397668797713 -0.06841335893522496 -0.038497403264045715 0.047754812985658646 0.00493837997991788 0.05749760942019096 0.13186821341514587
0.06155550479888916 -0.1549324941567686 0.061528200142927814 0.0021885379683226347 -0.023983824998140335 -0.1858826157383229 0.07272535121942007 0.0015061243902891874
0.12940238416194916 -0.16394865780394338 0.1392438384694922 -0.05093454197049141 -0.02941122092306614 -0.05679315083917033 0.024223301800429822 -0.06255362182855606
-0.1176626980304718 -0.11402032419364712 0.0710018579677169 -0.12176687270402908 -0.08478277176618576 0.027000364965984642 0.059968000027145946 0.13518933951854706
0.011719897389411926 0.13985912801600658 0.09298619441691629 -0.107941307443138 0.1537112519079209 -0.024353506523592455 0.10205572291735074 -0.036883992829532544
0.087546480586012 -0.08835783533763886 -0.09146487154062993 -0.058596645926063826 0.04915039241313934 0.13100561499595642 0.1368678938597797 0.17342304965122524
0.09724769741296768 0.07535754889249802 0.06752846948806047 0.0589452265616287 0.09389668703079224 -0.13085804879665375 0.005213838070666813 -0.02539308079639128
0.1343628168106079 -0.07292799651622772 -0.020901428535544813 0.06214698639147829 -0.03973619267344475 -0.13345065712928772 0.039932919666206865 -0.0838217779149285
0.08243803679943085 0.0970262661576271 0.10048828832808726 0.09418466509360465 -0.11886096745729446 0.0818135216832161 0.04981507174674278 0.033244416069305595
-0.06463051587343216 -0.08887448906898499 -0.018591044470632014 -0.08297808969239412 0.044844888150691986 0.1333635449409485 0.13566628657284965 0.12805290844344672
0.054070550948381424 0.1292804628610611 0.027862850576674977 -0.012879914484556942 0.035642921924591064 0.018560491502285004 0.03957814430304086 -0.051366256947498065
0.026493342068138668 0.06613936599710285 0.08737900516534373 -0.05977828894961282 -0.04793275283388087 -0.09285755096863701 0.015109160857993683 0.11468791735651063
0.10662890760322515 0.07428590953350067 -0.08991430699825287 0.007344822933097222 -0.14142561517146102 -0.02558963932096958 0.0075140343979001045 0.03152547178151162
0.1017359183606375 0.08155456930398941 -0.11248007416725159 -0.11433212685106228 0.11960046310345673 0.12512251734733582 0.07029189169406891 0.07121687901498842
-0.12468310427811384 -0.09673387557268143 -0.13330157101154327 -0.026038233588318534 0.03544154464414181 -0.11406943202018738 0.03582897037267685 0.008267403648366074
-0.00692852766086662 -0.0018348291050642729 0.12516573071479797 0.0862150989222722 -0.07545169574687108 0.03434624895453453 0.041431985795497894 0.1209830917167859
0.03114293065985757 -0.13633735477924347 -0.02018231898546219 -0.014438102419356984 0.07835163460113792 0.08605719357728958 -0.02232661284506321 -0.1256382636976048
0.06815777531558981 0.08587273210287094 -0.01941118761897087 0.12450201352932597 -0.1036583472281068 0.06719682230134302 0.12371938143782384 -0.09298359865805764
-0.019698244192446923 -0.06376259096948363 0.09479413522052309 -0.11216838374775842 0.0707939166337878 0.10119101207868525 -0.09355226904153824 0.05940556153655052
-0.07761866489940579 -0.05151063321787401 0.0556175634264946 0.03266756609082222 0.05131553036576815 0.09789511758237471 0.12623745203018188 -0.1112171933054924
0.07648651783770626 -0.04552667461929289 -0.0010100050130859017 -0.08677034080028534 0.01941486976525493 0.1149560333011631 -0.1229509636759758 -0.03294755518436432
0.13319017847484652 -0.12840418499661732 0.07621229439973831 0.11372380703687668 -0.09361432383352215 0.11290710102357161 -0.061235278844833374 0.014175047166645527
0.059623588970366195 -0.0780079270508542 -0.061255648732185364 0.04304973781108856 0.1479321282119185 0.12105746001926912 -0.018434127792716026 -0.03005422092974186
00000000: d095 e5cd 64b4 873f d921 5651 c96c bc3f
00000010: 8f0a 9e14 380c b53f d2e6 15b7 76a5 bd3f
00000020: f3aa dd89 7920 a2bf a56a 35a4 c911 8e3f
00000030: c639 9a0c fd83 9d3f 6568 6169 353f b03f
00000040: bcb2 bc2b fdb3 ba3f 98f3 4a8a d157 bf3f
00000050: 0000 0020 0e72 91bf 0000 0060 a06c bdbf
00000060: 126a 1ae2 e076 84bf 6a4f 107b 8096 cabf
00000070: 0000 0000 83c4 abbf 0000 0020 a33b b7bf
00000080: bcb2 bcab 5573 b93f 59f4 22d4 ebc7 b3bf
00000090: 0000 00c0 7437 aa3f 0000 0040 7a80 bebf
000000a0: 849a 8628 d360 a7bf 4cc3 a110 a081 b9bf
000000b0: 0000 00c0 eae7 c03f 0000 00e0 a11a 933f
000000c0: 444d 43f4 4a57 b2bf cefb b29f eaea 993f
000000d0: 0000 0080 4953 bb3f 0000 00c0 b011 bcbf
000000e0: 434d 43d4 0f01 bfbf 0cd8 0a3f c70c c1bf
000000f0: 0000 00c0 c38a be3f 0000 0020 9c92 8dbf
00000100: 5859 de55 c594 c03f 1fac 1f9e 3116 9b3f
00000110: 0000 0060 dc7f bf3f 0000 0000 c1ab bb3f
00000120: 75a8 6988 07f3 6abf e9ec 1684 30dc b7bf
00000130: 0000 0080 d36d b13f 0000 0060 932c c13f
00000140: 0e35 0d51 cb74 9bbf 177d 6668 e124 87bf
00000150: 0000 00c0 4381 a93f 0000 0000 86ff ab3f
00000160: 0e35 0dd1 b561 9ebf 4001 795b a132 bd3f
00000170: 0000 00a0 c154 ab3f 0000 0000 7f9c a0bf
00000180: 7e65 7917 abb8 a03f 9a3e 5bac 30ff b5bf
00000190: 0000 00c0 7126 bbbf 0000 00e0 d64d bcbf
000001a0: be8f d544 3f76 b33f 25da be95 2ae6 c2bf
000001b0: 6c84 2dac f2cc bb3f b46b fe1d 989f b33f
000001c0: dd62 86e4 0fb3 56bf 55ea edda 3ac9 ad3f
000001d0: d2e2 f176 7bb6 c53f 4077 a767 8ecf c9bf
000001e0: 7380 1a79 f570 a3bf 29da be75 099a c1bf
000001f0: b8b0 ffb6 2028 bd3f 0000 0040 70f8 9b3f
00000200: 0000 00e0 35e1 babf 23da be15 5788 c4bf
00000210: 3e58 f4cd 4f8d b93f 0000 0020 e6f7 903f
00000220: 0000 00a0 55c4 adbf 03bc 2448 20ef 753f
00000230: 0ebf a0e3 1c80 bfbf 0000 00a0 77c5 81bf
00000240: 0000 0040 4b81 b73f f42e 09d2 f006 983f
00000250: 327e 3cb3 8983 b1bf 0000 0080 eeb5 a3bf
00000260: 0000 00a0 5173 a83f 15bc 2448 443a 743f
00000270: 4aa5 1da0 5370 ad3f 0000 00c0 0ee1 c03f
00000280: 0000 0000 3484 af3f 25da bef5 d3d4 c3bf
00000290: 608e cace 9f80 af3f 0000 0060 b2ed 613f
000002a0: 0000 0040 378f 98bf 21da be65 00cb c7bf
000002b0: 8bd8 13ed 209e b23f 0000 00c0 24ad 583f
000002c0: 0000 00e0 4190 c03f 23da be05 45fc c4bf
000002d0: 55af 32fa bdd2 c13f 0000 00a0 1714 aabf
000002e0: 0000 00a0 f91d 9ebf 7c68 fbea fd13 adbf
000002f0: b4cc 2244 fecd 983f 0000 00a0 8303 b0bf
00000300: 0000 0080 241f bebf 45b4 7d9b 6f30 bdbf
00000310: 6b34 ed81 2d2d b23f 0000 0020 1d2c bfbf
00000320: 0000 00e0 52b4 b5bf f52e 09d2 fba5 9b3f
00000330: 0ca3 d82d 20b4 ae3f 0000 0060 e24d c13f
00000340: 0000 0000 9a00 883f 0e1b 7066 e7e6 c13f
00000350: 0b0a 0078 f1cd b73f 0713 5ba1 0aa2 bbbf
00000360: e861 fc6f cfac c33f fb3b 3f28 20f0 98bf
00000370: 76b6 4ce8 5220 ba3f 5ac1 e56d 75e2 a2bf
00000380: a02f ff36 7269 b63f e0d9 1e7d 9e9e b6bf
00000390: f4f5 ffe7 3d6a b7bf bec2 d02b 6100 aebf
000003a0: 0000 0080 3d2a a93f 0000 00c0 cac4 c03f
000003b0: 0405 001c e384 c13f c8f2 4ffb b932 c63f
000003c0: 0000 00a0 39e5 b83f 0000 00e0 a14a b33f
000003d0: 110a 00b8 8b49 b13f 8fcd ac98 112e ae3f
000003e0: 0000 0000 9d09 b83f 0000 00e0 f4bf c0bf
000003f0: 2aa1 0000 1b5b 753f 2bc0 42ce a400 9abf
00000400: 0000 0000 cd32 c13f 0000 00c0 68ab b2bf
00000410: abd7 ff1f 2f67 95bf 9d55 31d4 bad1 af3f
00000420: 0000 0060 4d58 a4bf 0000 0040 e914 c1bf
00000430: 2614 0070 1672 a43f 4752 d612 5875 b5bf
00000440: 0000 00c0 a81a b53f 0000 00a0 b6d6 b83f
00000450: 0c0a 00b8 99b9 b93f 4e9b 5c78 7c1c b83f
00000460: 0000 0020 ac6d bebf 0000 0020 bbf1 b43f
00000470: 2a14 0070 5c81 a93f 4da6 957f 6905 a13f
00000480: 0000 0020 a08b b0bf 0000 0080 7ac0 b6bf
00000490: aad7 ffdf 8709 93bf 5c6d 8355 0d3e b5bf
000004a0: 0000 00c0 e8f5 a63f 0000 0080 0e12 c13f
000004b0: 0505 004c 835d c13f 770d f6a6 0964 c03f
000004c0: 0000 00a0 22af ab3f 0000 0020 438c c03f
000004d0: 4f28 0040 1488 9c3f 403f e4db c860 8abf
000004e0: 0000 0000 ca3f a23f 0000 0080 8501 933f
000004f0: d1fa d526 9643 a43f 2e35 6a93 ad4c aabf
00000500: 1943 fa16 1221 9b3f 148c ef6d 82ee b03f
00000510: 6bcb 8a71 785e b63f 444e 1988 429b aebf
00000520: 7f54 a84b a48a a8bf a8d1 9830 83c5 b7bf
00000530: 9e6a 0a3e 8df1 8e3f 78e5 4af6 2f5c bd3f
00000540: 7dcc f636 084c bb3f 0000 00c0 6604 b33f
00000550: 0000 00c0 9f04 b7bf ec56 aee4 9a15 7e3f
00000560: 9832 fd0b 3c1a c2bf 0000 00a0 2b34 9abf
00000570: 0000 0040 09c7 7e3f daca 954c 1b24 a03f
00000580: a4fd 2f7a 5d0b ba3f 0000 00a0 c2e0 b43f
00000590: 0000 0080 7ecb bcbf 861a b5c9 de44 bdbf
000005a0: 28a5 9dcd 229e be3f 0000 00c0 0304 c03f
000005b0: 0000 0040 a6fe b13f 79e5 4af6 443b b23f
000005c0: 63fe 3c5f 3beb bfbf 0000 0020 8dc3 b8bf
000005d0: 0000 00a0 0610 c1bf 526a d446 c4a9 9abf
000005e0: fb26 55e6 6425 a23f 0000 0080 a733 bdbf
000005f0: 0000 00c0 2c58 a23f 772b 5722 80ee 803f
00000600: 16d9 677b 1661 7cbf 0000 00c0 d40f 5ebf
00000610: 0000 0040 6e05 c03f 78e5 4a56 3112 b63f
00000620: 0a1a a965 cd50 b3bf 0000 00e0 d495 a13f
00000630: 0000 00c0 9236 a53f 78e5 4a76 bff8 be3f
00000640: f023 beb2 eee3 9f3f 0000 00a0 8073 c1bf
00000650: 0000 0080 acaa 94bf 96d4 a84d b991 8dbf
00000660: 2035 334c da0e b43f 0000 0020 d807 b63f
00000670: 0000 00a0 c9dc 96bf 498d da24 ea14 c0bf
00000680: c4d5 f2b7 c972 b13f 0000 0060 c1fb b53f
00000690: 0000 00c0 86e0 93bf ce04 652c 5ddf bf3f
000006a0: 7458 4d7b 5a89 babf 9eec 2d9a cf33 b13f
000006b0: 3b24 28c9 12ac bf3f c2fd 4ceb c5cd b7bf
000006c0: 4077 61ca c62b 94bf 7d12 ecc2 be52 b0bf
000006d0: 83ef 9fae 6d44 b83f 3a80 d733 11b7 bcbf
000006e0: 8ba7 b2d4 8c1f b23f a4ef 8677 a7e7 b93f
000006f0: 0000 00a0 0af3 b7bf 0000 00e0 676a ae3f
00000700: 7558 4d1b d1de b3bf 7650 220a 9a5f aabf
00000710: 0000 00c0 e779 ac3f 0000 00a0 cdb9 a03f
00000720: 1a4f 6579 0746 aa3f da51 7488 a70f b93f
00000730: 0000 0080 8c28 c03f 0000 00e0 ba78 bcbf
00000740: 8ba7 b2d4 9e94 b33f 29c6 2bb5 454f a7bf
00000750: 0000 00a0 448c 50bf 0000 00c0 9436 b6bf
00000760: 349e cada 7de1 933f 47a2 8133 c26d bd3f
00000770: 0000 00e0 b679 bfbf 0000 0080 80de a0bf
00000780: c553 5932 600c c13f d070 9d5f 8c6f c0bf
00000790: 0000 0020 a682 b33f 0000 00e0 001d bd3f
000007a0: 7558 4dbb 1bf7 b7bf 81e5 61d2 7ae7 bc3f
000007b0: 0000 0000 3b5a afbf 0000 00a0 ce07 8d3f
000007c0: 1a4f 65a9 fb86 ae3f bd1d 83d7 53f8 b3bf
000007d0: 0000 0080 e65c afbf 0000 0080 9d0a a63f
000007e0: c553 59a2 70ef c23f f236 b827 9ffd be3f
000007f0: 0000 0060 65e0 92bf 0000 00a0 88c6 9ebf

fc1.bias f8 [256]
-0.09460046510378554 -0.04351605126458271 0.0772112894238679 0.037237205011276815 0.13367093610564798 0.04977300489284807 -0.039815494174201646 -0.05393275163281825
-0.09930188354364915 -0.10805973437437985 -0.06611234223931657 -0.056476527938300096 0.09556683265777342 -0.10481331324305086 0.11154419104442063 0.06656029553078975
0.0127041405281013 -0.06751966198563047 -0.08855416405324702 -0.028773819939610427 -0.0996645113459803 0.04985078988673572 -0.03171591950444311 0.07987170490971458
0.035988325601570226 0.13512945898507148 0.1293537337112672 0.10065229386710602 -0.044213577309274686 -0.12908956933625737 0.06615814893292186 -0.10372070402117109
-0.08705860036710071 0.06371726725422171 0.0970326366768247 0.14738363079779995 -0.020283543561541353 -0.12676679066898416 -0.11802379168271218 -0.09615926452102015
-0.10640019266300736 0.04999549532279447 0.04849034523572497 -0.048245286518138794 0.14808434159634526 -0.0461542281236593 0.1483671188805011 -0.00460513618379152
0.10935370920319915 -0.055327883806758654 -0.12091112929586008 0.055823203466734465 -0.06200360854916718 0.10588468216821685 0.1613417096827188 -0.01978869299694204
0.09062201440833871 -0.07789126721933218 -0.02282948152198373 0.026570701302825905 0.10170626372300703 0.1225240503518437 -0.04703473604817402 -0.07450302687470363
0.12957682457887132 -0.09598324977110544 0.12383320812836814 -0.15278750656313764 0.05824874167638693 -0.065786589111214 0.06678981486364191 0.08651503661899432
-0.0845050476646031 0.026161381177617356 0.004155472925590168 -0.0976102295184334 0.1063486506970738 0.10385174098267887 0.019550110784968718 0.16480123940250224
-0.06375247121321517 -0.07345603520903503 0.027317067665662765 0.10701662690970018 0.0486542467431947 0.16109418091512073 0.02466367643899223 -0.02356506551060275
0.15533814457098055 0.06528936031678398 0.05013424602709242 0.018225366695019715 0.1343428371123032 0.010211739821692536 -0.08124049373662123 -0.11145691433859534
-0.12088252537078432 0.07184626428938835 -0.03622191341080261 -0.05544687070435686 0.10637841341040769 -0.13999795389198869 0.0030438198371896034 0.01504508175174971
0.14251908255618165 0.008879223440522102 -0.08903796954504384 0.0918154853370375 0.09154952846532138 0.1467907633732131 0.05326675361390421 -0.1026632270916567
0.15350489120421948 0.056965456217657605 -0.041283277889954485 0.06311718360257788 0.052586174957030024 0.028878696295269304 -0.08998833765212613 0.026543418660986383
0.12287837259027015 -0.017821620193424922 0.11873086303706834 0.12297018179456577 -0.12213696518458003 0.008084026366023688 -0.08153824420670298 0.06474655842382292
-0.09900860386929748 0.14169812652914796 -0.06945396568976415 0.14980531002336483 0.0502391343917225 0.0979369232764923 -0.11347029899060812 -0.049899818671192066
-0.030470829335772623 0.0884552318648293 0.023271944596693843 0.10404999194698362 -0.056555523658616436 0.15759075210327922 -0.07858025564796332 0.07615501315414057
-0.05627200552827291 -0.08967365176362892 -0.06633729037286651 0.09635104713679807 0.020322943080266026 0.11030341392346552 0.08954809385806162 -0.09220238331412402
-0.013629585633574633 -0.053616365158105285 -0.12010657041539591 0.05614951382700174 0.017391850273783645 -0.08313353157057184 0.046045749009806694 0.05526571356857702
0.12889362889772296 0.048585197437853396 -0.10680520618608465 0.09071660232143676 0.035647814220350245 -0.027396530780901065 -0.10263010166365384 -0.08615139678544526
0.035156734120054316 0.05920832445074356 0.11524830245204429 -0.04185169202949662 0.10810918233569347 0.07867648780837307 0.057691191692105986 0.10016538939271666
-0.061369776115356156 0.11801661927939726 0.027055967295788238 -0.019642038177907755 0.10626985464782338 -0.09126336657519275 -0.020220465710287787 -0.08198606167746345
-0.06461927341172863 0.02766509917871388 0.14243387741397276 0.05133302368034463 0.04103892119873971 0.02204617720121497 -0.029371197609963023 -0.13568525746114302
-0.0817569017711229 0.03004751389583286 0.1474583263416558 0.112699966916819 0.08251569721923592 0.11287383203662059 0.027530387746114656 -0.10237142878665946
-0.09816160510269409 0.07717971757704216 0.03146636533588465 -0.06809750482213148 0.15840560154498945 -0.01240433982399762 0.010565841233797117 0.04703051785898041
-0.05381398608123978 0.09259317793110804 0.12137452110275684 -0.05385575697146913 -0.011997643208032786 0.040248283526074055 -0.030263003995182745 -0.10373108101379461
0.06221992641851931 -0.004374026886148236 0.09959679673660858 -0.08243275930706966 -0.07248675253858915 0.12492598210737804 0.007498820697635264 -0.008064906078113622
0.036378646957090026 0.14560743171755813 -0.10317894951624001 -0.014747758353576756 0.11871555844644878 -0.07209271446487675 0.08103123171514612 0.15965103296828834
0.018323711569324608 0.014898996664522816 -0.03883913636265081 -0.009776195586627135 0.1334033501844664 0.13748919209441257 0.04964839513753875 -0.07325066541151737
0.09879105941079434 -0.021569528770410743 0.06281103078834575 0.09899007978139912 -0.0865360345571495 -0.017934091624356784 0.06581307432955291 -0.015379844338531401
-0.054331769617160026 -0.09710941486296928 0.11473676058539027 0.10305187732473736 -0.03295352730498028 0.010050940264679033 0.055112212517966025 -0.02524979263767343
00000000: 43a1 ce6f bc37 b8bf 439c 1062 bc47 a6bf
00000010: f01e f57a 1ec4 b33f 218e 6f43 c110 a33f
00000020: 6dee 7f15 211c c13f 8e13 7ae8 d87b a93f
00000030: 565d b44a b262 a4bf 397a e4d8 129d abbf
00000040: eb4c 4026 d96b b9bf 3e04 2781 cda9 bbbf
00000050: 8da2 c70b bdec b0bf 7727 f9d0 7dea acbf
00000060: eff1 d864 1177 b83f 6f76 9098 0bd5 babf
00000070: 4335 98fc 288e bc3f 6d4f 8474 180a b13f
00000080: b761 bce0 a004 8a3f b4b4 10f4 f748 b1bf
00000090: 5187 8856 7cab b6bf d189 7c5e e276 9dbf
000000a0: b784 cd08 9d83 b9bf 7c91 7cf0 0a86 a93f
000000b0: 547c 11aa 113d a0bf 4d86 76d8 7872 b43f
000000c0: f83a fed2 0f6d a23f 4595 880f ec4b c13f
000000d0: abe3 f3c3 a98e c03f c535 6d46 59c4 b93f
000000e0: c33d 2a79 29a3 a6bf d4e7 46cb 0186 c0bf
000000f0: 4be2 078e bdef b03f fa63 b0a7 708d babf
00000100: fb87 69f1 7849 b6bf b320 0c5b c64f b03f
00000110: c7ee 2b81 21d7 b83f 5503 1f81 77dd c23f
00000120: b7a9 f990 35c5 94bf 7632 12ea e439 c0bf
00000130: ba5a 6da5 ce36 bebf f53f 53c0 e49d b8bf
00000140: 4f95 c603 0b3d bbbf 92aa b772 0299 a93f
00000150: b61a ebfd b9d3 a83f 1628 902f 9bb3 a8bf
00000160: 0e5e 1a7e 6df4 c23f 9cfa b9e8 86a1 a7bf
00000170: 175e b299 b1fd c23f e121 d9d4 d5dc 72bf
00000180: 545a b9cc 9afe bb3f 8c8a 03b7 ef53 acbf
00000190: 5553 0c22 08f4 bebf 97c2 7ee2 db94 ac3f
000001a0: edc2 e7dd efbe afbf 0d52 0f2f 421b bb3f
000001b0: 59b4 485b d8a6 c43f 5482 02b5 7c43 94bf
000001c0: df73 2e1c 0133 b73f 02dd 599d aef0 b3bf
000001d0: e312 1692 9c60 97bf e07a 8294 5935 9b3f
000001e0: 3e19 7df4 6b09 ba3f 7310 3c75 bc5d bf3f
000001f0: 45af 34da ef14 a8bf 953e e15f a112 b3bf
00000200: 4861 f12f f995 c03f fb0e bbb6 5b92 b8bf
00000210: 3df2 117b 88b3 bf3f 2f89 f67f 8a8e c3bf
00000220: 0f04 1171 c7d2 ad3f 7580 bfd0 63d7 b0bf
00000230: a294 8b26 2319 b13f fa0c e474 d925 b63f
00000240: 08ff 1070 1fa2 b5bf c2e1 4d92 0cca 9a3f
00000250: 1184 0945 5405 713f d466 89e7 fbfc b8bf
00000260: 8ab8 b748 aa39 bb3f 9d3c 2717 0796 ba3f
00000270: 4287 d1b9 f104 943f 4879 c9fe 3418 c53f
00000280: 8262 e6fa 1452 b0bf 43a8 eac4 03ce b2bf
00000290: 5d8f fc60 01f9 9b3f d294 b410 7165 bb3f
000002a0: 7aa6 259d 35e9 a83f e89c 4def bb9e c43f
000002b0: f981 d14e 6f41 993f f8d7 c8c6 7021 98bf
000002c0: a278 60cd 1ee2 c33f 665c 56b3 cdb6 b03f
000002d0: 4624 3126 32ab a93f 5c9f a6a7 aba9 923f
000002e0: 7fb2 ec65 2532 c13f 7b31 8e84 e4e9 843f
000002f0: a8ad b54f 2dcc b4bf b451 ffb9 7088 bcbf
00000300: cd1a 203d 28f2 bebf 3973 764b 8464 b23f
00000310: 20f2 feba ad8b a2bf 3477 ae40 8863 acbf
00000320: 0a1b 999e 9d3b bb3f 818b bcf4 73eb c1bf
00000330: 0b0c fb54 5aef 683f 521d b7b0 f4cf 8e3f
00000340: a53e 51b7 103e c23f 5bcd 5332 452f 823f
00000350: 5057 4c3f 31cb b6bf 35f8 c93a 3881 b73f
00000360: e007 b936 ca6f b73f 497b 052c 0aca c23f
00000370: e1bb 78a9 c745 ab3f dc48 dc22 2348 babf
00000380: bbc3 bf5b 0ca6 c33f 23c2 e986 932a ad3f
00000390: f56c d1f0 1423 a5bf cf81 639f 7228 b03f
000003a0: 0409 533b 93ec aa3f 24a4 8e80 6092 9d3f
000003b0: dabe 3cc7 7909 b7bf 56b9 4aac 322e 9b3f
000003c0: 9a31 a9ff f474 bf3f bfe9 91af d43f 92bf
000003d0: e622 c555 2565 be3f 89da 304d f97a bf3f
000003e0: deb7 193f 5e44 bfbf c686 e5a6 5b8e 803f
000003f0: 81b5 3dbc b0df b4bf af78 f5fe 3a93 b03f
00000400: 1329 a4bb a058 b9bf c16f ac09 2a23 c23f
00000410: 110d 372f bcc7 b1bf 9ca3 a805 d22c c33f
00000420: 3733 629e f1b8 a93f f91b 8bea 6412 b93f
00000430: 9864 3bb7 630c bdbf 7dc7 8912 788c a9bf
00000440: e4a3 eabd be33 9fbf 8100 0588 00a5 b63f
00000450: 4e18 d4c3 99d4 973f 29b5 8f30 05a3 ba3f
00000460: 0838 0b79 d8f4 acbf a4c2 370b ef2b c43f
00000470: df8b 1eec d51d b4bf 6b69 ec1a e57e b33f
00000480: 0c39 d92e afcf acbf ed3e a339 daf4 b6bf
00000490: a01e a80c 7bfb b0bf 8e4d 6354 76aa b83f
000004a0: 7887 8d9f 89cf 943f 4e3d 7033 d83c bc3f
000004b0: 881d 8ab6 9fec b63f 098a f24c 939a b7bf
000004c0: 7e12 6f04 d4e9 8bbf 6dd7 c4ad 9a73 abbf
000004d0: 5406 f8df 4dbf bebf f283 250b a1bf ac3f
000004e0: df41 9250 2bcf 913f 4bed 4b37 3d48 b5bf
000004f0: 1ae0 3bf4 4e93 a73f 01fa bba0 c94b ac3f
00000500: 41a5 6320 967f c03f d16c 21b4 28e0 a83f
00000510: fd9c 9c03 9657 bbbf 41c0 2c08 3439 b73f
00000520: c125 8028 6e40 a23f 974b e90e d60d 9cbf
00000530: 3905 3b62 f745 babf b0bd b297 040e b6bf
00000540: 0742 8f3e 1000 a23f 0474 55b2 8d50 ae3f
00000550: ce77 f3a9 e980 bd3f 3810 19c1 956d a5bf
00000560: 6273 871a 0bad bb3f 05e2 196e 2424 b43f
00000570: 0c73 2b2b b389 ad3f b600 a25f 70a4 b93f
00000580: 18b0 c1fa db6b afbf b382 3050 5636 be3f
00000590: 0fc9 c93a 8fb4 9b3f 9b51 67de 0a1d 94bf
000005a0: e258 434e 8034 bb3f 7168 c336 095d b7bf
000005b0: 7e07 be7b acb4 94bf 6eee a1dd 09fd b4bf
000005c0: d4a1 fe81 e38a b0bf e949 da60 3d54 9c3f
000005d0: 35f1 aaf6 453b c23f 1ee1 d273 5248 aa3f
000005e0: 6acb d2b0 0d03 a53f eafb 52e8 4593 963f
000005f0: ab71 b7b4 7b13 9ebf 4c27 ac6f 225e c1bf
00000600: 354a 5433 05ee b4bf abea 0886 c6c4 9e3f
00000610: f084 9418 eadf c23f 5403 2bb0 e7d9 bc3f
00000620: f997 f6ac bf1f b53f 47e6 2ba9 4ce5 bc3f
00000630: cf23 100c ed30 9c3f 8df9 ae92 0335 babf
00000640: 6e91 a373 1e21 b9bf f36c e8ca 0cc2 b33f
00000650: 404e 1504 5c1c a03f 3e77 268c d66e b1bf
00000660: aec8 117f a246 c43f 58f6 fa4e 7267 89bf
00000670: 425c 6e34 8ba3 853f 348d 3c50 6214 a83f
00000680: 1199 92bc 818d abbf 43fc 0bbf 2fb4 b73f
00000690: 8239 b48e 6612 bf3f 0c9e c955 fb92 abbf
000006a0: 4f1e a969 3892 88bf 26e3 ed4a 6c9b a43f
000006b0: 368a c0d1 43fd 9ebf 0271 88c0 1e8e babf
000006c0: e80e 414a 4adb af3f ba65 d8e6 7fea 71bf
000006d0: d724 c5f8 2c7f b93f 8bc8 5735 501a b5bf
000006e0: 77e6 8be7 7d8e b2bf 1066 922f 26fb bf3f
000006f0: 5684 7a5a 15b7 7e3f 4775 ce5e 5584 80bf
00000700: 2f28 e8d5 38a0 a23f 0e07 a4aa 43a3 c23f
00000710: 9cd1 ce85 ef69 babf 331b 8b9e 1234 8ebf
00000720: b1ca 0d91 2464 be3f 2811 e80a ab74 b2bf
00000730: 86d0 2b7a 76be b43f 918a afee 716f c43f
00000740: b0f1 b977 73c3 923f 9cb5 567b 5d83 8e3f
00000750: 4206 f728 b9e2 a3bf 8745 97c2 8a05 84bf
00000760: 150c 1c69 5c13 c13f d8aa ccef 3e99 c13f
00000770: 5548 d4b2 836b a93f e84a 5a3c 8ec0 b2bf
00000780: 5f7a 4ef1 5e4a b93f c1dc a292 5216 96bf
00000790: eb61 103b 6214 b03f 4c1f 4af3 6957 b93f
000007a0: 2e36 59be 3927 b6bf 6352 0a84 505d 92bf
000007b0: 9407 e529 20d9 b03f 20cd 9cc3 777f 8fbf
000007c0: b16d 47ab 5fd1 abbf b65b f8a0 29dc b8bf
000007d0: d7fc 5c6a 635f bd3f d4b1 e69a 9b61 ba3f
000007e0: 951e 20e4 48df a0bf cec5 d85d 9695 843f
000007f0: 6cee bffc aa37 ac3f 1738 70e6 14db 99bf

fc21.weight f8 [64, 256]
0.10896535061414175 -0.10730230858315716 0.06813287866489336 -0.0006519437094473853 -0.018502235369634284 0.044200714345302906 -0.07127276719952555 -0.04325427984930782
-0.009688403850315597 0.02894896373265428 0.09890244545669738 0.0310796465410473 0.06203077774227909 0.01364432890882444 0.0055333821490435005 -0.03615978053656022
-0.010555064063174472 0.05056217646626822 0.028833058921432106 0.06470236971729099 0.12585144350415936 -0.037515581299451234 -0.044913686791222956 0.03552650203468629
-0.02208389084958634 -0.058178318712771925 -0.0028311832485584673 -0.050752548109101125 0.0187836851251748 0.018188963926972813 -0.035258505834907326 0.040765851896614844
0.09820969671752303 -0.04958327544806927 -0.0329277601964196 -0.07263679933425055 -0.009391213908842535 0.06620828064568648 -0.045227854247758104 0.12755263385404508
-0.01484299073998001 0.012500469901191897 -0.04833352822211646 -0.12625161034984894 0.005856125090868667 0.024183962163044234 0.06086258263234348 0.014607413865768954
0.01548092562801352 0.06703190775344475 0.010725139422389467 -0.01420988657339536 0.07142910143956213 -0.18578347110680435 -0.08836406961051604 0.008378795936154131
-0.02861859826321383 -0.10878850274491568 -0.06493227812223729 0.05020151739045124 0.0038991503794811705 -0.08510091283614858 0.062059270655960744 -0.05950518772987471
-0.022502808361068143 -0.014604677607362856 0.054323393918904304 0.08210077370513394 -0.009678189377232388 -0.13615828822095358 0.0009064921138611175 0.1021560787241081
0.033520872003930405 -0.06163362390085097 -0.00616493407214795 0.08812526365093469 0.04467689698465902 -0.05063537120668228 0.0658947878953585 -0.031206403033635886
0.022081476906173767 0.00850915161976884 -0.04561315118415155 0.09074920556647555 0.06795608660370708 0.03844442405706248 -0.02295157616142205 -0.02189026965404488
-0.007258569802447778 -0.004195596063462352 -0.1055283678958626 0.11945793017150068 -0.04713083860965094 0.07786289767419712 0.012101367383304437 -0.049066948477510156
-0.01233591414310538 0.05011541441701222 -0.041217368826508984 0.07049195870969506 0.04218963582396717 0.019199224737910175 0.08144094876286112 0.06253837447175362
0.030754834140105877 -0.029193632888872653 0.018019316032430076 -0.03703566236042923 0.04815889898161952 0.05020251828581878 0.013247752690830878 -0.04191029040891265
0.04252571271680368 -0.040627613954236835 0.03224215371300157 -0.008675569306648973 -0.08671145379035075 0.058731546253267125 0.006355633606822184 -0.02413799883718807
-0.05664955244399182 0.033250936664617106 0.006976566523982281 0.08893226875976856 0.11570464379404932 -0.03816605613634992 0.08702069097695556 0.026658827341945263
0.02153593854181474 -0.005655471086633861 0.05639096854280733 -0.06544141602924232 0.03809488647439901 -0.01828114135760195 0.068245048482242 0.040849159404444634
-0.08834277850042263 -0.030934761981787507 0.08120448559085684 -0.0028789325172223147 -0.04240672580913776 -0.024456174874447886 0.017584880354554532 0.02390943181561975
0.058908057995354965 0.034499213032399015 -0.07882575118215597 -0.07303368366504095 -0.1049539808380668 -0.11169968525447932 -0.005289971896523735 0.008337028141421551
0.07429585381771116 -0.027804339034089454 -0.0011830015681965106 0.016647481560984216 -0.056463727109227105 -0.04318419927653607 -0.012960949073046148 -0.0688445051679896
0.03745768789494992 -0.055353280128967924 -0.0700545646726517 0.024302879226304967 0.09254070134073028 0.14528448443743894 0.05062691684103959 0.006287996554900918
0.08004448954629897 0.01921564390827244 -0.06461246840710293 -0.038707996681802505 -0.0621039976584336 -0.04311601304894905 -0.05860185373613358 0.03577868333215676
-0.013757555766845122 -0.016983933414149704 0.010151253787676624 0.06349036813115815 0.023764537225329844 0.042304782908938965 0.08845401920470158 -0.14383241804549185
-0.03953457439936449 0.045101986055737224 -0.05015186883960848 -0.09878628200410758 -0.13943653140787723 0.014082725474022995 -0.05342670233547711 0.04646021895801299
0.007496312236364446 -0.019664418553598968 -0.06536279869138333 -0.13814750705953388 0.03613335610896054 0.02697007635656993 -0.07200983526303635 -0.010494368662373793
0.08527361884552895 -0.0490257986215049 0.0016165788252610353 -0.005808789828088495 0.017992326790665043 0.0021083423883417863 -0.0007246887698736862 0.058235419033059045
0.029064604219780552 -0.035020407161106694 -0.012485305553750395 0.11951773489034925 0.08184484005531588 0.10135603570566075 0.06008737734559021 0.08574610860885515
0.03635653768109327 -0.05587343070485171 -0.06448443577050013 0.010668396255795031 0.076706453653786 -0.06280060510054737 0.009390495200887514 -0.08681468810071898
0.028963410312668806 0.0795498113712543 -0.0186653164156307 -0.002867518161483585 -0.15188033121702407 0.02395970152400806 0.027272846941804957 0.047437466875512535
0.004870107656009768 -0.040820202034830534 -0.060613715555122794 -0.11679047680559429 -0.07060925400731885 -0.059913357586121 0.05726780271553698 -0.012425140306101718
-0.043339168595230154 -0.155239513864075 -0.09883566065152849 0.050144471002073365 0.07369747886219993 0.0025284450919421902 -0.009756590330330888 -0.09278610909266483
-0.021993705754662977 -0.08660329352627998 0.03696901480684015 0.03446782283381149 0.013363747034378932 -0.08193117160327203 0.04437979226976261 -0.04200200946682563
00000000: 04f0 4839 27e5 bb3f c963 2602 2a78 bbbf
00000010: cfe6 a505 2871 b13f 44ae 9874 e65c 45bf
00000020: 8b0b 43ff 3ff2 92bf fd54 25dd 79a1 a63f
00000030: 76a6 379c ee3e b2bf 3bc8 baca 6c25 a6bf
00000040: 1a18 808d 83d7 83bf f479 f011 cca4 9d3f
00000050: d21e bbb0 ab51 b93f d632 dcc5 57d3 9f3f
00000060: c53f 7f83 7fc2 af3f 1e9f 83d3 8ef1 8b3f
00000070: ddd2 dcf5 2baa 763f 718d abe5 8883 a2bf
00000080: 220c abb7 e49d 85bf daa5 ac1c 49e3 a93f
00000090: 4cdc 71d4 6986 9d3f bcd2 e8a1 5590 b03f
000000a0: d99b 006d e61b c03f 840b 8b05 3e35 a3bf
000000b0: 5c7a d23f edfe a6bf cbb0 c298 8730 a23f
000000c0: f09f ded3 289d 96bf 334d 6a70 8cc9 adbf
000000d0: 02f3 c4ee 6b31 67bf 606f a2ec 3cfc a9bf
000000e0: 7d73 3ec5 073c 933f 8a9e dbb4 20a0 923f
000000f0: 23fa ee22 670d a2bf 6e0b 6101 43df a43f
00000100: 6245 8d4b 4524 b93f aebe f4a4 fa62 a9bf
00000110: 8c2a 594a e8db a0bf c470 a045 5398 b2bf
00000120: eea1 dd64 b33b 83bf 2efd 18a0 06f3 b03f
00000130: 5089 b9f5 1a28 a7bf 16fd 750b a553 c03f
00000140: d9a2 6c7e 0066 8ebf f731 48ab d899 893f
00000150: 2150 0716 2cbf a8bf 468d c244 0329 c0bf
00000160: 24ef f19b 97fc 773f 0cd9 4f3a aec3 983f
00000170: 847a e963 6129 af3f d731 a9e6 7dea 8d3f
00000180: 06e4 45aa 76b4 8f3f b4eb 96cb 0029 b13f
00000190: e97c 83d8 0ff7 853f 2e9c e6b0 121a 8dbf
000001a0: d663 aa76 2d49 b23f 4b42 45b6 c0c7 c7bf
000001b0: ca5e 1e15 079f b6bf 9682 34f4 e628 813f
000001c0: ef36 649e 314e 9dbf 4760 7835 90d9 bbbf
000001d0: 9462 fdda 669f b0bf b699 cd66 03b4 a93f
000001e0: dbf9 956b 1cf1 6f3f 7db2 7d65 2cc9 b5bf
000001f0: b20d c393 3bc6 af3f 65fb 7bc6 7677 aebf
00000200: 0b70 eae7 f90a 97bf cbb8 89a5 0ee9 8dbf
00000210: c32e 94a0 46d0 ab3f 6a33 0a6a 8e04 b53f
00000220: 70ae e096 28d2 83bf d981 7e81 a26d c1bf
00000230: c7b9 d6fd 34b4 4d3f 4528 3599 e626 ba3f
00000240: 6206 fbd1 a529 a13f b7ea f93d 718e afbf
00000250: 2fc9 8ce3 6640 79bf 4307 5595 608f b63f
00000260: 8d2a dfe6 e3df a63f a200 b51e e1ec a9bf
00000270: a7c7 fc16 7bde b03f 0630 d241 92f4 9fbf
00000280: 9938 a3d4 869c 963f 008f 63ff 3e6d 813f
00000290: 61f5 3461 9b5a a7bf 3dc6 0b06 573b b73f
000002a0: c6ed 86f1 9165 b13f 7dc8 13d0 fcae a33f
000002b0: 7a14 0534 9e80 97bf 0d19 0f21 676a 96bf
000002c0: 8c0a ad7e 29bb 7dbf 2ba6 13be 662f 71bf
000002d0: 77b9 e938 e803 bbbf 539e 557f cb94 be3f
000002e0: 5f4a ec84 8821 a8bf d31c 15a7 d2ee b33f
000002f0: ab75 2f09 9ac8 883f 4204 0d96 4d1f a9bf
00000300: e9b9 7c5e 9243 89bf c7a2 e443 baa8 a93f
00000310: 4528 4666 711a a5bf f103 4ad1 c20b b23f
00000320: 6f2c 3044 e199 a53f ab77 6e29 f6a8 933f
00000330: 10e0 7d63 50d9 b43f 22e7 19d1 8302 b03f
00000340: 8f79 4dfb 317e 9f3f 7c5b 098a efe4 9dbf
00000350: d3e8 38d4 a773 923f 135b 3f9d 56f6 a2bf
00000360: 615c 4680 48a8 a83f 3fca 6dfc 24b4 a93f
00000370: 37c1 6b44 a321 8b3f 0923 58fd 4375 a5bf
00000380: ba2c b722 eec5 a53f acf4 7e82 24cd a4bf
00000390: 04f9 7f27 0b82 a03f 9de5 9133 7fc4 81bf
000003a0: 1ada 37ca b832 b6bf 5c76 cdac 0f12 ae3f
000003b0: ca5b c967 5d08 7a3f 6aed 62ae a1b7 98bf
000003c0: 5ef3 288e 2b01 adbf 3261 124b 4406 a13f
000003d0: 1424 f1d0 7593 7c3f a8dd e1e1 43c4 b63f
000003e0: c83c 17cd d19e bd3f 5e89 d855 808a a3bf
000003f0: c243 d2ed fc46 b63f c55d 559e 734c 9b3f
00000400: b12d e75e 840d 963f dfe0 c4f5 302a 77bf
00000410: 0fbc 5ceb 46df ac3f 5547 a6c5 c4c0 b0bf
00000420: 17d1 1a47 2c81 a33f e0cc 0ea1 4ab8 92bf
00000430: a85c 58eb 8178 b13f db1f 6c57 2eea a43f
00000440: 1a41 7fe0 a19d b6bf 4dd5 15bc 5cad 9fbf
00000450: 3bb7 e631 d1c9 b43f 7196 4820 8f95 67bf
00000460: 741c f698 55b6 a5bf cc83 151d 0a0b 99bf
00000470: a387 1b58 c501 923f 592a dbce b67b 983f
00000480: 0631 1f6d 3229 ae3f f27c 6c7f e1a9 a13f
00000490: 51f5 68a7 ec2d b4bf d206 d9e2 55b2 b2bf
000004a0: 7dd5 489b 43de babf 2c38 24bf 5998 bcbf
000004b0: b060 ad04 f0aa 75bf b8b5 b4f9 0013 813f
000004c0: 8d1e 6096 0d05 b33f 0d6e 5a9b bd78 9cbf
000004d0: 1232 fa42 de61 53bf 6ef4 7593 090c 913f
000004e0: 1255 b04a d0e8 acbf a37e 3147 3d1c a6bf
000004f0: 4e9d 2623 458b 8abf 82b0 3422 cb9f b1bf
00000500: 1a34 fc70 a72d a33f 54af c2df 4357 acbf
00000510: c85d 3490 18ef b1bf 4e08 e79d dae2 983f
00000520: d4ad ce55 bfb0 b73f e533 a396 ae98 c23f
00000530: e057 4270 c5eb a93f bd76 f838 71c1 793f
00000540: da8c d3b0 cb7d b43f fa64 a108 44ad 933f
00000550: 4beb b856 718a b0bf 051d afd7 88d1 a3bf
00000560: 77a4 c95d 18cc afbf 8c52 f553 4d13 a6bf
00000570: f036 90ea 0f01 aebf 8571 9c65 9551 a23f
00000580: 4162 bbe0 eb2c 8cbf 7bec 487a 3c64 91bf
00000590: e471 4038 2eca 843f b7fc bb9e e740 b03f
000005a0: f1dc bf18 bb55 983f e8d5 1df6 f8a8 a53f
000005b0: 4c17 af2f eca4 b63f 1414 cec5 1969 c2bf
000005c0: a28d 3630 e03d a4bf ef25 3086 9b17 a73f
000005d0: 58b1 ff78 81ad a9bf 7a46 80ca 0e4a b9bf
000005e0: 73db 2167 0ed9 c1bf 7ab9 cb6a 67d7 8c3f
000005f0: 242b 87a6 be5a abbf 5fb5 fa41 a2c9 a73f
00000600: cf27 55fe 73b4 7e3f 728b 54ca e822 94bf
00000610: 6b28 c1ca 9dbb b0bf be1c 6c48 d1ae c1bf
00000620: 04bf 903d 1280 a23f 8a38 b02f 0b9e 9b3f
00000630: 55f1 718f 3c6f b2bf 9d95 9351 127e 85bf
00000640: 9e32 27ec 7dd4 b53f ceb2 7ad3 e819 a9bf
00000650: 88d2 e54b 6c7c 5a3f e0a4 7425 f5ca 77bf
00000660: d253 949c 946c 923f fb12 6ab3 8345 613f
00000670: bb55 7f48 21bf 47bf 2d83 6e68 08d1 ad3f
00000680: a96c 6192 1cc3 9d3f 652c e6de 31ee a1bf
00000690: 887a 4558 e591 89bf 6a63 a5da b698 be3f
000006a0: 6749 628f c8f3 b43f 47a7 9b1a 78f2 b93f
000006b0: ce14 34d1 c5c3 ae3f e2fa 3bfc 74f3 b53f
000006c0: a213 acf8 529d a23f 2d71 2f3b 719b acbf
000006d0: 513d bc4e 0d82 b0bf a6bf 27e8 4fd9 853f
000006e0: 6ecc d5bd 08a3 b33f ad6b 1351 b313 b0bf
000006f0: b89a 3fee 523b 833f bd7c 34c6 7c39 b6bf
00000700: 814e 4b90 95a8 9d3f e214 3e5e 605d b43f
00000710: b56a 4c2e 001d 93bf 351f 2d17 9f7d 67bf
00000720: 49cb bd8f d070 c3bf c0c1 de59 e488 983f
00000730: 5847 bcc6 69ed 9b3f d0ba ab41 b949 a83f
00000740: cadb c491 adf2 733f 65ec 82b1 62e6 a4bf
00000750: 0821 ffcb c208 afbf 1041 5d0e fbe5 bdbf
00000760: dea2 c1b4 7213 b2bf 3a15 daae f6ac aebf
00000770: 6ed4 8d97 3452 ad3f ea74 1a1a 5a72 89bf
00000780: 3433 812f 8d30 a6bf 09ec 8b6d e3de c3bf
00000790: 4847 2d3a 4b4d b9bf 88e9 0e3e 89ac a93f
000007a0: cac3 8285 d6dd b23f 3713 599f 88b6 643f
000007b0: 632a 1d63 43fb 83bf 387a 1398 d4c0 b7bf
000007c0: 218b bc9b 8485 96bf c3d7 6b29 a22b b6bf
000007d0: 7516 1f4b 9aed a23f 36cc ab37 c4a5 a13f
000007e0: 44a7 b7c3 735e 8b3f c11b 8ff6 70f9 b4bf
000007f0: 5dc6 cdb8 f2b8 a63f fe76 0d92 4981 a5bf

fc21.bias f8 [64]
-0.030029262338175898 -0.0652769709179816 -0.01308548323195026 -0.035003384163805544 -0.04613275151745791 0.014452127373184246 -0.03658520672835906 0.06484491872379292
-0.012700471399504806 -0.013866232555408984 0.08766895376737618 0.07012576069512678 0.03546178078361728 0.04954784709280245 0.054080214059923803 -0.06413389078107583
0.015754107094225547 0.07112720823985082 0.040815021189070856 0.07917275046160209 0.014909096904380362 0.02606530309392576 0.028389297690004898 0.05886510634525921
0.056518027598436375 -0.010643499431424147 0.06788866290764364 -0.049577508561116014 -0.01796707445697401 -7.4988245147526835e-06 0.07340655279389295 0.05622080146105428
0.022123378374996214 -0.01311280730404621 -0.023459709679276256 0.03199489529339885 0.008932964065100543 -0.0225268817390176 -0.01795352798708099 -0.022769592812017993
0.026983032202286334 -0.05262076346001941 -0.02700219637018021 0.0632435928562829 0.010831777285003128 -0.00039066824520497134 -0.04520053560310839 0.016227351572993418
0.013602603374368628 0.05828107026981736 0.06491304149783954 0.06097733699195324 0.034774046783693134 0.003270959989562856 -0.03522533476504485 -0.005463751191987547
-0.03437294539866139 -0.05324320257216189 0.043060695431099555 -0.007450933499248881 0.06599518159435182 0.013906508031092838 0.02245244875270326 -0.02616593610094799
00000000: f670 a9ae fdbf 9ebf 0a51 46d7 fdb5 b0bf
00000010: 08c7 44d4 8fcc 8abf 9f3a 77ac f6eb a1bf
00000020: e47d 1546 b69e a7bf c253 67b3 1399 8d3f
00000030: ced6 d4d4 4bbb a2bf feff 3a35 ad99 b03f
00000040: beef 6f6a b402 8abf 45f2 c03a e665 8cbf
00000050: ca2f 4ef9 7871 b63f d9ed ca08 c3f3 b13f
00000060: 2076 72e9 0b28 a23f 6e9b b3dd 555e a93f
00000070: b000 7fdd 66b0 ab3f 134f 7823 146b b0bf
00000080: 4451 fd3a d821 903f fdf5 3e89 6435 b23f
00000090: 4d9d 62da b4e5 a43f 078a f755 aa44 b43f
000000a0: 020b f01c a988 8e3f c61b 65e1 dcb0 9a3f
000000b0: 0938 8a84 1512 9d3f 40c4 4135 9123 ae3f
000000c0: 2fe4 5650 eeef ac3f f09f c84f 42cc 85bf
000000d0: 921e f5c2 2661 b13f f538 c623 3962 a9bf
000000e0: 873d caf4 f565 92bf 7e6d e92f cd73 dfbe
000000f0: 8fd6 8f97 c5ca b23f 56a1 420f f9c8 ac3f
00000100: 5cfc 63ca 82a7 963f d1ad 3c34 e3da 8abf
00000110: 2474 6277 d205 98bf a322 d989 a261 a03f
00000120: 6baa 2024 724b 823f b956 6671 4911 97bf
00000130: ee96 35de 6862 92bf 8a27 e281 e950 97bf
00000140: b545 6ca3 70a1 9b3f ce7b 4dd4 1bf1 aabf
00000150: 2304 52b9 76a6 9bbf 70d0 ff6a bb30 b03f
00000160: 25ba 9289 f82e 863f 83a9 3456 539a 39bf
00000170: 39a4 5a4c 8624 a7bf cc0f 3a21 e79d 903f
00000180: 9a25 1185 aedb 8b3f e5c9 9135 04d7 ad3f
00000190: 3b2e 511e 249e b03f b9ef 5ae8 6b38 af3f
000001a0: 93fe 5e63 e7cd a13f 2976 d045 b3cb 6a3f
000001b0: 1ff0 9c19 0e09 a2bf 38d8 ed8a 2861 76bf
000001c0: bb79 b5a8 5499 a1bf 0440 906b b142 abbf
000001d0: cc3a 3d2d 0d0c a63f 9b5b 43bb de84 7ebf
000001e0: b12d a46a 0fe5 b03f 4293 8fe9 037b 8c3f
000001f0: 6491 6e54 c6fd 963f 658b 4a3f 3ecb 9abf

fc22.weight f8 [64, 256]
-0.03320438729051547 0.05686387951312507 -0.01416497628350269 0.023960858501566134 -0.014954702254714064 -0.02342866653081986 -0.0833748988213727 -0.02464202206103775
-0.03544926576278252 0.05632287488006491 0.015244245589785686 -0.02855267251551368 -0.008542380165967998 -0.007928651808157336 0.05870077938054302 0.01976229893489512
0.06118675817732081 0.06249537624629282 -0.03243592517274808 0.03487295043252262 0.026154767475224733 0.02785121411193515 0.07295702246446158 -0.018595515480260578
0.05968308620571138 0.019842044499047955 -0.011981309089162489 -0.008659054342340601 0.08338586086705063 -0.05151124610015543 -0.0029830497904412894 0.005492400624153195
0.03190824838657805 -0.04434449706782578 0.06520180248446714 -0.008691104307124168 -0.009338098785662465 0.016440272417580126 0.09414810984237389 -0.049427050906465826
-0.0007224446938742838 0.06953847076375518 -0.030494493006905325 0.06497334307267374 -0.030462903986567983 0.05588246058131583 0.05542221006568122 -0.01868921101397481
-0.011202991379366027 0.05478958349264423 0.04732769515106505 0.01809871724802974 0.0291891720366158 -0.00025935955215395897 -0.03850748562327338 0.04215634653181159
-0.04027154348882351 0.0884733359290472 0.03974343745287936 0.007999692636381079 0.05628322475781769 0.01252680933124573 -0.03425256601393693 0.008622641590986581
-0.022683519220212597 -0.03878032738069125 -0.04477826978322614 -0.01388026347112321 0.057624686989606044 -0.03482592780194807 0.006588095592941677 0.02117202364485992
0.03219564062854311 0.08077697538283596 0.014540064892710971 0.042445833609262996 -0.06216160963204744 0.044356481952972204 -0.0013632616449982967 0.025542728326191397
0.04698462796901571 -0.004092740656764182 -0.011859577498194128 0.05439380652870216 0.009347363700157795 0.057330085419175156 0.0019115031841938246 0.01888922647573627
0.06661210186751378 -0.01493044988199052 -0.020068400357245404 0.05130561409061332 0.022616328038909478 -0.035559072967573664 0.05704648845688207 -0.014390988779016413
-0.03767308406821621 0.021638384196994574 0.03157820215733951 0.04418250758614329 0.05858792436208179 0.010635418284658572 -0.012144615902648244 -0.02066206122382436
0.057984653950365166 0.050690976715539945 -0.042269692549632226 0.03662363508873236 0.0030389913439062377 0.08055540291116503 0.004676112934566798 0.06492463173223041
0.06514979834644213 -0.04975864281349745 0.006549618141225565 0.04986073036371121 0.00476302905009123 -0.0483960895362922 0.024936480546388973 0.02493368617870193
0.04266540866731509 0.055243442580668815 0.05398652943469648 -0.017101378984151174 0.04061567504308 0.016645821158725718 -0.01041765764702699 0.023354059045091764
0.05351885535939712 0.04644483057683333 -0.04400769619668538 0.025131385816081715 0.05989734671003501 0.012917337894213926 0.025710923917235135 0.04989353342633122
-0.001989073662139703 -0.04692432467257921 -0.03746278692485948 0.05870265897145243 0.04016028031819568 0.05444225081504617 0.06461131313206679 -0.04499805559143596
-0.002257109775574638 0.07708147430638326 0.06069938283206977 0.03082549903450252 0.06447600695309606 0.019459691274180946 -0.013835601973035962 -0.039576424258238506
0.060425617029481286 -0.03833074420499004 -0.008097733818654475 -0.008494488794353957 0.014087229992650262 0.007400333080166611 0.008359831427397421 -0.00904572638904576
0.023804068761105232 0.039375744634720454 -0.03631049013124967 -0.015226118170851394 0.027021382494703594 -0.01660905311620997 -0.019292544539656533 -0.027870174020264975
0.06437189022001823 0.04337050978053026 -0.02728355106803468 -0.02414444785623724 0.0009088122147351418 -0.041292985384067615 -0.03690342150048648 0.01777653890163631
-0.03231816859801473 -0.028748196508772736 -0.01278607915467862 -0.033395858613977064 0.05014624827591705 0.001110285169509307 0.05003177347541539 -0.06437315003773603
0.04576785683624006 0.036435659292477 -0.005433864445284739 0.008173469647810704 0.0539314282813463 0.013563480229858312 0.06611848561961138 -0.032287946467790984
0.04488843442103253 -0.043695187094783726 -0.03748161220727272 0.07709170983136722 0.02044757549043907 0.09885264662081515 0.02804578613141493 -0.027321725355192932
0.036458121730538966 0.04215548107250521 -0.00876842705954812 0.005575308507413236 0.06257279263847214 0.0007448273024121606 0.027126704638059 0.05173541455580952
-0.04148846745978013 0.052118904732446944 0.09119566720235667 0.04139806261676327 0.030712161724153326 0.02436412521692796 -0.017520621970934114 0.04809194125070387
-0.025020627593529833 -0.0005730230804028998 0.05202582203014348 0.06086366300874644 0.0003348350212452286 0.01718271284141066 -0.06281271788243517 0.0007553084670354274
0.010274803712848096 -0.019945515384267996 0.036911529928110504 -0.05605820545991918 0.03461748256945971 0.05657833837919124 -0.014729766748764833 -0.018184769774977835
0.06359978104552841 0.015541004841541115 -0.005769189982791681 -0.00127593492101542 0.05724470364818753 0.03715110957097042 0.03931302678174895 0.02661050798416435
-0.040196960860246336 0.050831221020797526 -0.032162459240295774 0.06680897382566169 -0.08100997463746176 -0.025514723195939063 0.07936504501672498 0.007164468163136133
-0.022502875541246845 0.02576607157600227 0.038154246106427994 0.01804910911947169 0.03307526105527763 0.08422229954817391 0.03251187864999961 0.03745573196952333
00000000: e332 fe5a 2a00 a1bf db44 aa2d 431d ad3f
00000010: 500f 17ef 8602 8dbf 9bde 97fe 3189 983f
00000020: 7de3 d728 92a0 8ebf fcb0 2732 affd 97bf
00000030: 2ebf beaf 0e58 b5bf 4a18 701b c23b 99bf
00000040: 219a 3cfa 6726 a2bf edce 4013 5ad6 ac3f
00000050: 9223 1502 6038 8f3f ce8c ab6a e93c 9dbf
00000060: 4ceb 8adb aa7e 81bf e53f bda1 e53c 80bf
00000070: 68d7 604f 070e ae3f 8102 7a6e 913c 943f
00000080: d5c3 a3ea de53 af3f e911 42da 64ff af3f
00000090: b137 aa0b 719b a0bf 55d4 3e0b deda a13f
000000a0: 0526 c3bb 50c8 9a3f c301 0f57 0785 9c3f
000000b0: 2197 7fb9 4fad b23f f523 5ceb b30a 93bf
000000c0: 5f79 c10e c88e ae3f 4b35 d610 7951 943f
000000d0: 7619 9c15 a889 88bf 0195 b799 d6bb 81bf
000000e0: 146f 5f99 c658 b53f 3db4 c09a ae5f aabf
000000f0: 0e66 5aa9 e86f 68bf cf91 ea10 337f 763f
00000100: c403 9626 4756 a03f 08e8 5369 52b4 a6bf
00000110: 2ea0 4fb9 10b1 b03f 422d 1f46 a4cc 81bf
00000120: 2e41 2167 da1f 83bf d3bc 7b01 b8d5 903f
00000130: 79d2 c02c 171a b83f c1ab 5c9e 804e a9bf
00000140: 2280 ab2a 4eac 47bf 9f82 bef1 45cd b13f
00000150: c1e7 b0c8 f239 9fbf 4ee2 9bcf 17a2 b03f
00000160: b138 74e1 aa31 9fbf 0dc8 3b39 a09c ac3f
00000170: 6985 68c7 4c60 ac3f 624c 5fb8 4323 93bf
00000180: dce5 bb0c 98f1 86bf 2755 865a 610d ac3f
00000190: 20de bced 553b a83f ad27 b85a 7888 923f
000001a0: 0ea7 2d2d c4e3 9d3f c638 5ecb 54ff 30bf
000001b0: 9769 cece 40b7 a3bf 0690 5843 8495 a53f
000001c0: 89e5 7cc4 789e a4bf 9b1e 6244 30a6 b63f
000001d0: 4375 2e78 4059 a43f 2aae 0292 2462 803f
000001e0: b4e6 4ba3 27d1 ac3f c319 35e3 a7a7 893f
000001f0: 36fa aa65 8d89 a1bf 417a 1b5d bfa8 813f
00000200: 3c04 d634 593a 97bf 5f0f a8db 03db a3bf
00000210: 19b2 9468 2ded a6bf 66c1 586d 416d 8cbf
00000220: 680c 20a4 fb80 ad3f a4a8 ec39 b4d4 a1bf
00000230: 586d d571 1efc 7a3f 9e49 9474 1eae 953f
00000240: a58f 256f f27b a03f fc00 8ac3 ccad b43f
00000250: fb39 9179 2ec7 8d3f 5d0f 68d6 75bb a53f
00000260: e36a df80 a5d3 afbf f80e b58e e4b5 a63f
00000270: 461b 980b ef55 56bf 5915 3f7b df27 9a3f
00000280: 1153 1581 5e0e a83f 4057 59b4 8cc3 70bf
00000290: 4c33 fe8b d549 88bf bd9c 4a48 81d9 ab3f
000002a0: 93ff 2aeb b524 833f 7e8c e773 5e5a ad3f
000002b0: 4d53 63ea 6c51 5f3f b110 d787 b257 933f
000002c0: 49ee 099f 7d0d b13f 3067 a90f db93 8ebf
000002d0: 159f de8c cf8c 94bf 94a2 3dbd ba44 aa3f
000002e0: 6882 2115 bc28 973f a190 f17e cc34 a2bf
000002f0: 2d43 8c84 3235 ad3f a7c7 4dd1 0579 8dbf
00000300: 7d5f 06f0 e249 a3bf 1985 db61 5f28 963f
00000310: 0d83 10a3 042b a03f 2188 46f2 169f a63f
00000320: 4bbd 2686 3cff ad3f daf2 b1ad 05c8 853f
00000330: 37ae fec0 46df 88bf 71a8 e574 6f28 95bf
00000340: f7fc c520 2ab0 ad3f 061e 64ee 2af4 a93f
00000350: a4ac 3986 5fa4 a5bf 03f9 ee45 55c0 a23f
00000360: 97bc ea0d 3ae5 683f b001 0565 479f b43f
00000370: 6399 0582 4227 733f 79a9 fe91 e69e b03f
00000380: bc2c 3d3d a8ad b03f 1796 27ff f679 a9bf
00000390: 7f52 7cbb c5d3 7a3f d39b 887c 5887 a93f
000003a0: b629 00e0 6582 733f 5715 a04b 5fc7 a8bf
000003b0: 4042 b2e1 f288 993f b933 d35a 3788 993f
000003c0: 450e cb8d 3dd8 a53f 6fa4 6756 de48 ac3f
000003d0: ac70 b154 1fa4 ab3f 3750 d01d 0683 91bf
000003e0: 08ad 07e8 93cb a43f 4498 f725 9a0b 913f
000003f0: 13c4 2857 da55 85bf f561 4f5f 20ea 973f
00000400: 8bd6 f9ca d266 ab3f 0da1 cae8 9dc7 a73f
00000410: 49c7 df3f 2d88 a6bf 72a0 bbc0 0abc 993f
00000420: 623a 7972 ddaa ae3f 50cc 74be 6774 8a3f
00000430: d574 7fe5 f653 9a3f d529 b22c a58b a93f
00000440: abd1 80ca 634b 60bf fd12 b60f 7706 a8bf
00000450: 2e8e 5189 522e a3bf 4ff6 f060 460e ae3f
00000460: 1733 2165 e38f a43f a0e1 8acd dadf ab3f
00000470: 6795 daf4 5d8a b03f 7b30 4c32 fc09 a7bf
00000480: 7d28 6d95 807d 62bf 42fc 458b 9cbb b33f
00000490: 1060 4d50 fd13 af3f c9bb f138 b890 9f3f
000004a0: cf7e 3de5 7f81 b03f 8d92 73c6 3ded 933f
000004b0: a111 f50f d755 8cbf 7375 c36f 5c43 a4bf
000004c0: 87e8 f641 1bf0 ae3f 5e63 9559 16a0 a3bf
000004d0: e1f6 616f 8b95 80bf ab3d 8bfc 8e65 81bf
000004e0: 1997 e000 c4d9 8c3f e7ef f0c8 cf4f 7e3f
000004f0: 985d a594 f51e 813f f97c 13d8 9086 82bf
00000500: ccdb 5c03 1860 983f 5b6d ecbe 0e29 a43f
00000510: 031c 3bdf 4997 a2bf bdf0 b5fc de2e 8fbf
00000520: b009 6e48 7eab 9b3f 007d ceaf f601 91bf
00000530: 77f4 6abf 6cc1 93bf 0eb0 cdb7 ff89 9cbf
00000540: 89d4 461b ad7a b03f 1188 3cd2 a834 a63f
00000550: 394c 391e 38f0 9bbf 1aa8 b077 52b9 98bf
00000560: 8577 c85e abc7 4d3f c8bb 8eab 5a24 a5bf
00000570: e801 e958 01e5 a2bf 9ad8 df54 0334 923f
00000580: 80e2 63ca 018c a0bf acf0 4bcf 2a70 9dbf
00000590: 26de 817e 962f 8abf 1c43 2311 4319 a1bf
000005a0: 0d6d b9e0 c4ac a93f 6974 819f df30 523f
000005b0: baf2 acbd c39d a93f 500f 273e c27a b0bf
000005c0: 9eaa a370 e26e a73f b986 23da b1a7 a23f
000005d0: 2396 55e1 d141 76bf 2c56 a886 40bd 803f
000005e0: bad0 6371 e69c ab3f 7eb6 0e80 2bc7 8b3f
000005f0: f5b3 651d 24ed b03f c0b0 44b4 0b88 a0bf
00000600: e22b 9deb 9dfb a63f 0320 212f 375f a6bf
00000610: db5f 4335 ca30 a3bf bdb8 8444 48bc b33f
00000620: df42 0e90 35f0 943f a704 5c34 684e b93f
00000630: 3a70 e6d8 08b8 9c3f 7bbf 7bf3 39fa 9bbf
00000640: 6f33 0391 a3aa a23f cf6b 1b39 6795 a53f
00000650: 253b aa5b 2ef5 81bf ce6d 457b 22d6 763f
00000660: a76a 0042 c504 b03f 3af6 d773 1068 483f
00000670: 012a 1355 1ac7 9b3f 3cd9 1f73 107d aa3f
00000680: d844 cdf5 f93d a5bf ce8c a83e 54af aa3f
00000690: 14c8 2b68 9958 b73f 710f 1d7a 2032 a53f
000006a0: d55f c748 0273 9f3f 3769 02c4 e8f2 983f
000006b0: 8da3 7b09 edf0 91bf 37f0 bec5 819f a83f
000006c0: 3a5b f5e4 019f 99bf 8c89 f1b1 ddc6 42bf
000006d0: bd7e 55e8 20a3 aa3f 3d50 46a4 8529 af3f
000006e0: a8e9 3e77 99f1 353f d277 d756 5898 913f
000006f0: 72f3 1389 7e14 b0bf 4014 0895 fcbf 483f
00000700: d623 5bcf f40a 853f 76f3 1be1 986c 94bf
00000710: 2ceb c56b 11e6 a23f d7df 3e3e a9b3 acbf
00000720: 6ce8 02f7 61b9 a13f f054 0002 d6f7 ac3f
00000730: d08f b5d3 a32a 8ebf 1c12 e03d 079f 92bf
00000740: ee90 9f43 1348 b03f d2c7 545c f6d3 8f3f
00000750: 36da ce24 6fa1 77bf 3248 7cb0 a8e7 54bf
00000760: fb8b 1384 2d4f ad3f db1f 3c61 7805 a33f
00000770: 5d34 ab48 d620 a43f 8b75 16f6 c83f 9b3f
00000780: fa31 9630 b294 a4bf 62d6 ccbf 8c06 aa3f
00000790: 5a27 310d 9977 a0bf f318 a995 641a b13f
000007a0: 62ba b7d7 11bd b4bf 21af c516 8820 9abf
000007b0: d4da ca80 4451 b43f ac2f 4347 7d58 7d3f
000007c0: fcfc 0f6a fe0a 97bf 57b1 0fcb 6b62 9a3f
000007d0: ea16 760e f488 a33f 886d 8f35 777b 923f
000007e0: 4702 1499 3def a03f 2540 27b6 978f b53f
000007f0: a108 119f 65a5 a03f 4eb4 b6cf 652d a33f
