weights/model_25_smgbin_suite_w_lims_opp_pen_dgoal_fixo_obs_l_1_bn.pth (torch, 423074 bytes, 14 tensors)

fc1.weight f8 [256, 8]
000000 1f 85 40 49 f9 a8 c7 3f ef c6 c1 9e f5 85 d4 bf
       0.18484417034873332 -0.3206762361870536
000010 5c 59 7f 61 a2 3f cb bf a2 fb fd 2a 8f 69 d6 bf
       -0.2128794647275737 -0.3501928253025942
000020 b1 e4 42 5d 3b 25 a7 3f a0 e2 40 3a 38 81 cc 3f
       0.04520593179172162 0.2226934704247201
000030 b3 ea fb 0c 45 28 d1 bf 19 e7 46 87 43 24 d1 3f
       -0.26808286922429686 0.26783836565629
000040 66 e8 75 20 cf 36 d2 bf 41 cc f4 83 03 79 a6 bf
       -0.2845952813146425 -0.043892011506976754
000050 52 a4 90 82 a3 b2 d8 3f c8 c0 3e 06 62 7c d1 3f
       0.38590324163903234 0.2732167302119817
000060 42 e4 c1 af 37 b6 d6 bf 9d 52 38 83 0f 20 a6 3f
       -0.3548716751461748 0.04321335293585558
000070 03 3c 15 f4 3f 1e d3 3f 57 99 fc 9f c6 6a b2 3f
       0.298721302377942 0.0719417706101003
000080 26 c8 66 57 c0 d4 b7 bf c5 62 6f 8d cb 27 ba bf
       -0.0930900777227924 -0.10216972544675247
000090 00 b8 9f ed 50 67 d3 bf 3b ad 40 0a 10 26 c9 3f
       -0.30318091588458174 0.19647408009164188
0000a0 af ac aa 63 c9 20 c6 bf 07 f8 55 43 99 9b c6 bf
       -0.17287556997812234 -0.17662349498635896
0000b0 05 6a fa 6c 0a b8 b8 bf 81 81 60 ce e9 5a cd bf
       -0.0965582386074076 -0.22933695389748368
0000c0 ac 83 0d c4 cc 98 b0 3f 66 05 30 70 65 df c4 3f
       0.06483154093213156 0.16306751230153366
0000d0 15 ff bd 7d 56 d4 a7 3f bf b6 ba 7f bf f8 b1 3f
       0.046541884278665936 0.0702018439139591
0000e0 21 b0 b3 a5 70 e1 d3 3f d7 a4 71 33 db 5e a9 3f
       0.31063476735903534 0.049551820783401083
0000f0 cb e2 70 8b 43 62 ce bf 0d f7 53 b8 b5 06 ca 3f
       -0.2373737746109071 0.20332976818456708
000100 a3 9b 46 61 31 54 d2 bf 53 5e 5e db 87 92 d4 3f
       -0.28638872623053596 0.321443523623633
000110 5f 00 a7 81 ae 3a b8 3f 91 fe 4b 6b 7f 46 b6 bf
       0.09464541116085588 -0.08701321000625685
000120 0e e5 0b 4a 69 05 b4 3f 6e 62 b0 86 ff d5 b4 bf
       0.07820756967329975 -0.08139035261445723
000130 62 4f 8b db b2 8d c2 bf b4 ba f8 c4 48 1b d1 3f
       -0.14494930000239054 0.2672902988005419
000140 88 9a 88 00 9a 1e d3 bf c3 94 b3 3d 05 1f d3 3f
       -0.2987427716456428 0.2987683394006348
000150 f0 54 00 3b e9 a5 c0 bf ea 1d 45 5e dd 98 d5 bf
       -0.1300632036297098 -0.3374551220517491
000160 69 9d f2 a9 b4 44 b7 3f b0 b7 d2 3e e7 5f ac bf
       0.0908921160613453 -0.0554191841305135
000170 63 23 4b a3 64 53 9a 3f 28 41 fc b9 11 a6 d3 bf
       0.025708744494099444 -0.3070110622657176
000180 6f ef 17 05 88 d1 b3 3f 5d b7 dd 52 75 ea d9 bf
       0.07741594433167419 -0.40493519871130507
000190 52 53 53 73 dc 8d d4 bf b8 3d 28 13 8a 28 c9 3f
       -0.3211585165238847 0.19654966292772058
0001a0 a8 5b f2 63 47 53 d1 3f 94 6c d8 78 ec 69 c4 bf
       0.2707079387704945 -0.15948253536848667
0001b0 50 4b f9 bd 5f d0 cb 3f de 60 ca d0 42 36 99 bf
       0.21729656959595411 -0.02462105178219153
0001c0 3a d4 81 7e 5e ae d0 3f f4 5b 00 a3 41 ed 98 bf
       0.26064264635289514 -0.024342561315361125
0001d0 5c eb ef b8 ef bb c9 3f 39 3e 78 22 27 f7 c4 bf
       0.2010478642476653 -0.1637925070103721
0001e0 ad 3b 75 1e d7 fc cc bf 14 41 26 59 86 60 d5 3f
       -0.22646607386783782 0.33401640611647676
0001f0 54 65 74 71 49 a6 c5 3f e1 97 c0 59 7e 7e d6 bf
       0.16913717307833542 -0.3514705540168262
000200 1f 0a 4f 26 d2 4d d2 3f 29 58 eb 7d 41 b6 bc bf
       0.2859998106106633 -0.11215600322916032
000210 b9 9f 2a 39 a9 be d3 3f a8 6b 1e 3c 47 aa 8f bf
       0.3085120256678198 -0.015461498758488748
000220 a3 a7 c2 83 5b dd d4 3f f9 0d 06 ba 94 7a c0 bf
       0.32601058833335567 -0.12874087413011617
000230 a6 09 52 54 43 ec a2 bf 57 7f 64 66 b6 6c d1 3f
       -0.03695879368116843 0.2722602844169066
000240 7c 49 b8 18 e1 86 c0 3f 2d e3 17 c0 ad 72 c7 bf
       0.129116189069986 -0.18318721656376039
000250 e5 67 99 87 99 7c c6 bf bb ad c7 74 2a ec d1 3f
       -0.17567748185211865 0.28003941921516756
000260 08 74 b5 fe d5 4c cd 3f d5 77 36 3a 88 0c c1 3f
       0.22890734612420283 0.13319495050831046
000270 52 ce f6 97 58 31 c8 3f 29 db 47 9e ae 62 d7 3f
       0.18900592250939724 0.3653980775556414
000280 36 30 0f d9 e2 4d d5 bf 38 5e 32 66 1c 2d 97 3f
       -0.33287879178238045 0.022633022058100333
000290 c8 f6 ca 70 89 a8 ca 3f 1f 3e 1e 8a 5d 2d ba 3f
       0.20826833732092198 0.10225472089791098
0002a0 aa ba aa 04 85 0c cc 3f 5b 1f 4d dd ba 54 b5 bf
       0.21913206794620993 -0.08332412627089296
0002b0 0b 6b e2 7b a7 19 cc bf 71 c8 cf 0b 63 10 c8 3f
       -0.2195329050926705 0.18800008846989472
0002c0 48 25 e6 de a4 f8 d2 bf ef 14 87 0f 5b 81 ba 3f
       -0.29642602698784914 0.10353631142705287
0002d0 90 96 89 24 f9 35 d4 3f 81 6b 52 b2 12 60 ba 3f
       0.3157942635356017 0.10302845815242102
0002e0 46 3d 23 3c 8e 41 a5 3f 63 73 e5 fc 39 b0 d0 3f
       0.04151577457525461 0.2607560128870345
0002f0 03 93 6b f5 47 fe d4 bf ea c9 7b bd 28 55 c4 3f
       -0.3280200859719999 0.15884885074736071
000300 39 46 13 cd 5c 31 b3 bf a8 e1 6e 6d 27 83 c2 3f
       -0.07497196203919367 0.14462750285544002
000310 d1 95 df 64 1a cc d4 bf 10 ca 8f c3 bf 38 b9 3f
       -0.3249574647037124 0.09852217220740322
000320 27 04 f5 77 a4 6f cf bf 6d ff 49 c0 23 4b c3 bf
       -0.24559455735473643 -0.15073058022607758
000330 23 1e 9a 18 ed 98 c1 bf 0b 41 25 47 45 13 d7 bf
       -0.13747943593283293 -0.36055118511014034
000340 ad 5a 92 87 49 c3 d0 bf c8 d5 31 0f 00 4e b5 3f
       -0.2619193862860055 0.0832214390846594
000350 b8 6b 74 83 78 eb c2 3f be 51 7a 9c a1 fc c0 3f
       0.1478109971875179 0.13270969524877602
000360 05 91 12 3d 9f d8 c1 bf b1 24 11 2e 2c f3 c5 bf
       -0.13942327959114933 -0.17148353814471798
000370 e5 cc 42 2e 7c 51 ab bf 89 25 56 e1 f9 21 da 3f
       -0.05335605683048942 0.40832373624342516
000380 bf e1 18 97 55 52 e1 bf be 52 ce 0d 6f 4c 94 bf
       -0.5413005782239039 -0.019822821824692076
000390 9a f1 65 2c 48 5b d6 bf 29 c1 9c 6c ad ca b2 3f
       -0.3493214067055078 0.07340511228244807
0003a0 91 5d 9d 0a 2a 1a c5 bf 6d d2 ee 62 01 7b d0 bf
       -0.16486096876427017 -0.2575076547757707
0003b0 42 35 6e 26 bd 64 b6 bf f8 35 48 c8 6e 47 c9 3f
       -0.08747465313191063 0.19749245433233376
0003c0 df 31 0b b5 e5 65 ce bf c6 ff 8c 9e 0f 42 86 bf
       -0.23748465862298837 -0.010868188882909535
0003d0 71 8c 56 08 69 39 d4 bf 55 48 03 ff 55 9b d5 bf
       -0.31600404562249823 -0.337605952297172
0003e0 a4 a6 23 4c ec ed 73 3f c0 1f 6d 9a 05 03 b3 3f
       0.004865572964470797 0.07426486034557822
0003f0 bb 8b 1e 65 7c 86 d4 3f 92 81 8f d6 93 48 ce 3f
       0.3207083690160137 0.23658988930311559
000400 b5 1b 77 81 5d 88 c3 3f a2 4f 22 74 40 d4 b7 bf
       0.1525990373758909 -0.09308245501807602
000410 36 a6 e8 de 79 90 a4 3f 2d 8f ba 9b 90 ac c2 3f
       0.04016476484350699 0.1458912620920442
000420 25 73 1a 39 e6 4c cb bf 8b fd 53 7a d6 7a c9 bf
       -0.21328428066490193 -0.19906121228266857
000430 35 79 5e c6 f7 57 d0 bf 8c a4 b3 85 9c 20 ce 3f
       -0.2553691327283503 0.2353702214088894
000440 80 f8 4d db 5d 2d d9 bf 14 a4 79 be ab 2f c9 3f
       -0.39339395920240605 0.19676729965729634
000450 4d fe 24 a1 f2 80 ca 3f 94 50 a7 9c 41 d4 d1 bf
       0.20706017368682908 -0.2785800962276508
000460 92 44 a0 dd ea 35 cc 3f 62 d6 08 2b 37 9d b2 bf
       0.2203954298170499 -0.07271141815803042
000470 ba 0b 04 5c bb 81 c0 bf 98 fb 8c 2e fb 5c d5 bf
       -0.1289591025634687 -0.3338001207920853
000480 0f 73 d7 3d f3 ff cf bf ea e4 32 a4 71 66 cf 3f
       -0.24999847907647463 0.24531384007949636
000490 de 3f a7 b7 97 c3 d0 bf b2 d2 4d a3 d3 f4 c7 3f
       -0.26193802771467556 0.1871590182669443
0004a0 60 02 3e 50 5f 01 d0 bf f4 19 1e 9b dd 93 c6 bf
       -0.25008375965265905 -0.17638750146961935
0004b0 87 99 8e f0 f6 91 c8 3f 85 04 3e fa 99 3c a9 bf
       0.19195448633145082 -0.04929047755923314
0004c0 77 07 16 10 4c 05 d4 bf 71 dc d6 4a 46 75 ce 3f
       -0.31282331057456453 0.23795393614065888
0004d0 dd 0c d2 92 ab 0b d4 bf c0 3d 85 49 56 53 a0 bf
       -0.3132122930330306 -0.03188581130472867
0004e0 29 e2 c0 cb b8 dc d3 bf 21 0b ef 51 cb 1e cc bf
       -0.3103467931537432 -0.21968976498291062
0004f0 93 c7 1d fa 0a e8 d0 3f 70 10 c0 59 81 90 ad bf
       0.2641627733747722 -0.057743112760392346
000500 91 37 a8 3f 6e 00 d9 bf 56 49 37 46 38 21 d5 3f
       -0.39065128532899346 0.3301525769903909
000510 3b e5 c0 8b c6 59 7b bf d8 0d 8c 1d 78 7b d1 3f
       -0.006677413530320304 0.2731609619661106
000520 aa e9 e8 b9 09 cf aa 3f 3f f0 db ef cc d5 bc bf
       0.05236082453162123 -0.11263733726440338
000530 54 a0 b0 fe 20 72 a5 3f 9a d2 e2 5a 1d 25 b2 bf
       0.041886359300690984 -0.07087882489106292
000540 24 b8 e5 94 90 e0 d3 3f e6 cc 13 b7 df 23 c9 3f
       0.3105813459468456 0.1964072841579771
000550 1a 57 c0 9a 53 19 cc 3f b5 2b 08 92 f0 ba 73 bf
       0.21952290588586082 -0.004816951492567269
000560 b1 15 18 69 ba 39 61 3f 07 26 63 9b 19 cc d2 3f
       0.002102722247175414 0.2937072770551769
000570 da 72 08 04 52 6b d2 bf 84 7d d0 55 73 81 c6 bf
       -0.2878003157982626 -0.1758255166068744
000580 76 cb 37 27 83 bd d7 bf 15 5f af 70 b0 2d d1 3f
       -0.3709419138896729 0.2684136486472977
000590 ab bd 34 f3 dd e7 9e 3f 9c ba db 23 67 bd d7 bf
       0.030181377381436707 -0.3709352350405568
0005a0 24 12 67 39 4e cb b8 bf 0d ae 2b cb 77 0d d7 bf
       -0.09685219670706907 -0.36019701805955223
0005b0 1d be 68 38 92 42 c8 bf ee 6f 31 40 69 a9 bb bf
       -0.18953159098008224 -0.108053758785388
0005c0 d9 41 5b 6e 87 ed ad 3f 40 79 46 41 49 8f d3 bf
       0.05845282766461297 -0.30562049269237335
0005d0 44 49 55 ae 25 1f d8 3f f5 10 0a 19 6c 63 c2 bf
       0.3769010736915741 -0.14365912649748905
0005e0 4a 0c 07 0d ef ee c0 3f 49 86 c9 85 c2 dd cd 3f
       0.13229168068036962 0.2333300736673201
0005f0 fb 95 ce 89 9e 0a d2 3f 7b 20 c3 1b 34 a6 d1 bf
       0.28189815004074575 -0.27576925955919024
000600 62 4d b2 22 ee 86 a2 bf 42 cf 85 b6 7a 52 c0 bf
       -0.0361856858591192 -0.12751706993332773
000610 37 72 e3 27 26 8c d1 3f fe f3 77 68 41 cc d5 3f
       0.27417901893003055 0.3405917663765762
000620 67 84 a9 7d a1 37 d1 3f 73 dd f2 bf e7 ba ba 3f
       0.26902043601700715 0.10441444813010552
000630 d0 56 e1 c4 02 a7 c9 bf e2 06 47 00 c4 ba d6 3f
       -0.20040926564495587 0.3551492693623982
000640 02 8e ec a6 28 eb ce 3f a9 cf 48 8d 5c 37 d7 3f
       0.24155147696102125 0.36275399968439587
000650 d4 9e 40 5b 47 b3 cd 3f f7 5c 14 74 1e a0 d0 bf
       0.23203365283665411 -0.2597728856648724
000660 08 90 01 ee f2 df 87 3f a6 83 94 7d d3 d2 d3 3f
       0.011657617462510941 0.30974280608830396
000670 f3 b9 37 b4 bd 64 c8 3f b1 36 b9 3d 8d 1e be bf
       0.19057437228862248 -0.11765368229790842
000680 4d 9d 56 a6 45 02 cb bf 1e 24 7b 7b f5 12 d3 bf
       -0.21100683805455347 -0.2980321603650412
000690 ee 61 bc ca 28 83 b1 3f 3d bf 6d c3 ec 29 98 bf
       0.06840758275610145 -0.023597430637379836
0006a0 f3 ce b6 ee f7 ac a0 3f bb a1 2c 69 e6 c1 d3 bf
       0.03256964482298299 -0.3087097193806831
0006b0 50 e8 bd 28 43 5a c8 3f af f6 81 29 3c 65 a6 bf
       0.19025458802554107 -0.04374111181912831
0006c0 37 fd a6 56 56 7a d7 bf 88 b9 12 bb d8 98 d4 bf
       -0.36684187376154703 -0.32182901638852757
0006d0 82 79 5c fb f4 51 cc bf 05 79 42 06 ea 4d d3 3f
       -0.2212511279439689 0.3016305028085216
0006e0 71 2e 89 4f cb ed b0 bf 9b 12 cd 3b b8 a8 d1 bf
       -0.06612845126908852 -0.27592283096263664
0006f0 38 84 03 15 bb 84 9f 3f 45 51 43 6a 40 e1 d4 bf
       0.030779765279366184 -0.3262482679104049
000700 5c ff cb 69 4f 42 c2 bf fa 24 af 8d bb 7b bf bf
       -0.14264862695562897 -0.1229817601116742
000710 67 72 a1 be 6a 86 c0 3f f9 27 54 9a 96 68 c4 bf
       0.12910208042275714 -0.15944178138335
000720 15 db 98 b8 37 e5 d4 3f 47 b9 df 97 d7 33 ad 3f
       0.32649033572254044 0.05703614930085848
000730 d8 df 6d 78 29 80 c1 bf ca 82 29 55 6e c4 d4 bf
       -0.1367236936600864 -0.32448919598213577
000740 f4 45 c5 eb 31 b1 c1 3f 12 a1 bc 6c 02 6b b5 bf
       0.13822006237255346 -0.0836640849562438
000750 54 5d d7 23 9b a7 d2 bf 51 d4 3a 0b a8 6a a2 3f
       -0.29147985935329257 0.03596997391779467
000760 f7 d0 c3 48 92 e6 d1 3f 05 31 e3 c7 29 ed ce 3f
       0.27969796281764964 0.24161264667635166
000770 05 b8 34 19 92 95 d2 bf 77 6a af 92 04 7a d3 3f
       -0.29037907086865317 0.30432237934807155
000780 42 e6 ba c6 9e ee 5d bf ed 11 e1 ea 89 96 cb bf
       -0.0018269110250187658 -0.21553157776555967
000790 00 31 c1 5a 4b 32 d3 bf 2f 7d 84 af 3b 99 bd 3f
       -0.2999447237277906 0.11561940226646493
0007a0 20 44 ee 2f cd d4 c2 3f 0b d3 01 11 b2 5c b6 bf
       0.14711918678634195 -0.08735192218030023
0007b0 99 22 c9 70 96 9b ce 3f 36 4a 30 1e 51 a5 b6 3f
       0.2391231585227345 0.08846003520037801
0007c0 1b a6 68 15 dc cd de bf 78 8a a6 56 a3 60 cb bf
       -0.4813146790571367 -0.2138866589640036
0007d0 8c 2e 6b ca 8a f9 c7 bf 3d 14 16 82 8f 75 c3 bf
       -0.18730292209362565 -0.15202516414515968
0007e0 b5 5d 93 0f 00 c9 a9 bf ca 32 62 40 00 11 d4 bf
       -0.050361635114025395 -0.31353765761813845
0007f0 f3 4b e3 ba bb bc be bf 60 8b 2a d7 34 8e d0 bf
       -0.12006734192554784 -0.25867959034274257

fc1.bias f8 [256]
000000 bd 11 12 f2 94 a9 ca bf 9d 85 84 2a aa 39 b9 bf
       -0.2083002264008779 -0.09853614366558934
000010 40 eb 87 d3 f7 04 a9 3f 4c cd c2 48 e6 1d d3 bf
       0.04886602837719645 -0.29869992356835406
000020 24 a1 6f 50 b8 a1 d4 3f 9a ea 05 6d db 7b d2 bf
       0.32237060408671625 -0.28880963942325766
000030 03 5b 35 84 53 d4 c7 bf a3 c2 bc f0 13 71 ce bf
       -0.18616718249787576 -0.2378258634066884
000040 14 ca 8c 15 3a ce c6 bf d9 43 3e aa 97 08 c6 3f
       -0.17816854526752535 0.17213722050340044
000050 10 ab 69 54 b6 18 c5 3f 78 87 60 db de d9 7d 3f
       0.16481665727345574 0.007287855658462898
000060 9d c6 c5 22 b3 57 9f bf e4 bb 2b 55 6b 85 bb 3f
       -0.030607985493992563 0.10750456647268397
000070 9d 00 07 50 26 1b d2 bf 04 ae f7 10 bf c2 be 3f
       -0.2829070836560364 0.12015909351583082
000080 b8 0a f3 f4 8a a9 86 3f 8b 3e 49 d8 25 8f c1 3f
       0.011065564728032981 0.13718102513165706
000090 5a 73 81 27 7c 20 d6 bf 05 55 54 98 84 7c d3 3f
       -0.3457327256963275 0.30447497249527117
0000a0 82 49 32 ed 5b 85 ca 3f 7b 82 a7 e3 41 95 d4 3f
       0.207194796389171 0.32160994750851274
0000b0 63 79 c3 05 be b7 d2 3f 73 cc 9c 96 b6 ce c3 bf
       0.29246473849152305 -0.15474588731885638
0000c0 98 e4 de 59 48 20 d2 3f 86 0d 04 de 1f 7b c2 bf
       0.28322037483628426 -0.1443824609815289
0000d0 2b ec d7 48 6c 8f c3 bf 13 c9 c4 e7 0a d8 bc 3f
       -0.15281442219551997 0.11267154844680176
0000e0 98 9d fb 2f 8e c6 cb 3f 7b cb 19 bd 10 f8 b0 3f
       0.21699693053163283 0.06628517739026833
0000f0 85 d8 0e dc 10 ff d5 3f a9 ef 2c c6 a8 95 c1 bf
       0.34369298448599067 -0.13737973858394284
000100 3c 60 19 cd af e1 c3 bf 1f 6c da 8f 7b 51 c6 3f
       -0.1553249122105188 0.17436165355761177
000110 63 12 f5 e0 e6 cb d7 bf 88 16 dd 1d 80 99 c6 3f
       -0.37182018249976617 0.17655946214852158
000120 72 3d ee 56 fa ff 9a bf 99 33 d8 79 23 98 b7 bf
       -0.026367103153061185 -0.09216520046920919
000130 7b ff 92 f5 8b 1e c2 bf 42 51 91 16 a7 cb c0 bf
       -0.1415572117894007 -0.13121498681960914
000140 b9 7d 28 4f f7 0a a2 3f be ce 55 5d 27 ec b0 3f
       0.03523991433416591 0.06610342053118765
000150 38 f2 a7 2e 97 3b cc bf c6 4d 5f 7c 02 ad ba 3f
       -0.22056855943800868 0.10420241867478017
000160 8a ff d7 de a7 17 d0 3f 96 1c 4e 2d a8 ca d0 bf
       0.2514438320358684 -0.2623691980774735
000170 02 96 ec 36 87 59 c3 3f ba 54 e3 e2 78 30 c1 3f
       0.15116968328327124 0.13429175451770964
000180 da d1 65 ee ea 31 c8 3f c6 2c c0 b3 8c 94 d3 bf
       0.18902336731447528 -0.3059417491319433
000190 94 04 50 d9 a8 e7 a7 bf a5 1c 7a 26 31 d8 a7 3f
       -0.04668929722539264 0.046571289011859286
0001a0 07 02 35 ef 16 c0 b5 bf a5 ed 75 ef ec dd c1 3f
       -0.08496230449691931 0.13958512966551698
0001b0 3a db 26 2e f8 7f d8 bf 25 f7 28 89 81 99 d4 3f
       -0.3828106356335642 0.3218692626431781
0001c0 ad 71 0a 60 30 0d d3 3f 9c 62 0c f9 9f cd ab 3f
       0.29767999056800926 0.05430316844121316
0001d0 73 65 d1 c6 2f 3d c3 bf c9 d9 f5 8c ff 47 b0 3f
       -0.1503047676840584 0.06359860602774527
0001e0 4e 3c ed ea 36 09 b2 3f 4a 07 a5 59 5f fc d4 bf
       0.07045310245051548 -0.3279035926280939
0001f0 29 37 ba 23 16 54 d7 3f 14 0e 98 e4 c8 e9 b5 3f
       0.3645072316074783 0.08559852200419754
000200 5d a2 25 22 b9 c6 c5 3f 2e d5 82 a3 0e af 86 3f
       0.17012705008825693 0.011076082577668869
000210 fc 64 d2 34 50 15 b4 3f 92 08 c6 79 f6 e8 d0 bf
       0.07845021524044066 -0.2642189206309321
000220 6b c5 4e a3 b4 bc cd bf 36 88 90 ce 46 64 be bf
       -0.23232133840569288 -0.11871759932594803
000230 55 33 aa f8 57 40 d0 bf 78 90 84 e2 7e eb d3 3f
       -0.2539272240035662 0.3112485134208849
000240 c5 9e 68 00 8c 3b a3 bf 01 91 14 51 e0 f0 db 3f
       -0.03756368165005378 0.4365769187736675
000250 01 b4 49 54 40 c4 d4 bf 78 ce 66 d7 7f 36 d0 bf
       -0.32447822791328923 -0.2533263782054074
000260 d0 2b f0 63 69 24 b3 3f d1 c6 8b 73 cc 43 cd bf
       0.07477434816261952 -0.2286315502347436
000270 3f ce fd f3 cd 37 d2 3f a3 75 47 f0 98 33 d3 bf
       0.284656036637191 -0.30002425637015956
000280 f0 d9 42 56 98 08 bd 3f 91 98 ec 7c 13 e7 ce bf
       0.11341240030274213 -0.24142688369574164
000290 0e e2 cd 1d bd 31 d6 3f be 41 ec 63 ca 75 d0 bf
       0.34678581152505294 -0.25718936689466065
0002a0 6b cc dd c2 56 ed cf 3f c0 b9 83 90 62 50 91 bf
       0.24943050875626524 -0.0169082070069011
0002b0 b4 93 c3 ab a1 3d 62 3f 6b 00 b7 d7 de 79 d1 bf
       0.0022266538272668005 -0.27306338373092015
0002c0 a3 fd dd 8d 53 aa b4 3f 6b 9e 69 2c d9 83 c2 bf
       0.08072397435716154 -0.14464869183142368
0002d0 25 72 a7 09 78 1e b9 3f e9 f9 fd d9 9b 0b c5 3f
       0.09812116847701498 0.16441677230973475
0002e0 1c 6b ee c8 78 ec b8 3f 84 60 06 20 bb c9 c5 bf
       0.09735827355909205 -0.1702188402530319
0002f0 c8 4c bf e4 27 47 b8 bf 31 f6 7e 24 e8 78 9c 3f
       -0.09483575186395676 0.02780497286561551
000300 41 dd 2e a2 58 3b c0 3f 95 49 8d 8e d9 4e ab 3f
       0.12681110304922963 0.053335951472621414
000310 41 39 be 70 e9 85 ca bf 92 66 0c e9 68 59 c9 3f
       -0.2072116661551693 0.1980410707408749
000320 d0 34 33 7d 4d d2 b7 bf 6e 39 40 31 97 3a d7 3f
       -0.09305271441117502 0.36295108613639726
000330 00 f1 5c 78 43 3c c3 bf 0f 71 90 2d c9 bc 96 3f
       -0.1502765977583138 0.02220453587152443
000340 7e b8 47 26 c7 68 9c bf cc 67 cd fc b8 90 d1 3f
       -0.027743446074901083 0.2744581669591042
000350 36 c1 39 6d c8 96 d0 3f 77 04 d4 55 9e 26 bb bf
       0.25920305887759143 -0.10605802150168296
000360 b2 2f 44 ec e5 c6 bf bf 9c d0 03 5c 77 2b c7 bf
       -0.12412869470807555 -0.1810139846126092
000370 25 8a 99 2e de 8d d4 3f 34 d6 b6 d3 9d f0 c2 bf
       0.3211589293552229 -0.14796803319556917
000380 0e 33 be 6f 9e 10 b0 3f 2b 30 d4 3d c2 16 d5 3f
       0.06275358417606133 0.32951408422445877
000390 4a 7c 95 db ab 46 d1 3f 66 e3 1d 11 79 0d 93 3f
       0.2699384350179953 0.018606082601283623
0003a0 14 8d 4a e9 c9 9f bc bf 98 64 ef c8 44 4b d0 3f
       -0.11181318231188114 0.2545940363175503
0003b0 5f 8b 43 b8 b0 67 c1 3f 1c 89 d6 bb 78 d7 d3 3f
       0.13597687718637538 0.31002634376103955
0003c0 eb 4a 09 ea 94 85 d3 bf e8 ca 88 e5 b1 d1 c4 bf
       -0.30502817969424595 -0.16264938075763458
0003d0 71 e3 84 57 52 bb c2 bf 48 ff 8f 83 c3 7f cb 3f
       -0.14634160302537283 0.2148365394968954
0003e0 af 72 c2 41 b0 27 ce 3f 2b c3 37 a9 ae 33 bc bf
       0.23558619700351843 -0.11016360884947278
0003f0 91 1b 8b 42 4c db d4 3f cb 66 bd 9b a9 d7 d2 3f
       0.32588488100412244 0.294412996377656
000400 98 27 af b9 b3 db bf 3f 46 6f 27 0e 8a 00 b6 bf
       0.12444613726907361 -0.08594572873647363
000410 0d fb 7b f6 0d b5 b9 3f d1 50 3d 64 95 55 d3 3f
       0.10041892306979268 0.30209860600485877
000420 42 70 b1 c8 9c 88 d4 3f c0 63 41 e7 73 99 c9 bf
       0.3208381614583723 -0.19999550620812379
000430 6b 39 05 91 ab 45 d2 bf c1 a9 c2 9c d9 bf c8 bf
       -0.28550233041905554 -0.19335479883495846
000440 ce 83 f5 79 17 df c2 3f 88 31 48 e7 3d f7 cd 3f
       0.14743321852713936 0.23410772126261414
000450 6e 45 5b 09 0a 18 72 3f f2 2c e0 86 a9 5d b9 3f
       0.004417456822652139 0.09908542197097228
000460 73 04 2c f9 e6 ee a6 bf 01 5f f4 46 72 1b aa bf
       -0.04479142944001859 -0.05099064937729559
000470 06 47 9d bf 00 cf b1 bf 5f 7c 14 dc 99 04 7f bf
       -0.06956486394963343 -0.007572747244267124
000480 4e c5 8a d1 b5 3a b8 3f b2 41 6f f7 de 0d c7 3f
       0.0946458469941451 0.18011080819861786
000490 65 2f 45 8c d3 5c d1 bf 83 37 a5 62 ff b2 b4 bf
       -0.27129067133204493 -0.08085628660520965
0004a0 9a 71 5c bc 7b c9 cf bf 6e dd eb c4 a2 b1 d0 bf
       -0.24833628365821597 -0.2608420298633608
0004b0 d2 86 6a bb 5d a4 b3 bf 7d 8b 84 57 16 11 d3 3f
       -0.07672677827442989 0.2979179243722497
0004c0 84 eb 2a 6c a2 05 cb bf a7 8f 8b 61 62 3c a5 3f
       -0.21110945016502225 0.04147632065522027
0004d0 a9 ba 21 e2 70 c6 86 bf b8 9f 84 38 fa 1d d1 3f
       -0.011120683575623973 0.2674546768125725
0004e0 b1 cf de 63 19 6b ce 3f ca db a5 81 75 9e c0 bf
       0.2376434075973726 -0.12983578520262845
0004f0 eb 11 91 4b fe 93 d3 bf 07 1c 25 80 f3 c2 c7 3f
       -0.30590779666479645 0.18563693768575737
000500 96 ba ad bf 8e bb be bf 68 38 04 dc 88 91 cf 3f
       -0.12004940204290401 0.24662886374466386
000510 7e 16 2b 6a 36 b0 d3 3f 69 e6 1d e5 d7 38 c0 bf
       0.3076301609802171 -0.12673472106307607
000520 3d c6 e1 dd be 70 d1 3f 77 5a 2a 47 21 33 a3 3f
       0.27250644367368065 0.03749946588248048
000530 12 5e be a1 7b cf cb bf a7 06 72 e7 ec c1 b5 3f
       -0.2172693767322334 0.0849903168728142
000540 58 5f 72 f6 a1 7e c5 3f 47 c1 77 84 bf f2 c8 3f
       0.1679270223000866 0.19490808456567718
000550 15 26 9a 5c 20 68 c2 bf 52 5c 6a 7f 4c ea d0 bf
       -0.14380268594349901 -0.2643004650394164
000560 97 36 f0 9e d1 95 b9 3f ec a0 c2 3c 12 4f c6 bf
       0.09994230394678492 -0.17428806273279152
000570 74 15 97 b9 3a fc b3 bf 59 9d a0 c5 68 d5 a9 3f
       -0.07806746512422597 0.05045630848354205
000580 d9 2b dd 60 31 9b c5 3f 9e cd 99 bc ca 56 c7 3f
       0.16879861097035478 0.18233617981932765
000590 07 d8 64 68 ce cc d0 3f 28 1b a4 c8 7f d9 ca bf
       0.2625003833267105 -0.20976254746366263
0005a0 b4 56 2b 62 90 fd d4 3f 88 8b 57 ea 2b 9f cd bf
       0.32797631823391815 -0.23142003004531042
0005b0 d2 87 95 44 66 8c 8d bf 1a 50 f6 96 98 fa b4 bf
       -0.014427947013874762 -0.08194879232024768
0005c0 e5 15 3e 6d 4f a6 d1 3f a9 e3 88 22 59 3a c5 bf
       0.2757757727452755 -0.16584314523950397
0005d0 c5 49 81 1f 63 29 95 bf 38 f6 e2 56 5b ac d7 bf
       -0.02066569213668303 -0.36989482388512185
0005e0 07 bb a3 03 d5 8c d5 3f c0 6c f9 8d 8c a7 c1 bf
       0.3367207084219647 -0.1379256909593547
0005f0 e3 15 60 40 79 35 b5 3f 37 9d 90 8c 66 f1 b6 bf
       0.08284719297088076 -0.08962098056564548
000600 30 db 7e 7a 69 a3 d0 3f ff e1 bc 70 7c 51 bf 3f
       0.25997387850240994 0.12233712913883464
000610 31 8e 3d f5 b2 55 d2 bf c7 2d 9f 68 9c 72 c8 3f
       -0.2864806551862982 0.19099764927373838
000620 5c 17 9b e2 0e 12 82 bf 39 54 3c 85 45 dd b6 3f
       -0.008823505678616499 0.08931383612464651
000630 cb d5 18 1c 61 ff c5 3f ba 4d 10 2d e1 61 af 3f
       0.1718560588066523 0.06129363703817199
000640 8f ab 6f 6f c6 31 d3 bf 0f bf 6a 42 4f 09 c5 3f
       -0.29991303331797153 0.1643466066648149
000650 b5 7d 7e a6 0d 8f 9d 3f d3 96 f8 82 a3 ad cf 3f
       0.02886601761531234 0.24748653311797017
000660 80 41 a7 7b 80 73 9d bf 45 5a 1e 3c 95 cd d4 bf
       -0.02876091723175156 -0.3250477873893128
000670 67 3a 5d 47 6e ea d6 3f 41 e7 34 ea e5 c0 d8 3f
       0.35805851906926595 0.38677356597655793
000680 b6 62 19 3b a2 9f c9 bf ce 2c 81 45 e5 f0 d4 bf
       -0.2001841343469743 -0.3272031000858079
000690 ba 8b 81 20 f9 29 d0 bf 6f 47 fd 4b f2 ac d4 3f
       -0.2525618379060536 0.32305581494175944
0006a0 94 20 aa 59 a5 fc d6 3f ba c3 11 9f a3 73 a8 3f
       0.35917028194718026 0.0477572566677575
0006b0 d4 cc 4b 5a a8 8e d4 bf e6 79 fa 2b 82 a6 d0 bf
       -0.32120713060357997 -0.2601628713108809
0006c0 37 bc 44 cf 31 d6 c4 3f 95 76 25 b6 54 59 c9 3f
       0.1627866994908531 0.19803866285194674
0006d0 c4 78 bb 04 8e a2 b4 bf ad b9 dc 3b 94 46 d8 3f
       -0.08060538878951024 0.3793078026382329
0006e0 72 84 10 c3 ba 9c ce bf db 99 90 ff 28 e8 c3 bf
       -0.23915800594935238 -0.15552246550323798
0006f0 1b 30 66 34 56 33 8f bf 78 54 50 54 cd 3d c8 3f
       -0.015234635805221377 0.18938604943165038
000700 e0 57 93 13 61 39 d1 3f 3b 53 d5 97 3e 5f c5 3f
       0.26912714873958343 0.16696913160071766
000710 95 14 f5 28 67 d8 cd 3f ca 9a 1e 6a 0a 02 a7 3f
       0.23316659450407387 0.04493744416622787
000720 44 f2 90 a3 d4 cf ad bf fb 62 47 d3 ed 6a d5 3f
       -0.05822624680192637 0.3346514285345134
000730 7f a2 24 5d 66 15 cf 3f eb 42 91 2c b2 f7 b0 3f
       0.24284057186129712 0.06627954090187031
000740 2a a1 f1 90 7b 5b b0 bf d6 d2 5d b0 9b 3c cc 3f
       -0.06389591492336835 0.22059961425443103
000750 59 82 3c 71 b8 31 b8 bf 6c ec ff 59 bd 1f cf 3f
       -0.09450867428359667 0.24315611738697684
000760 90 6b 9b 04 fc de d1 3f de 11 15 eb 01 d0 c8 3f
       0.27923489046013916 0.1938478849280178
000770 68 c3 e5 99 75 76 d1 bf 25 d7 fd 42 e8 3e c0 3f
       -0.27285518673948284 0.12691977759430376
000780 eb 8c c9 f5 29 19 d5 3f 0f 03 ba 35 41 46 d2 bf
       0.32966088297526025 -0.2855380081819456
000790 e8 88 ad 99 29 93 99 bf df f5 d3 46 59 a6 ca bf
       -0.024975442890885186 -0.20820156057736391
0007a0 b0 ab 47 53 90 01 d5 3f 9c 73 7e 14 ab 33 d5 3f
       0.32822044499215064 0.3312785816322561
0007b0 77 c7 82 5c c2 b5 d0 3f 27 9d b0 67 8f be cd bf
       0.2610937026430444 -0.23237793505652712
0007c0 2e 26 d9 9a 34 81 d5 bf 4e 20 b2 4f 8a df b5 bf
       -0.33601107713602374 -0.08544220395754218
0007d0 d1 87 c8 25 b9 c7 ca bf 46 06 eb 22 aa d7 98 bf
       -0.20922006935967244 -0.024260195142011186
0007e0 58 74 2d 3d 36 6e d5 3f cb 24 47 03 f0 9b ce bf
       0.3348517987668109 -0.23913383636526073
0007f0 1b 80 45 2d c7 16 a1 3f cb 4e ff 59 9f 46 d0 bf
       0.03337690761213726 -0.2543104533080906

fc21.weight f8 [64, 256]
000000 00 00 00 c0 56 9a ae bf ee 8d cf 2a f8 7f 8b 3f
       -0.05977126210927963 0.013427676016312309
000010 e9 17 15 a1 ec 08 70 bf 56 c8 74 61 5b d4 9b bf
       -0.00391476090709906 -0.02717726499867753
000020 c0 0d 59 4a df 8a 8f 3f 0b 85 55 b5 00 1d 87 3f
       0.015401596504608928 0.01128578713786734
000030 d9 30 1f 28 1b a3 a9 bf dc bc 95 c0 38 31 92 3f
       -0.05007252564209503 0.017765890840959794
000040 0f a6 f1 34 54 98 9d bf 60 fe b0 e4 80 d5 a5 3f
       -0.028901401263658196 0.042644527355602646
000050 a1 e7 35 2f 72 b5 8f bf 61 f9 4f 1e 09 09 93 3f
       -0.01548279959273541 0.01858915565025521
000060 f4 7a 04 c6 6d 8d b0 bf 45 5e 2e ab 46 e3 a0 3f
       -0.06465803226863526 0.032983978649266756
000070 2e 87 0a eb e4 af 74 bf ef 19 0a c2 4b 14 af bf
       -0.005050558291857672 -0.06070172065397005
000080 20 cf 4e 77 c1 b3 69 3f 1a a2 98 43 d4 a0 73 bf
       0.003137472022411006 -0.004792050510822788
000090 a7 2e 7b 6c ee 15 6b 3f c3 f4 24 41 0c e8 94 3f
       0.0033063561166722546 0.02041644237146013
0000a0 8c 20 26 b3 0f 65 a5 bf 35 20 83 52 1d b4 b0 bf
       -0.04178666173817289 -0.0652483297773195
0000b0 5d f8 94 b4 d2 ee 99 3f a3 eb 78 4b 9b f8 aa bf
       0.025325100204320317 -0.05267796798985749
0000c0 be c0 38 cc fa 1b a6 3f bd 6b af 0c 2a 9c 8a bf
       0.04318221800747456 -0.012993172180292828
0000d0 48 a0 1f fd fb e7 9b bf 6f f1 61 26 50 f3 b1 bf
       -0.027252137493548184 -0.07011891305041272
0000e0 87 37 07 b0 2e 76 9e 3f 19 d6 09 13 d4 fa 5e bf
       0.02974770497694792 -0.001890856841922589
0000f0 d7 fc b4 c1 67 43 8a 3f c9 f8 30 9c 3e 6e a4 bf
       0.012823877905815113 -0.039903599325485546
000100 7c f4 3c 6b 8d f1 a9 bf d4 1c 5b 21 da 76 a7 3f
       -0.05067102369364648 0.045828644344106856
000110 fa 46 9f 2f f8 eb 94 bf a9 b7 4f bf 9f 18 93 3f
       -0.020431402117373466 0.0186486206547937
000120 0d 60 4d 00 12 2b b1 bf 22 dc 3a 82 ad d6 a0 3f
       -0.06706345088366579 0.03288786139221879
000130 a2 a0 a0 57 bb f3 ad bf a6 5c 7a d8 84 51 92 bf
       -0.058500151106558165 -0.017889095032469847
000140 07 12 f0 11 06 8e af bf 53 08 83 2b 31 ae 58 bf
       -0.061630429925603684 -0.0015063743758650008
000150 86 01 8d 1f 21 2a 98 3f c5 cb db d3 11 30 aa 3f
       0.023598210859974177 0.051147992240565134
000160 ae 7b 57 f7 82 61 8e 3f 46 37 bb 5b 12 16 a1 bf
       0.014834426091452215 -0.033371518800420705
000170 a2 78 47 44 30 5c a0 bf e8 d1 b3 c0 b6 10 b0 bf
       -0.03195334275709284 -0.06275503353737799
000180 16 ab e3 5c 60 70 a5 bf ae 7c c6 57 68 2f a3 bf
       -0.041872989024190385 -0.03747106620289152
000190 41 d0 84 5e cb c6 85 3f 10 6d 64 03 0a 30 b1 bf
       0.01063307649801726 -0.06713926871127662
0001a0 dc b2 12 b9 f4 c2 a4 3f df 9b 20 f5 19 a5 9b bf
       0.040549895851062806 -0.026996999346149294
0001b0 39 10 df f7 d5 0d a9 bf 0c 13 2d c6 a8 43 94 bf
       -0.0489336838795968 -0.019789349647243035
0001c0 50 90 55 24 c7 9e 9b 3f d0 d5 e4 11 11 29 ac bf
       0.026972877113977056 -0.055000813898384515
0001d0 7e bb ef e3 fd d4 b1 bf ef 44 2a e9 ab 01 97 bf
       -0.06965624632696962 -0.022467313867825685
0001e0 13 a9 40 ac da f4 a8 3f 00 00 00 00 9c 81 89 3f
       0.04874308922474504 0.012454241514205933
0001f0 81 1a 01 14 f3 8a 7a bf 64 68 2a cf 96 38 9f bf
       -0.006480168842307622 -0.030489307779682298
000200 18 7a e3 1a 7c 2e a1 bf 17 2f 45 ec 70 43 84 3f
       -0.03355777576665647 0.009894258699794585
000210 30 82 41 36 bd 90 7e bf 3e 9c f5 97 bd 90 a0 3f
       -0.007462252720956061 0.03235428314183551
000220 33 0f 0a 52 15 ad 8c 3f 2d 4c 94 8d d9 26 ab bf
       0.014002005163326814 -0.05303077557814393
000230 d8 7a 6c 3c 81 93 99 3f 66 1a 77 88 b8 c8 a2 bf
       0.024976748764966 -0.03668762842021493
000240 bb 90 1d 66 37 09 84 3f 79 5d 9f 66 3f 28 a2 3f
       0.009783203891580041 0.03546331527439412
000250 de 58 2a b4 ec 61 a7 3f 51 29 06 5c 86 29 58 bf
       0.045668980591629924 -0.0014747440437497714
000260 80 62 c6 85 6b 20 56 bf 55 6b 43 8c 58 d2 82 bf
       -0.0013505029702171323 -0.009190265446184101
000270 98 1f 6c 81 68 ae 81 bf 07 c0 16 c4 70 30 71 bf
       -0.008633438539177793 -0.004196587078169506
000280 90 cd 6b 8d 31 5a a8 bf 86 3a 78 61 0f 03 8b 3f
       -0.047563122285192994 0.013189430391347356
000290 2b f4 a3 1f 62 ae af bf 25 97 66 68 ff c1 b0 bf
       -0.06187731395946402 -0.0654601697811726
0002a0 cc 36 f0 b4 6b b2 67 bf 43 eb 3c 5b cd 79 71 bf
       -0.0028926948211907885 -0.0042665502294834705
0002b0 87 b3 98 cb 60 fa a0 bf fa e7 4b 19 9c 6f 87 3f
       -0.03316023335751255 0.0114433474750406
0002c0 b4 1a 44 8f f6 88 87 3f 33 03 a5 ff 13 6a a8 3f
       0.011491705176479662 0.04768431182538393
0002d0 e8 52 da 4c fe 42 b3 bf 27 9e 65 03 e6 20 81 3f
       -0.07524098755159125 0.008363530138651388
0002e0 cc e3 b2 0e f0 36 a6 3f 99 6e 48 f4 19 79 9a 3f
       0.04338789157322473 0.02585259011730887
0002f0 14 36 07 0f f2 43 a8 bf a5 00 83 96 9a 6e 91 bf
       -0.04739338334512069 -0.017023482738978264
000300 c1 4b 40 84 b8 bf b2 bf bb 96 19 7c 16 f5 a8 3f
       -0.07323792675769793 0.04874487175838512
000310 e2 c3 d9 67 63 c5 91 bf ca b2 9e 93 81 c3 a5 3f
       -0.017354539121189456 0.042507218618401746
000320 5a c1 f8 6f 23 70 b1 bf 6f ff b6 9e 45 7c 93 bf
       -0.06811734660801019 -0.01902874737947918
000330 4e cf 39 62 e2 db 87 3f 75 8c 24 8b d6 1c b0 bf
       0.011649864790548439 -0.06294003388443221
000340 b3 c6 d6 b0 50 ab aa bf 43 18 a6 ca e4 69 94 bf
       -0.0520882812374003 -0.019935202473355906
000350 f3 e9 0d ea ab 91 37 bf 00 00 00 00 a4 6b 70 bf
       -0.00035963484884118864 -0.0040089040994644165
000360 94 bc bb 91 c5 43 ab 3f 5d a0 a8 9c ba 93 a3 3f
       0.05325143245669853 0.038236457465530484
000370 0d f8 b3 a5 50 e2 9c bf 27 72 bc e4 55 3c 98 3f
       -0.02820707332011101 0.023667661748833304
000380 72 0c cb b8 25 4e 51 bf 02 4b 2a 2d 86 30 89 bf
       -0.0010562294366287775 -0.012299583676655516
000390 b7 dd 1f 44 44 dc 77 3f b5 93 55 b4 61 44 71 bf
       0.0058252970356912825 -0.004215604455883805
0003a0 6f 5f 3c f7 00 0d 6e 3f 91 10 2a a0 01 7c 6f bf
       0.003668310056934069 -0.003843310523111106
0003b0 60 75 a6 a7 3a 3e 86 3f a0 3d be dc 2d 02 a8 3f
       0.010860880128172823 0.04689162559145221
0003c0 85 00 c1 6d 37 2e 96 bf d4 30 63 94 b1 cb a6 bf
       -0.021660677026603032 -0.044522809375480726
0003d0 1a 30 7d b7 2c cc a4 3f cf 00 fd 1f 63 ae a1 bf
       0.04062022914749282 -0.034533593802281375
0003e0 6d 8e a2 27 89 f9 a3 bf 01 bb 84 4d e4 41 9b bf
       -0.039013181770567985 -0.02661854479918713
0003f0 c8 ef 29 91 85 35 98 3f 1d a3 e9 6b 6e 95 9f bf
       0.02364166925916303 -0.030843472801652106
000400 fa 16 9f c8 cd 9c 7d 3f 00 00 00 00 0a a3 73 bf
       0.007229617922296811 -0.004794158041477203
000410 93 16 b8 e7 6b c7 5c 3f fa 20 a7 ac 36 5e 8b 3f
       0.0017565301667458496 0.013363291877695794
000420 f9 21 a8 2c f8 2d a6 3f 59 74 09 b3 c0 9b 91 3f
       0.04331946892859046 0.017195712020442098
000430 94 51 a0 f5 bf 67 9c bf 4b 8b 2c e6 ac 4a ab 3f
       -0.027739524237476568 0.05330410299054352
000440 a0 ba d1 2d 62 ad 9f bf 09 40 5a 4d 5b fc a1 3f
       -0.030934843107781718 0.03512845343823307
000450 bf 82 e9 4a 4b ba ab bf 3a 5b d8 b6 2f c7 55 3f
       -0.05415568627791378 0.0013292280158389695
000460 1c 2d 38 4d 3c a0 a4 3f 27 f3 ff 41 54 49 a0 3f
       0.040285000253869024 0.031809456879250235
000470 02 1d 05 a6 d0 6d 9e 3f f7 ad 09 00 40 55 70 3f
       0.02971578610711579 0.0039875507360238515
000480 fa d5 71 0b ea 4e ad bf a5 cb 16 fd af 55 96 3f
       -0.05724269284921131 0.021811246702508353
000490 ac 60 b4 14 b7 5d 9f bf 46 14 65 0b f7 b1 89 3f
       -0.03063093246336794 0.012546472583048762
0004a0 fe 53 d2 0d e5 12 7f 3f c1 38 57 94 bb 74 74 3f
       0.007586378805304326 0.0049941375086303705
0004b0 a0 60 22 fd 76 25 b0 bf cb bb 06 06 99 1e b0 bf
       -0.06307166748081494 -0.06296688458563364
0004c0 20 45 4f fe 58 1c 80 bf c4 4f e0 96 2a 82 a6 bf
       -0.007866568814196173 -0.043961840550906156
0004d0 70 a2 fc 31 f9 b4 a3 3f 59 de c5 4c 9e 70 a2 bf
       0.038490092613135185 -0.03601545989198191
0004e0 d2 94 c4 01 63 8e 83 3f e6 ef a4 6a 3e ed 9a bf
       0.00954892491479101 -0.026295638331461556
0004f0 86 00 57 12 05 8d 95 3f cd 87 f5 0c 13 8f b0 bf
       0.021045760387778965 -0.06468314234146462
000500 29 60 7c 62 d8 e1 ab bf 63 73 e4 3f 50 e4 81 bf
       -0.05445743753642802 -0.008736254644242164
000510 95 b3 fd bc 18 06 a3 3f 69 c7 b5 ed 0f c0 aa bf
       0.03715588862437539 -0.05224656845793058
000520 71 82 11 d0 4b 48 6a 3f 9f 9a a1 32 7b 4f 8a 3f
       0.003208301612673652 0.012846910936969378
000530 7d 60 13 d5 62 de 90 3f c0 6d 78 00 68 33 83 bf
       0.01647333550940332 -0.009375393404346677
000540 c6 ef 35 f4 93 e4 a4 bf 24 38 41 cc 1c 67 aa 3f
       -0.04080641132438205 0.05156793588012956
000550 31 19 dc fc 9a 5c a1 bf 7d 8e d3 94 45 a4 95 bf
       -0.03390964829127297 -0.02113445969452109
000560 3f 86 a2 1e 99 37 86 bf fa 4a 70 f1 9c eb 7d bf
       -0.010848232505227816 -0.00730477624803671
000570 5e 7b 1b 35 a8 2d a9 bf 39 03 5d 0b 65 a2 9f bf
       -0.04917646072657676 -0.030892924135744713
000580 95 c1 8c 8b 5d fb ac bf a9 3d da 25 2f b6 9f bf
       -0.05660526588906404 -0.03096841496022554
000590 bf e4 e4 88 8a ce a4 3f e6 a3 03 8a 02 31 b1 bf
       0.0406382839304995 -0.06715408200729164
0005a0 e7 63 a8 20 4d e0 a2 bf d0 fd f3 fc 1c d2 95 3f
       -0.03686753295568917 0.021309330882102462
0005b0 9e ed 34 9a ca 24 80 bf 2d 1b fc f9 e4 52 ab 3f
       -0.007882674056068958 0.053366809383126636
0005c0 5b 2a 28 67 b9 98 a6 3f 3d 80 d1 85 3b d3 a8 bf
       0.044133943407435004 -0.04848657616162242
0005d0 79 38 31 ab dd a7 8b 3f 07 e1 38 41 ba 97 ab 3f
       0.01350377253234235 0.05389196439904436
0005e0 e4 e5 e8 3c 57 cf af bf e3 4b 4c 67 34 9e a1 bf
       -0.06212875956084554 -0.03441013108217541
0005f0 48 6e 98 3b e1 4e 75 bf 25 1a 8f 00 70 3c 99 bf
       -0.005202178779224527 -0.024644613298528868
000600 e2 4c d8 54 a9 c9 a9 3f ca 40 50 8c e4 09 ad bf
       0.0503666797705138 -0.05671610081492558
000610 f8 4e 62 19 f4 56 a5 bf ab ab 9f ad fe 85 b1 bf
       -0.04167902765143866 -0.06845084895000635
000620 1d 14 cc 2e 87 02 aa bf a6 0f 8a 17 37 78 41 bf
       -0.05080053755049383 -0.0005331295970596353
000630 c2 93 e3 7f 40 e6 a2 bf 57 af db 1c 8f 5a 82 3f
       -0.036912932979056304 0.008961790149861022
000640 a2 95 9b 15 dd ba ae bf d8 af 52 3f d3 d7 79 3f
       -0.06001940621153358 0.006309342560751184
000650 15 18 61 1f 41 a6 9e 3f 78 87 94 58 c7 e5 ab 3f
       0.029931085148085474 0.05448744732190297
000660 ff 57 90 e4 b7 1a 7b bf fe 87 e8 1d 3b c0 8e bf
       -0.0066172774613928445 -0.01501508889220204
000670 4d ad 3b 7e 30 36 a5 bf f6 75 8d 63 c7 54 ab bf
       -0.0414290575116306 -0.05338118639222593
000680 bd 88 68 4b 5b 64 a2 3f d4 b1 3f f7 96 77 a2 3f
       0.03592191024314804 0.036068647081126365
000690 d3 61 a5 d1 76 e6 a0 bf f7 d7 c0 b4 a0 ef ab bf
       -0.033008301822238593 -0.05456258970700383
0006a0 1a b9 f3 96 54 c2 a7 bf ae 04 89 46 3a 02 b0 bf
       -0.04640449850727375 -0.06253399107028443
0006b0 6b 3a 4a a7 1e 5f 90 bf fb d5 ce 59 3f 89 a0 bf
       -0.0159878530126271 -0.03229711505211338
0006c0 9f 89 fe f4 70 ac a7 bf 20 0e 85 31 88 31 b0 bf
       -0.04623749724057124 -0.06325579842546647
0006d0 87 8a 41 45 33 33 63 3f 9c ad 6c aa 2b b6 b1 bf
       0.0023437501313748363 -0.06918595228915198
0006e0 76 d6 3d 4f c5 45 94 bf 24 52 77 03 e9 f5 9f 3f
       -0.0197974042525488 0.031211510502389697
0006f0 01 4f 9e c2 cc 18 71 3f 44 cc bb 56 2c b1 a3 3f
       0.004174041599884993 0.03846109923133459
000700 21 b6 a6 f8 c3 a3 a9 3f a6 f3 3b 6f 88 ee a5 bf
       0.05007755670827075 -0.04283548696364585
000710 c6 6e 72 59 c1 36 a6 3f 24 29 13 3e 6e 03 9c 3f
       0.04338649956590994 0.027356836832759815
000720 68 79 f8 89 03 55 61 bf 99 0c ca 99 ac e8 b0 bf
       -0.002115733062750969 -0.06605032686825253
000730 47 90 16 e3 6c 18 a3 3f 93 ea 45 b8 cc 0c 9b bf
       0.037295725556106656 -0.02641601443017778
000740 1e 17 b0 3e 62 9b a9 3f 8f b3 09 95 1a fb a6 bf
       0.050013609077764296 -0.04488452023802047
000750 c8 2d 56 e0 89 03 a0 bf e0 56 f2 0d 97 43 a7 bf
       -0.03127699721798255 -0.045437546207876656
000760 e9 0a 83 20 57 9b aa bf e0 27 5a b8 fe 05 ab 3f
       -0.05196640273927306 0.052780113223960035
000770 20 d6 38 12 26 39 ae bf 92 b1 ef ca 2c 5a aa bf
       -0.05902976009785399 -0.05146923043489261
000780 28 db e7 bd 4d 92 a9 bf 7f 38 e5 43 c6 62 9f 3f
       -0.049944333488318116 0.030650232213979663
000790 c6 77 4b 75 db 9f aa bf 4e 47 26 e9 21 0f a6 3f
       -0.05200086409398312 0.04308420153678459
0007a0 4b ff 40 a2 0b 30 a4 3f da af b8 5c 44 c5 99 bf
       0.03942905765188572 -0.025166576537387055
0007b0 43 28 07 8e 00 7e a6 3f 64 ca cf 90 82 fe 92 3f
       0.04393007024516795 0.01854900368557323
0007c0 63 3d f1 90 b4 cf a5 bf 6c 23 ca ff 43 d0 90 3f
       -0.042600290959508035 0.016419470297964464
0007d0 b1 6f 14 ff 8f 00 96 3f 3f a4 b8 12 d5 97 a6 bf
       0.02148652071365093 -0.044127138648328394
0007e0 6b db d4 a0 00 17 a7 bf 0e 41 b4 75 a8 28 ab 3f
       -0.045097369797466445 0.05304457127397387
0007f0 b2 9f 43 e4 ac 6b a6 3f 00 00 00 80 f4 17 af bf
       0.04379024778773956 -0.06072963774204254

fc21.bias f8 [64]
000000 8a ea 8f 26 b0 3f 98 bf 4e ae 8e ee d8 6e aa 3f
       -0.023680450776718355 0.05162694847180359
000010 14 ad 2d 96 d9 17 aa bf 8b ae f8 a9 eb 49 71 bf
       -0.05096321066124623 -0.004220886766727393
000020 98 e9 57 f8 2f 20 8c bf 09 2a 65 1c 58 39 80 3f
       -0.0137332675612825 0.007921875349571133
000030 d9 73 63 29 d6 8f 95 3f b8 16 dd 63 e4 53 b0 bf
       0.021056505466606843 -0.06378009260250905
000040 48 aa a3 33 a0 3f b3 3f 5b c1 28 7c 92 7f 4d bf
       0.07518960247731699 -0.000900217557790166
000050 f2 64 6e 25 fb ca b5 3f 72 9b 0f 47 fa f3 90 3f
       0.08512849487160049 0.01655570086213793
000060 ad ec 06 cb 8f aa 97 3f fe e6 21 cb 39 1c 9f 3f
       0.023111578718936588 0.03038111021348921
000070 34 9f f4 38 e4 9c 83 bf 3d ba 47 18 22 f5 3e 3f
       -0.009576590526719643 0.000472374748169555
000080 1f 87 ee a9 f4 ba a4 3f 83 5e 9f 3b cb de ac bf
       0.04048885893213438 -0.056387282398358905
000090 e1 64 52 8f ad 61 50 3f 44 a6 ec 5a d5 c9 8c 3f
       0.0009998507423801194 0.014056841695111129
0000a0 00 00 00 40 5d a9 ac bf 41 4d 52 1c bb 22 a9 3f
       -0.0559796467423439 0.04909310074540452
0000b0 c3 35 0b 80 db e6 a6 bf 7f 97 fc 34 f8 0f 9b 3f
       -0.04473005235704932 0.02642810653119154
0000c0 82 86 9e d5 eb 85 b2 3f d3 e7 5d 87 10 5e 9f bf
       0.07235597577393985 -0.030632265340933728
0000d0 84 66 c9 41 6b 6a a4 3f 23 f0 80 d2 86 1c a3 3f
       0.039874412327390224 0.037327016063926764
0000e0 e6 7d bb d7 51 bb a2 bf 3a 46 05 6b 1c 87 92 bf
       -0.03658538588001274 -0.018093532592791763
0000f0 e8 5d bf a9 ae 1a 92 3f f8 de 07 29 bc ac 4b 3f
       0.01767990981156045 0.0008445662261342404
000100 34 e1 39 fc eb c5 b7 3f 5c e3 d5 5e d4 b9 b2 3f
       0.0928637972627982 0.0731480342418655
000110 48 17 93 da 07 e9 80 bf 49 67 0b f5 64 95 98 3f
       -0.008256970746866835 0.02400739427216728
000120 42 77 4c 54 5c 72 89 bf 6c 6f 26 96 32 ed a2 3f
       -0.012425156900970461 0.03696592409980223
000130 72 4b 16 f1 f0 12 87 bf 42 84 2c 76 cb ee 88 bf
       -0.011266596181291642 -0.0121742148817835
000140 48 d7 84 42 fb c4 9e bf aa 79 cf 37 75 7d b3 3f
       -0.03004829972743231 0.07613308537063426
000150 ef 28 bb 61 6d 99 81 bf d8 86 2d 3e 21 24 a6 bf
       -0.008593420548454548 -0.04324439891821691
000160 55 b0 3d 94 77 d2 a6 3f b7 6f 26 20 60 1f 52 bf
       0.04457448658544708 -0.0011061133123808472
000170 be 39 bc 00 b1 ab b3 3f f3 5d 97 38 4a 92 8c bf
       0.07683855312300289 -0.013950900890377737
000180 cb ee de 8e 78 a3 9b bf 71 34 20 d9 cf 9c 82 3f
       -0.026990779609817033 0.00908815747609479
000190 dc 6a 5e 1c 8d 4e b1 3f a8 fc e8 d9 79 37 89 bf
       0.0676048464069185 -0.012312843287075673
0001a0 12 8e 3f 5e 68 3d 93 3f 66 b8 0f f2 d5 3f 92 bf
       0.018788939239938136 -0.01782163896489699
0001b0 01 a3 78 bd a3 87 b3 3f e8 1c 1d 1b 29 f2 7a 3f
       0.07628844619524601 0.006578598566029138
0001c0 91 84 b9 ae 82 78 a6 bf 06 42 85 97 fa 5f b3 bf
       -0.04388817198629014 -0.0756832714007559
0001d0 10 38 24 2d 5b e4 b2 bf 23 e7 84 95 33 2e 97 bf
       -0.07379693843924451 -0.022637182236599728
0001e0 b9 ad 2b 91 c0 e5 a4 3f b6 65 38 6b f7 c1 af 3f
       0.04081537029363908 0.06202672180024697
0001f0 41 c2 85 23 ef 04 b2 3f de 64 31 38 0b b6 a2 bf
       0.07038778893707677 -0.03654513417195358
