weights/model_base_single_input_obs_wc_nolim_saf_0_bn.pth (torch, 378188 bytes, 10 tensors)

fc1.weight f8 [256, 52]
0	0x3f943412b8899a96	0.01972989322021109
1	0xbfb6ea5e97250cb2	-0.08951369466835749
2	0xbfba4018b1c6d9fb	-0.10254053440335291
3	0x3fbe00e2ab5d7e97	0.11720101054879205
4	0x3fb5450b97c08935	0.08308479742894266
5	0xbfc04e4371cd5e4b	-0.1273884111094382
6	0x3fb1b65ccceecd6f	0.06918888095133523
7	0x3fb1dbd2218774fa	0.06976044958669894
8	0xbf62fc58bbb32b49	-0.0023175938673366853
9	0xbf9a036557e0599d	-0.02540357922415525
10	0x3fa95fa780000000	0.04955790936946869
11	0xbf9c843a20000000	-0.027848156169056892
12	0x3fbf3f848e2266a9	0.12206295461728679
13	0xbfaed62fc0a22532	-0.060227863564316655
14	0x3fb765a680000000	0.0913948118686676
15	0xbfa79095e0000000	-0.046024974435567856
16	0xbfab66ae03bb32b2	-0.05351775928065673
17	0x3fa3f6baa82e7384	0.03899176886554925
18	0x3fb2a64320000000	0.07284945994615555
19	0xbfa55a8b60000000	-0.041706424206495285
20	0xbfb11c9d11dd9958	-0.0668428581826438
21	0x3fb240a4722b6cd6	0.07129886424393148
22	0xbfc0cef800000000	-0.1313161849975586
23	0x3f96c17740000000	0.02222238853573799
24	0x3f946638b8899a9e	0.019921194327617735
25	0x3fc13f808e0fe770	0.1347504323637696
26	0x3fc1b73a60000000	0.13840417563915253
27	0x3f9ef1e500000000	0.030219629406929016
28	0x3f8e147ab1133534	0.014687498597050742
29	0x3fbbdf2d3bac7bba	0.10887415606383302
30	0xbf9b31d8e0000000	-0.02655733935534954
31	0x3f47c45e20000000	0.000725313147995621
32	0xbf9842cb97766562	-0.02369230377153054
33	0xbfb3d864d1e7d34d	-0.07752065777442603
34	0x3fac1d4fa0000000	0.05491112545132637
35	0xbf94d69980000000	-0.020349882543087006
36	0x3f88f304f1133531	0.012182272536302637
37	0xbfb1afa743121fde	-0.06908650767775223
38	0x3fadaaecc0000000	0.05794467777013779
39	0x3fac6e1140000000	0.05552724748849869
40	0x3fb656e6ce2266a9	0.08726351292207347
41	0x3fb533f363d5664f	0.08282395541518749
42	0x3fb74e3d80000000	0.09103760123252869
43	0x3fbce04f40000000	0.11279769241809845
44	0x3fac6ed59c44cd4d	0.05553309948518379
45	0xbfc0b48e35f7049e	-0.13051011691098763
46	0x3f9f4a93c0000000	0.03055792674422264
47	0x3fa1a60260000000	0.03446967527270317
48	0x3fba74b36e2266a9	0.10334321440532314
49	0x3fabbb5d00ae8e79	0.05416384347270493
50	0xbfb73b2300000000	-0.09074610471725464
51	0xbf9147f000000000	-0.0168759822845459
52	0x3fb0ac5e6f7ce2cb	0.0651301405131434
53	0x3fbad73b48184632	0.10484667310836285
54	0x3fa142431c65ea89	0.03370866510063759
55	0x3fc6e2fb45bcf8db	0.1788019266622943
56	0x3fa8bd3b04136132	0.048318714377901265
57	0xbf875b1e204d8d6a	-0.011404261933143107
58	0xbfbb2c424164c2e9	-0.10614408585093894
59	0x3fba9318960e4c00	0.10380700744126159
60	0xbf7d28cc4831d34d	-0.007118986107447278
61	0xbfb1e710f340ce82	-0.06993204058454164
62	0x3fa353e420000000	0.03774941340088844
63	0x3fb02b4be0000000	0.06316065043210983
64	0x3faadcb4def9c598	0.05246510717268932
65	0x3fc59a06ff8fc5e9	0.1687630412921373
66	0xbfa009f4c0000000	-0.03132595866918564
67	0xbfad87f000000000	-0.0576777458190918
68	0xbf6c6d055063a696	-0.00346995389837874
69	0xbf948828f21187f1	-0.020050658964812788
70	0xbfa4073dc0000000	-0.03911774605512619
71	0xbfc00cb7c0000000	-0.12538811564445496
72	0xbfc0728f68418e9d	-0.12849609938267728
73	0xbf86036d90306f11	-0.01074872585564138
74	0xbfa30586e0000000	-0.03715154156088829
75	0xbfba444440000000	-0.10260416567325592
76	0xbf936bd1820c74d4	-0.018965982019939556
77	0x3fbf557d521d9652	0.1223982167699316
78	0x3fb44ed980000000	0.07932814955711365
79	0x3fb300e640000000	0.07423247396945953
80	0x3fc0530d97be7161	0.12753457936640714
81	0xbfa141878374b389	-0.03370307426153036
82	0x3fb9989060000000	0.09998419135808945
83	0x3fbeb77ec0000000	0.11998741328716278
84	0x3facfe355ef9c598	0.05662695679064739
85	0x3fbe209b3bd4aef8	0.11768503390038265
86	0x3f3a547080000000	0.00040176149923354387
87	0xbf9f1a9760000000	-0.03037487529218197
88	0xbfa9adb401063a68	-0.05015337479118359
89	0x3f90284eed975fde	0.01577876401083233
90	0x3fad91d0e0000000	0.05775311216711998
91	0xbfc10f57e0000000	-0.13328073918819427
92	0x3fafd2833ef9c593	0.062152959287128294
93	0x3faaa1438b35fa02	0.05201159548140667
94	0xbfa91b5be0000000	-0.04903685674071312
95	0x3fbfe02fa0000000	0.12451455742120743
96	0x3fbf2e2ecf7ce2c8	0.12179844442006094
97	0x3fba7dcc27f51b9c	0.10348201728366607
98	0x3fbeac0280000000	0.11981216073036194
99	0xbfb2075000000000	-0.07042407989501953
100	0x3fb6ea994f7ce2c8	0.08951719465847952
101	0x3fb88c37fbf0ba31	0.09588956738364442
102	0xbfbb9e40c0000000	-0.1078834980726242
103	0x3fbedc7120000000	0.12055117636919022
104	0x3fbb2196965e9c91	0.1059812657464241
105	0x3fb8b0649e965974	0.09644154426346124
106	0xbfa7821d639f6678	-0.045914572154015454
107	0x3fb4b1321f5d9613	0.0808287931991674
108	0x3fb4912e435ac305	0.08034028190992266
109	0x3fae2c5101ef3dfd	0.058931857572698455
110	0x3facde91c3de03f5	0.05638556972463241
111	0xbfbd0c8cc175f303	-0.11347274516260701
112	0x3fbc45b2565e9c8e	0.11043848618156657
113	0xbfb3250769344f52	-0.07478376692261904
114	0x3fa9cec7c0000000	0.05040573328733444
115	0x3f72a772e0000000	0.0045542228035628796
116	0xbfadce5fd342c6e4	-0.05821513608806386
117	0x3fcc9e55d1b27029	0.22358200778114792
118	0xbfbd2883e0000000	-0.11389946192502975
119	0x3fbf210ac0000000	0.12159793078899384
120	0x3fb20c0a965e9c8e	0.070496236525843
121	0x3fb06aa3b29d4c02	0.06412718878463866
122	0xbfc106c800000000	-0.13301944732666016
123	0xbfaeba58c0000000	-0.06001546233892441
124	0x3fbb41a2565e9c8e	0.10647024735100016
125	0xbfb46dde9d2f2b6b	-0.07980147683626419
126	0x3fb1323ea0000000	0.06717292219400406
127	0xbfc070d3e0000000	-0.12844322621822357
128	0x3fbaae54f65e9c8e	0.10422259344942317
129	0x3fbbfd966c067bc1	0.10933818948113495
130	0xbfab152ec0000000	-0.052895985543727875
131	0xbfaf9c1940000000	-0.06173781305551529
132	0xbf9c7384a6858dbc	-0.02778441683166276
133	0x3fa086bb5d7a9591	0.03227792278384379
134	0x3fbfa9c6c0000000	0.12368433177471161
135	0xbf7c94a6c0000000	-0.0069777024909853935
136	0x3faad8e38cbd391c	0.05243598073012576
137	0x3fad5daa41520152	0.057355232690499705
138	0xbfb3a70080000000	-0.07676699757575989
139	0xbf975ec0e0000000	-0.022822393104434013
140	0xbfa7f4fa7342c6e4	-0.04679091126435056
141	0xbfc3b7ee6d23ce64	-0.15405063942999953
142	0xbfbef1b4c0000000	-0.12087564170360565
143	0x3fc07884e0000000	0.12867794930934906
144	0xbfc1148f54d0b1bd	-0.1334399379860666
145	0x3fb5976884f62ab0	0.08434155698902646
146	0x3fbb041b60000000	0.10553141683340073
147	0x3f9c1c0e60000000	0.02745077572762966
148	0xbfab7536b342c6e4	-0.05362864435427442
149	0xbfb15747955c416e	-0.06773803135388842
150	0xbfb5bc8920000000	-0.08490807563066483
151	0x3fb2db0ae0000000	0.07365482300519943
152	0xbfc06279e4d0b1b7	-0.1280052535306717
153	0xbf9ea07c863f33ad	-0.02990908212068504
154	0xbfa433fc60000000	-0.039459120482206345
155	0x3fbf85c2a0000000	0.12313476949930191
156	0xbf7806e39b2e598b	-0.0058659449449777286
157	0xbfbf3ce06a9859e5	-0.12202265360279048
158	0xbfa491425f123b99	-0.04017074022805573
159	0xbfbc10b06aa28c49	-0.10962965587036523
160	0xbf987428cde88059	-0.02388061291469543
161	0xbfc02a18bf2a7218	-0.12628468832271333
162	0x3fb73f914c7aaa43	0.0908137141911221
163	0x3fb241b641b6d479	0.07131518463468635
164	0xbfbddc6ac3b2e59f	-0.11664454725077754
165	0x3fb7e3527456c02d	0.09331240978531304
166	0xbf91beb7a0000000	-0.01732909120619297
167	0x3fb249a860000000	0.07143642753362656
168	0x3fb769731c4d1a62	0.09145278397509451
169	0xbfbf10ac929e78c4	-0.12134817676130455
170	0x3fbd7b4fc0000000	0.11516283452510834
171	0xbfb21c5880000000	-0.07074502110481262
172	0x3fbbb5cebc4d1a62	0.10824291321942206
173	0x3fbbca217d78149c	0.10855302155694563
174	0xbfc0014960000000	-0.1250392645597458
175	0x3fa1d281c0000000	0.0348091647028923
176	0x3fa45317d89a34cf	0.03969645041534308
177	0xbfb0d02b2cd1ccd8	-0.0656764015600858
178	0xbfc104ff60000000	-0.13296501338481903
179	0x3fb4d4b660000000	0.08137073367834091
180	0xbfb1520163b2e59e	-0.06765755352070932
181	0xbfb0eeb60732a864	-0.0661424415181116
182	0x3fab4dd200000000	0.053328096866607666
183	0x3fafa65640000000	0.06181592494249344
184	0x3fa23786189a34ce	0.03557986307451132
185	0xbfa28c6c81e81ee3	-0.03622759900832564
186	0x3f7545e400000000	0.005193606019020081
187	0xbf8e6af120000000	-0.014852412976324558
188	0x3fa10ad2f89a34cf	0.03328570637413863
189	0x3fa472f2b9827695	0.03993948473474266
190	0x3fa8f7aec0000000	0.048764668405056
191	0x3f7ed11140000000	0.007523600943386555
192	0xbfbe7beda3b2e5a4	-0.11907849546960009
193	0x3fbb78c67a0cd4ff	0.1073116348241747
194	0x3f842859a0000000	0.0098425867035985
195	0xbfb2063220000000	-0.07040704041719437
196	0xbfa86c40a765cb31	-0.04770090144565698
197	0x3fb44c59b8733a8f	0.07929001572777337
198	0x3fa485b560000000	0.04008261486887932
199	0xbfbc473ba0000000	-0.11046192795038223
200	0xbf4929ab9972cc19	-0.000767906941197774
201	0xbfc30c30aacb29a4	-0.148809512515368
202	0xbfb6722980000000	-0.08767947554588318
203	0x3f9def42e0000000	0.029233021661639214
204	0xbf938d7caecb9661	-0.01909441773286458
205	0x3fb48757b0e28970	0.08019016331176032
206	0xbfc0c4a540000000	-0.13100114464759827
207	0x3f9d3c3ea0000000	0.028550127521157265
208	0x3fbb272173645502	0.10606583659349059
209	0x3fb7ede254c57629	0.09347357339489605
210	0xbfb81b2fa003475d	-0.09416482597887695
211	0xbfbdfd25eec17a6e	-0.11714398459432981
212	0xbf9178a0bb5ef233	-0.017061721264086848
213	0x3fa20e95af6d358e	0.03526752249181718
214	0xbfbf24ecdf361127	-0.12165718507282418
215	0x3f892da2a040dc85	0.012294073596520025
216	0x3fae47f0a6c8a9f8	0.059142608985286615
217	0x3fb41f742c6987af	0.07860494694025875
218	0x3f881803c0000000	0.011764554306864738
219	0xbfb1cb1660000000	-0.06950511783361435
220	0x3fb7f150b3645505	0.09352592830358127
221	0xbfbfb0d88f1f3fd1	-0.12379220480147458
222	0x3fbab35360000000	0.10429879277944565
223	0x3fbc3d5000000000	0.11031055450439453
224	0x3fb2fedb33645505	0.07420129780469516
225	0xbfac11aab2aaea6f	-0.05482228690148793
226	0x3fac664b80000000	0.05546794831752777
227	0xbfaeab5c60000000	-0.05990112945437431
228	0xbfc138a0464dd57d	-0.13454059059919735
229	0xbfa5516509d52ade	-0.04163661713626764
230	0xbf998cf5a0000000	-0.02495178021490574
231	0xbfaee7a4c0000000	-0.06036105006933212
232	0x3fafe2cc26c8aa07	0.06227720235286332
233	0x3fa80832cbf0b8a0	0.04693754901414704
234	0xbfaa8f6da0000000	-0.0518755204975605
235	0xbfb95babe0000000	-0.09905504435300827
236	0xbf8c9be0c4dd5812	-0.01396918869765432
237	0xbfa70742d9879f47	-0.044977273038795
238	0x3fb90a3e00000000	0.09781253337860107
239	0x3fb13a9680000000	0.0673002302646637
240	0xbfc02402364dd57d	-0.12609889651836773
241	0xbfaa823864f9e813	-0.05177475197429273
242	0x3fa50b23e0000000	0.04110061749815941
243	0xbfaa1e3c20000000	-0.05101192370057106
244	0x3fc044a9b9b22a83	0.1270954281538544
245	0x3f8497187be8692a	0.010053817063682208
246	0x3fc0785300000000	0.12867200374603271
247	0x3fc0d2dd00000000	0.13143503665924072
248	0xbfb05d5c2c9baafd	-0.06392456139625931
249	0x3f8062adf48fd721	0.008000716234146278
250	0x3fc04820a0000000	0.1272011548280716
251	0x3f96441de0000000	0.021744219586253166
252	0x3fb6d645d3645505	0.08920704279838183
253	0x3fbd15ccc9726191	0.11361389082083508
254	0x3fa466f860000000	0.039848100394010544
255	0x3fb7e2d6e0000000	0.09330504387617111

fc1.bias f8 [256]
0	0x3f99fca0f9762475	0.025377764917298557
1	0x3fbabc378ddd4b0d	0.10443446362959836
2	0xbfba0841493a75ed	-0.10168846166421704
3	0x3faf4d1fe661ed62	0.06113528907095646
4	0x3fadb14e4b3c38b8	0.05799336117171222
5	0xbfb019e9d03be993	-0.06289540609205906
6	0xbf90b30ddb558496	-0.016308037292564657
7	0x3fb9f06f9bf021cb	0.10132501179771862
8	0x3fb2c34e7e7e214b	0.0732926424808557
9	0x3fc179ac0d46d121	0.13652563713333968
10	0x3fbdb8fac3b29e2f	0.1161038139131214
11	0xbfa8d75660735fd7	-0.04851789405228118
12	0xbfb209ed3c7021ec	-0.07046396947419681
13	0x3f707349b7b61469	0.0040161971659290275
14	0xbfb92cbd3a801673	-0.09833891561728496
15	0x3fb6021907f64745	0.08596950954804779
16	0x3faa812db415884c	0.05176680396358843
17	0x3fadfcc00746630a	0.058568955314688934
18	0xbf908ae406088148	-0.016154826038588227
19	0x3fa1ff8723be0716	0.03515264807994194
20	0xbfb98ce6c0cf4d91	-0.0998062344290729
21	0xbfb6c81077ea3455	-0.08899023940667068
22	0xbf7bbfd161220dac	-0.0067747286685774614
23	0x3fb30799201cf39b	0.07433468851100004
24	0x3fa536da42cd32c1	0.04143411698769262
25	0x3fac1fd739f1722b	0.05493042547525236
26	0xbfc0d7049786da8b	-0.131561826694185
27	0x3fb37d6f9098e250	0.07613274841504247
28	0xbfbcdef3dc6af396	-0.11277698642056885
29	0x3fa0102105aa1524	0.031373054448560006
30	0xbf95fd3ce3f2514e	-0.021473838246110426
31	0xbf8f13e91f96ba67	-0.01517469527865707
32	0xbfb748a93013f7cc	-0.09095246719149869
33	0x3fb9294522a15390	0.0982859811350194
34	0xbf91f652caddcf5b	-0.0175412117309429
35	0xbfc06ea91845abdc	-0.12837709126628638
36	0xbfb6ac0baef0bdd9	-0.08856270810132773
37	0xbfbda4ff7c6e35e6	-0.11579891956190344
38	0x3fb2e4180f4279a5	0.07379293797064308
39	0xbf79ad37eecffa83	-0.0062687096478827335
40	0x3fc2ced515b25e04	0.14693702277575948
41	0x3fb43e1d480ca59e	0.07907279023188216
42	0x3fbb70226276487d	0.10717978385790335
43	0x3fb5e065b78ff825	0.08545528155806943
44	0x3fc1cb29158b0cce	0.13901246597206413
45	0xbfa8d7a667df68e0	-0.04852027910210821
46	0x3faeac98f6410e95	0.05991056448013158
47	0x3fb2200405863474	0.07080102095479096
48	0x3f8c323091c9547e	0.01376760430245327
49	0xbf97fe40ee28b630	-0.023430838142465216
50	0x3fbac1c3fe89ec92	0.10451912845921843
51	0xbfb60a047db06403	-0.08609035557346094
52	0x3fac7f0aa9ae9250	0.05565675088226796
53	0x3f99d127e4622989	0.025211928667468384
54	0xbfaa4332dc825783	-0.051293935220356544
55	0x3fb79d15eeb3910b	0.09224068715736082
56	0xbf9c6ed5ce5b8395	-0.02776655265813906
57	0x3fc1d8d75926caf6	0.1394299683866717
58	0xbfbba1266a9bac38	-0.10792770483719571
59	0x3fc104e591bdb29d	0.1329619371057519
60	0xbfbf18043f27dc24	-0.12146021406066204
61	0xbfb86bd34984c0f1	-0.09539528412711086
62	0xbfba46d74edf5194	-0.10264344859689906
63	0x3facfa896849b555	0.05659894369169175
64	0x3fad7495d0ec771b	0.057530099633579655
65	0xbfbf975ec94e9c28	-0.12340347685550113
66	0x3fb03e1faede53dc	0.06344793338060079
67	0x3fa8781cc6404f70	0.04779138488825552
68	0xbf71e3d9b9df2870	-0.004367685787608364
69	0x3fb191e923d07589	0.06863267063496016
70	0xbfb84ef262b8850c	-0.09495463285613343
71	0xbfa99b83fe76aea8	-0.05001461488003872
72	0x3fc0b8387d6da175	0.13062196850229282
73	0xbf620d8d7c4ca8d3	-0.0022037280454202195
74	0x3fbf40557fdb4706	0.12207540866372932
75	0x3fadf21c0a3d10d4	0.058487774133512055
76	0x3fbbb371095b3949	0.10820681074549045
77	0x3f74fa5586c70270	0.005121549690045954
78	0xbfb3ed03e99d4d50	-0.07783531621435213
79	0x3f93bc0a730c0b45	0.019272006294168937
80	0x3fa3b49999b9b145	0.03848724366693771
81	0x3fb75192c2fdafe3	0.09108845959207161
82	0x3f98d74822af6b57	0.024258734814661533
83	0x3fae1f58170d4b69	0.05883288651843694
84	0xbfbe0d09ae50974f	-0.1173864412854446
85	0x3fc2179f7692fda6	0.1413459137893202
86	0x3fb14915008fcc98	0.06752139342988739
87	0xbfbf20c94c1fe991	-0.1215940295077529
88	0x3fab29f213e813c8	0.05305439465522671
89	0x3fa4fb48f0b2b36a	0.040979651815496634
90	0xbfb7a82a1b95e15a	-0.09240973638032327
91	0xbf98b57716fa995d	-0.024129734780808366
92	0xbf687c285732c62c	-0.002988890447874556
93	0x3fbdc4b2d49df5d2	0.11628263178678047
94	0xbfa16702764fd204	-0.033989026014669604
95	0xbfb14a5f36285994	-0.06754107544143145
96	0xbf7b108f827bde42	-0.006607590279365251
97	0x3fbc5f2430fca338	0.11082674213379284
98	0x3fbbecfb925c2df3	0.10908481906169935
99	0x3f7cba3d8a63d955	0.007013550179399826
100	0x3f9f9f5f078a44fa	0.030881390414440248
101	0x3fafec3394e0d567	0.06234894935952689
102	0x3fb369bf7b00343c	0.07583233597706934
103	0xbfa356c97fc7253e	-0.03777150807179418
104	0xbfb3f18780f894b5	-0.07790419481951256
105	0xbfb7c9ec21d23fc3	-0.09292484117236115
106	0x3fb1ec5c8a4a7a9c	0.07001284004443636
107	0xbfbbd34caca61b33	-0.10869292464313389
108	0xbfaec58d147c9c1f	-0.06010094523508535
109	0x3f97265ba90e4278	0.022607261842099352
110	0x3f711e1bbedbe467	0.004179104214693564
111	0x3fbf99e6ef257483	0.12344210947544991
112	0x3fad91eb26d2b6d2	0.057753895272396286
113	0xbfb638ce44da0c9d	-0.08680428677512216
114	0x3fb9fe75fe6a5fe0	0.10153901540104426
115	0x3fb7665ffe2d5525	0.0914058681058419
116	0xbfbf0c2c6acb13c7	-0.12127950293786603
117	0xbfacbb7b99b3c72a	-0.05611788035629524
118	0xbf99504b6ca2e36c	-0.024720362191803444
119	0xbfa6efa088ef322c	-0.04479695960580829
120	0x3fb196bf8b62f6a0	0.06870648529999324
121	0x3fb80aa8a3685dad	0.09391263951726243
122	0x3fbdb571319cf360	0.11604983769661947
123	0xbf725da1f8c0392e	-0.004483826352965443
124	0xbfb46149120b92e3	-0.07960945787960898
125	0xbfa9b988fdd182a8	-0.05024364565247669
126	0x3faf348057822744	0.06094742840021053
127	0x3fbb10e900219538	0.10572677853777612
128	0x3fa324cd98e105cb	0.03739016047667184
129	0xbfb32c100420f325	-0.07489109135435663
130	0xbfbcb96e5a612d43	-0.11220445353062751
131	0xbfbaef32543a5b0a	-0.10521235042902446
132	0xbfafdfa3b48ca35c	-0.06225310877773069
133	0x3fb7f3fccdbf9fbf	0.09356670401723387
134	0x3fa8e02418e5fefe	0.04858506015716378
135	0x3fbc80d6b25f433b	0.11134092192447735
136	0x3f979aefa5efe1e8	0.023051971915238584
137	0xbfb863114717975f	-0.09526164994858054
138	0x3fbea3a744e8ddd8	0.11968465263713968
139	0xbfa57f2785396742	-0.041985735905383695
140	0x3f80fae826a5e807	0.008291066817708538
141	0xbfbcaed7d7390a14	-0.1120428944059671
142	0x3fb7af07e9e871a0	0.09251450977939735
143	0xbf9f09c9de5d76e1	-0.03031077785214265
144	0x3fc0a86b2032434a	0.13013972351157072
145	0x3fa9d7494bad1484	0.050470629203609924
146	0x3fbe03fea7314e5e	0.1172484548745216
147	0x3fbc5401d0d36b3c	0.11065684650695301
148	0x3fbe9b3454d2c8eb	0.11955573149569758
149	0xbfb068127161b214	-0.06408801334482234
150	0xbfc19cf13d693756	-0.13760200022300734
151	0x3f9506bca03bcac5	0.020533511428719082
152	0xbf92d13f4ef6d0a6	-0.01837634009798763
153	0x3fa1c27de5c2df2d	0.034686979577087086
154	0xbfa194e76b609cd3	-0.034339172227470315
155	0x3fb917f275f0700f	0.09802165393233529
156	0xbfaa8d1725ff7cec	-0.051857684505870555
157	0xbf347c25e0f6893a	-0.0003125755765386488
158	0xbf83f375fa401319	-0.00974170846894533
159	0x3f9ec21ced266f39	0.0300373573059993
160	0xbfb5077d51cb2706	-0.08214553114808262
161	0x3faa1a94da9d0cae	0.050984050451483895
162	0x3f62a0772b8c7544	0.0022737815419434943
163	0xbfa7f12f9aae9912	-0.04676197779854098
164	0x3f8517e603f60dad	0.010299489017376507
165	0x3f9079fcfccabb31	0.016090348176187767
166	0x3fb506fe2f1fd50f	0.08213795328613947
167	0xbfba43dc94f66ed2	-0.10259798657210276
168	0xbfb40e5b483c760e	-0.078344063888345
169	0x3fb39d2eba59734e	0.07661716508432656
170	0xbfba07e7b2fe0303	-0.10168312187125754
171	0x3fa92ee605541919	0.04918593230290664
172	0xbfb69493de7e6e7e	-0.08820461446742375
173	0xbfb9d1dbb31a5315	-0.10085843203189555
174	0xbfa17fc43e113f29	-0.03417790658624959
175	0x3fad530c6058fba3	0.05727423359029806
176	0xbfa11b98dfc7d4e8	-0.03341367465683637
177	0x3fa7aab9733169c4	0.04622439891018673
178	0x3fb5f9b05ca3c725	0.08584120046341732
179	0x3fb3ef6283cc8e06	0.0778714725279813
180	0x3f93088bf74d5a19	0.018587290734410986
181	0xbfb506c1bd023afa	-0.08213435043783682
182	0xbfb3fca0341750e3	-0.07807351371531328
183	0xbfbe485a003f9fcf	-0.1182914972883957
184	0x3fc5bd66f66f82cb	0.16984259636867302
185	0x3fbbf3dff4bf4bd7	0.10918998456263239
186	0xbfab2c6574fc5f0a	-0.053073092012878645
187	0x3fb788abe72f9e42	0.09192919153394377
188	0xbfa5dd86a7089903	-0.04270573414787473
189	0xbfa5402aabcaa5f7	-0.04150517794671409
190	0x3fa6ec92b71ce5bc	0.044773659565588514
191	0x3f520439495a3db3	0.0010996398390580142
192	0x3fbe96019d1e573a	0.11947641454602556
193	0xbf92264f44536b68	-0.017724264664916417
194	0x3fc0af155311d346	0.13034311824926642
195	0xbfa7bab679cbcb29	-0.0463463805844156
196	0xbfb1b4ce8eac3292	-0.06916514380663788
197	0xbfc040419139e5a1	-0.12696094123002147
198	0x3f90d7cdc0156fdd	0.01644822583089921
199	0xbf7473e865ca284c	-0.004993350794970718
200	0xbfb80b1787847690	-0.09391924913912875
201	0xbfac8f0cb3455dd5	-0.055778881915724256
202	0x3fc391759ce07a4a	0.1528765693664858
203	0xbf89fb8d3a6f241d	-0.012686827989357547
204	0x3fbfb350fee4d6ac	0.12382990096088048
205	0xbfb96c2b3e69ffa3	-0.0993067767503804
206	0xbfb1d088bc178951	-0.06958822815025668
207	0x3fb0077f40de1def	0.06261439641649934
208	0xbfb70ef50ea1a9ec	-0.09007197959150631
209	0x3fae366f0f0933cc	0.0590090471128871
210	0xbf86c684b6a89b48	-0.01112083132200116
211	0xbf8e7d783fd7bf4b	-0.014887752006842133
212	0xbfa71699f2a27003	-0.04509430968138874
213	0xbfa25d9446bf85b0	-0.03587020267128638
214	0xbfb3e888f71bc6b0	-0.07776695282862067
215	0xbf6869bd2b1364ad	-0.0029801077549619
216	0xbfba9af6c1fd73e2	-0.10392706142506783
217	0xbfbeb6cbf7a5dbd8	-0.11997675701228105
218	0xbfc0abad0c7c6cf1	-0.1302391348807315
219	0x3f9c54df71fec68e	0.027667514164653677
220	0xbfbccdb865915d3a	-0.11251404266055412
221	0xbfb475b9043152be	-0.07992130615577772
222	0x3fabef96d2568c23	0.05456229512790169
223	0x3fc0975bf1983f17	0.12961911484352903
224	0xbfa5b1fc4448feeb	-0.04237354596670947
225	0xbfb39de7716e5aa6	-0.07662817496598481
226	0xbfbbd27fa24f7c37	-0.10868070328386713
227	0x3fb3da8dd163e8a0	0.07755361902300928
228	0x3f6767eda124eabe	0.0028571740341737087
229	0xbfa9f9060605ae90	-0.05072802375329133
230	0x3fc080909080088b	0.12892348342581203
231	0xbfa6d06c5a951108	-0.044558893258484444
232	0xbf53d2a36457130d	-0.001209888040976273
233	0x3fb4b83e7a7ccd42	0.08093634119432117
234	0xbfa1bceb789134b1	-0.03464446875350669
235	0xbfc4794efd146acd	-0.1599520431271543
236	0xbf9bd5cfb58a49e3	-0.02718281312497507
237	0x3fbdf8177622ac79	0.11706682809988135
238	0x3f87d09400b0f923	0.011628299971672867
239	0x3fb32bfe52f486d7	0.07489003682396898
240	0x3fbb087536eaad2c	0.10559780684223047
241	0x3f847b42093a6281	0.01000072088872739
242	0xbfbe1fbaeddf5009	-0.11767166430882993
243	0x3f93b2bd336923c6	0.019236522925243603
244	0x3f8f63fd75602f15	0.015327434677622468
245	0x3fb0b8d6d12ebfb4	0.06532042128560428
246	0x3fa4e155478f1454	0.040781655297487035
247	0x3fbcf25ee43fbf35	0.11307328293309811
248	0xbf98a83e886ebafa	-0.024079300954038076
249	0x3fb49018ed25c081	0.08032375135167237
250	0xbfa33cfd55a79cdf	-0.03757468863096291
251	0xbfb40d36dbf868fa	-0.07832663412446897
252	0xbfb71a6e12c54e12	-0.0902470393969497
253	0x3fa385648f75b260	0.03812708140580834
254	0x3f9babed5da6c719	0.027023037758858146
255	0x3fb8dd0dce6ebbb2	0.09712301530701842

fc21.weight f8 [64, 256]
0	0x3fb117702a6d5bc0	0.06676388774700026
1	0x3f8ab9acdfcf3a3c	0.013049460010646212
2	0xbfb57dd6497abdf1	-0.08395137113506458
3	0x3fabfec10721fd46	0.054677993889522145
4	0x3f957753aa918fcb	0.020963008199387716
5	0xbf9851834630e397	-0.02374844661628436
6	0x3fa5b024102df174	0.042359473204643644
7	0x3fafa40d812056c2	0.061798498165598584
8	0xbfa633d25d67899e	-0.04336411848250353
9	0x3f56403031cdba8f	0.0013580771112306244
10	0x3fbb70d6f42c7b4c	0.10719054662011479
11	0x3faa97b8accda298	0.05193879231848547
12	0xbf7a50ff4b8a3bd6	-0.006424901243589928
13	0xbf796a2306802c52	-0.006204735582296799
14	0xbfa5fea7941cb238	-0.04295848544129338
15	0x3fa3ffa15e96a5e8	0.03905967979092023
16	0xbfb2b1e40c26a32c	-0.07302689835217951
17	0x3fa96e2eb57cbf3e	0.04966875043316897
18	0xbf96d257c6ae8595	-0.02228676939160364
19	0x3f84d1a6b54820c3	0.010165502936630216
20	0xbf97e8b258aa41cf	-0.02334860483330364
21	0xbfa7f430c4c58569	-0.0467849006843249
22	0xbfb03ee1c45b9d6d	-0.06345950168507893
23	0x3f8f8abb52535a97	0.015401328515890085
24	0x3f95f21c28be28b8	0.021431388842338278
25	0x3fb00566a18189fa	0.06258241122262823
26	0x3fa7f2b6e83e13df	0.04677363953582136
27	0x3fb0575c42564fb3	0.06383301372107901
28	0x3fb45f8616f4a196	0.07958257732810234
29	0xbfb132e2556f6656	-0.06718267999476643
30	0x3fa7dd2d809d09fc	0.04660932726848796
31	0x3fa5e1afde7346c3	0.042737480072572186
32	0x3fb0cb107fa3cfb4	0.0655985175724812
33	0xbf9c7a4afd85585b	-0.02781026050919198
34	0xbf8243ca05110fdb	-0.008918360023137886
35	0xbfb04baab8e10f31	-0.06365458501482803
36	0xbfb6ab3844902e75	-0.08855010675341098
37	0x3fb13c9a43827dda	0.06733097217737996
38	0x3fa89df7527d6c14	0.048080185718127805
39	0xbfa31e7e4ab17bab	-0.037342020624002124
40	0x3fb1c27c5da856cf	0.06937386786043052
41	0xbf9f3f18d29a053a	-0.030514133314232007
42	0xbfb71bb863f6a27e	-0.09026672783387288
43	0x3f8e3953b3cf1db2	0.014757780003391872
44	0xbf94ff84eb1e7fa5	-0.02050597844174686
45	0xbfa345d6c859cacd	-0.03764220424354434
46	0xbfb11b6e8b20ac18	-0.06682482620878749
47	0x3f85b98060aee4c1	0.01060772223523754
48	0xbfb1ea01e09ebbe8	-0.0699769185437017
49	0xbf899a6f6a6805d4	-0.012501593050731431
50	0x3f9d4575191ba59a	0.0285852715086655
51	0x3fa410efb22d19cd	0.03919171380998741
52	0x3f8cf40c1ed32a7e	0.01413735837049512
53	0xbf775cb42dada055	-0.005703643629068796
54	0x3fb1aeecdd8a1884	0.0690753975742116
55	0x3fa0f16e0735c4f2	0.033091963176852604
56	0x3fa8da90589da96e	0.04854250985848095
57	0x3fa20372ee630fac	0.03518256340024037
58	0x3fb27d22710c27af	0.07222190151165252
59	0x3fb1a9d76912cf94	0.06899782481451516
60	0x3fa81d192761af52	0.04709700208408542
61	0xbf91f70742b04e10	-0.017543900914530453
62	0xbf8b98bcfbcfd956	-0.013474918780030858
63	0x3fb312429c03926d	0.07449737843450928
64	0x3f962b8e3bf4dbc8	0.021650526437237777
65	0xbfb57de8b23fa572	-0.08395246841214091
66	0x3fb1696273fdb506	0.06801429111301979
67	0xbfbabb6d5943b2f6	-0.10442241124446724
68	0x3fab30a63958a01d	0.05310553979899189
69	0xbf735d30b55749f1	-0.0047275450392185595
70	0x3faf495b0da47537	0.061106534400304495
71	0xbf8e8c931e0b40ea	-0.014916562418335794
72	0xbfb533e7ad41c499	-0.08282325725464758
73	0x3fb1535a3903f81a	0.06767810718517389
74	0x3fb2be5ccc9ffa16	0.07321720119214378
75	0x3fb38d53f63a17db	0.07637524377250264
76	0x3fa9c5871e3784fb	0.05033514255388557
77	0x3fb073862515bbae	0.06426275639908738
78	0xbfb4088d7d529965	-0.07825550374636732
79	0xbf9d30058e780eda	-0.02850350076734185
80	0xbf9584ec33155a66	-0.021014872186550092
81	0x3fa1126452327727	0.033343443902806684
82	0xbfb638189f716cd4	-0.08679345982220649
83	0x3fb3fb1d6872f430	0.07805045890832285
84	0x3f9807ed6cd88961	0.023467740791724426
85	0xbf725fe5870d99a8	-0.00448598536681858
86	0x3fa342577be9e9ca	0.03761552226656624
87	0xbfaae1d95f05b3f9	-0.052504341935538386
88	0xbfa6bd59bda2187e	-0.04441338004930716
89	0xbf952a2adf52c489	-0.020668668633053975
90	0xbfb4c0a3a9d20841	-0.08106444259650038
91	0xbf8dc179162a8b4f	-0.014529176701506023
92	0xbfa4aac97620af21	-0.04036550108898341
93	0x3f980b775239cb08	0.023481239694272765
94	0xbfb295a5b6ac6380	-0.07259593686866417
95	0xbfa620722a628b9c	-0.04321629302400895
96	0xbfb65eafb9f1673a	-0.08738230027793473
97	0xbf998439c17030ef	-0.02491846316483842
98	0x3fa57d5d780e3a7a	0.04197208490869726
99	0x3f88182d22e0bcc1	0.011764862658394272
100	0x3fadd96888857093	0.05829931894797471
101	0x3f976f9c927a4404	0.022886702003749107
102	0xbfb4a11005184722	-0.08058261989961271
103	0xbfabcd7b2cdad802	-0.054302071786352726
104	0x3f8d9ac3b36120a0	0.014455346023297289
105	0x3fb21a3d08c32ba4	0.07071286643910796
106	0xbf7b77e26670624c	-0.006706127524943439
107	0xbfb22f678ff33e86	-0.07103583588036075
108	0x3faebe102e268d79	0.06004381717073221
109	0x3f994b1eca574ac6	0.024700623607553117
110	0x3f93f4666a392c5c	0.019486999734266028
111	0xbfb0174279abe06b	-0.06285491438382144
112	0x3fa2f77bc8a9d40c	0.037044399495165775
113	0x3f58af53ae6eed0b	0.0015066449357011315
114	0x3f6bb95bb881cc26	0.0033842841549414247
115	0xbf828ae6d199c039	-0.009053996345045433
116	0x3fb290706feef137	0.072516467406733
117	0xbfa894ca74274684	-0.048010183981785054
118	0x3fb6704831d4ead3	0.08765078751177251
119	0x3fa71d4f156c58ff	0.04514548431886744
120	0xbfa0630fbdaf2d38	-0.0320057791755865
121	0xbf712f7823987318	-0.004195660870689698
122	0xbf987dc13cceef59	-0.023917216621824753
123	0xbfad1fe320ce5802	-0.05688390517677534
124	0x3fa28c390b72a4c5	0.036226065299453526
125	0x3fa3e58ae5855a67	0.038860645787896435
126	0x3fb21d5149ed8f6e	0.0707598500717361
127	0xbf88dcbbd96b4a7b	-0.012139766285519151
128	0x3fa7c9ee5cc59b85	0.046462487053580616
129	0x3f86560f1643b6a3	0.010906331889113224
130	0xbfb58cf8bfc3d2e0	-0.08418230706940788
131	0xbfa7213439504363	-0.045175201412468245
132	0x3f8e39c0ea4a7948	0.014758593702307934
133	0xbf83f6350ebeec65	-0.009746946823602618
134	0xbf9d5815cc8709d6	-0.02865633068882708
135	0xbfb00e9e1e4c7626	-0.06272304763521017
136	0x3fac35929192eaca	0.0550962259962567
137	0x3fb52ad6253e24ad	0.08268488320585972
138	0x3f9ad7d13abe3927	0.026213902674094982
139	0x3f8ec95d09a61a4e	0.015032507760008997
140	0x3fa0ffc060b4d117	0.033201228909464024
141	0xbf7534a8b3b1e241	-0.005177172653127616
142	0xbfa61fa40df2d187	-0.04321015043516057
143	0x3f6b457a6783ee81	0.0033290281972975793
144	0x3fa3c5e57e8bc488	0.038619205186372574
145	0x3f579e91fe8c4b69	0.0014416146970616889
146	0x3f9f52e8d716a673	0.030589712264975377
147	0xbfab3b04d76f599c	-0.05318465356656363
148	0xbfba3b57a82b42a7	-0.10246799331367616
149	0xbf95410bffa813ad	-0.020755946616208543
150	0x3f9f88fb77e12e76	0.030795983497496647
151	0x3facda47b0ffb1b9	0.05635284457807494
152	0xbfa8277076a626a4	-0.04717589805939085
153	0x3f6d825106097a0f	0.0036021788112485863
154	0x3fb5820b50e829f3	0.08401556706682083
155	0xbf679620095c056f	-0.002879202433974263
156	0x3fb0146698613c13	0.06281129093370934
157	0x3f9a6d6db610f247	0.025808061826170705
158	0x3f9386b71278944c	0.019068584921246676
159	0x3fa7efa87ca3d3c5	0.046750321593129786
160	0xbf92caf2086316c4	-0.018352300416856662
161	0xbf98f3d81792703e	-0.024367691458437195
162	0x3f5f314106f18cab	0.001903832915353824
163	0x3fb8a3c1c0aae2c8	0.09624873117253252
164	0x3fafed7190158312	0.062358425939924925
165	0x3fa5541317384ee6	0.04165706308790877
166	0xbfaa7e61136fb7cd	-0.05174544679890367
167	0xbfa20d3e2fa1673d	-0.035257285417812124
168	0x3f9a4c6510b8b937	0.025682047982791913
169	0xbf95ec5dde67c8b0	-0.021409479808376985
170	0x3f524a9dd3ad3fca	0.0011164227750732774
171	0xbf61fa9b4ff79e23	-0.0021946938938872825
172	0x3f986b544fe46f2d	0.023846928955307312
173	0x3fa09b879ac99ea8	0.0324365974855117
174	0x3f931922cce47686	0.01865057349743051
175	0x3f8dbbf1741d4924	0.014518629413633528
176	0xbfa5f9401c30188a	-0.04291725486841454
177	0x3fb65503c45fa3fb	0.08723472160603755
178	0xbfaabdb3d99c5989	-0.05222856551533812
179	0x3f820636fd028b24	0.008800916286707379
180	0x3fb0026389d79d57	0.06253645053185629
181	0xbf79770d6f3fb730	-0.006217052916310625
182	0xbfa8f9e4e05b58bd	-0.048781540286357374
183	0x3fb1ab2cc35f5dc8	0.0690181710227683
184	0xbfad9f9eb02dc4bb	-0.05785842800731574
185	0x3f98157472918d90	0.02351934384604487
186	0x3fa97bbac89a64fc	0.0497721071125827
187	0x3fb183f2706f55bf	0.06841960186951378
188	0x3f8a88a5d64bea9d	0.012955947496711412
189	0xbfb667f03009ab49	-0.08752347157284847
190	0x3f96467388730a7f	0.021753125384530222
191	0xbfa6ab70eddffe26	-0.04427674201724256
192	0x3f78e45edb0bb2f5	0.0060771661089631295
193	0xbfaf92eb31c07268	-0.061667775939189096
194	0x3fb1cfe92a40aad7	0.0695787170558718
195	0x3fa20cb83a4690de	0.03525329314587265
196	0xbf72f7656c4070ec	-0.004630466635742386
197	0xbfa77e9391590464	-0.04588757657303047
198	0x3fa00c601063e8d5	0.03134441566540295
199	0x3f9ee3583a9b5b7f	0.03016412599285045
200	0x3f5460dbb0b429d7	0.0012437959110821373
201	0xbf819a2981e69051	-0.00859482219386379
202	0xbfb3f0c40b240069	-0.07789254447925632
203	0xbfbb210ed99a2e3b	-0.10597317516856546
204	0xbf55dd1dd4188250	-0.0013344565671859106
205	0x3fafbff9b3b44822	0.06201153105406855
206	0x3f9b902498ae402f	0.026917049235237463
207	0x3f51b45bc2ff50bb	0.0010805984602387092
208	0x3f9df14be85e87e7	0.029240785653776327
209	0x3f874ebae3980211	0.011380634375201234
210	0xbf8972d2883e1477	-0.012426037581244593
211	0x3f65e6c291cd52b3	0.0026735115228951555
212	0xbf9f47a79e9cc893	-0.03054677873223761
213	0x3fb0bdad42dbc515	0.06539423830306064
214	0x3fadef1b005b9315	0.0584648549973165
215	0x3f9d7c4639d28775	0.028794381407926523
216	0xbfb6f4e270946430	-0.08967414139296248
217	0xbf7c47f0176a6802	-0.006904542786879022
218	0xbf9af68502460418	-0.026331022514117647
219	0x3fb5106fcea84f9b	0.08228205485676059
220	0xbf8a16bc24e0578c	-0.012738675952316723
221	0xbfa01f00b47eea90	-0.03148653224294151
222	0xbfaedbc1035f4e13	-0.06027033964315023
223	0xbfae0bf07a83f781	-0.05868484015989762
224	0x3fb281c15f625926	0.0722924096938625
225	0xbf7dd44aafa8205f	-0.007282535307702258
226	0x3f8121535a5d4c5b	0.008364344783023883
227	0x3faa66a3205b3ffd	0.05156430978752267
228	0x3f9dcd149deaf9a7	0.02910263265470694
229	0xbf8b01ed32baf1f6	-0.01318726836267901
230	0x3f9b5830162f4df1	0.026703597406436633
231	0x3fa0db4714e5999b	0.032922955799949714
232	0xbf8f32477615c739	-0.015232618609590897
233	0xbf9f025c280b23ea	-0.03028244013220053
234	0x3f84667a434a0153	0.009961085489749754
235	0x3f7939e18308549c	0.0061587151581267395
236	0xbfad4ed80b82d584	-0.05724215641513822
237	0xbfa72833a02cbeca	-0.04522858934649106
238	0x3faf3ccc0966bc63	0.06101071944009886
239	0x3f83eda947ba4d57	0.009730646611649503
240	0x3f675d7a7c5cbd9b	0.0028521911907756887
241	0xbf95db9e5fc865c4	-0.02134559115993341
242	0xbf90a7575e9ad0e1	-0.016263356351104433
243	0xbfb04db776769bac	-0.06368586198969578
244	0x3f87f963cd043068	0.011706142133810896
245	0xbf76931adf03adc8	-0.005511383977345692
246	0xbf740e8f281321db	-0.004896697240106519
247	0x3fb4664cee9bbe83	0.07968598199271963
248	0xbfa9dcffc37c1cc0	-0.05051421414651136
249	0x3fa6bf544790574f	0.044428476081675876
250	0xbf8d855a07147a36	-0.014414504376472608
251	0x3f9ca9e8b92e30b9	0.02799190168620733
252	0x3f4e2a267b5b6c7d	0.0009205520534253522
253	0x3fa3e789bbff1511	0.03887586994054904
254	0xbfa9b98d84265f29	-0.050243780500009834
255	0x3fb4beabecad871b	0.08103441742198607

fc21.bias f8 [64]
0	0x3fa9257fd833928f	0.04911422266176146
1	0xbf8ae1ef52eec457	-0.013126249044804235
2	0x3f99f17ef484aa64	0.025335296320159975
3	0xbf8e10357168d749	-0.014679353259548516
4	0x3fb060869fbbebc2	0.06397286796338533
5	0x3fa361f9f8dd922b	0.03785687601956441
6	0x3fa78b21912f1b74	0.0459833612181261
7	0x3f9ceb101972729f	0.028240443757214902
8	0xbf99d2663c908e81	-0.025216672369551055
9	0x3f970101a7bca7a7	0.022464776862001348
10	0x3fa509bc9a6274e6	0.04108991036012259
11	0x3fb18ef265a73934	0.0685874460388945
12	0xbf753b721373f3f5	-0.005183644875839545
13	0xbfa51e2411a4cedf	-0.04124558177354997
14	0x3f977e9759b8f972	0.02294384465334915
15	0x3fa0ff6bfe94ec4e	0.03319871409117835
16	0xbf9763d34f0db826	-0.022841741275833403
17	0xbf9856a77d7cfaec	-0.023768059763137936
18	0x3fa6ddf418775349	0.04466212080629945
19	0x3facdf11ea0a98db	0.05638938886595365
20	0xbfaead55f14c13fe	-0.059916196541998076
21	0xbf919a84e6a96f4c	-0.01719100625847085
22	0x3fa27ad9bac14b7d	0.03609352497792082
23	0xbf2fb64c87930688	-0.00024194416235983154
24	0xbf7ee0e25869f394	-0.007538684999073637
25	0xbf92bc9aed61d55f	-0.018297596682221747
26	0xbf915b390dabe9fe	-0.01694955011314824
27	0xbf7dd6bbd42dacca	-0.007284864145599099
28	0x3f93824d63c70353	0.01905175134175192
29	0x3fa1a95480a578cf	0.03449501104727092
30	0xbf9939446152dc1c	-0.024632519188085053
31	0x3fa1008927a5a394	0.03320721253368855
32	0x3fadb4d41af836b5	0.05802023724764408
33	0xbfa9cd71096173c5	-0.0503955196333901
34	0x3fada50790bfbaf5	0.05789970056490815
35	0xbfa583b287bfd284	-0.0420203963002779
36	0x3f75c69a44787ba7	0.005316355330733303
37	0x3f947f9246b86108	0.020017896238727878
38	0xbf911b819f4dc519	-0.016706490848666797
39	0x3fa84fc491804a9c	0.0474835803617186
40	0x3f83ce443ce424d7	0.009670765980006752
41	0xbfa1c000643c7147	-0.034667980419018245
42	0xbf6c98def86c227f	-0.003490863312780867
43	0xbf8bf9823cf4309a	-0.013659493909038912
44	0xbfa7e863932e288f	-0.046694862095209115
45	0x3f93068fc87d39ca	0.01857971821964969
46	0x3f8d001eb410b493	0.01416038500800657
47	0x3fa2b6ea7a10731d	0.03655178775827592
48	0xbfa951105d3ff2e4	-0.04944659364989493
49	0xbfaa6897e50fb0f7	-0.0515792338481748
50	0x3fa69e4ab7ac3720	0.04417642109011255
51	0x3fb1ee8ba17adf29	0.07004616443998359
52	0xbf80ec4a44aecf19	-0.008263187619241873
53	0x3f81db7b3e3af9a3	0.008719408833141545
54	0xbf8ecdd484235f08	-0.015041027338539972
55	0xbf8f907d867766fc	-0.015412312189187365
56	0xbf8a908b773e0150	-0.012971009804232964
57	0xbf8ec036320d2688	-0.015015052225538797
58	0x3fa947895d44772e	0.04937390578764532
59	0x3f977360dd4cf344	0.02290107107841101
60	0x3f94ec33f0b7c087	0.020432292525527387
61	0x3fb2864bb43e13eb	0.07236169004870845
62	0x3fb36779763ee63b	0.07579764496667789
63	0x3fa5aeeb98cb33ac	0.042350160981733026

fc22.weight f8 [64, 256]
0	0xbf971eca5f425df1	-0.022578393997347793
1	0x3fa020543d899c39	0.03149665118399309
2	0x3fab7ed31ee96907	0.05370197059956366
3	0xbfa30d5fc908a6bd	-0.037211411752946934
4	0x3f9dd3be635238c6	0.029128050624927203
5	0xbfa1593fdc54d50f	-0.03388404430953972
6	0x3f98eb5232d8cc7d	0.024335178712317152
7	0xbf9b43913988a850	-0.026624936234078966
8	0xbfa56756326a41a3	-0.04180402150553
9	0x3fa1851a95c1369b	0.03421862676678452
10	0xbfa8b0c91ea4a62d	-0.048223767271633335
11	0x3fa75d8309ed7a63	0.04563531395136946
12	0xbfa364d12441fc98	-0.03787854735946289
13	0x3fa5e37b77f98f9c	0.042751177211157926
14	0xbfa41372876314e5	-0.0392108717219715
15	0xbf98665f70322d73	-0.02382802126207424
16	0xbf952aa65d5a0b75	-0.0206705088117007
17	0xbfaa98002af4884b	-0.051940922969393975
18	0xbf854cd134266887	-0.01040042343520421
19	0xbf71c475bc4af30f	-0.004337749390000991
20	0x3faa1997ad571f29	0.05097650519343084
21	0xbf9eff843011ad52	-0.03027159255399898
22	0xbfad03adfd3b42c5	-0.056668698465391944
23	0xbf9bb83d07834911	-0.0270700012050123
24	0x3fa3bf487158e287	0.03856874831803219
25	0x3f4db3a55d15bfe7	0.0009064252318875505
26	0x3fa1e81a6d33251f	0.034973932104160214
27	0xbfa206db9770a6a6	-0.03520857070573173
28	0x3fadb3e7bfaabfe9	0.05801319327053973
29	0x3f95b6de340f8102	0.02120539849045234
30	0x3f9ae17402ce3ceb	0.026250660582772516
31	0xbfa8bafbd9224e20	-0.048301573043456836
32	0x3f9adbbb9bd954ab	0.026228839289917854
33	0xbfa8e78cc9291d31	-0.04864158588002921
34	0x3f653c2f2f6e68db	0.0025921746814222386
35	0x3fa096857580665a	0.03239838656754719
36	0x3fa97ab006f56799	0.04976415715164179
37	0x3fa2ffe55f49ae63	0.037108581430257435
38	0xbf6274ad6bb94bac	-0.0022529017567562617
39	0x3f9a5079000c713e	0.02569760382458352
40	0xbfa30315b16c71dd	-0.03713290968719083
41	0xbf97d8c3bdc45f67	-0.023287828881705688
42	0x3f76e439cf8f1d18	0.005588746856069159
43	0xbfa8567857a9486f	-0.04753471441348799
44	0xbfa97ea7e08053bf	-0.04979443183416476
45	0x3f7cfc5864b0a2e0	0.00707659271851277
46	0xbfb1b213e5b44575	-0.06912350042354894
47	0x3fa4f412691025a1	0.04092462093837957
48	0xbfafa061122ccb4a	-0.0617704710661174
49	0xbfae927e294bca55	-0.05971140150167701
50	0x3f79eefcfa53a9df	0.00633143252819443
51	0x3f8622b033deb884	0.010808350165316456
52	0xbfa1b0fd2eb218ed	-0.034553443861158196
53	0xbfa1e6d518805c35	-0.034964236489195256
54	0xbfb219d8fbb15ac5	-0.07070690293162858
55	0x3f87adf6258bdd9c	0.011562273999046017
56	0xbfaff22d1de66ad5	-0.06239453306189594
57	0xbfb10757f831809a	-0.06651830491455471
58	0xbf47e10babe08028	-0.000728731821940447
59	0xbfaf4ed90c4c1054	-0.061148436308969295
60	0x3fa4e009387ba82d	0.040771759171392176
61	0xbfa4b87045896c07	-0.04046965454900691
62	0x3f89de778571158d	0.012631353149241043
63	0x3f9ab95b160e4b29	0.026097701283627792
64	0xbf9b0d6f4fb88c86	-0.02641843723371242
65	0x3f8857e18937705c	0.011886369705216442
66	0x3fa6a32ac240bacf	0.04421361562014214
67	0xbf9add28880621d9	-0.026234277059787068
68	0x3f93da5dd6b2eae5	0.019387689809017856
69	0x3fa189fe5a08b81b	0.034255932322011705
70	0xbfb198bc57199381	-0.06873681189024518
71	0xbfa045c395db2194	-0.03178225712105412
72	0xbfaa35ed024d4cb2	-0.05119267132854456
73	0xbfb09c29a0b907f5	-0.06488285230537356
74	0x3f704131e5a4c8ea	0.003968424711546551
75	0x3f74db623a71a255	0.0050920331042126525
76	0xbf81fab9db9e1830	-0.008779003157325688
77	0xbfa3a88f2b5f85fc	-0.03839538006264928
78	0x3fa6e0f19a1827a3	0.04468493467363934
79	0x3f83f0409bfc57ad	0.009735588798814943
80	0x3fa21f4353f71677	0.03539476776090294
81	0x3f87de299742c1fd	0.011654210022556727
82	0x3f99f5d78faddb46	0.025351875442960713
83	0x3f7324683486ab2d	0.004673392344936284
84	0xbf9561c444d1681e	-0.020880762768094134
85	0x3fab28941cf89af8	0.05304396489764501
86	0x3fa1b8574d45b352	0.034609535391473614
87	0xbf7d8881c4c9a3b3	-0.007210261258117012
88	0xbf9e8b254b759667	-0.02982767365519692
89	0xbf96f3c6b0da92b1	-0.022414307159709327
90	0xbfaff6e736aa1f23	-0.062430596754948796
91	0x3f8060c96a29a06d	0.007997106125188414
92	0x3fa3d12c275e5353	0.038705234342308124
93	0xbfaa8786ebcae340	-0.05181523922278197
94	0x3f7f008f61e30a11	0.0075688935159541485
95	0x3fa436e139260009	0.03948119948017854
96	0x3fa433cdec0828ef	0.03945773607490987
97	0x3fa0f8a843e25e11	0.03314710453667769
98	0x3fa6db575265d25d	0.04464218979675103
99	0xbf9aea19e3cf152d	-0.026283649949410282
100	0x3f8c32cd50d10e66	0.013768772152736374
101	0x3fa40976fbfabc9b	0.039134710559090645
102	0xbf6d4a70f5140103	-0.003575535411641907
103	0xbfa0585b3ae4d9ac	-0.031924105586245005
104	0xbf9171f61f5f11e8	-0.017036290802723203
105	0xbf97b1a781318bf3	-0.023138634929988865
106	0x3fa6d00fe18924b3	0.044556137353148804
107	0x3fa3254e42a4fca3	0.03739399493724107
108	0xbf9bb91c74dfadc2	-0.027073330529601376
109	0xbf9b71cdd540756d	-0.02680131544194835
110	0xbfb1cb8e62c60806	-0.06951227103675714
111	0xbfa2a1fba63664fc	-0.036392082252129726
112	0xbf6fc85a247e7b47	-0.003879715022733352
113	0x3fab22f255ddeb1a	0.053000996572299466
114	0xbf93ee9384961af2	-0.01946478363745547
115	0xbf92c4efb77210dc	-0.01832937771952535
116	0xbfaa0ff4ab1c0ea0	-0.050902982604410285
117	0xbf8b9061732d6a4e	-0.01345897801154652
118	0x3fa36d6baf48de54	0.037944188258219796
119	0x3fabfdf9505d27f9	0.05467204195026904
120	0x3fa6bbcc7abefc7b	0.044401540740630595
121	0xbfacc76f7fd3086f	-0.05620907245021633
122	0xbf989c0c5a044fea	-0.02403277682704178
123	0x3fa7ea3b4486e7dc	0.04670891963492327
124	0x3fa76276d26cd999	0.04567309683482108
125	0xbf9064819829bfed	-0.01600840083341375
126	0x3fa4d6f83a9949df	0.04070258822743588
127	0xbfad8a9f75b40ae8	-0.057698233717038694
128	0x3f407875d99bd0dd	0.0005026412429445477
129	0x3f9e48b436765c36	0.029574218582265575
130	0xbfafe540c3aeb733	-0.062295936476728285
131	0xbf94a533e8db2709	-0.020161448562055848
132	0x3f97cc941ed47954	0.023241342908584997
133	0xbf883a0063da5554	-0.011829379126803964
134	0xbfa7c306526ba0ce	-0.04640979534252808
135	0x3fa4cbc977e13ca2	0.040617271312492834
136	0x3fa468463539a92c	0.039858049390050304
137	0x3f9c1301c57c8766	0.027416255644431863
138	0xbf8692a70b2dcddb	-0.011021904972699772
139	0x3fa942910b96a24f	0.049335987724877677
140	0xbfb06623024ccbd3	-0.06405848318244915
141	0x3f9ae66c2ef41f43	0.02626961742956203
142	0xbfb17e18e44e5eb4	-0.0683303410900134
143	0xbfa38b63037ce7fc	-0.038172811675806856
144	0xbf6454ae844405a9	-0.0024817856339047384
145	0x3f966e9c6f919ed5	0.021906322774525606
146	0xbfa03b1ba2025ed4	-0.0317009578004083
147	0xbfb18832a5ef33fe	-0.06848446417934892
148	0xbfa95d3d6dda0266	-0.04953948942148116
149	0xbf1cb67123ccb73f	-0.0001095301203803663
150	0xbf8562b38b1f7020	-0.010442164118948993
151	0xbf884e7d09785e47	-0.011868454791552753
152	0xbf9a63f774b4ffc5	-0.025771967409354852
153	0x3fa4be82a7559265	0.04051597874312022
154	0x3fa2385ac6738c86	0.03558620140554418
155	0xbfb04382645c9c36	-0.06353011083830115
156	0xbfb1db26abd41134	-0.06975022978810302
157	0x3f9e32a8b0eb01ab	0.029490123556344432
158	0xbfad26c639ab6079	-0.056936449565626775
159	0x3f9e14c5022e1da9	0.029376104600968542
160	0xbfafa9af52dae8bb	-0.06184146772780382
161	0x3f63c5c2dd09d15e	0.002413635819090639
162	0xbfb33ff04d3cb399	-0.0751943768088509
163	0x3f9d6db02d81b171	0.028738739755156787
164	0xbfabf591b7ddf8bb	-0.05460791940184736
165	0x3fa04f364cb65f02	0.03185434042387493
166	0x3fa180a7324ba301	0.03418467034300044
167	0xbfb07dbe954ba10b	-0.06441870827586997
168	0x3fa9f9f1d56753f7	0.05073505144142836
169	0x3f7a9b87919c12cf	0.006495980802132719
170	0xbfb01e140354dbae	-0.06295895654044045
171	0xbfa274c8cf6474fe	-0.03604724437375671
172	0x3f9991e188ae940d	0.02497055432072064
173	0x3fa50014a58bd1f6	0.0410162403185587
174	0x3f84b7ae6fba445a	0.010115969452529839
175	0x3f955798bfe036ec	0.020841967307254558
176	0x3fa247331d4ef4d0	0.03569946034211002
177	0x3faba97c9ce31038	0.05402745642780399
178	0x3fa8def58e26bb85	0.048576043703511686
179	0xbf414e5dac9c5068	-0.0005281407731865364
180	0xbf7109dcd933f213	-0.004159796418431688
181	0x3f98bad4dcc4f170	0.024150205588044427
182	0xbf812af4cd845a14	-0.008382713815575683
183	0xbf92d1f577d154b1	-0.018379054487316086
184	0xbfb0028a7dedf279	-0.06253877233934614
185	0x3f90647a142b88df	0.01600828884228
186	0xbfb064bfb354de1a	-0.06403730514727393
187	0xbfb1ea782358e62e	-0.06998396742792387
188	0x3fa609ac12ce8679	0.04304254273962455
189	0xbf9af83fb36d5981	-0.026337619139064742
190	0x3f9f6a31cfd9e899	0.030678537665587233
191	0x3f699a7267c13365	0.0031254038313250237
192	0xbf64509f346c34f9	-0.0024798497646601994
193	0xbfaa6aab1f1d1d2c	-0.051595065639555265
194	0xbf8f1241db483086	-0.015171541695075296
195	0x3f5a6364d4b3a9d2	0.0016106114078931933
196	0xbf816d57faf89383	-0.008509337755705953
197	0x3fa84b1d95255339	0.04744808622004943
198	0xbfa10b067dfaf152	-0.03328724181980881
199	0x3f45504d893d93a7	0.0006504419893472627
200	0x3fa1876dfb9a0e8e	0.034236371005161734
201	0x3fa474b4145cf50f	0.03995287655423329
202	0x3f544325e0df75b7	0.0012367124468178733
203	0x3fabcb95cd693ca9	0.05428760654887672
204	0xbf9275719a9e841f	-0.0180261374113152
205	0x3f89683eb82fec1a	0.012405862804362445
206	0x3f8c282a49a57791	0.01374848401308862
207	0x3fa622c86f954bf8	0.043234122868533065
208	0x3fa34047947ed532	0.037599789502034034
209	0xbf7f8516c628dca6	-0.007695282899070543
210	0xbfa95f2e941f58e2	-0.04955430563102127
211	0xbf78fb9abdac431c	-0.006099323708227879
212	0xbf695a8f273fd57d	-0.003094939800571238
213	0xbfaa52de62a2ac1a	-0.05141348794980889
214	0x3f91705350a933de	0.01703005008521418
215	0xbf912e1824f3d809	-0.016777398353006876
216	0x3faa8903dc6124a8	0.05182659211329482
217	0xbfa409615a1a5386	-0.03913406586540362
218	0xbfa8c263b4146b6b	-0.04835807393302257
219	0x3f92171c7db99c46	0.017666287587783346
220	0xbf9c4e7324e64dfe	-0.02764301216809705
221	0xbfb11e374639618a	-0.06686730827767043
222	0x3f927ff9f9f0c9cc	0.018066316490328124
223	0xbf7d134b716a6343	-0.007098478984197967
224	0xbfaf270564a83440	-0.06084458211635324
225	0x3f7b8e90277c3260	0.006727755644317129
226	0xbf897b552e50358b	-0.012442269779081602
227	0xbf9856b7169c04d9	-0.023768292193385363
228	0xbfabfc1d43236d95	-0.05465785450516162
229	0x3f96aa808d035ee7	0.022134789091835663
230	0xbf7e4ea64b712365	-0.00739922484269404
231	0xbfa8e234894a625e	-0.04860080886755179
232	0x3f70e5b48ab0bb40	0.0041253139889210755
233	0xbf886d290dbdad63	-0.011926956874694644
234	0xbf9af3f62c2970ee	-0.026321264691760264
235	0x3f813c63f6e27b02	0.00841596696073799
236	0xbf9ee84190564f68	-0.030182861742630435
237	0x3fa65ac0227037d0	0.043661121562862726
238	0x3f932cc5a849b9cb	0.018725479504093017
239	0x3f9fa7ca8195d29b	0.030913509520774523
240	0x3fa5fa5f5da62e6d	0.04292581575563479
241	0xbf90b05c3ff1f0d6	-0.016297761347673433
242	0xbf95b8d0108a3036	-0.021212817201146282
243	0xbfa75ba3881a59a3	-0.04562102352535937
244	0x3f932dec83fc726a	0.01872987323359824
245	0x3f722b826fa9c0a3	0.004436025158256171
246	0xbf66e85ec6913b10	-0.0027963496291144654
247	0x3facd250a0864faa	0.056292075724882665
248	0x3fab09b3097aead1	0.05280837527012284
249	0x3f781f881cb8d0e4	0.005889445961248383
250	0xbfa7150ae7d4fb49	-0.04508241729717228
251	0x3f8b7b28d8a72a61	0.013418501960491715
252	0x3fa5b087278bb06d	0.04236242635474317
253	0xbfa508fa6daf7305	-0.041084123505902105
254	0xbf95beaf1cc75ff1	-0.021235214358824753
255	0xbfa5453c3893f9b8	-0.041543847948548984

fc22.bias f8 [64]
0	0x3fa4a98926141bb6	0.040355955026874765
1	0xbfa94b8e3de8996e	-0.049404568726731365
2	0xbf8b5eb3982f58b1	-0.013364222604576122
3	0x3f9d9d3a36dbafe8	0.02892008743121713
4	0xbf7ef3d3575dafa7	-0.00755674891648176
5	0x3faa56ce3ce429bb	0.0514435242967752
6	0xbf920c8f9bb74143	-0.01762604129709301
7	0x3f91261772382d4a	0.016746870371247703
8	0xbf7ffe5500248a77	-0.007810909303119665
9	0xbf971748c15c3449	-0.022549759675758705
10	0xbfaadee1d4cdc8dc	-0.052481705882102964
11	0xbfa708ffb7c9aac0	-0.04499053114417029
12	0xbf7f4d559fae89a5	-0.00764211127071449
13	0x3fa7c2058f205e3b	0.04640214321278476
14	0xbf8c5f931ee69997	-0.01385416925479603
15	0x3f8c6a1941833b6f	0.013874242126261397
16	0x3f8d8d78b72f2e37	0.014429991808262972
17	0x3f59aaf48dffde47	0.0015666378239965904
18	0x3f58dc3321bee015	0.0015173434576194512
19	0x3fb2ba08982c456f	0.07315114703330548
20	0x3faf47f28172a23d	0.06109578924344248
21	0xbfa735f49547da78	-0.04533352205537694
22	0xbfae78c3ab081dfb	-0.05951510870732687
23	0xbfa3eca9f82e737a	-0.03891497759398184
24	0x3f9f06f6b8684b31	0.03030000210317069
25	0xbfa5a7f0269cd2ed	-0.04229689093918929
26	0x3fa9fb03b72efd67	0.05074321375968332
27	0x3f7c856ae86f56ad	0.006963174447226867
28	0xbf8754d77bd0c9da	-0.011392291513492237
29	0xbfa8f0cb0ce3c4b9	-0.04871210605950566
30	0xbf5bba4546ca78a0	-0.0016923595932563443
31	0x3f94fc081705880f	0.020492674260260964
32	0x3fb3962b3347433a	0.07651014329827613
33	0x3f67ad2f508e94c4	0.0028901981463201627
34	0x3fa884f6f4ddc500	0.047889439955620006
35	0xbf9f735291a091ac	-0.030713358057384774
36	0xbf70fbe828b87bbb	-0.004146487113330484
37	0xbf83f0989c9b9c1a	-0.009736244468014067
38	0x3f9be97c45ecf1f8	0.027257863777082364
39	0x3fa9089a2fb6085f	0.04889375526819672
40	0xbf9d7f8c7df0f519	-0.0288068725460465
41	0xbf937fd119adf882	-0.019042269890171777
42	0xbfb1d93290f8a18a	-0.06972042121254254
43	0xbfa938f9fdb6f8d9	-0.04926282140830702
44	0x3fa968bb6cdb5b17	0.049627167738142734
45	0xbf94e4c68852e231	-0.020403959341566306
46	0xbf9717caf1521d78	-0.022551699618387627
47	0x3fa24037a32212f1	0.03564618936892384
48	0x3f9e0586a1d92983	0.029317954662738465
49	0xbf471f03c35e1fb7	-0.0007056015372066603
50	0xbfb0b3e4dfe49bbf	-0.06524496523034794
51	0xbf8ae7ecd06e9d45	-0.01313767443737269
52	0xbf9f81d177933d37	-0.030768654750145088
53	0x3f761da2f36eee76	0.005399357344625258
54	0x3f9e6112b1aa2863	0.02966717919711249
55	0x3fa6ae5ab6fe8db1	0.04429896816079849
56	0x3f9d0c94591c1f20	0.028368299425920118
57	0xbfab764dfc858f3e	-0.0536369677309083
58	0xbf9f749bb330d5fa	-0.030718262493072836
59	0x3fa8c53cc0000000	0.0483798012137413
60	0x3fb1c7a8a05e19ed	0.06945279994224736
61	0xbf5339c2aeb57546	-0.0011734391399252516
62	0x3fb354136cfbe5a1	0.07550164614430922
63	0x3fb0b9f95b07c044	0.06533773872774967
