weights/model3_25_smgbin_l_w_lims_opp_pen_dgoal_fixo_obs_l_suite_1_bn.pth (torch, 423134 bytes, 14 tensors)

fc1.weight f8 [256, 8]
000000 65 eb 73 e1 8a 5b e0 3f f6 73 79 36 75 4b d8 bf
       0.511174621903916 -0.37960558242576725
000010 03 6b 85 e8 ff 80 cb 3f 8a 91 a0 8a 44 35 a8 3f
       0.21487425664494006 0.04728140060641113
000020 d8 b0 00 40 16 07 b6 bf bd e8 ab 17 d8 fb c2 bf
       -0.08604563772741203 -0.14831067233882847
000030 bd fd 85 0a f0 01 83 3f 73 67 4d 27 29 2f d7 3f
       0.00928103954424741 0.36225346410866804
000040 aa e1 9d a9 b3 58 cd bf c6 e6 08 c3 1e 49 ba 3f
       -0.22926946432177192 0.1026782251509771
000050 ea d5 cb 96 23 12 ce bf 26 52 57 98 32 cd c7 3f
       -0.23492855895135217 0.185949634919454
000060 58 ca 81 c6 12 25 d2 bf 53 1f 19 84 76 79 db 3f
       -0.28351277718971835 0.42928851032455845
000070 be 88 b9 54 86 73 c1 bf 3d 37 d7 61 af a9 bf 3f
       -0.1363380349822076 0.12368293894470823
000080 1c 9e 93 26 8f 3e ce 3f b1 75 a1 70 1c a2 ba bf
       0.23628415473579956 -0.10403611898205757
000090 d3 4b d2 c4 b0 a7 c5 3f 46 c6 f0 3d e1 82 d8 3f
       0.1691800080339748 0.38298827217940745
0000a0 28 56 72 39 ad 1b db bf 46 cb 30 80 d2 03 c0 3f
       -0.42356424913427526 0.12511664637858128
0000b0 7c 98 ed 99 ab 9a e0 bf c0 d5 ba 23 23 c5 c2 3f
       -0.5188806539924964 0.14664115185375515
0000c0 0b 75 ee d7 95 f4 a6 bf 2e 58 d4 61 86 84 ef bf
       -0.04483478794939274 -0.9849273596507879
0000d0 21 1e 45 e9 e8 5d d0 3f be 17 9f 06 ac cd b4 3f
       0.25573179989121014 0.08126330529839174
0000e0 7f 98 ce 29 4a 0b ce bf 8f 3b ed 3f 7c 29 d1 bf
       -0.2347195343147099 -0.26815706484642815
0000f0 a0 ed 43 61 a4 ff db bf d2 02 c1 5f 1f 66 c2 bf
       -0.43747815607613383 -0.14374153304563336
000100 d4 94 d9 ac 85 a1 c3 bf 2c 86 95 70 03 ee 9a bf
       -0.15336676540315486 -0.0262985742059582
000110 19 51 6c 71 4e 57 a5 bf 98 d8 78 41 e6 77 bb 3f
       -0.04168172010955313 0.10729827021063654
000120 a6 ac 09 c4 7d 27 9b bf 82 e6 0f 77 5a 18 c6 bf
       -0.02651783474940985 -0.17261820615367546
000130 04 f2 a2 59 0c 3c cd 3f 42 43 b4 76 2a a3 57 bf
       0.2283950269392251 -0.0014427103695348752
000140 75 f6 09 7e 4d 95 f7 bf f6 b9 f1 b9 98 63 d1 bf
       -1.4739508555789176 -0.2717038932668453
000150 f1 5d 08 3e 12 34 b7 bf 36 e2 cb b7 c3 7c 8e bf
       -0.09063829435796557 -0.01488640694286501
000160 f8 4f bc 2e 22 22 b8 bf 2d 0e 5f dc a8 d3 ea bf
       -0.09427083626752608 -0.8383373550536298
000170 a2 d2 83 3c c6 f3 c4 bf 68 58 9c 10 bd 81 aa bf
       -0.16368940310316754 -0.0517710764672053
000180 ae 85 01 8e 56 47 af bf a3 bc d8 43 ca 5e bf 3f
       -0.061091141543112 0.12254013210689378
000190 a4 82 d8 10 a5 65 d0 3f 1e 6f ee ff dd 72 cf 3f
       0.2562039055356229 0.245692968336578
0001a0 e1 88 0d a7 2a f2 c3 bf d9 2b 25 2f 04 58 b2 bf
       -0.15582783848646556 -0.07165552283292644
0001b0 90 39 99 70 e6 fe d6 3f ec 12 87 c9 5b a3 9d bf
       0.3593078708262505 -0.02894347589041761
0001c0 8c 92 90 5c 51 94 cd bf e9 e6 33 0a 4c e4 91 bf
       -0.2310888006187678 -0.01747244655869099
0001d0 1b 4a 90 43 9b b7 d0 bf dd ae c0 ef 2a 38 db 3f
       -0.2612064513970453 0.4253032056173945
0001e0 f0 66 32 e8 ed a8 c9 3f b9 14 32 c6 17 1a d6 3f
       0.20046781385172308 0.34534258227388254
0001f0 b2 4a 49 c7 5c d6 c2 bf 0b 12 51 00 42 ca d3 bf
       -0.14716682177330181 -0.3092198374836534
000200 f2 f9 ee 70 50 5e c0 bf a0 7f 54 82 35 4e be bf
       -0.1278782416756737 -0.11838087493788274
000210 08 75 22 76 5b 36 d1 bf 0a ac ef 2e f8 06 ce bf
       -0.26894270454961644 -0.2345876912289387
000220 87 76 ab 82 f0 29 d0 3f c8 0e a1 08 38 ce d2 3f
       0.2525597835609478 0.2938366016644349
000230 1a 3f 57 6d 10 9d c9 bf 8f 57 9c c8 f7 12 c9 3f
       -0.20010571803003857 0.195891354517411
000240 bc 1f e1 05 f2 b0 e4 bf 35 6d 1a 6f 84 41 d2 3f
       -0.6465997805435033 0.28524885988163656
000250 01 69 89 1e e0 b0 cb 3f 8c d8 fb c6 ea 5a b9 3f
       0.21633531085064564 0.09904353483202238
000260 0d 05 32 02 8f 53 d1 bf e2 c6 f9 86 aa ee d5 bf
       -0.2707250138701774 -0.3426920240518553
000270 4d 85 e0 1c b1 81 ba bf 46 16 3f 27 96 0e c7 3f
       -0.10354144053464616 0.18013264576272742
000280 44 dc 79 35 aa fb e2 bf b4 d7 89 e5 6d 46 e1 bf
       -0.5932208103612386 -0.5398473246739202
000290 ae ed d4 ac 3e 16 cf 3f a6 d3 da 38 2f 58 c6 3f
       0.24286635817575813 0.17456617618668452
0002a0 91 ee b9 d9 57 91 cd bf a1 02 b6 a8 1a bc d6 bf
       -0.23099802142302342 -0.3552309653823987
0002b0 15 c6 16 37 ba b3 c5 3f d1 bb 64 f1 72 a8 b0 bf
       0.16954734506502747 -0.06507032769580624
0002c0 b7 a8 11 ac ce 29 c3 bf b9 e3 4c e1 81 10 d1 bf
       -0.1497133579426355 -0.2666325283240059
0002d0 3a 3e 73 d9 34 e6 d0 3f 1a 27 7e ca 4c 36 ca bf
       0.26405068621986383 -0.2047821034178064
0002e0 b3 10 5d 69 62 0a c4 bf d5 34 8b 76 59 52 d8 3f
       -0.1565669073553458 0.3800262124685337
0002f0 6a a2 1a 47 7a 5a d6 bf ed 0d 08 07 18 ad d6 3f
       -0.3492723173499487 0.3543148106257082
000300 94 4a f8 c7 45 29 d7 3f 89 13 09 78 b6 9a 9f 3f
       0.3618940785246789 0.030863619877226554
000310 01 3d cc 30 a7 e4 b5 bf eb 6e c3 f8 58 88 da 3f
       -0.08552021924355203 0.41457199376394155
000320 4d c7 6d ae 3d 25 d1 bf f6 6e c1 b3 61 e3 d3 3f
       -0.2678980067640751 0.31075327448137047
000330 65 64 09 66 76 68 e1 bf a1 1b e6 62 97 f4 d3 3f
       -0.5440017693428102 0.3118036714371844
000340 28 14 4e 53 30 1d fa bf ef 87 94 27 84 18 63 bf
       -1.6321261648274774 -0.002331026186440425
000350 40 6c 03 9c d2 d0 c6 bf fc c8 85 af 1f 9c d6 3f
       -0.17824776285019261 0.35327903881911005
000360 9d 9b a4 12 2e 0e c0 bf 2c 1b f1 04 28 d4 e6 bf
       -0.12543273840239247 -0.7133979889411868
000370 8d 16 42 41 46 03 ad bf 94 59 e5 d5 d1 9e d6 bf
       -0.05666560694321019 -0.35344358337661075
000380 2f fc e6 94 62 3d cb bf 1c 2f a8 e7 32 8e a4 bf
       -0.21281082411403093 -0.040147391107977465
000390 bd 5c 98 be e7 2f cc bf 1d 28 2d ac cd 6b c8 3f
       -0.22021195227055115 0.19078989893961387
0003a0 24 b6 13 a8 92 f8 c9 bf c1 50 46 05 9a 92 e3 3f
       -0.20289834219822567 0.6116457083722012
0003b0 2a 70 fc 5d 1e 55 d5 bf 40 d2 79 94 3f a1 c1 3f
       -0.3333202283699871 0.13773340940282885
0003c0 7d 47 c0 a5 9d 28 af bf f0 94 d0 25 0b da d5 bf
       -0.06085674904183145 -0.3414333218846215
0003d0 cd d0 bc 8a 3e 92 c5 3f 97 e5 b1 67 ac 59 c4 3f
       0.16852552198691342 0.15898661673763279
0003e0 8a f5 95 5d 5c dd b3 bf d4 6a 57 f2 bc 4c d3 bf
       -0.07759644779976874 -0.3015587202659564
0003f0 e5 7c 2d a2 fb 26 d7 3f b4 d4 35 c9 e0 c2 92 bf
       0.3617543300405955 -0.01832152584161824
000400 d2 75 54 9e ba b9 a4 3f 19 8d c1 e3 ae 0d aa bf
       0.04047949965227428 -0.05088564424729664
000410 3c 01 e5 c0 9f 1c b1 3f 1e 9d a9 2d ff 76 5d 3f
       0.06684301814403154 0.0017983905769599138
000420 db e4 ae 40 2d 53 d9 bf 19 a2 55 8e ca b9 c4 3f
       -0.3957017070457149 0.16191989850928293
000430 40 5f 10 ac 61 e5 d4 bf c8 58 ea e1 33 8c c8 3f
       -0.32650033763046693 0.19177864581133108
000440 b0 f9 45 09 e8 d2 fa bf 4c c6 ec 8e f9 82 e4 bf
       -1.6764908182372942 -0.6409881392957657
000450 04 c6 dd 52 58 bf bf 3f b8 2a d6 5d 12 8b c5 3f
       0.12401344321349234 0.1683066328226539
000460 81 31 97 bd ce 5b c6 bf 80 af c3 f1 01 ac eb bf
       -0.1746767450080249 -0.8647470209084389
000470 90 8f 48 dc c1 5a d2 bf e1 f0 e4 2f 2e 54 c3 3f
       -0.28678938400320764 0.15100648249234097
000480 04 37 7c 45 e0 fe c9 bf d6 22 7f 53 27 b3 bb bf
       -0.2030907000811838 -0.10820241726390675
000490 af 49 c1 7c a1 c2 7f bf 68 fa 3a 3d 9f 42 cf bf
       -0.007753973779545494 -0.24422064294590773
0004a0 d0 6b ef 04 6e cd cd bf 9c f9 55 72 c4 e3 c8 3f
       -0.23283171883562526 0.1944509084969014
0004b0 65 fc a1 7c 63 58 e2 bf 2f a2 34 a4 96 a2 a5 bf
       -0.5732896265252633 -0.04225607637846839
0004c0 ef 33 a6 f3 1c 71 d5 bf 55 51 ed 79 e3 16 d6 bf
       -0.335028875292493 -0.34514700800834436
0004d0 32 d8 b2 fa 71 40 c3 3f 76 ed 06 c8 23 c7 c6 3f
       0.15040421239035734 0.17795226351686794
0004e0 a0 f7 30 44 ba 5c c8 3f 0d 2f 35 7e 50 1e e2 bf
       0.19032982186939496 -0.5662004914279081
0004f0 99 f0 df d0 69 e1 d4 3f 07 05 54 44 da c1 d9 3f
       0.32625813863683956 0.4024568240420909
000500 45 79 43 2c 1c 6a c5 3f 9a 47 ff c6 15 9b b8 3f
       0.16730072175318803 0.09611641033487076
000510 26 5b 58 a9 91 cd b2 3f e1 a0 a0 b9 b0 2d b1 bf
       0.07344923386004307 -0.06710342914505275
000520 e5 c0 c7 76 d0 5f de 3f 96 90 bd 70 7b 6c e1 bf
       0.4745980415309659 -0.5444924547159811
000530 aa 6f 08 05 c9 e8 d1 3f 9d f1 d1 bb 19 b2 d6 3f
       0.27983308307170296 0.3546203931980701
000540 a9 cc 9e 0c da 50 d1 3f ca a0 31 d1 89 98 db bf
       0.2705597995038241 -0.4311852019223009
000550 ff 49 e4 38 1f 41 d0 3f b4 fc 45 01 1c 2c d7 3f
       0.25397472911677704 0.3620672237811491
000560 cd 7e 18 99 e2 43 a7 bf 9c eb ef 12 f3 b3 c8 3f
       -0.04543979758113679 0.19299162316005158
000570 41 f9 62 3f 7e 33 b4 bf 69 f6 ab 53 21 8d e6 bf
       -0.07891072318577576 -0.7047278055394602
000580 71 b9 6a 5a a5 84 d7 bf bf bc b6 a7 c2 b3 dd bf
       -0.3674710638978445 -0.46409670236876005
000590 5f c9 02 86 9d 40 c1 3f ad af e2 a3 f2 88 9d 3f
       0.13478440326214078 0.028842726948525122
0005a0 29 e5 63 5e 5f 15 d7 3f ab e6 9c f3 2b e6 dc 3f
       0.3606794759540031 0.4515485648185897
0005b0 ae 09 77 f6 fc 5f d0 bf a1 02 c6 8a bf 24 e1 bf
       -0.255858650864094 -0.5357358656329617
0005c0 e1 e0 29 2d f6 4d cf bf 6f 99 6f 87 0c 00 93 3f
       -0.24456670003178885 0.018554874197343304
0005d0 a1 91 94 8a 77 18 be 3f 88 64 13 f3 63 77 d1 3f
       0.11756083615597969 0.2729120134150169
0005e0 f7 5d e1 fb b1 38 b9 bf 24 ae be 05 08 8d d0 3f
       -0.09852135085508694 0.25860786973018635
0005f0 79 46 f8 26 62 08 d9 bf 1b d2 51 34 76 7e d2 bf
       -0.39113668256423 -0.2889686118062699
000600 b0 02 d6 5a bb 00 c3 3f a3 75 5a ec b7 b3 ce 3f
       0.14845983443594468 0.2398595718449715
000610 10 63 98 8a 84 7f c3 3f c5 5d ca 63 87 3b c5 3f
       0.15232903258654362 0.16587917683203393
000620 82 69 e2 41 76 97 d8 3f 76 7f ec bc a5 00 bc 3f
       0.3842445033457339 0.10938487875364253
000630 67 3e cb dd 4c ca 4a bf cb 20 78 a0 40 e3 cd 3f
       -0.0008175731014378852 0.23349769435322396
000640 84 2f 86 1e c0 ed ca 3f 4d 6d 3b 35 b7 de ca 3f
       0.21038056841313957 0.20992174243188302
000650 39 2a 10 99 d1 ec b8 bf 1f c1 ac 0b 08 9f c2 bf
       -0.09736356722729846 -0.14547825403270395
000660 27 eb e6 5a 18 74 d1 3f bf a1 bc 20 13 87 d1 bf
       0.272710884830007 -0.2738693065353139
000670 fa 8a 19 bd e3 dd e2 3f a9 87 fb ab d9 bf c8 bf
       0.5895861333231942 -0.1933548059233179
000680 79 53 14 b6 ea 59 fa bf 55 08 30 86 39 bb 7f 3f
       -1.6469523537136566 0.007746910766401956
000690 d5 fa 51 f3 d1 51 d0 bf 4d 67 4b c1 25 8a d4 3f
       -0.2549939037489087 0.32093185306950006
0006a0 a1 85 8d db 01 25 b1 bf 8c 64 68 7d d9 a1 e0 bf
       -0.06697093591858173 -0.519757027566031
0006b0 32 44 d4 8a 5e 2f b6 bf ad d0 c8 4f e9 85 dd bf
       -0.08666029824623037 -0.4612983016152253
0006c0 e1 0c fc e8 fa 0b e4 bf 78 ec da ff b7 87 cc bf
       -0.6264624166946328 -0.22289180748871096
0006d0 77 78 d0 a9 ed 48 d0 3f e6 da 91 8b 4c 63 cf 3f
       0.2544511946051737 0.24521786513260863
0006e0 62 6a 54 95 89 df b2 bf 2e e6 cb 2f 36 1f b8 bf
       -0.07372341056581314 -0.09422625224024081
0006f0 72 a7 51 71 be be d4 bf 2d 0e e4 09 5b 6c 60 3f
       -0.32414208475403605 0.0020047929857598596
000700 b9 78 53 da 77 94 d9 3f ee c4 6f 83 19 a6 ae 3f
       0.39968677826790217 0.059860989851481125
000710 e5 54 9e cf 65 6f b1 3f e4 e2 1c c7 98 4b d9 3f
       0.06810604399500482 0.3952390617810535
000720 48 cb 35 4e 19 c3 ca bf fa ea d5 7b 8e 01 c6 3f
       -0.20907894438604502 0.1719225029626939
000730 e2 53 68 61 ef f5 d6 bf 67 60 9b e8 88 06 c7 bf
       -0.35876068603948685 -0.1798869262481759
000740 98 f3 32 3d da 4f f9 bf 2a 18 22 b2 3e 45 d9 3f
       -1.5819952383601272 0.39485137363260725
000750 ba 4a 88 57 1b 75 c6 3f b9 b2 ea bd 38 12 c4 3f
       0.1754488160518884 0.15680608056336157
000760 f8 53 db 44 a5 cb c6 bf 38 0b 0f b9 cb 9b f4 bf
       -0.17808976995607373 -1.2880360821588521
000770 20 8f 48 eb be d3 b0 bf f6 72 6b cb 4e e5 d8 3f
       -0.06573098415588818 0.3889958368798
000780 42 ba b9 af f1 90 81 bf 70 be 04 cb 7b f8 ce bf
       -0.008577240157333969 -0.24195811665548517
000790 fd fe 0a 30 3e 1b be bf aa eb d9 ba d7 25 ab 3f
       -0.11760319397853532 0.05302309184931826
0007a0 38 72 3d fb 15 83 a7 3f 49 c3 9e 1e bc 1c c8 3f
       0.04592198078055215 0.18837691779256208
0007b0 d3 93 74 5a df 0e a5 3f 17 f0 01 77 86 44 c0 bf
       0.0411290929717222 -0.12709122477451792
0007c0 97 3a 2c 26 78 3b bb bf 77 68 f9 d9 bd f3 d6 3f
       -0.10637617999985093 0.35862680708454014
0007d0 0c 73 e9 67 5c 62 dc bf f7 03 dc be 8a 3c e8 bf
       -0.4435034765972865 -0.7573903777812337
0007e0 de 59 1a 28 e3 9d ac bf ba f2 b6 4a 95 3f c3 3f
       -0.0558920847371842 0.15037790439773407
0007f0 75 70 d8 ab 3a 6b c2 3f d3 55 b2 98 9f 34 bd 3f
       0.14389737501994984 0.11408421972222209

fc1.bias f8 [256]
000000 67 da bd 4a 6d 05 d7 3f 7a 66 f1 44 bf 71 d5 bf
       0.35970623301492427 -0.33506757481300264
000010 b8 75 9b 10 fc 52 cf bf 3b ff 84 d0 e9 0c c6 bf
       -0.2447199898805772 -0.17226908380143321
000020 50 8a ef 03 bb 0a d4 bf d7 de 12 f3 7b b0 ca bf
       -0.3131549395022022 -0.20851086968263274
000030 ae c1 10 60 0a 14 c4 bf f3 70 30 44 cc 76 c9 bf
       -0.1568615883893591 -0.19893792466689994
000040 6f fc f1 d1 89 73 70 3f 0b 2b 23 10 e3 e6 dd bf
       0.004016435966263206 -0.4672172219840582
000050 61 7c 1d d9 8a 07 d5 bf 3d 54 09 75 5c db bd 3f
       -0.3285853500619336 0.11662843568167687
000060 b7 33 83 bd 58 0e df bf 28 df 38 4d a2 9c c8 bf
       -0.4852506495197377 -0.19228009005177538
000070 c3 75 ac 40 4e fe d7 bf 01 6c db c4 d0 f9 e0 bf
       -0.37489658656872055 -0.5304950566163599
000080 d4 34 3b a0 7a 8b 9c bf 16 04 7f d0 88 6a d0 bf
       -0.027875820188275238 -0.2565023456664347
000090 a8 35 ad 9b 14 cc c8 3f af c7 9b 19 c1 d1 c1 bf
       0.19372804261585697 -0.13921369314590268
0000a0 d5 9c ca 65 07 96 db bf 63 c5 b7 24 a4 70 b4 3f
       -0.4310320371682342 0.07984376808578512
0000b0 f7 e2 8e ce b4 aa c8 3f f9 89 8a f3 c4 f2 cd 3f
       0.1927095421395035 0.23397123233469566
0000c0 9e 44 51 c5 f4 5c d9 bf 7f 2b 7e a2 06 92 db 3f
       -0.3962985922744994 0.43078771465723514
0000d0 12 9c f4 a6 5a 99 b0 bf 0f e9 53 0b f3 af aa bf
       -0.06483999801695031 -0.052123637326035525
0000e0 7b ea 9d 0b 48 84 de bf 08 e0 05 3d d1 5e cf bf
       -0.4768238175817385 -0.24508109550129142
0000f0 9b 84 f9 cd 4a bb dd bf d4 22 6c 93 a6 23 c7 bf
       -0.46455640902247247 -0.180775472625348
000100 4d fb e2 55 78 80 ce 3f 25 6d 76 1e 9b aa d0 bf
       0.23829559510883272 -0.2604129598127705
000110 7f 9b 3a 23 3f aa 95 3f 5a a0 e4 ae 60 0d d0 bf
       0.021157251858905376 -0.25081650809670963
000120 a0 83 22 4d c1 77 c2 bf 89 a7 b7 ba 13 f2 a8 3f
       -0.14427963510845832 0.04872190145745409
000130 bf 62 02 ea 41 ec ba 3f b7 79 ab ed 8b 48 d2 bf
       0.10516750300520082 -0.28567789277976935
000140 05 0c 53 8b 25 8f d2 bf 81 ef 00 52 f3 21 c7 3f
       -0.2899869785871377 0.18072358612141318
000150 ed 81 11 77 aa 84 dc bf 2e 09 a8 06 4b bc df bf
       -0.44559728267452564 -0.49586749696767896
000160 64 07 ae 7d f0 f6 c7 bf 3b 1b 99 3f 5f 35 d9 3f
       -0.18722349297245977 0.3938825722765846
000170 61 48 c0 86 a0 28 80 3f 93 b8 b3 86 fc 8f c9 3f
       0.007889989959981305 0.19970661713836488
000180 b2 63 b5 66 57 59 d9 bf 9d 7a 18 bf b8 39 b4 bf
       -0.39607796697742537 -0.07900576272411759
000190 0c e0 c0 36 1a 99 e2 bf a4 28 cd 67 05 fb be 3f
       -0.581189257564803 0.12101777824605847
0001a0 fd a5 77 34 f4 5d c3 3f 70 d1 ca b4 31 12 e1 bf
       0.1513047462643015 -0.5334709673975748
0001b0 52 7c 9f 4e 62 1b bf bf c9 c9 e8 93 50 4d b9 3f
       -0.12151159686571703 0.0988359795672188
0001c0 35 42 5d 3b 74 f8 cd bf b5 34 e6 e6 a1 3f d0 3f
       -0.23414471529624029 0.25388381527666165
0001d0 ff ed 72 18 3f e9 c8 3f 95 51 4c 17 5e 5c c9 3f
       0.19461811727329345 0.19813133370975025
0001e0 a7 9b b4 83 27 cc 99 bf ff 1c 33 42 5f f4 c7 3f
       -0.02519284955374315 0.18714514477162678
0001f0 f7 2b 98 75 d7 15 e0 bf 4e 7e 02 11 c7 6c c1 bf
       -0.5026662155881912 -0.13613212900689792
000200 72 55 10 10 8e 40 c3 bf 34 01 a3 94 f4 db ad bf
       -0.15040756019940776 -0.05831875147259993
000210 f6 09 74 52 cd d2 ce bf 02 b0 5e 53 fa 56 de bf
       -0.24080816770590702 -0.4740587057265203
000220 1d f7 42 9d 51 48 e2 bf 69 c2 d7 1c 51 b9 b6 3f
       -0.5713279792323395 0.08876521066827937
000230 f4 38 42 ca aa 27 c6 bf 12 9e 6f be 8a fe c4 bf
       -0.17308554531013665 -0.16401800440438358
000240 d4 37 84 23 50 43 ba 3f f8 19 9b 09 67 c5 e1 bf
       0.1025896155080937 -0.5553469836821128
000250 45 60 af 40 dc 14 c9 bf 57 98 bc 52 d6 1c cd bf
       -0.19594910772753074 -0.22744254150274187
000260 c0 b2 86 11 d2 27 9f 3f 5d 91 f9 95 9e 86 ba bf
       0.030425340957367153 -0.10361663018699603
000270 97 23 60 6f 42 ec c6 3f 1f 2f df dc b4 80 c5 bf
       0.1790850681138891 -0.1679903105235718
000280 79 8e 7d fc 7a 47 d8 bf 5a 5c cc 54 b3 01 ae bf
       -0.3793628183104612 -0.05860672388205819
000290 23 9b a1 ca c4 c7 aa 3f f8 0b 0c 3b ce 59 bc bf
       0.05230536435629165 -0.11074532453135066
0002a0 1b b3 64 20 01 3d c1 3f 07 7c 5f 38 d0 c7 a8 bf
       0.1346742065592473 -0.04839945495745473
0002b0 a0 e5 02 ee 8d 3e ba 3f 1b 7d a7 a6 f3 6d da bf
       0.1025170045931163 -0.4129609229548394
0002c0 71 79 c0 53 a3 00 d2 bf 5a e2 65 b5 2a 81 d4 3f
       -0.28128894022838496 0.3203837176766108
0002d0 11 48 c4 d3 88 2d d7 bf 1e ca f6 65 3a 7a c6 bf
       -0.36215420418113903 -0.17560510615074149
0002e0 09 65 f9 4d cb 00 8f 3f 3f f1 a1 c7 6c 7e e0 bf
       0.015138233487209012 -0.5154327296327564
0002f0 db 68 78 fd ee 74 e0 3f 18 e1 de 3b 86 25 cd bf
       0.5142741156189702 -0.2277076523148558
000300 91 e2 28 b6 52 3d d0 bf e9 b4 52 09 11 6f c9 bf
       -0.25374286450418376 -0.19870198207119152
000310 c0 d6 eb 5d 61 7e d3 bf 7d 76 bd fb 4c 49 a0 3f
       -0.3045886437606491 0.03180924008368622
000320 94 de fc 05 58 2c c0 bf ee 0a 0a eb 41 ba da bf
       -0.12635326664325375 -0.41761825516748174
000330 8a 4f ed 40 39 a7 af bf 3a ee fe 13 6a e6 b4 bf
       -0.06182269017759186 -0.08164084423236143
000340 ec bb 87 68 3a 7c a7 bf 02 21 8d 5a 92 d1 c2 3f
       -0.045869660625491665 0.1470206205506273
000350 d6 bd c8 c9 41 a1 d1 bf cb cd af 85 39 4a e1 bf
       -0.2754673452900226 -0.540310631853964
000360 c1 7a 11 0c 0c e7 88 bf 5a 12 37 61 4c 0f db bf
       -0.012159437292380006 -0.4228087376944011
000370 fc 4a 2e 63 fa e4 c9 bf bf 9d fa 29 8a 4e d6 bf
       -0.20230035631956145 -0.348543683047378
000380 2b 7e 6d 03 4a e3 bd 3f 1a 5d 44 19 b9 e1 c6 3f
       0.11674940665897597 0.17876352056257688
000390 8f 91 1b 86 ad ee c2 bf b8 d2 03 3b 40 86 bf 3f
       -0.14790886924960175 0.12314225617212571
0003a0 d0 c6 a9 38 83 fa a0 3f e7 c9 a0 b7 3c 63 a0 3f
       0.033161259333508775 0.03200711957505913
0003b0 44 27 c5 8d cd 4b b6 3f 75 99 04 8d ef 61 d8 bf
       0.08709416114029717 -0.38097752352987097
0003c0 43 bd ef 69 fa 2b d0 bf 2e 88 c1 5d a4 bd b1 bf
       -0.25268421502456223 -0.06929995812382181
0003d0 86 aa dc 79 58 b9 dd bf e6 f2 0a cc f1 cf d1 3f
       -0.4644375982340211 0.2783169262509503
0003e0 22 5b 14 29 59 e6 c9 3f 21 57 50 7d a0 f0 aa 3f
       0.20234217172466012 0.05261708764753182
0003f0 b5 41 0c 3c 2d 27 bd 3f 3b 9e 13 cb 73 14 d4 bf
       0.11387903896343839 -0.3137483103914495
000400 6f 58 2a ec 1f 5b c4 3f 0a 3f 3f 7b ab d7 c3 bf
       0.1590309050704408 -0.15501922147677077
000410 fe 18 9c 32 f0 81 c1 3f 1b e8 1d 3e 7e 23 b7 3f
       0.13677790137462148 0.09038533226512906
000420 ab 7c 3a b5 77 3b d0 3f de c5 7b db 88 86 db 3f
       0.2536296148118235 0.4300863402741849
000430 c1 0d 92 2e 6c e9 c6 3f c7 61 7b c9 6f c2 98 bf
       0.17899849199248588 -0.024179217026217417
000440 ac fd 73 1a dd a8 b1 bf 01 77 94 15 9c b3 c5 bf
       -0.06898290534808521 -0.16954375318248796
000450 b9 14 15 ee 58 f8 9d 3f f2 cc 67 b0 90 2f d2 bf
       0.02926768258227661 -0.284153148909538
000460 7f a5 5c a0 31 2a a3 bf 97 8c 30 bb 2c 2c ce 3f
       -0.037431288552691726 0.2357231058132114
000470 76 ae 55 fa 4a 5b c7 3f f5 39 f5 60 8a 1d d4 3f
       0.1824735376679773 0.3143030115942616
000480 e6 e3 0f 4b 83 7f d1 bf 8a 1d 36 4e c4 60 73 bf
       -0.2734077675846137 -0.00473095590439899
000490 cf 76 a7 35 c9 93 cd 3f 94 14 22 15 76 10 a8 bf
       0.23107257003623835 -0.04700058944676147
0004a0 8d 20 1c ff c9 85 d2 bf 15 04 fc b6 f6 ee c3 bf
       -0.2894158355052319 -0.15573009428774812
0004b0 b1 88 e6 98 7c 76 d3 bf d8 14 63 78 9b e4 b0 3f
       -0.30410685474101756 0.06598827065598145
0004c0 14 b2 b3 57 b6 9e af 3f 74 17 59 c6 e3 11 84 3f
       0.061757753568461166 0.009799746981240288
0004d0 5b 6a 7a 44 f1 bb c4 bf 01 90 11 c0 cc 5a d6 bf
       -0.16198554843579668 -0.3492919803304631
0004e0 be e0 93 5a 63 1b d2 bf 6d ec a2 7e 10 91 c0 bf
       -0.28292163701508943 -0.1294270151464362
0004f0 cf 29 d9 57 f0 d3 c9 3f 05 9d 95 05 b7 f1 db bf
       0.20178036012141695 -0.4366281084571287
000500 e1 d6 6b 0b 1d 4b d0 bf 1c 5f 73 2d 9c 17 98 3f
       -0.2545845614944096 0.023527565263832803
000510 a1 07 a1 a7 5e 6c db bf 78 8a 11 4a 8e f3 c8 bf
       -0.4284893643381285 -0.19493273369433317
000520 cc 50 d9 04 ee ae b0 bf 55 b7 66 6d c5 5a cb bf
       -0.06516921633130152 -0.2137076172052114
000530 15 1c 58 be 05 1c 99 3f 57 a5 35 7c d5 b3 c9 bf
       0.024520959608732868 -0.2008005959026302
000540 25 db 86 36 b2 d8 dc bf 12 2e db 93 1c 95 d0 bf
       -0.4507260830391025 -0.25910105170325537
000550 e9 16 59 a4 af b4 be 3f bf 25 bd 5a ba e0 a2 3f
       0.11994455110933767 0.036870788170357376
000560 c2 26 15 a8 a8 c4 d6 3f 7f b1 e5 bf 76 0c cc bf
       0.35575310148542993 -0.21913036699278263
000570 49 1e b0 75 28 95 d5 bf 73 5d 12 4a 55 f9 c8 bf
       -0.33722888462986994 -0.19510904423507788
000580 b0 aa 98 9d 1a 04 c0 bf ee c6 13 46 ff d0 ce bf
       -0.12512524314054962 -0.24075308725109984
000590 9c 13 a8 11 30 cc bf bf 3d 93 16 99 2a a9 cd bf
       -0.12420940810268494 -0.23172504878052705
0005a0 09 6c e5 25 f3 be c4 3f dd b7 07 09 b7 ef b2 bf
       0.16207732534789468 -0.07397026033842687
0005b0 da 71 a4 bd 9e e9 dc bf ed 8c ae d3 e3 ac b1 3f
       -0.4517590381599611 0.06904434125913257
0005c0 58 39 fb 49 1f 23 cc 3f 66 5c 2d 30 5e 53 c3 3f
       0.21982184517259884 0.15098168709184562
0005d0 04 9a 7e ce ad 7f cf 3f 87 bd 13 a7 86 2c bd bf
       0.24608395178547948 -0.11396066264182113
0005e0 3c 3f bc 9d b9 b0 d3 bf ec 1e a3 02 9a 34 c4 bf
       -0.30766144183961663 -0.15785527352112838
0005f0 67 e5 87 3a b5 a4 b3 bf 47 38 17 cf 43 75 85 3f
       -0.07673199347472846 0.01047757125607175
000600 cf 39 1f 75 9d ee 62 3f a9 04 f8 42 ea ed cd 3f
       0.002311046156115305 0.23382309217416733
000610 d1 00 49 0c f5 8e d1 bf 2c 57 4e f6 32 c0 b3 bf
       -0.27435041618083483 -0.07715147507982739
000620 92 f2 38 c7 39 82 c7 3f 62 b2 f3 29 5c 99 d4 bf
       0.18366167285593754 -0.3218603524863167
000630 10 53 f0 c0 a2 12 b3 3f 55 75 01 8c 80 fd cc bf
       0.07450310907763602 -0.2264862712499204
000640 1e 30 43 12 42 0b d7 3f e0 36 68 27 ff df b5 3f
       0.3600621393532054 0.08544916832053273
000650 81 45 6c f5 2e f2 ad 3f 58 ce ac ae 7d 3a ca 3f
       0.05848833795438236 0.20491000203184018
000660 c1 fa f0 94 36 9f da bf ad b3 c9 e2 6f 2d b2 bf
       -0.41596760315944087 -0.0710058144265548
000670 81 15 33 63 8e 32 d6 bf f7 67 f2 91 54 be d6 3f
       -0.3468357056375098 0.35536684277178615
000680 9e 8b 8e 67 ec a2 dc bf 9c 43 58 5d 8e b0 c9 bf
       -0.4474440585419702 -0.2007005649361674
000690 2f 24 31 5a 94 0c c9 bf 0a e6 ba 01 0a f0 da bf
       -0.19569639591125695 -0.4209008232970467
0006a0 dc d3 04 42 44 be d5 3f db ab 3a 7e c9 38 c2 3f
       0.33973795363573145 0.1423580042222444
0006b0 4d 1a 19 8d 19 ce 9d 3f 84 6e 8d b9 f5 ff c6 3f
       0.029106520878736487 0.17968627510241586
0006c0 9a 4f 74 4f 1d f5 c2 bf 73 ad 0c e4 e1 6d ce 3f
       -0.14810530070883204 0.23772834429960774
0006d0 fd 19 c5 0f ac 9e d1 bf f1 8e a0 3f 58 2a b6 3f
       -0.27530957736999523 0.08658362916372277
0006e0 e1 28 c2 28 69 84 c8 bf cc 81 ec 22 6c a9 d2 bf
       -0.19154085626752873 -0.29159072313816803
0006f0 20 f1 04 d4 f8 57 b8 3f 1b 92 82 51 af 4d a6 bf
       0.09509234596493288 -0.043561438274341856
000700 e0 a7 d8 b2 c2 66 d1 bf 90 21 73 b3 63 b8 a6 3f
       -0.27189700570545305 0.04437552991436455
000710 13 28 c5 f1 17 dd cd 3f c7 c1 7a a9 04 6e d1 bf
       0.23330973916228057 -0.2723399787019187
000720 1c 94 0e e9 5c fb b5 3f 0f d0 1a 30 e9 f5 c4 3f
       0.08586674394480592 0.1637546048056042
000730 32 38 44 66 a5 f0 de bf e6 b1 90 8c c4 6e c1 bf
       -0.4834378718086355 -0.1361928640702807
000740 3b bf 68 02 87 61 b3 3f 88 10 5f f3 50 d5 bb bf
       0.0757068997270353 -0.10872369710620167
000750 78 fc 46 b1 6a 99 bb 3f b1 c2 b1 f8 8b 3c b0 3f
       0.1078097040944942 0.06342387029304565
000760 01 d0 eb a3 23 d4 b7 3f 42 14 04 7c 72 3c c0 bf
       0.09308073760968229 -0.1268447022959283
000770 03 9f 29 d7 26 1a c7 bf 85 43 8c 53 4d 7d c5 bf
       -0.1804855871771381 -0.16788641528594553
000780 5e a6 44 a1 66 08 df bf 7b 1f cb cd 24 7b db bf
       -0.48488775013774965 -0.4293910989476825
000790 37 54 25 0a 9b 2d c7 bf fd cc 6e bc 3f cb cf bf
       -0.18107927318001923 -0.24839016629048408
0007a0 83 b7 09 88 93 11 de bf 5f 4f ad 7b 52 de d9 bf
       -0.46982277188259775 -0.40419447019416127
0007b0 c4 52 e5 f4 70 d7 c6 3f b2 62 36 8d ac e6 d1 bf
       0.17844974477579545 -0.2797042254474419
0007c0 03 33 9f 8f c4 04 cb bf ba 68 ef ea 1e a3 d2 bf
       -0.2110830022123978 -0.2912061018265707
0007d0 be 5c 4d 53 52 49 bd bf 18 6f bc 17 77 a7 e0 bf
       -0.11440004857773808 -0.5204425300212021
0007e0 34 f9 6c b8 fe 46 c1 3f a9 d6 36 38 37 e9 db 3f
       0.1349790955081943 0.4361093567816661
0007f0 14 0e a5 00 0a ae c8 3f 03 cd fa 83 90 e4 bf bf
       0.1928112509868788 -0.124581367704014

fc21.weight f8 [64, 256]
000000 b8 59 3d 04 9b 54 c9 3f 8f da ef 02 25 d7 c4 bf
       0.19789445597662136 -0.16281569140820237
000010 32 43 e4 d1 ee 1f a5 bf b1 9a df c6 77 42 cf 3f
       -0.04125925361780104 0.24421593866937522
000020 c3 c3 bd 1a 6f cd af 3f 23 46 19 eb 07 32 a2 bf
       0.062114212049784644 -0.035537955711913115
000030 7d 35 80 82 fa b8 d3 bf 54 55 76 8e b9 88 e9 bf
       -0.3081651949331315 -0.7979400427308669
000040 84 38 df 74 9f ad b3 3f b3 f8 b7 cd 58 fd b8 bf
       0.07686802485770455 -0.09761576673915577
000050 90 9e c8 65 32 09 d1 bf 78 ac f7 8d 47 88 d0 3f
       -0.2661863321286342 0.2583178411866309
000060 11 11 ea 09 f9 1a 91 bf 1f a0 02 6c d7 9a c2 bf
       -0.016704455595133064 -0.14535038732469815
000070 a6 9b 2e 98 d8 91 b3 bf 5b a6 b5 c2 1f bd b4 3f
       -0.07644418444998155 0.08101080421115496
000080 47 27 4b c1 2d 34 bb 3f 35 32 69 7b de 69 bc 3f
       0.10626493424493076 0.11099043381654712
000090 03 71 43 28 8f 16 c8 3f 53 71 13 73 cb 97 a7 bf
       0.18818845239628254 -0.046079976842266966
0000a0 5b 17 31 65 08 0f b6 3f b9 5a 0c 10 52 d8 b6 bf
       0.08616688223363893 -0.08923828975489813
0000b0 7f 0b 20 09 e7 64 c6 bf 3b 7f ac 26 38 f3 a2 3f
       -0.17495429940762716 0.03701186630337224
0000c0 78 02 f0 4a 11 2d b8 3f f6 fa 7a 8d f2 63 84 bf
       0.09443767623452881 -0.00995625967277423
0000d0 a7 a7 cb b2 53 f9 c0 bf e4 55 f7 bf a2 9a be bf
       -0.13260885458231295 -0.11954705416368189
0000e0 25 45 53 37 39 88 da bf 4f b3 a3 ae 95 42 ca bf
       -0.41456442263468524 -0.2051570036632264
0000f0 d7 c6 59 2d 49 84 a4 bf ca 3f c0 0e 43 e0 94 3f
       -0.04007176092717451 0.020386741423919642
000100 10 cb 09 da f7 73 ad 3f 6e 0a a2 2d b4 e5 af bf
       0.05752539192771711 -0.062299376078063115
000110 a4 f0 5b ea 11 78 d0 3f 28 a5 e8 d7 1a 05 c4 3f
       0.25732849012980297 0.15640578787250914
000120 cd b9 18 74 9e ab b4 bf 42 d6 e2 e8 0d d0 c6 3f
       -0.08074369749440465 0.17822431441679681
000130 56 9c 10 59 cf e7 c7 bf ee b4 52 bb 0a 7f b7 3f
       -0.18676177834388125 0.09178225587193697
000140 9f d7 d7 ae 47 51 c2 3f c3 90 45 6f d2 3f c3 bf
       0.1431054691053619 -0.15038519318762242
000150 e7 f5 b4 57 e4 28 c2 bf 20 75 9b 39 d7 88 a9 3f
       -0.1418729236847149 0.049872136861930594
000160 4c 88 51 da 87 0c 76 bf c1 33 be ab f7 55 c0 bf
       -0.005383043932939268 -0.1276235188091999
000170 bb ee 5e 0b 77 96 7b 3f 45 cb bd 74 f2 e7 a4 3f
       0.006735291497473812 0.04083211588922223
000180 b5 bd 93 cd 33 1e d0 bf e6 e5 03 83 a9 e7 cb 3f
       -0.25184340549364076 0.21800726792552821
000190 4a 44 a4 26 4a ce d3 bf 3f c9 5a 03 75 df b6 bf
       -0.3094659211502103 -0.08934718448543764
0001a0 b2 b6 f8 18 96 64 ad bf f1 ab f6 6b be 3b af 3f
       -0.05740803770855275 0.061002684287210125
0001b0 0c 0c 9c b6 a2 b4 af 3f 03 ea 97 12 4a 4d 55 3f
       0.061925015250402365 0.0013001654973537897
0001c0 b2 7d 59 14 5b ee c6 bf f1 3d 99 b8 54 7d d4 3f
       -0.17914904111510804 0.32014959361273926
0001d0 8d e9 9b f8 c5 25 e7 3f 44 b7 2a aa 9c 79 b5 bf
       0.7233610015530744 -0.08388690142120675
0001e0 8f 24 cd ca cc e6 ba bf 2c 95 9b dd 79 4c d5 3f
       -0.1050842280502755 0.33279272691136685
0001f0 57 7e f0 24 5b b0 df bf 77 c3 cc f5 84 83 b3 3f
       -0.49513891799322124 0.0762255764100369
000200 1f f9 7e 6d d0 e2 d5 3f 5e a4 de 02 e1 d1 a5 3f
       0.3419686383530393 0.04261687431364501
000210 15 03 00 20 54 47 b4 3f 94 87 a5 08 ba c9 c3 3f
       0.07921338826419018 0.15459371015736834
000220 52 be f5 7a 23 bf d5 bf ec ec 93 b2 a2 ed a5 bf
       -0.3397911740093821 -0.04282864026932906
000230 d6 45 fe 2b 19 0d c7 3f 9d fa 50 91 30 af aa 3f
       0.18008722923381865 0.05211784147148999
000240 94 f0 0b 0e ed 62 cd 3f 0e 92 10 a9 eb 50 c4 bf
       0.22958148179884985 -0.1587194991599436
000250 71 d8 8f bc 78 68 e5 bf 26 d7 87 ca d8 c6 cc bf
       -0.669002884182886 -0.2248183239859653
000260 6a bc 4d 05 00 24 c5 bf 34 8b 0c 29 d2 fb d3 bf
       -0.16516113528220738 -0.31224493035022083
000270 78 a1 2b 8b 87 07 cf bf 7e 7f 64 d4 ed 22 dd bf
       -0.24241728110724714 -0.45525689832174254
000280 9a 6f 9f 7f b2 1c b6 bf a4 78 13 3a b5 91 e6 3f
       -0.08637538543501791 0.7052866110132254
000290 43 6d 84 db 0b 43 d7 bf 2f 74 59 d6 f8 60 ca bf
       -0.36346718251452986 -0.20608435121803967
0002a0 49 b4 26 83 aa 8c a6 bf 6e 20 77 b7 9b d6 c3 3f
       -0.04404194689718872 0.15498682459133611
0002b0 81 97 95 3c 86 d8 e1 bf 34 1f 83 28 98 74 7b 3f
       -0.5576811965263319 0.006702989929358517
0002c0 e1 1f 36 4c 3b 6e b9 bf 21 d1 d5 fb 4b e3 d3 3f
       -0.09933825121527164 0.31074809640201023
0002d0 47 09 e3 c1 b8 6b c5 bf 63 3d 7b 80 27 8d d8 bf
       -0.1673499056542573 -0.38361537501346826
0002e0 76 46 ad 00 2e ec c8 bf c7 4f 3d d8 22 ce ad 3f
       -0.19470763238000516 0.0582133187259895
0002f0 9f 01 c4 33 c7 3c a9 bf 32 09 99 be 03 ac 99 bf
       -0.049291825360344925 -0.025070246227422995
000300 d4 f4 41 8e 14 29 c9 3f 8b 75 7e ba 95 41 76 bf
       0.19656617113279273 -0.00543364036266548
000310 b2 a9 d5 1c df ba 95 3f 08 8e 48 5e ac 7c ac bf
       0.021220670828748296 -0.05563868189736004
000320 a5 61 20 bb 67 02 9c bf 72 cc 8b 57 3d 41 dc 3f
       -0.02735292510632949 0.4414819102232236
000330 a2 0e 74 cb 61 77 de bf 24 84 f7 2a 2e 50 96 3f
       -0.476036499676619 0.021790238735665338
000340 72 28 8e 81 3c 6f d6 3f b9 20 6e 23 d9 2b c1 3f
       0.35053932811627597 0.13415064077367392
000350 70 be 08 b9 c2 5d cb bf 83 76 8f 5a f0 e2 7d bf
       -0.21379884753104106 -0.007296503908006738
000360 d2 d2 39 21 67 9f a2 bf fc 53 da c3 2b 77 a2 bf
       -0.036372397237675394 -0.036065452249353286
000370 87 54 db 07 73 b4 d3 3f 59 a6 48 f1 0d f0 b7 bf
       0.30788875357877327 -0.0935066904136418
000380 70 e8 6f 11 d8 d7 d9 bf f3 a4 43 f5 10 57 b7 bf
       -0.4037990732464385 -0.09117227542778376
000390 5e 69 86 d1 f2 59 c5 bf a5 ce fb cc 62 95 c9 bf
       -0.1668075106688986 -0.19987139710393823
0003a0 d8 e1 83 b5 57 b1 d2 3f af 6c 7b db 1e 87 ae 3f
       0.2920741341218025 0.059624637882472846
0003b0 14 54 0a ed 05 91 c0 bf 09 12 2b bf 6e 69 b1 bf
       -0.12942575525508515 -0.06801502387231308
0003c0 4f ff 69 52 37 43 bc 3f 1d 87 92 fe a1 7a a9 3f
       0.11040063631116691 0.049763738942841786
0003d0 df 3d e4 ac e8 28 d7 bf ff 1f a6 3f 15 02 b2 3f
       -0.3618718803781728 0.07034428409508563
0003e0 c8 ad ad d5 2b 5b ba bf 28 90 0c 7e 04 71 95 bf
       -0.10295366255529992 -0.020938940232682196
0003f0 de c5 73 29 48 43 d1 bf df f8 61 5e 28 fe c8 bf
       -0.2697315602118503 -0.19525627716570335
000400 1a 29 36 b2 d9 6f ae 3f e4 62 ab 05 b7 5d c0 3f
       0.05944710064348353 0.12785995270566908
000410 6e f7 4c 62 75 29 b2 bf d7 f0 51 20 4d fd c0 3f
       -0.07094510698240494 0.13273014143113102
000420 3e 2e 8c dd 03 66 ad bf 5f f7 74 1b 56 fa 96 bf
       -0.05741893844068756 -0.02243933241447082
000430 f8 2b 89 59 40 94 bb 3f cc 5f aa ca dc c6 af bf
       0.10773088632519989 -0.06206407522148502
000440 f5 62 3f 25 05 76 b7 3f 1d 69 69 94 f4 ae 8f bf
       0.09164459380498242 -0.01547041967312573
000450 82 d2 9b b6 61 c2 ac bf 39 38 08 43 3d de d8 3f
       -0.056170514622782455 0.3885644106493405
000460 de 70 73 dc 6b 68 a1 3f a8 d3 b2 2f ff 65 ab bf
       0.03399979654361272 -0.053512548992706244
000470 5d 9a c2 00 04 ae b0 bf 12 69 ce 99 c1 9e a0 bf
       -0.06515526789244448 -0.03246121408956716
000480 58 b1 a7 c6 a5 72 b3 bf 40 ba 9e 76 8b fa b9 bf
       -0.07596813297249605 -0.10147925992962659
000490 f8 12 49 fb 94 ac c1 bf be 7e 46 00 0e f5 af bf
       -0.13807928342625764 -0.06241649392472713
0004a0 52 fd 62 5d 16 55 c6 bf 79 f9 79 17 e6 c1 d3 bf
       -0.17447166023155575 -0.30870964329360323
0004b0 67 e2 9f 0a 8d df e0 bf f4 a7 ac 3a 7b ed d9 bf
       -0.5272889335165701 -0.40511971216130793
0004c0 10 71 1a bf cb 5c cc bf 53 df 40 be 67 fb a6 bf
       -0.22158190566268177 -0.044886819814961364
0004d0 e5 e4 74 f6 f8 76 9e bf cc ec 54 3e 4b 69 b4 bf
       -0.029750719110983054 -0.07973165771265939
0004e0 92 e5 c2 6f 2f 1f c2 bf 98 25 81 51 ae df d2 bf
       -0.14157669980140192 -0.2949024005834757
0004f0 51 dd 2a a5 ea d3 c0 bf 23 c2 a7 cf c7 c9 c0 bf
       -0.1314671808702124 -0.13115785254878273
000500 0f 71 38 06 7a f3 d0 bf 61 ec 2b df 92 6d cf bf
       -0.2648606358286693 -0.2455314244942626
000510 de 71 1e 80 18 73 d2 3f 30 4f 5e e1 45 0d c7 bf
       0.2882748843346955 -0.1800925589019413
000520 0c d0 c6 28 b1 f8 ca 3f 00 96 2c c2 18 8f c7 bf
       0.21071447840734014 -0.1840544651142153
000530 a8 83 09 c4 29 22 ac 3f af 31 61 c8 09 6a a3 3f
       0.05494814413101007 0.037918382368477103
000540 f2 64 57 32 8a b6 a0 3f df 1c 07 26 51 e4 c5 bf
       0.03264266838568543 -0.1710301814730206
000550 b4 8a 4a be d4 89 b2 3f 6e 7f 6d 6f 7f f7 a2 bf
       0.07241563459187256 -0.03704450831605653
000560 5a a5 24 1b c8 eb bf bf 94 af 19 8c a7 b7 ae bf
       -0.12469149267839921 -0.059994922496883124
000570 49 1d ee 8e 9f 52 aa bf 2f f2 56 7a 35 58 c1 bf
       -0.05141161556007973 -0.13550442193617715
000580 ed 5c 41 20 f8 b0 e2 bf 52 7c 05 a8 2f 41 da bf
       -0.5841026906954575 -0.4102286473116169
000590 6e 13 e3 d4 5f 2b c1 3f 8f 90 a0 0d 18 16 c1 bf
       0.13413617987512388 -0.1334867540873614
0005a0 6a b1 56 4d 4c 59 a1 bf 13 e4 67 0d bb c4 c5 bf
       -0.03388441509318592 -0.1700662436922192
0005b0 0b bd e6 50 65 1e c0 bf 3e e0 11 8f da 37 d2 bf
       -0.1259276051546084 -0.2846590420881546
0005c0 17 fd 5d 75 84 83 a0 3f 75 95 73 32 dd 2e c9 3f
       0.03225339825348266 0.19674267734005083
0005d0 49 4b 41 86 47 76 bf bf 72 86 12 1b 28 6a be 3f
       -0.12289855029784492 0.11880732212969194
0005e0 e8 8b 7f 06 76 55 cc bf cb df 82 97 41 53 ec 3f
       -0.22135806386276546 0.8851631125644358
0005f0 19 d9 9a 61 1b 29 b1 3f 05 a3 90 7d 6f dd cc 3f
       0.06703349240237734 0.22550767546751885
000600 3b b4 6e e1 e1 14 bc bf f6 0e b7 4a 6d 47 19 bf
       -0.10969363931390401 -9.643177570866829e-05
000610 df d4 20 11 bd 7f b3 3f 0a a7 a4 64 aa 53 c4 3f
       0.07616788547678109 0.1588032714292285
000620 ac a4 eb 2f cd 77 6f 3f 4e 7d 11 41 50 30 c3 3f
       0.003841305500249156 0.1499119107929609
000630 e3 1f 8c bb 8c f0 c2 3f 3b 29 b0 9b 46 a5 b4 3f
       0.14796599538408292 0.08064690876941409
000640 3c 28 83 48 df 0c 97 3f 9f 41 e9 48 16 26 ca bf
       0.022510041046907 -0.2042873245250236
000650 c8 03 59 b9 72 91 5d bf 06 43 9d 96 e6 8c ca bf
       -0.001804697070284288 -0.20742494920934734
000660 89 80 60 b7 d2 4a d1 3f 5a ef c4 fd 44 bc db bf
       0.27019184024721504 -0.4333660581794355
000670 c3 72 91 09 6e ec d3 3f 3e 84 fb 92 88 1a b2 3f
       0.31130553182974213 0.07071736896934142
000680 4c ad 3e 39 cb e1 ad bf af c7 70 e5 44 73 76 3f
       -0.05836329530515147 0.005481022954926403
000690 9b b9 9a a5 91 8c c3 bf 3e ed ac b9 db 33 bf 3f
       -0.15272732340004044 0.12188504489033833
0006a0 11 a9 aa 4d f3 9e 6d bf 05 aa af 64 d3 06 9e bf
       -0.003615832521366554 -0.029322913189313144
0006b0 4a 9d cf b9 6a 0f be 3f 2b b6 1f 52 17 df b8 bf
       0.11742274319077697 -0.09715409998872164
0006c0 c8 74 d9 65 d8 eb c0 3f 1b 2c b5 54 6d cd c3 3f
       0.13219742749325847 0.15470663677328464
0006d0 3a 56 5d 8d c7 ee c5 3f 94 35 46 ff f0 47 e4 3f
       0.1713494720703908 0.6337819085908216
0006e0 8e 61 d7 2e ac 65 a5 3f d3 6f e2 19 fa d1 c9 bf
       0.04179132530015571 -0.20172048820393104
0006f0 d1 c5 19 8f 93 2e c5 bf ae 55 a6 b1 b2 00 a9 bf
       -0.16548389899575836 -0.04883345049453723
000700 5a f9 56 81 fc 23 d4 3f ad 5b 40 f2 b0 52 b4 3f
       0.3146964324077054 0.07938676752415459
000710 5c 78 ee 26 18 6f bc 3f 20 10 d6 dd f4 38 c4 bf
       0.11107016516186391 -0.1579881747421732
000720 4e 38 3d 14 76 ad bc 3f 46 62 a9 1c c5 e7 94 bf
       0.11202180856818808 -0.020415382265442504
000730 07 23 3f 07 9b 66 ce bf 9a 3d ee d7 9d 85 b5 3f
       -0.2375062737831046 0.08407007714980921
000740 7d 4a 97 c1 4d 06 b9 3f 47 03 39 0b d4 e1 9f bf
       0.09775243736593527 -0.0311349040841862
000750 55 b6 0e 07 7c c6 8a 3f d3 d4 dd 3b 28 9f d0 bf
       0.013073891606690294 -0.2597141823419637
000760 af 67 32 36 74 f4 ae bf 12 b7 0a 87 22 41 d3 3f
       -0.0604587856443709 0.3008505171554684
000770 2f 39 7b 17 e4 9f b6 3f 9b 92 2d 5c 2a 81 a5 3f
       0.0883772427871221 0.042001079323005196
000780 50 e9 5a 26 d5 0b c1 bf 3a 96 60 3e 10 9e c1 bf
       -0.13317360279854507 -0.13763621373907303
000790 7b ce 8c 2c 2b e1 a2 3f e5 b9 9b 6e c9 5e ba 3f
       0.03687415045569949 0.10300883245847776
0007a0 62 df ce dc 42 dc 65 3f 72 3b a2 00 39 45 c3 bf
       0.0026685052784748845 -0.15055000811522806
0007b0 20 ef 0d 75 24 9c c0 bf 0e bb c1 bb 62 8e b1 bf
       -0.1297650882296404 -0.06857888301759038
0007c0 4e e3 74 96 1c af da bf 47 12 3e b8 a0 88 7d 3f
       -0.41693796818758677 0.007210376559559756
0007d0 8b 21 fa ff 5c f6 85 3f 95 cf 36 91 a6 aa b8 bf
       0.010723806917000164 -0.09635392232195124
0007e0 46 0b 51 3a 46 57 b8 3f c4 51 15 6e 2a 27 be bf
       0.09508170055145823 -0.11778512179927875
0007f0 96 2a 7e 1d 37 55 c7 bf 17 84 aa f2 5a 8e c9 bf
       -0.18228806438522288 -0.19965683793000785

fc21.bias f8 [64]
000000 bf 97 f6 10 dc 34 c2 3f ff d8 4f cd 1b ba a0 3f
       0.14223814800533138 0.032669895946968446
000010 ca 1f 67 ec 0b f4 93 3f d8 f0 ba 35 47 f3 a5 bf
       0.01948565130604133 -0.042871690091006165
000020 4d 94 55 65 b5 2c 68 bf fb db 89 4e 43 36 bc bf
       -0.0029510062110369773 -0.11020298640674746
000030 ab dd 83 46 89 d6 b7 bf ee b2 b1 b5 fb 92 7c 3f
       -0.09311731311378561 0.006976111642057898
000040 05 37 b1 6f 0b d5 8f bf 87 65 fa c4 8d 70 ab bf
       -0.015543069215847813 -0.05359309224622693
000050 3e 13 98 04 85 b8 a1 3f 23 c7 26 bd 94 d9 b2 bf
       0.03461089783744463 -0.07363252275424918
000060 46 c7 fa 73 7a 0f 9a 3f 61 5e ce be c3 77 c7 bf
       0.02544967015155144 -0.1833424264593644
000070 cc 4e 33 67 10 e9 be bf fb 6f 38 c4 6a aa ab bf
       -0.12074377555409938 -0.05403455395955344
000080 3f 30 ca 0e c7 20 97 3f ae a1 c9 5a f2 99 91 3f
       0.022585974004457162 0.017188822547184728
000090 38 59 00 15 eb 27 aa 3f 36 b4 51 b2 25 1b ad bf
       0.0510858023773601 -0.056847742097354034
0000a0 53 88 15 a1 06 6b 8d bf f4 c1 52 23 6e a0 a8 bf
       -0.014364291945359186 -0.04809898549263272
0000b0 d8 a1 c5 5f be c8 c2 bf 0e 80 ce 4e ea 95 ad bf
       -0.14675120998732782 -0.0577843877028955
0000c0 e8 71 8c 2c 29 cf ab bf b3 33 c1 cf 88 36 b8 bf
       -0.05431488674932777 -0.09458212921272384
0000d0 8d e8 d2 8f 2a 17 ab bf dd 88 05 c5 00 09 cc bf
       -0.05291111951506009 -0.21902474994846602
0000e0 c1 8e 3c a3 a0 64 d0 3f de fd 64 64 9d 1a 9d bf
       0.2561418146235433 -0.028421839954942622
0000f0 b1 7a 62 00 62 49 94 bf 24 13 86 7c 65 30 b3 3f
       -0.019811183236579214 0.07495722093706242
000100 ec 92 cd 92 c5 a1 a3 bf 82 15 68 18 b4 48 b6 bf
       -0.038343595667162805 -0.08704686733115888
000110 2b a8 f1 55 7e c4 aa 3f 13 d8 ee 94 7d 6b cd 3f
       0.05228037642594104 0.22984285137289415
000120 f8 b5 13 af 72 39 ae bf 11 b5 b7 d6 03 58 ba bf
       -0.05903204333467821 -0.10290550224427288
000130 56 2a fa e2 45 29 ba bf 3f 99 ab a7 73 8a b0 bf
       -0.10219227591930155 -0.0646126064635597
000140 42 ea 43 de cd ec bb bf dc 37 08 8f 9a 75 cd bf
       -0.10908209492110024 -0.23015148147572873
000150 91 72 06 b1 51 54 b7 bf f7 a8 bb aa 5d 12 d3 3f
       -0.09113035747436472 0.2979959647478973
000160 3c 38 0c f6 ae c8 bb bf 16 1b 75 29 02 36 a0 3f
       -0.10853093630814298 0.031662051735614025
000170 86 f4 3c d0 ef 9d a0 bf 81 63 61 ad 80 d2 b8 bf
       -0.03245496193856305 -0.0969620154659321
000180 bb 3a d8 eb 90 e6 a3 bf 5f 9a 10 e6 28 87 ba 3f
       -0.03886845473254171 0.10362487427537691
000190 37 36 0f 49 5b 3c 94 bf d0 a7 18 02 7b a4 c3 bf
       -0.019761492094224144 -0.15345704653128545
0001a0 b8 75 7f b4 d7 20 be bf 5e 63 8b 04 49 29 d6 3f
       -0.11768863827406661 0.34626985019490586
0001b0 db 52 a4 61 af da cb bf 97 a6 23 cb 41 ee c6 3f
       -0.21761123912496924 0.17914602679166045
0001c0 32 80 52 d6 a0 60 b4 bf e5 17 59 aa 6c 58 aa bf
       -0.07959943039395581 -0.05145587520068754
0001d0 db 4f 75 a8 6c a4 b6 bf c7 e6 4b b6 0e 74 c7 3f
       -0.08844641793012846 0.18322929288097198
0001e0 a8 2c 90 91 ac 42 a8 3f b1 2e 4c 08 54 ab af 3f
       0.04738368298429779 0.06185400582589063
0001f0 ab 0c db 21 3d 70 c1 bf 3f 21 0b 50 d0 2e aa 3f
       -0.13623775628193377 0.051138410349781165
