weights/model_base_single_input_obs_wc_nolim_1_bn.pth (torch, 378068 bytes, 10 tensors)

fc1.weight f8 [256, 52]
0	0x3fbaa261c656c749	0.1040402516580602
1	0xbfbe78f567dd9e9f	-0.11903318200858813
2	0xbfbd9359c4895536	-0.11552964256528217
3	0x3fbb9b5c44705195	0.10783936186664385
4	0x3fbb620ddc13d3d2	0.10696493742928162
5	0xbf76d01d240ce8a9	-0.005569566565833886
6	0x3fc115cd56c30100	0.13347784744656366
7	0xbf555ff48c9caeee	-0.0013046158005164915
8	0xbfb15990a9a938b5	-0.067772904797695
9	0x3fbc8f4ed05970a5	0.11156170450834908
10	0xbf8da39220000000	-0.014472142793238163
11	0x3fc1bd45e0000000	0.13858865201473236
12	0xbfc1fb762cd49c5b	-0.14048649968137536
13	0x3fbd288aa66bc51b	0.11389986575138204
14	0xbfaa0bb220000000	-0.05087048187851906
15	0xbfb9fcbba0000000	-0.10151264816522598
16	0x3f9346bd995b1d27	0.018824541554548404
17	0xbfbff19963a2ff2a	-0.12478026087319152
18	0x3fb084b360000000	0.06452485173940659
19	0xbfb0dc4800000000	-0.06586122512817383
20	0xbf941540fea4e2d9	-0.019612327139131167
21	0xbfb2a202d41172ad	-0.07278459241337983
22	0xbfa0837720000000	-0.032253000885248184
23	0x3fbdb986a0000000	0.11611215025186539
24	0x3f5c0eb595b1d281	0.0017124913490792761
25	0x3fb6086bf28fe60c	0.08606600448538176
26	0xbfb4977880000000	-0.08043625950813293
27	0x3f785bdec0000000	0.005946989171206951
28	0x3f965580195b1d28	0.02181053309211936
29	0xbf5a8c88cfc91361	-0.001620420079363437
30	0xbfbadd76e0000000	-0.10494177788496017
31	0x3fa437d4e0000000	0.03948846086859703
32	0xbfbb4ea859a938b7	-0.10666897000303065
33	0x3fb0376d4eca1dfb	0.06334574864933266
34	0x3fa6bf3800000000	0.04442763328552246
35	0xbfb9933460000000	-0.09990241378545761
36	0xbfc1598b2cd49c5c	-0.13554515542020595
37	0xbfa80aa50ae813f9	-0.04695621259819655
38	0xbfb4975740000000	-0.08043427765369415
39	0x3fa06896a0000000	0.03204794600605965
40	0xbfc2346dacd49c5b	-0.14222498835553918
41	0x3fa2e9ec3b57eeea	0.03694093918235615
42	0x3fb4d7a9e0000000	0.08141576498746872
43	0xbf78ff81c0000000	-0.006103045307099819
44	0xbf5ff86d6a4e2d68	-0.0019513195522645414
45	0xbf8f43be55c81d08	-0.015265929215287702
46	0xbfb206cce0000000	-0.07041626423597336
47	0xbfbca8a200000000	-0.11194813251495361
48	0xbfb54568f9a938b7	-0.0830903634571055
49	0xbfad7ce3b757a072	-0.05759345639290893
50	0x3fb62ed420000000	0.08665204793214798
51	0xbf84c9a7a0000000	-0.010150250978767872
52	0x3f9c90b4a56fdaed	0.027895758244961866
53	0xbf9880a4aa7eab6b	-0.02392823496453948
54	0xbf90fcdcbc4be611	-0.016589592926697764
55	0xbfbd097522821080	-0.11342556087953604
56	0x3fb707d8a4a44e55	0.08996347446036997
57	0x3fb31e888857e54b	0.07468465164847264
58	0xbf934335678e866c	-0.018811068006135676
59	0xbfb2b02da15c2bf9	-0.07300076665357826
60	0x3fbc3679395bf6b8	0.11020620012638005
61	0xbfc5a7fb018783a6	-0.16918885779071252
62	0xbfaff2df60000000	-0.06239984557032585
63	0x3fbf841a40000000	0.12310947477817535
64	0x3f982767a56fdaee	0.02358781764265932
65	0x3fc5ab7e4cb36f06	0.1692960619465042
66	0x3fb1c9cb00000000	0.0694853663444519
67	0x3fb5512980000000	0.08326968550682068
68	0xbf98240e68902515	-0.023575043804190694
69	0x3f6dea33a1334ae5	0.00365171512530914
70	0x3f78480a20000000	0.005928077269345522
71	0x3faf57d340000000	0.06121692806482315
72	0x3fb4f641f95bf6be	0.08188259446975629
73	0xbfb9a568853a2be0	-0.10018018009775131
74	0xbfbfad4280000000	-0.12373748421669006
75	0x3fb0e87920000000	0.06604725867509842
76	0xbf9494d4c8902513	-0.020098995915792516
77	0xbfb4aeb4c76bf074	-0.08079080456440285
78	0xbfb8249860000000	-0.09430839866399765
79	0x3fa95a4980000000	0.049516960978507996
80	0x3f9e6852656fdaee	0.029694831315249574
81	0x3fadfafb2baa76a7	0.05855545909910847
82	0x3fbdb88220000000	0.1160966232419014
83	0xbfbea5eb80000000	-0.1197192370891571
84	0xbfb0a29db6a40943	-0.06498132428172192
85	0xbfb3d18a2d0af37a	-0.07741607284238042
86	0x3fb329b4e0000000	0.07485514134168625
87	0xbf9338e380000000	-0.0187717005610466
88	0x3f87612acadfb5d8	0.011415800396174555
89	0xbfc136831a5aa6c1	-0.13447607790776853
90	0x3f85584600000000	0.010422274470329285
91	0x3fba02d9e0000000	0.10160600394010544
92	0xbfc14a17135204a5	-0.13507355159166426
93	0xbfb31cb367a00183	-0.07465668945224561
94	0xbfb4eb2c00000000	-0.08171343803405762
95	0x3f7a8a1fc0000000	0.006479381583631039
96	0xbfc28ceb135204a7	-0.14492548411729908
97	0x3fbd05c98e4adc93	0.11336955760895
98	0xbfb4f0eec0000000	-0.08180133998394012
99	0x3fa8871d00000000	0.04790583252906799
100	0xbf916f2d42902513	-0.017025668323218456
101	0x3f85f21dee2e1d20	0.010715707617932113
102	0xbfa62a1e00000000	-0.04329007863998413
103	0x3fbf78d660000000	0.12293758243322372
104	0xbfbc5c2b4437037c	-0.1107813874759937
105	0x3fa2eeab5718db7a	0.0369771522350026
106	0x3fb73ee6472b591c	0.09080352056057389
107	0x3f7123138828afb8	0.004183841987963115
108	0xbfbb69b7b0d94f3f	-0.10708187167739157
109	0x3fabeb4e2f469c63	0.05452961279962023
110	0xbfb1efe825d277a6	-0.07006693766967817
111	0x3fc386e2b03ce9a1	0.15255387883537444
112	0x3fb733b6bbc8fc85	0.09063284000966305
113	0x3fb28e96580a776d	0.07248820924220718
114	0x3faf4a7780000000	0.06111501157283783
115	0x3f8a554340000000	0.012857938185334206
116	0x3fb873f3dbc8fc85	0.09551929584357495
117	0xbfb5efe60aa8ea88	-0.08569181213617061
118	0xbf9fc4fd00000000	-0.031024888157844543
119	0x3fbe8fb5a0000000	0.11938033252954483
120	0xbfb2b159a437037b	-0.07301864871170764
121	0xbf1221739686a96a	-6.916301720730702e-05
122	0xbfb9291480000000	-0.0982830822467804
123	0xbfaac23e80000000	-0.05226321518421173
124	0xbfbd684be437037c	-0.1148726875462795
125	0x3fc1170f33d04bbb	0.1335162165638318
126	0x3fb4ce8ac0000000	0.08127658069133759
127	0x3fb66a3d40000000	0.08755858242511749
128	0x3f797416fc8fc82f	0.006214227477345387
129	0xbfc3edec3871f18d	-0.1556983256922532
130	0x3fbfc87700000000	0.12415260076522827
131	0x3f90666200000000	0.016015559434890747
132	0xbfa66885086e0703	-0.0437661717214848
133	0xbfb095e9dba707ef	-0.06478749859436993
134	0x3fa83b5440000000	0.04732764512300491
135	0xbfb0b6b240000000	-0.06528772413730621
136	0xbfbd0b7d6437037b	-0.11345657059338336
137	0x3fb1838a19176d7e	0.06841338265023997
138	0xbfbb560000000000	-0.106781005859375
139	0xbfb56e3620000000	-0.08371294289827347
140	0x3f91fda27723f20c	0.017569101831201236
141	0x3fbf9464785be457	0.12335803926898002
142	0x3faefa7900000000	0.06050470471382141
143	0xbfbbed2100000000	-0.10908704996109009
144	0x3fa95b1eb791f8fd	0.04952331534239993
145	0xbfbd76ce159650ac	-0.11509407069235306
146	0x3fb1913340000000	0.06862182915210724
147	0x3fbfeccc00000000	0.12470698356628418
148	0xbfb8cc374437037b	-0.09686608710673099
149	0x3fc3a29f1622a321	0.15340031224084164
150	0x3faabab800000000	0.052205801010131836
151	0x3f88128740000000	0.011754089966416359
152	0xbfbc3724e437037b	-0.11021643230107074
153	0xbfaec0c828d857e8	-0.06006455896947199
154	0xbfa71629e0000000	-0.045090969651937485
155	0xbfa8b41760000000	-0.04824898764491081
156	0x3fb0b76c28654236	0.06529880510539318
157	0x3fa90ac11432fa19	0.04891017314502139
158	0x3fb11b4addc80f88	0.06682269968592724
159	0xbfb560695ba08823	-0.0835023735712928
160	0xbfa30bfc50161836	-0.037200817848358644
161	0x3fc04cab22b94542	0.1273397368955021
162	0xbfabb672b6d1e239	-0.05412634355247232
163	0xbfc1169640598524	-0.13350179807734108
164	0x3fbcadc808654236	0.11202669339150692
165	0x3fb038d0783b5da8	0.06336691794728344
166	0xbfa096bf80000000	-0.032400116324424744
167	0x3fbcbf1000000000	0.1122903823852539
168	0x3fa1745f90ca8472	0.03409098284215241
169	0xbfb734cfa9af72a5	-0.09064958470066616
170	0xbf927378c0000000	-0.018018614500761032
171	0xbfb1980ba0000000	-0.06872627884149551
172	0x3fbdfb8388654236	0.1171190460202148
173	0x3fa26b35527cc13e	0.035974184340718626
174	0xbfbf472680000000	-0.12217941880226135
175	0xbfc0ccd320000000	-0.1312507539987564
176	0x3fb6419f88654236	0.08693883018464352
177	0x3fb508273be7d36a	0.08215565884149859
178	0xbfbe180020000000	-0.1175537183880806
179	0xbfbb771300000000	-0.10728567838668823
180	0x3fa84bbef0ca8472	0.047452895062868886
181	0x3fb51003ff8cd459	0.08227562893883213
182	0xbfac082c80000000	-0.05474986135959625
183	0x3fb266b6a0000000	0.0718797817826271
184	0xbfc17cfd9bcd5ee8	-0.13662691218882306
185	0x3fa97eab6e18a7c2	0.04979453772496313
186	0x3f91552220000000	0.016926320269703865
187	0xbfbc1cd9c0000000	-0.10981522500514984
188	0xbfb08c27679abdc5	-0.06463857917218892
189	0xbfb3dd5564a1d426	-0.07759603220786512
190	0xbfa4ce0e40000000	-0.040634579956531525
191	0x3fbb16b0c0000000	0.10581497848033905
192	0x3f821534032a11bc	0.008829504343574317
193	0x3f83ee4459cb44e7	0.009731801977439903
194	0x3f68d00ba0000000	0.00302889128215611
195	0x3fb1805280000000	0.06836429238319397
196	0xbfc26bd1bbcd5ee8	-0.14391538305311902
197	0xbfa93804c8e67834	-0.04925551369090933
198	0x3fb1dc6200000000	0.06976902484893799
199	0x3fb1ca01a0000000	0.06948862224817276
200	0x3fb0e41aa8654236	0.06598059283465649
201	0x3fad1c056450f4ac	0.056854408736833534
202	0x3fc14ab560000000	0.13509242236614227
203	0xbfb304f340000000	-0.07429428398609161
204	0xbf8d28aeccd5ee42	-0.014237752557838882
205	0xbfc2e271ec3943a3	-0.14753555330619603
206	0x3fa130bbc0000000	0.03357493132352829
207	0x3fab324120000000	0.053117785602808
208	0x3fb0f9a3b8000c25	0.06630919687454247
209	0x3fc1b1ecfd685b4c	0.13824236272258827
210	0xbfbf3f8feb4ece62	-0.12206363196201545
211	0x3f86703b6b9ead63	0.010956253263279597
212	0x3fac742bf123b576	0.05557381933781873
213	0x3fb41f085333beeb	0.07859851867010163
214	0xbf90cba425ceb15a	-0.016401829536037617
215	0xbfc20b2027487cca	-0.14096452634928475
216	0x3fc0a7a0b400060d	0.13011559285227783
217	0xbfc2e21d5078d176	-0.147525467198317
218	0xbf8a2f5a40000000	-0.01278563030064106
219	0xbfc1958440000000	-0.1373753845691681
220	0xbfb9c6e617fff3da	-0.10069120489056563
221	0x3fc11f37b99c0120	0.13376518786390879
222	0xbf9a05c580000000	-0.02541264146566391
223	0xbfa6df2a00000000	-0.04467135667800903
224	0xbfb9958bf7fff3da	-0.09993815235789275
225	0xbfb7fe864ce51e3b	-0.09372748734778551
226	0xbfbd0492c0000000	-0.11335103213787079
227	0xbfb96dbba0000000	-0.09933064132928848
228	0x3fb9506488000c26	0.09888294525448824
229	0xbf9880cbaf9211f0	-0.0239288164052755
230	0x3f8c038740000000	0.013678604736924171
231	0x3fbf0a81e0000000	0.1212540790438652
232	0x3fb5186548000c26	0.08240349777047182
233	0x3fbaf5ed646d9597	0.105315053003855
234	0xbfbb775740000000	-0.10728974640369415
235	0xbfaff07ee0000000	-0.06238171085715294
236	0xbfa5c6772fffe7b9	-0.04252979718144396
237	0xbfb73461a263089a	-0.09064302649042802
238	0xbfb23fde00000000	-0.07128703594207764
239	0x3f988cec20000000	0.023975076153874397
240	0x3f82a6a08000611c	0.009106878191275807
241	0xbfbc4cd8c5f1c0af	-0.11054758865953106
242	0xbfbfd54a40000000	-0.12434829771518707
243	0xbf5011cba0000000	-0.0009808052564039826
244	0x3fc06ac95400060e	0.12825886346404086
245	0x3fbcbf2a2ecdeb33	0.11229194300350968
246	0x3fb640e360000000	0.0869276151061058
247	0x3fbbf5a780000000	0.10921713709831238
248	0xbfb7cf2a37fff3da	-0.09300483576949095
249	0xbf846f941a331535	-0.00997844414667757
250	0x3f65618a00000000	0.002609986811876297
251	0x3fa14f8f80000000	0.033810123801231384
252	0xbfb5ae4157fff3da	-0.08469017408783888
253	0x3fb7b69d63847e2a	0.09263023070933998
254	0xbfc07fe540000000	-0.12890306115150452
255	0x3fa7b38ae0000000	0.04629167541861534

fc1.bias f8 [256]
0	0x3f986c06fb4c0261	0.023849591339060065
1	0x3fbbec048dd54dbc	0.1090700956604484
2	0x3f9176aff5b65e88	0.017054318782895567
3	0x3fbc60113cd7263e	0.11084087119447703
4	0x3fab775c681c0a3b	0.05364502688282299
5	0xbfbf14cc428adfe5	-0.12141110062191236
6	0xbfb155e2e6aacdf3	-0.06771677142642556
7	0xbf6923d22b415ede	-0.0030688385832425688
8	0x3fa047cb76fbadc7	0.0317977507346217
9	0x3fc41e8bcc13aa4a	0.15718219246567094
10	0xbf714062d9bc4e99	-0.004211794028168869
11	0x3f6daf222e9a8336	0.0036235492342061816
12	0x3fc0e1add9aef8e5	0.1318871796519893
13	0x3fb7724bc84aeb06	0.09158776893574946
14	0x3fbd8fdd0ce136d3	0.11547643246123167
15	0x3fb2190682ab5370	0.07069435777823485
16	0x3fb7878a02adf230	0.0919119125882808
17	0xbfb560efe450ad6e	-0.0835103924188638
18	0x3fc1e4a80b66db8c	0.13979054028251559
19	0x3fc05ec974ab1ace	0.12789266773889668
20	0x3fb62afc9ef25f3d	0.08659342651878617
21	0xbfbb0469cae74334	-0.10553609088607346
22	0x3fad2593e1316f99	0.05692731975497551
23	0xbfa2b9466810da51	-0.036569786265705624
24	0x3f9359d4ad7e3072	0.01889736470143117
25	0x3fa3da4ffcc96844	0.03877496681953166
26	0x3f812ec0309e55ad	0.008389951213568414
27	0x3fc0c4b9bf912abf	0.13100358823642996
28	0x3fb0710f43c56f79	0.06422515301295374
29	0xbfc019e7e85d8e38	-0.12579058500260643
30	0x3fa336c177083e63	0.03752712801008042
31	0x3fb15ebe787289d7	0.06785192909823166
32	0x3fbea79d406e2b9b	0.11974509070402777
33	0x3fafd039fa57cb55	0.062135516938630765
34	0x3fbd062370b580e5	0.1133749151390507
35	0x3fba434bfd5ed507	0.10258936820794783
36	0x3fa2547fac3d039f	0.03580092408674961
37	0xbfb1c09970c11c26	-0.0693450832633152
38	0x3fbc88302e8df1da	0.11145306717475681
39	0xbf83918b12ad47f2	-0.009554945476029506
40	0xbfa56cbbd43fff65	-0.04184519735281248
41	0x3fc14cac4b0b0ebc	0.13515237488001286
42	0x3fc13f38d906c9f2	0.13474188420293803
43	0x3f999ebd60061fd4	0.025019606576762346
44	0xbfa1e31fba54bff4	-0.03493594312237738
45	0x3f98fe4d83c7e448	0.024407588165534372
46	0xbf7aee86b6744092	-0.006575132581261427
47	0xbfb8951764da8f80	-0.09602495395898636
48	0x3fc13327fd828014	0.13437366369635184
49	0xbf8e23fc6724c3d8	-0.014717075250333098
50	0xbfba60f79e8605d4	-0.10304210300639421
51	0x3fbaaf09fbf31ab1	0.10423338318933408
52	0x3fb6f215bfd55ca1	0.08963142331536968
53	0xbfa958abc93c7121	-0.04950463134284378
54	0x3fa91e1402847df2	0.04905760317546627
55	0x3f9b9c530f396b73	0.026963517955987237
56	0xbfc1fe6d7f532bdb	-0.14057701794658226
57	0x3fc0ce647eb6f5f2	0.1312986010288309
58	0x3fb28b675ee62289	0.07243963305348634
59	0xbfbdfbe90f670be1	-0.11712509752309998
60	0xbfa2f5ff2ba6060e	-0.037033056333722766
61	0x3fbefaf04131194d	0.12101651755901806
62	0x3fb6273a6f410313	0.086536075746164
63	0x3fac0d5232903ad0	0.05478913180569622
64	0x3fb98313478cf778	0.09965630051462238
65	0xbfa570842f40a7bc	-0.04187405659497709
66	0x3fb154bb2953c80c	0.06769914397207816
67	0x3f940d2501fe08c0	0.019581392523385643
68	0xbfbc708f2fbae87a	-0.11109251895223507
69	0x3f89cd883b989d95	0.012599052733164121
70	0x3fac502d27fd22bb	0.05529919732231777
71	0xbfa94b9e1b71949c	-0.04940504155164513
72	0x3fb9c16b812f5f38	0.10060760406429103
73	0x3fba3a1aff39f8ca	0.10244911891092837
74	0x3fc110d0e2ff3681	0.13332568248590707
75	0xbfb1ab7452f790e3	-0.06902243638575416
76	0x3fb88601eb41114b	0.09579479211339963
77	0x3fc18fa32c8f0bb5	0.1371959655353671
78	0x3fb43c1f8d3fde46	0.07904240797494663
79	0xbfbe738f36eb9c1d	-0.11895079699353102
80	0x3f9a4b292ccae3c4	0.025677340849799682
81	0xbfa587d8dc47692e	-0.04205205620719919
82	0xbfb38061613415bc	-0.07617767928248659
83	0xbfa59ddc0568465e	-0.042219997081826874
84	0x3f8b85a68a0c67aa	0.013438511932282033
85	0x3f80d7756cc52cc6	0.008223454839614407
86	0x3f7ce8a5778fd369	0.00705780635415896
87	0x3face9632d392eec	0.05646810462039106
88	0x3fa951818e7ec7e6	0.04944996704524822
89	0xbf8cdd414495b18f	-0.014093885331669024
90	0xbfa8f29ba75291dd	-0.048725952315439726
91	0x3fa2efcf13ea786b	0.0369858466922189
92	0x3fbfbc15fee279c8	0.12396371338625223
93	0x3fa371b5c7824cba	0.037976914028285916
94	0x3fbb410a8877871a	0.10646119910918764
95	0x3fc3410029901186	0.15042116193229677
96	0x3f92ac6bb955d5ea	0.018235858141869267
97	0x3fa247e9e0e982d7	0.03570490713605572
98	0x3fb513c4ccc576df	0.08233289717960755
99	0xbfb39075e8856ee1	-0.07642304350650476
100	0xbfaa580316882d40	-0.05145272874878026
101	0xbfa0ccbc43f16992	-0.03281200723059209
102	0xbfa9dcce981ab240	-0.05051274878255585
103	0xbfb906da7140d258	-0.09776082291575372
104	0xbfbc4bc6384d155c	-0.11053122400797605
105	0xbf8ab7ebdf2b45b7	-0.01304611468131865
106	0xbfba44b4e375e512	-0.10261087945209038
107	0xbf9f9e216d82008c	-0.03087665778048225
108	0xbfa84a6b1a43b036	-0.04744276710138744
109	0x3fb071d260526c0f	0.06423678256616959
110	0xbfb10028ba9d9704	-0.06640867763561792
111	0xbfb44a5fa5598f2c	-0.07925985133038854
112	0x3fc17503bd9e108b	0.13638350256599482
113	0xbf9e44e428bdf9f4	-0.02955967425031676
114	0xbfb58f9390730ed6	-0.08422205235097677
115	0xbf92c8d1550b53c4	-0.0183441837460412
116	0xbfbbe98bc79d5fbe	-0.10903237937361518
117	0xbf93e170b209b0cc	-0.01941467367798637
118	0xbfb4387f441e5b79	-0.07898707783748006
119	0xbfacab93c624cba1	-0.055996530473201085
120	0x3f9c36bfae948566	0.02755259993603456
121	0xbf994d99523aeadc	-0.02471007885354025
122	0x3fbf8ccdd81b16fa	0.12324224973698597
123	0x3f9e928021dd7038	0.029855730120616125
124	0x3fa71c77fe6b0de9	0.045139074141413556
125	0x3f9e77359d748a1d	0.029751622901253428
126	0x3f834b7fcdd8a023	0.009421347112109462
127	0x3f90f21ae7a18131	0.016548557651163868
128	0xbfbae04f55427228	-0.10498519736797418
129	0xbfb4d48483e5974d	-0.08136776180398649
130	0x3fc0271906651255	0.12619316875692968
131	0x3f8e46eb82cc749c	0.014783706597479011
132	0xbfb43e4f840a6503	-0.07907578443191103
133	0x3fb44dfcf18f2b7e	0.07931500337069328
134	0x3fbbbc4c0dfa6e50	0.10834193555131688
135	0xbf86ee0b31163925	-0.011196219859610121
136	0xbfbb11d36e0a727c	-0.10574075161498259
137	0x3facf70c6845c2b7	0.05657233021600432
138	0xbfc185cc1c2e2ab6	-0.1368956697081864
139	0x3fb5e1fd21ee7c6a	0.08547956541450366
140	0xbfa6d68c088cac8a	-0.04460561375011547
141	0xbfa23a86bda9eb73	-0.03560277047377882
142	0xbfb8545d5ce4d9b9	-0.09503730314177163
143	0x3f8401f2fd092552	0.009769342753446129
144	0xbf95d2d0c05c9b80	-0.021312009564236956
145	0xbfbf34eaa8d0bffc	-0.12190119382353254
146	0x3faf613b1fcf51d8	0.061288688309705186
147	0xbf861a740bdc47c2	-0.010792643176987474
148	0x3f756c2ee7fc059d	0.00523012469034381
149	0x3f7713ccdb5fb656	0.0056341173385426515
150	0x3fa51365673dd0a0	0.041163605549543236
151	0xbfb7e7cb5b44839a	-0.09338065126622866
152	0xbfbaaae6e9db2bb0	-0.10417025765779786
153	0x3fb80fba01d7f06a	0.09398996872909185
154	0xbfb8a95d426b10d0	-0.09633429404772476
155	0xbfb0ce772ae18d75	-0.06565041348362917
156	0x3faf5943a7a839a0	0.06122790738673989
157	0xbfad73b1d39d979d	-0.05752330501745393
158	0x3fbdaf062ba8cd7a	0.11595190587904894
159	0x3f4e7bb5fbda6003	0.0009302748291757371
160	0x3f8dfa9437cf7383	0.014638097718426618
161	0x3fb511541c74f23a	0.0822956628298436
162	0xbfbcc0902cce1785	-0.11231328100083544
163	0x3fab8272c9f6ba9e	0.05372961726549373
164	0xbfaa07aa908909e8	-0.050839738982648985
165	0x3fac485085a8521e	0.05523921615182224
166	0x3fbc7d6243d11831	0.11128820567782395
167	0x3f7e875846d3d961	0.007453293638937404
168	0x3fc22b6cd694306b	0.14195023038371643
169	0x3fb21dcdb8b0d969	0.07076726683667335
170	0xbf83e5c7f6ff1c1c	-0.00971561644099777
171	0x3fa2d5400deef3a0	0.03678322000585088
172	0x3fbd4a444cd056b0	0.11441447139108152
173	0x3fbe0917b294c654	0.11732624158755672
174	0xbf8122e801b94689	-0.00836735968838133
175	0xbfb3df2b68e039cf	-0.07762404737898197
176	0xbfbf8336f14a5dc8	-0.12309592619782628
177	0xbfc34e6f421c8b0c	-0.1508311341104548
178	0x3fb2743b3a58a81d	0.07208604979010187
179	0xbfb22f04ac5ac2e1	-0.07102994163393418
180	0x3fbb6f14b4aa9ee3	0.10716370974352744
181	0x3fa43a7b8be43b34	0.03950868685398348
182	0xbf955b00e4723331	-0.02085496324848463
183	0x3fb45820d89c8c8a	0.07946973121993231
184	0x3f9e82d4431a07d9	0.029795948596536313
185	0x3fb813515fef7729	0.09404476730511803
186	0x3fb9d1f2e35331d0	0.10085981416631928
187	0x3f85f8dd244be8b0	0.010728576345617163
188	0x3faba6cbf9be9572	0.0540069334377148
189	0x3f7f00be1eba61f8	0.007569067627308794
190	0xbf93df8586a2ee1b	-0.019407354681545735
191	0xbfb9a20ec57c96e5	-0.10012905427410208
192	0xbfb8c98ac676d885	-0.09682528825109855
193	0xbfb3008d84a2e169	-0.07422718513669725
194	0xbfb632b676978b1b	-0.08671131511031797
195	0xbf629017d19a2cf2	-0.002265974541676757
196	0x3f91f8e5e2949361	0.01755103297650196
197	0xbfacdd54fb420210	-0.056376128836749584
198	0xbfbc58245e51457e	-0.11071994116470837
199	0x3fc1413b162f3216	0.1348031862566052
200	0xbfbfbb89d92239a6	-0.12395535994639903
201	0x3f9e03ce7dbf8897	0.02931139605051011
202	0xbfbd307da8212d08	-0.11402116160131837
203	0xbfb60371cdf57c82	-0.08599005964559761
204	0xbfb388a00cd5d0e6	-0.07630348504409631
205	0xbf75649621a229ca	-0.00522287983961651
206	0x3fc1564f707d96e6	0.13544648163513456
207	0xbf9acf9707f3df6e	-0.02618251787222852
208	0xbf9d7bc9d9c757a1	-0.028792528073459448
209	0xbf96684e9bf152ee	-0.021882274883256274
210	0x3fa85b7f0b737aa4	0.047573061130369326
211	0x3fb36cb48ff7560a	0.07587746157454248
212	0x3f88ccbbfaf545ac	0.012109249683507205
213	0xbfbad5e048fe9e2a	-0.1048259905061221
214	0xbfb227c9eddbbb24	-0.0709196286877441
215	0x3fafb182c5e41d5a	0.061901175171494585
216	0x3fb10dbefbb9efde	0.06661599774992008
217	0xbfb8cdc0f38db537	-0.09688955255633834
218	0x3fb3d87fd6877ed1	0.07752226817637654
219	0x3fc2c2b6ce0ebc41	0.1465672021999769
220	0xbfb4348aec956d36	-0.07892673755616361
221	0x3fbd7464695f8f99	0.11505725452985728
222	0xbfb93ae4649c028b	-0.09855487304958836
223	0xbfbece8290413ffa	-0.12033859273765293
224	0xbfa685ba8c1cbef4	-0.043989019015837544
225	0x3fc29cf196ccf0d7	0.14541454184825994
226	0xbfbd44015efaf771	-0.11431892937522804
227	0xbf3089256b990149	-0.0002523151739275598
228	0xbfb512b69931de3c	-0.08231679191691738
229	0x3fb6325d8ffa2139	0.08670601620736286
230	0x3fc22c2bde8323e4	0.1419730030522991
231	0x3f96798e13cdf4c9	0.021948070486804725
232	0xbfbb9374363dca5b	-0.10771871876003429
233	0xbf96ec91ceff1051	-0.022386816271833535
234	0xbf949ec0c17cccc8	-0.020136844453372743
235	0x3fbee9ae628f4552	0.12075319200746051
236	0xbfb051b85d8a2b93	-0.06374695094761611
237	0xbfb850aa2ba25b14	-0.09498084607399121
238	0xbf94fb89dcfe7a1e	-0.02049079333630221
239	0xbf89cc9265318a51	-0.012597221100979857
240	0x3fbc594c083a6b89	0.11073756409534331
241	0x3fa5794992de13c3	0.041940974405441554
242	0xbfa26aabb95c4021	-0.035970083596226006
243	0x3fa81672625c37c9	0.04704625559507709
244	0xbfb03d543a7b16c2	-0.06343580653909967
245	0x3f9f45f653f6cbf6	0.030540322184332745
246	0xbf79231a6132f180	-0.006136992498053551
247	0x3f86654148da5cc5	0.010935316119953584
248	0xbfac8e6e461b1103	-0.05577416044028107
249	0xbfa8c6ceb325df8b	-0.048391780251164716
250	0x3faa4ca407c437db	0.051365972469383535
251	0xbfb8e4d399a8b09c	-0.09724161626280864
252	0xbfb6c6608e3581d7	-0.08896449539088934
253	0xbfbc7d7178716a1e	-0.11128911200049926
254	0x3fb8c514e808aa50	0.09675722756279836
255	0x3fbf5c291c3f7f52	0.12250000896119431

fc21.weight f8 [64, 256]
0	0x3fac43d4af07b6e0	0.055205007902129344
1	0x3f856708657bdf7a	0.010450425717394064
2	0x3f9a83f2b8d89073	0.025893967182256405
3	0x3fae237db102d1d2	0.058864524705686386
4	0x3f9ba500ad4cd1b1	0.026996622636220106
5	0x3f577e3b44043e9f	0.0014339045301915777
6	0x3fa913d3d11c7649	0.04897939612986286
7	0xbf929587a9b3ba7e	-0.018148536427299515
8	0xbf8183deeef673a0	-0.008552304904520913
9	0x3fa7014989e9bdb8	0.04493169601925778
10	0xbfa02f4d20c7b02c	-0.03161088013789057
11	0x3fa9c039db75cc18	0.05029469303089956
12	0x3fb4327872db7c6e	0.07889511875281283
13	0x3faafa52835e2cec	0.0526910577164815
14	0xbfab67d451ac966f	-0.05352653023718978
15	0xbf9e0115fb7d6117	-0.029301017260281528
16	0x3fab552aadfe1f31	0.05338414548810844
17	0xbf71f345bb3c16a4	-0.004382393253541093
18	0xbfa5f95aa311d4e0	-0.04291804543110245
19	0x3fb2d2f24e31efc5	0.07353128823336792
20	0xbfa6887bdec837a2	-0.044010039277153426
21	0x3fb6d8215e9dfd16	0.0892353874205479
22	0xbf849364d5d4a14c	-0.010046756530372257
23	0xbf90dc51a0f4a89d	-0.016465449761348883
24	0xbfa2ab00619581b1	-0.0364608878251177
25	0x3f9a189cf97640d1	0.02548451683611647
26	0xbf915609b9c00bd4	-0.016929771387378015
27	0x3fa5d464b12f6160	0.04263605749992183
28	0x3fa25dbf1768e202	0.0358714786602299
29	0x3f97c6e0c06a442f	0.023219596618734236
30	0x3fa52b5152083cf6	0.04134611250275981
31	0xbf9793933b6167d6	-0.023023891925141836
32	0x3fa055835faad667	0.031902413776532516
33	0xbf9c3d827a821deb	-0.027578390815078107
34	0xbf524cc99dd2a40a	-0.0011169403945052747
35	0xbf869f662f18a743	-0.011046217262520868
36	0xbfa0cb5eb630be5e	-0.0328015897179028
37	0xbf880dc3aed73b0a	-0.01174500348397835
38	0x3fabdad67c768882	0.05440397519420605
39	0x3f8685bbe29bc6bf	0.010997264721911091
40	0x3faa3a8029c21617	0.051227574441366545
41	0xbf9930733b7d8476	-0.024598885065078645
42	0xbf80f09643abc07e	-0.008271383228447112
43	0x3f9e6945467c2c3a	0.02969845049578288
44	0x3fa1a416081d9fde	0.03445500229901176
45	0xbf8097c162745a11	-0.00810195047101295
46	0xbfa4cb7da444f52a	-0.04061501150361331
47	0x3fb59afee8890cd6	0.08439629723675365
48	0x3fa06780e0e4c5d4	0.032039668515050274
49	0xbfa3171855705e2e	-0.03728557627635741
50	0xbf91bb8ed04a4e52	-0.017317038977650086
51	0xbf816983158a643d	-0.008502029509417247
52	0x3fac853392f608a6	0.05570374649961822
53	0x3fb5c0892f7dda0f	0.08496911439383602
54	0x3fa1aef84b2f7eba	0.03453803937713702
55	0x3fa1ae9ad12dc267	0.034535253557696426
56	0xbf88ffbab9a0db48	-0.012206515111854124
57	0xbf9bbddc7b0c85d4	-0.02709145070105541
58	0x3faed9efecd28f29	0.06025647893809911
59	0xbfa211ed60ccf5ac	-0.03529302412651289
60	0x3fb1f1c9432b0cbe	0.07009561433646902
61	0xbf48ab178d842208	-0.0007528176311391585
62	0xbfa7f919249d07a7	-0.046822343558701456
63	0xbf7b2a0c8b776d0f	-0.0066318979292774435
64	0x3f977912d6aee6e8	0.022922796586249655
65	0x3f9703848f7b0f65	0.02247435689675061
66	0x3fa0120d43682ae5	0.03138772437895002
67	0x3f903819e8f45c7e	0.015839009135643504
68	0xbfa6a460b4f550f0	-0.04422285279238902
69	0xbf7bb996a2dc7124	-0.006768787787020867
70	0xbf66e03bc3559aea	-0.0027924697157460836
71	0xbfb35b5cf361895f	-0.07561284009856227
72	0xbf7865e0d2663305	-0.005956533632695442
73	0xbf568ff2de058fc2	-0.00137709348208491
74	0xbfa51d929ea185b4	-0.04124124704754753
75	0xbf967c33f3bbc268	-0.021958171607311533
76	0xbf71174c05de4dbf	-0.004172608341736105
77	0x3fa41318488232de	0.03920818219294174
78	0x3fad6e3a7f8aa4fc	0.057481601780930064
79	0x3fa9a402dd33b9fb	0.05007943105907838
80	0xbfb4756682118293	-0.07991638827798857
81	0x3fad353aed4c1cf3	0.05704673906989823
82	0xbf9526fac4e258af	-0.02065650774655897
83	0x3fac865122034d3f	0.055712256814923304
84	0x3fb3b0c29a1c1513	0.07691589605754627
85	0xbfa3269b81d149b1	-0.03740392646490721
86	0x3f9f5add0755abc9	0.030620053837463055
87	0xbfa6c324aa8a2ccc	-0.04445757467063913
88	0xbf99e292a6e9cb87	-0.0252783693671961
89	0xbf894c12edcc66e5	-0.012352130777390122
90	0x3fa0437eb987abc0	0.03176494612474512
91	0xbf983f4e7312c7ae	-0.023678994916458578
92	0xbfa3bd78947d3b27	-0.0385549241315089
93	0xbfb0431dae7a0da0	-0.06352410802542474
94	0x3fb265260e661119	0.07185590602427218
95	0xbfa00bcab8939118	-0.03133996489649088
96	0xbf90a979feaa3a73	-0.01627150170184639
97	0x3f89d38773763fd4	0.012610491000287917
98	0x3fb9b92ccda36d7c	0.10048179645985117
99	0x3fbfcfc264139ee6	0.12426390593793321
100	0xbf6d8063b9871dbf	-0.0036012599705121657
101	0xbfa6aad05d89d4fc	-0.044271956842672794
102	0x3fa01daca0839934	0.03147639712715247
103	0xbf9d4da3cd4dde62	-0.028616485029003498
104	0x3f91b187965977a2	0.017278784324268444
105	0x3fac72f38d57258c	0.055564509395092804
106	0xbfa3b7e7cde88b4f	-0.03851246250658013
107	0x3f98533c41c8e4c7	0.023755017771894395
108	0x3f9ebd33eb1f5774	0.030018626428350584
109	0x3f97f9ace29b5ed9	0.023413373309124495
110	0xbfa4aabf46196422	-0.04036519747450763
111	0x3fa9401d271b42ce	0.04931727506994364
112	0x3fb077847b937228	0.0643236924838183
113	0x3fa2e14adbf69729	0.03687509474847978
114	0xbfaaa5542d48699a	-0.052042608764355694
115	0xbf47d9f49305aeb4	-0.0007278866014934411
116	0x3f692030e2fc1b99	0.0030671076600614186
117	0x3fa4b6f15e447295	0.040458243138549545
118	0x3fb0c3ad9a5cae18	0.06548581141094478
119	0xbf983a5f6853776e	-0.02366017412429449
120	0xbf95ced869b84671	-0.021296864941240338
121	0xbf90300f6fc27310	-0.015808335491430958
122	0x3f64eadf74cfc8b5	0.00255340236480447
123	0x3f8c5b289d986420	0.01384574633543606
124	0x3fa08775330d18c9	0.032283461076575266
125	0xbfa20af146035a5d	-0.03523973445560522
126	0xbfaa9a6f1f057a39	-0.05195948842696336
127	0x3fb0d00f6fc61529	0.0656747482190282
128	0x3fa2b6e993e77670	0.03655176096411317
129	0xbf833f5bac252d02	-0.009398189726786747
130	0xbfa57413568087ac	-0.041901211079916706
131	0x3f960b3c67dce5ac	0.021527236785208778
132	0x3fb3e01231426485	0.07763780310269126
133	0xbfa44a2404142002	-0.03962814855373155
134	0x3f99a471618f9e47	0.025041362361575528
135	0x3fb0d0fe32bec611	0.0656889795198128
136	0x3f6674996a74e10a	0.0027411457446328046
137	0x3f8533f5669699cd	0.010353009408231717
138	0x3f81a07c7cc3ac5a	0.008606884534364468
139	0xbf73225805fc8652	-0.00467142471441802
140	0xbfa822d8a2633f41	-0.04714085562011273
141	0x3fb117a68f0f139f	0.06676712982796439
142	0x3f528c9f47e588ce	0.0011321597554219578
143	0x3f981a42610ce622	0.023537671254621036
144	0x3f9b2f6dbb491b96	0.026548113399509875
145	0x3fb5dc891113bf7f	0.0853963534061659
146	0xbfa1231d6e2593fc	-0.03347103089871692
147	0xbf88a169874ed9c3	-0.01202661937882688
148	0xbf934b15fb6573e5	-0.01884111735249751
149	0xbf8b168865a06aa1	-0.01322657165660718
150	0xbfa31b1f80048fbc	-0.037316307427573275
151	0x3fa33c2124f996a6	0.037568126452965075
152	0xbfad53cea477abb9	-0.05728002317103837
153	0x3f91aa6bacd18ff6	0.01725166551877063
154	0xbf9e6e09013feba4	-0.029716625882410988
155	0xbfa9dd5411ff7eb5	-0.05051672668173294
156	0xbf5a32f530ce5f37	-0.0015990633430415632
157	0x3fa6a5c2ffa23277	0.04423341150786524
158	0x3fb4a757438b81fe	0.08067841910406767
159	0x3faa5f5917e3bae5	0.0515086976682733
160	0xbf9ab9f1606a607f	-0.026099940786111105
161	0x3f94b224835b8bae	0.020210810201102873
162	0xbfaf3cb56000b475	-0.061010044068418624
163	0x3f95e03b53d8ae78	0.021363188736513966
164	0x3f8b82d0fc9ad3af	0.01343310614479684
165	0xbfa214f7b308d6ac	-0.03531621990661668
166	0xbfb328aa738099e1	-0.07483926124459785
167	0x3faf59f25223c944	0.06123311283762914
168	0x3f9399bdd8421fad	0.019141165088995816
169	0xbfb05f89e9e22ac3	-0.06395780525250942
170	0x3f878b527184d36f	0.011496204461403285
171	0x3fa5e969c4ac9bd6	0.0427964260655284
172	0x3f92091fdd057e0b	0.017612932076529513
173	0xbf61fae50aaf8c92	-0.002194831225538937
174	0x3faa9d0db6e1da3b	0.05197947366189167
175	0x3fa71371dfb030ac	0.04507022719926232
176	0xbf86063290017d1e	-0.010754008311947557
177	0x3faeada29a60ab07	0.05991848120205217
178	0x3fa2b8efb5eac946	0.03656720252674232
179	0x3f8ed879b41452eb	0.01506133156593977
180	0x3f9a9e591fb40db4	0.025994675216691923
181	0x3faeb2daed0d4322	0.05995830672930526
182	0xbf51679e720f4a01	-0.001062302333811105
183	0x3fa34280faa0cd82	0.03761675891328321
184	0x3fb14ced885e087f	0.06758007602005199
185	0x3f9cf50852b42339	0.028278474853354416
186	0x3fb421295c932aba	0.07863100538376502
187	0x3fb3351ad76ab45e	0.07502906569671228
188	0xbfa055bb51ed23c5	-0.03190408110692248
189	0xbfaa2d587b8981d6	-0.051127209739891974
190	0x3fa67620f3de84d0	0.043870000619116944
191	0x3fb7d0daeff8d582	0.09303062781039809
192	0xbf91ff4690c68069	-0.017575361811055155
193	0x3fb037a7766119ea	0.06334921493644399
194	0x3f9e87b82fde46a3	0.0298146037308188
195	0x3f78f64332c08816	0.0060942292148258494
196	0x3f7026070c8baff5	0.003942515883618815
197	0x3f9d31fdfcf3aee4	0.028511017383535356
198	0xbfb69051f789e696	-0.08813965123581577
199	0xbfa096d2c15754bb	-0.03240069017525956
200	0xbf9e9f76a8dd74f6	-0.029905180031495747
201	0x3faf9c76be96c17c	0.061740599408383695
202	0xbf8ad7ad037d7ff2	-0.01310668150807712
203	0x3fa4f2fac9d1e559	0.04091628755208871
204	0x3fad1963727b165c	0.05683432362051796
205	0x3fa2034571032c73	0.03518120770021307
206	0x3f6ae927b24a09fd	0.003285005123246919
207	0x3faead3d272fdb95	0.05991545775753263
208	0x3f951368de8f1385	0.02058185442344353
209	0x3f93e048cb08eadd	0.019410264389288712
210	0x3fa17a6cb27e14ba	0.03413715056289264
211	0x3fa8a363789597a2	0.04812155577637546
212	0xbf90d9cbf8d949e5	-0.0164558287272686
213	0xbf9749b5af3e876e	-0.022742117711124825
214	0xbf9af305150af4c4	-0.026317672166204856
215	0xbf8626a5dbba9ed0	-0.010815902488800516
216	0x3f99a39bace2e0a9	0.025038177897585587
217	0x3fa3bb57c47b3005	0.03853868745281378
218	0x3fa558954923d742	0.04169146077940279
219	0xbfa68e9aacce4f4e	-0.04405673369833939
220	0x3faf5d316208897b	0.06125788041778698
221	0x3fa1786f95fd9606	0.03412197786273556
222	0x3f99b5eb2a2222c4	0.02510802693044202
223	0x3fac93e98542e4ee	0.05581598045086787
224	0xbfa8c092989d4ad6	-0.04834421265572579
225	0xbf9a436366560df4	-0.025647690888503008
226	0xbf96f6591bb5c9a7	-0.022424118343630586
227	0xbf9168050ab4d374	-0.016998366144622648
228	0x3f9ea1b90abb0320	0.02991379859918475
229	0xbfa7a98cc387693b	-0.0462154377634811
230	0x3fb360254e140bb9	0.07568581730087844
231	0xbfa0937d4668dead	-0.032375254483154016
232	0x3fa217bd91ac8695	0.0353373756718273
233	0x3fb0468b3bc612e0	0.06357641419715376
234	0xbfa93ee928c064ea	-0.04930809614615746
235	0xbf84b0be77aa7d94	-0.01010273745242677
236	0xbf8f5787d8958f99	-0.01530367021286576
237	0xbfa634e4a57cd779	-0.043372292710428924
238	0x3fae1e02234ee25c	0.05882269555099093
239	0xbfa96681e21f5a0b	-0.04961019406589536
240	0xbf95974051d1dd96	-0.02108479022396422
241	0x3f74dc618a6c1549	0.005092984217076443
242	0x3f6e07d60ee3759d	0.0036658459494975496
243	0x3f971537790cf814	0.02254187275251958
244	0xbf9af410432c8a42	-0.026321653461432122
245	0x3fb36c98d89f1f11	0.07587580956089492
246	0x3fb2fa5b5ef1d3c4	0.07413264339432063
247	0x3f9c598d9072191f	0.02768536752821504
248	0x3fa0fecbdd0d7d6a	0.03319394181630282
249	0xbf9318c08584a769	-0.018649109029105135
250	0xbfad2a817970b4a0	-0.05696491820740701
251	0xbf8ccdc235299bd6	-0.014064328429595745
252	0xbf9afd770acf7376	-0.026357517275630703
253	0xbfaa118189ba5154	-0.05091481024024583
254	0x3fab85fc851da0fd	0.0537566101546094
255	0xbfa0a6f4f9d11193	-0.03252378034133865

fc21.bias f8 [64]
0	0x3fa0ca81e34cde5c	0.032795008656134356
1	0xbf77b4ae93a55be4	-0.005787546100996164
2	0xbfad38eedfc66423	-0.05707499009731289
3	0x3f992ea9bedb9b5c	0.024592067979848906
4	0x3fa20803a1a61496	0.035217393381608605
5	0x3f7df6f06307e3f2	0.007315577517595694
6	0xbf95ef263d201dfb	-0.021420094948579643
7	0x3f966f7b985a6870	0.021909648107432067
8	0x3fa814b170c4011e	0.04703287602933613
9	0xbfa6f1dcaba88879	-0.044814010576616554
10	0xbfab89c841779258	-0.0537855701366296
11	0xbfaaeb259f9a5cf3	-0.05257527898100447
12	0x3fa664f99addda3e	0.04373912826024594
13	0xbf785db916c9b251	-0.005948756221738253
14	0xbfaf1136d400a567	-0.060678208712782226
15	0xbfaae440ec3edc8d	-0.052522686804359876
16	0x3f91eda17c54847f	0.017508052075872357
17	0x3fb08abb9de9cab2	0.06461689572624144
18	0x3f9804558e35f502	0.023454033665520242
19	0xbf882e4d00000000	-0.011807061731815338
20	0x3fb0c94669349595	0.06557121342173951
21	0xbf96c064d1fc4e0a	-0.022218299213887995
22	0x3fa6543979615723	0.04361133200352032
23	0xbf9ad9e91e64053d	-0.02622188804617064
24	0x3fa0b2ec38010f85	0.032615072094386334
25	0xbf73916132fba752	-0.004777316745938469
26	0x3f859dc420f75bfc	0.010554821258592632
27	0x3f736c45e5b252de	0.004741929088727585
28	0x3f93a2094c452356	0.019172807006984392
29	0x3f71771b973d80c4	0.004263980652325642
30	0x3fafbe50642f6720	0.06199885580981701
31	0xbfb14dd16ffc8da7	-0.06759366020246792
32	0x3f945d62e037217f	0.01988749021055147
33	0x3fa017cef2f57e32	0.031431643636775766
34	0x3fa8623a5a5ae6d0	0.04762441971747722
35	0x3fa81eb48fa1c7c0	0.04710926297492746
36	0xbf9b2d34b1230d8b	-0.026539634048061294
37	0xbf99cd964494ba50	-0.025198314605569927
38	0xbfa28779eb6afe4c	-0.03618985174898323
39	0x3fb1864506dc960f	0.06845504205247031
40	0x3f99754d56a1d3c5	0.02486153451214414
41	0x3fac47fb95d8089d	0.05523668483876174
42	0x3f94b0d5df53775a	0.020205823665370694
43	0xbfa577a8971d336d	-0.0419285473313725
44	0x3fb0d631063c2ebf	0.06576830293868861
45	0xbfa737d15c6e1991	-0.04534773114487501
46	0xbf9b51021af03e72	-0.02667620934886234
47	0xbfac86e0b4aeea19	-0.05571653562170215
48	0x3fa47d576f9bd065	0.040018780111410725
49	0x3f86e048eaf334d1	0.011169976873498662
50	0x3f51c8ebb3a09274	0.0010855008863554201
51	0x3f9fb6b0a8ffca18	0.030970344843760683
52	0x3fb1261eaf87cc7e	0.06698791299258919
53	0x3f9551ed1f1abd24	0.02082033636423576
54	0x3f9a171b1e0793f7	0.02547876711641447
55	0x3f8fad32d55e50bc	0.015467068802344712
56	0x3fafad9f7476e837	0.06187151238141591
57	0x3f9aa6adef0eab9b	0.02602645656194689
58	0x3fa38562c1728a87	0.03812702762049463
59	0x3f920b297bdc6ef3	0.017620704827193866
60	0x3fa6f594990b3a76	0.04484238022051994
61	0xbf9ffc5d83c4588f	-0.031236134688776004
62	0x3fb257479a4b61c2	0.07164428250269508
63	0x3f8e81e6547d6f5e	0.014896201566152175

fc22.weight f8 [64, 256]
0	0xbf92910798a9ef74	-0.01813136929784727
1	0x3f9939731982c8db	0.024633215362606414
2	0x3fb153937b47a94b	0.06768152007831423
3	0x3f7e9e81002ac6e9	0.00747537985687228
4	0xbf901c70c6c1248f	-0.01573349202252366
5	0x3f8fcc9c424bedef	0.015526982091151857
6	0xbfa5c4dd5db0d13e	-0.04251758354840483
7	0xbfa03ba7c2569b0a	-0.031705133889138606
8	0xbfa26bc33e742f90	-0.035978413938294485
9	0x3f8514ce5c425449	0.01029359072735238
10	0xbf76a190f8776359	-0.005525175372405788
11	0x3fa0516937f954ee	0.031871116717107614
12	0x3fa85a5db16f48b5	0.04756443777991263
13	0x3fa7b7df02ff838b	0.04632470046613609
14	0xbf9cc97883fc27fe	-0.028112299972271153
15	0x3fa6dd974f9b3ffb	0.04465935560949671
16	0x3f451af623ab7724	0.000644083199712962
17	0xbf93d044f12742c0	-0.01934917184718432
18	0x3faceb8e489d7f31	0.056484648098147246
19	0x3f7a92b0e1eab748	0.006487551638810825
20	0xbf5eace9f2e90333	-0.0018722805649675322
21	0xbf9e8ddf5aa15ca8	-0.029838075548778292
22	0x3fa8fcf0b8625a63	0.04880478144439306
23	0xbf89b70f597af28b	-0.012556190412732057
24	0xbfa34accf789b005	-0.03768005868627714
25	0x3fad51b4772fcfb8	0.05726398425022644
26	0x3f70faa16174ee74	0.004145269769022176
27	0x3facf8772fb995d8	0.0565831418760287
28	0xbfa2272d1a1e2228	-0.03545514053172766
29	0x3fae60a75ca66a8d	0.059331159648725686
30	0xbf8b12ab3307e9c0	-0.013219201559867666
31	0xbf626830de714cd7	-0.0022469477149030625
32	0x3f9bc4a220a0557f	0.027117284051276776
33	0x3fa430efb2c8725b	0.03943585450563055
34	0x3fa83c87894c805a	0.047336802969085226
35	0x3fac2db75116d5c4	0.05503628601892843
36	0x3fb138b4dacee809	0.06727152196882015
37	0xbfa430c5bde60397	-0.03943460410210447
38	0x3f9c2ff52878c812	0.027526693911745843
39	0x3f69fe9e4da35525	0.0031731693135081
40	0x3fa3aea22ff02713	0.038441723205393206
41	0x3f80d9c012c762a0	0.008227825711331349
42	0x3f9c5ca2a229e228	0.02769712557571516
43	0x3faf508096681b9e	0.06116105876940668
44	0x3f829db70cd6b79a	0.009089880065257284
45	0xbf94774bd23c9559	-0.019986328799082773
46	0xbf8fa855a7654503	-0.015457791491515943
47	0x3fb2ba59c85068d9	0.07315598621827081
48	0xbf7cf5deda639d09	-0.007070417899945677
49	0xbf9f9adf822cf1e6	-0.030864231415067687
50	0x3fa10d0e2d1b89c7	0.03330272961263208
51	0xbf53f9aaf78f29bc	-0.001219193420399208
52	0x3f9674d43add00b3	0.021930042355280132
53	0x3fa064db3f0687be	0.03201947349886279
54	0x3f983a8c42ad0208	0.02366084248501646
55	0x3fa4ca51e458bdf3	0.040606078266474464
56	0x3f78c78bf1c8000c	0.006049677522696594
57	0x3f8091a8d83beb39	0.008090323542537458
58	0x3faa931c9f417841	0.05190362400092897
59	0x3fab53862f399ad6	0.05337161375500947
60	0xbf849af78642ccda	-0.01006120089036815
61	0x3f95d4dd50d52bf5	0.021319826182018848
62	0x3f9ae734ea1d00e0	0.026272608555928723
63	0x3fb078ec64f6be26	0.0643451448911426
64	0xbf8ac117e389861f	-0.013063608771690714
65	0xbfa4f898f1411505	-0.040959147882441406
66	0x3fafd4be0b30bab3	0.06216997038460672
67	0x3f943de05bab734d	0.019767289729190996
68	0x3fa73ad78e865c89	0.045370803974202074
69	0xbfa39e4b3aa02d3e	-0.038317061335045186
70	0x3fac170af25e8a7d	0.054863302312942765
71	0x3f9964c42c22ec1f	0.024798455423233997
72	0xbfa908460a0968b6	-0.04889124748724909
73	0xbf96759d200da0f7	-0.02193303592812953
74	0x3f7ad44529872369	0.006550092854418967
75	0xbfaa9845c1dbe8cc	-0.051942996897155064
76	0x3facda3874f71d5e	0.056352390554418305
77	0xbfa9a7765a6f792b	-0.050105761088831656
78	0x3f7e961f1748b292	0.007467385720286617
79	0x3fa5c278620fcdbb	0.04249931523363722
80	0x3f6f1f5be0e6a88f	0.0037991327764830894
81	0xbf559e3790b788db	-0.0013194601659667824
82	0x3f1966486314d722	9.689156356248706e-05
83	0xbf9d01570acbc9f1	-0.028325424226702315
84	0xbf9a3b7cd9adce4d	-0.025617552553241208
85	0xbf96aaacc33d9048	-0.02213544789937341
86	0x3f700bde39c5b934	0.003917568272625172
87	0x3fa5cb6e15a97cb2	0.04256767286710196
88	0x3fa6f6cda780fd46	0.04485171003079329
89	0x3f597512a63e6082	0.0015537912486021381
90	0x3f996cfed738d667	0.024829847227201187
91	0x3fa8af09fdb84662	0.0482104418007452
92	0x3fb1af4e3b36d7fc	0.069081201035118
93	0xbfa35279c1f41878	-0.03773861401173034
94	0x3fa0125761d8ba25	0.031389933294452534
95	0xbf7b65f6e62203a1	-0.006689037751244437
96	0x3f7c964abdc35720	0.006979267080358814
97	0x3fa83f67ef5cf4e0	0.04735874936020834
98	0xbf9f9ff5a7adc30e	-0.03088363490991513
99	0xbfaaf2297bd9cf5a	-0.052628799789913486
100	0x3fa1489c327ac585	0.033757096445138614
101	0xbf90526bd5fc7b1c	-0.015939412055668276
102	0xbf8417d192feec4e	-0.009811055468040088
103	0x3fa9bdb1e497c3ed	0.05027538218917713
104	0x3f9994221c9a6b2b	0.024979145999718327
105	0xbf97b3960c5fc339	-0.023146004204991775
106	0xbfb159c866ed061e	-0.06777622711981521
107	0xbf78db68e2047466	-0.00606862039447007
108	0x3fa1461191b70ab1	0.03373770622012751
109	0xbfa30af17dcab314	-0.037192865949100234
110	0xbf9b2e35c093c341	-0.02654346454523027
111	0xbfabbc910e37269e	-0.054173024163515424
112	0x3facafaa3fe775a1	0.05602771787719552
113	0xbfaccd395abd8963	-0.05625323517485261
114	0x3fa960defcb0923b	0.04956719240752646
115	0xbfa315a734a12065	-0.0372745753998636
116	0xbfa3c52ed3ed1661	-0.038613761300933865
117	0x3fa9d44e1d43638d	0.05044788462846048
118	0x3f4bd43af6c13896	0.0008492744359587408
119	0x3fa2af578490d7c0	0.03649400227770583
120	0x3faccc8d90fb8ff5	0.05624811549003531
121	0xbfa0892d90672511	-0.03229658496599986
122	0xbf8decabb243cc8c	-0.0146115697648155
123	0xbfa1c09b7a214b9c	-0.03467260232778033
124	0x3f9f62d05e8ddcc2	0.030650382777335457
125	0x3fabd5ec2e5835eb	0.054366474778458095
126	0xbf9c777efb7eec2d	-0.02779959115990154
127	0xbfa560e37ea2ae54	-0.0417548267444913
128	0x3fad52e9052964ab	0.057273179893578906
129	0x3fa55c4a156a1481	0.04171973716169309
130	0x3f9c3ffe3a872388	0.02758786422944895
131	0x3fa363aac0cf15c8	0.03786977389931284
132	0x3f9df60dc24a9c0c	0.029258933051689737
133	0x3fa2ee5cfc47c4be	0.036974817081394815
134	0x3fa5d9c49c6f78c3	0.042677063079950915
135	0x3f6df00fbd88bf4f	0.0036545092991885695
136	0x3fb072aee856ff11	0.06424992725714797
137	0x3f90e2b5be544f85	0.016489829770832926
138	0xbfaaf6e5924fe58c	-0.05266492281948407
139	0xbfad5c3a883c3cd3	-0.05734427369145014
140	0x3fa4c9b3825c05e3	0.0406013580923277
141	0xbfa97814f7cdcfef	-0.049744277238374816
142	0xbf97b3c23104001c	-0.023146661988903458
143	0x3f7675b9a97fbfff	0.005483365290260166
144	0x3fae3a63e5c1d28b	0.05903923205997782
145	0x3f9063f25578bee1	0.01600626608541134
146	0x3f9e0ee1f24ac75d	0.02935364762624403
147	0xbfa993120799bc67	-0.049950183322714996
148	0xbfb1500471c31b68	-0.06762721803089067
149	0xbfa864221dac82ca	-0.04763895618657939
150	0xbfa2a0ab1e2b85d9	-0.03638205283437985
151	0xbfa90b4d270013ed	-0.04891434765890055
152	0xbfa1f64581682a2b	-0.035082027479877397
153	0x3faf10bb30bbeecf	0.06067452402018391
154	0x3f8c1069ce73c1e2	0.013703180897636839
155	0x3f956297bfbeebd7	0.02088391406844522
156	0xbf677f85bfa74ace	-0.0028684246328592794
157	0x3f9dc24aa22da188	0.029061475895475947
158	0x3f9321e105402a52	0.01868392557666205
159	0xbfa4717bf6a17573	-0.03992831597927706
160	0x3fabf47627479599	0.0545994685124171
161	0x3fa22bbb14faf96e	0.0354898894415666
162	0xbf8cecd5a02c12c8	-0.01412360091263433
163	0xbf9b24052cba88c0	-0.02650459371091851
164	0x3f9cf37a729f963f	0.02827254604917173
165	0x3f8cf54cfa24b12c	0.01413974893929345
166	0xbfae0161f65b5d40	-0.05860429889951968
167	0xbf980aee8d25cc11	-0.023479201664894648
168	0xbf9042f68db682b1	-0.01588044395396321
169	0x3f9fb5141f46c35e	0.03096419754882917
170	0xbfa7307e0c0b6f78	-0.04529184243230494
171	0x3f8b97e5cdf487f4	0.01347331557059659
172	0x3fb26e58aaa8a3dd	0.07199625174020192
173	0xbf978511d11403cc	-0.022968557726020397
174	0x3f825c9294af8ecc	0.00896563068631142
175	0xbfa29c94d89e2e10	-0.0363508715082298
176	0x3fa35e086b71d5f8	0.03782678901272257
177	0x3f80ba4f4f6019dc	0.008167857751698308
178	0x3fa09ff4f4aecea3	0.03247037398196297
179	0x3fb101568c1bb213	0.0664266674099923
180	0x3f81c2fe8be95a7c	0.008672703404198893
181	0x3fad7f0300fe979b	0.057609647628211046
182	0x3faab87810c12a06	0.05218863682292256
183	0xbf9c1ea234e5d758	-0.027460607985140356
184	0x3f9783a4d076d572	0.022963118766445807
185	0x3f82230594c9ef1b	0.008855861285375568
186	0x3f74b3b18d621f6c	0.005054181636417226
187	0xbfad16ecdc431bf7	-0.056815530669659546
188	0x3face2364b097abc	0.05641336122493132
189	0x3fb02e7953028747	0.06320913578613584
190	0xbfab1531ec966d03	-0.052896080141374945
191	0x3fabd82740f70543	0.05438349407223566
192	0xbfa052be0f099bd1	-0.0318812745434155
193	0x3fb1e12f4b11d266	0.06984229643587411
194	0x3f912d8c1b8b6d51	0.01677531164282914
195	0xbf83e6038197cb2a	-0.00971606005893973
196	0x3faf47ed0e97b3eb	0.06109562686092559
197	0xbfa7f77d97a6daa8	-0.04681007839410728
198	0x3fa2db74a9ce8985	0.03683056423985235
199	0x3fb2f472c43485fb	0.07404248514333027
200	0x3f853c0fdc5c38ed	0.010368465340004874
201	0xbfa794d077ecf543	-0.046057238234860985
202	0xbf93fa12455f124c	-0.019508634075253092
203	0x3fa734cd8c40c968	0.04532472931932113
204	0xbf9c3965b510a117	-0.027562703300788884
205	0xbf9610d02a5c6375	-0.021548512063506792
206	0x3fa10d40f77dcce5	0.03330424328933094
207	0xbf4b4dc0957319c9	-0.0008332434034848342
208	0x3facfd1258818a1b	0.05661828356166528
209	0x3f88fd037894af2a	0.012201335065206449
210	0x3fa41651043ee1d0	0.03923276116205765
211	0x3f9e5d4c947a79cc	0.02965278297653544
212	0xbf9a910b5efbcca2	-0.025943925545061426
213	0x3fa8ffddd6f5caae	0.048827106943368434
214	0x3fa5c578ee2146e0	0.04252221972332193
215	0xbfae831c7822bcbd	-0.0595940491342559
216	0x3fb217c4b2fbd5fa	0.07067517633171141
217	0x3fa987ff467b8305	0.0498657010591668
218	0x3f7667450817300b	0.005469579367353826
219	0xbfab619a834ad63d	-0.05347903111161798
220	0x3f96fc726b4372b2	0.022447383686869223
221	0xbf71d6378a3ebb56	-0.004354683831407543
222	0xbf9df302c6689e3b	-0.029247325286773523
223	0xbfa73e0865b07267	-0.04539514771770286
224	0x3f96d41138c9e8a1	0.02229334744559053
225	0x3fb03f41503a0449	0.06346519669206531
226	0xbfa2e25379578deb	-0.036882980882889736
227	0x3f91b9570821f1ce	0.017308578368543874
228	0xbf92dcc16431483b	-0.018420240154519468
229	0x3fa2f29adfd6d66c	0.037007179092523795
230	0x3f978939317e2274	0.022984403272433743
231	0x3f804b2b8f5a1e3a	0.0079558756945196
232	0xbf8b3de2b22645da	-0.013301631032649409
233	0xbf9b2aba356a2fb0	-0.0265301795102883
234	0x3fac489c35d265bb	0.05524147183423219
235	0xbf9e055c98ca188f	-0.029317328286673713
236	0x3f9a5b812b38e796	0.025739687216833916
237	0xbf9f20afa51cde5a	-0.030398125126536925
238	0xbf9a1792381ab8ba	-0.025480541872348474
239	0x3fa808b6a2f1d6e0	0.0469414781481825
240	0xbf7897e8cfe2671e	-0.0060042471142425485
241	0xbfa33ae423e01b66	-0.037558678988765234
242	0xbf98f4568cd60b87	-0.024369575830415904
243	0x3f9dbd6c06ce178a	0.02904290000471791
244	0x3fb0cd370a2b0835	0.06563133238071901
245	0xbf9acfb6aab92d02	-0.026182989282728115
246	0x3fb12bb5e16c5f42	0.06707321885585052
247	0x3fb1056117413b27	0.06648833101028782
248	0x3f8f34f3a4d8cc6c	0.015237716167666636
249	0xbf578ba363e69698	-0.0014371009452615376
250	0x3f9b1121bbf6ad0c	0.026432540032755233
251	0x3f9da57f1f3a1eeb	0.028951631813952366
252	0xbf373f8643a20c3b	-0.0003547385018764536
253	0x3fa7bf92b8a6f9a6	0.046383461990888095
254	0xbf8b23e38c966a7e	-0.01325204632558052
255	0xbf922eb303785183	-0.01775626858405267

fc22.bias f8 [64]
0	0x3fb01486351ad78a	0.06281317516808663
1	0xbfb02a9507f2291d	-0.06314975208275482
2	0xbf8b5aba90b9f17c	-0.013356645147035044
3	0x3f8e3e3a46c1cbb3	0.014767127308209149
4	0xbfb039f0d8aa0094	-0.06338410653734378
5	0xbf6fe3fbac8b66ab	-0.003892890501771292
6	0xbfb00cc06bce6b91	-0.06269457466116381
7	0x3f96996935f8c605	0.022069591445136556
8	0xbfab9cfd8047d564	-0.0539321154682664
9	0x3fae163732c0d627	0.05876324171587682
10	0x3fb07162163cbb82	0.06423008959676049
11	0x3f8cb62ca3a21e21	0.014019345039073152
12	0xbfa70d2888202304	-0.04502226506889964
13	0xbfa5914b62392930	-0.04212413381590563
14	0x3fa2e054b385fd1a	0.03686775866935417
15	0xbfa12073a9fc60c0	-0.03345071268103217
16	0xbf80739e7b3201a6	-0.008033025869963972
17	0x3fa2bc6260b103df	0.03659350805583705
18	0xbfa7e6220147452c	-0.04667764916997394
19	0x3f9d02560bdfbbf3	0.028329224085549453
20	0x3f8eec089b580800	0.01509863590309024
21	0x3f7528a25cbf5849	0.005165704944337498
22	0x3fb06091e928b87e	0.06397354071006764
23	0x3f8e73924351f2fa	0.014868872336813766
24	0x3f8fc24ab39aea77	0.015507300954927345
25	0x3f9d3178c25452c8	0.028509032116818017
26	0x3f9c838f4f9b3cc3	0.027845610841549694
27	0xbfaa98acbf36057c	-0.05194606622809325
28	0xbf5654708fb9fea4	-0.0013629054291470011
29	0xbfb1137f10494558	-0.06670374057400374
30	0x3f6fc76d1eff57c2	0.0038792735358396955
31	0x3faed7a37e523efd	0.06023894230849967
32	0x3f9273a8e06ef954	0.018019331644376038
33	0xbf99e3ade0d87b0a	-0.02528258976792145
34	0xbfa84ee100000000	-0.04747679829597473
35	0xbfa8ac14091d55b2	-0.04818785296690055
36	0x3f92282991afe7c2	0.017731332318341016
37	0x3f88c9f8b0878dbc	0.012103979956868176
38	0xbfa7977808b81df8	-0.046077490867954596
39	0xbf87b1348d5152d4	-0.011568461001084364
40	0xbf701f546b551b30	-0.003936128390086321
41	0x3fa203f3fe117fca	0.03518640972538341
42	0x3fb1ae054ab35a75	0.06906159471268743
43	0x3fb0906016c15ef3	0.0647029929690424
44	0xbfb182d324089984	-0.06840247754789713
45	0xbf6b7d7f18be7699	-0.0033557398182456175
46	0x3fab428946893377	0.05324200616869395
47	0x3f748a9755f438e9	0.0050149833252943555
48	0xbfa0560b9c3c640f	-0.03190647394348655
49	0x3f9f2674791be998	0.03042013158026577
50	0xbf8e73d9d195e1e0	-0.014869405468503183
51	0xbf92b0ff0e815e8e	-0.01825331235917687
52	0xbfaf7f1d2b0e8299	-0.06151667738527528
53	0x3fa64e2858ce2bb7	0.043565045204636936
54	0xbf8332c5d43ad529	-0.009374185122718775
55	0x3f2188574acd6036	0.00013376298502510022
56	0x3f980bc1c67b2329	0.02348234914714734
57	0xbf94716f5b9341e7	-0.01996397015028775
58	0xbfad304e968a4a29	-0.057009178043831384
59	0xbf56dac037710621	-0.001394927703373468
60	0xbfa468247161c245	-0.03985704311424291
61	0x3fa2951313815136	0.0362935982999794
62	0x3f80f2e6656bbefa	0.008275794954414096
63	0x3f379a9aba44c09b	0.00036016728906230485
