weights/model_30_multi_vxvy_axay_blim_0_1_bn.pth (torch, 422942 bytes, 14 tensors)

fc1.weight f8 [256, 8]
0.6753329921089707 -0.3660237694942216 0.2267229297695217 0.04615165784429553 0.016526011218362054 -0.027261733523062683 -0.22082504581702195 0.014983814590766913
-0.4584989371188145 -0.3095558884426614 0.019316795017025032 0.2921508687949515 -0.07067720938446093 -0.31922541082628364 -0.029105187732539877 -0.060278038226546045
0.2966945304795804 -0.3661190940148841 -0.34624486179206115 0.2551289011760005 -0.024075652967792145 0.016914162256467666 -0.4507314305825891 -0.1750837164782016
0.612462491250049 0.10492105434806888 0.42015054212904585 0.1372515463155664 0.17927660080693167 0.42875485714290595 0.1996259796532217 0.026264580539938426
-0.2278766399324242 -0.21862903720689816 -0.04761595145067431 -0.07432923523300257 0.28181123077668485 0.12704407552497815 -0.2448110171167676 -0.44133490461793795
-0.4317194312584271 -0.07961297513516255 -0.2697187832748316 -0.29271975457608584 -0.15097061318170832 0.15490134303477357 0.2044253526369153 -0.13039191953701343
0.6419576055894531 -0.2308073295505642 0.21241477864882116 0.1210147123557757 -0.1362391352434718 -0.21936528128580987 0.045147618045221466 -0.02784107464509626
0.06186811138280417 0.18876402933343386 0.2746135466787928 0.03127209023004572 -0.19984288122401875 -0.10660028110292304 0.10179507435127061 -0.05429553957084938
-0.5585637983918375 0.08095714350387509 0.1660039292466292 -0.11693755819941017 -0.05629097714477543 -0.006118325102595249 -0.21533485344011524 0.1983062510318233
-0.0883202065376944 0.0689826565998008 0.16025902480669207 0.000482228835005503 0.12268950797483906 0.5129104389611112 0.29776794845027926 0.24378601772959824
-0.21070552825447916 0.3102002417513189 0.014227197536534104 0.04753797236668242 0.12667403872631622 0.4475948540570926 -0.3021522879477492 0.01166589027866077
0.127746119073516 0.20830944167944332 0.24769715792276784 -0.20828219537238873 0.24136593506040066 0.04041205270811335 -0.055133810177160264 -0.003338247427014441
-0.11586007940201375 -0.15222885419518803 0.052400056778444754 0.15217380294304683 -0.26944462484982057 -0.374264112286857 0.1674637284955475 -0.3278324999535369
-0.737262392124171 0.1930924404973975 0.1130584417603959 -0.2957396038084118 -0.1747804263054654 -0.26071805969664263 -0.17284537300622893 -0.3474348653545894
0.24366267642423176 0.00919238067573603 0.3576171152125122 -0.40008695184073034 -0.052636773212303596 -0.13349732668307435 0.29580689191297194 -0.19037941730986344
-0.4441679304543711 -0.42989237647151846 0.3315468029557965 0.29135790479247187 -0.04647361318657309 0.014454482806407607 0.011297668665222544 0.015383546798147794
0.01135914855341033 0.11683978722779775 -0.040157001330979325 -0.331928125369686 0.2511499914153577 0.1610806462831649 0.013730339648957665 0.23897702705991375
0.2514781589007243 -0.26756039112406066 0.5271073183778069 0.05980269474163814 -0.11668514859155217 -0.040605958104392166 0.21025636921644997 -0.12707793741394124
0.1631691136471477 -0.1599889544266192 -0.35593714923500575 -0.16371481447236594 -0.10306021051035993 -0.1948961796612704 -0.005088250621529348 0.32834130154057384
-0.20366357938552415 -0.02159587486126919 -0.34809874487283643 0.3115095020397944 0.07635044887547601 -0.04883730539706398 0.3178718611864564 0.06971003581933517
0.21987032412350066 0.1491162539002341 -0.19673698460588238 -0.31508433236657263 0.2930601643093282 -0.279017684194411 0.16711935362112895 8.080999319305791e-05
0.2474048306162863 0.06432066596291564 -0.051400954831421354 0.08243580224948993 0.06931850660107461 -0.23123826455633445 -0.08924474491847313 -0.27118835353112314
0.4005340394266918 -0.03892087685070947 -0.42377054670355285 -0.08655168664469255 -0.09363759624444051 -0.252018778108137 0.27435241173178065 -0.28319299077508725
0.0690009905755101 -0.4399945604637967 0.3037562338094019 0.2951329959613261 0.07353175706537005 0.16398786970936477 0.07525525235576563 0.09647311523949623
0.39921816399875076 -0.24764633513553025 0.20592684260241842 0.12770259342450016 0.2502323079467362 -0.008395349152154638 -0.09175311823777674 -0.0017446954712507141
0.101392930125194 0.11482205995709771 0.36626310590135086 0.1349186021515105 0.13188042005651462 -0.17483089282645337 0.11232810999390096 0.09734255999856845
0.3153121829767319 0.12347499416068537 -0.279134552888445 0.18454571772127845 -0.27209863533157225 -0.2353850100341024 -0.1628966846839327 -0.1476096642728408
-0.020598390709749403 0.007585319120860606 -0.10758983614555621 -0.021589357928947908 -0.17487069990153226 0.0607349058812614 -0.4124166632913007 -0.2668362721918817
-0.4718502379280973 0.21142120019775743 0.0131789879786988 -0.20775646507674467 0.3386576391516668 -0.21737851062774025 0.05068691674984146 -0.2650862915514855
-0.5641905195917899 -0.42108577098943234 -0.02947371591197248 -0.07168373416616532 -0.18755674968604455 0.3922991028471053 0.3746448209751145 -0.013974700090113201
0.0034990758477751443 0.1554469217501532 0.01398531221549377 -0.1606562118647732 -0.10909454893717781 -0.021985655915215983 0.2742131153578121 -0.25643397104461046
-0.08681063310729899 -0.2265062887992182 -0.44729698444902877 -0.238840564765647 0.05398263235244742 0.04043652621048311 -0.01670440860918936 0.11914276845622843
00000000: 4592 60ef 539c e53f 2353 e2f5 ee6c d7bf
00000010: e983 4ec8 4105 cd3f 7fe2 31aa 30a1 a73f
00000020: ff61 ddd6 31ec 903f b7c0 a7f7 7fea 9bbf
00000030: e6fd f5be fe43 ccbf 3ce7 178d d5af 8e3f
00000040: b644 0bed 0b58 ddbf 234f 4980 c3cf d3bf
00000050: 8c56 722b c8c7 933f 393a be8e 99b2 d23f
00000060: 4cf9 e0ce e617 b2bf 7244 e36a 306e d4bf
00000070: bb1f d215 c0cd 9dbf 293a b355 c3dc aebf
00000080: baf5 530e 0bfd d23f 7f0b cfc7 7e6e d7bf
00000090: 2e84 7335 e028 d6bf 802e b42b 0854 d03f
000000a0: 858c 81b8 49a7 98bf f94d ec36 f251 913f
000000b0: bb6a 68a4 c8d8 dcbf 7202 2baa 2469 c6bf
000000c0: bd42 3ef0 4a99 e33f 2938 1631 1bdc ba3f
000000d0: abd1 7519 bfe3 da3f ca19 606b 7591 c13f
000000e0: 55b0 b320 89f2 c63f 0684 5b36 b870 db3f
000000f0: 3c72 0517 588d c93f 4549 d929 1ae5 9a3f
00000100: d31c 04ce 0f2b cdbf 673a 614a 09fc cbbf
00000110: 8e44 7f34 1e61 a8bf 4562 76a2 3d07 b3bf
00000120: 2b35 f5f8 3109 d23f 06e2 c3f2 fa42 c03f
00000130: 15c7 1ba8 f755 cfbf 6bb5 7ac1 d43e dcbf
00000140: db5e 9389 4aa1 dbbf eaf3 8a14 8461 b4bf
00000150: 6d11 5292 1243 d1bf 2d09 33a3 ebbb d2bf
00000160: 67e1 224b 0153 c3bf 1d6d 38a5 ced3 c33f
00000170: b03f 0626 9c2a ca3f 4b7d 09b3 aeb0 c0bf
00000180: fa9a 2dad ea8a e43f e262 0c36 188b cdbf
00000190: 0bec bd4f 6830 cb3f b324 e7f7 d1fa be3f
000001a0: 122c 27b3 4870 c1bf eb0c 805a 2914 ccbf
000001b0: 9c38 fead 961d a73f 6c40 58e4 5e82 9cbf
000001c0: 26de 1b56 2dad af3f f1fa 5272 6b29 c83f
000001d0: f688 81b2 4493 d13f 4e97 a139 e502 a03f
000001e0: 8908 9997 7394 c9bf a5da 14f1 274a bbbf
000001f0: 648b 3bf3 3d0f ba3f a90a 8dfd 9fcc abbf
00000200: c051 da2f c1df e1bf 7a0a ba7b 9bb9 b43f
00000210: 2c96 8fe3 9d3f c53f f5fb 23ac 9eef bdbf
00000220: 771b cbc3 2bd2 acbf 8413 8d63 870f 79bf
00000230: 7b6c 9bac 1790 cbbf fc13 6367 1962 c93f
00000240: dcc5 a72e 279c b6bf 1c5c 16ee d8a8 b13f
00000250: 0c80 3723 5e83 c43f 7861 5613 759a 3f3f
00000260: ab73 5060 9468 bf3f e4ad 2327 c369 e03f
00000270: 8b05 194c a10e d33f 1e73 af56 6134 cf3f
00000280: ff3d 7814 66f8 cabf 1620 621d 52da d33f
00000290: b7ae 1021 2623 8d3f 7c1f 44a9 e556 a83f
000002a0: 4c77 cada da36 c03f 671e 02e3 64a5 dc3f
000002b0: 086b c98c 7656 d3bf def8 cd49 49e4 873f
000002c0: 4d4b ce1d fc59 c03f 8809 bb3f e2a9 ca3f
000002d0: 6193 4b5c 8ab4 cf3f b653 bbb0 fda8 cabf
000002e0: fef7 b936 14e5 ce3f 04bc 7d79 e3b0 a43f
000002f0: d4c3 3aaf 7f3a acbf 82a9 ccf0 cf58 6bbf
00000300: 9390 f193 01a9 bdbf 3350 232f 3c7c c3bf
00000310: 940b 5824 2ed4 aa3f 0863 7961 6e7a c33f
00000320: ac07 f4aa 943e d1bf 5baa 9576 f1f3 d7bf
00000330: edc9 9392 736f c53f 7c72 772a 35fb d4bf
00000340: 32cf d74c a797 e7bf 5844 85ca 40b7 c83f
00000350: 7eca e5e5 65f1 bc3f d64d 9fcd 65ed d2bf
00000360: b340 7b7b 345f c6bf fae9 f7cc 9aaf d0bf
00000370: 78d0 2914 cc1f c6bf 3d0a 0c72 5f3c d6bf
00000380: 5fbb 3fad 5630 cf3f 4452 ff72 74d3 823f
00000390: 77f7 94e5 32e3 d63f bb95 6d4d 069b d9bf
000003a0: 7912 0707 35f3 aabf 9886 1abe 7016 c1bf
000003b0: d4a5 ac07 80ee d23f 09b5 964d 5a5e c8bf
000003c0: 18f2 ce53 3f6d dcbf 4eac 6f50 5b83 dbbf
000003d0: d276 f214 1038 d53f a3f1 20a0 9ba5 d23f
000003e0: 64cd 86b1 63cb a7bf 4511 79d7 4f9a 8d3f
000003f0: ca61 816b 3b23 873f 7fff 27b3 6881 8f3f
00000400: 6fe0 601c 7743 873f 60d6 0359 36e9 bd3f
00000410: 600e d85e 758f a4bf 0577 c576 4f3e d5bf
00000420: d141 e169 d712 d03f a101 e765 4a9e c43f
00000430: 0bbe 0afe a61e 8c3f 84db db99 cc96 ce3f
00000440: 01c3 08d9 3718 d03f bf4c 659e b51f d1bf
00000450: 3147 bd2a 10de e03f 228a 4174 759e ae3f
00000460: 952e 21f1 13df bdbf 5187 29dc 4dca a4bf
00000470: acb9 c742 aee9 ca3f a835 9e00 1744 c0bf
00000480: a478 6abb b9e2 c43f 6ce5 7d9f 847a c4bf
00000490: 2255 d99b acc7 d6bf 49c7 0367 9bf4 c4bf
000004a0: de2e a969 2762 babf f557 e1a6 5bf2 c8bf
000004b0: 448f 36e0 6ad7 74bf e0bd 023c 8b03 d53f
000004c0: a06e 6cee a511 cabf f2d7 07a1 3a1d 96bf
000004d0: 8e7a 40f5 3f47 d6bf cbdd e98c c5ef d33f
000004e0: be80 f4f8 b38b b33f 8fa3 020b 3401 a9bf
000004f0: ac53 0738 0358 d43f 5d0a 0c54 84d8 b13f
00000500: 5e55 bcf5 b524 cc3f 55da e6cc 3d16 c33f
00000510: b7e0 6571 ad2e c9bf 68c5 bf79 572a d4bf
00000520: 4b03 5e6b 7fc1 d23f c0b8 27fd 6cdb d1bf
00000530: 946b 2abf 2a64 c53f 5904 a01c 112f 153f
00000540: 7d47 2f24 f6aa cf3f 9085 c4b4 5177 b03f
00000550: 9ddf f7d7 3951 aabf 6c5b ae42 831a b53f
00000560: eef2 db8e dbbe b13f 6037 ed27 3799 cdbf
00000570: a9c3 c35c bed8 b6bf 8239 5e65 265b d1bf
00000580: 436f 1186 59a2 d93f 842f 69ea 6fed a3bf
00000590: 2063 c67f 0e1f dbbf d576 8d57 4028 b6bf
000005a0: b4c1 8b2d a2f8 b7bf f6f2 7c5e 1321 d0bf
000005b0: d1de fd6a fd8e d13f ad77 757e d51f d2bf
000005c0: e6d5 e985 0caa b13f a008 e7f1 de28 dcbf
000005d0: 7fb8 8afc bd70 d33f 19f6 6781 75e3 d23f
000005e0: a62c d02b fad2 b23f c5d4 abf4 8dfd c43f
000005f0: ac61 b89f ed43 b33f a299 e54a 76b2 b83f
00000600: ce00 9657 ca8c d93f 58d0 3007 e0b2 cfbf
00000610: 5347 2c8f cf5b ca3f c7b1 2fff 8e58 c03f
00000620: 512a c25e ce03 d03f 6b44 60b0 9431 81bf
00000630: 4624 23e2 217d b7bf d55e 647f c895 5cbf
00000640: 27ee ee16 e3f4 b93f a005 6080 fa64 bd3f
00000650: d1f8 64cf da70 d73f 576f ee43 0345 c13f
00000660: 7e0f 9025 75e1 c03f 9492 82d3 db60 c6bf
00000670: 4765 d8f6 88c1 bc3f b0e8 b327 71eb b83f
00000680: 6e96 7a26 132e d43f 4d3f cba5 0e9c bf3f
00000690: 9cb9 f52b 57dd d1bf 1368 1daf 319f c73f
000006a0: e542 0265 106a d1bf 4055 0894 1821 cebf
000006b0: 8412 ac6e ccd9 c4bf cf0c 509c dfe4 c2bf
000006c0: d35e cb99 be17 95bf 2072 dc98 c811 7f3f
000006d0: bb8d a0eb 018b bbbf 8462 fc48 851b 96bf
000006e0: f487 8dc0 2962 c6bf e0a7 f844 a518 af3f
000006f0: 5557 4adc 0865 dabf 0bd8 9c71 d813 d1bf
00000700: 2cb4 2057 cb32 debf 5be5 4392 d90f cb3f
00000710: 1532 e7d2 95fd 8a3f 76c2 848b c397 cabf
00000720: 4a9b 2c17 91ac d53f 23ea ff1c 0fd3 cbbf
00000730: 2b21 8db3 a2f3 a93f 2338 357e 2cf7 d0bf
00000740: ff84 cb46 d90d e2bf c679 cdbb 11f3 dabf
00000750: c8eb bb97 5b2e 9ebf 3d1a e67d dd59 b2bf
00000760: ddd6 050d dc01 c8bf 0d9f 3eb2 6d1b d93f
00000770: 8f0c 6d45 2efa d73f 2018 de7e c49e 8cbf
00000780: 7c2a a30a 18aa 6c3f c523 974a afe5 c33f
00000790: e51a b8d4 54a4 8c3f a0e1 edfb 6190 c4bf
000007a0: a567 dbcf 9eed bbbf a93f 8c64 6883 96bf
000007b0: 2626 a62a b58c d13f b114 ce07 6a69 d0bf
000007c0: 4912 24be 3839 b6bf 8890 5d77 28fe ccbf
000007d0: 42b6 f387 83a0 dcbf 3535 50df 5392 cebf
000007e0: 16f2 0291 9ca3 ab3f 2197 46ab 18b4 a43f
000007f0: 6db3 b3e2 f51a 91bf fa0b 13f6 2380 be3f

fc1.bias f8 [256]
-0.09194145812110838 -0.11502962925081404 0.10682303819152592 -0.30557441196345153 -0.05148212053272541 0.07977295465015052 -0.026964233351730742 -0.20302747166298957
0.07136276661272024 -0.08956504297944333 -0.13025415551662053 -0.1359394344353385 0.08999545958083406 0.15688942677448142 -0.353233337667583 0.22747186797974633
-0.3536578300665092 -0.41865786363817004 -0.3376872724269822 0.13486117796016261 0.23969416125697443 -0.04780038884173872 0.2012192690815653 0.22322031940218515
0.03750655180787048 -0.3420946728902882 -0.2601129841293907 -0.09721400176232198 0.24121746172381997 0.0605598090803709 -0.21873746623832613 -0.26246125723288044
0.1170451596443638 -0.1702374607786146 0.14419438895601466 -0.09546625072224692 0.1795737893709188 0.024334696000034434 0.3210346480771339 0.3188459962717455
0.01077574385738318 -0.1818147014778305 -0.03509101773100532 -0.1151190148141124 0.05869897052862276 -0.04058773588032642 -0.36250994425361255 -0.33939559376397105
-0.016052082845376816 0.14999273044508957 -0.24189776819601133 -0.1181334753188099 -0.2036249363203171 0.18307928737767776 -0.2004490532338977 -0.33880656606786735
-0.21930278458157385 -0.3793884970961539 -0.3738055292259609 -0.21341155619778984 -0.49907689110927017 -0.02619879178904055 -0.1925834472676609 -0.3880390736156412
0.3325031585951403 0.14208667462605568 0.05210161949583295 -0.3017201002821834 0.1630386226106027 0.06271923641148983 0.04914399272453256 -0.1961726810171268
-0.07805777066925614 0.10161191725039462 0.01785083261181923 -0.12294509935004105 -0.17141238965432282 -0.12935982293419448 -0.008026225980685173 -0.0316054783486368
-0.13602439944170053 -0.0001391456081670591 -0.03758573285403229 0.18409230017746323 -0.16506314113426243 0.20194008405486846 -0.05283650992197126 -0.23388038915129694
-0.32621820548643227 0.16474980147889212 -0.1301907597887473 -0.3164698603909329 0.19353694819624895 -0.11849944432919222 -0.014680878748871563 -0.10322435978402054
-0.3215954710569279 0.18861012471319635 0.45865872963244547 -0.20776546988101774 0.09394087305123948 0.1335124516491884 -0.07500675910305872 0.021436828141455297
-0.27974552852105655 -0.22953242970476279 0.039521865043788976 -0.07210422522175768 0.08101204011534457 -0.27613916037809033 -0.08384010686887179 0.19532350615610747
-0.4023212776118163 -0.19064204786890773 0.2528206246173267 -0.10256429182882595 0.47865051945940656 0.07743433406739286 0.23574764870876624 0.023468032047376044
-0.36381541873416817 0.38607846951377667 -0.06604538917814747 0.1327939869482961 -0.321837986137969 -0.18303287735866264 -0.03636022280890438 0.28715450007370114
0.08362669538620779 0.07874258840774429 -0.27201135597349374 0.1678089660575437 0.3338177911306202 -0.3696473857273109 0.04425322924684872 -0.2769478428764857
-0.17763685381616548 0.13829684194765812 -0.023015318922726968 -0.14876489869239742 0.12330772877148224 0.07552872997410198 -0.05704968336121872 -0.3075229850155723
-0.3266942487319517 0.2268217884484582 0.22250872305719097 0.039449942070930284 -0.05479765513661159 0.05131175540632002 0.21913530427492758 0.007066864211794077
-0.23291536798749563 -0.28572161108259175 0.17317547813934728 0.05902978504432571 -0.04337367443494201 0.07688711738335482 0.06496605832294304 -0.04498280437829825
0.0828509735604461 -0.13355924906330258 0.28437136751083486 -0.0753947683503774 -0.08295326827491506 0.15227907298702845 -0.2566880509762373 -0.21926341665695018
0.13297659382586732 0.08767861391697519 -0.3284976325479793 0.2637093791678479 -0.286024035666044 0.029671311803337205 -0.24765166070443284 -0.3815856069430841
-0.07044889863002529 0.08147322458846443 0.2170096594784757 -0.2571027198411889 -0.36403606983083947 0.016626305175720005 0.06640045201200805 -0.4171079463753058
0.21693410634577578 -0.09781979621636311 0.07260803611746745 0.07583519898354793 -0.3353377570352813 -0.04784893708890724 -0.2035179545981147 -0.32457990208532295
0.33688676321874383 0.17879631533096438 0.08843334426435304 0.0072859889976161895 0.2831505585109282 -0.05277010742130577 -0.18390982346128668 -0.17188786022679542
-0.06334715265415664 -0.17104801649870668 -0.2797677202225908 -0.12905342991653715 0.22464165856446713 -0.11042894876723429 -0.16331688308406137 -0.024034823935308612
0.16894334912224493 -0.08306866239188256 -0.266216229268979 -0.004950724411314188 0.10285603141432612 -0.17958417440704702 0.15177482329651923 -0.07326379021705644
-0.12892197621388377 -0.3310017473004161 -0.09083047826178456 -0.16429299095111177 0.2989458459821288 -0.2713699019156992 -0.059962691225042816 -0.10937503465014432
-0.2646084632699679 0.23450596572485602 -0.30402178171124034 0.04678238685574693 -0.12437712239860639 -0.23384346466451317 -0.3649475733591015 0.2853041446195104
0.2175860102686583 0.16697902867173955 -0.3752393578040106 0.2027807884084138 0.06470792912602868 0.2025386008306602 -0.08589291282563327 0.22960740317412354
0.28754803867059914 -0.543314132630786 -0.09468108171754537 0.1859109938493587 -0.10315827048549059 -0.09740120424658157 0.00961761395748555 0.22438640611054744
0.3482485144523874 0.0016892427122456402 -0.026486533286017425 -0.3034262621504892 -0.06444883963729929 0.2280778906824308 -0.09316158073509302 0.21831628869568787
00000000: bcd6 c6b3 7989 b7bf 4708 b4ef 9472 bdbf
00000010: 46f1 7d2f c158 bb3f 3b28 78fa 878e d3bf
00000020: 2498 0850 dd5b aabf 56e3 5317 006c b43f
00000030: 6b2c a111 839c 9bbf aeb5 7ddf cdfc c9bf
00000040: 69f3 c08c d444 b23f b727 7612 bced b6bf
00000050: 7755 0e0d 2bac c0bf 5479 91a0 7666 c1bf
00000060: 0d2c b043 f109 b73f aad3 8ae6 f314 c43f
00000070: 8ee8 4800 609b d6bf 42d4 dd54 cc1d cd3f
00000080: f409 8773 54a2 d6bf ba81 225a 4acb dabf
00000090: 715b d613 ab9c d5bf 3462 6b8e 2143 c13f
000000a0: 8d07 d25b 4cae ce3f 6a69 9fe5 4a79 a8bf
000000b0: 68e2 0392 8dc1 c93f a149 d1c1 7b92 cc3f
000000c0: b612 cd0a 0f34 a33f 57c6 0c0e e1e4 d5bf
000000d0: df71 06ee b0a5 d0bf 404f 484e 04e3 b8bf
000000e0: e4f9 a9ba 36e0 ce3f 5886 e7fe b101 af3f
000000f0: 60a6 f3db 96ff cbbf a110 124d 2acc d0bf
00000100: 50e0 d3ec abf6 bd3f e192 4c53 57ca c5bf
00000110: c098 6a34 f674 c23f 194a b9e8 7970 b8bf
00000120: cf8f 4820 46fc c63f 58ba e9cd 31eb 983f
00000130: 3af2 97e8 d48b d43f dea6 9c09 f967 d43f
00000140: 6607 a9db 9711 863f 9bbf 6342 b445 c7bf
00000150: e177 132b 73f7 a1bf f33b c693 7078 bdbf
00000160: 2667 759d ca0d ae3f 460a 736c eac7 a4bf
00000170: b3d1 c2e8 5c33 d7bf 41db e74b a8b8 d5bf
00000180: d70f 6a0b f56f 90bf a51f f337 f632 c33f
00000190: fa49 b08d 81f6 cebf df9e 0ed5 fe3d bebf
000001a0: 09ab 12c5 6110 cabf ac59 ee5f 246f c73f
000001b0: 33ae 1388 50a8 c9bf 939e 3bbc 01af d5bf
000001c0: 418c d917 1d12 ccbf ad6b e0b0 e647 d8bf
000001d0: f2b9 c506 6eec d7bf e09e 3ae3 1151 cbbf
000001e0: 1b3c 6033 e0f0 dfbf 0fee b627 dbd3 9abf
000001f0: 5afd e10b 93a6 c8bf c9f4 afd6 a1d5 d8bf
00000200: abe6 fe53 bb47 d53f caaf 5b6a e52f c23f
00000210: 1542 9b3f 10ad aa3f 1780 d0d2 614f d3bf
00000220: 6a78 0c18 73de c43f 3aaa 372d 5e0e b03f
00000230: e7ec 17c3 6629 a93f 5b29 abb8 2f1c c9bf
00000240: 991e 3914 98fb b3bf ee6b 7915 3d03 ba3f
00000250: 8cb6 1819 7d47 923f 1872 e97c 5479 bfbf
00000260: 34e6 d857 d7f0 c5bf 7d98 75d8 dc8e c0bf
00000270: 925e c7d0 0d70 80bf 5f7f c3df 972e a0bf
00000280: d0b2 875d 3f69 c1bf 126d 44ac f33c 22bf
00000290: 5bfb ceea 6f3e a3bf 4793 5a24 5690 c73f
000002a0: 1f2d 79fc c920 c5bf 0232 6234 2cd9 c93f
000002b0: 699e 4c14 630d abbf 3c50 4ae7 caef cdbf
000002c0: 6123 fb52 c2e0 d4bf 2eea af80 8516 c53f
000002d0: 215c c43f 17aa c0bf 991e 23cd 0a41 d4bf
000002e0: 4e07 8997 d1c5 c83f 0ff1 fcc5 fa55 bebf
000002f0: b4d4 d230 0211 8ebf 8f43 6c61 e96c babf
00000300: 4ecc ae2b 0595 d4bf 6f38 ab66 6024 c83f
00000310: eaf5 f224 aa5a dd3f fc42 3015 0f98 cabf
00000320: 5344 8351 820c b83f f294 b89e ef16 c13f
00000330: 3d9b 5399 a433 b3bf dca9 302f 89f3 953f
00000340: a3cf 0cca 59e7 d1bf 3208 7a93 5161 cdbf
00000350: 6214 aebb 353c a43f 231a 3b29 6c75 b2bf
00000360: 58ad e07e 34bd b43f c500 be95 43ac d1bf
00000370: 994e 1895 8b76 b5bf 034f 8a53 5c00 c93f
00000380: d7f8 74be a1bf d9bf 4972 6b68 f566 c8bf
00000390: e215 9f8e 362e d03f b667 2447 a741 babf
000003a0: f7a8 d2c9 35a2 de3f 9030 688c bcd2 b33f
000003b0: f211 a89c fa2c ce3f 6770 94f8 0008 983f
000003c0: 639a 4f77 c048 d7bf 0017 1078 82b5 d83f
000003d0: 455d 92c2 59e8 b0bf 6731 86b3 64ff c03f
000003e0: 50ad 445a fe98 d4bf f692 2c0f 9f6d c7bf
000003f0: 3fd5 ad9f ce9d a2bf 46cf ad44 bd60 d23f
00000400: f69d c121 8f68 b53f 987e 036a 7928 b43f
00000410: 47fe 8251 a268 d1bf 30ab 98a2 c37a c53f
00000420: 7da7 ee4b 455d d53f 6d0b 3082 4da8 d7bf
00000430: 2118 b7f8 5ba8 a63f 4f8b f671 83b9 d1bf
00000440: b135 daee cdbc c6bf 2c13 a7fe b5b3 c13f
00000450: 930b 52e8 5391 97bf d59a 566b ba0a c3bf
00000460: dae4 6a66 1891 bf3f c8ad 25d1 d955 b33f
00000470: ad32 91b8 9d35 adbf 6840 dae2 74ae d3bf
00000480: d714 86fe 8ee8 d4bf 8f03 b411 7f08 cd3f
00000490: 517c 4d74 2a7b cc3f a927 0c66 c832 a43f
000004a0: 9d20 6b31 700e acbf 9cb1 bdce 8845 aa3f
000004b0: e141 a12a a00c cc3f b381 ccea 24f2 7c3f
000004c0: 1afd 1eb8 2bd0 cdbf e80c d74b 4349 d2bf
000004d0: bff0 8933 9d2a c63f 38b5 82e8 2639 ae3f
000004e0: c12d 6902 1335 a6bf 462d a5c6 dfae b33f
000004f0: 83d9 d897 9da1 b03f fdd2 5f73 fc07 a7bf
00000500: be45 e2ad b835 b53f e610 672f 7818 c1bf
00000510: 692e d8f6 2333 d23f c8b7 5a50 124d b3bf
00000520: 844a 56e6 6c3c b5bf 0f18 2c73 e17d c33f
00000530: 05e2 0db8 936d d0bf f51a e0d9 d210 ccbf
00000540: 2fcb ce84 6005 c13f 31ff 540b 1b72 b63f
00000550: 07d9 26ef 1a06 d5bf e328 cb4d 9de0 d03f
00000560: e58e c3c1 374e d2bf cf8b 4c07 2862 9e3f
00000570: c247 c3b3 0cb3 cfbf 8878 9c09 e66b d8bf
00000580: bcb9 a763 f008 b2bf 126c 1be3 6ddb b43f
00000590: ab25 30f7 f8c6 cb3f 3d8e 5bf7 5e74 d0bf
000005a0: 9238 9ff1 5d4c d7bf 31a0 ee73 7c06 913f
000005b0: ffc8 d4b9 9eff b03f b05a 2587 e5b1 dabf
000005c0: 1b30 122e 7fc4 cb3f ec91 a6d9 b70a b9bf
000005d0: 9f22 8db4 7096 b23f 1e1e 8583 ef69 b33f
000005e0: 5b27 e57e 2c76 d5bf 9ef3 e3e7 a77f a8bf
000005f0: 57e8 9257 e00c cabf 524d 19c8 eac5 d4bf
00000600: 0db5 9e7f 8d8f d53f 27f3 7e33 cce2 c63f
00000610: 32c6 7d51 91a3 b63f cea1 6bc7 e9d7 7d3f
00000620: 3082 2985 231f d23f b76d 29fb ae04 abbf
00000630: 43f5 966a 5b8a c7bf de72 20e1 6b00 c6bf
00000640: 1cbf f1dc 8437 b0bf af2c 74c2 e6e4 c5bf
00000650: c447 35de b6e7 d1bf c9cd 76a2 d284 c0bf
00000660: 4342 6dd0 0ec1 cc3f 7fa7 7c53 1245 bcbf
00000670: 8d87 dd4f 91e7 c4bf d6ae 11bb 959c 98bf
00000680: 0faa ad87 ef9f c53f 7dac 4be4 fc43 b5bf
00000690: 21fb 97cb af09 d1bf 9878 02f7 3547 74bf
000006a0: f2f1 1edb c554 ba3f f98c fa3d 9dfc c6bf
000006b0: d715 357f 5b6d c33f 5998 f66e 6ac1 b2bf
000006c0: 5783 c9eb 8380 c0bf c4be e4f3 212f d5bf
000006d0: 8e49 9d8d aa40 b7bf 1a6c 8c7f 8d07 c5bf
000006e0: c42b f1c1 ed21 d33f 9c2f 76dd 1f5e d1bf
000006f0: 5e5a 950b 6eb3 aebf 913c d294 0000 bcbf
00000700: 2c51 ff55 58ef d0bf dfa8 c09e 4a04 ce3f
00000710: e12b 6ec6 1775 d3bf 8804 266b dcf3 a73f
00000720: 2596 12d9 2dd7 bfbf 7a07 8f28 95ee cdbf
00000730: e13d 1511 4d5b d7bf 9575 a350 6c42 d23f
00000740: 93e3 15bf dbd9 cb3f eda8 a19d 915f c53f
00000750: 592d 7cf0 eb03 d8bf 5e51 3c8b b8f4 c93f
00000760: b45f 63e7 b290 b03f 7765 5fed c8ec c93f
00000770: 8855 8bf3 13fd b5bf 50b3 c67f c663 cd3f
00000780: 6da0 87e3 2f67 d23f 9852 e351 d462 e1bf
00000790: cdd9 86f5 043d b8bf 9361 4673 eecb c73f
000007a0: 040f 0c96 9468 babf 6580 d40a 49ef b8bf
000007b0: 9aba 4d4b 66b2 833f 12b5 f499 b1b8 cc3f
000007c0: 9307 1d23 b449 d63f 2aff 0f8d 32ad 5b3f
000007d0: 14cf fd28 491f 9bbf 96c4 2bfc 556b d3bf
000007e0: 9fe1 811a b87f b0bf 61fa b504 a831 cd3f
000007f0: 353a 80f6 6fd9 b7bf cce7 10c4 c9f1 cb3f

fc21.weight f8 [64, 256]
-0.0616206192708484 -0.02247657717699247 0.04793095537546074 -0.018790419904683445 0.045738458410893544 -0.020826210051731013 -0.052131140238997196 0.05420592990136382
-0.008365526412800264 -0.033843691616747995 -0.05001734432419926 0.02524948370796845 0.007232543413475286 -0.0009616070327021448 -0.011736377559865414 -0.03940654554005094
0.012279031256818371 -0.011421800004896098 0.021160609244011006 -0.03718125947991434 -0.03045287165336791 -0.06704144941666154 -0.012003427711196623 -0.0036762923252659594
0.00016668298128647013 0.0077086073457767555 -0.06826259668974739 -0.08706656986447518 0.013022607556263333 -0.029674450678298003 0.03489651273188062 0.030828049670327786
-0.02205258827415858 -0.006871965510169597 -0.06813140537851364 -0.04659471623135642 0.04169130578162926 -0.022109780309586827 0.051573385237792 0.04004875256770708
0.047215271000638694 0.008519946629212833 0.042170193117589225 -0.0498695802085747 -0.043116489078515126 -0.07027789647860305 -0.06094335410884115 -0.05563383762038033
-0.05115816951677622 -0.013909977029637723 -0.028722343183224495 0.028547859237941616 -0.06715273980407642 0.04812086571043019 -0.04073347425830279 -0.06297094642688857
-0.08557611688136671 0.008872063023055266 -0.02026770978863407 0.06423396842761749 -0.021283809546795117 -0.04309794347630334 0.04607788493618909 -0.03797220278055485
-0.029639798117573387 -0.07198899532159023 -0.0180946987860612 -0.018409994685738708 0.010536931402649719 -0.023728382222401638 0.017091835919414343 -0.021091033690132904
0.020951115020686344 0.05080420068049237 0.015140846423205567 0.007457824480177631 -0.04297477729982937 -0.04764249733429064 -0.08829799524335309 0.03132129665951987
0.04273666095793771 0.017939496983994226 -0.053942007685311495 -0.01197048378876782 0.02353376891533021 0.08880901752514096 -0.03416634581277331 0.02403213735925674
-0.045958208756030065 0.022706407237227545 0.008405139971900443 0.022584879667396446 0.019276792561658814 -0.0717933117402279 0.055668348103872854 -0.0012543369247437128
0.03385120077752884 -0.08162931606481451 0.03394040980024282 0.0560325166782416 -0.06624916002498273 0.02431931931036599 0.04139150117388061 0.0061652021177582865
0.021652288918232013 -0.042156843351987834 -0.04329874673218963 -0.0348146404614145 -0.0606369340319952 0.007175054691795613 0.04163440943719557 0.043757589059011545
0.0056310654274532145 0.057629258477880974 -0.029635090523832577 -0.056283365598768224 0.029734869152561606 -0.04114606816832962 -0.006266098479904267 -0.011626792857033493
-0.005280079184414683 0.016268593365039986 0.015398025472794572 -0.04963724507706642 0.004363332947806203 0.009755982920012701 -0.054939712257476146 -0.04567476290413891
0.06194158457550983 0.017895752753890094 0.005716422380296367 -0.03034127377654863 0.013909574985839725 -0.029713364747147128 -0.024572951422195927 -0.020635145609624213
0.005967126720778761 -0.04120775872095995 0.007495176412419074 -0.029827780535755098 -0.06463290068039221 -0.05494486673394575 0.04307579818705104 -0.06786025075835486
0.01771203854420478 -0.01730275761230819 -0.01660349189714935 -0.032145872103257936 -0.06625269278853137 0.05129394313939312 0.02758698952601353 0.06308613925046523
0.03296401046474899 0.030575324700299084 -0.025996054012903003 -0.04597073071080892 0.06030159607603495 0.044437686940413744 0.04256392967201489 0.02348381606988913
-0.04572191241597273 0.0038532009066425048 -0.008064016210784232 -0.05687774000114443 -0.0009230704670546367 -0.002439664630123483 -0.04047297808211477 -0.01641410044542502
-0.007188038226695527 0.02443769724372742 -0.06774861012987206 -0.047254168792520646 -0.059730859881004184 -0.05491265825466085 -0.01846001096624773 -0.011100956323565706
-0.0421047122503758 0.04926852705321149 -0.07425374310207841 -0.038742205895704096 -0.03780246845633006 -0.04062174977421834 -0.07847915676873558 -0.05929649331526535
-0.015611729635740586 0.017576798845504407 -0.02265677202592094 0.03836411782258303 0.022275325827612845 0.009707374442784059 -0.05557557698975247 -0.039684398925540244
0.024908079424314614 -0.02468545139761079 -0.00010938417875030642 0.007488631216794156 -0.06754418001835229 -0.02941291701136572 -0.008257392859529063 -0.047677048667830534
-0.02101018913404762 -0.03788766551828077 0.0361165241861458 -0.007835009242205242 -0.03709815273945634 -0.04617103677091634 -0.06902387079713251 0.006764561254697435
0.00042607734845232523 0.02482704586808329 -0.05738564497537713 -0.020102921546284697 -0.07277106852992124 -0.06600114689780183 -0.0207103786056591 -0.004681377002355925
-0.0323472916564383 -0.06683925649527252 -0.025503303324025627 -0.06695705823916422 -0.010990418538319852 0.021872616413885767 0.021158816428912163 -0.04975773849284761
-0.049093505452709234 -0.07850231776610538 -0.015541601641279507 -0.047851865498567195 -0.05453848109357387 0.015150964561795023 0.014127981090194246 -0.043832319393204255
-0.038063025901505995 0.03594912962739635 0.08168814603212864 0.03225093223268264 0.03721912163688671 -0.014518108207879937 0.007245796414676132 -0.02637384334813966
0.045926231455974215 -0.044073797345684645 -0.05331613224275295 0.022594129805381134 -0.025468293676310868 -0.0065135007277611024 -0.05529584435212234 -0.022490032961176562
-0.07008136469566108 0.01878465819464896 -0.004607750242586697 0.007689306698243341 0.011700988175076555 -0.05178062951636576 -0.04625729197122955 0.004086857496368497
00000000: 821c 0ee1 bc8c afbf dfd4 9a8f 1904 97bf
00000010: 9c76 9bfb 678a a83f e1f8 dfbb cb3d 93bf
00000020: 23a7 16fe 076b a73f de88 494c 7753 95bf
00000030: 5bff dbcc eeb0 aabf aaeb 5930 e1c0 ab3f
00000040: a8ba daf2 f121 81bf 88f5 56d9 f553 a1bf
00000050: b3dd 3594 df9b a9bf 0802 112b 00db 993f
00000060: 3c2c d816 df9f 7d3f d251 e760 8b82 4fbf
00000070: aa54 58ee 3d09 88bf 7d8a af40 182d a4bf
00000080: f292 65ad bf25 893f 331f dc0b 5064 87bf
00000090: 2975 aa72 20ab 953f 7e0b fb0a 6c09 a3bf
000000a0: 5131 489f 092f 9fbf 6e93 b8e0 a029 b1bf
000000b0: e608 adcb 4095 88bf 9479 d769 be1d 6ebf
000000c0: 0258 27e8 f3d8 253f aa41 2a87 0f93 7f3f
000000d0: 8d8f 5254 a879 b1bf db8f 24a6 fe49 b6bf
000000e0: e099 80cc 98ab 8a3f c39d c2ac fa62 9ebf
000000f0: 6b12 dba9 f4dd a13f d7b9 8864 6391 9f3f
00000100: e3f9 b725 f494 96bf b3b6 0132 c725 7cbf
00000110: 6465 ee4d 0f71 b1bf 5999 c23c 43db a7bf
00000120: de21 b815 9058 a53f b1da 673d f2a3 96bf
00000130: 6372 e1a5 d367 aa3f 5a3c 0c25 4581 a43f
00000140: 2d98 a399 992c a83f b7cd 16e1 e772 813f
00000150: 96b2 9ce0 5497 a53f 8345 1f70 8188 a9bf
00000160: 9968 054d 5d13 a6bf b0dc 0173 bbfd b1bf
00000170: a6ae 9ca1 f733 afbf f1d1 42d2 097c acbf
00000180: c2dc fe51 6731 aabf 4e78 7183 d57c 8cbf
00000190: 56b6 8bd2 6369 9dbf cfea 3067 a63b 9d3f
000001a0: 2799 4b05 ec30 b1bf e387 f650 4ca3 a83f
000001b0: c46f 9597 04db a4bf 6d6c 802b dd1e b0bf
000001c0: 12fb 52ff 50e8 b5bf a0af 4124 842b 823f
000001d0: 70f8 d3fa 0ec1 94bf a55c b029 a371 b03f
000001e0: c648 c047 6ccb 95bf 4ddb 8203 ef10 a6bf
000001f0: 3954 bd41 8597 a73f f8f9 32b2 1771 a3bf
00000200: 0fd2 4c2e e559 9ebf 2200 94ec de6d b2bf
00000210: a683 11ae 6a87 92bf 6a0e 61d4 11da 92bf
00000220: e054 32fe 6294 853f 2e60 87c6 404c 98bf
00000230: 06be 35b1 8580 913f 4877 c04f e398 95bf
00000240: db77 5087 3574 953f 2b22 d818 0203 aa3f
00000250: 407b c501 2a02 8f3f 8be2 dd83 188c 7e3f
00000260: 337e 1c3e ca00 a6bf e6ad e6ef 9864 a8bf
00000270: 6d60 df89 b29a b6bf ce53 a451 5809 a03f
00000280: 7025 4f62 94e1 a53f a26a 6943 bb5e 923f
00000290: 292a c76d 499e abbf a9d5 1e23 fb83 88bf
000002a0: 2032 5f7f 3c19 983f 4b41 dc11 30bc b63f
000002b0: 2c85 c753 407e a1bf 4f40 0b70 e19b 983f
000002c0: 0f06 2e97 d587 a7bf 2d65 f931 5940 973f
000002d0: d983 61ca b636 813f 88e5 389e 7d20 973f
000002e0: 3f14 7fa6 4bbd 933f 84ed fee5 0b61 b2bf
000002f0: 9b94 0ecd 8f80 ac3f 5be3 7904 128d 54bf
00000300: 5725 8ad0 f154 a13f 71aa e4aa a8e5 b4bf
00000310: f0b2 352c a360 a13f ff8e 4a45 4bb0 ac3f
00000320: 89dc b177 b4f5 b0bf 1861 65e4 29e7 983f
00000330: 4592 bf4f 4431 a53f 0308 81d7 ae40 793f
00000340: 013f 2683 042c 963f 19af ffee 9495 a5bf
00000350: 5657 58da 402b a6bf 0455 687c 39d3 a1bf
00000360: deba 31e1 cd0b afbf a7ed f813 9763 7d3f
00000370: 1491 d7f5 1a51 a53f 76a7 eb0b 6567 a63f
00000380: 2e09 a49d 9910 773f d813 e908 9581 ad3f
00000390: d497 7442 a958 9ebf 3f6d 1c5d 2cd1 acbf
000003a0: ba8e 3e4a d172 9e3f 4aaf 48f2 1811 a5bf
000003b0: b01b b700 7baa 79bf fe68 a0b8 c9cf 87bf
000003c0: ae78 ad76 90a0 75bf 0daf d1d1 b6a8 903f
000003d0: 8507 a1fe ff88 8f3f ca00 8a90 0d6a a9bf
000003e0: 6c89 ff44 49df 713f 1081 a7dc f1fa 833f
000003f0: 7b86 cbd6 0e21 acbf 7806 dab9 ae62 a7bf
00000400: 8449 07b0 ceb6 af3f 7dd3 42a3 4353 923f
00000410: 15a3 c672 1a6a 773f a766 5b6a c811 9fbf
00000420: e1d2 528d 9f7c 8c3f dc59 5f27 2e6d 9ebf
00000430: b8ea e5da a629 99bf e287 2a2e 6121 95bf
00000440: c28b de61 fc70 783f 1191 18f0 2e19 a5bf
00000450: acfe 1a19 43b3 7e3f e640 a777 2c8b 9ebf
00000460: 8afb aa22 c88b b0bf f526 69cb bb21 acbf
00000470: 38ca ecf0 070e a63f 369b b415 4a5f b1bf
00000480: 21e1 2bc9 1a23 923f 4b4a 4d68 d0b7 91bf
00000490: b766 ca7a 8100 91bf 8210 c57a 6c75 a0bf
000004a0: 1d76 ccbc eff5 b0bf c87c 8820 3343 aa3f
000004b0: 14bf 3c87 c33f 9c3f e761 e9c8 6926 b03f
000004c0: 163e c8a5 a8e0 a03f b805 9c4e 234f 9f3f
000004d0: 50eb 3da7 b59e 9abf 8fc9 f3c1 7989 a7bf
000004e0: a51a 16ce d9df ae3f c3e8 3c58 89c0 a63f
000004f0: c870 dc7b f0ca a53f 7d95 0538 240c 983f
00000500: 2809 13cd dc68 a7bf af55 207c bf90 6f3f
00000510: c1a6 32ef dd83 80bf c0c1 5942 141f adbf
00000520: c63f e4bb 463f 4ebf 323a 96f9 58fc 63bf
00000530: 4b04 78ca dfb8 a4bf 81e9 6ca2 dbce 90bf
00000540: db66 b251 3471 7dbf f430 ce19 3206 993f
00000550: 0d75 db10 f957 b1bf 5088 20cb b231 a8bf
00000560: 3872 8013 0b95 aebf c02d ae0e 831d acbf
00000570: 230c 895d 2ee7 92bf 558d e922 19bc 86bf
00000580: cde6 3eb4 bf8e a5bf 0fce d470 b939 a93f
00000590: 8ea0 3a16 4b02 b3bf 8009 98b6 04d6 a3bf
000005a0: a0bd 745b d85a a3bf 68b8 92bd 5fcc a4bf
000005b0: c547 bdc3 3517 b4bf c4f3 1c27 1c5c aebf
000005c0: 1e89 c1e1 0af9 8fbf f4d8 d600 a7ff 913f
000005d0: f57a 893b 5633 97bf d898 c62e 76a4 a33f
000005e0: 66d6 bfcf 57cf 963f 1522 18be 75e1 833f
000005f0: b12f 41eb 6674 acbf a5dd 1777 8351 a4bf
00000600: 8168 22ea 8081 993f 1c4a c299 2447 99bf
00000610: e506 b9e1 a5ac 1cbf 3add af22 66ac 7e3f
00000620: 11c6 364c 934a b1bf 7f3a 9372 6b1e 9ebf
00000630: 7155 4182 40e9 80bf d3a4 9849 2069 a8bf
00000640: 20a2 daec b183 95bf 6946 a518 0366 a3bf
00000650: 770a 7374 dd7d a23f f64b ac23 cd0b 80bf
00000660: aa15 8471 87fe a2bf 0a31 e8e9 baa3 a7bf
00000670: 348e b763 8cab b1bf 437c c515 28b5 7b3f
00000680: 6a8e f446 64ec 3b3f 8824 3dd8 426c 993f
00000690: 81b4 dbb8 a661 adbf 85a2 613a dc95 94bf
000006a0: 2255 6eef 1fa1 b2bf 5baf 6c7f 73e5 b0bf
000006b0: 0e43 32fb 1935 95bf f47e 0192 c72c 73bf
000006c0: 89a1 8eff d28f a0bf 6574 bca4 601c b1bf
000006d0: a3db ddb6 891d 9abf c9a2 5f07 1924 b1bf
000006e0: 8a0f 8801 2582 86bf 6fce b370 c665 963f
000006f0: 6344 5622 a8aa 953f 6372 19a7 d879 a9bf
00000700: 9713 bbb0 c822 a9bf 0733 7757 ba18 b4bf
00000710: 8acb 3676 46d4 8fbf 4ae5 bc2a 0a80 a8bf
00000720: 8440 57c1 77ec abbf d4b9 5d0a 7807 8f3f
00000730: 1c58 ed85 21ef 8c3f 6870 9a94 3071 a6bf
00000740: fe16 de36 ff7c a3bf 7c7f 23a0 ec67 a23f
00000750: 13ca adab 83e9 b43f 95e6 68b6 3183 a03f
00000760: 85bb 6e7c 620e a33f 50fe 9e7f abbb 8dbf
00000770: e7f1 26aa c4ad 7d3f 67b0 99aa be01 9bbf
00000780: 148d 439c a483 a73f 84a5 6b3c d790 a6bf
00000790: 49e6 a988 404c abbf c6fc 6162 ea22 973f
000007a0: ffde b241 5c14 9abf 5b36 bb89 e6ad 7abf
000007b0: 64b3 31a6 bc4f acbf 3c84 3790 a007 97bf
000007c0: 314a 6d31 daf0 b1bf cc41 7312 493c 933f
000007d0: c3c9 9989 93df 72bf 2b12 c48c d27e 7f3f
000007e0: adba 570c b0f6 873f 519c ad9c fd82 aabf
000007f0: b497 6f28 09af a7bf 7b21 a574 61bd 703f

fc21.bias f8 [64]
0.021828989447372372 -0.014243708383041159 -0.024473730779685347 0.005665161497050447 0.09743694729670582 -0.04453851567381236 0.04808479893188966 0.03603686288749261
0.010564657101577477 0.004746700776799265 0.03374557484628608 0.0027400261796982775 0.05110243951938811 0.007790563314099554 -0.01441936523497457 -0.07386105701006353
-0.0019818654989179458 0.04782353629263396 -0.011815346524795657 0.04436153148430774 -0.01855197866740569 0.012169891484331436 -0.06034392782867204 0.045980149803163894
-0.043327223743595655 -0.06324426761230369 0.08421361483485434 -0.06072886191380229 -0.009317613787029702 -0.026813042576261072 0.08835522954113173 0.06481206578912803
-0.03364604239034864 0.010962176013072584 -0.03379543489042757 -0.07433595066210823 -0.10126729406903112 -0.013175114244062093 -0.022096010281751073 -0.040150900925153846
0.10035996141704227 0.03687981036557882 0.08629019626039214 0.11887674332957984 0.03781045368091921 0.00885052995885899 0.01823450816977832 0.06188503377875566
-0.033752940595149994 0.09057490518244679 -0.01407935702314199 -0.04728592962603853 0.012377420877436384 0.06721710819290193 -0.012742591923865025 0.04225666772352093
0.013992328445228259 -0.017202124346922483 -0.05666486382281616 -0.01188854263410023 0.03971777034855035 0.0647358993366701 0.05552018531739616 -0.05328939388550348
00000000: 2df1 1faf 565a 963f 166f 6e2d ce2b 8dbf
00000010: 314b 3d45 a40f 99bf 13c6 b335 5a34 773f
00000020: b0b9 0fb6 a0f1 b83f 0b7b 7698 c0cd a6bf
00000030: 70c4 b11d 929e a83f 2cbc 1a77 6c73 a23f
00000040: b234 f545 eca2 853f 6aa0 9ac9 4671 733f
00000050: 26f4 b298 1947 a13f 22a5 9f5a 4072 663f
00000060: f392 f654 192a aa3f 0271 6c6a ffe8 7f3f
00000070: 4707 e870 e687 8dbf 1164 4ee8 8ee8 b2bf
00000080: 9bf2 17f0 453c 60bf b63c b698 537c a83f
00000090: 81b9 51f7 a432 88bf 1ce5 d9fd 8db6 a63f
000000a0: 6a42 9c36 4aff 92bf 375b 5e2f 87ec 883f
000000b0: f099 1239 66e5 aebf 10ec 56cf b58a a73f
000000c0: f0ab 0262 fc2e a6bf ade7 0dbd c630 b0bf
000000d0: c8f8 9701 068f b53f 4aa8 af77 da17 afbf
000000e0: 95b8 eff3 1c15 83bf a79b e2d3 e074 9bbf
000000f0: b84a 4fc5 729e b63f 5154 f306 8697 b03f
00000100: 42aa 69d7 0d3a a1bf bdcd c05b 5673 863f
00000110: 2f8b 379f a24d a1bf 63c5 024d ae07 b3bf
00000120: b04f 2e44 a7ec b9bf e1fc 64e6 8dfb 8abf
00000130: 32f9 2026 56a0 96bf 12c7 c1ac a88e a4bf
00000140: 4f30 1dc0 30b1 b93f 6b41 ce16 e9e1 a23f
00000150: d05f e742 1d17 b63f 1e04 dbcc b46e be3f
00000160: 2550 034c e45b a33f 61f6 cd05 3a20 823f
00000170: 7aca fd20 11ac 923f d21a 6228 65af af3f
00000180: 0000 00c0 1048 a1bf 16cf 98bf ea2f b73f
00000190: 396f b44f a3d5 8cbf d40d 9c82 dc35 a8bf
000001a0: 26f3 044f 5559 893f b792 6bf1 2335 b13f
000001b0: 695a a2bc c918 8abf f727 d27b aaa2 a53f
000001c0: ca83 8988 02a8 8c3f 428f f705 6f9d 91bf
000001d0: 580f e751 2d03 adbf 0708 7c2e 0559 88bf
000001e0: c922 6f39 e355 a43f 9634 872a 8892 b03f
000001f0: c782 6948 246d ac3f 227e ec57 bf48 abbf

fc22.weight f8 [64, 256]
0.0413205623626709 0.008460335433483124 -0.020893394947052002 0.042576007544994354 0.012795761227607727 -0.004170507192611694 -0.03975523263216019 -0.030187495052814484
0.010017521679401398 -0.05821964889764786 -0.03363537788391113 0.03899110108613968 0.05494043976068497 -0.05813854932785034 0.01682041585445404 0.018665455281734467
-0.027360178530216217 -0.05880077928304672 -0.05857287347316742 -0.048486918210983276 0.03272661566734314 0.03631536662578583 -0.011259913444519043 0.06117590516805649
0.05427650362253189 -0.03946242481470108 -0.05675447732210159 -0.0074370503425598145 -0.043845199048519135 -0.02406778186559677 -0.04453378915786743 -0.015826866030693054
0.037679076194763184 -0.027614042162895203 -0.05720125883817673 -0.06134141981601715 0.00292060524225235 -0.05250924825668335 0.008033089339733124 -0.0488610714673996
0.01857045292854309 0.03051961213350296 0.03338804841041565 0.006929054856300354 -0.03392166644334793 -0.03966736048460007 -0.02560039609670639 0.06116749346256256
0.00222005695104599 -0.04639739543199539 0.0007588565349578857 -0.050040602684020996 -0.054772548377513885 0.024255283176898956 -0.023406244814395905 -0.02274385839700699
-0.022513896226882935 0.05136527121067047 0.024113938212394714 0.056523777544498444 -0.027449458837509155 -0.0019059628248214722 0.021918028593063354 -0.01591602712869644
-0.0027361437678337097 0.032344751060009 0.061870940029621124 -0.018355369567871094 0.03172088414430618 0.05717778205871582 -0.03724895417690277 0.05401931703090668
0.02578055113554001 -0.010714657604694366 -0.05312373489141464 -0.02083912491798401 0.0417780801653862 0.0069155022501945496 -0.058690644800662994 0.040294550359249115
-0.03336672484874725 0.005457043647766113 0.02542087435722351 -0.0157829150557518 0.01987290382385254 -0.0540943443775177 -0.011390872299671173 0.04716314375400543
0.0006835386157035828 -0.05130942910909653 0.007449142634868622 0.05661116540431976 -0.02870393544435501 0.015871696174144745 -0.011244609951972961 0.01808042824268341
-0.016375452280044556 0.02882777899503708 0.01645238697528839 -0.026106655597686768 0.04157169908285141 -0.03910255432128906 -0.023157142102718353 -0.05459819734096527
-0.05412440001964569 0.042520999908447266 -0.05058141052722931 -0.008305497467517853 0.02479548007249832 0.009184211492538452 0.022955581545829773 -0.003548920154571533
0.004147514700889587 -0.04958883672952652 0.05268262326717377 -0.049160003662109375 0.03106953203678131 0.046480029821395874 -0.050299711525440216 0.028929129242897034
0.004134312272071838 -0.014078803360462189 0.014306537806987762 0.05341394990682602 -0.009126059710979462 0.009410247206687927 -0.0002493858337402344 -0.03665674477815628
-0.02349431812763214 0.05867169052362442 -0.021070823073387146 0.00833844393491745 -0.0014374330639839172 -0.003450065851211548 0.0034133195877075195 -0.04696650058031082
-0.015378452837467194 -0.0586199089884758 -0.05181926488876343 -0.06150566786527634 -0.05372348427772522 0.047483526170253754 0.00825008749961853 -0.005863852798938751
-0.013959862291812897 -0.04617723822593689 0.04306007921695709 0.025234952569007874 -0.006370455026626587 -0.03990890085697174 0.061380378901958466 -0.0077842846512794495
-0.03177889436483383 0.017646342515945435 0.0007991641759872437 0.008053101599216461 0.00687195360660553 -0.01308482140302658 -0.03192939609289169 0.008992873132228851
-0.057129353284835815 -0.03338063508272171 -0.021091528236865997 0.0036346539855003357 0.004764385521411896 -0.029519349336624146 -0.028951339423656464 -0.04124631732702255
0.012216351926326752 0.0104793980717659 -0.044103577733039856 -0.04583306610584259 -0.007340334355831146 -0.044049300253391266 0.03237784653902054 0.02419411391019821
-0.020976059138774872 -0.00859888643026352 -0.00660618394613266 -0.047511741518974304 0.02335973083972931 -0.04638991504907608 -0.05851021409034729 0.051366619765758514
-0.02708449959754944 0.009296931326389313 0.050050221383571625 0.03769764304161072 -0.020704232156276703 0.03637438267469406 -0.043555617332458496 -0.06058066338300705
-0.02722828835248947 -0.011974386870861053 -0.024310745298862457 -0.025524869561195374 -0.04449214041233063 0.023709140717983246 0.05488981306552887 0.00048567354679107666
-0.06062006950378418 -0.015188150107860565 0.052364714443683624 -0.006114840507507324 0.029246166348457336 -0.0013305321335792542 0.014738969504833221 0.00020807981491088867
0.015542149543762207 0.051992274820804596 -0.03669492155313492 -0.040410444140434265 0.017464078962802887 -0.029624976217746735 -0.009965933859348297 0.030096888542175293
0.006559588015079498 -0.01147063821554184 0.03453630208969116 0.012113377451896667 0.02021373063325882 0.05127613991498947 0.02776021510362625 -0.04040873795747757
-0.03682930767536163 -0.03330656886100769 -0.03754190355539322 0.0021530985832214355 0.0015471279621124268 -0.06096426397562027 -0.0028872042894363403 -0.04055575281381607
-0.019929200410842896 0.024591736495494843 0.019015178084373474 0.0005115941166877747 0.03253714740276337 -0.05622095614671707 -0.037912048399448395 -0.051745474338531494
0.0006033331155776978 -0.04167135804891586 0.029863640666007996 -0.06027042120695114 -0.022848278284072876 -0.055829472839832306 0.0008894279599189758 -0.028070613741874695
-0.05494197458028793 -0.04455094784498215 0.021542690694332123 0.0046489909291267395 -0.0029208511114120483 -0.027646787464618683 -0.023159921169281006 -0.055893220007419586
00000000: 0000 0000 f827 a53f 0000 0000 a753 813f
00000010: 0000 0000 1465 95bf 0000 00c0 85cc a53f
00000020: 0000 0000 aa34 8a3f 0000 0000 1815 71bf
00000030: 0000 0040 cc5a a4bf 0000 0080 78e9 9ebf
00000040: 0000 0000 1184 843f 0000 0040 f7ce adbf
00000050: 0000 0000 a838 a1bf 0000 0040 a4f6 a33f
00000060: 0000 0040 2721 ac3f 0000 0000 56c4 adbf
00000070: 0000 0000 5f39 913f 0000 0080 091d 933f
00000080: 0000 0080 4e04 9cbf 0000 00c0 221b aebf
00000090: 0000 0080 43fd adbf 0000 0000 47d3 a8bf
000000a0: 0000 0000 8bc1 a03f 0000 0080 ed97 a23f
000000b0: 0000 0000 700f 87bf 0000 00c0 7252 af3f
000000c0: 0000 0040 21ca ab3f 0000 0040 6b34 a4bf
000000d0: 0000 0040 ec0e adbf 0000 0000 5076 7ebf
000000e0: 0000 00c0 e072 a6bf 0000 0080 39a5 98bf
000000f0: 0000 0000 22cd a6bf 0000 0000 eb34 90bf
00000100: 0000 0000 ac4a a33f 0000 0000 db46 9cbf
00000110: 0000 00c0 7b49 adbf 0000 0080 2468 afbf
00000120: 0000 0000 f4ec 673f 0000 0000 7ee2 aabf
00000130: 0000 0000 a773 803f 0000 0080 5104 a9bf
00000140: 0000 0000 2204 933f 0000 0080 8840 9f3f
00000150: 0000 0000 3d18 a13f 0000 0000 a461 7c3f
00000160: 0000 0040 2e5e a1bf 0000 00c0 474f a4bf
00000170: 0000 0080 fd36 9abf 0000 0080 5851 af3f
00000180: 0000 0000 cc2f 623f 0000 0040 66c1 a7bf
00000190: 0000 0000 c0dd 483f 0000 0000 ec9e a9bf
000001a0: 0000 00c0 250b acbf 0000 0080 60d6 983f
000001b0: 0000 0080 cef7 97bf 0000 0080 2a4a 97bf
000001c0: 0000 0000 e20d 97bf 0000 0080 8c4c aa3f
000001d0: 0000 0000 53b1 983f 0000 0040 aff0 ac3f
000001e0: 0000 0000 b61b 9cbf 0000 0000 303a 5fbf
000001f0: 0000 0000 ae71 963f 0000 0080 4a4c 90bf
00000200: 0000 0000 1c6a 66bf 0000 00c0 7d8f a03f
00000210: 0000 0040 8cad af3f 0000 0000 c0cb 92bf
00000220: 0000 0040 b83d a03f 0000 0000 6846 ad3f
00000230: 0000 0080 4b12 a3bf 0000 0080 6ba8 ab3f
00000240: 0000 0080 3766 9a3f 0000 0000 91f1 85bf
00000250: 0000 00c0 0833 abbf 0000 0000 da56 95bf
00000260: 0000 00c0 ef63 a53f 0000 0000 6e53 7c3f
00000270: 0000 0040 b30c aebf 0000 00c0 7ca1 a43f
00000280: 0000 0080 7115 a1bf 0000 0000 205a 763f
00000290: 0000 0000 ee07 9a3f 0000 0080 6529 90bf
000002a0: 0000 0000 9059 943f 0000 0000 41b2 abbf
000002b0: 0000 0000 1954 87bf 0000 0080 c425 a83f
000002c0: 0000 0000 f065 463f 0000 00c0 3a45 aabf
000002d0: 0000 0000 fe82 7e3f 0000 0080 23fc ac3f
000002e0: 0000 0080 9064 9dbf 0000 0080 ab40 903f
000002f0: 0000 0000 6a07 87bf 0000 0000 ad83 923f
00000300: 0000 0000 bac4 90bf 0000 0080 0785 9d3f
00000310: 0000 0000 e5d8 903f 0000 0000 b4bb 9abf
00000320: 0000 00c0 e248 a53f 0000 0000 4005 a4bf
00000330: 0000 0080 81b6 97bf 0000 0080 4bf4 abbf
00000340: 0000 0080 31b6 abbf 0000 0000 50c5 a53f
00000350: 0000 0080 cee5 a9bf 0000 0000 7902 81bf
00000360: 0000 0080 fc63 993f 0000 0000 2ccf 823f
00000370: 0000 0000 ab81 973f 0000 0000 a012 6dbf
00000380: 0000 0000 fcfc 703f 0000 0040 b563 a9bf
00000390: 0000 0080 37f9 aa3f 0000 0000 802b a9bf
000003a0: 0000 0000 b1d0 9f3f 0000 0000 3bcc a73f
000003b0: 0000 0040 e2c0 a9bf 0000 0000 999f 9d3f
000003c0: 0000 0000 24ef 703f 0000 0000 59d5 8cbf
000003d0: 0000 0000 bf4c 8d3f 0000 00c0 1259 ab3f
000003e0: 0000 0000 afb0 82bf 0000 0000 ae45 833f
000003f0: 0000 0000 0058 30bf 0000 0040 acc4 a2bf
00000400: 0000 0000 e50e 98bf 0000 0040 370a ae3f
00000410: 0000 0000 9793 95bf 0000 0000 bf13 813f
00000420: 0000 0000 088d 57bf 0000 0000 5043 6cbf
00000430: 0000 0000 40f6 6b3f 0000 0040 fe0b a8bf
00000440: 0000 0000 bd7e 8fbf 0000 00c0 6d03 aebf
00000450: 0000 0000 0e88 aabf 0000 00c0 ab7d afbf
00000460: 0000 0000 a581 abbf 0000 00c0 c24f a83f
00000470: 0000 0000 6ce5 803f 0000 0000 b204 78bf
00000480: 0000 0000 fd96 8cbf 0000 0000 8ba4 a7bf
00000490: 0000 0080 f80b a63f 0000 0000 31d7 993f
000004a0: 0000 0000 e817 7abf 0000 0080 f06e a4bf
000004b0: 0000 00c0 3f6d af3f 0000 0000 6ae2 7fbf
000004c0: 0000 00c0 5245 a0bf 0000 0000 e211 923f
000004d0: 0000 0000 e02f 4a3f 0000 0000 257e 803f
000004e0: 0000 0000 c425 7c3f 0000 0000 37cc 8abf
000004f0: 0000 00c0 0c59 a0bf 0000 0000 db6a 823f
00000500: 0000 0000 0f40 adbf 0000 0040 4417 a1bf
00000510: 0000 0080 0499 95bf 0000 0000 6cc6 6d3f
00000520: 0000 0000 d283 733f 0000 0000 523a 9ebf
00000530: 0000 0080 6ba5 9dbf 0000 00c0 3c1e a5bf
00000540: 0000 0000 e304 893f 0000 0000 3976 853f
00000550: 0000 0080 be94 a6bf 0000 0080 6e77 a7bf
00000560: 0000 0000 e610 7ebf 0000 0040 a18d a6bf
00000570: 0000 0040 d493 a03f 0000 0080 57c6 983f
00000580: 0000 0080 bf7a 95bf 0000 0000 4b9c 81bf
00000590: 0000 0000 160f 7bbf 0000 0080 7553 a8bf
000005a0: 0000 0000 9deb 973f 0000 0040 6bc0 a7bf
000005b0: 0000 0000 0df5 adbf 0000 00c0 b94c aa3f
000005c0: 0000 0000 0abc 9bbf 0000 0000 450a 833f
000005d0: 0000 00c0 2ea0 a93f 0000 0000 1b4d a33f
000005e0: 0000 0080 7d33 95bf 0000 00c0 a99f a23f
000005f0: 0000 0000 ec4c a6bf 0000 00c0 6d04 afbf
00000600: 0000 0080 bbe1 9bbf 0000 0000 0786 88bf
00000610: 0000 0080 eae4 98bf 0000 0000 3123 9abf
00000620: 0000 0080 acc7 a6bf 0000 0080 3547 983f
00000630: 0000 0080 841a ac3f 0000 0000 40d4 3f3f
00000640: 0000 0000 9809 afbf 0000 0000 f71a 8fbf
00000650: 0000 0040 8ccf aa3f 0000 0000 e00b 79bf
00000660: 0000 0000 b5f2 9d3f 0000 0000 a8cc 55bf
00000670: 0000 0000 772f 8e3f 0000 0000 0046 2b3f
00000680: 0000 0000 90d4 8f3f 0000 0040 bb9e aa3f
00000690: 0000 0040 adc9 a2bf 0000 0080 adb0 a4bf
000006a0: 0000 0080 1ae2 913f 0000 0080 0256 9ebf
000006b0: 0000 0000 0569 84bf 0000 0000 b8d1 9e3f
000006c0: 0000 0000 3ade 7a3f 0000 0000 eb7d 87bf
000006d0: 0000 0000 beae a13f 0000 0000 e6ce 883f
000006e0: 0000 0080 e8b2 943f 0000 00c0 dd40 aa3f
000006f0: 0000 0080 2c6d 9c3f 0000 0040 74b0 a4bf
00000700: 0000 0080 4adb a2bf 0000 0000 8f0d a1bf
00000710: 0000 0040 b138 a3bf 0000 0000 60a3 613f
00000720: 0000 0000 2059 593f 0000 0040 b536 afbf
00000730: 0000 0000 e8a6 67bf 0000 0040 b9c3 a4bf
00000740: 0000 0000 5268 94bf 0000 0080 932e 993f
00000750: 0000 0000 b778 933f 0000 0000 90c3 403f
00000760: 0000 0080 b5a8 a03f 0000 0040 fec8 acbf
00000770: 0000 0040 3569 a3bf 0000 0000 627e aabf
00000780: 0000 0000 20c5 433f 0000 00c0 f255 a5bf
00000790: 0000 0000 9394 9e3f 0000 00c0 c3db aebf
000007a0: 0000 0000 8a65 97bf 0000 0040 ae95 acbf
000007b0: 0000 0000 1025 4d3f 0000 0000 8bbe 9cbf
000007c0: 0000 00c0 5a21 acbf 0000 00c0 61cf a6bf
000007d0: 0000 0080 490f 963f 0000 0000 d20a 733f
000007e0: 0000 0000 78ed 67bf 0000 0080 704f 9cbf
000007f0: 0000 0000 3cb7 97bf 0000 0040 099e acbf
