weights/srikar_iter_00_1_bn.pth (torch, 601092 bytes, 14 tensors)

fc1.weight f8 [256, 31]
00000000: d5e4 19a5 788f ad3f 647c fed9 689e 9f3f
00000010: 0000 00e0 9052 b5bf d24a d965 2298 d8bf
00000020: 47b1 584b 7e07 ba3f 317a 75d4 eb4a cdbf
00000030: 47ef 6f95 015b c0bf 4b2c 577b 2311 d5bf
00000040: 483e 628a 036d c63f cead 6ff0 dc9c d0bf
00000050: 7e81 3d34 bde3 b13f 530b 2539 a5f5 b8bf
00000060: e5be 7da1 b804 bdbf 5306 265e 3972 c2bf
00000070: 9e41 7306 aa43 d23f 65bb f3bd 0e93 c23f
00000080: acd0 4c27 0c5a b1bf 41e0 446d d092 abbf
00000090: 887a 684f f505 903f d7f0 962f 4bea 9b3f
000000a0: 0ecb 0e90 1fd2 943f 00b6 9252 75dd c3bf
000000b0: c137 ad8d 3d48 ce3f 0637 dfda 7e87 70bf
000000c0: 11b6 90a3 341d bfbf f371 784a c0a5 c03f
000000d0: 3f46 88c0 99de c73f 7aee db16 f2f3 b73f
000000e0: e2e4 7d31 f23a c5bf 5434 8c75 7a8b c3bf
000000f0: 6a97 7a02 c78c d33f 5573 96e7 fc3c 96bf
00000100: 61b1 0f0e 9aaa a83f 0000 0000 ea18 b9bf
00000110: 8079 7ed0 a8dc c6bf 1197 ccea 168f 7e3f
00000120: c8ac 90fa fed4 c83f 8990 dfbd f3a4 c53f
00000130: dd53 84df 0fc1 74bf bbdd cb13 db73 c53f
00000140: 0d8d b951 6686 c2bf b243 3c2d 5c77 b03f
00000150: 884d 64bb 47ba c8bf 7557 db34 3150 b13f
00000160: 249b 3f6b f2fe 9e3f 6770 dc8b cf45 c43f
00000170: ba73 dabf 71cb c43f 9bc5 13c9 e3e3 b73f
00000180: 5756 7e1e 6d11 a5bf 34e4 07ff 0502 c33f
00000190: 7369 5d95 88a8 bd3f b454 a74a a37e a03f
000001a0: 3e4f a555 b651 ad3f 9ab5 2ec3 1361 cb3f
000001b0: e17e 2fd9 42da c2bf 756c 397d 5d60 a5bf
000001c0: fd58 d556 85a9 b63f bcb0 acba 8e54 bb3f
000001d0: 163e 6f22 5d7e c9bf 34b4 6bc1 b75c 97bf
000001e0: 8109 0dad 20e4 c53f 1947 8eba 8647 c1bf
000001f0: b329 2dee 4c79 acbf 93ae 6261 d1a9 c73f
00000200: 0000 0060 920f 65bf a901 173d e63d 883f
00000210: b420 00c7 bf7d c7bf 8d18 d792 3922 cabf
00000220: 9de9 5524 bdea 953f cc5e 2f84 4bc8 973f
00000230: 89c7 144a 3c33 b6bf af7c a82c e4c1 d0bf
00000240: 06b0 477d 1f8c 9a3f 5ae8 5e48 7ede ad3f
00000250: 813d eb06 f117 bbbf 7643 711c 879c c93f
00000260: bc89 85e8 0e8e b83f b9a7 d34b ebab afbf
00000270: 3dd1 327d 0cc5 c5bf 459a 6e97 9ab6 bf3f
00000280: 0c6b b3eb e4a9 c23f 6cd0 7227 7ee3 b53f
00000290: 6e79 a139 c989 c3bf 25b6 b194 0da6 bdbf
000002a0: 9c9d 7644 38b3 873f 40be 079d 385f b93f
000002b0: 58a2 b135 f588 a53f 5770 acab dcf6 b63f
000002c0: 4780 bf39 712b c13f 3e12 efb5 6d3d c1bf
000002d0: a27f 83a7 4b00 b7bf 6a90 a613 6d72 cbbf
000002e0: 5975 fa60 7410 863f deb0 b98f f25e debf
000002f0: 2a78 f5a6 3af6 afbf 0000 00a0 eb3d ae3f
00000300: 830f e818 902f c53f 0011 569b 97f4 8dbf
00000310: e642 6eb2 fbe4 c4bf cb0a e40b 804a c2bf
00000320: aa15 a04b e040 c4bf 4bf8 db9e 4086 debf
00000330: c2f0 c59d d1b0 d1bf 7ae8 bdb3 2e6c bdbf
00000340: b4be 3ab0 1561 bf3f 6ed3 3d06 c235 bbbf
00000350: ba74 9e86 590e 9d3f dc65 8199 3edd d2bf
00000360: 1c11 a5c2 2cb2 c8bf eb52 330e e021 ddbf
00000370: 19d7 282a afc4 c3bf 694f f5e6 eba5 d7bf
00000380: 4cd1 b440 cc2a 883f fd6e 7976 5d07 d9bf
00000390: d369 3acf ced2 b7bf e495 2e24 e207 cdbf
000003a0: 2a47 84b4 5ba5 c9bf 69e3 af7c 47d6 d4bf
000003b0: 5595 16d5 ab5f 8ebf dc6b 19ba 8aeb c6bf
000003c0: d027 2584 538a 98bf a487 e6e8 91d7 cbbf
000003d0: f43b 2de5 f2eb bfbf c5bf 42fb 9c6d b33f
000003e0: d333 cec6 d049 c13f 9733 cd48 3225 b03f
000003f0: 0000 00e0 eb83 8e3f 7ed5 50c1 f8d0 c53f
00000400: ae73 cdea e6d3 91bf 158e 989c a7c8 b4bf
00000410: 5697 7748 d35a b43f a925 fc86 3334 c3bf
00000420: 84da e514 52a2 bfbf c6ce 44c6 f797 c5bf
00000430: 49a1 e8af eb9d bf3f 2078 0e34 7359 cabf
00000440: 0397 f59c 3c54 c3bf 496d 62a1 c742 c33f
00000450: f092 6280 115d a43f 8287 f620 1c39 cebf
00000460: 374b bfb2 3325 ba3f 1b3e ae81 2f6e cb3f
00000470: 4553 4b90 845f b2bf e9e9 9f5b fba9 c0bf
00000480: 0401 c34b fd76 b7bf ea34 daa4 0d22 c03f
00000490: fcbd 113b de89 bebf d05e 2684 a88a b4bf
000004a0: 1e97 16d2 65d3 a1bf e814 6335 5541 c83f
000004b0: 51d0 43b0 9e0f aa3f 2251 b316 fc96 ad3f
000004c0: 61fe 9a35 397c 883f e48b 3779 f6c5 c83f
000004d0: 82fd b03d 7263 c53f 4f3a 0aba b901 933f
000004e0: d07f 1a84 28b7 97bf 0000 0020 cd23 b1bf
000004f0: 4ef3 9947 7240 bf3f 721d 614b f51e 9f3f
00000500: 8695 007b b40a c23f c465 e6fd cb52 c33f
00000510: 4104 7336 96f0 c3bf e755 de5e 66be 9ebf
00000520: a026 9795 ec6d b73f 1eaa 1c9c a054 c13f
00000530: 792d ed1f ebfb b03f f474 fc7d 3a6d b33f
00000540: 5f0e 2d65 040e c2bf 299c dfab e541 d23f
00000550: c87b 37ec 1a7e c33f 3bad 9cdc 75f3 a8bf
00000560: c78c f80f 450d bb3f 0f64 35d2 17ff d03f
00000570: c233 89c0 7546 b53f b481 072e 2d8c b0bf
00000580: c359 1f02 5fb4 bb3f 0fff 1e0e bdba c93f
00000590: 8ba4 9a5b a3bf bdbf 3780 b3a3 df66 c33f
000005a0: f211 46a1 048b bf3f b3b1 9498 a527 a93f
000005b0: 31cb a8fc e1a5 c4bf 43e0 f796 2e98 a8bf
000005c0: fb98 56f1 644f c53f ef2b f572 cb1a d7bf
000005d0: b419 8c6d 9bf6 d43f 124e b72a ca58 c53f
000005e0: 0000 00e0 5261 983f e0f5 a277 72de 863f
000005f0: f00f f449 1ee2 85bf f38d ebf3 284e d1bf
00000600: fd51 c760 98a4 96bf 9c31 36b8 34b4 be3f
00000610: cec4 b832 294c cb3f 7979 8e06 34ad ac3f
00000620: 5b0c 384c b9e8 b13f 9dfb a5e1 a4d4 99bf
00000630: af8f 752b 9239 ae3f 5196 536e 4a0e c33f
00000640: 092e 7d75 b0af a53f 4318 09e5 5b99 bcbf
00000650: 843d 1515 0248 a3bf bba6 730b eb15 b23f
00000660: edcd 686a 800a 91bf 9488 e92e b45c c0bf
00000670: 501f 941b 3748 c23f 96ca b98b c940 cabf
00000680: 6bb4 91d0 9078 b33f 6369 8e1a 4b7a b63f
00000690: 80ad 5991 dd5c b6bf 0bfb 2d57 e732 a2bf
000006a0: 962e efa0 7602 c63f 2722 c7f6 ad06 b1bf
000006b0: 3da0 58bb 2bcc b73f 0e86 fcf7 6b22 b5bf
000006c0: 89f5 19b2 68e2 cabf 7052 51bb 421c 9cbf
000006d0: bca8 b221 8309 9e3f 0000 0000 96a0 c3bf
000006e0: 62e3 65fd 5320 923f b2ad ecb6 b31b 9bbf
000006f0: 47ca 190f 7ab7 d6bf 2a10 5bee 4fc6 bcbf
00000700: f3cf 3469 5762 94bf 8e56 fb70 8336 c13f
00000710: 6632 982c 980f c93f d02f 61ae 6016 773f
00000720: dc1e a282 f128 c63f 55a4 3a50 43e7 bc3f
00000730: f60c 56cc 9948 b1bf 1971 81d9 5196 d03f
00000740: a773 b15b 73b9 cd3f ddda b264 2765 bcbf
00000750: 8927 9197 0f6e 81bf a18b 6620 5beb 8bbf
00000760: 8234 ccd7 8f2b b23f 5c33 7b00 fe73 b6bf
00000770: 3fef 58d5 6b13 aabf 03a3 7c5d f4ea c23f
00000780: 4229 7c25 778d 7a3f c137 bd9a 205a 83bf
00000790: ee9a eb11 081b cfbf adf9 6b69 e7e0 a03f
000007a0: 8159 fff7 08c0 b13f 30ff 1fe1 dcce 43bf
000007b0: 4d3c 3f91 aa01 c73f abff 1b00 6803 b3bf
000007c0: 75f8 603f 4669 cc3f 7960 456b e108 b13f
000007d0: 0000 00a0 3891 b7bf d8d1 a9de 930a b63f
000007e0: a4fe 6036 079d c0bf 02d0 7f3e 00d2 9abf
000007f0: 2152 3251 eeb6 d13f d847 6902 3a6e b13f
0.057735223916958546 0.030877722077658723 -0.08329110592603683 -0.38428554483577415 0.10167683925164282 -0.22884891389817733 -0.12777728840580435 -0.32917105717632883
0.1752018380834548 -0.2595741603861058 0.06988127255818274 -0.09749825139173866 -0.11335329001098733 -0.14411084267708194 0.28537989263443275 0.14511284136775796
-0.06778026542162036 -0.053854478205210395 0.01564772889298152 0.02726094701732581 0.02033280674704501 -0.15519587070359364 0.23657960336498543 -0.00403546860429827
-0.1215393924073498 0.1300583232522424 0.18648073101990012 0.09356606538852388 -0.16586139122572435 -0.15269404163010114 0.3054673694808715 -0.021717025408736507
0.04817658826491101 -0.09803640842437744 -0.17860899143574827 0.007460679550410424 0.19400012240052988 0.16909643908650576 -0.005066930775019932 0.16759813753718142
-0.14472655287236372 0.06432129005794598 -0.19318482065191867 0.06762988605927751 0.030269420429159713 0.15838045434145728 0.1624586283477621 0.09332107218849332
-0.0411485767100827 0.14849924996068042 0.115852867570913 0.03221617018031378 0.05726403995018224 0.21390006094354136 -0.14728580097925373 -0.04175083306901054
0.0885241829867915 0.1067589956043688 -0.19916881734251096 -0.022814627819503566 0.17102440309288272 -0.13499530896347592 -0.05561294944216701 0.18486993079328737
-0.0025709017645567656 0.011836813678088047 -0.18352505890675774 -0.2041694609635595 0.021403270094631933 0.02322500223439654 -0.08671929176924044 -0.26183418618343074
0.025925151845441995 0.05833811410362051 -0.10583406847876199 0.20008934868613054 0.09591763665006331 -0.06185851383800362 -0.17007595170219672 0.1238800639826901
0.1458097601779048 0.08550251448724716 -0.1526423961067382 -0.11581501846532001 0.011572303380332376 0.09910920938249834 0.042060530476025704 0.08970431510209785
0.13413825340012606 -0.13468715079774712 -0.0898482593506729 -0.21442950686935386 0.01077357216791579 -0.47454513583831026 -0.062425454025955965 0.05906616523861885
0.16551400390755697 -0.014626678874954724 -0.16323801243245056 -0.14289856510739293 -0.15822986309664816 -0.4769441176757751 -0.27641716392077964 -0.1149319828818153
0.12257514526822427 -0.10628903057461311 0.02837505230092028 -0.294753694446255 -0.1929374647535348 -0.45519257914320005 -0.1544398265702334 -0.3695020442439643
0.011800380444221624 -0.3910745293594429 -0.09306042250901862 -0.22680308119485837 -0.2003588324956181 -0.32557856728049345 -0.014830915871082576 -0.17906316840057357
-0.023965172710894767 -0.21751617309660987 -0.1246940431130808 0.07589131483359697 0.1350651713113665 0.06306757237798731 0.014900057576596737 0.17043981017347315
-0.01740990455742846 -0.08118674824850587 0.07951088446824647 -0.1500305565935325 -0.12357056627466007 -0.16870019131748942 0.12350342793127313 -0.20585479776212967
-0.15100820220975927 0.15047545795537534 0.03977255527687429 -0.23611785516282785 0.10213015665003132 0.2143000968176104 -0.07176998637016847 -0.13018743490086074
-0.09165938472415652 0.12603922414238095 -0.11929120008584698 -0.08024075723948987 -0.03481596173814537 0.18949380022801354 0.050900420204840764 0.057792547007610176
0.011955687473686529 0.19354134482190866 0.16709735882066573 0.018561269741036942 -0.023159630835493605 -0.06695253401994705 0.12207712410049718 0.03039153359011721
0.1409516907307699 0.15096425912342515 -0.15577962549835614 -0.0300231929209839 0.09152105953321632 0.1353951227441294 0.06634397057967147 0.0758854444106481
-0.14105277004465486 0.28527204308051296 0.15228592428226606 -0.04873245542543222 0.10567123069681648 0.2655696442430448 0.08310638380608196 -0.06463892339480176
0.10822099496667818 0.2010113066626151 -0.11620541559627122 0.15157695286961978 0.12321499764772861 0.0491306065326599 -0.1613123401344523 -0.04803605645059907
0.1664854219827204 -0.36101042009676027 0.32755170534110367 0.1667721470426931 0.023808760568499565 0.011166471744554707 -0.010685192710759822 -0.27039550609899193
-0.022112255961319594 0.11993722436290571 0.21326174713752838 0.056008935737952244 0.06995733366788796 -0.02522523524521213 0.059032981686669365 0.14887361895596254
0.04235602792922683 -0.1117150720757261 -0.0376587534652755 0.07064694432815603 -0.01664162301513088 -0.12782909670483333 0.14282883497821297 -0.20510215113207114
0.07605843631763924 0.08780354879710255 -0.08735451506225012 -0.03554461421207663 0.17195017679329244 -0.06650817179537026 0.09295914958841052 -0.08255648426395387
-0.2100344533572918 -0.02745155590339937 0.02933316128898221 -0.15333819389343262 0.017701446858583998 -0.02647286228163432 -0.354948534724063 -0.11240100449782689
-0.019906392856867638 0.13447611824692668 0.19578840424982785 0.005636575375387268 0.17312449339464464 0.11290379246442346 -0.06751404989886453 0.2591747879103124
0.23222200371938337 -0.11091848572219072 -0.008510705769498876 -0.013632499624525897 0.07097720163820223 -0.08770740043401076 -0.050929422181495536 0.14779524388111306
0.006482568183637407 -0.009449248049033689 -0.24301243662849664 0.03296588098418183 0.06933647207856632 -0.0006044939530056356 0.1797383507932601 -0.07427072527570881
0.22196271986644303 0.06654175633355121 -0.0920596495270729 0.08609890161625999 -0.12979211955279368 -0.02619171506371743 0.2767902176795208 0.06808817442768544

fc1.bias f8 [256]
00000000: f100 6972 8103 a0bf f142 f5f9 9ad9 ac3f
00000010: 1da2 9e07 fd32 983f faa0 4484 4193 c8bf
00000020: d6dd c4cd e05f b1bf 26f7 5cde 3c72 aa3f
00000030: 6f8b 2728 2d72 b13f 54bc 8f09 72f0 8abf
00000040: e95a e983 aa1e c03f 1eca 4a8b b193 d13f
00000050: be13 8f64 62ef 93bf b3d5 6e34 74ae bebf
00000060: d877 6d5f e479 b8bf 5c41 7419 ea97 ccbf
00000070: e831 c17a a774 c7bf 8bf9 b00b 12c4 9bbf
00000080: 5715 d1ec c1e0 c8bf fb36 1971 b889 b33f
00000090: 4800 7981 f17c b03f 2591 1b3a c4e9 bb3f
000000a0: f02e a94e 2827 cfbf b1cd 2278 a6de b4bf
000000b0: 9491 9775 ef76 c53f 999e 4d31 3cfa a93f
000000c0: 46f2 05a6 6543 ccbf 6d84 c4b5 0bf4 c2bf
000000d0: cce9 013f 3374 b93f 0c1e d280 c2a7 b23f
000000e0: 8bd2 1b13 b5c1 c4bf 0f69 1e13 bc7a c23f
000000f0: 6c31 c891 21b9 c3bf 8a03 ece5 27c7 c7bf
00000100: 2d78 0eaa 3f81 c33f 049e ce31 e956 7dbf
00000110: 403f d0bc 3300 b6bf e19d e536 0914 a4bf
00000120: 478b a2bf d70f c43f deb4 fbd6 89a0 b53f
00000130: f787 abf9 467c cc3f 1702 f1b6 0c42 ccbf
00000140: 59e8 b389 9bfa d13f 2faf 02f9 1278 ccbf
00000150: f10d 57fe be19 b0bf 95e3 5c3d 5ddd 883f
00000160: 5f52 ed6d 5049 b1bf 8fa7 b962 84fa 783f
00000170: 85f9 b902 ef60 bcbf 1a1b 0137 c320 913f
00000180: 66c9 adad 2b32 72bf f5ef 1c47 cead c3bf
00000190: 53c8 7b34 b545 a1bf a749 647d d0f4 3cbf
000001a0: 8d4f 9a7b d484 9c3f 9066 d467 bbcb c8bf
000001b0: 8c76 715b 611f 9ebf 69be ede9 c423 c03f
000001c0: 1567 a3d5 5abe cdbf 6be8 3ed7 2ba3 95bf
000001d0: 4b2b 38d2 4ac4 bebf f047 2e2a 11fe a1bf
000001e0: b1e5 5665 3d57 b3bf ed1d fdd2 6046 a8bf
000001f0: 2823 8e7e 53bd 9a3f 341a 13a2 a5b6 bebf
00000200: b64d ff7e db2d 86bf a367 5ed1 38bd babf
00000210: feff 1e9d b1c6 c7bf 88ba 27a9 0534 b23f
00000220: f7bc 854a fdc9 66bf 9474 f1c1 fc6f af3f
00000230: f8a9 7a90 20b5 7c3f 40d9 0c80 a8f8 9c3f
00000240: ccec 0131 fe89 9e3f f19b 7c6a f643 abbf
00000250: 081b b845 ec10 ac3f e824 f7cd 805c c23f
00000260: c733 21ce 54d2 cdbf 28f8 bdd7 e05f babf
00000270: bb22 fa0a 02c1 a0bf f8f3 9b00 46f1 c2bf
00000280: 39bd 3689 2883 bdbf 1ae4 5b6d 8fd7 c73f
00000290: fb7a af20 4c34 b13f 12d0 63f8 9be5 cfbf
000002a0: 3771 b004 9e45 ccbf 8d51 b2c7 1131 b5bf
000002b0: 2b7c f607 eb88 b5bf 10e2 86fb 862d a93f
000002c0: 7485 9319 9f53 5ebf b814 cd41 279a 9dbf
000002d0: b365 7b25 3b7c b83f 2b42 65d4 dcdf c53f
000002e0: c7d4 a6ed d76e c23f 127b 14eb 56fe afbf
000002f0: 3582 fe5e 4bf0 bd3f eb2b 7ed4 726d b7bf
00000300: bb3a b3fd 5ae4 c5bf 60b1 bc4b 4528 acbf
00000310: c194 37ee e999 c0bf 111a de2f 4171 b63f
00000320: c548 cfb4 a4fd b13f c91b cb91 7973 a3bf
00000330: 6d4e b19a 80b8 983f 7498 0d5d 0e2a c6bf
00000340: dc1e 2a8a 6228 aabf 8d93 52b5 4748 9bbf
00000350: 54af 1aff dee8 a73f a934 b99a 0234 963f
00000360: d75b 91a8 4c01 c83f 3ec9 f1fd af45 c3bf
00000370: 0bd1 13b2 643e d1bf 1c8f 024e 923b b03f
00000380: ef07 5d72 91e2 813f 1b71 bd6a ffc9 c63f
00000390: 7547 69bb 7145 b4bf 072f e6fb 6b1f babf
000003a0: 1de9 527e 9ac0 a23f cb05 94c4 4ac4 c33f
000003b0: 18a2 7dfa 222d c23f 3be8 a726 e2bb cbbf
000003c0: 3a77 cd3d 6469 c0bf 5605 c2fd a30b b3bf
000003d0: d983 d99d ea80 b43f 7933 2e49 e831 d13f
000003e0: 0798 e9c5 6cb4 a93f bc6f d489 b470 c1bf
000003f0: ed49 e9f0 4c92 b4bf 1d29 2f55 068e babf
00000400: 6865 d86d eb6c b33f 8130 0023 b814 a73f
00000410: f06b 338b 6a54 a5bf f3fb 450b 7f31 bd3f
00000420: 473b b08b 75ce c8bf 8429 f0b0 9246 753f
00000430: 8ca0 4ea7 e27a 713f 9edf ad5d b938 71bf
00000440: 488a 2330 a20d d03f 9c71 ad01 9c40 a53f
00000450: f997 5776 f4be d0bf 2a02 0972 8d91 a3bf
00000460: 424c 3062 3426 95bf e8be a46f 0103 c63f
00000470: 5993 c9a5 e849 c23f 2c79 b321 cbef 6abf
00000480: d9e8 9779 3594 76bf 8029 18fd cdef c03f
00000490: 9ec8 f881 f4e0 a5bf b17e e51b 181f c8bf
000004a0: 6c30 c786 cbf6 723f 6c1a 2c49 e88c c23f
000004b0: d2d4 1b68 3115 b33f a00e 56da a9ca c03f
000004c0: 3865 3523 14ab 783f e8bc f663 bfef d2bf
000004d0: 3c14 33ab fe33 a13f 431b efcd 4061 863f
000004e0: 601c 1aaf 9dc7 a93f c6a3 febd 1b39 babf
000004f0: 146b add0 aaf5 af3f 5b1b 9c5e 5d97 c03f
00000500: c39a 4e04 3baa c1bf c6f5 407c 2de2 b1bf
00000510: 882c 0e85 6dc4 a6bf 8526 db6a dd8e cfbf
00000520: 8138 d76e a08e c83f 8d5b 1d01 ba14 b5bf
00000530: 2dfc af2d 7710 c0bf 60a9 c8ef ca93 c5bf
00000540: e68c 0bf2 89e2 c43f cd28 041f f268 b5bf
00000550: 5a56 d601 cc32 d23f f0b7 6c34 3e87 b7bf
00000560: 94a8 b6ed f2f8 b13f b369 aad8 ed86 a53f
00000570: 85b2 f54e 9620 b03f f8ab 3346 bb29 d5bf
00000580: 618c 329a d4a9 bc3f e43c 2611 d4a3 963f
00000590: 0aa2 e5d0 29e9 b9bf 4e82 5bfe 95ab cdbf
000005a0: aba3 83b3 6b0b 9dbf 713e e499 57ab c13f
000005b0: a795 d221 5075 c8bf 91b5 ceee a663 be3f
000005c0: 46f7 c67b 46dd cdbf 70b9 30c1 0457 bb3f
000005d0: ac07 3307 1fc4 c6bf 3138 6e54 692a d7bf
000005e0: bc62 19fe 0ebe b3bf 2073 13f5 34df c33f
000005f0: 123c 06b1 eec1 a8bf 6d48 53a1 919e a6bf
00000600: 41fe b511 8b98 c33f 03b5 22a7 af20 d2bf
00000610: 880b 4c1b c7b9 cdbf d0e8 48ed ae24 c8bf
00000620: 57cc d1c4 ab13 8dbf 2c11 541b 8377 c8bf
00000630: 2f00 44b2 5618 cbbf 362d 0a05 1b9a a3bf
00000640: 8c8c 6304 523c b43f 838d 6363 6a9c d03f
00000650: 7938 1084 fd14 c2bf 560a 1c8f a3a2 b7bf
00000660: f9f1 0299 1af2 873f 9173 4a82 612e c9bf
00000670: effa a5b1 f5bc 77bf c7fd b60b 856f b23f
00000680: 127d 90b8 3b81 c9bf 834b 78c5 95f1 aabf
00000690: 7ee2 acf3 95ee babf 1b67 4e31 4b44 cd3f
000006a0: cdc8 8a72 79f7 803f 3213 92b5 02b4 94bf
000006b0: 9e13 a954 ed58 c93f 15bc 6356 f85a b23f
000006c0: 353e f4f6 979d 403f 9adf 5b7c 9fe9 b03f
000006d0: 3862 bd0e 98af a73f 3d09 751b 3af7 af3f
000006e0: 7cee 0820 3835 b23f 2ca6 39b9 8632 c8bf
000006f0: a49b 7779 fc0e 103f 43c3 9c74 20ed b83f
00000700: 5f7b c9ba 0acd cfbf f1ef cb4b 7241 c6bf
00000710: 6214 4d35 dd17 bdbf c461 02d7 3a54 b33f
00000720: 15bf 07f2 371c c23f 3b2d e043 f75f bb3f
00000730: c51a e807 789e a7bf 8225 4628 43c6 b7bf
00000740: b9f9 32a4 737c b93f eab7 711b d75b 983f
00000750: ba0a a3e6 8ce2 b03f fada b167 686f b5bf
00000760: 8b06 e92a f34f bb3f f6e5 4f38 bbe8 a73f
00000770: 9bdf 4e50 c1aa a73f ac63 9732 6563 b43f
00000780: 9906 9e1a 7d2e b13f 779a 7ff6 acb5 b2bf
00000790: 2191 d9c4 7ba1 a93f 728f c4c4 f653 c13f
000007a0: edee 73f6 0626 babf 4a69 bb50 0e1f 723f
000007b0: e8d7 6a98 b6a0 bebf 4ee1 3cd1 1aee 713f
000007c0: ee1d daae 07d0 a9bf e6f1 9e08 187f b43f
000007d0: 8529 0dc0 85b1 b8bf 2309 d8e1 5171 5e3f
000007e0: 629e 9882 419b d33f 6e7a 35ff 1db2 d33f
000007f0: 6f5d 3851 42b9 c33f b88e 6bbe 7bcf c5bf
-0.031276746002278595 0.0563476972698761 0.023632005300585946 -0.1919938941803208 -0.06786923431069822 0.05165281500238299 0.0681484435113313 -0.013153925816338376
0.12593585434907276 0.27463949778317154 -0.019467866313579434 -0.11984945564366604 -0.09560992555404313 -0.22338606112362924 -0.1832475041759516 -0.027115137065487665
-0.19435905516926752 0.0763201976889966 0.06440648470834376 0.10903574389118782 -0.24338249054778016 -0.08152237351423854 0.16769211999702505 0.0507372675118038
-0.22080679518320973 -0.14807268500684093 0.0994293240382042 0.07287231106794695 -0.16216147835770686 0.14437056478056617 -0.15408725374471588 -0.18576525427490892
0.1523818569521053 -0.007162962833639156 -0.08594058379844416 -0.03921536250237146 0.1567334829061002 0.08448087214101771 0.22254264059944237 -0.2207656758564702
0.28092087218795353 -0.2224143710967552 -0.06289285382722888 0.01214096873774099 -0.06752493556752757 0.00609828675406189 -0.1108540898949056 0.016726541740605595
-0.004442377680663112 -0.15374163124386056 -0.03373495355289493 -0.00044183816989220654 0.02785045627986409 -0.1937174088459881 -0.029416581350565837 0.12609158918666033
-0.23237166816289148 -0.021130261433178903 -0.12018268234548406 -0.03514150276090777 -0.07554992412669638 -0.04741194320245854 0.026112846946065776 -0.1199744721117007
-0.01082965356173458 -0.10444979774038514 -0.1857511536782112 0.07110629443898564 -0.0027818629352435137 0.06140127055616876 0.007008673863007513 0.028292305770457604
0.02982327627294694 -0.053252888201590916 0.05481661177696223 0.14344797188667902 -0.232981300973192 -0.1030254866327317 -0.032722534027077775 -0.14798808126207041
-0.11528256750056166 0.18626587714950987 0.06720424459443201 -0.249194618496063 -0.22087455014196575 -0.08277999043850155 -0.08412045425801355 0.04917547054668969
-0.0018509916029006675 -0.028908360854320775 0.09564561524475472 0.17089424486995716 0.14400767425619262 -0.062487331577577035 0.1169478518409129 -0.09151380241216571
-0.17103135478688167 -0.05499474095845147 -0.1296970761460781 0.08766562861101358 0.07027654089259545 -0.037990378424687395 0.02414132064980239 -0.17315845054253354
-0.05108936249331261 -0.02664291423993208 0.04669854034486201 0.02168277806622557 0.18753965597963315 -0.15056419276840843 -0.2694331873929207 0.06340898899594233
0.00873292570361525 0.17803948127664956 -0.07918463540525329 -0.10204195880777088 0.03662569801368163 0.15442785833879066 0.14200246077531697 -0.21667124640936372
-0.1282162954111586 -0.07439637131939966 0.08009210923911726 0.268671103921228 0.05020465770648746 -0.13625199060413518 -0.08035736924765731 -0.10372962550824068
0.0758807318856235 0.04507995059256676 -0.04165966939191168 0.11403650307873629 -0.1938006336281097 0.005194256794320732 0.004267583241848293 -0.004204486928635646
0.2508321256738424 0.041508555607580905 -0.2616549640355284 -0.038219852609931174 -0.020653551571808267 0.17196672393173817 0.14288051695907703 -0.003288170567983381
-0.005512436758630745 0.13231825693248922 -0.042731896272372824 -0.18844891893512775 0.004629893327045758 0.14492515156617303 0.07454212943760588 0.13118479882188172
0.006022528326263647 -0.2958830333909206 0.033599813841228315 0.01092768314800952 0.05035107386088877 -0.10243390453855658 0.0624211673482106 0.12961928481692095
-0.13800752363495947 -0.06985744746722053 -0.04446737527094863 -0.24654739110546955 0.19185262119430394 -0.08234751250470947 -0.12550248843032943 -0.1685727759189133
0.16316341703996 -0.08363259560806853 0.2843503969137139 -0.09190739421748595 0.07020490935852514 0.04204505224079771 0.06299724033096694 -0.33067209106110296
0.11196640743814747 0.022109330698694488 -0.10121404027962214 -0.23179888648793895 -0.028363879043272238 0.13804144872891613 -0.19108010913366266 0.11870807008991437
-0.23331528705414878 0.10679654804764538 -0.17786014415292806 -0.36196358914537813 -0.07711881354897349 0.15524923292732584 -0.048354586705606675 -0.044178534453423214
0.1530927502135331 -0.28324500390847634 -0.2322319873129255 -0.1886194857232284 -0.014197675651507575 -0.19114722093957803 -0.2116802568853031 -0.03828510700722136
0.07904541594648345 0.25954684930749056 -0.14126557300955137 -0.092325422705508 0.011692245287457036 -0.19672793256623014 -0.005795440427731376 0.07201415573125934
-0.1992563868707085 -0.052624397616589234 -0.10520302962403069 0.22864665896923317 0.008284519966171544 -0.02021793587893512 0.19802633889972027 0.07170059308167283
0.0005070678725207003 0.06606480394464001 0.046261550711907906 0.062433067180352776 0.07112456113912374 -0.18904193920325107 6.125846845571201e-05 0.09736826750737486
-0.24844488258801342 -0.17387226773269007 -0.11364538718506048 0.07550399541140168 0.14148616140254747 0.10693307311173765 -0.046130896535080214 -0.09286899312259858
0.09955523260848666 0.02378784279829197 0.06595688467772734 -0.08373119861230896 0.10668868825544046 0.046697474121128055 0.04622463326762657 0.0796416519655298
0.06711561107479226 -0.0730846502116068 0.05006014612152599 0.13537487609675797 -0.10214274899402272 0.004424148482679089 -0.11963978978278045 0.004377465014663363
-0.0504152680342108 0.08006429872961682 -0.09645877779727215 0.0018580722456823038 0.30635106805354984 0.3077464096331032 0.15409115758732692 -0.17039439008578028

fc21.weight f8 [128, 256]
00000000: 79d7 a6fa d9e0 7fbf 995e 9ed4 156f 883f
00000010: aa68 6983 1861 9a3f d57d 4f8b ab2f b4bf
00000020: 6cff 2b90 b236 57bf f77e df1a 0b53 90bf
00000030: 9a4a a137 1783 c2bf f589 7e61 ccfd c6bf
00000040: 4ad9 233e 764c b03f 7a65 90e6 6e68 513f
00000050: bce0 018a 2854 9dbf 4a4f de0a 10f7 333f
00000060: 6afa a587 6c4b bcbf ec68 02c4 b1a2 b6bf
00000070: 8d67 71e3 1301 8a3f 64f9 2ad0 139d adbf
00000080: 2259 35c0 1f0f aabf 9e5e d358 c634 a5bf
00000090: 3bd9 74fe 2859 a43f 9e94 a123 70ef 9bbf
000000a0: ac70 c994 e719 a3bf 6d52 1852 611c 883f
000000b0: 3a1f fbd9 b635 babf c136 ed92 c95b a83f
000000c0: bb37 dd23 c4b0 a73f 1638 a415 e204 b6bf
000000d0: 5a6e 1300 1619 c23f 6321 3dc8 0897 97bf
000000e0: db62 4e23 8fa6 a0bf 5e1b fab9 95a2 a63f
000000f0: 9834 8101 d25c a7bf 2fc2 91ab 16d8 b6bf
00000100: 0eb9 b6e1 85a9 563f ebe5 409c 49ba a3bf
00000110: d665 669b a7f6 a7bf d22f 476e 2a53 c03f
00000120: 919a bac4 a6ea b43f 8e5e 2374 bcc6 a73f
00000130: 5067 6d14 77af 92bf 2c8c ac53 254b ac3f
00000140: 496d d2f8 ce02 a03f db52 4be0 ff3d bfbf
00000150: d429 13db d9de a1bf ccce 61ea 0275 a9bf
00000160: f623 5ddc fea4 a8bf 0f76 eff1 2d1b 96bf
00000170: bbaf 0bae 76ba 95bf 8754 60ce 6ef8 bbbf
00000180: a014 4f24 b2da 6ebf 89bd e990 22cb ae3f
00000190: 8bf2 2b62 e57d b03f 45ee 171d 32c4 a8bf
000001a0: 400f d1aa bf06 7abf aa3a 7a18 5088 c03f
000001b0: e56d b44b 8b8d b2bf 2045 5aef 4012 b3bf
000001c0: da8d 9414 b9e2 86bf 6b83 721d 8d45 abbf
000001d0: fffb c99f ab43 aabf 9ee7 7d62 96a8 8dbf
000001e0: 27b6 44a8 ded2 81bf cc79 49d7 443e b83f
000001f0: 3d6d 2da7 3996 a6bf 27d3 8bc7 a5bd b83f
00000200: a4ce 987c c931 973f e14d 235a 5a37 403f
00000210: 806e 8370 49a2 95bf ba9c ef66 9dd5 88bf
00000220: 9c24 45c3 40e4 acbf 016b ca56 839f 8b3f
00000230: adf2 881d 5486 acbf c9b9 0e30 0f4d 613f
00000240: e7f2 a597 47e6 873f 8569 ef79 803c b13f
00000250: 7928 79f5 3b83 813f ee16 8c27 c37a a0bf
00000260: b3b5 1a8c be98 be3f 087c d34d 71a7 b8bf
00000270: ac36 87b6 cc85 90bf 4fe3 ac88 5d29 c2bf
00000280: e157 e7da b544 933f 8240 95c4 e5b4 acbf
00000290: 753c 69fc 1e8b af3f f928 4c2b 49d6 ac3f
000002a0: d353 4a1c dd0b c53f 07f6 9173 1a85 98bf
000002b0: 314c c971 63f0 afbf b848 43bf 0ad0 743f
000002c0: 2afb 0648 1f2a 9c3f f6c5 77ef 892d 7ebf
000002d0: fe17 bccb 4ec4 a4bf 125c 147c 59c7 bf3f
000002e0: 09d3 b333 7747 a13f 13db 4a57 0034 b63f
000002f0: 1ce0 4875 90ce 92bf c9a0 2255 ca03 b4bf
00000300: 386c cc86 dac9 973f 54f5 74f5 c822 b3bf
00000310: e08c 3333 0ae6 9c3f b20f 951d 1eff 9abf
00000320: 3e23 581c ef79 c63f 4c13 d3d8 03fd ae3f
00000330: 2554 21d2 a36f a0bf 2ffc be46 6ce1 85bf
00000340: 0a32 8536 7a61 a1bf 7624 1c23 29cc bf3f
00000350: e248 1951 88ae b7bf d1a3 e4f0 c4df 9e3f
00000360: 2ec3 f9b4 ca2b b33f f43c d3f5 7b8c abbf
00000370: 60a4 d7a0 5e3d b2bf dcbc d311 5288 c03f
00000380: 8110 dfb0 bc3c 8ebf 6331 f239 7e17 b63f
00000390: 5be9 1abb 6782 a33f a2e3 d7ad 4b05 a9bf
000003a0: 44fb 6104 024d c23f 69c8 dec1 8309 8ebf
000003b0: 4a44 ebb6 5373 a6bf 8546 05c4 343d 9cbf
000003c0: fd8e fed3 8f3c c2bf 783c 01f9 d538 7e3f
000003d0: f62e 5008 05df 493f b6e9 254c 6929 8cbf
000003e0: df45 4110 9a84 453f cd4e 6b67 a914 80bf
000003f0: 022a 2eec 6bd7 9d3f 7f23 5d11 560e 93bf
00000400: e7af e00a b55e a9bf da27 da89 c2c4 a1bf
00000410: 8270 36e0 3fa3 b0bf 0095 dd57 2c27 b93f
00000420: 3db0 819a 6c05 c3bf c8f6 e79d b003 b4bf
00000430: 9060 8627 74d3 81bf 4056 5a25 94ce b2bf
00000440: ae77 35e3 e4c6 9cbf d426 1caa aa94 763f
00000450: 8f8b 5014 7661 84bf a76b 4ff3 2b93 b3bf
00000460: c1f6 13ff c679 c23f 4283 5ff1 4720 6b3f
00000470: a714 5e06 726e ba3f a654 505d d850 b23f
00000480: 0624 27ca 4d46 903f 4643 fa88 2c38 b13f
00000490: 5fe3 d893 faec b0bf e086 a387 9bac b4bf
000004a0: a247 8947 c7c2 c1bf de77 d5e3 a612 913f
000004b0: 2e89 a229 cae1 c43f d298 e5cf 70f4 963f
000004c0: 3fe2 5ddc 3bb5 9fbf 0bd1 00f3 a43d 8c3f
000004d0: d77c fdfc 3b98 a1bf 025c 5877 f1b5 b33f
000004e0: 8914 0e43 9ba6 92bf 5dd9 1145 e045 b93f
000004f0: 020f 1126 5ea8 a2bf 6b8e f32c d9e4 8f3f
00000500: 8570 1aac ac71 b9bf af5a f9f6 3ed9 b3bf
00000510: 0f0b c365 686f 98bf fa36 a586 0354 a0bf
00000520: 8cb8 0d71 5677 97bf e183 e1fa 7acf 823f
00000530: 5f00 2f7b e444 66bf a8b9 1006 228e c63f
00000540: 41c2 abfa d605 a1bf 1e7e 5b3f a461 a73f
00000550: d9de d0f5 681d b53f f6f5 0037 c0b5 ab3f
00000560: ecd2 43be 6423 b7bf 3efc 5e99 e05d b9bf
00000570: a119 8314 1a1d adbf 61ff 366a af84 84bf
00000580: ecbb 38cf 52ef 98bf cef8 d930 4b4f c63f
00000590: 4043 bbd9 3cdd aabf 281a 4c25 a022 91bf
000005a0: d11a 36f2 7d31 a0bf f540 978a bdfa c6bf
000005b0: c2b2 b15b 5faf 88bf ae8b e93d 7587 b6bf
000005c0: 6897 5f1f c438 c5bf a7dd d1ac c62d bf3f
000005d0: 0207 a7bc 02ea aabf f36f 8c00 b6d8 803f
000005e0: 4135 c300 bb4c a63f d169 f48f 7388 a4bf
000005f0: e55c 23db 2799 a0bf d7df 3ce8 8118 48bf
00000600: eb63 b349 2eff b13f 2d41 cca7 135c b5bf
00000610: 4199 0c6d 8304 c53f c520 2db7 bb19 ad3f
00000620: 8e86 255e f06f 603f c65f 813d a246 a33f
00000630: 7b81 e8b8 c2da a2bf cc75 8497 bce9 b63f
00000640: 1498 75ff 5cab 8c3f 4f95 9225 f18e b83f
00000650: c023 4e9a ec67 a2bf 5548 d21c 7662 953f
00000660: da3c 3378 a560 94bf 73f0 3826 c1cb b9bf
00000670: 857b 2a63 0790 863f 9728 0e86 adb3 a9bf
00000680: 44a6 2c66 a485 8abf 5483 d13f 1a6a ba3f
00000690: a989 a40c 4cf5 8f3f 5aa4 2f73 8c34 c03f
000006a0: 82e7 90d3 bb61 79bf e909 bf04 1045 c0bf
000006b0: f8e8 2e1d 8f4e 923f dd9b c089 10f8 a3bf
000006c0: e01c f8c0 9633 903f 575c 73f3 7463 9cbf
000006d0: 300e d8a0 019c b3bf b217 b409 38ab 6ebf
000006e0: 1014 3e1c 6231 a93f 478f 2243 aa9d b1bf
000006f0: 0037 024c 10ae b03f 8051 db23 6fb7 b73f
00000700: e3a2 3774 2c16 7bbf b257 62bd f094 9a3f
00000710: ea78 6cae 45cc 6cbf 3ec9 0a6a 7b15 803f
00000720: f9f2 1d63 0aed b9bf 4065 2d6e 58b8 b93f
00000730: 648a ee4c 86d6 873f c53b 04c8 f084 b0bf
00000740: 9bdd d1e3 6786 ab3f d0af d58c 4fde 903f
00000750: 8ef2 12a4 ad24 bb3f dc8e ee58 0c81 a5bf
00000760: ef38 c4af abd0 af3f ce4d ba19 8319 4abf
00000770: 437a a2f6 9596 59bf 641b 5e7a bbff 9cbf
00000780: 58d3 74ae 565b 923f 3d89 8fd5 e68c c5bf
00000790: ec50 fee1 e99d abbf 274b 33af 2ad9 bc3f
000007a0: cfe6 2676 3de1 93bf 6dcd 652d 7d7a b7bf
000007b0: 7d70 32a2 c030 c3bf a75e b391 3239 b33f
000007c0: 0080 6cf9 5d4b ca3f 23ae a1a3 8e7b b4bf
000007d0: deb9 e852 2a35 72bf d96b 3143 3dd9 a43f
000007e0: 3246 fe3a f708 b63f 6595 05af f269 adbf
000007f0: 4065 e3f6 0cac a9bf 270f fd13 74a3 a3bf
-0.007782794457332425 0.01193062834845131 0.025761015911805053 -0.07885238791595069 -0.0014168494969339597 -0.015941785350036288 -0.14462557045279284 -0.17962031136001114
0.06366671578493768 0.001062496472746892 -0.028641351149844438 0.00030464307462206976 -0.11052587806441641 -0.08842001948724815 0.012697368029126266 -0.05783903041946095
-0.0508966371659645 -0.04141826471612585 0.03974273782880507 -0.027280571150545378 -0.0373070115208248 0.011772880857315838 -0.1023821146183054 0.04757528227365305
0.046270493867822414 -0.08601201084476914 0.14139056209284 -0.023037087651830556 -0.0325207453344711 0.044209174110668256 -0.04563003795974757 -0.08923474968629173
0.0013831908644124677 -0.038530636142649254 -0.046803701133466255 0.12753801712676577 0.08170549681617902 0.04643811147405784 -0.01824747144869515 0.055260817016709346
0.03127142703416525 -0.12203978753980087 -0.03490334319356561 -0.04972085105046417 -0.04813381614673766 -0.021588056460919044 -0.021219114659217313 -0.10925953424914968
-0.0037663916905069234 0.06014354723890409 0.0644210209538391 -0.04837185483117116 -0.006354092312054693 0.1291599387663685 -0.07247229192983402 -0.07449727862901456
-0.011174627247391312 -0.05326500877823189 -0.05129753423261007 -0.014481711273891137 -0.008702983389038256 0.09470014816313393 -0.04411487737408002 0.09664379235966845
0.022650860051909874 0.0004948798344010485 -0.02112688779094052 -0.012126187995774241 -0.05642893203418817 0.013487840734617064 -0.05571234570058912 0.002111940063023375
0.011669692340313854 0.06732943512853325 0.008551090649366199 -0.03218660218958101 0.11951819344058982 -0.09630497121860071 -0.01613540519774996 -0.1418873708114696
0.018816796766110037 -0.056067638632726804 0.061608284294032346 0.05632237103971422 0.1644245517860826 -0.02394524889358787 -0.06238089336388731 0.005081216793955949
0.027504433413692166 -0.007367647943725233 -0.04056020962711669 0.12413558272633932 0.03374836450703895 0.08673097735559691 -0.018366105230796945 -0.07818283632753088
0.023230947949837794 -0.07474952690696074 0.028221282363017575 -0.026363821559484975 0.17559613117216516 0.0605241014650689 -0.03210174503389166 -0.010683866414067903
-0.03394681849986021 0.1242089949338537 -0.09250690441084289 0.030150487139653685 0.07488696020460558 -0.0538061845378425 -0.07124892641844971 0.12916017408813374
-0.014764284274754626 0.08629597582529906 0.03810428771017157 -0.04886852738486104 0.14297509397507657 -0.014666585306120266 -0.043848625258427434 -0.027577232803486246
-0.14247320033347668 0.007378421622049484 0.0007895254681229136 -0.013750860821109306 0.0006566765082515711 -0.007851909130671153 0.029142080583861592 -0.018609375772288935
-0.04955068357261876 -0.034704284026773016 -0.06499098991338495 0.0982539858356013 -0.1486030344416366 -0.07818130355004904 -0.008704097229198987 -0.07346464073119652
-0.028102470748642076 0.00551287332360469 -0.009951517577126782 -0.07646441164199179 0.1443413491723984 0.0033112912305885154 0.10324776320892913 0.07154609945458165
0.01589318796485275 0.06726339668445033 -0.0661160098033071 -0.08075878201955389 -0.13875666611653253 0.016672713905215512 0.16314055474237804 0.022416842164056323
-0.03096478970062066 0.013789452234143093 -0.034364580757704814 0.07699498332691238 -0.018213678329193548 0.09872247396729024 -0.03644079413109404 0.01557321232252847
-0.09939078523388119 -0.07753366021766327 -0.023862487040569976 -0.03189097422237626 -0.022916174555057497 0.009184799939420731 -0.0027183973811304852 0.17621255203398545
-0.033247678851584535 0.045666821226174145 0.08248001099934345 0.0541210238593343 -0.09038381238117282 -0.09908870453271931 -0.056862654689712196 -0.01001870196239424
-0.024350446603587914 0.17429485211682166 -0.05246915967803156 -0.01673364856380935 -0.031627593819441586 -0.1795269896233617 -0.012053246484549422 -0.08800442468195399
-0.16579486400513166 0.1217922374652206 -0.052566609886993035 0.008225843326322013 0.04355415710743183 -0.04010354168186193 -0.03241848516489102 -0.0007353433906933615
0.07030000018438869 -0.08343623015048669 0.16420023750942828 0.056836954222093485 0.00200650164440292 0.037648267753581474 -0.03682526118450632 0.08950403880267926
0.013998724504471517 0.09593112151431636 -0.035949128948295606 0.020883412846679345 -0.0198999266256664 -0.10076529677547956 0.011016900743298095 -0.05019895802895851
-0.012950214737048722 0.10318149622027067 0.015604585777116169 0.12660365700074544 -0.006196721741668189 -0.12710762244940035 0.017877803951457744 -0.039001957717395654
0.015821795967011165 -0.02772314773468695 -0.07659921814779902 -0.0037437529077832482 0.04920488924748423 -0.06881202830350928 0.06515600066833471 0.09264273286254898
-0.0066129433139187925 0.025958787497607445 -0.003515373321888328 0.00785347382893475 -0.10127320213173253 0.10046913804889801 0.011639641974231903 -0.06452851184097515
0.053759810028107334 0.016473048182362338 0.10602841621125433 -0.04200018487543186 0.06213890572154123 -0.0007964983119159109 -0.001561781357430584 -0.02831929144260971
0.017926554105730602 -0.1683624785210415 -0.05393916019161957 0.11268870141365693 -0.019413910232947636 -0.09171278341618967 -0.14992530746247104 0.07509151513238042
0.2054250209703241 -0.08001033301268783 -0.004445233657448059 0.04071990437724766 0.08607430639519789 -0.05744894396301951 -0.05014076722882033 -0.03835642570495983

fc21.bias f8 [128]
00000000: 3ef5 db64 b734 b53f 3882 f721 c39d b6bf
00000010: 749e 3ce4 9a43 b4bf 2fa5 fef2 146e c13f
00000020: 40f9 7a1f 6c24 b1bf 7d93 bf99 5f01 873f
00000030: 32f6 a44c 112b ae3f e9c0 e464 da3f b8bf
00000040: 1886 4df9 9d36 a6bf c2eb a387 39e1 b4bf
00000050: 03a0 0c0c f587 96bf 94e7 1566 f10d ac3f
00000060: cfdf 6ba3 32f7 acbf c79b 5b61 a9f0 81bf
00000070: eeca 88f1 4d30 cb3f ee25 7133 0b81 a2bf
00000080: 47a0 1ac0 4839 a03f 00c2 5c1e c3e1 a4bf
00000090: 8555 e878 31e5 b0bf 73b8 25ec 2690 b03f
000000a0: 1a4e 766c ef9b c3bf b32a 3b07 c01f a9bf
000000b0: 1a3a 7a85 6a65 c2bf 5699 f6d3 8675 a8bf
000000c0: 0be6 ecbd 2b08 b23f d1fa 0068 b2d1 bf3f
000000d0: e77c 939e ad9e af3f 466e cbb2 ed83 b43f
000000e0: 56f6 f553 aca8 90bf a7c1 371c 047c c93f
000000f0: 18f5 47a9 dff2 b23f cb39 4944 2c7e a5bf
00000100: 350c 759f a86f a4bf 2f87 a4e5 a0bc 9bbf
00000110: 2c94 e83d 7c71 a6bf 9510 39d2 f7fe b43f
00000120: cdd3 5556 7099 aabf da1b 6866 9fbb 883f
00000130: 1387 8212 0976 a5bf 7e9c f728 71a8 b9bf
00000140: 0438 3b56 5e95 763f 3ea8 f493 c3b1 a6bf
00000150: 47f1 b96f b65e 94bf 73ee 54d9 4c89 b83f
00000160: 0239 6492 c4b3 92bf 5f05 e7fe 6e6a a1bf
00000170: 5761 050d b254 adbf 0545 ef10 e288 a93f
00000180: 44ce 9802 3ea9 b9bf 7df4 492b d3d6 a2bf
00000190: 671f 1a3b e526 c53f 17c1 fc10 291a b73f
000001a0: bbf7 d02e 2d86 9abf 17b1 d9dd 87ed 82bf
000001b0: 203a 04bb 933f 903f f96b 7227 94ba ba3f
000001c0: 9b4c 615b 5368 b03f 8776 4e12 ebf0 853f
000001d0: 5a61 7b50 0ed9 a2bf 4805 9e07 0b1e 95bf
000001e0: 359d 5978 7bfd b83f 4c97 d0d4 bc09 983f
000001f0: 0d78 e8a7 aa1c b2bf b950 99ca e0b6 b93f
00000200: 200c 1196 f4a7 b6bf 2c95 6ade 7463 c2bf
00000210: f1f1 126d c9fe b0bf 3568 e79e 0d51 d03f
00000220: 9197 7a65 209f c43f 0681 b723 0423 b9bf
00000230: bd0f fdf2 1e70 bb3f d5a9 4b90 2468 b6bf
00000240: 29c0 d947 5ddf bbbf 5758 4de3 84d7 bb3f
00000250: dd67 0984 4097 a5bf 8c67 d579 10cd 99bf
00000260: be3c 5a1e 1b1b 8a3f ff82 0e7c 18d5 833f
00000270: c672 98cd f787 bd3f 695b 8e4e a755 aebf
00000280: a3a4 fe63 c96a a33f 5ea4 5cde 0cfb 76bf
00000290: 4c35 18fb 58cd a4bf 551b 1a47 7ffd b6bf
000002a0: 151c 64b9 8328 973f 903d 453f f36d c53f
000002b0: 3a89 388e 3f4f 933f 6b4b 3826 130d abbf
000002c0: 5026 eed0 dba1 883f 763f 0ea9 cb67 bebf
000002d0: c5b8 f12c 9c9d a5bf 615b bc4e 4e5f a3bf
000002e0: a993 86d5 831e aebf b004 6963 8ea7 94bf
000002f0: 1735 abd1 b340 b63f 98cf 38ed bef5 813f
00000300: dce7 292b d1ba 9dbf bcfa aed4 2bca b93f
00000310: eab3 34ff b409 993f 39e8 ec85 097a 783f
00000320: a0e2 c2b8 9f09 b03f 802e c03d dd06 c63f
00000330: 9fab b095 523d c5bf 4197 f55a 8432 c13f
00000340: 46ca 9eba 8b74 94bf 4a40 2524 303f 803f
00000350: b8fd 82d9 6341 b53f 3f87 c0af 3da6 a43f
00000360: 9907 2f83 3674 a2bf 472d 066c 30ec b13f
00000370: 90de 10ab ae12 c33f f64b 4651 a680 9dbf
00000380: 9bec 1ee0 c2e8 b33f 2711 db77 65e5 c13f
00000390: d84f 3863 6fd5 ba3f 9883 9bbc 772b b83f
000003a0: 2d99 7954 2c5b b63f f435 ef9f 8b12 893f
000003b0: 647d 39a9 0bf9 a3bf f634 f08a 5541 993f
000003c0: 35f8 e173 1726 7bbf cdc6 4d91 c511 8f3f
000003d0: 6f9c 4761 1c6f b5bf f391 00ee e946 c63f
000003e0: cb9f 2ad7 b733 94bf 5fb0 a6f0 9d2b b53f
000003f0: f3ff 3132 9a17 96bf 4759 83a4 ee99 a13f
0.08283563816435888 -0.08834476069706276 -0.07915657112300228 0.13617193093276955 -0.06696201103747956 0.011233088378455264 0.058922329526904696 -0.09472432101461305
-0.04338544529197125 -0.0815616565850368 -0.0220030106167144 0.05479387637292557 -0.05657346959009112 -0.008759806903482116 0.2124116353384901 -0.036140775708712755
0.031687043619343096 -0.040784928757037875 -0.06599721147389033 0.06469958558383997 -0.15319626613619236 -0.04907035911818038 -0.14371997373059814 -0.047771657347129334
0.07043717753267502 0.12429347075611054 0.06175749359840115 0.08013806929687303 -0.01626843702751154 0.19909716966459465 0.07401845820273356 -0.04197824796266366
-0.03991438814639318 -0.027086748138692215 -0.04383457427710655 0.0820155037154698 -0.05195189527413611 0.012076611817077355 -0.04191616393042188 -0.10022647142578653
0.005513542655263496 -0.04432498150920637 -0.01989255005763482 0.0958450346560598 -0.018263884959247363 -0.03401514875032307 -0.05728680046985584 0.04987245995256199
-0.10023868144417586 -0.036795233759201 0.16524949441758993 0.09024292626122975 -0.02590246771091363 -0.009242116411052366 0.01586752728422358 0.10440946543751285
0.06409188252409807 0.010713421341104435 -0.03681225521512728 -0.02062241777412524 0.09761783302530065 0.023474646081147285 -0.07074991797750858 0.10044674822103418
-0.08850029624686373 -0.14366017208264148 -0.06638773835124546 0.2549470950885991 0.1611061568739243 -0.09819055435173504 0.1071795790895171 -0.08752659342614007
-0.10887701992192035 0.1087573103844489 -0.04216958629395127 -0.025196320949681758 0.012747012962135758 0.009683791433248155 0.11535595673962992 -0.0592472346681266
0.03792409272802757 -0.005610513942692822 -0.040629177714530756 -0.08980555997741864 0.022615488233920972 0.16741791333559464 0.018856995635482245 -0.052834127822413667
0.012027470887704755 -0.11877129437766407 -0.04221809433589522 -0.037836501227664916 -0.05882656079783228 -0.02017042619468573 0.08692478054873153 0.00876950417941895
-0.029032963046553437 0.10074113790958966 0.024451091839342277 0.005975758743085585 0.06264684925816733 0.17208447947665562 -0.16593391713226155 0.1343541568887137
-0.01997583700694807 0.0079330216437087 0.08302902279228064 0.040330817894086206 -0.036042884362827717 0.07001021039302656 0.1490076384813972 -0.028811072073562337
0.07777040454577604 0.13981312134104337 0.10481926128733166 0.09441326479601597 0.08732869207742473 0.012242403810797754 -0.03900944176416024 0.02466329250824103
-0.006628123867015436 0.015170615670032995 -0.08372666716569353 0.17403911706163874 -0.019728538997384065 0.08269679188987443 -0.021574410737684912 0.03437753446785279
