weights/srikar_iter_20_1_bn.pth (torch, 694056 bytes, 18 tensors)

fc1.weight f8 [256, 11]
00000000: 3c92 12dc 9a28 d33f a167 43bb da08 cebf
00000010: 0000 0080 b616 bdbf e0fc 10d4 ec21 d43f
00000020: 997a 3f75 0a11 af3f 7c69 18d2 55eb bc3f
00000030: 10dd 6345 b02e cd3f e93b 758f b04f d03f
00000040: 022a 70f1 4d4b c43f 919b ce81 4d84 bfbf
00000050: 2fb7 76bd fe96 7c3f 2766 4c53 448b dcbf
00000060: 8930 2af0 cd91 8bbf 0000 00e0 b466 c43f
00000070: 339b be6a 5927 babf ed63 150e 6f3e c03f
00000080: 7b8c f5fb 4131 c03f 18f4 0575 23e2 d1bf
00000090: 6003 05bf a7bd c83f afb9 75c1 7979 9cbf
000000a0: e4d0 4648 3bfd db3f eb38 5885 7248 d03f
000000b0: 508a dd29 b991 983f a06c 5b65 fae7 a03f
000000c0: 0000 0020 5c2f d23f 8e01 4637 c531 ae3f
000000d0: 255d eaf2 5e74 bb3f 5212 90dd 3c4e b8bf
000000e0: 1549 93c2 96f0 c63f d182 a33b d72d c9bf
000000f0: d2bd 0334 1546 a9bf b4d7 6259 4809 793f
00000100: d853 3794 e72e ad3f 0655 2f2e 90e8 a5bf
00000110: e278 3a14 be12 c9bf 0000 0060 d569 b7bf
00000120: d430 cc81 9004 d2bf 1c14 b7b2 7344 ddbf
00000130: 91ce 0b25 f2de cfbf 21cf 5d10 d219 cb3f
00000140: cc71 aca5 a01d d2bf 95ba cbcb e89b 8bbf
00000150: 783f d04b 665b b8bf b09e e0a1 f496 b4bf
00000160: f9cb f79e 8d26 d2bf c148 c440 f923 d1bf
00000170: 0000 0040 c4c5 d03f a8cc 1c5b e10c d33f
00000180: 8418 9ea5 d6c5 c33f 056e 67dc e38c babf
00000190: 951a d9fe 861b cbbf 4c39 f33d 3684 d7bf
000001a0: e6c2 22f4 2f0e d7bf 5e5d 6812 7379 c23f
000001b0: 3b83 136c 1df9 bfbf bdd4 cb13 5bad b8bf
000001c0: 4a9e 0b0f 7c90 a23f 0000 00e0 ec44 d13f
000001d0: 3eec 68d0 2499 d23f 25bb fdab 0979 d93f
000001e0: e98c b5c1 4024 c63f 2747 4f98 31da d2bf
000001f0: bc65 8312 ff6c c6bf 8c1c e436 e180 c13f
00000200: 5e1d 46c7 9e73 d0bf 7226 90b3 162c b2bf
00000210: dc37 0918 6a82 cebf 7994 fa58 14c9 cdbf
00000220: 0000 0040 131b cbbf ab95 f736 3c7a be3f
00000230: edfb 1006 424b c7bf ab46 68c8 05ba b63f
00000240: 4ead fed8 b9a4 9a3f 59a2 31ee 21d9 dbbf
00000250: 04c0 fdb6 67b4 b53f e233 8295 e8b7 ce3f
00000260: d577 7238 2bb2 76bf cdff db82 6b07 9abf
00000270: 21ae 649d 6174 a3bf 0000 0080 b270 c5bf
00000280: 569c 9a15 a227 d3bf d15a 773e 7ae9 bf3f
00000290: f5d4 ded5 4e9d 75bf 9b91 640c 992e d1bf
000002a0: 536e 7174 dc88 d53f a5e0 d441 7a06 c6bf
000002b0: cc71 595b 8e41 c63f 1c06 7297 c082 c03f
000002c0: 9e3d 8370 c282 ab3f 4b41 d897 ed59 b93f
000002d0: 0000 0000 dbd8 c13f 9c35 a80a 7952 d0bf
000002e0: d497 b7f4 6e3a b53f ad2f 7cd3 9282 acbf
000002f0: 95d3 41a7 632c b0bf 251e 99c5 ac66 c0bf
00000300: e691 c8f0 ccd1 d03f caeb 196b 0820 b4bf
00000310: 48b2 7ae9 fa11 b83f c680 a644 ce68 c53f
00000320: 0f96 9b99 453c d4bf 0000 0000 f88b cebf
00000330: afdb fc46 3a55 c6bf 1762 1557 57f2 b23f
00000340: c356 f98b f9b4 c4bf e280 e32f c642 c5bf
00000350: c1eb e4fa d264 c8bf f83a b446 7cb2 a3bf
00000360: 3307 2b10 4684 d7bf 36ab 48c6 261f b93f
00000370: a686 e5b1 2e91 9a3f 6f8f b944 a83e cebf
00000380: 0000 00a0 0925 b0bf 3386 9ff2 56ce b93f
00000390: 830b 4db8 aea4 c4bf 19bb b7cf 9813 d4bf
000003a0: 7492 b12f dadf c1bf e524 3e7f 8d8a d5bf
000003b0: 2f87 0519 72e4 c8bf 7e0f 36c8 5f52 d4bf
000003c0: 9d57 27b4 0169 b73f 79e3 692f 8876 be3f
000003d0: abe6 f73f 433c c2bf 0000 00c0 56a7 a33f
000003e0: ce9e f29d 6a08 cfbf 5d5c 3198 910a d73f
000003f0: 90af 1e13 30b8 953f 09f8 6cce d25a bfbf
00000400: 971b a3a4 bdba c8bf 2b13 9b7d eb60 d1bf
00000410: 03b5 abfe e142 6abf 58f3 3369 f942 c13f
00000420: ad54 ac8c f4de c93f dd61 9b86 46fe c43f
00000430: 0000 00e0 eb2c d2bf aadd e808 d3b4 c43f
00000440: 6ca7 a779 0950 d6bf 0a25 8722 12dd dbbf
00000450: 35c9 9b81 6c7c d43f 1b3a b5f1 3002 90bf
00000460: 9c65 9383 0ba7 cbbf ea7e f5d7 27b0 b7bf
00000470: 37ac 35df ff24 d1bf a58d aeae 7b45 88bf
00000480: 815e 7536 1392 c0bf 0000 0040 1f43 923f
00000490: a4e3 af49 8c15 c43f 94f6 0fb8 cd6e b4bf
000004a0: 65e0 a737 30ff bd3f f856 429b 5a3b cb3f
000004b0: 0d09 f8a0 be42 d13f bfbe 3ff6 a5ab d5bf
000004c0: 4780 be96 3fa6 c5bf 30fa 552c dee3 d23f
000004d0: a76b 22b5 b0a1 ac3f 2bf2 3c7c 1dde bbbf
000004e0: 0000 0020 a05b c2bf 35fa 33cb 42c2 a2bf
000004f0: 8597 b343 ec3c d63f a2b7 a2af b095 cabf
00000500: 2a76 79c3 2e54 a33f 7012 cb17 ba71 cbbf
00000510: d2ce 442b d12e c03f 4e13 82f8 c13f 84bf
00000520: ac41 a7fb a12d c93f 2ded c57b 5eed c4bf
00000530: 01ad 5fdc 22e8 cc3f 0000 0060 68cb b1bf
00000540: 73d9 a447 6891 cb3f accf 8623 8db4 b43f
00000550: 0d3c fed5 568e d0bf 35b9 3115 65d0 ccbf
00000560: fa97 40f8 bc87 d23f 2107 209c a18d ba3f
00000570: 63ea da30 1445 5bbf ed3e bfc4 2a43 d8bf
00000580: 4a79 9dc9 ab58 ebbf 6523 48b5 efa2 95bf
00000590: 0000 00a0 2e0c b53f ed7f 989c 4739 a0bf
000005a0: 79db 39a5 6480 72bf 986c 83f3 53e1 8f3f
000005b0: 8b1d e003 bd2b c1bf 5234 afe2 abb9 c73f
000005c0: edc3 ab5e 041d f0bf 6b00 1018 6d86 a43f
000005d0: e68d 0018 5d18 cf3f b3c1 1776 57e5 e6bf
000005e0: b78b e837 6077 bebf 0000 0080 efd8 c8bf
000005f0: b66b 7b6a 0cf0 c33f 5472 f5a6 5e5f aabf
00000600: 395c 36f1 0ed5 7d3f 9e45 7894 fbb5 c6bf
00000610: 86e1 85c5 31a0 bfbf e36e 4e52 39c0 e5bf
00000620: 4923 3759 f954 cfbf f381 a6bf 1186 d23f
00000630: 315f f861 7cfc d53f dc96 6762 d36b cc3f
00000640: 0000 00a0 25bd 91bf 8a25 7561 0bc1 cd3f
00000650: 3624 67ef 9ad8 c0bf a23b 8986 20fc a13f
00000660: 2e31 3d7a fc4f ae3f f3ec 0f21 8091 cd3f
00000670: a6fa 16e4 556d d53f 19a1 9a9c 83ba b63f
00000680: b81f cb6f 4576 77bf 885d 5009 3ce4 d03f
00000690: b2f7 0e32 07c1 c3bf 0000 00a0 f49a d0bf
000006a0: a3c3 e65e c869 71bf b151 f7a0 3e71 a73f
000006b0: 3661 816c cbda b43f 1b08 3c99 85d7 ce3f
000006c0: 3822 c2ce 3a0c c33f e81a 7f35 8b82 b63f
000006d0: 553d 2b37 8c88 cebf 1936 5045 8a36 d53f
000006e0: 70e8 5a9a 24c5 b93f f6ce 5c61 033b d13f
000006f0: 0000 0080 44fd cebf 5899 ecb0 9bcf c8bf
00000700: 7290 48cb aeab bdbf 73ec 832f 59b5 d1bf
00000710: f1c9 8de9 302d c9bf b5fc 7cbd df9d c43f
00000720: c7a1 db84 46a3 babf ed18 6359 611b b6bf
00000730: c190 43ba 6b87 c0bf 2834 e98e 7ced a23f
00000740: 27d2 23fb e32a b03f 0000 00c0 84e6 cc3f
00000750: 5754 6fd4 dcc8 ccbf 220c 2d4f 4ed2 cb3f
00000760: eb15 a93e b363 d23f 2220 07fb 2e8d c1bf
00000770: 9b4f 2031 9b36 cbbf a02e de23 7c53 b1bf
00000780: 76ff e57d db33 c73f c542 88e5 b8bc b6bf
00000790: 6c9e 4a16 0632 933f c99e 62d5 f547 923f
000007a0: 0000 0060 5899 87bf 83b4 6d4c 235c c33f
000007b0: 54ed 3afc 285d bebf 4dd0 56ad b1d2 a1bf
000007c0: b3b6 43d9 79c5 ca3f 642e 8000 768e a53f
000007d0: 9958 004b f326 abbf 6cfa c135 0e99 843f
000007e0: 0f29 ac34 f037 d0bf e770 6c7e 8a7f 86bf
000007f0: 4843 19ee e90e d0bf 0000 00a0 6f85 bd3f
0.2993533276697098 -0.23464521545139141 -0.11362782120704651 0.314570624443105 0.06067688637971464 0.1129659307411312 0.22798732174099046 0.25486387261929494
0.15854810990306595 -0.12311252993695933 0.006979937628256923 -0.44600017675984066 -0.013461693660495893 0.1593843549489975 -0.10216292244022611 0.12690532863305695
0.1265032272595795 -0.27942739894916846 0.19328781916740478 -0.027807142670491277 0.4373310285402694 0.254421835154871 0.023993390255223013 0.033019852516838144
0.28414061665534973 0.0589734678242194 0.10724442892602733 -0.0949438134121661 0.17921719074963308 -0.19671144878431915 -0.04936281452125581 0.006112368215488152
0.05699847873953673 -0.04278994144230279 -0.1958844755908507 -0.09145864099264145 -0.2815285937838443 -0.45730297520305085 -0.24899126824276555 0.21172548102514901
-0.28305832079948057 -0.013480967254023294 -0.09514464713015325 -0.08042839958272441 -0.2836031010075995 -0.2678206570136688 0.2620707154273987 0.2976611509104239
0.1544750508002758 -0.10371231203992444 -0.21177756732705136 -0.3674445729237916 -0.36024092522988693 0.14433134459316482 -0.12489494217471712 -0.09639519913965251
0.0362585800519893 0.2698318660259247 0.2905971560719002 0.3980125598526903 0.172981352409898 -0.2945674884223188 -0.1752013054272491 0.13674559765079086
-0.25705689869251624 -0.0709852398287241 -0.2383549325335811 -0.2326989588229116 -0.21176376938819885 0.1190526613423432 -0.18198418899734695 0.08877597944981612
0.026019004697144958 -0.43512771855470117 0.08478401391562335 0.23998744297241986 -0.005541008787217157 -0.025418929922125067 -0.03799729391388618 -0.16750174760818481
-0.2992940150238089 0.12465633416227752 -0.00527697367754353 -0.2684691067718405 0.3364783417834804 -0.17207267965728082 0.173875612835117 0.12899024386210634
0.053731991037803115 0.09902844388148428 0.13943040370941162 -0.2550337413857393 0.08292287325420428 -0.05568369704823737 -0.0631773265211691 -0.1281333889803459
0.26280520929347373 -0.07861378302361213 0.09402435493638805 0.16726091720648223 -0.3161787033153311 -0.2386465072631836 -0.17447594133565533 0.07401033283293433
-0.16177291235606192 -0.16610028589548792 -0.1905769085950322 -0.038471110945570375 -0.3674483449832337 0.09813158360399829 0.025944451911874687 -0.23628714900689426
-0.06306514889001846 0.10080474303642788 -0.16127571105070268 -0.3136961010449553 -0.1396439297560793 -0.3365815870861993 -0.19447160932309646 -0.3175277190387006
0.09144602440150469 0.1189961543804098 -0.14246407149749038 0.03838606923818588 -0.2424443503598383 0.3600200639970746 0.021210433165535003 -0.12247960605324705
-0.19319887675211753 -0.2715405203455698 -0.003205720325573426 0.13485639225828083 0.20211655491644845 0.16400987217526977 -0.2839917838573456 0.16176832137146607
-0.3486350715671651 -0.43536809322229486 0.32009422928890113 -0.015633358719521078 -0.21603530811880212 -0.09253167173801172 -0.26788327024286523 -0.011851278560988396
-0.12945785674195423 0.017834175378084183 0.1569075927543767 -0.07981572860441083 0.11717511519225494 0.21274883824360535 0.2696987697564886 -0.33860158012155844
-0.16913599834970425 0.2951579506842874 0.055921098815097374 -0.10885795863300333 -0.14342118799686432 -0.03663834314828699 0.3474684392116319 -0.2076931817622923
0.03775163780367692 -0.2144081703355769 0.1264287434838623 -0.009887233158460209 0.19670510089646365 -0.16349392932520726 0.2258342338603612 -0.06951000541448593
0.215374979956049 0.08087999455784595 -0.2586876954819111 -0.22510970625757812 0.28953479998960996 0.1037236219563309 -0.0016644189048934603 -0.37909955228404507
-0.8545741021915003 -0.021129365386545546 0.08221713453531265 -0.03168700968330982 -0.0045169764958846665 0.01556649767774436 -0.1341472882197475 0.18535374229978402
-1.0070842454990683 0.04008809012157218 0.24293101951580737 -0.7154958063602436 -0.11900903096152048 -0.1941203474998474 0.1557631988460721 -0.051508863335332805
0.007283266418560302 -0.17742867230894616 -0.12353812286699481 -0.6797148330255961 -0.24478070121974785 0.28943294254170765 0.3435355145206698 0.2220405798427042
-0.017323100939393044 0.23245374926254342 -0.1316102665862517 0.03512670175825085 0.05920399658370666 0.23100282301297845 0.3347983100356181 0.0887834794363055
-0.005728026616175379 0.26393032941401673 -0.15432825035344205 -0.2594577372074127 -0.0042512728672798065 0.04578586306493849 0.0814635410218941 0.24095220548775917
0.1488107213556462 0.08792944007937431 -0.23854210561556025 0.33145386475448074 0.10066441315112384 0.2692268801504122 -0.24210411310195923 -0.193835698498513
-0.11590092146849587 -0.2766936267868864 -0.19669162181851577 0.1610679316745284 -0.10405388587572083 -0.08635528976728653 -0.1291327151767572 0.036968128628906805
0.0631544578680595 0.22578486800193787 -0.22487984059140118 0.2173555266000174 0.2873352157515387 -0.1371210790368887 -0.21260394953480674 -0.06768012881928565
0.18127006194481127 -0.08881717304053456 0.018745513067783312 0.017852631711007292 -0.011522951535880566 0.15124932510244457 -0.11860901029551957 -0.03481059304195409
0.20915148838633044 0.042102515755769315 -0.05303154268783423 0.010057555213504453 -0.2534142031078241 -0.010985452635900518 -0.250910265463109 0.11531732231378555

fc1.bias f8 [256]
00000000: cb81 03ad a9b5 d3bf 21d0 69b1 de3c a43f
00000010: 074e 095b 0b3a c43f cc0f 6277 eb98 c5bf
00000020: 1940 3215 b4a2 a2bf 5147 370e e498 c1bf
00000030: 0ab9 cc16 c83d bebf 8954 e536 6767 b53f
00000040: 08c9 619a da64 a83f 3b0d 51c7 22f7 d4bf
00000050: aeba 24e4 ac4b d4bf dfd9 e6d8 649b ca3f
00000060: 5849 53ce e61e cdbf ed94 bb7a 4e44 b33f
00000070: efed 7dc3 768a 6c3f cf0e 2abc 5a52 cbbf
00000080: d91e bda7 dfd4 cf3f b33d 2e7c 246a cbbf
00000090: 425e f4a0 c13c cf3f cdc7 7864 3892 c73f
000000a0: e079 8142 dc5b bdbf fdb0 da01 af04 723f
000000b0: ea3e f275 bde5 b73f a45f a0b3 09ae 82bf
000000c0: 5c52 9018 6f0b 97bf 2084 ca29 22fa cb3f
000000d0: c1ff 2005 115f cfbf 972c 7b75 1b55 cb3f
000000e0: 2b9e f37e 3d92 b6bf 69b7 1c33 568b c0bf
000000f0: 089e cdf7 1685 c43f 4c9c c5b4 0724 da3f
00000100: 2433 fc30 13fc c3bf 1862 5a22 eb0f ccbf
00000110: cfc3 77a5 38d7 a23f 8275 ff0c d47d d0bf
00000120: 79cd 5993 3494 953f 4adf 21b2 5c8a c5bf
00000130: d987 f120 dbfa d03f 4dde f388 b8c6 ca3f
00000140: cef7 ad25 8212 c13f d506 9b02 73b8 d33f
00000150: 7914 68cb 99ee 933f ec10 0402 d313 b03f
00000160: 1fcd f7f7 b7f1 cdbf 3d25 b639 0095 d03f
00000170: 7bb7 adf9 d1d6 cbbf 1b21 ddf0 857b c0bf
00000180: 39f4 f11c 28be d03f 59c4 c9c3 5c7a 8a3f
00000190: 157f 6488 5b36 bbbf 0d85 7336 00d5 c8bf
000001a0: d071 fa65 3057 b73f e497 db39 2697 b03f
000001b0: 1f1e d4c5 3c2a 773f de1a b575 7419 d0bf
000001c0: 555f 5fed 6513 923f 23a0 3d04 7f20 b13f
000001d0: 41c9 41a7 ac58 cd3f d2be 0aed 3325 d1bf
000001e0: a5bd 70c0 cd99 c73f a588 7c2b f62a 99bf
000001f0: fc58 6cd8 0f54 c23f 4510 8fbc 435e d4bf
00000200: 6082 5cc4 795e c4bf 4d06 a453 1c10 b33f
00000210: 0e08 9016 5509 c03f 503c bcfa 3e67 d0bf
00000220: 4c10 cd0a 62f0 ccbf 1748 66d8 cf04 a33f
00000230: 5c89 6378 0831 bc3f 7ed2 621c f533 a03f
00000240: 3afd 2469 a554 c83f b845 856e a214 8dbf
00000250: c3a6 a0e7 98f2 d53f 1be1 b2e5 b09d c8bf
00000260: 9553 dc43 7956 d3bf 03ca 0072 a5bc d9bf
00000270: e969 63e0 0fd2 b4bf 4997 9114 26d4 c63f
00000280: 2fc0 cb69 1c14 c4bf bfdd 1974 2a64 ce3f
00000290: 7555 f7ce 188a d0bf c05a fe68 d679 d6bf
000002a0: 16be 8ed1 9ce1 ac3f 819a 9232 3eb0 c4bf
000002b0: c966 71b5 7f5a c0bf a6dc f641 d3c2 c53f
000002c0: 4657 72ae 1f46 bdbf adf9 2552 4f49 d23f
000002d0: aa88 12c7 4700 cc3f 0a8c 6ff4 78b5 d6bf
000002e0: f9cd 4da8 73ce c7bf 8434 b20b 14ad bebf
000002f0: d8a8 3434 9fb0 c23f 5261 cc89 ba42 c43f
00000300: 6d39 326e 3874 833f b42b 55a3 8f7a c6bf
00000310: 5944 8030 1b2e c33f 618d 7c17 6a37 c6bf
00000320: 2eb8 ec05 f108 cdbf a07b f42d 31c3 c73f
00000330: 1adc cbf2 fd50 c5bf 9ff3 3236 9080 c33f
00000340: 9c28 709f 267e 7dbf 9667 d315 b7ec 9d3f
00000350: 676b 394b 2436 d63f 8bde 7f67 5ba7 bd3f
00000360: 35d6 f56e c43d c03f 2175 2c3a 142f c83f
00000370: 997a 4386 cd9c ca3f 431b c48b d76a b03f
00000380: 68af c352 c6ff c73f 29f7 934b 7871 b4bf
00000390: 5abe 12d9 bfe8 d33f 3c5b b473 2cf5 c9bf
000003a0: d100 e177 51d9 97bf 81ff f1b0 e784 d0bf
000003b0: 82a6 4494 b9c0 a23f b997 cd6b 5562 cd3f
000003c0: ee6c 5fda bb8e aabf 50eb 565e 19a9 bebf
000003d0: c1e6 ea38 90c1 9abf 8a23 bf33 37fe a4bf
000003e0: 70db 9535 b546 c63f 4c39 79fa 662a c4bf
000003f0: 9800 7ebe 09d1 c53f cb35 1568 85e3 c33f
00000400: 01bd de14 cbbf c53f 84c1 d49a 84fe c13f
00000410: e8d9 322c 273f b73f 14d1 8970 823e c43f
00000420: 9c71 bb42 a594 b8bf 5504 fc8f 7305 b93f
00000430: 983e 6316 23d3 c9bf 91ad 6052 bfc9 d6bf
00000440: 87cf 13e4 f962 a53f 68f8 23f3 d286 b7bf
00000450: 2958 7cd9 2f6c a93f 9459 42d8 121c b8bf
00000460: 3bd9 0e31 c2a2 d1bf a6c9 9af9 9b73 c2bf
00000470: 852f 1a19 c1f7 a9bf ddbc c889 b26e ac3f
00000480: 5a5c a472 31fd bcbf 6889 bc8a ab85 be3f
00000490: cf62 b450 7082 d43f 369d 154d 7ce5 afbf
000004a0: b665 fa5e c020 c8bf 9b35 590f 0681 c5bf
000004b0: f9f6 22aa 5b9f c83f f389 231e 716b d03f
000004c0: fd53 95f1 2ff8 c9bf d2fa 9454 e153 c2bf
000004d0: 208f c313 28ca a4bf c0dc 799a ed60 ce3f
000004e0: 6931 c008 a852 a4bf fd46 b6ed 00e2 bb3f
000004f0: 661a 4e0d 5397 cb3f 6ced 1828 933a a4bf
00000500: c7f6 b2e5 b6ea cc3f 425e 924c 6915 bebf
00000510: a372 551b 5bde b33f 11c4 78bb fa7f b63f
00000520: 77ab f259 c3c2 74bf 6452 bac9 fbb8 cbbf
00000530: 54ee 97b0 f7d7 c2bf ea5f f4df e90d cabf
00000540: 3c47 ffa8 a30c cabf 8f8a 12c8 63f6 c0bf
00000550: 16de f2c6 cf9a cb3f 23cd 3eee fdaf 68bf
00000560: 4aaf 1105 db74 ca3f 0bc3 56d1 9b90 c23f
00000570: ba93 e3ea 40bf c0bf 401e 79f0 ab59 c43f
00000580: 504f 746c 491e c23f f969 6631 fdcc c13f
00000590: 1a38 2f10 5d79 c73f 3b3e eda4 395c bb3f
000005a0: a8da 7354 51ca b6bf 942d 485d d551 c3bf
000005b0: b013 3a85 6075 98bf eb7c 46cf 9235 b4bf
000005c0: 7e1f 4dd3 e186 c73f 4da1 055c 1ff0 cfbf
000005d0: fb0b ff27 fecd a43f 78a2 2571 072b b8bf
000005e0: 8d4a db8e e130 cfbf 65c4 a8a8 4590 c6bf
000005f0: 8f28 c9b5 1d0a a43f 1178 9c88 8232 d9bf
00000600: ba43 ab4f ff78 b6bf 43c8 49d3 3f9d cb3f
00000610: 5d45 7352 4e98 ca3f 4c69 e218 f064 babf
00000620: d514 b864 c5af cbbf 6787 dfba 2be6 cfbf
00000630: eabe ae97 37b2 93bf cffd 184a 23ca c13f
00000640: 351f 4c05 d200 d23f f7bc 9f84 3434 c33f
00000650: 8957 8dc0 9ba1 c1bf 87bd e9b0 989f 983f
00000660: 3727 ebb7 2bfe c13f 214b 990a 729f cbbf
00000670: 9b51 c6ca 2174 d4bf 8289 67c1 812e ba3f
00000680: 06ad 2c98 e353 c8bf 0b93 47f8 4944 dabf
00000690: 4597 38f6 64dd c7bf 6eb4 f7cb 71bd cc3f
000006a0: ca4f eb12 20d6 d03f f0f0 4460 940b c2bf
000006b0: 250f 8a5d 2501 b93f 8a5e 3c4e 06f1 d8bf
000006c0: b3dd 44eb abca d13f 800c c135 c495 b83f
000006d0: 2ce7 ce24 3b7d 8fbf d1d5 02a5 0c36 b23f
000006e0: 349d 8450 dfb1 a73f e22e 850b b685 b1bf
000006f0: d5ba 6993 2592 b83f 2965 bb4a bca6 a23f
00000700: ffe9 4511 7fc7 d63f 7f79 817f fa14 c0bf
00000710: 2427 8d6b 081c a43f 40c7 4c61 9daa d0bf
00000720: 2e8b 0111 c12f cfbf 1a50 9863 bbe2 c53f
00000730: 174f 14ad 36e7 c73f b952 9700 573a a83f
00000740: 3031 109e 038c c43f 290b 4897 db0a cfbf
00000750: eda9 480c 4ca7 cdbf bc99 5f9d d18b bf3f
00000760: d7b7 d25d fde5 b5bf d2ea d175 a60e c53f
00000770: 2265 068d 5f65 c1bf 33a3 f4c1 da1a b83f
00000780: 6586 edfe c189 bbbf f78e 203f 6e3c bd3f
00000790: cda3 8ad3 e0ff c8bf 55b4 9898 40ef b2bf
000007a0: 1e4f bd6b 25b9 c73f 51b9 f367 be7c a2bf
000007b0: a451 a2b6 b479 ccbf 056c 308d fd63 c7bf
000007c0: 0c83 cbc9 f02b 9b3f dfb8 4f07 e919 c93f
000007d0: 9ade 7170 db62 9bbf 16d4 01bf d225 c8bf
000007e0: fa99 efda de2b d03f 45d8 928f d156 c5bf
000007f0: 8937 539f 1369 cdbf 53da 7eaa 6985 c93f
-0.307962817152682 0.039526900441075215 0.15802137322553753 -0.16872924165011083 -0.03639757879966527 -0.13747835821282675 -0.11813021237023605 0.08360905733327874
0.047644454331832675 -0.3275839754534961 -0.3171188571895226 0.20786724654108377 -0.22750554155806912 0.0752610253944856 0.003483993492350505 -0.21345075786313436
0.248683888343513 -0.21417671264178537 0.24404163703069243 0.18414978891229197 -0.11468292831111837 0.004398997900050936 0.09334930543468159 -0.009121013445152766
-0.022504554628613213 0.21857096710758217 -0.2450886988681287 0.213534767497866 -0.08816894864468654 -0.12925221915923693 0.1603115758873488 0.4084491029120201
-0.15613021747449196 -0.21923579385180925 0.03679825801726332 -0.2576799513752449 0.021073171132639488 -0.16828497598521103 0.26531103341232903 0.20918947875155638
0.13337733115980516 0.30813288931322563 0.01946487716670162 0.06280249404159449 -0.2339391670971986 0.2590942920292781 -0.21749329272591553 -0.1287696291058261
0.26160624338791966 0.012928700184803231 -0.10629818038841805 -0.19400026949646368 0.09117414941505975 0.06480635559600462 0.005655515092491763 -0.251553645085023
0.01765212308222826 0.06690210202725715 0.22926862875790202 -0.26789568089132587 0.1843812169695244 -0.024577948002055056 0.14319036548176445 -0.318253454341406
-0.15913316810567135 0.07446457902917665 0.12528480149927684 -0.25630163656109506 -0.22608590628999747 0.037146086851081055 0.11012318553142592 0.031646403994646896
0.19008319505699395 -0.014199513433285613 0.3429319631564846 -0.19231234756240032 -0.3021529352857269 -0.402139054614196 -0.08133029201727705 0.17834926609355709
-0.15686373868766298 0.2374318186664208 -0.258428766360644 -0.35118637326506175 0.05640878732753778 -0.16162850827568678 -0.1277618061019921 0.17000809403336808
-0.11435125359488749 0.28572447798060346 0.21875855655986715 -0.3548262011592561 -0.18598790853467032 -0.11982846532392172 0.14601507233721267 0.15828639725146815
0.009499016631050872 -0.17561526751737022 0.14984454982962594 -0.17356611391833623 -0.22683537282267835 0.18564429038903274 -0.16653417926110664 0.15236094137608533
-0.00720038497002853 0.0292233092376147 0.3470545515644318 0.11583491589396482 0.126884988956293 0.18893673744688846 0.2079102426132138 0.06413027918106899
0.18749312440138088 -0.07985641331830763 0.31108089636379577 -0.20279460572847963 -0.023289940778568777 -0.2581118801099294 0.03662662444032795 0.22956340564559044
-0.051870222479658654 -0.11976774743281493 -0.02612901065251694 -0.04100201136277011 0.17403283230279554 -0.15754401426461084 0.17044183541657243 0.15538089353724013
0.16991556662603816 0.1405797725688097 0.09080738858288095 0.15815763945614292 -0.09601815108493955 0.09773943200345177 -0.2017558917345823 -0.356063681075022
0.041770752994039255 -0.09190100132033907 0.049653525637197334 -0.09417836932911988 -0.2755589942056706 -0.14415311515547308 -0.050718340219730464 0.05553205425200656
-0.1132384209525851 0.11922714364167109 0.3204613483554057 -0.06229771080944106 -0.1884994949112248 -0.16799998998105256 0.19236322219324345 0.25655773108715535
-0.20288657470760532 -0.14318482046106468 -0.0406048320890291 0.23733301203512802 -0.03969311816044547 0.10891729167476778 0.2155555548635732 -0.03950939049215205
0.2259129163339166 -0.11751421088626393 0.07761163155869126 0.08789031102129764 -0.005068553057905648 -0.21658274984351344 -0.14721580622414143 -0.20354960856707233
-0.2035107207471415 -0.13251921910439932 0.21566197599689535 -0.0030136069853711352 0.20669114825738638 0.14503810617090837 -0.13083659619510773 0.1589865612206598
0.14154928012487256 0.13906826889144933 0.18339122095352495 0.10687599445849909 -0.08902462302999459 -0.15093485884459013 -0.023885257846376795 -0.07894246635850137
0.1838037759537165 -0.24951545708905556 0.04063410032497213 -0.09440657150629217 -0.24367923236294012 -0.17627783522906096 0.03913967937531126 -0.3937078794568843
-0.08778377242130278 0.2157363683396075 0.20777300859348716 -0.10310268981485143 -0.2163016073028873 -0.24921175598779685 -0.019234532006236295 0.1389812576107787
0.28130007283515407 0.15003067470340856 -0.13774439718207201 0.02404631213943056 0.1405691764869574 -0.21580338971633586 -0.3195881347867499 0.10227213832653173
-0.19006009035488364 -0.410418026409659 -0.186443920350195 0.22453138789515797 0.2630691704518965 -0.14097838116311534 0.09767373593973312 -0.38971097603050764
0.2779950902508645 0.09603525459628948 -0.015375577984616827 0.07113722828474713 0.04627893312345535 -0.06844651967292806 0.09598002289724701 0.03642834102874765
0.3559262913401255 -0.1256402132593841 0.03927637398608244 -0.2604134988970266 -0.2436448414838081 0.17098181117091898 0.1867435784448552 0.047320097753674024
0.16052289216930538 -0.24251885306156254 -0.23166800117299094 0.12322721569180478 -0.08554061451533755 0.16450958970002333 -0.13590616594300636 0.09415976748699677
-0.10757076715301535 0.11420334855261759 -0.1953087838094504 -0.07396320081234482 0.18533771286694728 -0.036107969464739605 -0.2224641696708548 -0.18273896593095187
0.02653480750712149 0.1961032186222331 -0.02674429773148166 -0.1886542732860625 0.2526776445432969 -0.16671199331693934 -0.22976918487114187 0.19938393425919063

fc21.weight f8 [128, 256]
00000000: 03d1 af5e 6883 a13f 005b 5f02 11f6 a9bf
00000010: 397b 7ce3 aaa8 5a3f da5b 54c8 5a17 c2bf
00000020: b2ef 94c9 1234 a53f 4249 5ff0 878c aa3f
00000030: b0bf 6328 a431 c13f 7ca9 05d0 b26b 9abf
00000040: dc7e fa1e 8067 d9bf b026 c8e0 5dcc 813f
00000050: 1151 004f b112 b83f 4a23 bc0e 3630 aebf
00000060: 2849 b851 52c8 cabf 8fc2 bd4b 0814 adbf
00000070: e77a 561a 1ba8 babf 9a3c 3b68 d03d 883f
00000080: c815 e005 d802 88bf e0ac 309f 581e d03f
00000090: c1d7 e377 e9d0 833f f4b2 9cb8 ff15 acbf
000000a0: 58f0 4411 019d c13f 467e 65d0 1b62 cabf
000000b0: bf16 72f0 612a 753f 0b92 5406 1502 94bf
000000c0: 08f7 7aa9 5642 b83f 0f61 cf6f 44c9 a3bf
000000d0: 0cfa 30cd 03a6 bebf bfdc 7248 5052 6abf
000000e0: 699a 5ae5 c52e 863f fbda 1bce 0284 cd3f
000000f0: 2680 fc15 765a a3bf 7b57 d332 cb60 c1bf
00000100: 65fd 9955 b78c c03f 3f27 0725 257d cdbf
00000110: 2247 4f27 ee62 b13f 2a65 e13e 89a3 c2bf
00000120: 57b9 64c2 289e 813f 631c c2bd e001 a73f
00000130: 5b14 3478 89c8 93bf 8a9a c43f 925e af3f
00000140: a901 14d3 64c9 b3bf ff02 7235 aa36 babf
00000150: a405 1ef5 19e7 b53f 6cd7 c6a9 2268 c3bf
00000160: 2e94 14ab f951 c13f 8d6e bc70 7341 b8bf
00000170: 9f35 f428 15ab 8d3f 6115 d27c d4b2 cc3f
00000180: 360a 35b4 0023 b7bf b4a2 9bee 6e83 90bf
00000190: 2d27 8ca2 1adf babf e544 421a 825e b1bf
000001a0: dcf4 8ef8 7884 ae3f f418 d61f e08f 983f
000001b0: f9f1 553c 974a 9c3f 5fa4 dc2c 30b7 a13f
000001c0: 8dc1 3466 b1ac c0bf 8fa0 df80 6720 b4bf
000001d0: 4f0e 14a5 ad8c 823f ae27 d08c 6772 c83f
000001e0: 251f a9db dffe a23f 14cb a850 ad30 b63f
000001f0: 10e7 1cf0 d75d a93f 35fe 614c 941e 9b3f
00000200: b4c7 0bf2 3c45 a2bf 81d7 f1f4 56ac a63f
00000210: 29be c208 b60f a7bf 8d71 9b31 ac49 af3f
00000220: 7fdd b084 83be c8bf 7a65 8413 f450 a9bf
00000230: 128c e4d9 975f 70bf 1452 7151 248a bd3f
00000240: 7abb 8cf7 2c87 a53f aa17 ebef 6c20 d4bf
00000250: f744 8df4 2980 b43f 0268 d05e b424 ab3f
00000260: a6d1 ddec c169 c6bf c719 67c2 33bd bd3f
00000270: 0825 5eca 58cb 973f 39a4 a989 34a4 aa3f
00000280: 0d78 b5cb b505 c0bf 23cd 3543 204b 973f
00000290: 3306 420d 0dfd bfbf 46d1 2e30 264e 9d3f
000002a0: ecf7 d9cd 6457 abbf 1ca1 42e6 a55d b03f
000002b0: 1107 a5b3 30af 883f adb4 a18e d716 89bf
000002c0: 820c dc27 02cf c3bf 2591 0e21 b063 b5bf
000002d0: 8f5c 6d83 f7b0 923f 2b59 86a5 135f a4bf
000002e0: 2828 0168 c47e a83f 6dd0 eb3d 66a3 9bbf
000002f0: b6d5 87b4 b570 c1bf ef28 00e4 265d a83f
00000300: b670 6612 1e68 b4bf 55f8 c9b2 3397 c13f
00000310: e80e c3ae 2a23 91bf 6927 a24a f492 c13f
00000320: 5b42 f57f 1b13 b9bf 868e 54a4 6791 883f
00000330: 4532 387c 378a bc3f 21e5 ff08 f1af bfbf
00000340: 7fb5 edf1 3e59 48bf ab7f c1cb a34d be3f
00000350: 0d0f deb0 b320 bdbf 63e9 2828 cca3 ae3f
00000360: 3ee8 64d8 425f bbbf 9fab f8fc e862 91bf
00000370: 5aaa 3bb8 d68e 9dbf cd29 2579 43ca a43f
00000380: 5adb 1542 8f22 9e3f e236 b64e 0df4 c8bf
00000390: cf1e 1ff0 ba3f 7cbf fbe6 4439 8c02 a13f
000003a0: 3b6f dc60 bfb0 be3f 0c5b 7baa ceb6 b6bf
000003b0: 437f f797 4405 953f 5089 3778 7bfd 8ebf
000003c0: 6e96 799e b781 803f bf83 5345 4c6b 84bf
000003d0: 26a7 1f25 400f 903f a624 9093 016e c13f
000003e0: 1e42 4b4a b178 ab3f 6c63 3504 985e a53f
000003f0: 78cb 6213 d008 5e3f 69bc 6424 57b2 b23f
00000400: 29d9 66ae 9e4a a33f e5aa dfc4 31fb cfbf
00000410: 9c67 c115 39dc c73f d594 dd9c cee5 a1bf
00000420: b9dc 0499 77c4 c6bf 0291 0270 0518 8d3f
00000430: 3a2b 45f2 51fe b03f f589 35f3 e876 95bf
00000440: bced 4a41 a0e8 be3f fc10 0d98 bc7f a13f
00000450: a4bd 0b2a 2ddf 6ebf 1566 440c 768c c3bf
00000460: adf1 49c4 52bb 903f 91ab cfcc 1364 653f
00000470: ab88 b3b9 c805 a53f 8998 2b7f 21ca b43f
00000480: 8755 33a4 5d4f ae3f f7d7 e552 6168 b23f
00000490: 96b0 3f4b e15c d5bf 82ec eca8 d370 d03f
000004a0: 5890 a49d fb2c a5bf 7b6c 909d bb1d 81bf
000004b0: 50aa 98fd 942d afbf f36b 0757 9c28 8fbf
000004c0: e9fa d9b5 31c6 aebf 84ce 4926 8e15 ac3f
000004d0: 3f98 b469 f5e5 b13f b480 61f4 2187 c6bf
000004e0: ff8b 25e6 155d a73f 526b efaa 995d a7bf
000004f0: fbed 0812 ae50 b43f cf77 9214 e1ab bbbf
00000500: 0378 acd6 934e 90bf e0c2 210b b646 b73f
00000510: d90a 64d2 64ad adbf 90f5 c600 0897 3b3f
00000520: 0c5a 0438 54f0 9b3f 233b 21ca 2693 8f3f
00000530: 643d 670f 0121 51bf e864 74ec 31f6 8c3f
00000540: acfb 830b 53d9 81bf ac6b 186d 8ea9 7dbf
00000550: b719 c17b f9ff acbf 5d3c 0512 b9d2 a73f
00000560: 7d99 ff0b bf68 92bf fa25 412d 9334 953f
00000570: dd23 b7ba 65fb 9cbf e612 3047 c97c 97bf
00000580: 3923 73c7 39fd ba3f f4d3 a9c4 9cc0 993f
00000590: b8ae 950a a4fc be3f ed02 c2d9 f444 b23f
000005a0: 684f 3802 dd43 c23f fe41 d341 844d 943f
000005b0: 380f 1cb0 6387 87bf 22e8 3397 017f babf
000005c0: 78b4 939e 2ea3 c43f 1684 dd71 6f01 af3f
000005d0: e796 1327 d18a acbf c743 3a75 5480 b23f
000005e0: 6153 281b 2e98 843f 983c fdca b55b b0bf
000005f0: 5e7d 0775 9b84 a03f a1ab 8f2b 4043 ad3f
00000600: f519 df73 381b d1bf 32c4 6b13 edde a73f
00000610: ba8c 6bb6 b3b5 923f 884e b46e ca09 c53f
00000620: 75e0 7b4b 53f4 d2bf 1416 2421 1f18 cb3f
00000630: 845e d0ec fadb b1bf 412a 1b84 6689 b7bf
00000640: 30c5 80b3 fe7f 963f 7830 26f5 89da c13f
00000650: 4692 ef39 fc57 a03f b37c 4d6d 5df8 b03f
00000660: 9c65 8f7a bc25 903f 1607 3e38 dcc3 973f
00000670: b758 276b 59ab 463f 7c85 5372 a703 923f
00000680: 8d34 85ba add3 b13f 14d1 b493 0bec bd3f
00000690: dfb3 32cf 418f c13f 5050 f22e ed39 933f
000006a0: 8161 d2d2 90f0 ad3f 0d5e 28f1 db8c b23f
000006b0: c5ea d957 72e4 93bf 0d1d b42c 9778 a73f
000006c0: 3b41 a409 404a 933f ff80 f152 f17b b93f
000006d0: bc93 db38 398f b53f 6752 3f6e e1c6 c3bf
000006e0: 4e1c af82 e69d 963f 0801 853a 5494 c5bf
000006f0: d9c4 8260 b922 7e3f 5f51 1339 3064 adbf
00000700: 381b 05ed e4bb a2bf 92b6 8033 1b16 993f
00000710: c716 9f9d 4cc7 c8bf 6e7a 7370 a514 c9bf
00000720: 9f62 d23e dd26 c6bf 8f1c 8596 8899 b4bf
00000730: 1c34 78dd a662 afbf 7c0b 11b9 bbb4 a9bf
00000740: 4f38 b392 f8af b23f 5bbd ce7a b965 c63f
00000750: 273c 228c df75 84bf 16d8 a3aa 42d9 d0bf
00000760: c09d 60c7 8909 a13f 094f 5171 328e b03f
00000770: 98f0 a91b aa1e 703f 702e 67bc 56c5 c0bf
00000780: e945 9501 b463 61bf 121b 8ca3 0c13 a4bf
00000790: aae6 f06e bfff bcbf a8cf 1273 7ba6 9b3f
000007a0: 341c 512e 97e8 94bf 1355 ea5d 1a00 b13f
000007b0: 274d 313e e55f b8bf b7b0 d0a1 4e25 af3f
000007c0: 374b df5e 58f6 d6bf cac9 573d f7ed b3bf
000007d0: 473a 884b ed4d b33f 6d28 dd3b f18a c5bf
000007e0: fd79 1c89 5f4f a43f 80a2 185f 7514 44bf
000007f0: 71a7 fc87 ac53 a63f 9cc5 7f47 bdf0 b83f
0.03420568614811439 -0.05070546297036138 0.0016271275362169226 -0.1413377264186398 0.04141291342463606 0.05185341653090571 0.1343274304595048 -0.02580146212259525
-0.3969421675228497 0.008690579817101834 0.0940352266191591 -0.05896157197827863 -0.2092383288405213 -0.05679346012664609 -0.10412759202015885 0.011836651020898526
-0.011724174193669237 0.25185218377983 0.009675811740162634 -0.0548553383690428 0.13760388701655546 -0.2061190383492308 0.0051673722983928685 -0.019539192687391387
0.09476224553779045 -0.03864492287510945 -0.11972068557313537 -0.0032130783107181256 0.01083139997656453 0.23059115470797295 -0.037799539741399976 -0.13576641065327152
0.12929431609880307 -0.2303816252518178 0.06791580638607944 -0.1456157261880347 0.008602446014802352 0.04493620220551333 -0.019319675408969377 0.061268396648576376
-0.07729177621150164 -0.10239661984270397 0.08555757746036946 -0.15161546029929285 0.13531418660673594 -0.09474870207162152 0.014486470520320092 0.22420745939977407
-0.09037784957494285 -0.016126378358338925 -0.10496679752773437 -0.06784833088956395 0.05960443529282042 0.023986341422209415 0.027628291184997853 0.03460073993330392
-0.1302701710751645 -0.07861945053412199 0.009057385063449134 0.1909913480342857 0.03710078770069306 0.08668025225851422 0.04954409414354022 0.026483838235888697
-0.03568449453986436 0.04428359737441579 -0.045041740960524664 0.06110895257527025 -0.19331401804968704 -0.04944575060126062 -0.003997414749650667 0.11538912762018355
0.042046933382485954 -0.3144790976478996 0.08008062572959661 0.05301440865896724 -0.1751024633955584 0.11616824623261045 0.023236644126460454 0.05203403644993227
-0.1251742596313651 0.022747520544226362 -0.12495500158004162 0.0286184279354569 -0.05340113652071907 0.0639289557608475 0.012052898866957958 -0.012250598945877956
-0.15475489565151085 -0.08355236823132779 0.0182531999556344 -0.03978787799421676 0.04784215707384504 -0.026990506677023896 -0.13625212969752248 0.04758569272242307
-0.07971370648596374 0.1374268172257326 -0.01673571292555112 0.13729718822679196 -0.09794780611015012 0.011996087744200478 0.11148402006819776 -0.1237784049007087
-0.0007430608128353027 0.1183721897555176 -0.11378024166156937 0.059843425657578185 -0.10692231925068627 -0.016978874626299875 -0.02886519908399019 0.04060564855406632
0.02942870941975726 -0.1949478754362906 -0.006896715380157749 0.033222562781203245 0.1198844539143779 -0.08872691785959946 0.020527908110920434 -0.015131916624288394
0.008059916042110173 -0.00997027956549512 0.015683176294181277 0.13616962151744366 0.053655186003769936 0.041737318528879935 0.0018331558217538884 0.07303375853074247
0.03767867926528574 -0.24985334504102422 0.18640817224769257 -0.034956413887621864 -0.1778707024729778 0.014205973130011266 0.06638061680602628 -0.02096141800337566
0.12073709100780311 0.03417767864314844 -0.003768528186234925 -0.15272403334601906 0.01633958170940424 0.0026111971587758427 0.041059754055610874 0.08120927195304452
0.05919926289940763 0.07190521501419754 -0.33379394863619305 0.25688640114430694 -0.04135881709433481 -0.008357492204643649 -0.060894638020120184 -0.015214177518762617
-0.06010585160128363 0.054851953672280934 0.06991514044474999 -0.17599892075214074 0.04563206133277475 -0.045635988346211534 0.07935607853226394 -0.10809141876458671
-0.015924749353068545 0.09092271587156686 -0.05796351497885661 0.0004209894694005784 0.027283969801908767 0.0154173880038378 -0.0010454664567197342 0.014141454723857597
-0.008715294636656733 -0.007241779663241948 -0.05664043079063979 0.04652956337906098 -0.017977700335813907 0.020708369862665756 -0.02830275489921862 -0.02293695923801211
0.10542641753557981 0.025148820403462183 0.12104249246993504 0.07136469189027723 0.14269602402111592 0.01982695247426313 -0.011488703548372933 -0.1035004610202184
0.16122992270485148 0.06055782570798145 -0.055746589679797336 0.07227065908433793 0.010055885509282882 -0.0638993855074993 0.032261713062093675 0.057153706853419146
-0.2672864085729139 0.04662266599724098 0.018271263131180084 0.16436129003033195 -0.29616243716691965 0.21167363279543905 -0.06976288110342393 -0.09194031453368103
0.021972636896127884 0.13948177786039984 0.031921274254078244 0.06628974836847838 0.015768952351071883 0.023208084995991994 0.0006918131460291942 0.017592064240380165
0.06963620952338286 0.11688301426039899 0.1371843587598098 0.01877565955199173 0.05847599576481156 0.07246184003485485 -0.019426142322553703 0.04584190769861083
0.018837929333188824 0.09954746508583766 0.08421666753890994 -0.15450685389682237 0.02208671734458916 -0.16858914239310985 0.007357334259880243 -0.0574050016090577
-0.036589769299601504 0.024498391169052676 -0.19358213135108412 -0.19594257345939375 -0.17306104247542906 -0.08046773600391276 -0.06129952863202723 -0.05020701059449714
0.07299760419411537 0.17497938629592621 -0.009990450347940506 -0.2632605234533697 0.033275895679533374 0.06466975466292636 0.0039354939314045975 -0.13102230262153425
-0.002122737478807525 -0.039207835163372576 -0.11327740152855861 0.02700226678707876 -0.02041851253695999 0.06640782158713802 -0.09521324890493031 0.06083150601657066
-0.3587857176291211 -0.07784981963758422 0.07540782064482086 -0.1683026830963316 0.03966806935044429 -0.0006127904036406645 0.04360713157650665 0.09742339130004612

fc21.bias f8 [128]
00000000: bee3 4b6c 56d1 babf 37ba 0eee e14f a93f
00000010: 2151 9d18 bb00 9e3f b1c9 1d19 c6c0 9d3f
00000020: 89d8 c2f7 2c1b a93f 6693 3b20 612a a1bf
00000030: 945c 074e 4e55 763f 132c 0ecf b1a3 a2bf
00000040: ae9c f1a4 0505 9fbf 664f 67dd a4fa 843f
00000050: 8b0f 9df0 2f32 b83f 0241 3f87 2257 823f
00000060: d6d7 80e2 3560 65bf 7fd4 adc5 9817 743f
00000070: 866b adf4 b2af a6bf 2f27 4f50 b972 b33f
00000080: f0ae e3e8 dd49 a0bf 8a39 c42a 4db8 9fbf
00000090: 819d 2714 e06e 68bf 37f6 ff78 4143 c4bf
000000a0: 17fc 924c 56a8 9c3f 0a95 7ee5 cfb9 87bf
000000b0: b82c 7c2a dc44 99bf f22c 2b23 3bca a03f
000000c0: 011e 7e2b 3291 a0bf 069d 0e41 d389 d3bf
000000d0: d29c 6c81 c458 863f 04be 63ef d073 85bf
000000e0: a153 0827 b64b 91bf afc7 0532 fc49 aa3f
000000f0: a42b d96a 7793 8cbf 19a0 a75a c46b 933f
00000100: 0067 664d 612c 99bf 160d b2d8 e72a b53f
00000110: 2d31 a6b6 5899 a4bf 82ca 02a3 cb4b adbf
00000120: db75 9f04 b852 a8bf 95c0 4ed4 e112 abbf
00000130: c66f fee5 547f a43f 25a4 6eeb 2096 b4bf
00000140: 1eae da14 2ae7 b03f 679d a404 8a43 adbf
00000150: a151 98b7 2c8b a03f aba2 10aa fa3c adbf
00000160: 0755 1542 cbb2 a33f 26bc 1749 9f32 6bbf
00000170: 27ed cc28 3b16 a83f e2f0 92ca ee1f 79bf
00000180: c2fd 04ef 11b6 903f 276b 45c4 e486 90bf
00000190: 2a83 2603 65da 70bf 6a57 4a95 23fb a9bf
000001a0: f8d8 f964 9de8 a33f 4ab7 c66e 871f 81bf
000001b0: e611 b35d b503 b53f 9da4 ff96 7bb1 82bf
000001c0: 3132 89f6 3151 a0bf 38cc 5f82 18bc a5bf
000001d0: 88bc 368a 7dd4 b0bf 711b baca 896a 77bf
000001e0: 2a28 81d9 d3ca b9bf 03ee e62e 31f1 aabf
000001f0: 8bce 4558 e61a a2bf 750e 34fb 789c 7c3f
00000200: b34f 0616 3456 a5bf a985 5cfb 40df b0bf
00000210: c00e defb a68f c8bf d1bc ac8f 1a90 8abf
00000220: 1446 1d2b 7f94 aa3f eadd 1448 8d25 a13f
00000230: d73d 3742 33a2 613f 964d 7381 e0fb a4bf
00000240: 9293 dcd7 5d2f 73bf 7c16 43cd c6df 91bf
00000250: 7bcd c878 9548 ab3f 4f92 7056 9eaa a1bf
00000260: ae24 eddd a7cb ab3f a535 2d2d a795 a7bf
00000270: 69cb e7e8 8a1d b2bf c7ea 7118 2526 a8bf
00000280: bdc5 5658 0b42 acbf 82e0 07d9 498b 6abf
00000290: d2b7 fbb2 0735 783f 3291 7c53 07ac 223f
000002a0: 0ce0 f5d0 d9b8 babf b2f3 3360 883a a53f
000002b0: ecc7 8666 57af a4bf c108 dda2 3eba a73f
000002c0: 9169 9577 3881 a7bf 786b 3ba6 9e23 b6bf
000002d0: 47a8 6320 c5f6 64bf fb4e b6d3 35ea 783f
000002e0: 4429 88c6 9b5f 9fbf 7aba 8b54 5be6 afbf
000002f0: 522e e1b3 2c4d 88bf 1094 85ac 8094 9abf
00000300: 4930 784f 1d1c 65bf e249 b584 5cbb b0bf
00000310: 2f2e 0916 ec32 943f f0fb 40fd d41e a73f
00000320: e518 721b e84c bfbf f273 1070 c5a2 aabf
00000330: 2fac 785f a73c b4bf 97fc 6a9b e2cb a7bf
00000340: 50d8 67db cb3d c7bf e5a3 c54a 3292 a2bf
00000350: a5b8 aa45 b5cc aebf c4c0 efb0 9a04 94bf
00000360: 08ab d07a aa01 a7bf 5c48 9d52 2e1b 923f
00000370: 0a14 2ff7 629b a3bf 1d50 b980 1d24 adbf
00000380: 83eb 051e 8aea 8d3f 6f73 f8a9 6237 c0bf
00000390: 3fe1 27ac df3d 993f 3284 db19 f338 943f
000003a0: 5ee8 f4cb 04fb a2bf d890 c061 4678 babf
000003b0: 7760 632b d19b 9cbf e850 c3e2 ac31 c4bf
000003c0: 9a5e 7e21 1dd9 6dbf fc8f cd15 9610 993f
000003d0: 6bec e246 53a5 85bf 1903 be33 8e2c aabf
000003e0: e846 b578 7cc0 8f3f f437 8b09 0461 99bf
000003f0: 1a15 cac9 03b2 963f f887 42b7 38fd abbf
-0.1047567381282439 0.04943758040404982 0.029299662949896835 0.02905568626688088 0.04903545879771893 -0.03352645414796633 0.0054524477750056595 -0.036405140424072745
-0.0302925950931267 0.010243690497112556 0.09451579689362981 0.008955259087003235 -0.0026093532979087715 0.004905316130011105 -0.04430922734055458 0.07596929751084923
-0.031813559225921995 -0.03097649167562503 -0.002982556966560857 -0.15830248268314204 0.027985905097690358 -0.011584877196421779 -0.02467674264248096 0.03279290012650361
-0.03235775738636094 -0.3052871833155709 0.010911498260226447 -0.010474808030692458 -0.016890379078251198 0.05134571180941749 -0.013953144977809924 0.01896578601181895
-0.02458335909759679 0.08268593826692369 -0.040232441230815354 -0.05721889843825513 -0.047506094517057305 -0.05287843433996035 0.04003396327536239 -0.08041578052383665
0.06602728852401937 -0.05715590769460271 0.0323118185152993 -0.05710585905064155 0.038473464791119176 -0.003320036987808378 0.047044609766510974 -0.00613396909573913
0.01631954213484988 -0.01613957832283144 -0.004114527301141627 -0.050744163488316854 0.038884085251014555 -0.008360918110010513 0.08208783662400485 -0.00912758402405905
-0.03186946997138696 -0.042450681605167906 -0.06574234604225826 -0.005716837167375797 -0.10075115261238979 -0.052621399855947736 -0.03536147906825445 0.006985161383684981
-0.0416733052144588 -0.06590658318284305 -0.191883919698844 -0.012970168599706263 0.05191419030473923 0.03348962311650523 0.002152538408814779 -0.040984168817568875
-0.004683844161068944 -0.01745520236797525 0.05328814601343886 -0.03450484090015903 0.0542881449133089 -0.0460636370322434 -0.07076328455131677 -0.04716602252388707
-0.05519137814861661 -0.003240246042192808 0.005909948420351046 0.00014245595388574225 -0.10438310004781232 0.04146219419815313 -0.04040024878067058 0.04634280908659739
-0.04590774974595314 -0.08648101385499085 -0.0025590753676754427 0.006082735311242034 -0.030638154976295753 -0.062304357595952944 -0.011865948905458588 -0.025957117586035194
-0.0025768825978556326 -0.06535890808053282 0.01972550281997892 0.045157104410911475 -0.12226725263653611 -0.05202309601757084 -0.07905050354808972 -0.04647739550773016
-0.18157337392011863 -0.03627164042229206 -0.06015554881501942 -0.019548813866948192 -0.04493458508689768 0.017681812088376922 -0.03829488055593096 -0.05691616245590601
0.014607504883988437 -0.1266902284559381 0.024650092012934662 0.019748495534148876 -0.03707137098031475 -0.10339774977234428 -0.02793814494438648 -0.15776597092065647
-0.0036435669862376454 0.024477334099529444 -0.010569239235669955 -0.051121181312742965 0.01550385707256248 -0.024784148294933986 0.0221634475624529 -0.05466630208071871
